exp/data_checkpoints/Model_hs1_bs32_e1/checkpoint.pth (torch, 100025 bytes, 114 tensors)

inv_timescales f8 [1]
000000 00 00 00 00 00 00 f0 3f
       1.0

blocks1.SCINet_Tree.workingblock.interact.level.phi.1.weight f8 [1, 1, 5]
000000 8a 0e d3 cb 9b 6f c2 bf e0 20 b7 1f af bb e0 bf
       -0.14403102352490676 -0.5229106540146198
000010 05 f8 6e ef 75 44 99 3f 3f 4f 91 ae 67 ce c9 3f
       0.02467521928678453 0.20161148093995426
000020 75 1c 71 ba 44 36 c0 3f
       0.1266561422691869

blocks1.SCINet_Tree.workingblock.interact.level.phi.1.bias f8 [1]
000000 89 ad d8 19 5d 78 b1 bf
       -0.06824285393729758

blocks1.SCINet_Tree.workingblock.interact.level.phi.4.weight f8 [1, 1, 3]
000000 ba ea 6c 29 3e a6 a9 3f 9d 21 be 4d 56 c0 c8 bf
       0.050096457058733404 -0.1933696632006673
000010 45 eb 8b b5 dc 44 c8 3f
       0.1896015058954054

blocks1.SCINet_Tree.workingblock.interact.level.phi.4.bias f8 [1]
000000 b6 fd 40 58 34 6b e5 bf
       -0.6693364833553719

blocks1.SCINet_Tree.workingblock.interact.level.psi.1.weight f8 [1, 1, 5]
000000 02 92 01 b8 42 23 b4 bf 66 c3 55 ee c0 a1 bf bf
       -0.07866303436600933 -0.12356191462255381
000010 0e f0 28 0c ea a3 d2 bf 6a 68 8d 6b 9c d2 cd bf
       -0.2912545317410612 -0.23298983813839708
000020 6d c3 12 f6 70 d2 cc 3f
       0.22517215743348676

blocks1.SCINet_Tree.workingblock.interact.level.psi.1.bias f8 [1]
000000 91 e2 15 ae 38 8b ca bf
       -0.20737370014446246

blocks1.SCINet_Tree.workingblock.interact.level.psi.4.weight f8 [1, 1, 3]
000000 b0 f8 06 e8 84 e5 c4 bf e9 1b 34 ef 1d 10 db 3f
       -0.16325436906294533 0.4228586994144608
000010 ae 62 cc 74 73 22 cc 3f
       0.21980136111303267

blocks1.SCINet_Tree.workingblock.interact.level.psi.4.bias f8 [1]
000000 88 c1 62 7b 25 8b e3 bf
       -0.6107356462362512

blocks1.SCINet_Tree.workingblock.interact.level.P.1.weight f8 [1, 1, 5]
000000 7a 98 7b f4 0d 03 c4 bf 4f 14 2f 27 ec a1 c5 3f
       -0.15634321630131237 0.169003981716886
000010 cc 9a 59 93 1f 2e d1 3f de 2e 2c df 9c 8d d2 bf
       0.2684401453938505 -0.2898933581752611
000020 f5 52 70 9a bd 05 c6 3f
       0.1720501903625046

blocks1.SCINet_Tree.workingblock.interact.level.P.1.bias f8 [1]
000000 1f d5 cc b6 e8 9c bd bf
       -0.11567549193280911

blocks1.SCINet_Tree.workingblock.interact.level.P.4.weight f8 [1, 1, 3]
000000 0e e2 e8 e9 4d 97 b9 bf 8d 49 f3 d6 08 75 e0 3f
       -0.09996497116743105 0.5142864416359757
000010 5c 30 5e 6f d7 0c 92 bf
       -0.017627111599310616

blocks1.SCINet_Tree.workingblock.interact.level.P.4.bias f8 [1]
000000 43 05 6e 99 e2 a4 db bf
       -0.4319387911164833

blocks1.SCINet_Tree.workingblock.interact.level.U.1.weight f8 [1, 1, 5]
000000 fc a8 05 1a 69 af c7 3f c6 7e 26 63 9a 12 d1 bf
       0.18504060526476696 -0.2667604416146613
000010 c0 fa b6 2a 39 1a d9 3f 2f 14 1a 8f 03 cb d2 bf
       0.39222554370273244 -0.29364098524848975
000020 41 b3 f9 e0 70 89 d3 3f
       0.30526372881177016

blocks1.SCINet_Tree.workingblock.interact.level.U.1.bias f8 [1]
000000 33 4c 4e 7f 6a d0 d5 bf
       -0.34084570343219694

blocks1.SCINet_Tree.workingblock.interact.level.U.4.weight f8 [1, 1, 3]
000000 42 30 4c f3 ed 00 cc 3f 4b fb 5c 09 28 d1 de bf
       0.21877836589590244 -0.48151589311958237
000010 69 64 23 a4 19 9f d3 bf
       -0.30658570317388595

blocks1.SCINet_Tree.workingblock.interact.level.U.4.bias f8 [1]
000000 ec e1 3e 92 b6 ea c3 3f
       0.1556003774728788

blocks1.SCINet_Tree.SCINet_Tree_odd.workingblock.interact.level.phi.1.weight f8 [1, 1, 5]
000000 6b b0 c4 6f ad b1 d1 bf 21 1f 51 f3 41 3f 9f 3f
       -0.27646957316279125 0.030514746166118493
000010 3c ad cf 54 de a9 b1 bf 64 cf ae 76 41 59 c1 3f
       -0.06899823732935756 0.13553636832295546
000020 e8 b4 ac 6b 03 19 c0 bf
       -0.125763347220903

blocks1.SCINet_Tree.SCINet_Tree_odd.workingblock.interact.level.phi.1.bias f8 [1]
000000 a0 a9 7e 2a 24 e7 b5 bf
       -0.08555818593473541

blocks1.SCINet_Tree.SCINet_Tree_odd.workingblock.interact.level.phi.4.weight f8 [1, 1, 3]
000000 5e 27 11 71 3e 01 cc 3f 15 32 24 dc e2 cf 92 bf
       0.21878796120500515 -0.01837114781032952
000010 b9 42 b8 03 59 11 cb bf
       -0.21146691018704702

blocks1.SCINet_Tree.SCINet_Tree_odd.workingblock.interact.level.phi.4.bias f8 [1]
000000 a4 1f 08 20 7c e6 d3 bf
       -0.31094267967318445

blocks1.SCINet_Tree.SCINet_Tree_odd.workingblock.interact.level.psi.1.weight f8 [1, 1, 5]
000000 37 27 24 2f df 3b a4 3f 13 8e 06 d2 47 b8 d8 bf
       0.039519285683196896 -0.38624759207070375
000010 d4 01 26 83 11 3b c4 bf b7 3c 86 b8 f7 6f c1 3f
       -0.1580526247380606 0.1362294817922469
000020 a0 fc db c2 e8 75 d0 3f
       0.2571966078684884

blocks1.SCINet_Tree.SCINet_Tree_odd.workingblock.interact.level.psi.1.bias f8 [1]
000000 10 7c e6 06 69 39 be bf
       -0.11806351107087232

blocks1.SCINet_Tree.SCINet_Tree_odd.workingblock.interact.level.psi.4.weight f8 [1, 1, 3]
000000 c3 a7 50 0f f5 b2 cd bf a0 2a 50 21 f2 72 d0 bf
       -0.23202384231382042 -0.2570157361339316
000010 fa e4 a1 16 13 08 cf 3f
       0.24243391614053406

blocks1.SCINet_Tree.SCINet_Tree_odd.workingblock.interact.level.psi.4.bias f8 [1]
000000 23 11 af 2f 41 61 eb bf
       -0.8556219035458849

blocks1.SCINet_Tree.SCINet_Tree_odd.workingblock.interact.level.P.1.weight f8 [1, 1, 5]
000000 9f aa d7 07 73 d1 c3 bf 10 3b f1 19 54 c7 df bf
       -0.1548293865483474 -0.4965410474150511
000010 e9 83 55 31 7c b6 dd bf bb 0f c0 52 93 cb d2 3f
       -0.4642630082872175 0.2936752613170445
000020 cd 12 d6 ee 79 66 ca 3f
       0.20625232850956934

blocks1.SCINet_Tree.SCINet_Tree_odd.workingblock.interact.level.P.1.bias f8 [1]
000000 80 55 47 cb d0 56 92 3f
       0.017909300238746706

blocks1.SCINet_Tree.SCINet_Tree_odd.workingblock.interact.level.P.4.weight f8 [1, 1, 3]
000000 01 89 19 31 b0 ce da bf 71 f4 ac 83 83 c3 d9 bf
       -0.41886524958512444 -0.40255821093507566
000010 dc 9c be 78 1d c4 82 3f
       0.009163122412998374

blocks1.SCINet_Tree.SCINet_Tree_odd.workingblock.interact.level.P.4.bias f8 [1]
000000 93 96 66 b6 a4 ed b2 bf
       -0.07393865063803622

blocks1.SCINet_Tree.SCINet_Tree_odd.workingblock.interact.level.U.1.weight f8 [1, 1, 5]
000000 ef 46 79 65 a7 c1 d3 bf 33 a4 3a 3a 8c 04 d8 bf
       -0.30869469556374346 -0.37527757345611973
000010 e0 9d 07 e4 a5 f1 cf 3f 71 3c a7 22 cf 91 9d bf
       0.24956201204552908 -0.02887653016096831
000020 69 77 b8 71 35 a6 97 bf
       -0.02309497362704552

blocks1.SCINet_Tree.SCINet_Tree_odd.workingblock.interact.level.U.1.bias f8 [1]
000000 01 e0 09 95 5d 67 ce bf
       -0.23752946641229758

blocks1.SCINet_Tree.SCINet_Tree_odd.workingblock.interact.level.U.4.weight f8 [1, 1, 3]
000000 13 dc 43 1c 84 c4 d9 bf ec 7d 51 a3 e9 9e 89 bf
       -0.4026193882013455 -0.012510133072452377
000010 75 c7 c1 d8 7b a2 e2 3f
       0.58233444533674

blocks1.SCINet_Tree.SCINet_Tree_odd.workingblock.interact.level.U.4.bias f8 [1]
000000 bb e0 6a aa 7d a3 c4 bf
       -0.16123934575239737

blocks1.SCINet_Tree.SCINet_Tree_odd.SCINet_Tree_odd.workingblock.interact.level.phi.1.weight f8 [1, 1, 5]
000000 dd 44 87 6b 30 68 d0 bf 8c 24 94 65 52 3c c3 bf
       -0.2563592004854181 -0.1502783771505033
000010 23 01 0e 1b 8c e6 d7 3f a5 18 60 22 0e d3 d5 bf
       0.3734464897352316 -0.34100678784342114
000020 51 b0 aa c7 ca de af 3f
       0.06224664389932911

blocks1.SCINet_Tree.SCINet_Tree_odd.SCINet_Tree_odd.workingblock.interact.level.phi.1.bias f8 [1]
000000 58 f7 40 83 e0 94 8e 3f
       0.014932397847697551

blocks1.SCINet_Tree.SCINet_Tree_odd.SCINet_Tree_odd.workingblock.interact.level.phi.4.weight f8 [1, 1, 3]
000000 61 6e 82 9f 3c 92 d3 bf 0b fe 75 48 33 d7 e1 bf
       -0.3058005864820413 -0.5575195708515265
000010 82 80 03 5e 6c bd 94 bf
       -0.020253842580928445

blocks1.SCINet_Tree.SCINet_Tree_odd.SCINet_Tree_odd.workingblock.interact.level.phi.4.bias f8 [1]
000000 6d 92 04 32 ac 5c d9 bf
       -0.39628128895336695

blocks1.SCINet_Tree.SCINet_Tree_odd.SCINet_Tree_odd.workingblock.interact.level.psi.1.weight f8 [1, 1, 5]
000000 f3 9a 70 bc f8 20 cc bf 14 10 b3 4a 76 5d ca bf
       -0.2197562141529584 -0.2059772362464406
000010 ed 7b 30 fb 49 e1 cf 3f 4d 47 83 45 3d 95 da bf
       0.24906277432543736 -0.4153588465534213
000020 95 c6 3f f3 9c 70 a7 3f
       0.04578104466771752

blocks1.SCINet_Tree.SCINet_Tree_odd.SCINet_Tree_odd.workingblock.interact.level.psi.1.bias f8 [1]
000000 b3 43 ca 3d dd e8 d1 bf
       -0.2798379043024923

blocks1.SCINet_Tree.SCINet_Tree_odd.SCINet_Tree_odd.workingblock.interact.level.psi.4.weight f8 [1, 1, 3]
000000 fb dc ff ef 7b c7 d5 bf b9 25 56 2b d2 9d 4c 3f
       -0.34030054509589974 0.0008733059136584654
000010 2a 5e a5 a3 0e 83 e3 3f
       0.6097481914720835

blocks1.SCINet_Tree.SCINet_Tree_odd.SCINet_Tree_odd.workingblock.interact.level.psi.4.bias f8 [1]
000000 e1 fc bd 93 a7 09 cc bf
       -0.21904463495227502

blocks1.SCINet_Tree.SCINet_Tree_odd.SCINet_Tree_odd.workingblock.interact.level.P.1.weight f8 [1, 1, 5]
000000 e4 50 8c 66 e2 ad a8 bf db d6 2a 76 b7 29 c0 bf
       -0.048201632516937015 -0.1262730910290689
000010 04 42 94 78 b2 a1 a1 bf e0 52 b2 ff aa 49 d5 bf
       -0.034436776370174754 -0.33262133570069174
000020 c0 68 50 44 45 0b d4 bf
       -0.31318790122317

blocks1.SCINet_Tree.SCINet_Tree_odd.SCINet_Tree_odd.workingblock.interact.level.P.1.bias f8 [1]
000000 c6 4d c0 4f 4d 2f d1 bf
       -0.2685120848484214

blocks1.SCINet_Tree.SCINet_Tree_odd.SCINet_Tree_odd.workingblock.interact.level.P.4.weight f8 [1, 1, 3]
000000 48 03 14 90 cd 17 c6 bf 2a f4 31 56 04 2b da 3f
       -0.17260140929286139 0.40887554566853856
000010 b4 de 52 8b 4a 61 d9 bf
       -0.39656318288642045

blocks1.SCINet_Tree.SCINet_Tree_odd.SCINet_Tree_odd.workingblock.interact.level.P.4.bias f8 [1]
000000 95 92 31 f0 0f f6 c1 3f
       0.14032172420697422

blocks1.SCINet_Tree.SCINet_Tree_odd.SCINet_Tree_odd.workingblock.interact.level.U.1.weight f8 [1, 1, 5]
000000 38 78 09 a6 3b ac b8 3f c7 cb c6 ce 72 27 ce bf
       0.09637806705129115 -0.2355788716937168
000010 5d 7a 71 29 ba eb d4 3f d4 ba 17 bf 3f 2f b1 3f
       0.32688764617151894 0.06712721267079341
000020 c4 5e dd db 6c dc 7c 3f
       0.007046151380414482

blocks1.SCINet_Tree.SCINet_Tree_odd.SCINet_Tree_odd.workingblock.interact.level.U.1.bias f8 [1]
000000 8c 39 22 ea 03 f3 a4 bf
       -0.040916559534809854

blocks1.SCINet_Tree.SCINet_Tree_odd.SCINet_Tree_odd.workingblock.interact.level.U.4.weight f8 [1, 1, 3]
000000 63 6a 84 56 f7 64 c7 bf f4 18 d3 de 20 d3 d2 bf
       -0.18276874279475228 -0.29413625488486095
000010 06 c3 5c 19 ea c6 a8 3f
       0.048392596813192454

blocks1.SCINet_Tree.SCINet_Tree_odd.SCINet_Tree_odd.workingblock.interact.level.U.4.bias f8 [1]
000000 b5 da 38 a4 23 87 b8 bf
       -0.0958120609219389

blocks1.SCINet_Tree.SCINet_Tree_odd.SCINet_Tree_even.workingblock.interact.level.phi.1.weight f8 [1, 1, 5]
000000 56 f0 03 89 0d 35 c1 3f 46 82 25 50 8f 4f b2 3f
       0.13443154516415018 0.071526486460706
000010 74 d7 e8 5c 6d c0 ac 3f ed fe 1e f4 bb 1e d4 bf
       0.056155603019233974 -0.3143758663172623
000020 7c 4d b2 12 2f 9e cd bf
       -0.23138988888659273

blocks1.SCINet_Tree.SCINet_Tree_odd.SCINet_Tree_even.workingblock.interact.level.phi.1.bias f8 [1]
000000 9b 59 4f 8f 08 e2 b6 bf
       -0.08938649653223367

blocks1.SCINet_Tree.SCINet_Tree_odd.SCINet_Tree_even.workingblock.interact.level.phi.4.weight f8 [1, 1, 3]
000000 e0 76 12 24 7d eb 8e 3f 18 80 2a e2 26 34 c4 bf
       0.015097596801122604 -0.15784154933226158
000010 e4 a2 dd 3b e7 22 d3 bf
       -0.2990053257586125

blocks1.SCINet_Tree.SCINet_Tree_odd.SCINet_Tree_even.workingblock.interact.level.phi.4.bias f8 [1]
000000 94 11 5b 26 6e 22 78 3f
       0.005892210266840076

blocks1.SCINet_Tree.SCINet_Tree_odd.SCINet_Tree_even.workingblock.interact.level.psi.1.weight f8 [1, 1, 5]
000000 e3 a8 e9 ed 01 8c d8 3f 69 64 21 49 a6 19 b4 3f
       0.38354538186707837 0.07851638112460226
000010 ff bb ba 4e cc 81 b9 bf 56 0b ee 45 c1 5f c6 3f
       -0.0996368114672208 0.17479720987838715
000020 c4 b7 56 82 a6 87 b2 bf
       -0.0723823612413233

blocks1.SCINet_Tree.SCINet_Tree_odd.SCINet_Tree_even.workingblock.interact.level.psi.1.bias f8 [1]
000000 07 3d 00 eb 65 9f d1 3f
       0.27535388898191154

blocks1.SCINet_Tree.SCINet_Tree_odd.SCINet_Tree_even.workingblock.interact.level.psi.4.weight f8 [1, 1, 3]
000000 66 26 08 2e 10 3f e1 bf 9b 19 8a 55 3a ff e1 bf
       -0.5389481448230071 -0.5624057455723234
000010 38 37 0a db c4 3f 70 3f
       0.0039670648262822225

blocks1.SCINet_Tree.SCINet_Tree_odd.SCINet_Tree_even.workingblock.interact.level.psi.4.bias f8 [1]
000000 dc 7c da 0d fe b6 b1 3f
       0.06919849241465975

blocks1.SCINet_Tree.SCINet_Tree_odd.SCINet_Tree_even.workingblock.interact.level.P.1.weight f8 [1, 1, 5]
000000 62 ad de ca c7 a6 dd 3f 31 8a b0 a7 fe c3 ca 3f
       0.4633044701719965 0.20910628498047992
000010 00 64 06 03 0e ba a2 bf 9d f2 77 64 58 65 c2 bf
       -0.03657573496747801 -0.1437178125924178
000020 24 29 82 34 7d be bf 3f
       0.12400038272804587

blocks1.SCINet_Tree.SCINet_Tree_odd.SCINet_Tree_even.workingblock.interact.level.P.1.bias f8 [1]
000000 bc 86 0c 25 e2 98 c3 bf
       -0.15310313042669133

blocks1.SCINet_Tree.SCINet_Tree_odd.SCINet_Tree_even.workingblock.interact.level.P.4.weight f8 [1, 1, 3]
000000 21 e3 4a e9 cc 77 e5 3f 1a 54 ee 88 89 d8 d9 3f
       0.6708740765089695 0.4038413846222412
000010 b6 ce 3f 34 e1 77 e5 3f
       0.6708837528699039

blocks1.SCINet_Tree.SCINet_Tree_odd.SCINet_Tree_even.workingblock.interact.level.P.4.bias f8 [1]
000000 19 97 dd f9 30 e2 d3 bf
       -0.3106806221097585

blocks1.SCINet_Tree.SCINet_Tree_odd.SCINet_Tree_even.workingblock.interact.level.U.1.weight f8 [1, 1, 5]
000000 65 87 aa b3 a6 2c e1 bf 74 2e a3 fc 2b ae b5 bf
       -0.5367005833725044 -0.08468890111833521
000010 45 10 29 f8 f4 37 d7 3f 25 c0 ce df 83 e2 d6 3f
       0.3627903388444376 0.3575753865834506
000020 e4 60 2c c4 67 ab c7 bf
       -0.18491837576653503

blocks1.SCINet_Tree.SCINet_Tree_odd.SCINet_Tree_even.workingblock.interact.level.U.1.bias f8 [1]
000000 b8 11 94 c7 fb 89 90 bf
       -0.016151365333841844

blocks1.SCINet_Tree.SCINet_Tree_odd.SCINet_Tree_even.workingblock.interact.level.U.4.weight f8 [1, 1, 3]
000000 cd f9 b1 be dd c1 d2 3f 73 b7 97 c3 f2 e0 83 bf
       0.29308265326099275 -0.009706398576749575
000010 63 e8 94 fe 90 a6 d8 3f
       0.38516640531054785

blocks1.SCINet_Tree.SCINet_Tree_odd.SCINet_Tree_even.workingblock.interact.level.U.4.bias f8 [1]
000000 1a e7 a9 3f 1e ce c6 3f
       0.1781652270181489

blocks1.SCINet_Tree.SCINet_Tree_even.workingblock.interact.level.phi.1.weight f8 [1, 1, 5]
000000 e7 1c 48 f9 5b f0 d3 3f 01 02 d0 b4 70 ae a3 bf
       0.3115453657523645 -0.03844024855789386
000010 ad b6 a0 38 15 17 c7 3f be ec 06 33 e4 41 7e 3f
       0.18039193406132395 0.00738705768929576
000020 96 c8 c5 61 68 8a c2 3f
       0.1448488690762743

blocks1.SCINet_Tree.SCINet_Tree_even.workingblock.interact.level.phi.1.bias f8 [1]
000000 86 18 62 dd 01 8b dc bf
       -0.4459843313164885

blocks1.SCINet_Tree.SCINet_Tree_even.workingblock.interact.level.phi.4.weight f8 [1, 1, 3]
000000 30 72 52 86 7c 80 ca bf fc bc 2d 2f 5e 73 c5 bf
       -0.20704609450048528 -0.16758324912687061
000010 9f 01 5d ef 3b 17 cd bf
       -0.2272715491071837

blocks1.SCINet_Tree.SCINet_Tree_even.workingblock.interact.level.phi.4.bias f8 [1]
000000 fe b5 f7 0e 8e a4 b7 3f
       0.09235465875072887

blocks1.SCINet_Tree.SCINet_Tree_even.workingblock.interact.level.psi.1.weight f8 [1, 1, 5]
000000 42 fc d7 9e 42 b4 d6 3f 1f 7b ba af 98 b0 c5 3f
       0.35475221168593774 0.16945179539194385
000010 49 21 26 75 4e 85 d1 3f 08 b9 65 b9 71 a2 d6 bf
       0.27376138153387736 -0.3536648092766801
000020 d7 a4 64 b7 29 50 c2 3f
       0.14307137922995736

blocks1.SCINet_Tree.SCINet_Tree_even.workingblock.interact.level.psi.1.bias f8 [1]
000000 d7 26 ac 33 42 3a d2 bf
       -0.2848058228124563

blocks1.SCINet_Tree.SCINet_Tree_even.workingblock.interact.level.psi.4.weight f8 [1, 1, 3]
000000 bb 87 f8 d2 4d 56 ba bf 08 a5 97 08 95 88 d7 bf
       -0.10287939453749477 -0.36771131362054676
000010 26 b5 d7 8e d1 f1 cf bf
       -0.24956721758591377

blocks1.SCINet_Tree.SCINet_Tree_even.workingblock.interact.level.psi.4.bias f8 [1]
000000 19 c2 f7 59 fc dc c0 3f
       0.1317439498229909

blocks1.SCINet_Tree.SCINet_Tree_even.workingblock.interact.level.P.1.weight f8 [1, 1, 5]
000000 54 64 aa 38 e0 71 c2 bf d2 b6 29 aa 94 6d ca bf
       -0.14410021559595754 -0.20646913822877494
000010 40 61 96 7a 73 cf c1 bf 4f 19 bd 2b a2 db e0 3f
       -0.1391434048243898 0.5268107275267456
000020 7b b2 5e 35 68 ca cc 3f
       0.2249269733996647

blocks1.SCINet_Tree.SCINet_Tree_even.workingblock.interact.level.P.1.bias f8 [1]
000000 70 17 73 ab 18 8a d7 bf
       -0.3678037332832593

blocks1.SCINet_Tree.SCINet_Tree_even.workingblock.interact.level.P.4.weight f8 [1, 1, 3]
000000 48 f1 e0 d4 d9 64 db 3f 25 65 66 89 a9 74 c9 3f
       0.4280304507153869 0.19887274941428604
000010 30 35 8b e3 9b 92 c6 3f
       0.17634914980446004

blocks1.SCINet_Tree.SCINet_Tree_even.workingblock.interact.level.P.4.bias f8 [1]
000000 32 c1 8f 58 63 62 e2 bf
       -0.5745102624623881

blocks1.SCINet_Tree.SCINet_Tree_even.workingblock.interact.level.U.1.weight f8 [1, 1, 5]
000000 9d 5c ce 89 1b 68 c0 3f 2e 19 51 70 91 3e bc bf
       0.1281771109467841 -0.11032971374615805
000010 a0 5d 5d 97 54 60 dd 3f a1 8c 39 8b c9 d5 b9 3f
       0.4590045431300158 0.10091838501971263
000020 0e 49 2c af 77 61 c3 bf
       -0.15141197255486144

blocks1.SCINet_Tree.SCINet_Tree_even.workingblock.interact.level.U.1.bias f8 [1]
000000 47 22 91 44 44 06 d4 bf
       -0.312882487258808

blocks1.SCINet_Tree.SCINet_Tree_even.workingblock.interact.level.U.4.weight f8 [1, 1, 3]
000000 79 4e 6e 90 9e 5d e6 bf 4a 83 e6 32 18 ae c1 bf
       -0.6989281483569832 -0.138125443319064
000010 1e 8e cc 16 27 22 d6 bf
       -0.3458345148703489

blocks1.SCINet_Tree.SCINet_Tree_even.workingblock.interact.level.U.4.bias f8 [1]
000000 12 e4 d3 46 4b 4b c9 bf
       -0.19761029203780872

blocks1.SCINet_Tree.SCINet_Tree_even.SCINet_Tree_odd.workingblock.interact.level.phi.1.weight f8 [1, 1, 5]
000000 91 14 ab e7 82 c8 d3 bf 56 84 8f 9f 5a 4d b1 bf
       -0.3091132414231846 -0.06758657832644252
000010 e0 f8 49 c2 07 00 b3 bf f7 3c 40 8e 5f 1b d9 bf
       -0.07421921246893559 -0.39229573146526725
000020 00 7e 78 9d 12 64 d8 3f
       0.38110795381541607

blocks1.SCINet_Tree.SCINet_Tree_even.SCINet_Tree_odd.workingblock.interact.level.phi.1.bias f8 [1]
000000 0b f3 9a dc 7f 9e c0 3f
       0.12983701965085745

blocks1.SCINet_Tree.SCINet_Tree_even.SCINet_Tree_odd.workingblock.interact.level.phi.4.weight f8 [1, 1, 3]
000000 09 ca 20 d8 07 52 a4 bf 13 65 39 c2 7f 48 d3 bf
       -0.03968834412843953 -0.3012999912949265
000010 20 8a 90 03 24 d4 c6 3f
       0.1783490197568236

blocks1.SCINet_Tree.SCINet_Tree_even.SCINet_Tree_odd.workingblock.interact.level.phi.4.bias f8 [1]
000000 c1 fb a1 49 8b 2f de bf
       -0.4716518611020853

blocks1.SCINet_Tree.SCINet_Tree_even.SCINet_Tree_odd.workingblock.interact.level.psi.1.weight f8 [1, 1, 5]
000000 e1 57 cf 83 90 a9 db bf df 1c 56 d1 19 a4 d8 bf
       -0.43222439643920835 -0.3850159210491721
000010 c3 08 41 5a d3 ec c5 bf 08 04 13 e7 13 f6 be 3f
       -0.17128984362540764 0.12094234839879914
000020 90 ae 11 66 79 df 91 3f
       0.01745404897194064

blocks1.SCINet_Tree.SCINet_Tree_even.SCINet_Tree_odd.workingblock.interact.level.psi.1.bias f8 [1]
000000 42 64 a4 cf dd ba d3 bf
       -0.30828042295030766

blocks1.SCINet_Tree.SCINet_Tree_even.SCINet_Tree_odd.workingblock.interact.level.psi.4.weight f8 [1, 1, 3]
000000 77 a3 21 64 ba 73 80 bf 5e 52 90 ed 20 c1 d0 bf
       -0.00803323381497177 -0.2617876357992709
000010 05 0b ce 63 ee 8e d7 3f
       0.3680988287598413

blocks1.SCINet_Tree.SCINet_Tree_even.SCINet_Tree_odd.workingblock.interact.level.psi.4.bias f8 [1]
000000 6e 02 01 65 02 1c e5 bf
       -0.6596691105588215

blocks1.SCINet_Tree.SCINet_Tree_even.SCINet_Tree_odd.workingblock.interact.level.P.1.weight f8 [1, 1, 5]
000000 b6 23 c0 c3 ba 38 d3 3f 05 65 95 7c 8d 7e d2 bf
       0.30033749691261435 -0.288974162734647
000010 1b e5 e4 13 7d 3e b8 3f 1f 75 6f 25 af 0f cb 3f
       0.09470350013443289 0.21141614272975404
000020 6e ea 22 88 07 e8 d3 bf
       -0.3110369519669466

blocks1.SCINet_Tree.SCINet_Tree_even.SCINet_Tree_odd.workingblock.interact.level.P.1.bias f8 [1]
000000 1a 3c 94 b3 6a 0b c9 bf
       -0.1956609131670753

blocks1.SCINet_Tree.SCINet_Tree_even.SCINet_Tree_odd.workingblock.interact.level.P.4.weight f8 [1, 1, 3]
000000 d7 38 03 cb 30 a9 e7 3f c5 63 fe 8b a5 99 b2 3f
       0.7394031491365024 0.07265696208777601
000010 00 0d 50 ec 33 88 cc 3f
       0.22290658034044242

blocks1.SCINet_Tree.SCINet_Tree_even.SCINet_Tree_odd.workingblock.interact.level.P.4.bias f8 [1]
000000 3e e5 32 c1 45 6f d7 3f
       0.3661665331561216

blocks1.SCINet_Tree.SCINet_Tree_even.SCINet_Tree_odd.workingblock.interact.level.U.1.weight f8 [1, 1, 5]
000000 dc b0 35 73 87 96 b4 bf d1 02 9a df e4 2f bd bf
       -0.08042189181077525 -0.11401205500625201
000010 5a 49 58 a2 67 56 c2 bf 34 f0 e9 e4 c4 ce ba bf
       -0.14326186587329454 -0.10471754635540337
000020 fc 84 20 ac b8 10 a0 bf
       -0.03137757397804283

blocks1.SCINet_Tree.SCINet_Tree_even.SCINet_Tree_odd.workingblock.interact.level.U.1.bias f8 [1]
000000 d7 81 2a 1f e4 70 aa 3f
       0.0516425407452094

blocks1.SCINet_Tree.SCINet_Tree_even.SCINet_Tree_odd.workingblock.interact.level.U.4.weight f8 [1, 1, 3]
000000 05 ec c7 0f 07 4d 8d bf ae 51 3f 43 65 d6 d2 3f
       -0.014307074708076692 0.29433566634295516
000010 7b cf d5 4e cc ee c0 3f
       0.13228753899931775

blocks1.SCINet_Tree.SCINet_Tree_even.SCINet_Tree_odd.workingblock.interact.level.U.4.bias f8 [1]
000000 64 5a fe 84 0a 0b d1 bf
       -0.266298894764452

blocks1.SCINet_Tree.SCINet_Tree_even.SCINet_Tree_even.workingblock.interact.level.phi.1.weight f8 [1, 1, 5]
000000 a0 88 31 49 09 61 da bf f7 8e 45 b5 1b de b0 3f
       -0.4121726240902124 0.06588910270289348
000010 91 e1 e5 9a 04 c5 cc 3f 3b 86 0f 20 3b 29 d4 3f
       0.22476251185777277 0.3150165379612166
000020 18 f2 cf 74 43 e6 a1 3f
       0.034959896096527554

blocks1.SCINet_Tree.SCINet_Tree_even.SCINet_Tree_even.workingblock.interact.level.phi.1.bias f8 [1]
000000 96 b7 c5 35 32 b0 c2 bf
       -0.14600207925417114

blocks1.SCINet_Tree.SCINet_Tree_even.SCINet_Tree_even.workingblock.interact.level.phi.4.weight f8 [1, 1, 3]
000000 81 aa 47 a1 f8 3a e4 bf 2e 1d b0 98 72 0d d7 bf
       -0.6321986341475424 -0.36019577895099786
000010 ee 07 63 be 86 eb c2 bf
       -0.1478126935599557

blocks1.SCINet_Tree.SCINet_Tree_even.SCINet_Tree_even.workingblock.interact.level.phi.4.bias f8 [1]
000000 d5 df dc 03 44 9a cd 3f
       0.2312703150616914

blocks1.SCINet_Tree.SCINet_Tree_even.SCINet_Tree_even.workingblock.interact.level.psi.1.weight f8 [1, 1, 5]
000000 cd 68 b6 15 dc 3a c3 bf ee f8 44 fd 17 4e aa 3f
       -0.15023375568563893 0.05137705771129385
000010 07 79 cc 8c ab 8d d2 bf 8e 78 3a 94 47 10 59 bf
       -0.2898968577373044 -0.0015297602666702079
000020 f7 e8 66 1d 17 c0 d0 bf
       -0.26172426101005847

blocks1.SCINet_Tree.SCINet_Tree_even.SCINet_Tree_even.workingblock.interact.level.psi.1.bias f8 [1]
000000 c2 e4 fa 32 5e e7 df bf
       -0.4984965799190598

blocks1.SCINet_Tree.SCINet_Tree_even.SCINet_Tree_even.workingblock.interact.level.psi.4.weight f8 [1, 1, 3]
000000 e1 1b 12 1d 5f eb d6 3f d5 c9 ca 31 7e ca d2 bf
       0.3581159385579991 -0.2936091886760129
000010 af 44 1e 61 2d 18 da 3f
       0.4077256630344647

blocks1.SCINet_Tree.SCINet_Tree_even.SCINet_Tree_even.workingblock.interact.level.psi.4.bias f8 [1]
000000 4e 7a 49 b6 1c e3 e6 bf
       -0.7152236519139679

blocks1.SCINet_Tree.SCINet_Tree_even.SCINet_Tree_even.workingblock.interact.level.P.1.weight f8 [1, 1, 5]
000000 31 bb c5 e7 37 be a7 bf 06 35 c0 46 30 f2 d5 3f
       -0.04637312607052591 0.34290701779612254
000010 51 d8 87 b3 e1 e8 cd bf 1a 1b 62 49 eb 5e b4 3f
       -0.23366948381561994 0.07957335034926097
000020 de 72 ab bc 88 20 c8 3f
       0.1884928628195643

blocks1.SCINet_Tree.SCINet_Tree_even.SCINet_Tree_even.workingblock.interact.level.P.1.bias f8 [1]
000000 ca 65 fc 0b 9b d8 98 3f
       0.02426378498703289

blocks1.SCINet_Tree.SCINet_Tree_even.SCINet_Tree_even.workingblock.interact.level.P.4.weight f8 [1, 1, 3]
000000 c1 22 42 b5 3c 3a 4a bf e3 c8 0a cc c3 50 9a 3f
       -0.0008003994394281886 0.025698718384497787
000010 85 40 b3 f1 16 7b a2 3f
       0.036095349316043225

blocks1.SCINet_Tree.SCINet_Tree_even.SCINet_Tree_even.workingblock.interact.level.P.4.bias f8 [1]
000000 45 f3 ea 23 67 d7 a9 3f
       0.05047151864480396

blocks1.SCINet_Tree.SCINet_Tree_even.SCINet_Tree_even.workingblock.interact.level.U.1.weight f8 [1, 1, 5]
000000 07 72 dd 14 06 c5 b5 bf be 83 9b 0a d5 29 be 3f
       -0.08503759393119746 0.11782580861064582
000010 e5 54 45 b9 5c 57 d0 bf e5 48 de 65 d1 c9 82 bf
       -0.2553321656499306 -0.009173999711297795
000020 45 23 1a 92 b1 a0 cc bf
       -0.22365398057834276

blocks1.SCINet_Tree.SCINet_Tree_even.SCINet_Tree_even.workingblock.interact.level.U.1.bias f8 [1]
000000 ad 3c 5d 4a 1e 9e d5 bf
       -0.33777577650193785

blocks1.SCINet_Tree.SCINet_Tree_even.SCINet_Tree_even.workingblock.interact.level.U.4.weight f8 [1, 1, 3]
000000 8a 91 10 65 c8 32 d1 bf e3 9c c6 32 12 7e d3 3f
       -0.26872453565217624 0.30456976851060186
000010 83 b8 39 ea 8d 2f c4 3f
       0.15770124375143632

blocks1.SCINet_Tree.SCINet_Tree_even.SCINet_Tree_even.workingblock.interact.level.U.4.bias f8 [1]
000000 aa 5b 3f 65 b0 c1 d6 3f
       0.3555718411202472

projection1.weight f8 [48, 96, 1]
000000 dd 15 27 bc db 46 92 bf ae 5d 8b 6e ba a3 91 bf
       -0.017848428114822446 -0.017226136204809776
000010 05 5b dc 89 86 cb a6 3f 35 e8 3a 10 fc c4 98 bf
       0.04452152665014889 -0.02418893670139984
000020 3a 09 5b 36 f0 fe 92 3f bf 91 ca 28 30 e3 95 bf
       0.018550637548068162 -0.021374466409399547
000030 88 00 df 2b f6 04 9c bf ef 63 9b b0 52 96 7d 3f
       -0.027362677028350407 0.007223437316235411
000040 a2 20 e4 50 0a c8 6e bf ea 0c db fd a5 af 96 3f
       -0.003757496021652499 0.022154420489425876
000050 b3 6d 41 79 c0 4e 5c 3f 49 51 cc 0b 4c f8 91 bf
       0.0017277602792294788 -0.017548740596866428
000060 1e 72 76 77 75 90 7e 3f 62 3e fe cb 7b ce 96 bf
       0.007461985448938195 -0.02227204735350908
000070 c6 ae a9 6a d3 52 8a 3f f7 eb c4 84 31 8d a2 3f
       0.012853290264693295 0.03623347039907537
000080 38 0f e4 7a 18 1f aa bf 62 c1 4e 9e 3a a8 93 3f
       -0.05101849079258475 0.019196430122691573
000090 e1 c0 bb e7 68 5a 93 bf 08 11 1a 21 be 1f 91 3f
       -0.01889957346333027 0.01672265126264086
0000a0 85 97 d1 78 19 af 8a 3f 61 32 84 1a 66 ad 97 bf
       0.013029288291544603 -0.023122401588852152
0000b0 fb 07 60 a1 bd da a7 bf 9b f3 dd b6 07 c6 a4 3f
       -0.04659073443328051 0.04057335002196468
0000c0 35 11 58 09 39 21 84 bf ce 23 27 c7 7e 84 7d bf
       -0.009828992459923394 -0.007206435419399205
0000d0 2b e9 c9 b9 a7 48 33 bf ad 0a d6 ce ea f0 72 bf
       -0.00029424757830266945 -0.004624287813728739
0000e0 b0 bb 4b a2 83 31 9e 3f dd 44 99 4d dd e7 82 bf
       0.029485756664992813 -0.00923130887091122
0000f0 e9 bd dd 62 db f7 20 bf 56 a3 be 6d 52 1a 62 bf
       -0.00012945702604437386 -0.002209816926513157
000100 33 63 04 d3 59 c1 8c bf 5e 2a bc 42 0a 8e 68 bf
       -0.014040662529212966 -0.0029974174884775237
000110 a1 d0 f7 af 28 8f 89 bf 58 5e c0 8d d9 f3 8b 3f
       -0.012480085249059693 0.013648700369272834
000120 4e 9b 2c 29 76 34 65 bf 6a 26 1b 26 66 78 9b bf
       -0.0025884921864362314 -0.026826473308381095
000130 86 0c 3d f8 32 97 a7 3f 1b 27 d3 08 d7 9e 5b bf
       0.04607543258909978 -0.0016858196207060808
000140 d8 b0 6a 1c 7e 6c 74 3f fd a2 36 ec c9 40 82 bf
       0.004986279126267777 -0.00891263725391544
000150 e5 75 0b 8c 04 9f 82 bf d1 fc 48 4b ab f1 6d 3f
       -0.00909236481077875 0.003655275877718724
000160 d3 ee 51 fa 80 eb 75 3f a0 79 0f 40 57 76 95 bf
       0.0053515470691498255 -0.020959246907176543
000170 6e 5c f0 95 22 72 78 bf 03 0f b4 3c 49 5a 84 bf
       -0.005968222713838773 -0.009937832036036825
000180 b7 a0 3f 07 ae 8f 85 3f 07 71 02 f9 0e b7 7d bf
       0.010527953716476508 -0.007254656302532198
000190 7d 52 8c 52 7a 55 77 3f 09 6e c1 a0 fe 6b 94 bf
       0.005696752378544387 -0.01994321685957171
0001a0 57 a1 b9 46 d4 50 92 bf d5 25 93 9e de 01 71 3f
       -0.017886463944166788 0.004152173621329654
0001b0 f3 80 29 c4 e8 68 91 3f 29 21 b9 71 f4 de 96 bf
       0.017001759503160362 -0.022334880295859314
0001c0 d2 17 72 b5 37 ec 85 3f 75 e8 b2 c3 bc 1d 72 bf
       0.010704455590040771 -0.004422891007545106
0001d0 09 90 be 02 83 19 95 3f 3a 33 87 45 de 77 8c 3f
       0.020605132143501268 0.013900505539731978
0001e0 1e 8d d9 e5 54 36 82 3f 08 af 0a 62 a7 1f 23 3f
       0.008892691864451904 0.00014590185403073213
0001f0 dd a2 01 4d da d6 a0 3f 44 05 5d dc 9e 5d a4 bf
       0.03288919630069185 -0.039776768112015165
000200 71 66 8c dd 59 b1 81 3f 71 dc 44 91 e0 21 74 bf
       0.00863905150758912 -0.00491512033141027
000210 44 a5 40 9a c3 39 8f 3f 57 38 c5 e2 50 da 8f bf
       0.015246894974625953 -0.015553123398287889
000220 ed f0 bf 3e b7 46 9b 3f 76 1b 0c 72 1e f5 a7 bf
       0.026636946873609558 -0.04679198400668032
000230 00 49 61 b8 ef d2 8d bf ec fa 99 67 bc f6 88 3f
       -0.014562485517818136 0.012189361488024152
000240 63 16 d7 0e 4d ef a7 bf 7e f5 14 e3 fb 2f a5 3f
       -0.046747596799417555 0.041381713361697145
000250 55 1c 08 4c ae 88 84 bf bc bf 61 9d 05 3d 9a 3f
       -0.010026323027899556 0.0256234051998374
000260 40 a3 78 aa d4 28 90 bf 22 71 da 05 e6 c8 76 bf
       -0.015780756859530287 -0.005562685515226458
000270 98 65 3b 4d 05 c6 a3 3f f9 76 7f da 5d 2c 64 bf
       0.03862015311978978 -0.0024625619007413416
000280 09 87 ed 25 9e 58 99 bf b1 1c 95 a4 60 36 85 bf
       -0.024752112450534578 -0.010357623121889455
000290 d9 b6 96 63 8b c5 a0 bf b8 11 d3 df 6e 0a 8d 3f
       -0.032757144839121906 0.01418005581434377
0002a0 44 06 26 c5 4d 60 84 3f 4b e9 1f bb 5f ea 92 bf
       0.009949309901233445 -0.018472190662558046
0002b0 16 14 e4 c7 77 c6 8b bf bd 6b 3e e9 a1 01 98 3f
       -0.013562141215979689 0.023443727360795686
0002c0 a6 b7 f3 e4 b0 90 88 bf 01 ef b9 87 69 72 94 bf
       -0.01199472616869086 -0.019967698010517235
0002d0 53 ef 79 28 2d 0c aa 3f fb 44 12 06 97 b9 a1 3f
       0.050874148550944874 0.03461906384576171
0002e0 00 3d 08 cb c8 b5 b0 3f 0f ed a2 b1 0b 40 bb 3f
       0.06527380902138091 0.1064460095102968
0002f0 e6 70 e7 75 4d 09 d5 3f ed 8b 3b d4 13 94 cd 3f
       0.32869278444355954 0.23108146536750898
000300 42 f6 7b 63 e0 10 89 3f 90 53 2e d5 d9 cd 8c bf
       0.012239220653550768 -0.014064504450098686
000310 ba 6d 34 5f 83 0f 34 3f d8 9d a1 3a 47 db 5c 3f
       0.00030610043832421006 0.0017612643810255204
000320 94 3e 4b b0 8c 45 8e bf 88 b0 a5 bf 00 40 8e 3f
       -0.014781092767776095 0.014770513390168341
000330 6c 64 04 a3 a2 3e a1 bf 71 6a c2 bb 97 3b 80 3f
       -0.03368099441485914 0.007926164071524884
000340 45 c0 b8 26 96 4c 87 bf 88 54 f6 73 cd 81 a0 bf
       -0.011376545960132609 -0.032240314870400744
000350 ec 57 e3 0a 25 91 8a 3f ff 69 dc 83 ac f5 6d bf
       0.01297215404012416 -0.003657185500640425
000360 a1 3c 0b 16 56 57 9d 3f 74 8c 93 03 2d 88 93 bf
       0.028653473945095546 -0.019074157088550384
000370 21 3b 09 6b 16 6c 87 3f 2c cd c3 0c 2a 1f 82 bf
       0.011436629430276181 -0.008848503603508272
000380 a4 2a 35 e4 d8 e0 85 3f 8e f5 52 a0 3a 0c 85 bf
       0.010682768310876618 -0.010277231233312614
000390 35 19 b2 37 fe 55 96 3f b3 34 b4 e7 24 48 90 bf
       0.021812412404437615 -0.015900208131871717
0003a0 7a 1f ca d4 4b fa 8f 3f f3 8e ed 34 49 65 82 bf
       0.01561412089473867 -0.008982250144704084
0003b0 1f af e1 d8 ba 9c 8e bf f4 9b ed 70 cc 6d 89 bf
       -0.014947376006794464 -0.012416455456060384
0003c0 96 96 09 bf 15 8a 6b bf 41 cc 38 e8 66 27 78 bf
       -0.003361742470860583 -0.005896951657223205
0003d0 95 1a 68 c6 a8 f3 73 bf fc 9f ea fa 34 b9 79 3f
       -0.0048710434698536935 0.006280142739946367
0003e0 0a 2f 35 03 21 d0 a1 3f 45 e4 81 f5 e3 5c 98 bf
       0.03479102291256993 -0.023791849002439375
0003f0 20 62 f4 43 24 c7 d4 be 9b 7d 3e 59 27 96 97 3f
       -4.95383670731005e-06 0.02303372842982086
000400 19 6a 00 95 f1 eb 94 bf 7b e7 bd 0b 4d aa 84 3f
       -0.020431303710305302 0.010090448304015833
000410 2d 1e 80 ae d9 ae 86 bf fb f4 0a aa b3 73 90 3f
       -0.011075688016730723 0.016066367391194252
000420 00 59 c8 6e 52 54 6b bf 5d 2a c6 fd 24 5f 56 bf
       -0.00333610630174086 -0.0013654576533520737
000430 a5 cd da a5 65 d3 82 bf 37 b5 58 af f7 b6 7a 3f
       -0.009192270397170807 0.006522147673917281
000440 eb fd b2 67 77 be 86 bf 36 fb de 0d 54 9e 9c 3f
       -0.011105473377368965 0.0279477246729087
000450 e1 b7 de 14 44 2f a7 bf 42 d2 88 19 7d 3d a3 3f
       -0.045282485530478096 0.03757849632930689
000460 28 7b a0 2b 35 d9 60 bf 15 2d 33 54 c6 5e 9e bf
       -0.0020566977009503114 -0.029658411873964747
000470 0e 6b 6e c4 7f 2a 93 3f 16 aa bd 86 84 f5 8f bf
       0.018716808666435596 -0.015605006563153483
000480 d4 71 e8 2a de 8c 82 3f b1 4e 37 a4 82 75 7a 3f
       0.009057746586273042 0.00645972282241629
000490 25 3c f8 55 da 80 a1 bf f8 31 c2 3d 3c 28 9c 3f
       -0.034186194414467054 0.02749723555511882
0004a0 7e ce 18 d1 66 c2 8f 3f 80 23 30 85 1c 66 82 bf
       0.015507510429507262 -0.008983824553085773
0004b0 81 65 b6 39 a4 05 a1 bf c2 18 54 51 c2 59 8c 3f
       -0.0332461662721455 0.013843076807927072
0004c0 f0 71 c8 9f f2 cc a5 bf 64 75 49 31 6e 91 90 3f
       -0.04257925224758086 0.016179773100124875
0004d0 c9 d7 b5 ef 0b 6d 90 3f 39 97 ca f0 ae 7c 5c 3f
       0.016040979867703507 0.0017387112049304777
0004e0 55 2a bd 1f 1b 36 70 bf 7b c6 fe 1f 11 6b 8b bf
       -0.003957849457786174 -0.01338780764476443
0004f0 e9 54 aa a7 1e 98 99 3f 29 d8 8d d3 06 04 4f 3f
       0.024994353278619128 0.000946524937815556
000500 4c 04 9a 3d da 59 36 3f a9 d5 2c 90 1f a0 9b bf
       0.00034104898586668066 -0.02697800939059439
000510 16 3e b7 a3 55 d5 98 3f 32 4c 7f 73 f5 29 95 bf
       0.024251306645792857 -0.020667872595208255
000520 c7 50 b7 d7 fe 32 98 3f d2 b0 f4 1c ae 96 88 bf
       0.02363203231455271 -0.012006149538671105
000530 41 8f 17 e4 2b 5e a0 bf b5 73 fa 1e 42 07 a9 3f
       -0.03196847113920721 0.04888350132134837
000540 0f 90 87 48 52 f2 a3 bf f8 2a 23 c5 cd 4f 9b bf
       -0.038958140710548254 -0.026671614796934556
000550 87 7e 5e 74 ad ca a5 3f ba fd 1c 22 98 9e 90 bf
       0.04256193204423391 -0.016229989130122503
000560 a7 a2 12 2f fd 99 a8 3f 1e f0 f8 14 f1 b7 84 3f
       0.048049842830839844 0.010116466000106124
000570 4c 0a e3 84 18 3e 9a bf de a1 db 44 b3 c4 66 3f
       -0.025627501593371613 0.002779340872496968
000580 7a a6 be 17 e4 23 74 bf 7a 36 e7 0e 04 3d 82 bf
       -0.004917040812793533 -0.008905441002663429
000590 76 0d 89 30 f5 e2 42 bf 57 93 5b 8f 9e ad 50 3f
       -0.0005763718809891755 0.0010179565846836958
0005a0 8b fe b8 a3 8e 3e 84 3f f2 1c b4 e9 22 61 76 bf
       0.00988494336263492 -0.005463730219396045
0005b0 6d cc 52 6e c6 6f 58 bf d2 8f 89 54 8b ed 9e bf
       -0.001491493015504354 -0.030203034434080518
0005c0 2c 9f a1 27 18 d7 66 bf 59 5c d2 ae af b8 84 3f
       -0.0027881118558531672 0.010117886088023708
0005d0 8e de 2c 93 6f 87 ae 3f dd e6 a8 d8 60 06 8a 3f
       0.05962704345296031 0.012707478153163471
0005e0 6d 0f 20 23 29 49 b9 3f e8 88 48 f5 cb cf a7 3f
       0.09877259357022945 0.0465072380941523
0005f0 7d 0a 69 41 60 f0 ca 3f 47 26 af a3 1d b4 d5 3f
       0.21046069330084896 0.33911839470656385
000600 ff 83 1b cb 6e 4a 71 bf de c4 34 a3 3c f8 92 3f
       -0.004221375261949766 0.018525073491393644
000610 ca cc ca 2c 70 72 a1 bf 18 66 d3 98 7c 7c 8c 3f
       -0.034076219051166826 0.01390931455027826
000620 be 02 14 34 c6 4a 85 3f 15 fe 13 1e b8 d3 89 bf
       0.010396526779460454 -0.01261085359374107
000630 c4 08 4e 9a 65 5a 5a bf 14 85 e0 e0 cc 79 82 bf
       -0.0016084663595568463 -0.009021378147795057
000640 b5 25 8f c6 e6 eb 6d 3f ff 59 d7 42 61 6a 91 bf
       0.003652525647770156 -0.017007369713462946
000650 2d 01 ca b4 1b 5a 74 bf 74 4c 96 2b 75 50 86 3f
       -0.004968746402141994 0.010895648377106527
000660 18 27 c8 b2 4d ec 93 bf 74 27 af d9 83 65 93 bf
       -0.019456113850572526 -0.018941936646832372
000670 f0 67 66 a5 3c bc 83 3f 0e bb bb d0 fb 6c 7d bf
       0.009636377141578806 -0.00718401303650641
000680 b2 d2 e8 74 61 f5 7c bf 8f 6b ca 28 ee bb 8c bf
       -0.0070699507619351055 -0.01403032361968373
000690 3a 25 34 21 71 da 93 bf ff 17 b9 c9 ef 4b 93 3f
       -0.01938797726783046 0.01884436291427249
0006a0 15 53 ce d3 0a c5 76 3f 9f ab 46 ae 9e b5 6f bf
       0.005559007925417321 -0.0038707827790935424
0006b0 d0 67 1c fc 5b 4d 64 3f 05 d2 48 ab e5 c3 97 3f
       0.0024782940462388728 0.023208225802777722
0006c0 19 07 e2 f3 c7 34 8b bf e9 7e 0e 18 a9 ae 7d 3f
       -0.013284265642372216 0.007246647380185081
0006d0 5e 04 44 39 28 be 93 3f b2 01 9f a0 3b fc 75 3f
       0.019280079360218465 0.005367501182206901
0006e0 16 29 85 f0 1b 76 85 3f ab b5 e7 98 7e 7d 72 3f
       0.010479181554405897 0.00451421215119067
0006f0 3b 3e 64 83 41 22 a3 bf a0 b6 cd 53 f0 46 ae 3f
       -0.03737072686101014 0.05913496993057987
000700 9c 81 f2 e2 70 bd a7 bf 28 97 bc 63 93 14 9c 3f
       -0.046367194846655496 0.02742224022144693
000710 c2 88 66 d5 19 5b 99 bf 50 df 83 6f bb 79 69 bf
       -0.024761584901747076 -0.003109804234664816
000720 49 25 3a 13 5e 53 97 3f 30 ac 00 70 1a 30 96 bf
       0.022778959201365443 -0.021667874418351996
000730 94 16 98 4e c9 61 8f 3f 8d f6 89 ec 26 ff 7f 3f
       0.015323231421471996 0.007811691328809223
000740 e5 e5 3a 38 70 83 80 bf cb f3 cf ff 64 07 80 bf
       -0.008063198772435729 -0.007826603943607588
000750 9b a7 09 04 79 fd 74 bf ba bb a0 da 85 16 52 3f
       -0.005124542920933363 0.0011040026825061959
000760 a0 06 fa 36 f8 89 65 3f 48 47 cc 05 e6 71 71 3f
       0.0026292655891787114 0.004259012723894014
000770 62 3f 36 5c 45 1f 80 bf 40 5b 03 7b 71 c8 95 3f
       -0.007872144581398014 0.021272442944645364
000780 10 41 48 3d 33 a0 93 bf ef ab ce 43 1f 57 9c 3f
       -0.019165802588816894 0.02767609454501135
000790 76 bc 4c c3 32 ef 95 bf 8f 38 88 1d d5 06 9b bf
       -0.021420281572485732 -0.02639325134992326
0007a0 6f f7 bf 14 bc 64 9f 3f ea 25 17 72 a3 08 7f bf
       0.0306577098526683 -0.007576597652084053
0007b0 67 9f 10 0b b6 a6 7a bf 84 6c 7c b0 ea 9d 93 3f
       -0.006506644350373714 0.019157092115261523
0007c0 ad c1 a8 5a 3f c2 79 bf 7e 00 8e 53 30 6b 91 bf
       -0.006288764454936685 -0.017010455226682535
0007d0 b0 4b 50 fc 07 f9 76 bf 97 31 44 6a 1d c2 8a bf
       -0.0056085884034641625 -0.013065557294361691
0007e0 f8 72 cb ec 27 dd ed 3e c3 78 69 64 7c 26 52 3f
       1.4240212658328432e-05 0.0011078085678018358
0007f0 53 35 96 09 fe 6e 7e 3f b8 c6 94 bf 2f 97 25 3f
       0.007430069288046087 0.00016472299447794158
