exp/data_checkpoints/Model_hs1_bs32_e100/checkpoint.pth (torch, 100025 bytes, 114 tensors)

inv_timescales f8 [1]
00000000: 0000 0000 0000 f03f
1.0

blocks1.SCINet_Tree.workingblock.interact.level.phi.1.weight f8 [1, 1, 7]
00000000: af97 e81f b8b6 c53f d470 4f3f d075 b93f
00000010: 5ccd 3f58 4340 d03f d41a ed19 29bd a63f
00000020: f61c 6fe4 e9fc d93f 6bdb 12f8 42ae a6bf
00000030: 4c74 96d8 6dd5 b5bf
0.16963864858661057 0.09945394082700726 0.25392230623329737 0.04441193047982997 0.4060616236497049 -0.04429826048129012 -0.08528791940484942

blocks1.SCINet_Tree.workingblock.interact.level.phi.1.bias f8 [1]
00000000: 9c7c d9d2 1869 eebf
-0.9503292196422026

blocks1.SCINet_Tree.workingblock.interact.level.phi.4.weight f8 [1, 1, 3]
00000000: c05b 00f2 1911 e7bf e481 cce6 f824 e7bf
00000010: 7087 312d 42f5 e4bf
-0.7208375670041889 -0.7232632167616058 -0.6549387819943444

blocks1.SCINet_Tree.workingblock.interact.level.phi.4.bias f8 [1]
00000000: b403 e45b c77f dc3f
0.4452989957208573

blocks1.SCINet_Tree.workingblock.interact.level.psi.1.weight f8 [1, 1, 7]
00000000: c9ce cb78 82d5 cabf e0ed 6e0a 163b d83f
00000010: e871 f4f4 e8a6 c53f 6ff1 cdce d2aa be3f
00000020: 68fa ac5a 3b16 c13f 841b ccc4 6894 8f3f
00000030: dd83 d7e2 0233 973f
-0.20964079759834522 0.37860632914427406 0.16915618858992265 0.11979405926644458 0.13349096229099477 0.015419786935593434 0.022655530066803087

blocks1.SCINet_Tree.workingblock.interact.level.psi.1.bias f8 [1]
00000000: 1b1c f908 813d f93f
1.5775156355391633

blocks1.SCINet_Tree.workingblock.interact.level.psi.4.weight f8 [1, 1, 3]
00000000: ea66 164f fc58 e4bf 5426 7af9 2d9c eebf
00000010: cbb6 5ea9 b34d f1bf
-0.63586249777583 -0.9565648911095175 -1.0814701667799678

blocks1.SCINet_Tree.workingblock.interact.level.psi.4.bias f8 [1]
00000000: 0abc 2551 010e fcbf
-1.7534192247219402

blocks1.SCINet_Tree.workingblock.interact.level.P.1.weight f8 [1, 1, 7]
00000000: 1bd9 1b44 69de c7bf 5073 50a5 f6d7 be3f
00000010: cae7 e549 b09b c93f 7afe 5346 48cc bcbf
00000020: d4a8 bb7c c606 d43f bb99 76bf e53a dd3f
00000030: b468 ed62 02bb b1bf
-0.1864749510347757 0.1204828408812777 0.20006373985580544 -0.11249210087771103 0.3129135339828626 0.45671981523119215 -0.06925978579730235

blocks1.SCINet_Tree.workingblock.interact.level.P.1.bias f8 [1]
00000000: d28a 10da dc7a d5bf
-0.335623944238404

blocks1.SCINet_Tree.workingblock.interact.level.P.4.weight f8 [1, 1, 3]
00000000: 1cfc 3a51 6882 b43f 6db5 b71d cf18 c63f
00000010: 0df4 4b14 0ae4 c53f
0.08011486037411014 0.1726321120362785 0.17102170935677954

blocks1.SCINet_Tree.workingblock.interact.level.P.4.bias f8 [1]
00000000: 23c5 2c5f 54ad d5bf
-0.33870419783041167

blocks1.SCINet_Tree.workingblock.interact.level.U.1.weight f8 [1, 1, 7]
00000000: 6be6 e8a4 7874 c33f c454 ffc7 54cf c1bf
00000010: 70b3 d629 7f0e de3f 5f99 d673 963f dd3f
00000020: c5a6 e146 b1cd c03f cfce 8724 69d4 e4bf
00000030: ee4a 2177 c28b e9bf
0.15199192096933997 -0.13913974538323803 0.4696348103123489 0.4570060855134183 0.13127723656662318 -0.6509290421949688 -0.7983105017432004

blocks1.SCINet_Tree.workingblock.interact.level.U.1.bias f8 [1]
00000000: 92b2 3afd cdc9 d6bf
-0.3560671780531176

blocks1.SCINet_Tree.workingblock.interact.level.U.4.weight f8 [1, 1, 3]
00000000: 0997 37d4 3c22 da3f 2d06 3611 8955 f0bf
00000010: 04e3 56b3 9700 f2bf
0.4083396980698671 -1.0208826706224372 -1.1251446729131098

blocks1.SCINet_Tree.workingblock.interact.level.U.4.bias f8 [1]
00000000: dd34 2d7e 86ff eb3f
0.8749420608889086

blocks1.SCINet_Tree.SCINet_Tree_odd.workingblock.interact.level.phi.1.weight f8 [1, 1, 7]
00000000: c095 712d 0fa5 e83f 56b1 1616 d001 f13f
00000010: 27ac 71ea b5ba dc3f 3a8f 0594 7305 be3f
00000020: ecbf fde1 bce7 b1bf 8b17 2b37 4743 afbf
00000030: b6dd 5cc9 fb97 d73f
0.7701488387653441 1.0629425871694216 0.4488959111683379 0.11727068294345325 -0.0699422885643341 -0.061060166820921934 0.36865133919078674

blocks1.SCINet_Tree.SCINet_Tree_odd.workingblock.interact.level.phi.1.bias f8 [1]
00000000: 45f7 2a4b 5183 b9bf
-0.09965999684478984

blocks1.SCINet_Tree.SCINet_Tree_odd.workingblock.interact.level.phi.4.weight f8 [1, 1, 3]
00000000: 55d1 3179 5f58 dfbf 4330 13ca 2a4b e1bf
00000010: a81d 3e1a a14d e3bf
-0.4897688563862819 -0.5404256769920796 -0.6032262337256968

blocks1.SCINet_Tree.SCINet_Tree_odd.workingblock.interact.level.phi.4.bias f8 [1]
00000000: 9419 20a8 e5c6 09c0
-3.222117722968685

blocks1.SCINet_Tree.SCINet_Tree_odd.workingblock.interact.level.psi.1.weight f8 [1, 1, 7]
00000000: 81c7 842b ab81 c73f 144f 49c3 9c96 e0bf
00000010: 71ae 4726 f4f8 e1bf 8fa3 9669 e8af d0bf
00000020: 26fd ca96 c103 e2bf 5816 e7c0 ba89 afbf
00000030: 4619 133a 8f1b aabf
0.1836446726315977 -0.5183852972208762 -0.5616398570686681 -0.260736563790993 -0.5629585213827439 -0.06159766773957348 -0.05099151214521895

blocks1.SCINet_Tree.SCINet_Tree_odd.workingblock.interact.level.psi.1.bias f8 [1]
00000000: 3177 9883 e684 eebf
-0.9537231989122344

blocks1.SCINet_Tree.SCINet_Tree_odd.workingblock.interact.level.psi.4.weight f8 [1, 1, 3]
00000000: 2d2b 4ac9 7771 e33f 873b 286b 056c e43f
00000010: 5308 09a4 677b e53f
0.6076010638656492 0.6381861775315522 0.6713140682043196

blocks1.SCINet_Tree.SCINet_Tree_odd.workingblock.interact.level.psi.4.bias f8 [1]
00000000: 1af1 1d11 cb16 b1bf
-0.06675404708761726

blocks1.SCINet_Tree.SCINet_Tree_odd.workingblock.interact.level.P.1.weight f8 [1, 1, 7]
00000000: 6583 3191 12b6 c53f a2b5 4e73 13a3 cc3f
00000010: 2b00 1012 2949 c43f f944 e7d6 03a7 b63f
00000020: c039 d09a 9bdb d1bf 4c24 37fd 83ed d6bf
00000030: 48c1 54ef 26cf e0bf
0.16961891259691267 0.22372668390509626 0.15848267919500478 0.08848594662346788 -0.2790287982797075 -0.3582468006903283 -0.5252871202883762

blocks1.SCINet_Tree.SCINet_Tree_odd.workingblock.interact.level.P.1.bias f8 [1]
00000000: 6f6e 640e 26e3 d0bf
-0.26386405377863914

blocks1.SCINet_Tree.SCINet_Tree_odd.workingblock.interact.level.P.4.weight f8 [1, 1, 3]
00000000: 3677 b811 23d9 a4bf a418 2b16 bb68 c1bf
00000010: 6d21 fa72 4c08 d5bf
-0.040719123757510564 -0.13600863058508594 -0.32863150814275494

blocks1.SCINet_Tree.SCINet_Tree_odd.workingblock.interact.level.P.4.bias f8 [1]
00000000: 0638 78cd d994 86bf
-0.011026097853598326

blocks1.SCINet_Tree.SCINet_Tree_odd.workingblock.interact.level.U.1.weight f8 [1, 1, 7]
00000000: 7bb8 e197 0bcf d9bf b724 8665 036c e0bf
00000010: 27e9 3078 6ac9 d9bf 8b17 a749 b644 c03f
00000020: cbff 0d8f e3b7 c53f a719 cf06 c3f5 d83f
00000030: 904b c532 d8b7 e53f
-0.40326204139899574 -0.5131852133646565 -0.40291845071228 0.12709692570041073 0.1696743439206315 0.3900001112455364 0.6786919585814406

blocks1.SCINet_Tree.SCINet_Tree_odd.workingblock.interact.level.U.1.bias f8 [1]
00000000: 107e 4306 d58c 62bf
-0.0022644196161392197

blocks1.SCINet_Tree.SCINet_Tree_odd.workingblock.interact.level.U.4.weight f8 [1, 1, 3]
00000000: 5a00 cac4 0223 b23f c728 fd6a f03d e93f
00000010: b427 c1c8 016f ed3f
0.07084672264500239 0.7888109292628308 0.9198006554590763

blocks1.SCINet_Tree.SCINet_Tree_odd.workingblock.interact.level.U.4.bias f8 [1]
00000000: 9cea b4c3 f652 c2bf
-0.1431568580245156

blocks1.SCINet_Tree.SCINet_Tree_odd.SCINet_Tree_odd.workingblock.interact.level.phi.1.weight f8 [1, 1, 7]
00000000: 7709 46b2 91bd d93f a462 8c34 4ae0 9a3f
00000010: c7c4 a7f9 b14a 523f bbd0 e81a cf18 903f
00000020: 024a 528f f7f7 d3bf 5767 9bdf a080 d6bf
00000030: 9552 e34b 9880 923f
0.40219538125543103 0.026246222932146637 0.0011164415396900816 0.015719638841077393 -0.31200970646128223 -0.35160085522294565 0.018068675643763205

blocks1.SCINet_Tree.SCINet_Tree_odd.SCINet_Tree_odd.workingblock.interact.level.phi.1.bias f8 [1]
00000000: 77cc e165 db9b 74bf
-0.0050314493401969395

blocks1.SCINet_Tree.SCINet_Tree_odd.SCINet_Tree_odd.workingblock.interact.level.phi.4.weight f8 [1, 1, 3]
00000000: a0e1 424c e616 e13f 7809 9793 f1cb 60bf
00000010: d8af 0d8c ecc6 a8bf
0.5340453614690439 -0.0020503729144546977 -0.04839266976964013

blocks1.SCINet_Tree.SCINet_Tree_odd.SCINet_Tree_odd.workingblock.interact.level.phi.4.bias f8 [1]
00000000: bcc0 923e b729 ecbf
-0.8800922605642181

blocks1.SCINet_Tree.SCINet_Tree_odd.SCINet_Tree_odd.workingblock.interact.level.psi.1.weight f8 [1, 1, 7]
00000000: 63a3 66e6 5d16 d43f 8dde 41d5 d861 d33f
00000010: 6162 f487 a11c bbbf 3904 95d4 87cb ce3f
00000020: db4f 44f8 d13c da3f a766 8319 f286 ad3f
00000030: 4d92 db35 47a1 e13f
0.3138651609429443 0.3028471071806756 -0.10590562409596195 0.2405862606047167 0.4099621700745481 0.05767017899934262 0.5509372760685182

blocks1.SCINet_Tree.SCINet_Tree_odd.SCINet_Tree_odd.workingblock.interact.level.psi.1.bias f8 [1]
00000000: b00a a85a 05ef 0040
2.1167094309360763

blocks1.SCINet_Tree.SCINet_Tree_odd.SCINet_Tree_odd.workingblock.interact.level.psi.4.weight f8 [1, 1, 3]
00000000: 7e8b d2dd a2c2 e9bf 6ea0 e905 ff94 ebbf
00000010: 2ae8 582f bf49 edbf
-0.8050093014211226 -0.8619380107384254 -0.9152522969009216

blocks1.SCINet_Tree.SCINet_Tree_odd.SCINet_Tree_odd.workingblock.interact.level.psi.4.bias f8 [1]
00000000: b3e8 d7cf 5ff5 03c0
-2.494811652924079

blocks1.SCINet_Tree.SCINet_Tree_odd.SCINet_Tree_odd.workingblock.interact.level.P.1.weight f8 [1, 1, 7]
00000000: 6181 bb76 1282 cbbf 5685 f60a 4c5d c5bf
00000010: c8bb 48ce 38cf d2bf 475f 3aab 1a24 e7bf
00000020: a866 1d32 2d99 e1bf 4430 d1a3 86d3 db3f
00000030: 7922 2440 3a72 f43f
-0.21490698621256413 -0.16690969977666253 -0.29389782090123306 -0.7231572479531473 -0.549948308830797 0.43478551862495274 1.2778875833047592

blocks1.SCINet_Tree.SCINet_Tree_odd.SCINet_Tree_odd.workingblock.interact.level.P.1.bias f8 [1]
00000000: 9685 000f 09f7 9bbf
-0.02730955270829368

blocks1.SCINet_Tree.SCINet_Tree_odd.SCINet_Tree_odd.workingblock.interact.level.P.4.weight f8 [1, 1, 3]
00000000: f2e6 06f5 bffb cbbf c676 e95a a636 f9bf
00000010: 4d4a 9f50 05a3 08c0
-0.2186202951832495 -1.575842242359998 -3.079599981175568

blocks1.SCINet_Tree.SCINet_Tree_odd.SCINet_Tree_odd.workingblock.interact.level.P.4.bias f8 [1]
00000000: ab1e 25f6 e6fc 9e3f
0.030261620305536734

blocks1.SCINet_Tree.SCINet_Tree_odd.SCINet_Tree_odd.workingblock.interact.level.U.1.weight f8 [1, 1, 7]
00000000: 3646 6de1 1dfa f23f 4905 39ac 008c e23f
00000010: 3746 caaf 8756 77bf ddf2 166f b1cd cabf
00000020: 0e67 8feb 5203 c13f 7a04 a831 4a2f eabf
00000030: 77b0 4f29 9bee e8bf
1.1860636525856427 0.5795901645398455 -0.005697755838484356 -0.2094022552900218 0.1329139375873684 -0.8182726831293075 -0.7791267210827887

blocks1.SCINet_Tree.SCINet_Tree_odd.SCINet_Tree_odd.workingblock.interact.level.U.1.bias f8 [1]
00000000: 86e3 9ff0 ffda 7e3f
0.007533073201550949

blocks1.SCINet_Tree.SCINet_Tree_odd.SCINet_Tree_odd.workingblock.interact.level.U.4.weight f8 [1, 1, 3]
00000000: fe91 50c6 6519 ee3f 6323 c7e2 2d10 f53f
00000010: bfed 3a04 6225 fb3f
0.940600287755444 1.3164500101576884 1.6966266789666944

blocks1.SCINet_Tree.SCINet_Tree_odd.SCINet_Tree_odd.workingblock.interact.level.U.4.bias f8 [1]
00000000: 13f8 e6f4 9779 c33f
0.1521482415973315

blocks1.SCINet_Tree.SCINet_Tree_odd.SCINet_Tree_even.workingblock.interact.level.phi.1.weight f8 [1, 1, 7]
00000000: 379f a1de 76f0 be3f ad06 bb7e 258b d7bf
00000010: 5913 658a e639 cdbf 6434 a3b4 1dea d8bf
00000020: 410d 032e 1287 c73f 5541 c675 9986 933f
00000030: 971a 95df 7171 d1bf
0.12085669455848068 -0.36786782623321806 -0.22832948453483473 -0.38928930893309244 0.18380954024005727 0.01906814366663075 -0.2725491221830593

blocks1.SCINet_Tree.SCINet_Tree_odd.SCINet_Tree_even.workingblock.interact.level.phi.1.bias f8 [1]
00000000: 82c6 beb0 5e2b e0bf
-0.5052941753439912

blocks1.SCINet_Tree.SCINet_Tree_odd.SCINet_Tree_even.workingblock.interact.level.phi.4.weight f8 [1, 1, 3]
00000000: 9e1e fb7d 5199 c9bf 6a7d 50be d0a8 9bbf
00000010: 5781 c904 e4e5 e33f
-0.19999140407002342 -0.027011167159910178 0.6218128293512944

blocks1.SCINet_Tree.SCINet_Tree_odd.SCINet_Tree_even.workingblock.interact.level.phi.4.bias f8 [1]
00000000: 4bf4 c45a 955f f3bf
-1.2108357949903332

blocks1.SCINet_Tree.SCINet_Tree_odd.SCINet_Tree_even.workingblock.interact.level.psi.1.weight f8 [1, 1, 7]
00000000: 1f6c c7f9 1231 bf3f 022d ec05 e92f e6bf
00000010: 0c53 9c67 a977 e6bf 3eb5 2773 ebcd e2bf
00000020: fffe f58c 4eab c43f ba39 4fda 0c73 e03f
00000030: 35fc 1904 4f44 c83f
0.1218425617038723 -0.6933484187769923 -0.7021071456570964 -0.5876366852877835 0.16147786982400444 0.5140442146164823 0.18958461475628643

blocks1.SCINet_Tree.SCINet_Tree_odd.SCINet_Tree_even.workingblock.interact.level.psi.1.bias f8 [1]
00000000: 4e31 d0c7 6cae e6bf
-0.7087921049692711

blocks1.SCINet_Tree.SCINet_Tree_odd.SCINet_Tree_even.workingblock.interact.level.psi.4.weight f8 [1, 1, 3]
00000000: 69f1 1776 b9b1 d3bf 2acb 2bc1 611c f73f
00000010: 4acc 1cc4 cd04 fd3f
-0.30772244007655175 1.444429163527 1.813672796310828

blocks1.SCINet_Tree.SCINet_Tree_odd.SCINet_Tree_even.workingblock.interact.level.psi.4.bias f8 [1]
00000000: b4cc 2666 2fd3 b13f
0.06962867969450565

blocks1.SCINet_Tree.SCINet_Tree_odd.SCINet_Tree_even.workingblock.interact.level.P.1.weight f8 [1, 1, 7]
00000000: bef0 9980 4b86 c3bf bf27 347e 7451 cbbf
00000010: a832 06fe d019 d1bf b24e 54ac 2441 d7bf
00000020: b03c 77d7 a7bc c6bf da8b 7efa 8a66 da3f
00000030: f184 9d4f fb5a eb3f
-0.15253585605012704 -0.21342331087390495 -0.2672007065491848 -0.36335102871928904 -0.1776323129729227 0.4125087209924324 0.8548561625467795

blocks1.SCINet_Tree.SCINet_Tree_odd.SCINet_Tree_even.workingblock.interact.level.P.1.bias f8 [1]
00000000: 95ca 9c86 031d 983f
0.02354817875966349

blocks1.SCINet_Tree.SCINet_Tree_odd.SCINet_Tree_even.workingblock.interact.level.P.4.weight f8 [1, 1, 3]
00000000: 0b53 9a52 a58b e5bf 1d6b 0177 c22c f0bf
00000010: 1c69 21fa 4993 f0bf
-0.6732966054283634 -1.010927643647569 -1.0359592219088603

blocks1.SCINet_Tree.SCINet_Tree_odd.SCINet_Tree_even.workingblock.interact.level.P.4.bias f8 [1]
00000000: bcf5 0f3e 6c9f d1bf
-0.2753553968503544

blocks1.SCINet_Tree.SCINet_Tree_odd.SCINet_Tree_even.workingblock.interact.level.U.1.weight f8 [1, 1, 7]
00000000: 7060 6cab 1b72 de3f 92cf 6505 25f4 d03f
00000010: 9dcc 59ab 4854 d73f a58e 25c8 4424 d53f
00000020: 998a b038 9fd2 a1bf f03d d97c 3ebd dbbf
00000030: e291 6851 74f2 ecbf
0.47571460476456817 0.26490140463942524 0.3645192788455434 0.33033866448952615 -0.0348100430203619 -0.43342554275747514 -0.9045964803704545

blocks1.SCINet_Tree.SCINet_Tree_odd.SCINet_Tree_even.workingblock.interact.level.U.1.bias f8 [1]
00000000: 151b 350e 0dc9 6bbf
-0.003391767024058532

blocks1.SCINet_Tree.SCINet_Tree_odd.SCINet_Tree_even.workingblock.interact.level.U.4.weight f8 [1, 1, 3]
00000000: d803 d56a 5174 d2bf c1bf 69ba e095 d6bf
00000010: a71d 2639 8a12 ddbf
-0.28834948952504424 -0.3528978176536804 -0.45425658780046735

blocks1.SCINet_Tree.SCINet_Tree_odd.SCINet_Tree_even.workingblock.interact.level.U.4.bias f8 [1]
00000000: 98e1 5265 aaa9 bd3f
0.11587014173244936

blocks1.SCINet_Tree.SCINet_Tree_even.workingblock.interact.level.phi.1.weight f8 [1, 1, 7]
00000000: 0e62 ff2a 948c c7bf 8725 c6b7 66a9 c93f
00000010: 4601 95bb 5566 7b3f 4d41 ac0d d0d2 e5bf
00000020: 4587 13cf 6c0d edbf 95bd 8293 634a edbf
00000030: 1cdd 455c ee92 ebbf
-0.1839776239346666 0.2004822156271013 0.006689391034626907 -0.6819839732216139 -0.9078887981852196 -0.9153306847637618 -0.8616859247403315

blocks1.SCINet_Tree.SCINet_Tree_even.workingblock.interact.level.phi.1.bias f8 [1]
00000000: 47ab dc16 ed59 a83f
0.04756108192517288

blocks1.SCINet_Tree.SCINet_Tree_even.workingblock.interact.level.phi.4.weight f8 [1, 1, 3]
00000000: 6c13 b217 e4ce f03f 37a0 ae55 a8f5 e83f
00000010: 142a f2d4 0dd4 d13f
1.0505104947671624 0.779987494800486 0.278567750887903

blocks1.SCINet_Tree.SCINet_Tree_even.workingblock.interact.level.phi.4.bias f8 [1]
00000000: d3af 73d8 f90f f3bf
-1.1914003806259543

blocks1.SCINet_Tree.SCINet_Tree_even.workingblock.interact.level.psi.1.weight f8 [1, 1, 7]
00000000: bb60 d9bc 2b4d c6bf a35c e914 955c dbbf
00000010: 9c4e 4e16 66f2 e1bf 8919 9563 9827 d0bf
00000020: 29ca d3ab d0eb d1bf 5f7f 6b89 bd95 d03f
00000030: 89cf f4c6 fb26 de3f
-0.1742300674548057 -0.42752577821870313 -0.5608396945630889 -0.25241670346113004 -0.2800180128098498 0.2591394273749667 0.47112936429334035

blocks1.SCINet_Tree.SCINet_Tree_even.workingblock.interact.level.psi.1.bias f8 [1]
00000000: 8a0b 9b07 fe04 cfbf
-0.24233985301370026

blocks1.SCINet_Tree.SCINet_Tree_even.workingblock.interact.level.psi.4.weight f8 [1, 1, 3]
00000000: e26f 054b fa2c c63f 365b 1530 6825 da3f
00000010: 3a96 6cc1 3c39 e33f
0.17324761069437417 0.4085331410946539 0.6007369783225791

blocks1.SCINet_Tree.SCINet_Tree_even.workingblock.interact.level.psi.4.bias f8 [1]
00000000: ed9c b221 30ee f3bf
-1.2456513706509285

blocks1.SCINet_Tree.SCINet_Tree_even.workingblock.interact.level.P.1.weight f8 [1, 1, 7]
00000000: ece0 1a41 b080 8d3f 565b 345e 2fa7 dfbf
00000010: c18f 16c3 8ab2 d13f 6fe8 94b6 326d d0bf
00000020: 7b7c 80bb 33ce e23f c859 89f4 ecae cabf
00000030: 6683 e203 4f6e ae3f
0.014405610071989781 -0.49457916450176265 0.27652234126639647 -0.2566649230026376 0.5876711523195718 -0.20846330585727757 0.059435338234158405

blocks1.SCINet_Tree.SCINet_Tree_even.workingblock.interact.level.P.1.bias f8 [1]
00000000: 1c49 1ad7 b301 bebf
-0.11721347810297228

blocks1.SCINet_Tree.SCINet_Tree_even.workingblock.interact.level.P.4.weight f8 [1, 1, 3]
00000000: ac1f 0ef3 43c0 e93f b8e6 87fb 4c27 a2bf
00000010: a6c3 adcb 4e6b c73f
0.8047199008151344 -0.035456090645266725 0.18296227402927662

blocks1.SCINet_Tree.SCINet_Tree_even.workingblock.interact.level.P.4.bias f8 [1]
00000000: 281f 078c ca74 db3f
0.42900336908904757

blocks1.SCINet_Tree.SCINet_Tree_even.workingblock.interact.level.U.1.weight f8 [1, 1, 7]
00000000: c80c 558e 60c8 c4bf 51b1 c0ea f7b2 b9bf
00000010: 0715 d433 2de2 dd3f 1e20 a009 6bc4 e1bf
00000020: b29d db0f dae9 e2bf 675a 45d7 b8c0 c9bf
00000030: 2f96 189e 94d3 e4bf
-0.1623650259954046 -0.10038709145800807 0.4669297224175612 -0.5552268207548001 -0.5910463628505822 -0.20119390975260673 -0.6508277023137391

blocks1.SCINet_Tree.SCINet_Tree_even.workingblock.interact.level.U.1.bias f8 [1]
00000000: 231d 4bb7 98de bcbf
-0.11277155375420427

blocks1.SCINet_Tree.SCINet_Tree_even.workingblock.interact.level.U.4.weight f8 [1, 1, 3]
00000000: 86be 446c 718f dcbf 0635 ca5f 1464 dabf
00000010: e6b6 51f8 565f e4bf
-0.4462550694761166 -0.41235837320785185 -0.6366381502136533

blocks1.SCINet_Tree.SCINet_Tree_even.workingblock.interact.level.U.4.bias f8 [1]
00000000: bd6b fbb3 ccf7 e53f
0.6864989772105826

blocks1.SCINet_Tree.SCINet_Tree_even.SCINet_Tree_odd.workingblock.interact.level.phi.1.weight f8 [1, 1, 7]
00000000: 53b1 0e97 c33f d03f 8003 b7a6 5607 eb3f
00000010: 19af 9350 8769 e93f 5bed 2717 779e f03f
00000020: f02c 7ba7 b671 f23f af94 8ddb 9d82 f63f
00000030: e3a4 4846 4e86 e23f
0.2538918471498352 0.8446458107138 0.7941319059150117 1.038687792256346 1.1527620832665058 1.4068888260165229 0.5788947460870556

blocks1.SCINet_Tree.SCINet_Tree_even.SCINet_Tree_odd.workingblock.interact.level.phi.1.bias f8 [1]
00000000: 1e77 7618 5e34 d53f
0.3313212622541516

blocks1.SCINet_Tree.SCINet_Tree_even.SCINet_Tree_odd.workingblock.interact.level.phi.4.weight f8 [1, 1, 3]
00000000: f29d 1365 f4bd f8bf 5b77 d06d c10f fdbf
00000010: 6838 342a 1151 fdbf
-1.5463756511979878 -1.8163465776082919 -1.8322917603104774

blocks1.SCINet_Tree.SCINet_Tree_even.SCINet_Tree_odd.workingblock.interact.level.phi.4.bias f8 [1]
00000000: f953 d4fc e08e b43f
0.0803051583537381

blocks1.SCINet_Tree.SCINet_Tree_even.SCINet_Tree_odd.workingblock.interact.level.psi.1.weight f8 [1, 1, 7]
00000000: 388d 1626 c188 c3bf ad5b 7045 1d37 c4bf
00000010: 2daa 8ba0 1ca4 e03f e853 4c36 a471 c7bf
00000020: fb09 9069 1f45 e3bf 971d a09a 092b f2bf
00000030: 665b a8cf ae37 dbbf
-0.1526109157540334 -0.157931956201279 0.5200331817298484 -0.18315556193616023 -0.6021878301401665 -1.135507205968542 -0.4252736118227659

blocks1.SCINet_Tree.SCINet_Tree_even.SCINet_Tree_odd.workingblock.interact.level.psi.1.bias f8 [1]
00000000: eac1 815d 7596 e53f
0.6746165109926185

blocks1.SCINet_Tree.SCINet_Tree_even.SCINet_Tree_odd.workingblock.interact.level.psi.4.weight f8 [1, 1, 3]
00000000: 47b1 7282 8435 e7bf 4e6d 21e1 6970 e0bf
00000010: 0d84 437c 1d5f f2bf
-0.7252829120457499 -0.5137223622399831 -1.1482214788486573

blocks1.SCINet_Tree.SCINet_Tree_even.SCINet_Tree_odd.workingblock.interact.level.psi.4.bias f8 [1]
00000000: 13fa 97ed cb35 f8bf
-1.5131339341165855

blocks1.SCINet_Tree.SCINet_Tree_even.SCINet_Tree_odd.workingblock.interact.level.P.1.weight f8 [1, 1, 7]
00000000: ad0a 0af1 497f f43f 563d 11b5 a1d8 f03f
00000010: 6e38 6396 1e4c df3f 9aea 5ac8 87d8 e43f
00000020: 7fa3 1cac 7bec 993f bd4f 090e be34 f03f
00000030: 3e2d b855 7765 e0bf
1.2810763755411856 1.0528885910933545 0.48902096449172106 0.6514319337068912 0.025316173915743697 1.0128765629096812 -0.5123860048492259

blocks1.SCINet_Tree.SCINet_Tree_even.SCINet_Tree_odd.workingblock.interact.level.P.1.bias f8 [1]
00000000: ea3a 9744 7eb1 84bf
-0.010104166477416372

blocks1.SCINet_Tree.SCINet_Tree_even.SCINet_Tree_odd.workingblock.interact.level.P.4.weight f8 [1, 1, 3]
00000000: 2f5c ae41 6228 f33f a956 cff4 7b6a ed3f
00000010: d892 536f bbfa e83f
1.1973593297641505 0.9192485600894617 0.7806069540352736

blocks1.SCINet_Tree.SCINet_Tree_even.SCINet_Tree_odd.workingblock.interact.level.P.4.bias f8 [1]
00000000: f6cd ff4f 4b3a bbbf
-0.10635824874025687

blocks1.SCINet_Tree.SCINet_Tree_even.SCINet_Tree_odd.workingblock.interact.level.U.1.weight f8 [1, 1, 7]
00000000: 5e3f 372c 93da c5bf 2f76 309e 02a4 ba3f
00000010: f9d7 c7fc eb6a e23f 0044 de02 0158 f43f
00000020: c102 a946 2e1b f43f d23d 6892 cd90 fb3f
00000030: c598 9c42 c29a fa3f
-0.17073287638640527 0.10406509744685687 0.5755519806978092 1.2714853393592875 1.2566359291233058 1.7228522986441601 1.6627829172153252

blocks1.SCINet_Tree.SCINet_Tree_even.SCINet_Tree_odd.workingblock.interact.level.U.1.bias f8 [1]
00000000: 2841 22e4 af65 db3f
0.428081486498757

blocks1.SCINet_Tree.SCINet_Tree_even.SCINet_Tree_odd.workingblock.interact.level.U.4.weight f8 [1, 1, 3]
00000000: 27ff aa07 350c fabf 8500 d828 0081 f9bf
00000010: 2f89 eb09 435d fbbf
-1.627980260804131 -1.5939942927798552 -1.71026901125931

blocks1.SCINet_Tree.SCINet_Tree_even.SCINet_Tree_odd.workingblock.interact.level.U.4.bias f8 [1]
00000000: bd32 1e58 3363 d03f
0.25605472188253114

blocks1.SCINet_Tree.SCINet_Tree_even.SCINet_Tree_even.workingblock.interact.level.phi.1.weight f8 [1, 1, 7]
00000000: 8854 be2f 2998 c6bf be07 2e1d 6d14 b5bf
00000010: f56f c3e5 9d8b b23f c512 e297 f2b3 e13f
00000020: f46d f9c6 a4fc 9fbf 7929 f502 0218 b5bf
00000030: f967 5ee0 60e7 dc3f
-0.1765185816881607 -0.08234292948148345 0.07244288310488385 0.5532162634341026 -0.031237196583203855 -0.08239758083542438 0.451622218237048

blocks1.SCINet_Tree.SCINet_Tree_even.SCINet_Tree_even.workingblock.interact.level.phi.1.bias f8 [1]
00000000: 30a9 41ed d891 e3bf
-0.6115536340633181

blocks1.SCINet_Tree.SCINet_Tree_even.SCINet_Tree_even.workingblock.interact.level.phi.4.weight f8 [1, 1, 3]
00000000: ed55 f156 7048 f5bf 6c10 3b12 8702 fabf
00000010: fea9 ecf1 3fc9 f8bf
-1.330185260410299 -1.6256170951974367 -1.5491332483458105

blocks1.SCINet_Tree.SCINet_Tree_even.SCINet_Tree_even.workingblock.interact.level.phi.4.bias f8 [1]
00000000: 5ea5 71e3 aefd e5bf
-0.6872171823753594

blocks1.SCINet_Tree.SCINet_Tree_even.SCINet_Tree_even.workingblock.interact.level.psi.1.weight f8 [1, 1, 7]
00000000: 71cd 8b29 3ac6 e3bf 52f5 fc57 9888 7abf
00000010: 05c6 be32 6b99 c33f 88cf f973 6a00 c1bf
00000020: 2572 b5c4 629f d23f cb3c 7957 f119 d83f
00000030: bb14 f6a4 29ec e23f
-0.617947655815824 -0.006477923481552255 0.1531194684771863 -0.13282519019014338 0.29097813806382283 0.3765834192499368 0.5913284513377656

blocks1.SCINet_Tree.SCINet_Tree_even.SCINet_Tree_even.workingblock.interact.level.psi.1.bias f8 [1]
00000000: 05ca b701 25d6 f0bf
-1.0522813860994813

blocks1.SCINet_Tree.SCINet_Tree_even.SCINet_Tree_even.workingblock.interact.level.psi.4.weight f8 [1, 1, 3]
00000000: eb01 1423 4585 e13f 092c 8b06 6ec6 f03f
00000010: b4b3 bac3 e244 f13f
0.5475183186645699 1.0484447723017658 1.0793178220439872

blocks1.SCINet_Tree.SCINet_Tree_even.SCINet_Tree_even.workingblock.interact.level.psi.4.bias f8 [1]
00000000: 18ae 4463 d31a f3bf
-1.1940492513339276

blocks1.SCINet_Tree.SCINet_Tree_even.SCINet_Tree_even.workingblock.interact.level.P.1.weight f8 [1, 1, 7]
00000000: 48ee a6c3 7f72 d93f 623e c383 835f e63f
00000010: e675 bd70 896f d73f 166e 9498 ee7d c3bf
00000020: efb3 af6d 06bb d2bf 3be6 5e21 6613 ddbf
00000030: 67c7 8f33 b31e c7bf
0.3976134691872386 0.6991593907823239 0.3661826706864687 -0.1522806401270464 -0.29266510688358854 -0.4543090177427051 -0.18062438981683757

blocks1.SCINet_Tree.SCINet_Tree_even.SCINet_Tree_even.workingblock.interact.level.P.1.bias f8 [1]
00000000: e49b 3dc3 1142 cabf
-0.2051412776301894

blocks1.SCINet_Tree.SCINet_Tree_even.SCINet_Tree_even.workingblock.interact.level.P.4.weight f8 [1, 1, 3]
00000000: d7ed d02b 06a6 dd3f be0a 4a2d 19cf f93f
00000010: a8d1 af22 af95 0240
0.4632583072559248 1.613061119948426 2.323087950697488

blocks1.SCINet_Tree.SCINet_Tree_even.SCINet_Tree_even.workingblock.interact.level.P.4.bias f8 [1]
00000000: d4aa 0117 83b5 d03f
0.2610786175415971

blocks1.SCINet_Tree.SCINet_Tree_even.SCINet_Tree_even.workingblock.interact.level.U.1.weight f8 [1, 1, 7]
00000000: 3aad 6896 27ca e03f d43d 81a0 5b0a d0bf
00000010: a2a9 a040 d623 e7bf 3e47 3494 8c6d d43f
00000020: 3fed 4220 f2a3 d53f 97da 5cb4 1050 9abf
00000030: 1c10 8659 ba57 7dbf
0.5246770799325653 -0.2506321971349881 -0.7231246244676195 0.31918634865825257 0.33813145781069304 -0.02569604969832059 -0.007163741997263908

blocks1.SCINet_Tree.SCINet_Tree_even.SCINet_Tree_even.workingblock.interact.level.U.1.bias f8 [1]
00000000: bec0 6043 cb90 cdbf
-0.23098126211107756

blocks1.SCINet_Tree.SCINet_Tree_even.SCINet_Tree_even.workingblock.interact.level.U.4.weight f8 [1, 1, 3]
00000000: db1e 0991 4e3b ee3f 8718 37ca 8a4d f13f
00000010: 20ce afc6 6589 f13f
0.9447396118857471 1.081431188491054 1.0960443268967381

blocks1.SCINet_Tree.SCINet_Tree_even.SCINet_Tree_even.workingblock.interact.level.U.4.bias f8 [1]
00000000: 0c79 ca4d e203 b1bf
-0.06646551512901427

projection1.weight f8 [48, 96, 1]
00000000: e20f 285f b4f9 593f b640 43ec cf43 51bf
00000010: 41de 5211 6f7b 643f c874 27ec f7e5 493f
00000020: ef88 503b bd7a 783f 7d48 84aa 18e5 66bf
00000030: 366e 19a4 7c24 343f 6e88 6d1c c0f6 733f
00000040: 90e5 3d54 adea 7cbf 05f0 2ee8 36a1 5fbf
00000050: 3415 b6b5 8787 58bf 83a6 d6ad d854 573f
00000060: 01d5 067c 7b44 683f ccd4 2844 1ff4 383f
00000070: c22c 0544 3538 6c3f 0890 3b4c c970 743f
00000080: 183d a682 07d9 6cbf 0621 2e33 4622 3c3f
00000090: 56c1 85d6 fa8b 72bf c129 2404 929b 68bf
000000a0: 97c4 b02d 4946 75bf a17b ce33 9583 6cbf
000000b0: 79ec 27fd f559 5c3f d88e 1d7b 1081 f8be
000000c0: efc9 41cb 72c4 52bf 2688 f3d9 d2f5 4fbf
000000d0: 404f 05bf f6e3 31bf 5f5a b456 0984 6b3f
000000e0: e6c1 b31c c266 66bf 27cc 55e2 b1bd 5c3f
000000f0: 616d 4c61 762f 723f 96d9 b8b4 6ac5 5a3f
00000100: 8872 db27 344a 5cbf b714 1483 87a3 5dbf
00000110: 12c1 89db 428b 4fbf 5efa 4731 1d73 58bf
00000120: 24be 9886 4609 5d3f 9c5a 10b9 fb0b 38bf
00000130: e5e3 a9e8 b0dc 7c3f 05c4 f520 fb70 6e3f
00000140: 2e2e 33c3 a3d8 1abf b0b1 5e87 4a2d 433f
00000150: 26a4 8ce6 66af 463f 2a04 9ac9 c5aa 723f
00000160: 634e a037 040c 713f 30ad 8bbe dab7 79bf
00000170: 0b55 bb2b 5b9d 6d3f 8959 7af9 4d50 6b3f
00000180: 82f1 ce5c fc33 67bf 21c1 0d5c deb9 4f3f
00000190: c935 3e96 f9af 523f 793b 3ab4 d2ea 65bf
000001a0: 8c5a fc19 e6aa 67bf 720c 3924 457d 65bf
000001b0: 395d 7c16 b4cd 7d3f b97f e009 b5fa 523f
000001c0: 242f f9c0 f048 433f 9f57 316d b25b 4c3f
000001d0: 7b96 1a00 0d9a 6a3f 6e19 3588 0ec9 7dbf
000001e0: 5631 b401 a1a6 563f 8123 9053 f8a7 67bf
000001f0: 1f9f 6d3a f009 5ebf e021 8459 d0a6 4ebf
00000200: c406 22f0 b5e6 7abf 67a5 f1d1 1798 51bf
00000210: b201 2304 d9f5 7ebf 71d6 d23b 99d5 6ebf
00000220: 3c03 d444 4032 81bf 51cb 0a17 0d00 78bf
00000230: b821 87fe 96d7 713f a3d4 f8b6 e580 583f
00000240: 61c1 ad01 7402 643f 9709 d281 0df3 74bf
00000250: 9d8f 6a3b 4236 5b3f 998a 802b e5e9 7a3f
00000260: 8dcc 0f57 fe18 553f 3893 da88 44e9 683f
00000270: 8fb5 9e76 7fb2 6c3f bf3d 22fd e90c 74bf
00000280: 6520 72c7 6ba9 52bf fcf2 d172 c0a2 62bf
00000290: 09a4 d87c 58ed 673f 3065 7f21 4de7 7d3f
000002a0: 1bf6 666b 40ea 6f3f 6d65 375c ec93 603f
000002b0: c42b 674b a37d 81bf c44f 0c0b 58ce 60bf
000002c0: 43c4 676a 7049 483f a893 8d62 ae17 7fbf
000002d0: 0058 6668 ade4 5abf ed88 26f3 bf20 873f
000002e0: 7519 32b0 56ca 95bf 12d5 59fd e2b5 80bf
000002f0: b368 5b63 d3bf bc3f e7ec 8e39 f88b e73f
00000300: a05c 00fd 69c2 4abf c5dc 86b3 ccdc 5dbf
00000310: 8aa4 6de2 f45a 5ebf ad59 1271 f57a 4cbf
00000320: 6e4a f394 5457 52bf 3968 0d31 bb9f 67bf
00000330: 388a 532c ab6c 703f 707d f8a7 83c3 783f
00000340: 20ca 73a9 3025 79bf 636f 4bf4 c67c 57bf
00000350: ea06 60d7 0752 653f bad3 3d35 8562 36bf
00000360: 598e e0b0 fdb6 683f ec5e 4757 90b6 573f
00000370: 3435 1410 3a83 563f 1063 f060 de6d 633f
00000380: 2041 61c5 9845 70bf 1c53 45c4 c834 71bf
00000390: 1ef9 18be 4974 59bf 9a6f 1cbf 249c 4abf
000003a0: ad86 111d c12f 77bf cd41 5178 5f84 53bf
000003b0: 389b f856 e1a9 783f 4a71 de56 c87e 803f
000003c0: 8559 c067 1691 733f 8c21 06d3 1c9f 643f
000003d0: 5d55 d1de 2e71 603f b17f 39bb 1b69 423f
000003e0: 3f4f 1cee 9445 64bf e0ad 880a 7486 533f
000003f0: 9704 ae3e ac21 7b3f 1653 2020 37ea 2e3f
00000400: ff9a 7bdb b296 2f3f 6aac 1d19 24ca 3e3f
00000410: 8671 702e a9a0 493f 5606 ffd8 7422 5fbf
00000420: b285 6abd 9feb 76bf 3eb0 259a 9322 74bf
00000430: 380f 8c5e 5871 15bf d75c 7c04 1cbd 5d3f
00000440: 8afd 7bca 6f8b 583f 4f93 d033 1cc6 76bf
00000450: 3992 7a6b f16a 80bf 6a2e f559 cd84 6bbf
00000460: f0b8 554e 8c31 793f 2eb8 ee8e a102 643f
00000470: 2074 249c 88bf 713f 14d7 b1c6 9468 763f
00000480: 89de b632 9169 713f 3cb6 4afc 840c 05bf
00000490: 7bf6 ee79 0fc2 713f 7c2d 89ad 622c 65bf
000004a0: e290 7fd2 d44b 743f 256b 1546 625f 4c3f
000004b0: 4839 03a5 7e74 633f 64d9 6679 4242 613f
000004c0: 167e 5f7b 3362 713f 129d 4a58 228f 50bf
000004d0: c404 0828 1cb5 713f 1c6f 787e 18ed 74bf
000004e0: a8e5 77f1 c4a9 5b3f 924a 2d6e c503 62bf
000004f0: 155d 8a49 bdb7 43bf 7bd9 1447 8672 5ebf
00000500: bb36 796e c97a 53bf cefc 8b5f 5815 52bf
00000510: 1875 521a fcd7 83bf c097 97ce 61ba 68bf
00000520: e79e 439e ddcb 70bf a39b fe88 3f72 36bf
00000530: 9904 cae0 f3d2 6d3f 245d d945 b625 3bbf
00000540: f336 e6c9 d210 57bf cf0e c6bf 0b98 60bf
00000550: cca9 c916 d5d3 50bf 99f4 5d11 c22e 663f
00000560: 61c7 f7da 8d2e 71bf 0afd 3b49 6ebb 56bf
00000570: e360 e43c 53a6 69bf 9de9 bcfb df58 60bf
00000580: 0e69 9189 6b01 613f 71b3 1a7d 0cfc 553f
00000590: 566e 59a7 251a 4d3f 4b6d 5655 a4f1 733f
000005a0: 620f 4581 a2cb 683f d3ea 16e1 6cb4 6f3f
000005b0: c86d 3374 9a1a 82bf 4ec0 f4b2 b3f8 5bbf
000005c0: 77b0 f5a5 ce27 9bbf 4fb1 dcd2 d68a 7abf
000005d0: 999f 997d b46b 53bf a26b 6a50 554f 753f
000005e0: 3c16 308a c5b2 8cbf 03c5 6698 5fac 453f
000005f0: 2f71 d29e 5c74 c03f 659b df60 eeb1 e63f
00000600: 5823 b6e1 47a7 783f 2b3a f894 1f65 54bf
00000610: e4cc a195 e05e 20bf 649e b0df 88dc 613f
00000620: 6a83 ea2c dc82 623f 73df a275 f274 23bf
00000630: 9438 3898 3dce 4e3f 5ca6 595f ccdf 583f
00000640: 34a3 7cd1 938d 78bf 509e b9c8 cf87 70bf
00000650: 12ee 9232 846a 75bf b0e7 f364 2d84 33bf
00000660: 5a48 4572 7ece 1a3f 01c7 5b87 4f05 6cbf
00000670: dc6e 8fb1 584f 323f 3f09 2c61 66a9 64bf
00000680: 6437 5c2e a6c5 58bf 981a 57bd 2e1d 4fbf
00000690: 1680 cbea 8c13 61bf 0f78 7874 44af 633f
000006a0: 889d 9f91 9220 793f fbd4 8c7d fe7d 56bf
000006b0: 070f a258 9b50 803f 78e7 1816 6b39 6a3f
000006c0: f626 bd4d d2b1 6a3f a108 29a3 ab6a 6b3f
000006d0: fb3a 0c0a 78f4 813f 9c5d 6d2c 38a9 813f
000006e0: 386b 6a70 f860 673f c636 8fd7 4669 653f
000006f0: cdaa 8ac7 c4eb 753f c994 cf43 4da5 683f
00000700: 36a0 ff16 d957 523f 33a9 6b8f 1fbd 583f
00000710: 1c45 207b cf29 373f 6e11 d8b7 d89a 673f
00000720: 9c3e 2dd3 2109 5f3f b7f4 3c04 57b2 23bf
00000730: 31a1 1480 2de8 843f 7d37 08ce 6872 7c3f
00000740: f32a 845c 0cfe 2d3f 67c4 bf7f 4d02 44bf
00000750: dcc1 c39b b81e 69bf c823 52aa a465 6fbf
00000760: 5582 d976 56d5 55bf bf6e 8c6c ac1c 63bf
00000770: d31d 85c1 ebd7 363f b4d2 4dff 2953 603f
00000780: e1eb 0a3f 0a1d 6bbf 612c 5e5f 404d 67bf
00000790: dafd 8b95 0b8a 62bf 86f1 44a5 337c 75bf
000007a0: e510 8d45 3b74 2cbf cd62 4c3b f5ed 4a3f
000007b0: 14ad 7252 3a7e 643f 7bcf 4038 1acb 563f
000007c0: dcb0 8359 2392 74bf 661d 78fa fd12 58bf
000007d0: 0d4c 5618 2184 61bf 25e4 af1b d0a3 75bf
000007e0: 011a 01b5 f898 743f 1d31 b22a 071f 70bf
000007f0: 81fe 3bcf 3584 683f 4c70 2994 ea71 133f
0.0015854131166870224 -0.001053765344341468 0.0025002641001170838 0.0007903538283319462 0.005976428209608849 -0.002794788528384605 0.00030735056870920556 0.004873991426253095
-0.007059742991139997 -0.0019305263710824871 -0.0014971566477880007 0.001424037552491348 0.0029623424345240905 0.00038076175056585 0.0034447708459644797 0.004990373916118791
-0.003521456402445399 0.00042928899636553196 -0.004528026424268047 -0.0030038692358449197 -0.005193982938224504 -0.003480712328794281 0.0017304327235468083 -2.336898587119895e-05
-0.0011454697642220254 -0.0009753493831363743 -0.00027298711849720395 0.0033588583370474513 -0.002734545827131496 0.001754211153948368 0.004439794943006476 0.001633981900238978
-0.001726675923627104 -0.0018090079650517185 -0.0009626461461050026 -0.001492289074235174 0.0017722309807019021 -0.0003669251973987071 0.007046404886403378 0.003715982900466932
-0.00010241031195617402 0.0005852331075764574 0.0006922962612395708 0.0045573926996676315 0.004161850427425759 -0.006278852910990992 0.0036150723152369494 0.0033341906490235757
-0.002832405944415751 0.0009682021846924329 0.0011405885097447324 -0.0026754489243283022 -0.0028891081018501182 -0.002623209993346581 0.007276252239328423 0.0011584060625935268
0.0005885291629481354 0.0008654233191787048 0.0032472852625058924 -0.0072718207987406535 0.0013825008707640438 -0.002887711536918081 -0.0018334241846904087 -0.0009354131061921032
-0.006567679114711292 -0.001073859464464222 -0.0075586774057118545 -0.003763961109678964 -0.008396627521962345 -0.00585942376408151 0.00435599310043993 0.0014955752666428255
0.0024425760033680998 -0.0051146056767969105 0.0016608855054664814 0.006570716090240091 0.0012876971998110637 0.0030409182134739886 0.003503083183167894 -0.004895128268017356
-0.0011390259294632662 -0.0022748717079238406 0.002920792415143318 0.00730066422689761 0.0038958795732628843 0.002023660317473633 -0.008540416468255325 -0.002051517447748426
0.0007411765007515686 -0.007590943518924677 -0.0016414349971447528 0.01129293404375572 -0.021279673103458536 -0.008159421307235824 0.11230202842435481 0.735836136263427
-0.0008166329880649088 -0.0018226622615722815 -0.0018527404260686741 -0.000869150013516775 -0.0011194540018563365 -0.0028837829672001794 0.0040098844958458765 0.006045831949023181
-0.006138982854496905 -0.0014335577881671939 0.0026025918150488396 -0.00034156562946146727 0.003016944398966531 0.0014473352031156251 0.0013740603465664638 0.0023717254002914093
-0.00397262264421297 -0.004200729603628852 -0.0015536041395445908 -0.0008120707918552906 -0.005660776471900481 -0.0011912281345481835 0.006021385415386153 0.008054318572071967
0.004777038117046555 0.0025172770476197866 0.0020070949017660226 0.0005618462950671613 -0.00247458541788062 0.001191724130090381 0.00662390978948326 0.00023586199682825636
0.00024100240056342673 0.0004698122148655894 0.0007820917206831513 -0.0019003048982856505 -0.005595802291879991 -0.004915787287568972 -8.179761756471344e-05 0.0018151067360514994
0.001498088045934628 -0.005560026326780611 -0.008016477673046573 -0.0033592234391671043 0.006150768347067834 0.0024426608501562285 0.004333051331085108 0.00547083011325868
0.00425106733330661 -4.014759864410771e-05 0.004335461096102495 -0.0025846411993250534 0.004955130898427225 0.0008658628322949265 0.0023748849417649966 0.0021067903828352764
0.004244042493126729 -0.0010106883429815178 0.004323110566930303 -0.005108924560342645 0.0016884253762995214 -0.0021990638792116013 -0.0006017374281154531 -0.0018583594613353616
-0.0011889426331381087 -0.001103721906645028 -0.009689302018439025 -0.003018561391161051 -0.004100671478432827 -0.00034250308180577333 0.0036406291240501207 -0.00041423511524870033
-0.0014078196032615814 -0.0020256261324805634 -0.001027067274800164 0.0027078428637979488 -0.004194788095888886 -0.0013874604237001397 -0.003131067823357468 -0.0019955038714247323
0.0020758724536281753 0.0013418313941812832 0.0008881267410276266 0.00486911957468845 0.003026788132190748 0.003870213179394491 -0.008839804335756166 -0.001707244384146395
-0.02651903999269264 -0.006480063586235054 -0.001185346851707769 0.005202611215873983 -0.014012854842813664 0.0006614176534666397 0.12855108027441406 0.7092201129970418
0.006018906390985311 -0.0012448128144374553 -0.00012489787588130304 0.0021803544346033366 0.002259664564306642 -0.00014844379149336513 0.0009401131396218503 0.0015182014298268575
-0.00599439374472226 -0.004035770088740856 -0.005228535076806222 -0.0002977953744928109 0.00010225912825959205 -0.003420501069620552 0.00027938762064903615 -0.00252218242656102
-0.0015119669782878925 -0.0009495237560990964 -0.002084517697184661 0.002402909947490712 0.006134579214609366 -0.001372812772570341 0.007966245310178545 0.0032012073068274326
0.0032586200231080565 0.003346762875737389 0.00876706867850662 0.008623541694460717 0.002853856308616367 0.002613676417673047 0.005351799649967415 0.003008509548168979
0.0011195774095487227 0.0015099342542109317 0.0003534442467990216 0.002881453778856783 0.0018942671128633687 -0.00015027343953902757 0.01020846888657498 0.006945046800422958
0.00022882367034811994 -0.0006106260693724664 -0.0030664067872907385 -0.0038326469535303366 -0.0013326019647125393 -0.002333008542690112 0.0003485632492083699 0.001992780710163034
-0.0033097458002351175 -0.0028444535518637325 -0.002263090730025158 -0.005245401135024591 -0.0002170870164041112 0.0008218238277520551 0.002501596365240064 0.0013911968280923826
-0.0050221806379619725 -0.0014693718202368421 -0.00213819946174843 -0.0052831773018562666 0.005028697502047042 -0.0039358406021501565 0.0029927302329040843 7.417673354254243e-05
