exp/data_checkpoints/SCINet_data_ftS_sl48_ll24_pl24_lr0.003_bs8_hid1_s1_l3_dp0.5_invFalse_itr0/checkpoint.pth (torch, 72377 bytes, 114 tensors)

inv_timescales f8 [1]
0	0x3ff0000000000000	1.0

blocks1.SCINet_Tree.workingblock.interact.level.phi.1.weight f8 [1, 1, 7]
0	0x3fdd77c7bb416e85	0.46043580328635186
1	0x3fd42d7008b7973f	0.31527329303058943
2	0x3fc2ea4719d8ea4f	0.14777458917690686
3	0xbfd0bda7c503f76b	-0.2615756439189371
4	0xbfa331923961b29c	-0.037487573151200965
5	0xbfdb55982bfb29a9	-0.42709926886586885
6	0xbfcf3c244975f513	-0.24402288042976092

blocks1.SCINet_Tree.workingblock.interact.level.phi.1.bias f8 [1]
0	0xbfdb8414dbc8beda	-0.4299366136865338

blocks1.SCINet_Tree.workingblock.interact.level.phi.4.weight f8 [1, 1, 3]
0	0xbfe33ba1a1ffe852	-0.6010292209678119
1	0xbfdc7e57987a1b2e	-0.44521131410913284
2	0xbfe171c019953abc	-0.5451355456987907

blocks1.SCINet_Tree.workingblock.interact.level.phi.4.bias f8 [1]
0	0xbfb09c284e5b8f96	-0.06488277352360536

blocks1.SCINet_Tree.workingblock.interact.level.psi.1.weight f8 [1, 1, 7]
0	0xbf9aa14371c40f15	-0.026005796259609932
1	0x3fd1ebae8533438c	0.2800098706039129
2	0xbfb01bf36e48f391	-0.06292649691108766
3	0xbf896103a3a10de1	-0.012392071181358712
4	0x3fb33d32d539e8ce	0.07515256601064665
5	0xbfc521b3bb168cea	-0.16509100566063434
6	0xbfbc4f77b9913ae1	-0.11058758049442076

blocks1.SCINet_Tree.workingblock.interact.level.psi.1.bias f8 [1]
0	0xbfbceaa5e938b230	-0.11295544570811766

blocks1.SCINet_Tree.workingblock.interact.level.psi.4.weight f8 [1, 1, 3]
0	0xbfa80f73dd55eea4	-0.046992893951906894
1	0xbfc1f1fb62c1f718	-0.14019720384742906
2	0xbfb1d3d499acd158	-0.06963852645714519

blocks1.SCINet_Tree.workingblock.interact.level.psi.4.bias f8 [1]
0	0xbff610b482dde6eb	-1.3790783988937914

blocks1.SCINet_Tree.workingblock.interact.level.P.1.weight f8 [1, 1, 7]
0	0xbfe3115c11668bac	-0.5958690967421396
1	0xbfccd2ff7e0c188d	-0.22518914847040997
2	0x3f68119def78e654	0.002938087909367929
3	0xbfdc590f651da528	-0.44293579935636496
4	0x3fc98e70b73ee30f	0.19965943286458596
5	0x3fe1a0471e2bc901	0.550815161636166
6	0x3fdd73ddcbe98020	0.4601969233826839

blocks1.SCINet_Tree.workingblock.interact.level.P.1.bias f8 [1]
0	0xbfadf3bdf3858555	-0.05850022885966647

blocks1.SCINet_Tree.workingblock.interact.level.P.4.weight f8 [1, 1, 3]
0	0xbfdd774687984799	-0.4604049991768249
1	0xbfe2e2e2d51f33ed	-0.5901960527932012
2	0xbfebcd944e652c3a	-0.8688451319843644

blocks1.SCINet_Tree.workingblock.interact.level.P.4.bias f8 [1]
0	0xbfc05b87a2f7a06c	-0.12779326875102315

blocks1.SCINet_Tree.workingblock.interact.level.U.1.weight f8 [1, 1, 7]
0	0x3fd201d4db124042	0.28136178392106015
1	0xbfc844a4e44537fc	-0.1895948519326679
2	0x3fd811063b90732f	0.3760390836412623
3	0xbf909bfde8f94497	-0.016220061630808216
4	0x3fc96c0c62a96cdf	0.19860987489196355
5	0xbfd771a6d2473e4f	-0.3663117459773035
6	0xbfc9016edd1eae3a	-0.19535623356692772

blocks1.SCINet_Tree.workingblock.interact.level.U.1.bias f8 [1]
0	0x3fb5099e148d786f	0.0821780014207165

blocks1.SCINet_Tree.workingblock.interact.level.U.4.weight f8 [1, 1, 3]
0	0xbfc32eb0c6259ccd	-0.14986238169806257
1	0xbfca936e2852a429	-0.20762421578300064
2	0xbfc9eaf5e46d5e44	-0.2024829259269031

blocks1.SCINet_Tree.workingblock.interact.level.U.4.bias f8 [1]
0	0x3fe054aaf1d11890	0.5103354189857487

blocks1.SCINet_Tree.SCINet_Tree_odd.workingblock.interact.level.phi.1.weight f8 [1, 1, 7]
0	0x3fd0392f26001f60	0.2534902449701715
1	0x3fdb407d17120d34	0.42581107380847816
2	0x3fd532205ed70864	0.33118447553363795
3	0xbfc26c73fd3ed5d8	-0.14393472543240082
4	0xbfd936b49b120116	-0.3939639582022364
5	0xbfde3ce150e78591	-0.472465828903375
6	0xbf88396cff355392	-0.011828280962314062

blocks1.SCINet_Tree.SCINet_Tree_odd.workingblock.interact.level.phi.1.bias f8 [1]
0	0xbfdf75c13fffbf25	-0.4915621876707397

blocks1.SCINet_Tree.SCINet_Tree_odd.workingblock.interact.level.phi.4.weight f8 [1, 1, 3]
0	0xbfd62ba0fdb306e4	-0.34641289496731376
1	0xbfd7708a1c17901c	-0.36624386542666953
2	0xbfd4d5dc9f086c67	-0.32555308847958603

blocks1.SCINet_Tree.SCINet_Tree_odd.workingblock.interact.level.phi.4.bias f8 [1]
0	0xbfdc7a130d95cec2	-0.44495083166769345

blocks1.SCINet_Tree.SCINet_Tree_odd.workingblock.interact.level.psi.1.weight f8 [1, 1, 7]
0	0xbfd553bdf0fe1f80	-0.33323620352211236
1	0xbfcc88e9cac26143	-0.2229282608066204
2	0xbfc49fd61e927ee3	-0.16112781994615152
3	0x3fd7d885dddede1e	0.37259051005409727
4	0xbfbb4b75a4f6680a	-0.1066201713314571
5	0x3fd77e7b4657595b	0.3670948206830837
6	0x3fc44b36e95b6dcf	0.15854536432639896

blocks1.SCINet_Tree.SCINet_Tree_odd.workingblock.interact.level.psi.1.bias f8 [1]
0	0xbfd7c7f35835c1f5	-0.3715790139604274

blocks1.SCINet_Tree.SCINet_Tree_odd.workingblock.interact.level.psi.4.weight f8 [1, 1, 3]
0	0x3f852b534779ba43	0.010336542719611269
1	0x3fc30eb390571a6c	0.14888615177024478
2	0x3f81beb6863321ed	0.008664537401629391

blocks1.SCINet_Tree.SCINet_Tree_odd.workingblock.interact.level.psi.4.bias f8 [1]
0	0xbfd51e1c9c6fa56a	-0.3299628761002028

blocks1.SCINet_Tree.SCINet_Tree_odd.workingblock.interact.level.P.1.weight f8 [1, 1, 7]
0	0x3fca5bdce64e021b	0.2059284328970684
1	0x3fdc7aad0b80a381	0.4449875461892177
2	0xbfa24b0935ef9a0b	-0.03572872908971555
3	0xbfe32d3de62017a3	-0.5992726797710372
4	0x3fcca898d0426af9	0.22389516991537287
5	0xbfc15621036a2169	-0.1354409472153393
6	0xbfd1194c18850342	-0.267169021553901

blocks1.SCINet_Tree.SCINet_Tree_odd.workingblock.interact.level.P.1.bias f8 [1]
0	0xbfd5f30bcea71527	-0.34295935803341354

blocks1.SCINet_Tree.SCINet_Tree_odd.workingblock.interact.level.P.4.weight f8 [1, 1, 3]
0	0xbfd5c109db1296eb	-0.33990713495073405
1	0xbfe713b13bf13f6f	-0.7211538477658744
2	0xbfe929aa04c2455c	-0.7863359539934822

blocks1.SCINet_Tree.SCINet_Tree_odd.workingblock.interact.level.P.4.bias f8 [1]
0	0x3fc3c0728d07a2ff	0.15431053053114138

blocks1.SCINet_Tree.SCINet_Tree_odd.workingblock.interact.level.U.1.weight f8 [1, 1, 7]
0	0xbfe28bb9a9d90213	-0.5795563046777396
1	0xbfd907c724797a56	-0.39109972536053783
2	0xbfd5d39e941adeb9	-0.3410412260377416
3	0x3fccd69b54bd4c13	0.22529927861850804
4	0x3fc3c1d71bca7422	0.1543530355164942
5	0x3fd6cac318720685	0.3561256159519888
6	0x3fe309f320bd4d36	0.5949645652239386

blocks1.SCINet_Tree.SCINet_Tree_odd.workingblock.interact.level.U.1.bias f8 [1]
0	0x3f93dd0cea6de2ca	0.019397928055215265

blocks1.SCINet_Tree.SCINet_Tree_odd.workingblock.interact.level.U.4.weight f8 [1, 1, 3]
0	0x3fe54964f5e2e87e	0.6652092745273561
1	0x3fee45ff48af5962	0.9460445804241255
2	0x3ff76f546430c760	1.464680091256433

blocks1.SCINet_Tree.SCINet_Tree_odd.workingblock.interact.level.U.4.bias f8 [1]
0	0xbfd00c860bd59cac	-0.25076438098626386

blocks1.SCINet_Tree.SCINet_Tree_odd.SCINet_Tree_odd.workingblock.interact.level.phi.1.weight f8 [1, 1, 7]
0	0x3fd11e85316a001a	0.26748781037895386
1	0xbfb41b01dcdbad3a	-0.07853709833186864
2	0xbfb359718e4f59e3	-0.07558355068554294
3	0xbfd090c8c83361f0	-0.25883693266726393
4	0x3f93a1047393748a	0.019168920091818843
5	0xbfbbb15dca4ec6dc	-0.1081751459994637
6	0x3fd256127096a9e6	0.2865034198281634

blocks1.SCINet_Tree.SCINet_Tree_odd.SCINet_Tree_odd.workingblock.interact.level.phi.1.bias f8 [1]
0	0xbfd8633a7e620e93	-0.3810564264497113

blocks1.SCINet_Tree.SCINet_Tree_odd.SCINet_Tree_odd.workingblock.interact.level.phi.4.weight f8 [1, 1, 3]
0	0x3fd420af9046d3fb	0.31449498261946446
1	0xbfd88da49faf22fd	-0.3836452063956555
2	0xbfdfe091912700c1	-0.49808158087763493

blocks1.SCINet_Tree.SCINet_Tree_odd.SCINet_Tree_odd.workingblock.interact.level.phi.4.bias f8 [1]
0	0x3fb6d32095946d5b	0.08915904666757994

blocks1.SCINet_Tree.SCINet_Tree_odd.SCINet_Tree_odd.workingblock.interact.level.psi.1.weight f8 [1, 1, 7]
0	0x3fe28a974101dbbb	0.5794178266213444
1	0x3fdfb03090332310	0.4951287658882828
2	0xbfcc56b0bed14562	-0.2213955814100173
3	0x3fc29176ab48a04c	0.14506419528447834
4	0x3fdfed1efe5475ee	0.4988477214518231
5	0x3fca88d5ad92117e	0.20730086302877376
6	0x3fe041720b60cda2	0.5079889509419682

blocks1.SCINet_Tree.SCINet_Tree_odd.SCINet_Tree_odd.workingblock.interact.level.psi.1.bias f8 [1]
0	0x3ff41b2863464fe2	1.2566303136745707

blocks1.SCINet_Tree.SCINet_Tree_odd.SCINet_Tree_odd.workingblock.interact.level.psi.4.weight f8 [1, 1, 3]
0	0xbfe62d6ad3ede999	-0.6930441035504372
1	0xbfe5a8596bce117c	-0.6768004518094553
2	0xbfe86ef5d276aa79	-0.7635449514976492

blocks1.SCINet_Tree.SCINet_Tree_odd.SCINet_Tree_odd.workingblock.interact.level.psi.4.bias f8 [1]
0	0xbfea4c19e7774c9b	-0.8217896958180008

blocks1.SCINet_Tree.SCINet_Tree_odd.SCINet_Tree_odd.workingblock.interact.level.P.1.weight f8 [1, 1, 7]
0	0xbfc4a3b073f154f7	-0.16124540005936414
1	0xbfbfd31a34557613	-0.12431491639787166
2	0xbfaae76fca67e0b0	-0.052546971757636896
3	0xbfa4a249eae566e0	-0.040300664829101995
4	0xbfbd276de4d0cb85	-0.11388289295500272
5	0x3fad5c44339cd95d	0.05734456186330548
6	0x3fdc0a63a508d836	0.43813410870223224

blocks1.SCINet_Tree.SCINet_Tree_odd.SCINet_Tree_odd.workingblock.interact.level.P.1.bias f8 [1]
0	0xbfdb04dcb200612e	-0.42217175848920163

blocks1.SCINet_Tree.SCINet_Tree_odd.SCINet_Tree_odd.workingblock.interact.level.P.4.weight f8 [1, 1, 3]
0	0xbfbdf80dcd7b719f	-0.11706625239043554
1	0xbfc461ae7f787be6	-0.1592310068526494
2	0xbfd64ef8650389ce	-0.3485699640715695

blocks1.SCINet_Tree.SCINet_Tree_odd.SCINet_Tree_odd.workingblock.interact.level.P.4.bias f8 [1]
0	0xbfc92082f8a9b3b5	-0.19630467550032696

blocks1.SCINet_Tree.SCINet_Tree_odd.SCINet_Tree_odd.workingblock.interact.level.U.1.weight f8 [1, 1, 7]
0	0x3fde7d421b112f0d	0.4763951553656945
1	0x3f928875ae1db02e	0.018098677398867995
2	0xbfbb996777ff936f	-0.1078095119442659
3	0xbfc41af32377cf0c	-0.1570724414046868
4	0x3fb1d61eb46f5ad9	0.06967346100951079
5	0xbfe0d4764ef8a501	-0.5259353201301168
6	0xbfbc331ddc675ce2	-0.11015497809363553

blocks1.SCINet_Tree.SCINet_Tree_odd.SCINet_Tree_odd.workingblock.interact.level.U.1.bias f8 [1]
0	0xbfd6a9dfcb839b24	-0.3541182982866522

blocks1.SCINet_Tree.SCINet_Tree_odd.SCINet_Tree_odd.workingblock.interact.level.U.4.weight f8 [1, 1, 3]
0	0x3fc705f5e252776c	0.17986939955602155
1	0x3fcbd3d4a75eac36	0.21740205929140338
2	0x3fe70f39eab092a0	0.7206086715492184

blocks1.SCINet_Tree.SCINet_Tree_odd.SCINet_Tree_odd.workingblock.interact.level.U.4.bias f8 [1]
0	0xbf854991f87d2101	-0.010394230266357331

blocks1.SCINet_Tree.SCINet_Tree_odd.SCINet_Tree_even.workingblock.interact.level.phi.1.weight f8 [1, 1, 7]
0	0xbfb92f260068b919	-0.09837567815768401
1	0xbfcfc75df0feeda5	-0.24827169673322405
2	0xbfbc5b29c738f505	-0.11076603998022357
3	0xbfc8820e52716521	-0.19146899247679364
4	0x3fd832c60d4f5633	0.37809897708698087
5	0xbf9e6b6a5f0bff92	-0.029706632662964312
6	0xbfd07c2b58e05b5a	-0.25757869414649337

blocks1.SCINet_Tree.SCINet_Tree_odd.SCINet_Tree_even.workingblock.interact.level.phi.1.bias f8 [1]
0	0xbfd94ab47e00f03b	-0.39518463425679656

blocks1.SCINet_Tree.SCINet_Tree_odd.SCINet_Tree_even.workingblock.interact.level.phi.4.weight f8 [1, 1, 3]
0	0xbfd9207f1ed45442	-0.392608432871672
1	0xbf903ae84a4cc03a	-0.01584971383562126
2	0xbfbdc0885be0ab39	-0.11621906512361314

blocks1.SCINet_Tree.SCINet_Tree_odd.SCINet_Tree_even.workingblock.interact.level.phi.4.bias f8 [1]
0	0xbfde6d5baf4ec101	-0.4754246913899039

blocks1.SCINet_Tree.SCINet_Tree_odd.SCINet_Tree_even.workingblock.interact.level.psi.1.weight f8 [1, 1, 7]
0	0x3fc7c523f309b9ec	0.18570374838914405
1	0xbfc02a2bf360ff1b	-0.12628697761282912
2	0x3f608b8bf6840468	0.0020196660663037054
3	0xbfbd17b37d79b59b	-0.1136429005943768
4	0xbfd26097ac05c225	-0.287145536413876
5	0x3fcf5131f4e8c8a9	0.2446653791280984
6	0x3f9823ec5f95a98c	0.023574536642095675

blocks1.SCINet_Tree.SCINet_Tree_odd.SCINet_Tree_even.workingblock.interact.level.psi.1.bias f8 [1]
0	0xbfd3c962edd851bb	-0.309166652937417

blocks1.SCINet_Tree.SCINet_Tree_odd.SCINet_Tree_even.workingblock.interact.level.psi.4.weight f8 [1, 1, 3]
0	0xbfd7bc18490e8a4b	-0.37085539946034335
1	0x3fbab24fceaf618c	0.10428332134268298
2	0x3fbbbf154e65276f	0.10838444866126705

blocks1.SCINet_Tree.SCINet_Tree_odd.SCINet_Tree_even.workingblock.interact.level.psi.4.bias f8 [1]
0	0xbfe27ca013dac06c	-0.577713049677198

blocks1.SCINet_Tree.SCINet_Tree_odd.SCINet_Tree_even.workingblock.interact.level.P.1.weight f8 [1, 1, 7]
0	0xbfcf8b0352686378	-0.24642983936135088
1	0xbfc9e44371e7f66d	-0.20227854787656288
2	0xbfc079ee111fb70c	-0.12872100673796927
3	0xbfcc3cbd72841c8b	-0.22060363856892126
4	0xbfb3c4985ef2bf81	-0.07721855466911444
5	0x3fd2257a994964c7	0.2835375306072589
6	0x3fe14a864ccb2f63	0.5403472423435968

blocks1.SCINet_Tree.SCINet_Tree_odd.SCINet_Tree_even.workingblock.interact.level.P.1.bias f8 [1]
0	0xbfa1f2ba59b1b7b4	-0.03505499215030686

blocks1.SCINet_Tree.SCINet_Tree_odd.SCINet_Tree_even.workingblock.interact.level.P.4.weight f8 [1, 1, 3]
0	0xbfd0e76d8d600950	-0.2641252403847334
1	0xbfd0017a2a4af1ed	-0.25009016161109693
2	0xbfd6425085ce3731	-0.3477975184149385

blocks1.SCINet_Tree.SCINet_Tree_odd.SCINet_Tree_even.workingblock.interact.level.P.4.bias f8 [1]
0	0x3fc8f2a3a073a269	0.19490475973659052

blocks1.SCINet_Tree.SCINet_Tree_odd.SCINet_Tree_even.workingblock.interact.level.U.1.weight f8 [1, 1, 7]
0	0xbfe0e84822268680	-0.5283547083856348
1	0xbfe0970c5b565323	-0.5184385093622023
2	0x3f98304b2359a539	0.023621725113490675
3	0x3fde40d2768aef52	0.47270642830311715
4	0x3fc9063f529a374a	0.19550315411873448
5	0x3fc4a5375aa1d9d1	0.16129199910547112
6	0x3fbf253a42dce946	0.12166179783244954

blocks1.SCINet_Tree.SCINet_Tree_odd.SCINet_Tree_even.workingblock.interact.level.U.1.bias f8 [1]
0	0xbf97b0ae552d1e03	-0.02313492197870738

blocks1.SCINet_Tree.SCINet_Tree_odd.SCINet_Tree_even.workingblock.interact.level.U.4.weight f8 [1, 1, 3]
0	0x3fbd24541f905e27	0.11383558054546282
1	0x3fd1a41edcc6d8b3	0.27564212379673875
2	0x3fdf9bef025d2f9e	0.49389243346080913

blocks1.SCINet_Tree.SCINet_Tree_odd.SCINet_Tree_even.workingblock.interact.level.U.4.bias f8 [1]
0	0xbfa543977b514848	-0.04153130894032181

blocks1.SCINet_Tree.SCINet_Tree_even.workingblock.interact.level.phi.1.weight f8 [1, 1, 7]
0	0xbfb2a3f07c368954	-0.07281401665253401
1	0x3fd066ae2c4623c6	0.25626711200362384
2	0x3fb8ef659427ca1a	0.09740290515018338
3	0xbfd1df82d0b34246	-0.27926702862626873
4	0xbfc7374baf0c4fb9	-0.18137498900671092
5	0x3f94b723c7005308	0.020229872723649428
6	0xbf747f065dac6190	-0.005003952853052232

blocks1.SCINet_Tree.SCINet_Tree_even.workingblock.interact.level.phi.1.bias f8 [1]
0	0xbfdd4e2f43dc37c9	-0.45789701106047836

blocks1.SCINet_Tree.SCINet_Tree_even.workingblock.interact.level.phi.4.weight f8 [1, 1, 3]
0	0x3fdf87181606eadd	0.49262048865391056
1	0x3fa7d73c23b3d8c7	0.046563987119883125
2	0xbfa3504cc606009a	-0.03772201459196474

blocks1.SCINet_Tree.SCINet_Tree_even.workingblock.interact.level.phi.4.bias f8 [1]
0	0xbff7928300af779a	-1.473269465138833

blocks1.SCINet_Tree.SCINet_Tree_even.workingblock.interact.level.psi.1.weight f8 [1, 1, 7]
0	0x3fd23476b26f0590	0.28445212769664696
1	0x3f6542fa99a6f235	0.002595414594195123
2	0xbfb756fcbfc792ff	-0.09117107088202302
3	0xbfcc419ad7f6ced2	-0.22075210137483353
4	0x3fc0da06529abbf8	0.13165358575267283
5	0x3fe0c0e5fac25a72	0.5235471627846222
6	0x3fdbc1900acc96b7	0.43368912748915583

blocks1.SCINet_Tree.SCINet_Tree_even.workingblock.interact.level.psi.1.bias f8 [1]
0	0x3fe4582246074557	0.6357585304014418

blocks1.SCINet_Tree.SCINet_Tree_even.workingblock.interact.level.psi.4.weight f8 [1, 1, 3]
0	0xbfdd3ed946bc8f01	-0.4569609823977175
1	0xbfe960cd8fa310b9	-0.7930667691621444
2	0xbfdc10717c9c1763	-0.43850361985129477

blocks1.SCINet_Tree.SCINet_Tree_even.workingblock.interact.level.psi.4.bias f8 [1]
0	0xbff3f8bd62b24c09	-1.248227487118813

blocks1.SCINet_Tree.SCINet_Tree_even.workingblock.interact.level.P.1.weight f8 [1, 1, 7]
0	0x3fbc068e9690ea57	0.10947505165032943
1	0xbfccba3e4552dd3b	-0.22443369278856004
2	0x3fb9ffb6453e6625	0.1015581053783526
3	0xbf9d34759395f681	-0.02852042878429595
4	0x3fd26fdb1e40756d	0.28807714418674985
5	0xbfcc368ef8499610	-0.22041499255571795
6	0xbfc6c7b7acc51c75	-0.17796989379914732

blocks1.SCINet_Tree.SCINet_Tree_even.workingblock.interact.level.P.1.bias f8 [1]
0	0xbfc2d60f327bc70d	-0.14715757336630766

blocks1.SCINet_Tree.SCINet_Tree_even.workingblock.interact.level.P.4.weight f8 [1, 1, 3]
0	0x3fda07d5d555bb3a	0.4067282279346959
1	0xbfbe4f7944dfbd3e	-0.11840017253392873
2	0xbfb955db256ebe7d	-0.0989663092029733

blocks1.SCINet_Tree.SCINet_Tree_even.workingblock.interact.level.P.4.bias f8 [1]
0	0x3fd975aff91f8ee3	0.39780806854672174

blocks1.SCINet_Tree.SCINet_Tree_even.workingblock.interact.level.U.1.weight f8 [1, 1, 7]
0	0xbfca13d09eda47db	-0.2037297034881352
1	0x3f480b8abc983ee3	0.0007337977814944853
2	0x3fdb4f1c420ca130	0.4267035145772011
3	0xbfce066460a67818	-0.23457007140399422
4	0x3fbe698364048a03	0.11879750434722074
5	0x3fe1ce4a9038782d	0.5564320389564777
6	0x3fae7d483c162a10	0.05954957707861663

blocks1.SCINet_Tree.SCINet_Tree_even.workingblock.interact.level.U.1.bias f8 [1]
0	0xbfaccd2267e93db3	-0.05625255125471131

blocks1.SCINet_Tree.SCINet_Tree_even.workingblock.interact.level.U.4.weight f8 [1, 1, 3]
0	0xbfc0cd1412abe427	-0.1312584963959875
1	0xbfc2a8c91e36ebf0	-0.1457759282619402
2	0xbfc3eec7438ed48c	-0.1557244377014836

blocks1.SCINet_Tree.SCINet_Tree_even.workingblock.interact.level.U.4.bias f8 [1]
0	0x3fd8715399f9ed63	0.38191690479989954

blocks1.SCINet_Tree.SCINet_Tree_even.SCINet_Tree_odd.workingblock.interact.level.phi.1.weight f8 [1, 1, 7]
0	0xbfbc5555200af32f	-0.11067707092565791
1	0xbfc50e69b7057c95	-0.16450234829514856
2	0xbfe0a822424b7ff4	-0.5205241484472922
3	0xbfd41b6d950412d2	-0.31417407562575506
4	0xbfc7d90099279a45	-0.1863098857713387
5	0xbfb0f5cfe2f4a27e	-0.06625079432400047
6	0xbfd471d5eeaa0e35	-0.3194479780870297

blocks1.SCINet_Tree.SCINet_Tree_even.SCINet_Tree_odd.workingblock.interact.level.phi.1.bias f8 [1]
0	0x3fe5d07c573ba4a8	0.6816999152917065

blocks1.SCINet_Tree.SCINet_Tree_even.SCINet_Tree_odd.workingblock.interact.level.phi.4.weight f8 [1, 1, 3]
0	0xbfdceb4bf249cfe0	-0.4518613687607722
1	0xbfdb5f811f5afbf7	-0.42770412504245264
2	0xbfdff9bfcde48f2a	-0.49961848360747985

blocks1.SCINet_Tree.SCINet_Tree_even.SCINet_Tree_odd.workingblock.interact.level.phi.4.bias f8 [1]
0	0xbff6da1ffb73b9aa	-1.4282531568856975

blocks1.SCINet_Tree.SCINet_Tree_even.SCINet_Tree_odd.workingblock.interact.level.psi.1.weight f8 [1, 1, 7]
0	0x3fd3d1df20395909	0.3096845450103421
1	0xbfc66124a812a6fa	-0.17483957487757334
2	0x3fd7c8a5b8995ec4	0.37162154223686295
3	0xbfbf174bdafce3a0	-0.12144922348387732
4	0xbfd13e1902f477be	-0.26941514290399116
5	0xbfd1c63e671191c5	-0.27772483887954663
6	0x3fd6b66ea230b113	0.3548847755325976

blocks1.SCINet_Tree.SCINet_Tree_even.SCINet_Tree_odd.workingblock.interact.level.psi.1.bias f8 [1]
0	0xbfdadaea678541fa	-0.4196115504210237

blocks1.SCINet_Tree.SCINet_Tree_even.SCINet_Tree_odd.workingblock.interact.level.psi.4.weight f8 [1, 1, 3]
0	0x3fd5062fad5f5599	0.3285025780763476
1	0x3fc6c1f12445964f	0.17779363890729136
2	0xbfb4fecffc27fd6f	-0.08201312929303638

blocks1.SCINet_Tree.SCINet_Tree_even.SCINet_Tree_odd.workingblock.interact.level.psi.4.bias f8 [1]
0	0xbfe2eb23f18a47c2	-0.5912036626416397

blocks1.SCINet_Tree.SCINet_Tree_even.SCINet_Tree_odd.workingblock.interact.level.P.1.weight f8 [1, 1, 7]
0	0xbfe11d69706447fb	-0.5348403163100096
1	0xbfd060b3716eb15a	-0.2559021575678081
2	0xbfe29c35bbaa47c0	-0.5815685906729797
3	0xbfd001ea13e54e3b	-0.25011684363309755
4	0xbfa0e8f53acb3209	-0.033027327944726244
5	0x3fce8941302ea0c2	0.23856367924350336
6	0xbfb5a35b7d288f76	-0.08452388578058198

blocks1.SCINet_Tree.SCINet_Tree_even.SCINet_Tree_odd.workingblock.interact.level.P.1.bias f8 [1]
0	0xbfcb57ece20eeee1	-0.2136207679558231

blocks1.SCINet_Tree.SCINet_Tree_even.SCINet_Tree_odd.workingblock.interact.level.P.4.weight f8 [1, 1, 3]
0	0xbfe1be2428b3b584	-0.5544606013260567
1	0xbfe12edc63e2e2c1	-0.5369703246024856
2	0xbfdb65de58c65243	-0.4280925623836859

blocks1.SCINet_Tree.SCINet_Tree_even.SCINet_Tree_odd.workingblock.interact.level.P.4.bias f8 [1]
0	0x3fb08590995b5a70	0.06453803772033395

blocks1.SCINet_Tree.SCINet_Tree_even.SCINet_Tree_odd.workingblock.interact.level.U.1.weight f8 [1, 1, 7]
0	0xbfca89994db3a509	-0.20732418340711714
1	0xbf86458366654f32	-0.010874773561830507
2	0xbf9f8cf79463e82c	-0.0308111843414524
3	0x3fb75fe9e0ac9e9b	0.09130727515423091
4	0xbfbeff31212b0842	-0.12108141956108034
5	0x3fdca43949fdbbbc	0.44752342439363324
6	0x3fccb1bf407fc524	0.224174410337164

blocks1.SCINet_Tree.SCINet_Tree_even.SCINet_Tree_odd.workingblock.interact.level.U.1.bias f8 [1]
0	0xbfb3b66b3ef74b93	-0.07700224196677956

blocks1.SCINet_Tree.SCINet_Tree_even.SCINet_Tree_odd.workingblock.interact.level.U.4.weight f8 [1, 1, 3]
0	0xbfd31ee780bd7478	-0.2987612492777951
1	0x3fc135fd81adf147	0.13446015197758696
2	0x3fd57327ed4d3059	0.3351535622975966

blocks1.SCINet_Tree.SCINet_Tree_even.SCINet_Tree_odd.workingblock.interact.level.U.4.bias f8 [1]
0	0x3fb3265469f78983	0.07480361544688745

blocks1.SCINet_Tree.SCINet_Tree_even.SCINet_Tree_even.workingblock.interact.level.phi.1.weight f8 [1, 1, 7]
0	0x3fc7e34c7d391409	0.18662410845186653
1	0x3fb85b7575a2f426	0.09514555093751706
2	0x3fc02f2704a68ca6	0.12643897749976424
3	0x3fd271532f5d8b74	0.2881668055107902
4	0xbfc53abf5758d73b	-0.16585532917968657
5	0xbfc6463231f7f357	-0.17401721420165003
6	0x3fd7e0f28c5f19a0	0.37310470302727516

blocks1.SCINet_Tree.SCINet_Tree_even.SCINet_Tree_even.workingblock.interact.level.phi.1.bias f8 [1]
0	0xbfc93171c3c54a13	-0.1968214231406625

blocks1.SCINet_Tree.SCINet_Tree_even.SCINet_Tree_even.workingblock.interact.level.phi.4.weight f8 [1, 1, 3]
0	0xbfd4fd210880e025	-0.3279497702637875
1	0xbfdf96d22814201d	-0.49358037866523025
2	0xbfd75ca9f1e426ae	-0.3650307523936175

blocks1.SCINet_Tree.SCINet_Tree_even.SCINet_Tree_even.workingblock.interact.level.phi.4.bias f8 [1]
0	0xbfebd2740819a9f2	-0.8694400938232418

blocks1.SCINet_Tree.SCINet_Tree_even.SCINet_Tree_even.workingblock.interact.level.psi.1.weight f8 [1, 1, 7]
0	0xbfc51dff3483cb9e	-0.1649779325885818
1	0xbfcbce4b80f27da8	-0.21723312183619936
2	0xbfcd306fb9426883	-0.2280406622492742
3	0xbfc5aeab9d1cf3b3	-0.16939301654374858
4	0x3fc19b3e2aef0176	0.13755013557785006
5	0xbfadfefc1cfb5ac9	-0.05858600477011106
6	0xbfc8d2caf7cf2263	-0.19393288707785236

blocks1.SCINet_Tree.SCINet_Tree_even.SCINet_Tree_even.workingblock.interact.level.psi.1.bias f8 [1]
0	0xbfd5b64667afc549	-0.3392501843037122

blocks1.SCINet_Tree.SCINet_Tree_even.SCINet_Tree_even.workingblock.interact.level.psi.4.weight f8 [1, 1, 3]
0	0xbf7a9e07abc60164	-0.0064983653686570865
1	0x3fdcbdc91fdbfdd8	0.4490835963369739
2	0x3fe342df283569d4	0.6019130502057188

blocks1.SCINet_Tree.SCINet_Tree_even.SCINet_Tree_even.workingblock.interact.level.psi.4.bias f8 [1]
0	0xbff854d97c022f07	-1.5207152217944342

blocks1.SCINet_Tree.SCINet_Tree_even.SCINet_Tree_even.workingblock.interact.level.P.1.weight f8 [1, 1, 7]
0	0x3fc63c288e458784	0.173710889309458
1	0x3fd6da0324de8e4b	0.3570564136555034
2	0xbfa791a31caa33e9	-0.046032998322608716
3	0xbfe3907b5452461b	-0.6113869330312726
4	0xbfd97fb626cdb75e	-0.3984198931637958
5	0xbfd8683a2e921760	-0.3813615278999034
6	0xbfcc3f905d58f16e	-0.22068981702785656

blocks1.SCINet_Tree.SCINet_Tree_even.SCINet_Tree_even.workingblock.interact.level.P.1.bias f8 [1]
0	0x3fb1952ec46e7ad9	0.06868259711925918

blocks1.SCINet_Tree.SCINet_Tree_even.SCINet_Tree_even.workingblock.interact.level.P.4.weight f8 [1, 1, 3]
0	0xbfde78b46baf59d5	-0.47611723438367665
1	0x3fe0a2110c5f1ed1	0.5197835199005231
2	0x3fe52d5eedc745ef	0.6617884296521747

blocks1.SCINet_Tree.SCINet_Tree_even.SCINet_Tree_even.workingblock.interact.level.P.4.bias f8 [1]
0	0x3fd95539004a6804	0.39582657841094737

blocks1.SCINet_Tree.SCINet_Tree_even.SCINet_Tree_even.workingblock.interact.level.U.1.weight f8 [1, 1, 7]
0	0x3fe018b6d0673602	0.5030168600439426
1	0x3fc7ef9bad92c772	0.18699975943814767
2	0xbfe17151ca0bc763	-0.545082945462337
3	0xbfa21479bf043a07	-0.03531246620888245
4	0xbfc2d6320c8c44ca	-0.14716172802631028
5	0xbfde9726a03a4657	-0.47797551772337016
6	0xbfd5967da5d55e72	-0.33731023020434414

blocks1.SCINet_Tree.SCINet_Tree_even.SCINet_Tree_even.workingblock.interact.level.U.1.bias f8 [1]
0	0x3fc07a57b39facb8	0.1287335993832579

blocks1.SCINet_Tree.SCINet_Tree_even.SCINet_Tree_even.workingblock.interact.level.U.4.weight f8 [1, 1, 3]
0	0x3fcd2b3eb340c09c	0.22788223030648147
1	0xbfe4b8bd810b78f1	-0.6475513000875975
2	0xbfe76c607fa66139	-0.7319796078836937

blocks1.SCINet_Tree.SCINet_Tree_even.SCINet_Tree_even.workingblock.interact.level.U.4.bias f8 [1]
0	0xbfd71d1b2fdbf292	-0.36115150140521124

projection1.weight f8 [24, 48, 1]
0	0xbf316d22fc3fbc4f	-0.0002659044660040009
1	0x3f5e39dbca5f6dbe	0.001844849242380472
2	0xbf5bfdd364d17055	-0.0017084659951001242
3	0x3f718a29ad8675c1	0.004282152942690799
4	0xbf588e9579208fd7	-0.0014988383959542073
5	0xbf7422a180482293	-0.004915839065241417
6	0x3f5bf68665960d13	0.0017067253560021963
7	0xbf73f9347ccc5f99	-0.004876332310935449
8	0x3f89d30b2716aac8	0.012609564905536344
9	0xbf15654e034ab83c	-8.161820080474028e-05
10	0x3f84aa5776e7babe	0.010090525928686641
11	0xbf82bf90561dee92	-0.009154441478805429
12	0x3f7627d161e9a5f6	0.005409067058829367
13	0x3f74bf69cea77cf8	0.005065358457130069
14	0xbf628691e7918d04	-0.00226143357262887
15	0xbf57a9dfb72fe008	-0.0014443096849827714
16	0x3f3349b57bf74564	0.00029431038634893645
17	0xbf5a5008661dd10d	-0.0016059953709062797
18	0xbf7df24317fe838f	-0.0073111172531818
19	0x3f6ec326c21dfa61	0.0037551648137530845
20	0xbf7051bacda029b6	-0.003984193515871251
21	0x3f7a5812b6c4a4bf	0.006431649304695585
22	0x3f63f4a09ca0ce75	0.002435983366945222
23	0xbf9452ed6ceecc08	-0.01984759309170772
24	0x3f92504697a8c4f5	0.017884352690264078
25	0x3f389dcb7e09c7ac	0.0003756162459814759
26	0xbf6963286132875a	-0.0030990399041720797
27	0x3f4a502d3ff15aa6	0.0008030148454832478
28	0xbf76bd2dea5e9379	-0.005551509244388402
29	0xbf5162886c36fd82	-0.0010610897305552707
30	0xbf7a3bf7cc38b82c	-0.006404846153186521
31	0xbf88a269002b7de3	-0.012028522794422741
32	0x3f919737501934f2	0.017178406013319276
33	0xbf8495c67da26b9d	-0.010051298817691118
34	0x3f66f02d0b941700	0.0028000716962449657
35	0xbf8374c3a06414cb	-0.009500053722613441
36	0x3f74495319f8befd	0.004952740302129885
37	0xbf7f8af9ff982a7d	-0.007700897747336397
38	0x3fa491497fde3538	0.04017095266235987
39	0xbfadd333ec185c2c	-0.05825197464962914
40	0x3fbed8ce4e463565	0.12049569521896826
41	0xbfa139bf2e8ba1d8	-0.03364369815045948
42	0x3f973de9c6a77d9f	0.02269711756696113
43	0x3f84406b6e128450	0.009888495728150343
44	0x3f8529981fcfcb3e	0.010333240958038222
45	0x3fb17919f2b21ded	0.06825411009969402
46	0x3f905d0794879b02	0.015979879799398418
47	0x3fe065ee063c3638	0.5124426004201217
48	0x3f7e175b0a9ec039	0.007346492415237598
49	0x3f4d815e8e634831	0.000900431795139994
50	0xbf697616fa7dbd86	-0.0031080673979244104
51	0xbf6107c600608aa2	-0.002078901979090845
52	0x3f830725d4b9d34a	0.009290977053049727
53	0xbf77de38d683d55f	-0.005827161811102626
54	0xbf7904555bd5c4d6	-0.006107648308316635
55	0xbf7d5ccc1ff6a2ac	-0.007168576586459235
56	0x3f83e7791b8e2995	0.009718843606397335
57	0xbf7037888f95e3b0	-0.003959210816327038
58	0x3f89af7b3eb274a4	0.012541735506881153
59	0xbf7c088332d49ef5	-0.00684405564724221
60	0x3f70031130ba3a8d	0.0039091750619621
61	0x3f72f63343438a6c	0.004629326100458724
62	0x3f63d892bdeb28b7	0.0024226060917032738
63	0xbf80fe12455fa773	-0.008297102682224033
64	0x3f821ff7397892af	0.008850032273650525
65	0xbf7e4947fb6fe6a3	-0.0073941051296004005
66	0x3f5f66ad959b64df	0.001916570201890892
67	0xbf83fa9de8acb1d5	-0.009755357421078617
68	0x3f548bf1ad166f2c	0.0012540683859247432
69	0xbf52c4d245bdf07d	-0.0011455586854643145
70	0x3f7d0d4f3329fcae	0.007092770933581223
71	0xbf72be6a8f6b3325	-0.004576126337906304
72	0x3f8af8cebfde63a2	0.013169875364654807
73	0x3f6f5851290c21f9	0.003826292530338057
74	0xbf6a8aefe524e766	-0.003240078492265863
75	0x3f7fe53c18166c92	0.007786974661395567
76	0xbf8bb26741282596	-0.013523871112755253
77	0x3f7a2fbb07fcf725	0.006393175688399731
78	0xbf894274e677667c	-0.012333787234570119
79	0xbf8c62518efe1c80	-0.013859402824677014
80	0x3f66b6c6ff586f94	0.002772701899415206
81	0xbf68275fed81e6ee	-0.0029484628285530922
82	0xbfa0df367a5de209	-0.03295297855123997
83	0x3fa128bb3f5bdc29	0.033513881191474866
84	0xbf88e961d9c9414f	-0.01216389127617448
85	0x3f42a744be5ccd24	0.0005692563688398972
86	0x3fa7716daa700e90	0.04578726487673379
87	0xbfaaee1e579508b4	-0.052597950164014945
88	0x3fb3b7971d00d513	0.07702011545264424
89	0x3f8d1a9393bf73e1	0.014210846849829597
90	0xbf8c8ffe2d09aa02	-0.013946519612734857
91	0x3fa284c811c02569	0.036169292609040955
92	0x3f9cd779df4e023c	0.028165725950659345
93	0x3fb02dc5bc4f1e3e	0.06319843146695178
94	0xbf9039c33a8431c0	-0.01584534687667527
95	0x3fde9bba42ae73ac	0.4782548571764049
96	0x3f6a79c5c781cb5f	0.003231893813841521
97	0x3f615381a4f18abe	0.0021150142779771943
98	0xbf51de9454b3f089	-0.0010906647246989051
99	0x3f5c250b770ce292	0.001717816540077664
100	0x3f704ea9d3861f28	0.003981269248818177
101	0xbf8333cac4b3857a	-0.009376129272314005
102	0x3f840f22bcd9765c	0.009794494045475215
103	0xbf96f9917f6f5eb4	-0.02243640270520926
104	0x3f98d21d907e7b58	0.024239026970117677
105	0xbf8964dbc94b109c	-0.012399403648835787
106	0x3f8106d2a3ab35f8	0.00831379472711101
107	0x3f509e1d117eed25	0.0010142597075020823
108	0xbf62990c4e6f2800	-0.0022702446326308134
109	0x3f8f8c1612216326	0.015403911999031527
110	0xbf74d5b5644c6f14	-0.00508662086647484
111	0x3f59cc9123adba54	0.0015746514679581174
112	0x3f521ade569c2fd0	0.0011050387642539301
113	0xbf7d8900d7d415f4	-0.00721073464706511
114	0x3f899ef8b08c31e4	0.012510245216184886
115	0xbf9016bc0b9d9f7e	-0.015711725434271788
116	0x3f6d58505e019d45	0.0035821504280197113
117	0x3f72ae335702242c	0.0045606618369982525
118	0xbf81fb9627637b48	-0.008780644490284609
119	0x3f737853069e0608	0.004753422088357613
120	0xbf5e917cb5b02c99	-0.001865741526446729
121	0x3f775e35cec117e9	0.005705080209798632
122	0xbf8c46d244727c98	-0.01380695601829833
123	0x3f8740dd73fe0dc2	0.01135418901663499
124	0xbf93d106adc16da8	-0.01935205874938864
125	0x3f861df878c2a47d	0.010799351868927548
126	0x3f0bbceb93b5ac0e	5.290597843096027e-05
127	0xbf34409096bde571	-0.00030902414322716345
128	0x3f70f193355bfd47	0.004136633904408277
129	0xbf3ec7a4d82f393d	-0.00046966337702948944
130	0x3f657b6dd58ec399	0.002622332115116821
131	0xbf676d68b7ea1bbf	-0.0028597874909936645
132	0x3f9c665ba058a562	0.02773421446014391
133	0x3f873d13d2eb0596	0.011346964716156187
134	0x3f82fe3452a53733	0.009273918888222354
135	0x3f818b2792453d5b	0.008566197539635103
136	0x3f88999616bf37a7	0.012011692589933022
137	0x3fab09a8a5401da6	0.05280806557862698
138	0xbf999df04eaf6774	-0.025016550829469478
139	0x3fb1a351484445f9	0.06889827741931488
140	0x3f8405c336d03e76	0.009776616201661908
141	0x3fb73bc0d73bc849	0.0907555127594445
142	0xbf9f8171f1ea104c	-0.030767231359746725
143	0x3fd88f07e6abd2d4	0.3837299111030863
144	0x3f7fe90a6ce27e30	0.0077906043281071174
145	0x3f25f8546f4f12c3	0.00016761809061285022
146	0x3f7166639d6abdc4	0.004248036499731215
147	0xbf788725e2b802ec	-0.005988262167648566
148	0x3f901476f7e8a6df	0.015703066712524524
149	0xbf8a8e4b328adbbc	-0.012966716270382032
150	0x3f87add81a127b69	0.011562050147686258
151	0xbf8ac26cebab6dcb	-0.013066149656359457
152	0x3f83f91c7105afbf	0.009752485465206349
153	0xbf63704145f4317b	-0.002372863280134916
154	0x3f6b4d70b7a8c791	0.0033328248512356014
155	0x3f831bcc0f9763e8	0.009330362535296247
156	0xbf7024eb407ac53b	-0.003941458656912029
157	0x3f8a6af0568f6ca1	0.012899282113656265
158	0x3f82213f47aac425	0.00885247647724625
159	0xbf7ff7e5ea69d762	-0.0078047734337952385
160	0x3f9c5270805771b9	0.027658231576298074
161	0xbf84c5146e3d47d6	-0.01014152490066415
162	0x3f820726142c1129	0.008802697649578821
163	0xbf7b75edcfc9084d	-0.006704262687494089
164	0xbf88b5aacd74a31e	-0.012065252680785895
165	0x3f85abe6653c6387	0.010581779446100515
166	0xbf93414e7efde5c6	-0.01880381250473364
167	0x3f9030fc1959054f	0.015811862036803345
168	0xbf99ec3a6bd5da9b	-0.025315201598881214
169	0x3f928fb43d8872b9	0.018126312499691297
170	0xbf8e273c4e54f12e	-0.014723273411271078
171	0xbf835993386d69a4	-0.009448194655921345
172	0x3f9454642a7cad8c	0.01985317715950212
173	0xbf86402ba3069a8f	-0.010864582932140791
174	0x3f92d59a032ffce9	0.018392950481936152
175	0xbf77e57cc90c3d74	-0.005834090655084768
176	0x3f7afd35623abcd0	0.006589134721863135
177	0x3f8b29aaa2d0cd45	0.013263066381205344
178	0xbf7f5522e3521492	-0.007649551659715164
179	0x3f961b3287fac581	0.02158812479928463
180	0xbf78a24afa3c8466	-0.006014149552158709
181	0x3fa6f1bae8ff59c9	0.04481300443847009
182	0xbf70556a04898eef	-0.003987707263693115
183	0x3fa0df39b117000e	0.0329530743288161
184	0xbf9316a654ea868a	-0.01864108937537038
185	0x3fab8d3eebd7980d	0.05381199482853569
186	0x3f83913c26a6197c	0.009554357461422518
187	0x3f8f1885d7efe3d7	0.015183492329002774
188	0x3fa7775e51e65790	0.045832583901911694
189	0x3fb6c9fba84d31b6	0.08901951655315696
190	0xbfaf404c7ab5ee00	-0.06103743551190277
191	0x3fd6dc8da0ee914d	0.35721150127416906
192	0x3f7974e2966ccd35	0.006214985950282516
193	0x3f62d29ff3b5a7c7	0.0022976993620220407
194	0x3f88c2e911a3b9fa	0.01209051213342337
195	0xbf893cca2295db6c	-0.012322978191816346
196	0x3f90d457715d7a45	0.016435018820056397
197	0xbf84876234c993dd	-0.010023848758644089
198	0x3f65352bc82a2e1b	0.002588830482016536
199	0xbf80fdff7c13c501	-0.008296962713276292
200	0x3f88076f732e74df	0.011732931807097944
201	0xbf5e21cdddd4e793	-0.0018391142287570203
202	0x3f6e216899715ea3	0.003678039832759898
203	0xbf6c68728e72362f	-0.003467773192432209
204	0x3f6d93b076dea435	0.0036104628151929726
205	0x3f8e38e9af299351	0.014756990106613495
206	0x3f80e3e728206413	0.008247190391601966
207	0xbf6028a8a1dec095	-0.001972512588473372
208	0x3f954e00db5aedc6	0.020805371654871306
209	0xbf80be83e3a45623	-0.00817587889154498
210	0x3f711c9d969b470f	0.004177680568050026
211	0x3f7c1c74066d6262	0.006863072608063266
212	0xbf904a64c6d36204	-0.015908789286955397
213	0x3f8209a838893f43	0.008807481980653292
214	0xbf91dc14d3c1989d	-0.017441106247496497
215	0x3f728e82f290e7f6	0.004530440820468931
216	0xbf84f9d77d212412	-0.010242160326145142
217	0x3f8f611e49a75e94	0.015321957228408047
218	0xbf8d2c95f2993561	-0.014245196786897453
219	0x3f89fb5c442dedb8	0.012686463194532802
220	0xbf85a6d5059c618e	-0.010572113260011642
221	0x3f879c0ca0854c9c	0.011528109215453157
222	0x3f734fa01eb8fbca	0.004714608639516402
223	0xbf25ddaef905b871	-0.00016682396791218052
224	0x3f47c842589b083c	0.0007257770496027559
225	0x3f931e550adc27b8	0.018670395648804322
226	0xbf92f6608f04d969	-0.018517979363616464
227	0x3f9b904c79f46fe8	0.026917643493206272
228	0x3f8d4c90aa9b4fa0	0.014306192595007705
229	0x3fa13a17c414b32c	0.033646338163043715
230	0x3f86b8663e0350b1	0.01109390141247277
231	0x3fa1e20e6194d271	0.03492779675653857
232	0xbfa2a0a8f6621dfc	-0.036381988597948806
233	0x3faf1f1a85a15953	0.06078417664746163
234	0xbf7f206335749ee9	-0.0075992465347451766
235	0x3fa6aa87dc1a98e6	0.044269796007300674
236	0x3f97630cd7eedee9	0.022838783912191216
237	0x3fb7c18943a47a82	0.09279687787464222
238	0xbfaf49d8bc511253	-0.06111028002536458
239	0x3fd56ccc53b665e5	0.33476551222847056
240	0x3f53ccdd856bfd69	0.0012085116665615187
241	0x3f80ad2e786206c4	0.00814281754378799
242	0x3f7b0e299b31dc42	0.006605303310713019
243	0xbf7c371d490f38a3	-0.006888498683976038
244	0x3f91da74dc42fe77	0.01743490785952281
245	0xbf85634985f31a19	-0.010443281555478955
246	0xbf595a4cabb8beee	-0.0015474079836045834
247	0xbf8507022d1fd97d	-0.010267273904884128
248	0x3f7aaf92f19ed4e2	0.006515096663794769
249	0xbf72a9dcdbffd3e0	-0.00455652497474987
250	0x3f7f2d630947e46f	0.007611643658031671
251	0xbf81cf6c7abfafbd	-0.0086964106521562
252	0x3f7a0fb20e4500f1	0.006362624674068438
253	0x3f779b4d10a4098c	0.0057633409835510345
254	0x3f8217a78ab04eee	0.008834179801886912
255	0xbf0abb51d3029c48	-5.0986704424098794e-05
