exp/data_checkpoints/Model_hs1_bs64_e1new/checkpoint.pth (torch, 100025 bytes, 114 tensors)

inv_timescales f8 [1]
000000 00 00 00 00 00 00 f0 3f
       1.0

blocks1.SCINet_Tree.workingblock.interact.level.phi.1.weight f8 [1, 1, 5]
000000 6f 77 c7 59 72 c8 c1 bf 1f f8 0c 8a 12 82 df bf
       -0.13892964729069088 -0.4923139904166209
000010 f9 73 39 da f7 8b b7 3f 2d 41 f3 ef 8f fb d0 3f
       0.09197949483628055 0.2653541415466119
000020 7a 95 88 e1 28 67 ca 3f
       0.20627318394069133

blocks1.SCINet_Tree.workingblock.interact.level.phi.1.bias f8 [1]
000000 f7 01 21 55 24 89 a2 3f
       0.036202559844699715

blocks1.SCINet_Tree.workingblock.interact.level.phi.4.weight f8 [1, 1, 3]
000000 21 e8 66 be 8e 5b c9 3f c7 8b f7 f1 42 d2 c9 bf
       0.1981066159913221 -0.20172917189401415
000010 2f 54 c1 c8 12 fe c9 3f
       0.2030662040948825

blocks1.SCINet_Tree.workingblock.interact.level.phi.4.bias f8 [1]
000000 5e 3d 73 66 2d ff e0 bf
       -0.5311495781879036

blocks1.SCINet_Tree.workingblock.interact.level.psi.1.weight f8 [1, 1, 5]
000000 ab 01 7b 92 61 cf bd bf b8 11 53 c3 e0 33 bb bf
       -0.11644563509162846 -0.10626034516014371
000010 b3 c1 18 10 93 b0 d4 bf bf 15 ca ae 39 bd c5 bf
       -0.32327725002235325 -0.16983719858778376
000020 34 c7 3b ca 0e bd d2 3f
       0.2927891707359891

blocks1.SCINet_Tree.workingblock.interact.level.psi.1.bias f8 [1]
000000 3f 6b 1b 4e 87 6d c0 bf
       -0.1283425456411695

blocks1.SCINet_Tree.workingblock.interact.level.psi.4.weight f8 [1, 1, 3]
000000 f0 8e f2 fa 7a fb d3 bf 05 b5 5c 9f 8f 55 d8 3f
       -0.3122241449984662 0.3802222305556174
000010 b7 85 8b 91 9c d8 a9 3f
       0.05048074032471155

blocks1.SCINet_Tree.workingblock.interact.level.psi.4.bias f8 [1]
000000 df 85 53 68 85 c3 dc bf
       -0.44943366230117293

blocks1.SCINet_Tree.workingblock.interact.level.P.1.weight f8 [1, 1, 5]
000000 53 a2 ea f0 17 d5 cb bf 9b 94 a6 00 d8 0f c5 3f
       -0.21744059813979053 0.16454601318142612
000010 7d e1 57 e1 6c b1 d1 3f 41 71 25 6b ca c0 d0 bf
       0.2764541817300808 -0.26176701034070865
000020 45 dd e8 c2 c3 7a c4 3f
       0.1599964811045799

blocks1.SCINet_Tree.workingblock.interact.level.P.1.bias f8 [1]
000000 b3 76 70 d4 96 c5 8a bf
       -0.013072183950551297

blocks1.SCINet_Tree.workingblock.interact.level.P.4.weight f8 [1, 1, 3]
000000 15 5a 45 a0 7b 7f c2 bf 91 20 ac 36 7e b4 db 3f
       -0.14451546979644606 0.432891419783581
000010 3b 23 b7 7a d5 46 b2 bf
       -0.07139333959561338

blocks1.SCINet_Tree.workingblock.interact.level.P.4.bias f8 [1]
000000 1a 9e 39 64 83 67 d2 bf
       -0.2875679472694813

blocks1.SCINet_Tree.workingblock.interact.level.U.1.weight f8 [1, 1, 5]
000000 97 68 9c df 6b 04 c6 3f 79 67 e7 9e 18 e1 c9 bf
       0.1720099298334545 -0.20218189009647938
000010 ba 59 c4 73 dc ee dc 3f 05 c6 4c cd f7 58 c6 bf
       0.45207892709131736 -0.17459008716973315
000020 77 e6 ba 05 a5 62 d5 3f
       0.3341457897146038

blocks1.SCINet_Tree.workingblock.interact.level.U.1.bias f8 [1]
000000 80 b6 b5 b9 f5 4b ca bf
       -0.20544311111318692

blocks1.SCINet_Tree.workingblock.interact.level.U.4.weight f8 [1, 1, 3]
000000 45 0a c6 c3 4d e3 c0 3f e8 1d 09 49 7b 5f e1 bf
       0.1319367605138543 -0.5429054666973885
000010 8a 1b f4 30 75 24 d9 bf
       -0.39285020619029665

blocks1.SCINet_Tree.workingblock.interact.level.U.4.bias f8 [1]
000000 14 e0 36 43 64 6a b0 3f
       0.06412340775466446

blocks1.SCINet_Tree.SCINet_Tree_odd.workingblock.interact.level.phi.1.weight f8 [1, 1, 5]
000000 19 a3 d3 fa 57 08 ce bf 88 13 fb f7 19 86 ba 3f
       -0.2346296286334784 0.10360872558801593
000010 2e 41 9f 12 d4 84 ac 3f 43 5e 5c e7 52 c9 ce 3f
       0.055700900338367595 0.24051891610064233
000020 5d 71 e7 43 af ae b6 bf
       -0.08860297591985984

blocks1.SCINet_Tree.SCINet_Tree_odd.workingblock.interact.level.phi.1.bias f8 [1]
000000 16 1f dc 88 f4 6d b0 bf
       -0.0641777834063045

blocks1.SCINet_Tree.SCINet_Tree_odd.workingblock.interact.level.phi.4.weight f8 [1, 1, 3]
000000 b5 3c b0 ed cd 4a d8 3f e6 cd d1 2a bf 61 9d bf
       0.379565698735813 -0.02869318674897938
000010 7f 00 68 03 db b1 c7 bf
       -0.1851152197486989

blocks1.SCINet_Tree.SCINet_Tree_odd.workingblock.interact.level.phi.4.bias f8 [1]
000000 c9 9a a0 35 29 e4 b2 bf
       -0.07379396018277896

blocks1.SCINet_Tree.SCINet_Tree_odd.workingblock.interact.level.psi.1.weight f8 [1, 1, 5]
000000 0d 6f 81 04 ce 36 b9 3f ab 59 00 6e 34 98 d3 bf
       0.09849250421524065 -0.30616484396287075
000010 12 59 90 dd ee ec b6 bf ab 80 dd 82 20 31 cc 3f
       -0.08955281171106247 0.22024923696426887
000020 cb be 73 68 e3 3b d8 3f
       0.3786552925148327

blocks1.SCINet_Tree.SCINet_Tree_odd.workingblock.interact.level.psi.1.bias f8 [1]
000000 8f a4 c9 fd 79 62 c6 bf
       -0.17488026515937746

blocks1.SCINet_Tree.SCINet_Tree_odd.workingblock.interact.level.psi.4.weight f8 [1, 1, 3]
000000 89 98 ec 11 c2 01 ca bf 11 69 a5 fb 43 58 d3 bf
       -0.20317865252690506 -0.3022623021585256
000010 3b c2 a8 3c 2f fc d2 3f
       0.29664212154151287

blocks1.SCINet_Tree.SCINet_Tree_odd.workingblock.interact.level.psi.4.bias f8 [1]
000000 74 c0 b3 31 49 54 e1 bf
       -0.5415388079400274

blocks1.SCINet_Tree.SCINet_Tree_odd.workingblock.interact.level.P.1.weight f8 [1, 1, 5]
000000 7b ea 1f 0f af 81 c9 bf 31 a6 20 15 8d f1 dd bf
       -0.19927013624677045 -0.46786810935245443
000010 35 06 ae e6 44 8c db bf 82 d8 24 4e 2f 54 d7 3f
       -0.4304363491756676 0.3645132315754226
000020 49 fd b1 12 7d d9 ca 3f
       0.20976222431998284

blocks1.SCINet_Tree.SCINet_Tree_odd.workingblock.interact.level.P.1.bias f8 [1]
000000 85 e1 81 d1 08 e9 a1 bf
       -0.034981036734225625

blocks1.SCINet_Tree.SCINet_Tree_odd.workingblock.interact.level.P.4.weight f8 [1, 1, 3]
000000 71 99 73 7f 4c 70 d9 bf af 79 33 0e ec da d8 bf
       -0.3974791760105268 -0.38836194407295016
000010 93 07 93 55 7a b7 c0 3f
       0.13059930017885488

blocks1.SCINet_Tree.SCINet_Tree_odd.workingblock.interact.level.P.4.bias f8 [1]
000000 7c bf 8d 17 a5 40 af 3f
       0.06104007637520589

blocks1.SCINet_Tree.SCINet_Tree_odd.workingblock.interact.level.U.1.weight f8 [1, 1, 5]
000000 7d df fe 1f ed 6a d4 bf 50 f4 0e 81 e3 52 d3 bf
       -0.31902626156396946 -0.3019341240249718
000010 4c c1 a5 12 a8 8b d1 3f 84 77 9a e7 c5 57 b5 bf
       0.2741489584068588 -0.08337056068782372
000020 a4 77 be 24 1e 5e 8d bf
       -0.01433967160829381

blocks1.SCINet_Tree.SCINet_Tree_odd.workingblock.interact.level.U.1.bias f8 [1]
000000 6b 80 8d 1b 39 82 d4 bf
       -0.32044818583199824

blocks1.SCINet_Tree.SCINet_Tree_odd.workingblock.interact.level.U.4.weight f8 [1, 1, 3]
000000 e4 38 d7 29 ad 03 d6 bf 56 4f 69 a9 38 9e bf 3f
       -0.34397439085013404 0.12350801597614
000010 94 1d 37 e3 7c c4 e2 3f
       0.5864853322790844

blocks1.SCINet_Tree.SCINet_Tree_odd.workingblock.interact.level.U.4.bias f8 [1]
000000 b1 ac d6 12 ad 78 ce bf
       -0.23805774135448624

blocks1.SCINet_Tree.SCINet_Tree_odd.SCINet_Tree_odd.workingblock.interact.level.phi.1.weight f8 [1, 1, 5]
000000 ba 00 74 04 fa 0f d0 bf 53 18 ee ea d2 65 c3 bf
       -0.25097513613583156 -0.1515449187392642
000010 3d 3c ef 37 35 3e d0 3f 7b c5 8e 2e d6 5c d9 bf
       0.25379686796526696 -0.3962912993111655
000020 60 52 cf 5a 2d 52 9e 3f
       0.02961035601386397

blocks1.SCINet_Tree.SCINet_Tree_odd.SCINet_Tree_odd.workingblock.interact.level.phi.1.bias f8 [1]
000000 6c 18 51 16 8b 62 c0 bf
       -0.12800730313955755

blocks1.SCINet_Tree.SCINet_Tree_odd.SCINet_Tree_odd.workingblock.interact.level.phi.4.weight f8 [1, 1, 3]
000000 a0 f8 b1 3b 4c 28 d1 bf 9c 7a eb a9 99 96 e0 bf
       -0.26808458165749904 -0.5183838194605701
000010 76 89 fb e3 17 d6 bb 3f
       0.10873555484753247

blocks1.SCINet_Tree.SCINet_Tree_odd.SCINet_Tree_odd.workingblock.interact.level.phi.4.bias f8 [1]
000000 96 cd 8d cf 11 15 da bf
       -0.40753598469674424

blocks1.SCINet_Tree.SCINet_Tree_odd.SCINet_Tree_odd.workingblock.interact.level.psi.1.weight f8 [1, 1, 5]
000000 9a bb 6b e4 d6 53 cb bf 32 47 af 01 f7 03 d1 bf
       -0.21349607613907723 -0.2658669964267687
000010 99 58 49 a3 48 22 ce 3f e1 6b ba 9d 2e 63 d9 bf
       0.23542125676130324 -0.39667859461923
000020 02 cf 75 da cf 48 aa 3f
       0.05133676091909757

blocks1.SCINet_Tree.SCINet_Tree_odd.SCINet_Tree_odd.workingblock.interact.level.psi.1.bias f8 [1]
000000 f7 7d db 34 49 71 d2 bf
       -0.2881644264398057

blocks1.SCINet_Tree.SCINet_Tree_odd.SCINet_Tree_odd.workingblock.interact.level.psi.4.weight f8 [1, 1, 3]
000000 52 ae 3c 25 0d b5 d5 bf 7f d6 0c 79 39 23 58 3f
       -0.33917549740246955 0.0014732419260331806
000010 49 6e 50 3d 12 ca e4 3f
       0.6496669004004129

blocks1.SCINet_Tree.SCINet_Tree_odd.SCINet_Tree_odd.workingblock.interact.level.psi.4.bias f8 [1]
000000 d8 25 b6 53 a7 3c c0 bf
       -0.1268510016200668

blocks1.SCINet_Tree.SCINet_Tree_odd.SCINet_Tree_odd.workingblock.interact.level.P.1.weight f8 [1, 1, 5]
000000 36 71 90 b4 51 ac b1 bf 80 12 ad e0 db e5 c2 bf
       -0.06903563173586211 -0.1476397368479816
000010 3a c2 5f e1 b5 f4 87 bf 08 5a b3 71 6f 4c d5 bf
       -0.01169721693074265 -0.33279024222920883
000020 86 f5 8f 0f de 9b d4 bf
       -0.32201339263686923

blocks1.SCINet_Tree.SCINet_Tree_odd.SCINet_Tree_odd.workingblock.interact.level.P.1.bias f8 [1]
000000 59 fc 4d ea 5c 95 d3 bf
       -0.30599139100372025

blocks1.SCINet_Tree.SCINet_Tree_odd.SCINet_Tree_odd.workingblock.interact.level.P.4.weight f8 [1, 1, 3]
000000 a5 8d 5f d8 ed eb c3 bf 22 10 21 5a b2 4b de 3f
       -0.15563748421764703 0.47337015916514436
000010 3e f5 e2 9e a0 11 d9 bf
       -0.39170089260354135

blocks1.SCINet_Tree.SCINet_Tree_odd.SCINet_Tree_odd.workingblock.interact.level.P.4.bias f8 [1]
000000 64 f9 24 f8 ce db d4 3f
       0.3259160445485547

blocks1.SCINet_Tree.SCINet_Tree_odd.SCINet_Tree_odd.workingblock.interact.level.U.1.weight f8 [1, 1, 5]
000000 69 00 13 d9 b9 7d 8d 3f 3b f8 04 46 a8 5e d3 bf
       0.014399959504203435 -0.30265242421944877
000010 61 02 24 3a 77 97 ce 3f 0e f8 76 28 3c 9d 65 3f
       0.23899736727618673 0.0026384520494664504
000020 a0 e2 6e dc 8d 79 ba bf
       -0.10341726905506698

blocks1.SCINet_Tree.SCINet_Tree_odd.SCINet_Tree_odd.workingblock.interact.level.U.1.bias f8 [1]
000000 43 2c 54 0b ba 7f 89 3f
       0.012450650664069701

blocks1.SCINet_Tree.SCINet_Tree_odd.SCINet_Tree_odd.workingblock.interact.level.U.4.weight f8 [1, 1, 3]
000000 d6 3e b4 d7 03 ef d1 bf c8 57 87 b2 1c ab d6 bf
       -0.28021331848957 -0.3541938537067577
000010 b2 c8 7c 78 73 03 b6 bf
       -0.08599015895450426

blocks1.SCINet_Tree.SCINet_Tree_odd.SCINet_Tree_odd.workingblock.interact.level.U.4.bias f8 [1]
000000 56 7a 49 69 27 55 cb bf
       -0.21353619233100812

blocks1.SCINet_Tree.SCINet_Tree_odd.SCINet_Tree_even.workingblock.interact.level.phi.1.weight f8 [1, 1, 5]
000000 7b 8f eb b2 0a 15 a2 3f 5f 79 fe e5 47 c7 b8 3f
       0.03531678613742791 0.0967907845028768
000010 c2 f3 76 ba 5e 86 b3 3f 5d 68 21 8b d5 15 d1 bf
       0.07626907398566998 -0.2669576510139729
000020 37 7e 47 58 ac c3 ce bf
       -0.24034647284041608

blocks1.SCINet_Tree.SCINet_Tree_odd.SCINet_Tree_even.workingblock.interact.level.phi.1.bias f8 [1]
000000 87 ad f3 f1 3b f7 ba bf
       -0.10533499390628807

blocks1.SCINet_Tree.SCINet_Tree_odd.SCINet_Tree_even.workingblock.interact.level.phi.4.weight f8 [1, 1, 3]
000000 b0 d1 c9 38 74 86 97 3f e3 c0 65 8e 53 e1 c1 bf
       0.022973838773809596 -0.13968891575814898
000010 1e c5 cb ec ab 76 cb bf
       -0.21455906927398244

blocks1.SCINet_Tree.SCINet_Tree_odd.SCINet_Tree_even.workingblock.interact.level.phi.4.bias f8 [1]
000000 0e 37 4b ad 94 50 b0 3f
       0.0637295649605358

blocks1.SCINet_Tree.SCINet_Tree_odd.SCINet_Tree_even.workingblock.interact.level.psi.1.weight f8 [1, 1, 5]
000000 53 84 49 b4 d8 fd da 3f f7 5c 6f f9 3c 4e c0 3f
       0.42174356084985226 0.12738763980335197
000010 33 83 38 e1 fa 0a b5 bf 73 0b b1 26 b8 b5 c4 3f
       -0.08219879149011149 0.16179563416707374
000020 13 91 cc 37 a7 bc bb bf
       -0.10834736931116522

blocks1.SCINet_Tree.SCINet_Tree_odd.SCINet_Tree_even.workingblock.interact.level.psi.1.bias f8 [1]
000000 e1 2e ef af 36 bb d0 3f
       0.26142661267361517

blocks1.SCINet_Tree.SCINet_Tree_odd.SCINet_Tree_even.workingblock.interact.level.psi.4.weight f8 [1, 1, 3]
000000 81 bf 50 a4 1f 99 e1 bf f3 ea 1b b3 da 43 e0 bf
       -0.5499418458257282 -0.5082829950545985
000010 cd 15 65 92 18 08 a8 bf
       -0.0469367674545925

blocks1.SCINet_Tree.SCINet_Tree_odd.SCINet_Tree_even.workingblock.interact.level.psi.4.bias f8 [1]
000000 0e 19 93 1f 7b 98 cc 3f
       0.22340334932068412

blocks1.SCINet_Tree.SCINet_Tree_odd.SCINet_Tree_even.workingblock.interact.level.P.1.weight f8 [1, 1, 5]
000000 13 48 e2 85 1d 0c e1 3f 4b e2 b3 c9 9d f1 7b bf
       0.5327289214058076 -0.006822220190990945
000010 24 cf 33 ca 9d 26 c1 bf 78 8f c9 70 55 3b c2 bf
       -0.1339909779850298 -0.14243572241968727
000020 21 0f bf 7d bc 01 c4 3f
       0.15630298747975593

blocks1.SCINet_Tree.SCINet_Tree_odd.SCINet_Tree_even.workingblock.interact.level.P.1.bias f8 [1]
000000 07 91 f1 6e 2f 25 a1 bf
       -0.033486826222345605

blocks1.SCINet_Tree.SCINet_Tree_odd.SCINet_Tree_even.workingblock.interact.level.P.4.weight f8 [1, 1, 3]
000000 87 ab 6f f9 88 5b e5 3f f0 71 32 5b c3 1e e0 3f
       0.6674237129021642 0.5037552624885944
000010 24 7e b1 c7 1c 66 e3 3f
       0.606214895273244

blocks1.SCINet_Tree.SCINet_Tree_odd.SCINet_Tree_even.workingblock.interact.level.P.4.bias f8 [1]
000000 f3 8b 35 54 53 b0 d7 bf
       -0.37013705466796337

blocks1.SCINet_Tree.SCINet_Tree_odd.SCINet_Tree_even.workingblock.interact.level.U.1.weight f8 [1, 1, 5]
000000 86 ae 8d 31 fc 01 d9 bf 67 ec e0 99 b5 26 98 3f
       -0.3907461627884249 0.023585164563183627
000010 da 9d b4 2a 49 ed dc 3f 24 aa 80 ca 63 da d9 3f
       0.45198277636015194 0.40395445609707026
000020 a8 5c b0 5b b2 ba c8 bf
       -0.19319753148076768

blocks1.SCINet_Tree.SCINet_Tree_odd.SCINet_Tree_even.workingblock.interact.level.U.1.bias f8 [1]
000000 c8 6e ec d4 ac 98 a5 3f
       0.04218044375576607

blocks1.SCINet_Tree.SCINet_Tree_odd.SCINet_Tree_even.workingblock.interact.level.U.4.weight f8 [1, 1, 3]
000000 6d 33 39 72 59 33 d7 3f 71 ab d2 b0 15 c9 a3 bf
       0.36250911860115914 -0.03864352973444952
000010 91 4e b0 17 c1 1d d0 3f
       0.2518160563788366

blocks1.SCINet_Tree.SCINet_Tree_odd.SCINet_Tree_even.workingblock.interact.level.U.4.bias f8 [1]
000000 b4 74 65 94 73 fc ad bf
       -0.058566676964554004

blocks1.SCINet_Tree.SCINet_Tree_even.workingblock.interact.level.phi.1.weight f8 [1, 1, 5]
000000 d3 85 c9 80 2d a0 d9 3f 71 c1 bb e1 f2 3f bc bf
       0.4004014737784846 -0.11035078059263072
000010 67 a4 36 5e ab ab a7 3f 08 56 3f df fb f4 bd bf
       0.04623160862986069 -0.11701940727592597
000020 07 90 8f b5 c8 e0 a5 bf
       -0.042730590975935505

blocks1.SCINet_Tree.SCINet_Tree_even.workingblock.interact.level.phi.1.bias f8 [1]
000000 dd 48 11 0c 39 1f a7 3f
       0.04516008636768885

blocks1.SCINet_Tree.SCINet_Tree_even.workingblock.interact.level.phi.4.weight f8 [1, 1, 3]
000000 e3 24 27 03 b9 a2 b2 bf da c3 6d 0f 51 95 7e bf
       -0.07279545142150172 -0.0074666181961768555
000010 84 44 8f 96 cb 6a d6 bf
       -0.35026826575364844

blocks1.SCINet_Tree.SCINet_Tree_even.workingblock.interact.level.phi.4.bias f8 [1]
000000 db 07 c3 d9 a7 ba d1 3f
       0.27701755777172615

blocks1.SCINet_Tree.SCINet_Tree_even.workingblock.interact.level.psi.1.weight f8 [1, 1, 5]
000000 2e 99 af fa b5 41 d4 3f ce 09 30 c5 45 47 bb 3f
       0.31651067238853414 0.10655628265525438
000010 2f af f4 96 fb 54 d0 3f 5f a9 7a 97 2a 46 da bf
       0.255186936776897 -0.41053261559377136
000020 0b 0a dd 0c 1e a2 bd 3f
       0.11575496496247

blocks1.SCINet_Tree.SCINet_Tree_even.workingblock.interact.level.psi.1.bias f8 [1]
000000 33 1e 6a a0 67 b6 d0 bf
       -0.2611331049488143

blocks1.SCINet_Tree.SCINet_Tree_even.workingblock.interact.level.psi.4.weight f8 [1, 1, 3]
000000 9d 15 64 44 02 43 db 3f 44 61 e7 6a 3c 91 d1 bf
       0.4259648959999483 -0.27448950233294434
000010 7a 93 c1 cd f5 7f b6 bf
       -0.08789001725524584

blocks1.SCINet_Tree.SCINet_Tree_even.workingblock.interact.level.psi.4.bias f8 [1]
000000 d4 53 8d 50 f5 fb b6 3f
       0.08978207794764553

blocks1.SCINet_Tree.SCINet_Tree_even.workingblock.interact.level.P.1.weight f8 [1, 1, 5]
000000 67 41 35 25 f4 05 c4 bf 28 41 88 34 6a 35 cc bf
       -0.15643169228361417 -0.22038009228754984
000010 a0 e6 b9 d2 fb 4a d2 bf 89 73 9a d2 d9 b8 db 3f
       -0.2858266408798986 0.4331574017212963
000020 02 1e ab b3 ab 01 b8 3f
       0.09377549301563451

blocks1.SCINet_Tree.SCINet_Tree_even.workingblock.interact.level.P.1.bias f8 [1]
000000 fc ec 47 b1 be 20 c3 bf
       -0.14943679481789462

blocks1.SCINet_Tree.SCINet_Tree_even.workingblock.interact.level.P.4.weight f8 [1, 1, 3]
000000 cb 4b 3a 7e d7 37 d5 3f d8 74 80 9b 7d 54 b0 3f
       0.3315333111469811 0.06378922506742712
000010 73 af a4 fe 27 34 c8 bf
       -0.18909168180232036

blocks1.SCINet_Tree.SCINet_Tree_even.workingblock.interact.level.P.4.bias f8 [1]
000000 d0 9b 1c 23 20 6c de bf
       -0.475349458969899

blocks1.SCINet_Tree.SCINet_Tree_even.workingblock.interact.level.U.1.weight f8 [1, 1, 5]
000000 d8 83 43 25 82 86 74 3f 92 7d 0f a9 9a 62 d0 bf
       0.005011089688395885 -0.2560183192235509
000010 c7 c7 da 79 c2 71 d9 3f 11 88 89 bb 25 4e af 3f
       0.3975683393465456 0.061143092291573116
000020 74 b3 66 6d fe 64 c3 bf
       -0.15151958791593823

blocks1.SCINet_Tree.SCINet_Tree_even.workingblock.interact.level.U.1.bias f8 [1]
000000 fe a3 a0 45 74 cd c3 bf
       -0.15470746421604525

blocks1.SCINet_Tree.SCINet_Tree_even.workingblock.interact.level.U.4.weight f8 [1, 1, 3]
000000 4f 7b 2f 36 c5 ea e2 bf 62 24 26 ea ba 41 d0 3f
       -0.5911584909734787 0.2540118490802056
000010 15 e6 c3 08 60 27 c5 bf
       -0.16526413372029994

blocks1.SCINet_Tree.SCINet_Tree_even.workingblock.interact.level.U.4.bias f8 [1]
000000 55 80 51 c0 6a 21 d2 bf
       -0.2832896116360691

blocks1.SCINet_Tree.SCINet_Tree_even.SCINet_Tree_odd.workingblock.interact.level.phi.1.weight f8 [1, 1, 5]
000000 83 8d 98 ba be 31 d8 bf 46 27 b2 bc a2 f6 c4 bf
       -0.37803619596726196 -0.1637767239920384
000010 fa d5 eb 38 b5 bf a4 bf a6 1f ef fd 91 07 d4 bf
       -0.04052511520232467 -0.3129620532822578
000020 d2 09 4c ec cd d3 dc 3f
       0.4504275138462194

blocks1.SCINet_Tree.SCINet_Tree_even.SCINet_Tree_odd.workingblock.interact.level.phi.1.bias f8 [1]
000000 30 f3 6d 04 d1 f7 c5 3f
       0.17162525860103406

blocks1.SCINet_Tree.SCINet_Tree_even.SCINet_Tree_odd.workingblock.interact.level.phi.4.weight f8 [1, 1, 3]
000000 bf 53 af cb 05 ad a8 bf 85 76 d5 ba b8 ab df bf
       -0.04819505797755807 -0.4948560547398773
000010 ff 65 22 ca b6 7e c7 3f
       0.18355450506059864

blocks1.SCINet_Tree.SCINet_Tree_even.SCINet_Tree_odd.workingblock.interact.level.phi.4.bias f8 [1]
000000 15 4f ae 87 26 a3 d9 bf
       -0.40058291673743557

blocks1.SCINet_Tree.SCINet_Tree_even.SCINet_Tree_odd.workingblock.interact.level.psi.1.weight f8 [1, 1, 5]
000000 39 88 9a db 7d 30 d8 bf cb c6 02 b0 e8 0e da bf
       -0.3779596943442161 -0.40715996922072567
000010 d7 90 a0 29 f2 f4 c6 bf 06 af b5 a3 ec 00 c6 3f
       -0.17935015709475152 0.17190320962560451
000020 45 86 7a e0 7f c5 a7 3f
       0.046428676750349264

blocks1.SCINet_Tree.SCINet_Tree_even.SCINet_Tree_odd.workingblock.interact.level.psi.1.bias f8 [1]
000000 a5 65 53 d0 ea 96 d1 bf
       -0.274836257403502

blocks1.SCINet_Tree.SCINet_Tree_even.SCINet_Tree_odd.workingblock.interact.level.psi.4.weight f8 [1, 1, 3]
000000 36 9e 39 86 04 3e bb 3f 93 49 45 7c c2 5e d2 bf
       0.10641506459216363 -0.28703367362791105
000010 e2 3d cf b5 fe 00 d1 3f
       0.2656857276424188

blocks1.SCINet_Tree.SCINet_Tree_even.SCINet_Tree_odd.workingblock.interact.level.psi.4.bias f8 [1]
000000 5b ad a4 d6 a4 e9 d7 bf
       -0.3736354919553457

blocks1.SCINet_Tree.SCINet_Tree_even.SCINet_Tree_odd.workingblock.interact.level.P.1.weight f8 [1, 1, 5]
000000 88 53 ad 1d 3b c7 d1 3f c4 75 15 4b 74 da d2 bf
       0.27778509042882904 -0.29458339054494
000010 1e 2a 58 ee 53 cd 7d bf 30 7f c4 c3 52 ca c7 3f
       -0.007275894027325451 0.18586191710436983
000020 4c b4 30 8e dd 74 d3 bf
       -0.3040079010559722

blocks1.SCINet_Tree.SCINet_Tree_even.SCINet_Tree_odd.workingblock.interact.level.P.1.bias f8 [1]
000000 51 38 0d 25 7f 24 be bf
       -0.1177443948228938

blocks1.SCINet_Tree.SCINet_Tree_even.SCINet_Tree_odd.workingblock.interact.level.P.4.weight f8 [1, 1, 3]
000000 f1 66 21 fe 08 90 e3 3f 57 e4 0b 6d 89 1d d2 bf
       0.6113324130521659 -0.2830527844340102
000010 3f 0b 1a 0b 9c f7 b3 3f
       0.07799697180784636

blocks1.SCINet_Tree.SCINet_Tree_even.SCINet_Tree_odd.workingblock.interact.level.P.4.bias f8 [1]
000000 00 26 5a 34 27 eb db 3f
       0.43622760880006695

blocks1.SCINet_Tree.SCINet_Tree_even.SCINet_Tree_odd.workingblock.interact.level.U.1.weight f8 [1, 1, 5]
000000 47 aa 54 d8 26 ca a7 bf 02 23 67 04 23 8c b3 bf
       -0.046464170367774 -0.07635706765644204
000010 41 30 f3 eb 64 f1 bb bf 57 7e a8 4d 04 25 b6 bf
       -0.10915213356491994 -0.08650233169509512
000020 a9 5d a5 38 4f 28 7f bf
       -0.007606801469897042

blocks1.SCINet_Tree.SCINet_Tree_even.SCINet_Tree_odd.workingblock.interact.level.U.1.bias f8 [1]
000000 51 9b 63 57 2a 37 ba 3f
       0.10240425714037583

blocks1.SCINet_Tree.SCINet_Tree_even.SCINet_Tree_odd.workingblock.interact.level.U.4.weight f8 [1, 1, 3]
000000 22 61 e3 40 ed 64 a8 bf 61 f5 40 02 c6 5a d2 3f
       -0.04764501015751167 0.28679037304012495
000010 e3 74 32 94 34 d0 ba 3f
       0.10473946207135358

blocks1.SCINet_Tree.SCINet_Tree_even.SCINet_Tree_odd.workingblock.interact.level.U.4.bias f8 [1]
000000 f0 2a ba 3a 04 66 dc bf
       -0.44372659430579997

blocks1.SCINet_Tree.SCINet_Tree_even.SCINet_Tree_even.workingblock.interact.level.phi.1.weight f8 [1, 1, 5]
000000 b7 ac 89 8b f2 fd d7 bf 99 31 20 e4 f1 de a0 3f
       -0.37487472178208797 0.03295093450296633
000010 88 50 00 8d a2 81 cd 3f f1 c4 2c c2 65 58 c3 3f
       0.23051864514184595 0.15113517743296925
000020 04 45 81 c5 5b 12 b0 3f
       0.06278012821100637

blocks1.SCINet_Tree.SCINet_Tree_even.SCINet_Tree_even.workingblock.interact.level.phi.1.bias f8 [1]
000000 9a 7b b7 9a 7e 14 a9 3f
       0.04898448599464374

blocks1.SCINet_Tree.SCINet_Tree_even.SCINet_Tree_even.workingblock.interact.level.phi.4.weight f8 [1, 1, 3]
000000 99 0a e4 db 53 65 e4 bf 1c 5a 77 cc 49 e7 c4 bf
       -0.6373690886251381 -0.16330835803701482
000010 35 a3 b8 0f d8 58 a6 3f
       0.043646575850578996

blocks1.SCINet_Tree.SCINet_Tree_even.SCINet_Tree_even.workingblock.interact.level.phi.4.bias f8 [1]
000000 a3 73 27 0e 79 cc c3 3f
       0.1546775168525559

blocks1.SCINet_Tree.SCINet_Tree_even.SCINet_Tree_even.workingblock.interact.level.psi.1.weight f8 [1, 1, 5]
000000 d2 ae 3d 5f b8 ee ba bf 9b 76 2e 82 9a bb c1 3f
       -0.10520508122652508 0.13853770596044943
000010 02 3e a3 68 26 7a bf bf 07 f5 d1 2e 75 c9 93 3f
       -0.12295761160498134 0.019323187811541433
000020 0b 7c a5 17 cf 1f ca bf
       -0.20409573225603625

blocks1.SCINet_Tree.SCINet_Tree_even.SCINet_Tree_even.workingblock.interact.level.psi.1.bias f8 [1]
000000 f0 7f a5 9f ae 25 dc bf
       -0.43979993429638764

blocks1.SCINet_Tree.SCINet_Tree_even.SCINet_Tree_even.workingblock.interact.level.psi.4.weight f8 [1, 1, 3]
000000 a1 90 7e 53 54 c8 d6 3f 4c 97 32 63 7b b3 d7 bf
       0.35597713617085885 -0.3703297108389634
000010 e1 7f c0 9c 5b 26 da 3f
       0.4085911780148291

blocks1.SCINet_Tree.SCINet_Tree_even.SCINet_Tree_even.workingblock.interact.level.psi.4.bias f8 [1]
000000 6b f8 36 da c4 b1 da bf
       -0.41710015592605626

blocks1.SCINet_Tree.SCINet_Tree_even.SCINet_Tree_even.workingblock.interact.level.P.1.weight f8 [1, 1, 5]
000000 20 ee da ed 25 3b 73 bf 9e 5a 29 3c 48 ca d9 3f
       -0.004695079956657661 0.40297132372999467
000010 67 b7 ce 6b f3 0e cd bf 2e 0b 17 e1 18 4d c3 3f
       -0.22701876415288355 0.15079031935428006
000020 a1 e4 00 a0 93 09 d2 3f
       0.2818345129522389

blocks1.SCINet_Tree.SCINet_Tree_even.SCINet_Tree_even.workingblock.interact.level.P.1.bias f8 [1]
000000 3c a9 3e ca 80 3f ca 3f
       0.20506296038849736

blocks1.SCINet_Tree.SCINet_Tree_even.SCINet_Tree_even.workingblock.interact.level.P.4.weight f8 [1, 1, 3]
000000 1b 5e b3 4d 4d 06 c2 bf 98 88 fc 8a a2 55 a1 3f
       -0.1408173207662323 0.03385646769153644
000010 1a b9 17 26 64 ff 95 bf
       -0.021482052636138872

blocks1.SCINet_Tree.SCINet_Tree_even.SCINet_Tree_even.workingblock.interact.level.P.4.bias f8 [1]
000000 84 f7 f8 d6 f1 65 c7 3f
       0.1827986049337903

blocks1.SCINet_Tree.SCINet_Tree_even.SCINet_Tree_even.workingblock.interact.level.U.1.weight f8 [1, 1, 5]
000000 97 69 0c 81 b5 98 b5 bf 83 28 c1 99 48 da c2 3f
       -0.08436140442464644 0.14728648669762742
000010 8a 74 a4 9a 80 1e d0 bf 1a 22 fc 5b 72 de 86 bf
       -0.25186171628758613 -0.011166470939785223
000020 8e 2d 8c 81 a9 d3 cc bf
       -0.22520941567959735

blocks1.SCINet_Tree.SCINet_Tree_even.SCINet_Tree_even.workingblock.interact.level.U.1.bias f8 [1]
000000 c9 66 dc 12 58 ca d4 bf
       -0.3248500999630833

blocks1.SCINet_Tree.SCINet_Tree_even.SCINet_Tree_even.workingblock.interact.level.U.4.weight f8 [1, 1, 3]
000000 5f 9c 37 bd 2d 25 d1 bf 54 07 98 a2 c2 5f d2 3f
       -0.2678942058395872 0.2870947444754297
000010 73 e5 27 e8 52 ed bd 3f
       0.11690252464167887

blocks1.SCINet_Tree.SCINet_Tree_even.SCINet_Tree_even.workingblock.interact.level.U.4.bias f8 [1]
000000 a6 db 04 3f a3 f0 d6 3f
       0.35843735841938906

projection1.weight f8 [48, 96, 1]
000000 eb fd 55 7f c8 98 a8 bf ea a2 dc c9 60 14 ad bf
       -0.048040643257077985 -0.05679609741338772
000010 75 7a de e7 3d a5 b0 3f d0 c5 94 61 bc ac 9f bf
       0.06502139006486536 -0.03093237252796205
000020 0c e2 7b 44 99 3b a7 3f e8 8c ae 12 48 92 7c 3f
       0.045376577005246416 0.006975442442953318
000030 47 86 8b 29 eb 87 9a bf 70 fc 2b 30 c6 f6 a9 3f
       -0.02590911332197823 0.05071086252245827
000040 0a 81 f0 74 1e fd 7c 3f c7 cf de 65 43 19 a3 3f
       0.0070773305624529746 0.03730211847815173
000050 4f ee d5 58 34 2f 7c bf 3a 4b 76 05 fb 6d 9d bf
       -0.006880955200695717 -0.028739855011347994
000060 22 34 8d 5f 9f 89 86 bf dd 26 24 c7 31 af 81 bf
       -0.011004681685927113 -0.008634938134963683
000070 5b f2 c6 a0 2b c0 86 3f a4 ce cc a7 a5 1a 65 3f
       0.011108723491696162 0.0025761828859687964
000080 99 23 56 25 58 61 b1 bf e8 a3 50 7a cf 86 a3 3f
       -0.06789160644087956 0.03813789718726196
000090 25 a4 bf 19 b4 ef 86 bf 65 3c a4 0c 3b 6b a7 3f
       -0.011199385677132476 0.045739980023534334
0000a0 2c 87 c6 ee b9 64 ad 3f d9 2b e5 ad 63 bd 92 bf
       0.05740910567989341 -0.01830058812019417
0000b0 fe 3b d3 15 22 e4 ba bf 21 01 b7 e3 28 8e a1 3f
       -0.1050435355457324 0.03428771762583183
0000c0 68 fb 19 fe 82 8c 91 3f 2a 7c 2e 78 94 bc a1 bf
       0.017137572058796208 -0.034641875906565936
0000d0 83 3d 5c 52 67 37 99 bf 40 12 9b 12 16 24 8a bf
       -0.024625410463213548 -0.012764141505052895
0000e0 c4 15 97 6a 7b 2e ab 3f ff 95 af fa c2 21 97 bf
       0.053089005242820814 -0.022589727926876076
0000f0 96 5b 0b 3f 2c f0 6f bf 69 31 f7 3e 16 8a 7b 3f
       -0.0038987030205634527 0.0067234868033206685
000100 7d 49 69 cb de d5 9e 3f 4e 96 0c 43 78 c3 80 3f
       0.03011272541545783 0.0081853290044577
000110 52 7c f4 f0 a9 58 75 3f 28 2b c9 47 38 9c a0 3f
       0.005211509545261244 0.03244186283389744
000120 c6 1f db 47 f9 7d 98 bf 41 8b 97 ef a0 55 a1 bf
       -0.023918051729907373 -0.03385641979891441
000130 14 39 b8 9b 55 d6 b5 3f 11 e7 87 14 d8 88 9a bf
       0.08530173351048048 -0.025912643673996764
000140 3d dd ac 83 65 ec 98 3f cd 9b e4 7b a9 f4 a7 bf
       0.02433928123647643 -0.04678849828115226
000150 3a 73 ea c9 91 39 a0 bf 8b 29 72 45 8c 0a a3 3f
       -0.03168922033112272 0.03718984935501898
000160 b6 6e 81 fe 55 49 6a 3f ef 69 6c 73 c3 57 90 bf
       0.0032087974141584387 -0.015959791107073625
000170 fd ae d1 bb c4 c7 94 bf 38 03 3c 64 77 64 84 3f
       -0.02029330631596248 0.00995724939957797
000180 81 a9 e4 1d cd 4e aa 3f 2d d2 4b 7e ce 89 95 3f
       0.051382455729554806 0.021033503016001532
000190 05 cf 9c 9c 3f 57 82 bf 01 63 42 2f 52 6e 8a bf
       -0.008955475775656927 -0.012905733172645652
0001a0 12 f3 3f b0 aa 6e a2 bf 59 46 fb 15 1e 33 ad 3f
       -0.03600057031142091 0.05703062074975369
0001b0 9c 3e 79 3f df f7 a7 3f d0 ae 57 d2 68 15 a2 bf
       0.04681298875641213 -0.0353195912137757
0001c0 13 ae d8 17 dd 65 9c 3f c6 75 27 9b 6e f0 a6 bf
       0.02773232896849549 -0.044803101005281884
0001d0 47 48 9a 19 40 8f a2 bf 11 ff 6e 17 a6 a3 82 bf
       -0.03624916374714409 -0.009101197805534452
0001e0 96 ca af 95 3c c0 a4 bf 0b 8b d0 a8 e4 e9 95 bf
       -0.040529149315166865 -0.021400044253947075
0001f0 4d b3 ec 3c 67 cb 84 3f 81 92 7c 13 91 d1 9f bf
       0.010153585955401967 -0.031072871031158748
000200 14 83 15 9b ad e8 b5 3f c5 7e 36 15 9a dc b0 3f
       0.08558163677436098 0.06586611764805202
000210 81 df 5d e7 7a ed a4 3f fb a4 4b 2d 50 71 a7 bf
       0.04087432932186542 -0.04578638604091086
000220 2b 64 0f ce 96 05 3c bf 96 f3 8f a6 b0 38 90 bf
       -0.0004275792289810144 -0.015841255346447612
000230 18 73 2e 69 10 0a 9e bf 0c 15 f5 0e da 61 92 bf
       -0.02933526651360116 -0.01795139995853838
000240 e9 c5 67 55 8a 5d 9c bf ed 01 56 a6 44 0a bb 3f
       -0.02770057817719432 0.10562542973457996
000250 8b 29 08 9e c1 50 75 bf 74 d9 7b 47 37 a7 9b 3f
       -0.005203968351006681 0.02700506566812906
000260 21 da fc 08 c4 59 b2 bf 6d ad e3 ed ef 38 79 3f
       -0.07168221682955124 0.006157815192845956
000270 46 cb 53 7f 7b 3a b8 3f 9b e5 e7 2d 68 cf 7d bf
       0.09464237078263435 -0.0072778768067051315
000280 28 de 67 44 72 fa af bf 6b 34 29 e2 f2 71 a7 bf
       -0.06245762906104019 -0.04579123507264956
000290 01 66 9a 30 5a a6 94 bf 90 d6 da a6 15 08 ac 3f
       -0.020165833679675064 0.05474918042947963
0002a0 04 5d 4c 3e 55 b2 67 3f c5 93 23 12 aa 84 9e 3f
       0.0028926529797775897 0.029802949292292675
0002b0 f4 61 f5 a7 dd b6 89 bf ce d6 63 43 e7 f1 76 bf
       -0.012555820167720257 -0.005601790782966366
0002c0 68 b5 11 b5 0b 2d 86 3f 9b cf 87 b7 1d 7c 9d bf
       0.010828105414669678 -0.028793777777493906
0002d0 6c 37 4f 81 82 7f b5 3f 43 b1 fd 36 c7 7f ad 3f
       0.08397689492195831 0.05761549516941724
0002e0 a6 09 16 f5 d3 ff a8 3f 82 82 64 f3 9c 1d b5 3f
       0.04882681242726798 0.082483109876657
0002f0 8b aa 35 ef a5 31 cf 3f fd e4 5c ca 85 a6 a4 3f
       0.24370264225156676 0.040332966759203594
000300 ee 9c a2 ed 2a 85 98 3f fa 7c ce a9 34 d6 a0 bf
       0.02394549441728782 -0.032884259918541006
000310 08 ee fe 4c 6e dd 96 bf 93 d0 63 8a 95 16 96 3f
       -0.022329066705181005 0.021570526668214084
000320 d6 17 c9 08 0c dd a9 bf 92 a0 6f 58 46 fb a9 3f
       -0.050514579842044036 0.050745199485221396
000330 82 34 fe 65 49 2e aa bf a8 b2 d9 db 0a db a4 3f
       -0.051134389591518406 0.04073366101952064
000340 17 2d ac fa 72 4b 9f 3f f5 91 e9 e2 0f 51 90 bf
       0.030561253118361522 -0.0159342272039726
000350 4e 6f b7 60 55 8d a0 3f 35 4a 7e 08 44 83 94 3f
       0.03232828908559658 0.020031989115134336
000360 8b bc 0f 54 88 6e a0 3f 64 ec ed b7 41 9a 72 3f
       0.03209329630032539 0.004541641915120829
000370 0f 01 61 c4 fc 78 93 bf 2a 99 99 a9 a7 18 a8 bf
       -0.019016217695253575 -0.04706310220062655
000380 96 80 24 d8 53 8b 97 3f d0 8d 0a e2 5d 50 7e bf
       0.02299242979745538 -0.0074008624366430215
000390 3d 3d 71 08 72 a0 9d 3f 30 9d 03 f3 2f b1 a0 bf
       0.028932363286285002 -0.03260183183175014
0003a0 08 b7 3a 28 ca 1d b4 3f 31 ee 36 2c 53 33 a4 3f
       0.07857955438768383 0.03945407786110556
0003b0 2e 87 2b 1c c3 2a a1 bf b5 04 e8 8a 62 4a 98 bf
       -0.033529374302601375 -0.023721255996865327
0003c0 e5 3d f8 fa ee 1c 7c 3f 26 29 ac 08 9a 69 9d bf
       0.006863530652040127 -0.028723150996520584
0003d0 02 be ac d7 a0 87 95 bf 81 86 cb 49 c5 78 a9 3f
       -0.02102519337057452 0.04974953199213151
0003e0 d2 be ac 80 c1 94 b7 3f 0a d4 70 c3 2b 54 95 bf
       0.09211358443712506 -0.020828899196391894
0003f0 34 9d 52 b4 c1 04 a5 bf 27 a7 93 a8 ac 62 94 bf
       -0.041051915418672286 -0.019907663144216017
000400 81 bc b2 88 b7 8c 85 bf 5b 48 da 72 f6 b1 97 bf
       -0.010522302493283899 -0.02313981128697438
000410 3a 64 2c 04 1d f4 af bf db e5 3f 99 bb 2a 73 3f
       -0.06240931201882245 0.004679425055650078
000420 42 ae 27 cf 94 1f a9 bf 1e 5b 60 12 22 2e ad 3f
       -0.04906907109019844 0.05699259256669208
000430 2e b4 84 53 c6 8d 89 bf 23 e5 34 df 62 45 90 3f
       -0.01247744505288936 0.01588968741746045
000440 c6 d7 ff d4 dd 16 93 3f 45 ec a8 88 64 56 a2 3f
       0.018641916394663637 0.03581537407122729
000450 44 db 6d 22 30 b3 b9 bf d8 08 a6 3b e6 1a 82 bf
       -0.10039044228129251 -0.008840368933992357
000460 7e df 0b 6a 89 b2 9d bf 60 05 ba d9 45 e9 78 bf
       -0.029001376245076475 -0.006081841329092924
000470 a1 13 cf 99 a5 aa ac 3f 38 af 59 6f f8 33 9d bf
       0.05598943235921828 -0.028518564029965193
000480 0b c0 d1 ed 22 7e ac 3f dc 04 69 1c 90 5a 99 3f
       0.05564984467571329 0.02475953267481122
000490 64 83 07 e7 5f 47 a9 bf a6 1e 7b 39 a2 1b 9c 3f
       -0.04937267012770155 0.027449164160116134
0004a0 e8 3a 53 ae 34 9a 98 3f 7a 68 f6 f8 ab 88 99 bf
       0.024025748386345663 -0.024935423918215772
0004b0 1f 73 89 0c ed 0b ab bf e8 a8 74 3c 66 41 7a bf
       -0.05282536294973838 -0.006410025939923104
0004c0 44 f5 65 43 5e 5d 60 bf 3d 47 ea e3 5a af b3 3f
       -0.001997646434743901 0.07689445556959824
0004d0 47 31 df 49 ae 1e a3 3f 8b 48 66 cb 31 fb a0 bf
       0.037343451039847646 -0.03316646201996417
0004e0 05 ed 69 0a 38 e9 aa bf e8 2f 19 52 d2 e9 7c bf
       -0.05256056906815768 -0.007058927121374105
0004f0 6e a4 de 2f a3 10 a3 3f 8a ba 0d c3 d9 b4 87 bf
       0.03723630866381532 -0.01157541395670349
000500 27 22 cb e2 2b cb 8f 3f 9f 0d f7 91 fb e1 9c bf
       0.015524237497985883 -0.02820580557250951
000510 58 86 c1 f3 06 da a0 3f c0 56 a9 87 bf 93 84 bf
       0.03291341519867491 -0.010047432258186162
000520 1b 6e a9 b8 10 60 a1 3f ac 45 39 1d d5 14 ad 3f
       0.03393604520962531 0.05679956418738227
000530 69 3f cc 87 75 a7 a7 bf eb 59 56 cd dc 7f a7 3f
       -0.046199486567387656 0.045897388520803016
000540 8a 70 c1 e4 ca 76 ad bf 68 b1 31 7f c2 73 a4 bf
       -0.05754694025446934 -0.03994567682898059
000550 fe d9 b8 61 71 d0 ad 3f 49 33 23 52 b7 37 8d bf
       0.05823091810127677 -0.014266426271569837
000560 a0 29 27 d0 4a 41 b2 3f 57 6b 15 93 70 ea 93 3f
       0.07130878049716793 0.0194490041516063
000570 ec ba e4 ba 39 4b b2 bf 0f df 89 1a 5d fd a3 bf
       -0.07146035015896829 -0.03904238652188329
000580 9a c7 9e d8 59 e5 a7 bf c6 0e d0 55 a9 22 a8 bf
       -0.046671683972262915 -0.04713944599646207
000590 e6 9b 35 4c dc 14 90 3f 87 86 59 18 ff 23 9f 3f
       0.015704576636746646 0.03041075311774091
0005a0 2d 75 70 a6 f7 ce 84 bf 64 c5 6d 7e 90 aa a8 3f
       -0.010160383955787633 0.048176303322984976
0005b0 65 3c e0 ac 03 ce 8b 3f 10 2d 3d e5 99 5b 8c bf
       0.013576534951452677 -0.01384659033614935
0005c0 b9 4d 19 65 3c c6 ae 3f 76 16 5b e5 59 79 94 3f
       0.06010617002598501 0.01999416792275218
0005d0 da 89 cf 94 74 ed bc 3f 04 3c e1 8a a6 1c 9d 3f
       0.11299828179429686 0.028429605700065266
0005e0 d3 a6 fc e1 8c 45 b3 3f 75 99 e2 32 f2 d2 63 bf
       0.07528000371226122 -0.0024199228710869943
0005f0 c6 7e 0f 36 ae 0a b6 3f b2 2a cc bc 96 60 c7 3f
       0.08610047168576349 0.18263515680913184
000600 ed 54 03 7f ec 8c a9 3f df c6 7b d3 bc d2 5e bf
       0.04990328836871947 -0.0018812984471278588
000610 a7 f3 17 ec 8a 34 b5 bf 61 9c 54 49 8a d5 7d 3f
       -0.08283298744204491 0.007283725911555101
000620 f9 d2 30 ef e5 ee 98 3f 70 7c 81 4f 70 1d 3e bf
       0.024348824237864417 -0.000459518355915684
000630 0e 14 a2 41 fa b9 a1 bf b3 54 9e d7 c6 42 96 bf
       -0.03462202120957879 -0.021739108000094997
000640 2c 78 a5 a4 c0 46 b0 3f 44 74 61 07 a8 31 8a bf
       0.063579597660891 -0.012790024495354164
000650 1b e2 e4 78 ca 68 92 3f b6 90 b2 0d 9e 2b 75 bf
       0.017977870587147487 -0.0051685499157977845
000660 4a 7b f5 59 62 de a7 bf 86 27 55 08 48 f3 83 bf
       -0.04661853168612724 -0.009741366152087993
000670 a4 06 ec 64 7a 90 a5 3f a0 d1 1c 83 ca 7d 24 bf
       0.04211790544469565 -0.00015633675644156648
000680 5e 37 56 3c 4a 49 70 3f 30 a2 d7 8f 82 ac a1 bf
       0.003976144774595484 -0.034519271906735205
000690 82 41 d4 a0 65 44 a5 bf e2 45 54 2b 07 fd a2 3f
       -0.04153745258566045 0.03708670047684472
0006a0 4c ab 1a 83 a6 16 a7 3f 36 79 fd a5 b5 42 9b 3f
       0.04509468412773873 0.026621664291604584
0006b0 b0 14 bf a4 f1 5f 78 bf 36 06 ea ea 22 07 63 bf
       -0.005950874252396307 -0.002322738836767947
0006c0 51 81 fa 8a 1d 66 8c bf d8 28 2b 5b 53 6e 82 3f
       -0.013866644672191926 0.008999491901154164
0006d0 10 29 41 60 f7 f3 af 3f 34 9b 9f 25 72 9f 46 3f
       0.062408190250225926 0.0006903941496120059
0006e0 e8 d3 90 a4 30 d6 8c 3f 9a 67 49 62 2a a0 93 3f
       0.014080410024783732 0.019165670632311206
0006f0 92 db cc d8 34 5f b5 bf 9c 4a 91 6d 94 c8 3e 3f
       -0.08348398488020184 0.0004697191594164403
000700 28 5b 30 1d 37 ce b2 bf 31 93 af 17 8b ab a1 3f
       -0.07345909559840591 0.03451189674505029
000710 cc 52 70 c3 d8 35 ac bf 33 cf 70 f9 24 45 af bf
       -0.05509831796385853 -0.061074405144977105
000720 f4 47 1c 89 92 b6 a4 3f 86 9d 29 58 d9 98 6c bf
       0.040455416905515934 -0.003490852833511307
000730 c3 ec 41 b2 66 6e b5 3f 74 0d e3 66 55 44 b0 3f
       0.08371583797445496 0.06354268800628465
000740 e6 aa 4f 79 59 8a 5a 3f e6 2f f7 29 e9 23 91 bf
       0.0016198991554527364 -0.01673855131757298
000750 b1 69 33 2f 44 22 a3 bf 23 01 fd 04 3a c5 9a bf
       -0.03737080646688485 -0.02614298491903456
000760 50 7e aa 8c 2b 8e 84 bf 39 c5 6d 51 41 59 a1 3f
       -0.010036792974744163 0.03388408774379532
000770 4f ac 4e aa 7e 36 8c bf 0e f7 b3 14 9f 3e 62 3f
       -0.013775815555922359 0.0022271258400213883
000780 4d 0c 09 00 6f 4c a6 bf 63 36 f0 4d 45 94 a3 3f
       -0.04355189204627461 0.038240590824085506
000790 2b 5a 7e fb e6 67 a5 bf 8e 5d ef 0e e7 88 98 bf
       -0.041808336448572035 -0.023959741865693433
0007a0 21 45 8e 63 e4 da a9 3f 26 dd 9b 23 ea 3b 97 3f
       0.05049813952713068 0.022689493583098706
0007b0 f0 e2 f0 40 0f 5d 6b 3f ac 3f fc 6a 0f 45 85 3f
       0.003340272705397822 0.010385628178056404
0007c0 22 3a cf a2 e6 cf 68 3f 11 09 36 5a 70 12 af bf
       0.0030288223847272514 -0.06068755246362135
0007d0 ce 36 78 91 68 10 a0 bf d1 eb 62 21 f9 56 7c bf
       -0.03137518668891702 -0.006918881574331474
0007e0 05 93 10 e6 7f f6 8a 3f 19 0e b6 d1 33 57 a8 3f
       0.013165473183172969 0.047540301656251845
0007f0 21 80 79 f7 8d f2 a4 3f e7 de cf 96 e8 bc 91 bf
       0.04091304441385569 -0.017322191433747938
