exp/data_checkpoints/1/checkpoint.pth (torch, 100025 bytes, 114 tensors)

inv_timescales f8 [1]
000000 00 00 00 00 00 00 f0 3f
       1.0

blocks1.SCINet_Tree.workingblock.interact.level.phi.1.weight f8 [1, 1, 7]
000000 c0 b2 9e 9c 60 26 c4 3f d0 66 22 67 2a 5e a2 bf
       0.15742118499237812 -0.03587467678989997
000010 3f e4 ed 6d ac 46 cc 3f ac 2c 14 44 c6 60 ba bf
       0.22090678565635533 -0.1030391613204979
000020 15 c8 41 ad 4c c1 c3 3f 52 5b 56 3d 90 31 cc bf
       0.15433653316318954 -0.2202625560282408
000030 5c 09 9d 10 8b c9 c8 bf
       -0.193650611030601

blocks1.SCINet_Tree.workingblock.interact.level.phi.1.bias f8 [1]
000000 a5 ec 44 d9 de f8 d4 bf
       -0.3276898500223047

blocks1.SCINet_Tree.workingblock.interact.level.phi.4.weight f8 [1, 1, 3]
000000 50 2a 37 74 63 8e e3 bf e3 1b 2a ec 7b 49 da bf
       -0.6111314077218797 -0.4107351118367985
000010 e1 d5 d7 0e 99 b5 b5 3f
       0.08480221378689336

blocks1.SCINet_Tree.workingblock.interact.level.phi.4.bias f8 [1]
000000 26 4c 04 f0 3f ac d3 bf
       -0.30738829077853536

blocks1.SCINet_Tree.workingblock.interact.level.psi.1.weight f8 [1, 1, 7]
000000 75 a4 05 36 26 ea c1 bf 5a c2 eb ef eb b7 d8 3f
       -0.13995816839022593 0.3862256854036211
000010 86 c7 3b b8 08 6f b3 3f 06 6f 3e bc 93 c5 bb bf
       0.07591299531830317 -0.1084835371570386
000020 98 c5 0a 1d 0e 3b a0 bf 41 91 5a 56 54 df ac bf
       -0.03170055489079998 -0.05639136842845228
000030 52 fb f8 e8 d0 3d 94 bf
       -0.019767059535520666

blocks1.SCINet_Tree.workingblock.interact.level.psi.1.bias f8 [1]
000000 fa cf b4 ba 38 2e be bf
       -0.11789278562793007

blocks1.SCINet_Tree.workingblock.interact.level.psi.4.weight f8 [1, 1, 3]
000000 3b 11 ac 0f 2a df aa bf 35 95 28 f6 7c dc d0 bf
       -0.05248385850248601 -0.26345752753180146
000010 a1 c9 4a 90 a4 d6 d5 bf
       -0.34122575846699915

blocks1.SCINet_Tree.workingblock.interact.level.psi.4.bias f8 [1]
000000 66 79 fa 1c 44 36 d8 bf
       -0.3783121378891309

blocks1.SCINet_Tree.workingblock.interact.level.P.1.weight f8 [1, 1, 7]
000000 d4 d3 af 50 c1 a8 cf bf 45 15 df 3a f8 7f a1 3f
       -0.24733749809061456 0.034179455934956006
000010 fc 2f da 84 d6 59 b7 3f fe 50 40 31 2b c1 db bf
       0.09121456855262972 -0.43366508302393914
000020 93 0e 4c 13 7c 0f ac 3f a2 67 75 2e 2e 22 c4 3f
       0.05480563865242263 0.15729310291754667
000030 94 76 cf f5 0d 05 c2 bf
       -0.1407792520757779

blocks1.SCINet_Tree.workingblock.interact.level.P.1.bias f8 [1]
000000 cd 34 88 85 c2 35 ba 3f
       0.1023828102117534

blocks1.SCINet_Tree.workingblock.interact.level.P.4.weight f8 [1, 1, 3]
000000 10 20 f6 b8 92 c6 a1 bf f1 98 a5 6c bd 45 a0 bf
       -0.03471811778860012 -0.03178207350974727
000010 9c e0 6c 6f 67 ba aa bf
       -0.052203399993630856

blocks1.SCINet_Tree.workingblock.interact.level.P.4.bias f8 [1]
000000 a3 3b 0c 25 72 fc d9 bf
       -0.4060330735964561

blocks1.SCINet_Tree.workingblock.interact.level.U.1.weight f8 [1, 1, 7]
000000 9e 2f 30 a5 3b 68 e0 3f 2b 7b 75 82 cd d1 8f bf
       0.5127237535793829 -0.015536885780134199
000010 57 ca a3 fe 05 f6 da 3f 39 f0 aa ef 2b 6b a3 bf
       0.42126607768219543 -0.03792702961570211
000020 62 5a f7 d3 1e 2a b7 3f f6 96 11 73 02 a1 de bf
       0.09048645663220037 -0.4785772441594952
000030 05 17 f8 16 ea 31 d9 bf
       -0.3936715339954023

blocks1.SCINet_Tree.workingblock.interact.level.U.1.bias f8 [1]
000000 22 ea d0 4c fa 7f c5 bf
       -0.16796807051453394

blocks1.SCINet_Tree.workingblock.interact.level.U.4.weight f8 [1, 1, 3]
000000 1a d8 e5 eb 2d 73 dd bf 6b eb 5f 35 db 84 e7 bf
       -0.46015499150178274 -0.7349678080057463
000010 d9 82 b2 20 f6 85 d5 bf
       -0.33630135720345106

blocks1.SCINet_Tree.workingblock.interact.level.U.4.bias f8 [1]
000000 17 39 e0 12 ea d9 dd 3f
       0.46642543643328466

blocks1.SCINet_Tree.SCINet_Tree_odd.workingblock.interact.level.phi.1.weight f8 [1, 1, 7]
000000 77 27 43 0c 19 9d c9 3f fd 06 e6 04 f0 6d de 3f
       0.20010674570795192 0.4754600570523591
000010 c9 3a d8 bd 10 81 db 3f 4d df 71 4f 17 19 93 bf
       0.42975252666012104 -0.018650402282644852
000020 99 0c 9e 46 96 37 be bf d7 05 42 c2 6a 29 c6 bf
       -0.11803569053704378 -0.17313894734620192
000030 da 35 8c 5d 3c d4 cb 3f
       0.21741442268141392

blocks1.SCINet_Tree.SCINet_Tree_odd.workingblock.interact.level.phi.1.bias f8 [1]
000000 23 d6 d6 62 4c 7d 94 3f
       0.020009225399652785

blocks1.SCINet_Tree.SCINet_Tree_odd.workingblock.interact.level.phi.4.weight f8 [1, 1, 3]
000000 a3 e4 f0 9e ea 4a d0 bf 98 d6 89 c8 9b c9 d1 bf
       -0.2545725395353406 -0.2779302080519783
000010 65 b9 78 20 3c 5d d1 bf
       -0.27131560488751055

blocks1.SCINet_Tree.SCINet_Tree_odd.workingblock.interact.level.phi.4.bias f8 [1]
000000 e5 39 e3 d5 0a 98 f0 bf
       -1.0371197085365733

blocks1.SCINet_Tree.SCINet_Tree_odd.workingblock.interact.level.psi.1.weight f8 [1, 1, 7]
000000 50 6e 28 fe 46 d7 d5 bf 20 4e cd c7 61 e9 d0 bf
       -0.34126448459730785 -0.2642445040885111
000010 e6 20 fe c5 ce 5a c5 bf 62 1f 89 59 f1 5c bf 3f
       -0.16683373134242813 0.12251194415978042
000020 31 77 42 94 01 4b df bf fe 0e 07 10 df 74 a6 3f
       -0.48895301321487056 0.04386040754937247
000030 7b 98 e4 b7 9f ef bc bf
       -0.11303137054037109

blocks1.SCINet_Tree.SCINet_Tree_odd.workingblock.interact.level.psi.1.bias f8 [1]
000000 55 48 02 26 95 be df bf
       -0.4960072394543478

blocks1.SCINet_Tree.SCINet_Tree_odd.workingblock.interact.level.psi.4.weight f8 [1, 1, 3]
000000 46 2a ae 56 64 a4 c8 3f 7e 24 c4 4d 90 a0 9a bf
       0.1925168441051303 -0.026003126856299456
000010 76 77 2c 1d 59 9f ac 3f
       0.05590322953342668

blocks1.SCINet_Tree.SCINet_Tree_odd.workingblock.interact.level.psi.4.bias f8 [1]
000000 2e 67 df 03 05 cc d3 bf
       -0.3093273675745988

blocks1.SCINet_Tree.SCINet_Tree_odd.workingblock.interact.level.P.1.weight f8 [1, 1, 7]
000000 32 92 d6 ab a5 04 a2 3f 56 bd 13 3a ee 7b c2 3f
       0.03519170496591463 0.14440706096454886
000010 e3 c5 29 1b ab 9a cd bf 56 65 78 2d 73 a4 c7 bf
       -0.23128260446860258 -0.18470611305455503
000020 d4 b6 8b 34 87 4a c5 3f 5e e5 e6 e0 94 d1 c0 bf
       0.1663369185038649 -0.1313959215311042
000030 d2 b7 2e cc f3 60 c4 bf
       -0.15920875043724309

blocks1.SCINet_Tree.SCINet_Tree_odd.workingblock.interact.level.P.1.bias f8 [1]
000000 22 78 84 6e 02 38 d1 bf
       -0.2690435485145618

blocks1.SCINet_Tree.SCINet_Tree_odd.workingblock.interact.level.P.4.weight f8 [1, 1, 3]
000000 46 c8 16 38 a3 62 e0 bf 0e c3 f8 d7 99 80 94 bf
       -0.5120407195556786 -0.02002182369887167
000010 0e 96 3f d1 0e ad cb 3f
       0.2162188073845503

blocks1.SCINet_Tree.SCINet_Tree_odd.workingblock.interact.level.P.4.bias f8 [1]
000000 80 5e d5 78 04 65 b2 bf
       -0.07185390424762694

blocks1.SCINet_Tree.SCINet_Tree_odd.workingblock.interact.level.U.1.weight f8 [1, 1, 7]
000000 c8 70 df 1a c5 da d8 bf c8 44 de c3 a4 93 ab bf
       -0.38835265754984194 -0.05386080637902918
000010 d2 23 f7 35 a7 f8 9a bf 58 57 91 1a 4b bd d0 3f
       -0.026339161556993514 0.2615535506678177
000020 3a 86 94 af c5 90 aa 3f 7d 87 ce 21 11 de bb 3f
       0.05188577431023274 0.10885722232208468
000030 4f d6 ef d2 49 2d da 3f
       0.4090141830377875

blocks1.SCINet_Tree.SCINet_Tree_odd.workingblock.interact.level.U.1.bias f8 [1]
000000 a5 76 1c 15 70 11 cd bf
       -0.22709466009921644

blocks1.SCINet_Tree.SCINet_Tree_odd.workingblock.interact.level.U.4.weight f8 [1, 1, 3]
000000 4d 7e 47 08 28 23 b0 3f 02 a7 14 8a 57 b8 cb 3f
       0.0630364437306465 0.21656316988201502
000010 0e bd 58 df ee fb d7 3f
       0.3747517758483391

blocks1.SCINet_Tree.SCINet_Tree_odd.workingblock.interact.level.U.4.bias f8 [1]
000000 db 2c 71 d1 7c 45 c7 bf
       -0.18180809237160286

blocks1.SCINet_Tree.SCINet_Tree_odd.SCINet_Tree_odd.workingblock.interact.level.phi.1.weight f8 [1, 1, 7]
000000 ea 00 da e2 c8 57 cf 3f 79 63 fc 34 4e b7 c1 bf
       0.24486647679078227 -0.13840653979493903
000010 a6 77 b7 df 2c 7d d0 bf 8e 42 f2 2d 8f ff c5 bf
       -0.25764009330111504 -0.17186155074570703
000020 4f 1c 9d a3 14 f9 90 bf 2f fa 1e a9 89 3e d0 bf
       -0.01657516716593604 -0.2538170005390467
000030 94 a4 04 7e 39 1a c6 3f
       0.17267531064252195

blocks1.SCINet_Tree.SCINet_Tree_odd.SCINet_Tree_odd.workingblock.interact.level.phi.1.bias f8 [1]
000000 a8 d6 1b 94 99 94 8a 3f
       0.012978744347019358

blocks1.SCINet_Tree.SCINet_Tree_odd.SCINet_Tree_odd.workingblock.interact.level.phi.4.weight f8 [1, 1, 3]
000000 d6 3d 10 ce 7e a7 da 3f 52 cb 92 ad d0 c7 da bf
       0.41647310374625357 -0.4184457488110428
000010 e8 11 f8 a7 50 3d e1 bf
       -0.5387347489018426

blocks1.SCINet_Tree.SCINet_Tree_odd.SCINet_Tree_odd.workingblock.interact.level.phi.4.bias f8 [1]
000000 23 a4 68 89 ae 60 da bf
       -0.4121509878046387

blocks1.SCINet_Tree.SCINet_Tree_odd.SCINet_Tree_odd.workingblock.interact.level.psi.1.weight f8 [1, 1, 7]
000000 ab b6 2b 37 37 8b e1 3f 4a ff 1b 21 4a e4 e0 3f
       0.5482441022447423 0.5278673788707036
000010 45 06 c4 c8 38 87 b1 3f f0 1b ef 18 d9 bb d7 3f
       0.06846957112795689 0.3708403342720308
000020 c7 e6 0f aa 59 3a e4 3f 6d 07 13 ea 15 6f cd 3f
       0.6321228333974539 0.22995256356631036
000030 ec 3e 4c 88 cb a1 e2 3f
       0.5822503721301167

blocks1.SCINet_Tree.SCINet_Tree_odd.SCINet_Tree_odd.workingblock.interact.level.psi.1.bias f8 [1]
000000 6e 6b 5e 7d fc 5b a2 3f
       0.03585804968243776

blocks1.SCINet_Tree.SCINet_Tree_odd.SCINet_Tree_odd.workingblock.interact.level.psi.4.weight f8 [1, 1, 3]
000000 19 fc 1b b1 ea ec c5 bf e9 42 e8 e9 43 3b c8 bf
       -0.1712926258842067 -0.1893086330533358
000010 cf a5 96 55 d6 e4 c8 bf
       -0.19448355845569984

blocks1.SCINet_Tree.SCINet_Tree_odd.SCINet_Tree_odd.workingblock.interact.level.psi.4.bias f8 [1]
000000 5d ae 04 4a 59 d8 f0 bf
       -1.0528195277537613

blocks1.SCINet_Tree.SCINet_Tree_odd.SCINet_Tree_odd.workingblock.interact.level.P.1.weight f8 [1, 1, 7]
000000 83 3a 7d 63 b0 60 e1 bf f7 1d c7 e3 ba 3b e1 bf
       -0.5430528586528712 -0.5385412644181419
000010 56 3a 9a 1c 98 74 d6 bf 56 06 24 10 7b 92 d9 bf
       -0.35086634438713327 -0.39956547332994796
000020 71 cc e5 38 b2 36 e2 bf 00 3e a2 c7 14 38 c7 3f
       -0.5691767798692934 0.181398961522504
000030 7d 26 c5 8c d2 57 e1 3f
       0.5419705151955011

blocks1.SCINet_Tree.SCINet_Tree_odd.SCINet_Tree_odd.workingblock.interact.level.P.1.bias f8 [1]
000000 c2 e3 5c ac 81 f1 b3 3f
       0.0779038472945919

blocks1.SCINet_Tree.SCINet_Tree_odd.SCINet_Tree_odd.workingblock.interact.level.P.4.weight f8 [1, 1, 3]
000000 2d 02 fb 57 99 13 e4 bf 7d a1 c1 0c a4 2a e8 bf
       -0.6273924558991603 -0.7552051781795367
000010 98 5a 8f a1 60 75 e8 bf
       -0.7643283038585933

blocks1.SCINet_Tree.SCINet_Tree_odd.SCINet_Tree_odd.workingblock.interact.level.P.4.bias f8 [1]
000000 78 49 24 85 98 e6 d2 bf
       -0.29532444955943715

blocks1.SCINet_Tree.SCINet_Tree_odd.SCINet_Tree_odd.workingblock.interact.level.U.1.weight f8 [1, 1, 7]
000000 3f 47 33 30 dc 57 79 3f de 49 29 ee 3a 61 dd bf
       0.0061873055557997705 -0.4590594602388175
000010 66 0f 0f 97 06 a7 c0 3f 34 a3 60 90 2a b1 c5 3f
       0.13009722114486094 0.16946918534929412
000020 a6 00 1f bd 9f 81 da 3f cf ec 37 db 23 de da bf
       0.4141616198430803 -0.4198083535008665
000030 97 4a 24 df ba b2 cd 3f
       0.23201690574258713

blocks1.SCINet_Tree.SCINet_Tree_odd.SCINet_Tree_odd.workingblock.interact.level.U.1.bias f8 [1]
000000 bb 8f 3c a4 72 a2 be bf
       -0.11966625699693527

blocks1.SCINet_Tree.SCINet_Tree_odd.SCINet_Tree_odd.workingblock.interact.level.U.4.weight f8 [1, 1, 3]
000000 9c 19 8a 02 99 07 d2 3f e0 ca 9c c2 86 bf e0 3f
       0.2817137265014027 0.5233796883606736
000010 9b f7 2a 89 b1 9d ec 3f
       0.894249694734515

blocks1.SCINet_Tree.SCINet_Tree_odd.SCINet_Tree_odd.workingblock.interact.level.U.4.bias f8 [1]
000000 a1 30 53 85 af 9c 9c 3f
       0.02794145823718053

blocks1.SCINet_Tree.SCINet_Tree_odd.SCINet_Tree_even.workingblock.interact.level.phi.1.weight f8 [1, 1, 7]
000000 10 f6 11 6d 1e 2b a9 bf bb f8 50 4d bf ed b3 bf
       -0.04915709573195326 -0.0778464854965674
000010 d1 59 ed e7 c9 fd 82 3f e2 ee bd f4 f2 1e d0 bf
       0.009273126020770047 -0.2518889799173235
000020 56 64 32 16 fb 00 c2 3f 9f c7 62 8b b5 42 b2 bf
       0.14065493186788797 -0.07133040097212849
000030 27 77 81 d1 3d c8 ca bf
       -0.2092358849503679

blocks1.SCINet_Tree.SCINet_Tree_odd.SCINet_Tree_even.workingblock.interact.level.phi.1.bias f8 [1]
000000 66 70 c1 1c 83 8c cd bf
       -0.2308505907448108

blocks1.SCINet_Tree.SCINet_Tree_odd.SCINet_Tree_even.workingblock.interact.level.phi.4.weight f8 [1, 1, 3]
000000 e2 1e f7 2b a1 45 d5 bf e9 9e 1d bf dc d7 a7 3f
       -0.3323748521183757 0.046568773583940466
000010 8d 95 d7 22 5a 38 ae 3f
       0.05902368235892217

blocks1.SCINet_Tree.SCINet_Tree_odd.SCINet_Tree_even.workingblock.interact.level.phi.4.bias f8 [1]
000000 cd 94 55 26 b1 19 e8 bf
       -0.7531362293927032

blocks1.SCINet_Tree.SCINet_Tree_odd.SCINet_Tree_even.workingblock.interact.level.psi.1.weight f8 [1, 1, 7]
000000 48 a2 41 22 84 44 bc 3f 5f 98 a7 75 fe 1d d1 bf
       0.11042047344529593 -0.2674556874247908
000010 24 bc 6e ff 8e 33 bd bf a3 cd d3 7b dc e9 c8 bf
       -0.11406797157427256 -0.1946368794084324
000020 2e 16 df ad ba 96 c5 bf dd bd 30 ad b2 47 cf 3f
       -0.16866239061180138 0.2443755479484783
000030 3e 6e a4 52 a8 b8 97 3f
       0.02316535000237096

blocks1.SCINet_Tree.SCINet_Tree_odd.SCINet_Tree_even.workingblock.interact.level.psi.1.bias f8 [1]
000000 fc ef d9 03 ad 53 bf bf
       -0.12237054199243852

blocks1.SCINet_Tree.SCINet_Tree_odd.SCINet_Tree_even.workingblock.interact.level.psi.4.weight f8 [1, 1, 3]
000000 27 8a 5c f4 11 2c d0 bf 3f 29 3a e6 4e 13 e0 3f
       -0.25268982757021025 0.502356958067402
000010 49 b3 3c ee fd 6d d8 3f
       0.381713373807362

blocks1.SCINet_Tree.SCINet_Tree_odd.SCINet_Tree_even.workingblock.interact.level.psi.4.bias f8 [1]
000000 d5 24 be ef 09 dc c2 bf
       -0.14734005171002332

blocks1.SCINet_Tree.SCINet_Tree_odd.SCINet_Tree_even.workingblock.interact.level.P.1.weight f8 [1, 1, 7]
000000 4e eb ea 74 f9 98 da bf 74 be 48 4b 99 45 d2 bf
       -0.41558681886424587 -0.2854979739376866
000010 6f 43 21 40 6b f5 c3 bf 84 cc 0a cf 47 6a bd bf
       -0.15592709189743512 -0.11490296177616882
000020 82 f1 27 13 9d 5a b9 3f 02 b8 f4 35 aa 9e d7 3f
       0.09903890340496527 0.36905913609632546
000030 77 c6 a2 8b ac af e2 3f
       0.5839445807707325

blocks1.SCINet_Tree.SCINet_Tree_odd.SCINet_Tree_even.workingblock.interact.level.P.1.bias f8 [1]
000000 35 26 09 82 9b 4a a4 bf
       -0.039631709693435026

blocks1.SCINet_Tree.SCINet_Tree_odd.SCINet_Tree_even.workingblock.interact.level.P.4.weight f8 [1, 1, 3]
000000 2f 5b a8 8d 41 e0 e7 bf e7 bc d4 70 91 1b d4 bf
       -0.7461250082732017 -0.31418262499478405
000010 4d 7a c5 2d 26 00 da bf
       -0.40625910253394154

blocks1.SCINet_Tree.SCINet_Tree_odd.SCINet_Tree_even.workingblock.interact.level.P.4.bias f8 [1]
000000 b7 ab c9 6d 8b 55 c8 3f
       0.19011061535578985

blocks1.SCINet_Tree.SCINet_Tree_odd.SCINet_Tree_even.workingblock.interact.level.U.1.weight f8 [1, 1, 7]
000000 ac 24 58 1c b7 cd df bf 83 ba 77 14 f3 c2 d7 bf
       -0.49693086402892095 -0.37127377508924314
000010 3b dd 9d 87 51 db ca 3f 79 b8 13 53 b8 46 e9 3f
       0.20981806871325567 0.789882814655143
000020 bb c7 7e d7 ef cc e1 3f a6 f7 9a 96 56 26 e2 3f
       0.556266709221965 0.5671799603949139
000030 86 bd 21 b9 ab 55 e3 3f
       0.6042078605513985

blocks1.SCINet_Tree.SCINet_Tree_odd.SCINet_Tree_even.workingblock.interact.level.U.1.bias f8 [1]
000000 96 84 ba 01 de 98 aa bf
       -0.05194753428555392

blocks1.SCINet_Tree.SCINet_Tree_odd.SCINet_Tree_even.workingblock.interact.level.U.4.weight f8 [1, 1, 3]
000000 5e 18 4e d5 b1 05 d4 bf 42 99 f9 c7 f5 42 de bf
       -0.312847574525568 -0.4728369191056069
000010 9e 64 65 9a 43 5f de bf
       -0.474564457681092

blocks1.SCINet_Tree.SCINet_Tree_odd.SCINet_Tree_even.workingblock.interact.level.U.4.bias f8 [1]
000000 57 7c 36 71 21 17 a9 3f
       0.04900459773056614

blocks1.SCINet_Tree.SCINet_Tree_even.workingblock.interact.level.phi.1.weight f8 [1, 1, 7]
000000 1b 92 74 1b 86 61 cb bf 2f dd 4d 65 cc 7d c7 3f
       -0.21391369190782047 0.18352656313411717
000010 d1 7b 72 56 32 4e a8 3f 96 89 ea d5 dd 23 df bf
       0.0474715929533357 -0.4865641201996821
000020 51 95 fb 15 4e c0 e0 bf 43 1c 24 de 2f 92 e7 bf
       -0.5234747342443972 -0.7365950907413964
000030 fe 42 b4 c4 58 aa e9 bf
       -0.8020442811849475

blocks1.SCINet_Tree.SCINet_Tree_even.workingblock.interact.level.phi.1.bias f8 [1]
000000 71 48 33 fc 51 af d4 bf
       -0.3232006991285124

blocks1.SCINet_Tree.SCINet_Tree_even.workingblock.interact.level.phi.4.weight f8 [1, 1, 3]
000000 68 8a 6a 14 a3 79 f2 3f d2 b9 9f 42 be 24 da 3f
       1.1546965405947507 0.4084926272033985
000010 c4 0e e8 f9 8b fe a7 3f
       0.04686391282669214

blocks1.SCINet_Tree.SCINet_Tree_even.workingblock.interact.level.phi.4.bias f8 [1]
000000 c7 a2 3c 33 c1 30 e2 bf
       -0.5684515000076197

blocks1.SCINet_Tree.SCINet_Tree_even.workingblock.interact.level.psi.1.weight f8 [1, 1, 7]
000000 3a d3 20 1b 84 64 c5 bf 90 d8 2a 97 44 a3 ed bf
       -0.16713000607128398 -0.9261801674354206
000010 0f be 60 70 35 73 f3 bf 58 fe 9c 98 2c 1b f5 bf
       -1.2156271352540704 -1.3191343270736038
000020 b3 f4 a4 d9 a3 37 d1 bf b4 71 d3 4f 9a 9e a5 3f
       -0.26902099851924816 0.0422256681865493
000030 4c 16 9e d2 43 ef ab bf
       -0.054559821567676

blocks1.SCINet_Tree.SCINet_Tree_even.workingblock.interact.level.psi.1.bias f8 [1]
000000 bb 9c 30 08 e7 d4 af 3f
       0.062171191930525414

blocks1.SCINet_Tree.SCINet_Tree_even.workingblock.interact.level.psi.4.weight f8 [1, 1, 3]
000000 31 c3 44 df 1b f4 e0 3f 82 d9 6b 56 a2 1f e1 3f
       0.5297984467234526 0.5351115882793211
000010 d0 7f da fc 4a 15 ea 3f
       0.815099233488576

blocks1.SCINet_Tree.SCINet_Tree_even.workingblock.interact.level.psi.4.bias f8 [1]
000000 31 ff cd 10 e0 3c cd bf
       -0.22842026539364604

blocks1.SCINet_Tree.SCINet_Tree_even.workingblock.interact.level.P.1.weight f8 [1, 1, 7]
000000 2d 0b 87 27 9b 5e d6 3f e2 52 35 e2 7e 82 d2 bf
       0.3495242963801271 -0.2892148217263594
000010 1d 50 6e 1f 61 6a bf 3f bb cb 23 bd fd 2e c5 bf
       0.1227169706092472 -0.16549655661910187
000020 2f 04 b1 58 e4 02 d2 3f d8 e6 ac f4 28 92 cd bf
       0.2814265123489034 -0.23102294871369256
000030 31 32 12 6f d2 28 c2 bf
       -0.141870788797307

blocks1.SCINet_Tree.SCINet_Tree_even.workingblock.interact.level.P.1.bias f8 [1]
000000 a1 64 a5 fc f3 57 ac 3f
       0.055358528700432126

blocks1.SCINet_Tree.SCINet_Tree_even.workingblock.interact.level.P.4.weight f8 [1, 1, 3]
000000 a7 22 c6 cd 4b 80 d0 3f a6 3a c4 3e 8f 76 b4 3f
       0.25783057303537266 0.07993407518754711
000010 c8 db e9 ec 6d 78 ca 3f
       0.206800213509011

blocks1.SCINet_Tree.SCINet_Tree_even.workingblock.interact.level.P.4.bias f8 [1]
000000 eb c5 0c 55 10 d2 db 3f
       0.4346962767186528

blocks1.SCINet_Tree.SCINet_Tree_even.workingblock.interact.level.U.1.weight f8 [1, 1, 7]
000000 82 d9 6a 09 b6 a7 a6 bf e1 35 df a1 32 7f b4 3f
       -0.0442482840057208 0.08006588413191863
000010 2d 11 3d 42 ab bb da 3f d7 65 ff be 74 d6 d0 bf
       0.4177044054852271 -0.2630893578730968
000020 d6 ac 31 54 2d 69 8c bf 50 3e a6 cf 39 a3 d7 3f
       -0.013872484332941342 0.36933751371632173
000030 fb d0 66 17 1c 3e a5 bf
       -0.04148948465027221

blocks1.SCINet_Tree.SCINet_Tree_even.workingblock.interact.level.U.1.bias f8 [1]
000000 79 72 98 87 22 70 dc bf
       -0.44434417001483656

blocks1.SCINet_Tree.SCINet_Tree_even.workingblock.interact.level.U.4.weight f8 [1, 1, 3]
000000 82 97 f3 26 57 a2 e3 bf 97 0c f9 b0 c6 68 e5 bf
       -0.6135669480106432 -0.6690400558949418
000010 70 d2 55 f9 cb ee e2 bf
       -0.5916499967411948

blocks1.SCINet_Tree.SCINet_Tree_even.workingblock.interact.level.U.4.bias f8 [1]
000000 75 ac 77 41 10 10 d6 3f
       0.3447304381686032

blocks1.SCINet_Tree.SCINet_Tree_even.SCINet_Tree_odd.workingblock.interact.level.phi.1.weight f8 [1, 1, 7]
000000 01 6a 51 54 c8 2d a9 bf 00 b1 f4 ff 2d 33 c7 3f
       -0.04917741803429366 0.18124938009112412
000010 48 a3 d2 6d 3e 70 c9 3f 81 7c 1a ba 83 78 de 3f
       0.19873791086618042 0.47610562490621794
000020 b6 9a 07 a9 a7 ef dd 3f 8f 93 c7 22 1e b3 db 3f
       0.4677523756676395 0.4328074779171453
000030 45 bb 9c 8c ec c3 a9 bf
       -0.050322906651095546

blocks1.SCINet_Tree.SCINet_Tree_even.SCINet_Tree_odd.workingblock.interact.level.phi.1.bias f8 [1]
000000 99 d3 79 6f 3c 88 b8 bf
       -0.09582879754618857

blocks1.SCINet_Tree.SCINet_Tree_even.SCINet_Tree_odd.workingblock.interact.level.phi.4.weight f8 [1, 1, 3]
000000 cf 7e 8a 98 c5 a6 d9 bf 19 aa 8b fc ef 2f d2 bf
       -0.4008039464624575 -0.28417586958554036
000010 16 fd 75 5c c5 cb da bf
       -0.41868719128974996

blocks1.SCINet_Tree.SCINet_Tree_even.SCINet_Tree_odd.workingblock.interact.level.phi.4.bias f8 [1]
000000 16 87 d5 25 f6 93 73 3f
       0.004779778971483647

blocks1.SCINet_Tree.SCINet_Tree_even.SCINet_Tree_odd.workingblock.interact.level.psi.1.weight f8 [1, 1, 7]
000000 86 8d c2 36 58 2a d8 3f e3 b2 8d 81 7e 33 b6 3f
       0.377584508396659 0.08672323859145652
000010 90 a7 56 9b 1d e2 e0 3f 1f 86 ee 78 78 4c c6 bf
       0.5276020082430808 -0.17420869736547304
000020 83 9e 86 6d 89 c1 d6 bf d4 74 a0 db 15 c9 cc bf
       -0.3555625505054893 -0.2248866388698959
000030 d3 5e 0c 11 c1 e1 e2 3f
       0.5900578816390073

blocks1.SCINet_Tree.SCINet_Tree_even.SCINet_Tree_odd.workingblock.interact.level.psi.1.bias f8 [1]
000000 9b 1f 06 60 4e ab b4 3f
       0.08073892444929102

blocks1.SCINet_Tree.SCINet_Tree_even.SCINet_Tree_odd.workingblock.interact.level.psi.4.weight f8 [1, 1, 3]
000000 2e 8b ed e7 8d 04 97 3f 15 e3 95 07 80 bd d0 bf
       0.02247831085277168 -0.2615661691739189
000010 8c 95 b1 1c b7 c8 e0 bf
       -0.5245013771461102

blocks1.SCINet_Tree.SCINet_Tree_even.SCINet_Tree_odd.workingblock.interact.level.psi.4.bias f8 [1]
000000 96 d5 50 a4 da 99 c2 3f
       0.14532025359373496

blocks1.SCINet_Tree.SCINet_Tree_even.SCINet_Tree_odd.workingblock.interact.level.P.1.weight f8 [1, 1, 7]
000000 9a 92 0c 58 67 3d d0 3f 11 ef e1 9e 06 ae da 3f
       0.2537477836470231 0.41687169566988397
000010 a0 bb e6 89 ca 5c b5 3f 01 d7 7b ea aa 26 d0 3f
       0.08344713083964317 0.2523600854759565
000020 95 dc 53 36 ed 82 c8 3f 61 33 b4 6d bf e3 df 3f
       0.1914955630561265 0.49827562058708535
000030 3f f2 f9 87 f9 e3 b7 bf
       -0.09332236833319828

blocks1.SCINet_Tree.SCINet_Tree_even.SCINet_Tree_odd.workingblock.interact.level.P.1.bias f8 [1]
000000 ef ad f8 45 5a 3e d4 bf
       -0.3163057025255673

blocks1.SCINet_Tree.SCINet_Tree_even.SCINet_Tree_odd.workingblock.interact.level.P.4.weight f8 [1, 1, 3]
000000 44 52 00 db ed e5 d7 3f 57 16 10 10 e1 82 db 3f
       0.37340875994531 0.4298632294524842
000010 80 19 8d 89 dd 39 d5 3f
       0.33165682251674156

blocks1.SCINet_Tree.SCINet_Tree_even.SCINet_Tree_odd.workingblock.interact.level.P.4.bias f8 [1]
000000 ef 03 ad 16 a6 4b bc bf
       -0.11052930883035093

blocks1.SCINet_Tree.SCINet_Tree_even.SCINet_Tree_odd.workingblock.interact.level.U.1.weight f8 [1, 1, 7]
000000 51 d8 24 1c 64 20 d7 bf b0 e1 34 66 ba 03 c5 bf
       -0.3613519930689835 -0.1641762732558738
000010 36 88 1f 4c b0 5a cb bf 12 f4 80 cd 61 59 d4 3f
       -0.21370509831382528 0.3179554468986804
000020 ac 22 2e 6c 61 7a cd 3f 98 f1 24 05 96 dc e0 3f
       0.23029725820767533 0.5269270039057572
000030 76 07 30 3f e2 dd de 3f
       0.48229271097817816

blocks1.SCINet_Tree.SCINet_Tree_even.SCINet_Tree_odd.workingblock.interact.level.U.1.bias f8 [1]
000000 15 eb 10 93 2b f7 c2 bf
       -0.1481680362793091

blocks1.SCINet_Tree.SCINet_Tree_even.SCINet_Tree_odd.workingblock.interact.level.U.4.weight f8 [1, 1, 3]
000000 1b a1 c0 e1 37 96 e1 bf 4e bb dd 3a bc e3 d5 bf
       -0.5495871934154225 -0.3420248579849855
000010 b4 3a d9 0c ea 22 cc bf
       -0.21981549861307814

blocks1.SCINet_Tree.SCINet_Tree_even.SCINet_Tree_odd.workingblock.interact.level.U.4.bias f8 [1]
000000 f8 88 a3 bd 20 5f c9 3f
       0.19821557292659242

blocks1.SCINet_Tree.SCINet_Tree_even.SCINet_Tree_even.workingblock.interact.level.phi.1.weight f8 [1, 1, 7]
000000 85 69 d1 a1 af ff b3 3f a6 ae 5f 14 97 04 b6 bf
       0.0781202096999661 -0.08600754020124643
000010 63 b2 55 c9 e0 b0 48 bf b3 05 3e 51 a7 fc d5 3f
       -0.0007535073843150771 0.3435457509404742
000020 66 cd 5b e6 72 7b c0 bf be 14 bb 2e a0 d2 c7 bf
       -0.12876735923746735 -0.18611528665329574
000030 a5 aa 56 b6 73 a0 cf 3f
       0.24708410647629822

blocks1.SCINet_Tree.SCINet_Tree_even.SCINet_Tree_even.workingblock.interact.level.phi.1.bias f8 [1]
000000 fe d2 35 84 4b e0 dd bf
       -0.4668148795238237

blocks1.SCINet_Tree.SCINet_Tree_even.SCINet_Tree_even.workingblock.interact.level.phi.4.weight f8 [1, 1, 3]
000000 84 a4 b1 61 20 d5 e4 bf 0f 8a bb d8 23 9a f0 bf
       -0.6510164173206623 -1.0376318422428346
000010 e6 9d 68 1e 25 7f f1 bf
       -1.0935412586057907

blocks1.SCINet_Tree.SCINet_Tree_even.SCINet_Tree_even.workingblock.interact.level.phi.4.bias f8 [1]
000000 de e1 3d a5 de 73 bb 3f
       0.10723678144666546

blocks1.SCINet_Tree.SCINet_Tree_even.SCINet_Tree_even.workingblock.interact.level.psi.1.weight f8 [1, 1, 7]
000000 9f ad 2a 3e 60 76 9f bf b7 ca 4b c0 ba 12 ce bf
       -0.030725005907397237 -0.2349465788789382
000010 07 06 a3 f1 c5 b5 d1 bf 82 d1 bc 20 e4 4f ba bf
       -0.2767195567831497 -0.10278154181725621
000020 e4 00 a6 f9 a3 c2 d4 3f 2f 87 09 2f f6 cb b0 3f
       0.3243799150441318 0.06561220787400822
000030 d5 b8 b8 f5 f1 c1 a0 bf
       -0.03272968410998237

blocks1.SCINet_Tree.SCINet_Tree_even.SCINet_Tree_even.workingblock.interact.level.psi.1.bias f8 [1]
000000 d6 7c 96 d4 bd 8a c3 bf
       -0.15267155533090343

blocks1.SCINet_Tree.SCINet_Tree_even.SCINet_Tree_even.workingblock.interact.level.psi.4.weight f8 [1, 1, 3]
000000 a4 2c 0d 58 67 c6 e4 bf 2a eb f7 18 d2 da d5 3f
       -0.6492192001109243 0.34148075521777577
000010 37 b7 be d2 a4 2c c6 3f
       0.17323742189676647

blocks1.SCINet_Tree.SCINet_Tree_even.SCINet_Tree_even.workingblock.interact.level.psi.4.bias f8 [1]
000000 68 43 6f f3 f9 20 e1 bf
       -0.5352754358847109

blocks1.SCINet_Tree.SCINet_Tree_even.SCINet_Tree_even.workingblock.interact.level.P.1.weight f8 [1, 1, 7]
000000 9f 6f 92 b7 c5 c0 d3 3f 81 23 ba ca 84 3f d5 3f
       0.3086408894248453 0.3320018749005201
000010 6c b8 1b bd fb 7f b3 3f d8 fe 89 c7 a2 fd ce bf
       0.07617162100697933 -0.24211535208814072
000020 76 d6 64 67 54 e3 c8 bf dd e7 73 c9 c4 90 d2 bf
       -0.19443755196123264 -0.29008598015900394
000030 65 bf 68 72 fa 73 b3 bf
       -0.07598843854134214

blocks1.SCINet_Tree.SCINet_Tree_even.SCINet_Tree_even.workingblock.interact.level.P.1.bias f8 [1]
000000 f6 44 f7 54 66 84 a8 3f
       0.04788512980634067

blocks1.SCINet_Tree.SCINet_Tree_even.SCINet_Tree_even.workingblock.interact.level.P.4.weight f8 [1, 1, 3]
000000 51 25 e9 79 64 3d da 3f 96 ef 6b 6c 8d 04 eb 3f
       0.40999709992737104 0.8443057172403197
000010 e9 ef f2 43 4f 34 eb 3f
       0.8501354529503234

blocks1.SCINet_Tree.SCINet_Tree_even.SCINet_Tree_even.workingblock.interact.level.P.4.bias f8 [1]
000000 bf 29 2a dc 67 d2 e0 3f
       0.5256842899410045

blocks1.SCINet_Tree.SCINet_Tree_even.SCINet_Tree_even.workingblock.interact.level.U.1.weight f8 [1, 1, 7]
000000 91 98 6e 39 58 0e dc 3f b6 a3 d7 83 5e 54 97 bf
       0.43837552651019346 -0.022782780453699046
000010 98 bd b2 25 ae 27 d9 bf 3a d6 15 23 f3 d5 cf 3f
       -0.39304689103570345 0.24871672833585184
000020 a5 a4 ee 97 70 74 c7 3f ca 24 31 be 33 07 c7 bf
       0.18324096125187342 -0.17990729128567856
000030 dc fc 02 10 97 2e d5 bf
       -0.33096863330497484

blocks1.SCINet_Tree.SCINet_Tree_even.SCINet_Tree_even.workingblock.interact.level.U.1.bias f8 [1]
000000 0f 8c 28 ec ab 1f ad bf
       -0.056882259920051685

blocks1.SCINet_Tree.SCINet_Tree_even.SCINet_Tree_even.workingblock.interact.level.U.4.weight f8 [1, 1, 3]
000000 b3 47 05 83 fa 94 da bf 0e 40 f6 b8 75 6d e5 bf
       -0.41534292979224147 -0.6696117985284233
000010 b2 e6 e5 52 1a 7a e6 bf
       -0.7024051303007666

blocks1.SCINet_Tree.SCINet_Tree_even.SCINet_Tree_even.workingblock.interact.level.U.4.bias f8 [1]
000000 d2 47 eb 6e c1 52 d1 bf
       -0.27067600089969546

projection1.weight f8 [48, 96, 1]
000000 c1 bf 0d d5 b2 7d 79 bf 61 e1 d7 2b 5b 57 64 3f
       -0.0062233911165633935 0.002483060902474119
000010 a2 e2 79 06 4e 68 7f 3f 1f 42 43 5e 8c b7 84 3f
       0.007667832170789398 0.010115715624494702
000020 64 1b 4b 1a 5e d4 83 bf ad 90 bc 1b 61 5e 8a 3f
       -0.00968240277997063 0.012875326785043073
000030 17 ec 5c 07 b0 b3 75 3f 48 0d 65 32 5c a0 9e bf
       0.005298316585874672 -0.029908600402689417
000040 c2 76 4b 69 81 bd 86 3f 15 51 5a d5 4b 69 5b bf
       0.011103640580980016 -0.001673053794921724
000050 2d 9f 7c 00 f8 c9 83 3f 90 d4 3b f6 7c 12 80 bf
       0.009662568583351206 -0.007847763313728856
000060 59 f8 a0 b6 c4 38 7e bf ff a1 fd 91 3f 63 84 3f
       -0.007378357326215911 0.00995492615011617
000070 2b 9e 59 c9 ac e6 8b 3f 1c 71 2c 87 33 37 76 bf
       0.013623571295467837 -0.005423737794242347
000080 90 73 ec 47 f0 bd 01 3f bc 7b b2 cf e5 05 6c 3f
       3.384007958671172e-05 0.003420780992726217
000090 15 52 f7 51 26 e0 69 3f 31 ee 99 63 61 2e 86 3f
       0.0031586407128350127 0.010830651142206356
0000a0 bd d6 7b cb 60 9c 89 bf ba 43 2e 06 e7 f4 87 3f
       -0.012505298814612481 0.011697583080406793
0000b0 e1 13 c7 6f 5b 34 95 3f 5f cf 9a 6d f2 96 99 bf
       0.02070753926979652 -0.02498987955068743
0000c0 49 2a f6 11 20 77 6d bf 06 f8 c8 2f 72 e3 7c 3f
       -0.003596842419658662 0.007052846948282015
0000d0 a2 bd 54 c3 4b 90 69 bf 30 fb d0 02 19 4d 70 3f
       -0.003120563482887654 0.003979776095603779
0000e0 f6 44 52 96 23 e8 6e bf 78 ab 6e fe 5e 42 83 3f
       -0.0037728018820152266 0.009403936519296371
0000f0 bc 12 bd 7a a6 68 78 3f d2 8c 72 eb 3e de 8f bf
       0.005959177313177019 -0.015560618934904378
000100 46 17 14 5f e4 e7 5e 3f 62 6d 84 61 1e df 60 bf
       0.001886342066712969 -0.002059516275165472
000110 cc ae c0 8e a4 34 69 3f 38 53 b5 46 cc 58 68 bf
       0.003076859857193392 -0.0029720296640029197
000120 92 b7 c9 26 48 4a 61 3f 3f 6f 9a 67 85 91 88 3f
       0.002110615654877309 0.011996309494228917
000130 f0 66 89 64 de d7 a2 3f 8c bf ce 3e 1d 67 ac bf
       0.03680319764380424 -0.055474199215836156
000140 6b 28 a9 9f a1 06 97 3f 51 44 c6 b0 d6 e4 71 3f
       0.022486234064026094 0.004368628153671742
000150 e9 34 f5 41 77 5e 85 3f a0 85 03 f4 dc 65 8d 3f
       0.01043408556020116 0.014354444691380419
000160 3d cf 32 69 ae 9f 92 bf ad e8 1d eb 50 5b 90 3f
       -0.01818726079063925 0.01597334322966819
000170 04 04 21 cb 26 a2 7a bf 28 83 25 86 26 33 88 bf
       -0.00650229600620467 -0.01181631180651406
000180 5d 78 95 05 31 c3 77 3f 52 b2 30 25 d3 59 71 3f
       0.005801383487179815 0.004236054216602074
000190 33 00 dd 86 6d 5c 7c 3f 12 89 c1 4e e2 10 4e bf
       0.006924083556270988 -0.0009175400750900695
0001a0 94 98 f0 26 87 24 31 3f cc c0 f7 49 d9 53 5b 3f
       0.00026157664882687473 0.0016679403269073577
0001b0 f2 b1 84 43 67 3f 8c 3f 88 8a 78 8f e9 ec 96 bf
       0.013792807338710997 -0.02238812387634906
0001c0 c8 2f 65 0e 9a f4 70 bf c7 ff 8b a9 1b 5d 81 3f
       -0.004139520437387696 0.008478370772991085
0001d0 2d 64 18 43 92 0e 84 3f c4 a4 72 63 30 c5 8f bf
       0.009793417618356138 -0.0155128269528454
0001e0 99 65 1d 55 6d cb 81 3f d0 dc 50 06 50 19 84 3f
       0.008688787612913628 0.009813904946084057
0001f0 a4 db 58 c3 24 69 41 3f d8 49 6d 2d 97 7e 97 bf
       0.0005313329226684827 -0.02294384207500308
000200 cb 40 01 9e c3 2c 87 3f 51 cb b8 cb e6 a6 3c bf
       0.011315849551607823 -0.0004371942011147006
000210 92 d9 a7 11 0e 14 56 bf 46 1f 2a 6e 8d 53 89 3f
       -0.001347554911829006 0.01236639492459769
000220 f8 f9 26 0f e9 cf 6e bf 1b 49 2a 90 99 07 93 3f
       -0.003761248773314959 0.01858367865003983
000230 5f 4c 1a 78 3a 45 7f bf d7 ca 20 e0 28 ef 93 bf
       -0.007634380717394056 -0.01946700923890429
000240 5b 9e 20 2c 8c 4a 77 bf 46 b6 d6 6b 71 52 71 bf
       -0.005686328457194269 -0.004229014446008933
000250 5c 6b fd e1 5d 6a 40 3f 6a bf 11 90 7d 07 91 3f
       0.0005009611522653712 0.01663013641194714
000260 c4 b1 51 34 f7 2b 94 bf 3d e6 8d 64 93 23 9e 3f
       -0.019698965614610278 0.029432585728022643
000270 cd e8 56 42 0f be 7d 3f d5 fb fc 96 22 29 a3 bf
       0.007261333089838296 -0.03742321103208438
000280 42 69 93 75 67 9b 77 bf a0 6d 77 17 c3 9a 8b 3f
       -0.0057634393098971465 0.013478778985635043
000290 32 71 8e fa f1 2e 8d bf 4b cb 8c 64 9d 49 97 3f
       -0.014249697169184648 0.022741755735477025
0002a0 b5 03 b8 51 17 7d 8d bf 04 f8 d1 03 36 15 96 3f
       -0.014398748570785583 0.021565288527646956
0002b0 96 58 04 98 46 22 8b 3f 02 24 b5 e7 1e c1 a9 bf
       0.013248969568433727 -0.050301519188515456
0002c0 93 5e d7 d3 9a 4c 50 bf 2c 33 f2 ed 28 f7 5e bf
       -0.0009948265063623215 -0.0018899821950839153
0002d0 75 11 6f 65 fc 85 9e bf 22 3d 94 1f 33 c6 aa 3f
       -0.02980799073317671 0.05229339371191545
0002e0 23 ad 13 7a 2b 26 a9 3f f6 58 df 5f 1f 03 be 3f
       0.049119337703667186 0.11723514643322006
0002f0 72 a5 81 d3 ee d1 cb 3f 54 ba d0 40 8c 07 d9 3f
       0.2173441441293949 0.39108568505881647
000300 50 e3 2f b5 ff 11 7b 3f 5b 21 d2 0b 19 9b 5b 3f
       0.006608961924023785 0.0016849274245790055
000310 4e 25 94 9d ac 5e 7f 3f b5 0f b6 fe dd d3 62 3f
       0.007658647803745323 0.0022982917632265684
000320 d4 54 89 f7 d3 96 7d bf d3 9e 78 45 26 5b 80 3f
       -0.007223918910843358 0.007986353869525875
000330 e4 47 14 94 67 29 81 3f 86 7c 8c a2 ee 02 98 bf
       0.008379754263419366 -0.023448685332479367
000340 4c 89 a0 62 4b 1b 66 3f 08 1a 33 8b 93 a3 70 bf
       0.0026985618942642394 -0.004062248556869104
000350 46 5b 1e b8 51 8d 84 3f 8a cb 6a a6 8b d8 88 bf
       0.010035170012810856 -0.012131777778767523
000360 53 07 29 19 0e f6 7b bf 54 15 2b 06 5a da 87 3f
       -0.006826453277030203 0.011646941483727836
000370 58 37 45 fa cd 46 5b bf 25 98 b3 59 50 8c 78 bf
       -0.0016648303508932285 -0.005993188732849962
000380 ed 03 e8 2a ad 31 7d bf d1 c3 ed 3d 86 b6 6f 3f
       -0.007127453266094525 0.0038712140953340653
000390 19 a7 32 fa fa f5 85 3f 55 c1 65 16 4c 55 8a bf
       0.010723076591904456 -0.012858004029766926
0003a0 b6 dd d4 cc 27 9c 7a 3f cf ec 12 f5 d8 30 71 3f
       0.006496577710371756 0.004196975221186962
0003b0 4f 97 c9 09 2e c1 79 3f 63 34 86 2c 5c 7d 87 bf
       0.006287746273846497 -0.01146957407834232
0003c0 8c da 02 e2 c3 21 79 3f ef 7b 7e 21 0f 0f 67 bf
       0.006135716597944662 -0.0028147979282517814
0003d0 e5 d3 67 f8 d8 88 7d 3f 64 0c d3 c3 a0 fa 61 3f
       0.007210586109512617 0.0021947040500847493
0003e0 4f 8e 1d 10 35 74 8e bf a8 90 63 25 98 ce 53 3f
       -0.01487008529119929 0.001208923893096384
0003f0 aa 93 95 7b 01 ce 84 3f 58 07 73 43 cf 8b 9b bf
       0.010158549865716033 -0.026900518886356778
000400 5e 37 11 9c e5 a7 74 3f b6 47 40 36 e7 9d 7d bf
       0.005042931473395599 -0.00723066632419205
000410 b8 19 db 4a e1 56 92 3f 64 34 34 28 73 c4 71 bf
       0.01790954608329695 -0.004337739784444048
000420 c1 2a 96 81 db 17 82 bf 86 00 42 69 0f 50 82 3f
       -0.008834566967171555 0.008941765212739716
000430 ca b7 e5 56 12 a8 64 bf 51 34 c1 30 49 a2 8a bf
       -0.002521549052452142 -0.013004848289847855
000440 8f d3 b0 cb ff 80 81 3f 36 7b a1 fb 41 83 69 3f
       0.008546827701232633 0.003114346383014245
000450 05 10 6b 5a ba 5b 86 bf e1 f8 86 fe 9f 81 87 3f
       -0.010917144665093312 0.01147770877366522
000460 c3 9f 9e af dc 87 81 bf 90 54 3d 3e 50 12 3a 3f
       -0.00855991755436481 0.0003978200822890099
000470 03 fb ba 4f bc 1f 6b bf e8 d5 4a d3 6c 3a 9f bf
       -0.0033110311468073097 -0.030496311565647277
000480 82 e8 45 65 e7 35 83 3f 75 bd 04 d4 89 9e 79 bf
       0.009380157259091474 -0.006254709617038547
000490 00 b6 4c 97 ef 4c 77 bf 2c 43 2c 8a f0 ea 6c bf
       -0.005688606169127919 -0.0035299966851955102
0004a0 20 79 d6 ab a9 11 75 bf 3f f4 19 0f ef 5a 81 3f
       -0.005143797663008237 0.008474223755223885
0004b0 4a a3 5f b6 cc 86 96 3f 81 1c 74 46 f8 46 9a bf
       0.02199859488601711 -0.02566135339750675
0004c0 b8 7d 83 c5 a3 f3 86 3f 35 a9 c2 7d ef d5 8d 3f
       0.011206893410814142 0.014568205857660924
0004d0 21 2b 39 87 d8 a1 62 3f a4 db 86 0a 1a f5 0d bf
       0.0022744397227020406 -5.713926049415806e-05
0004e0 60 22 3b 9a f7 46 03 3f e5 10 74 81 2a e2 7b 3f
       3.6768370845378885e-05 0.006807485616495
0004f0 10 82 55 e2 22 42 91 3f 7d a0 a5 45 5c be 92 bf
       0.01685385233338549 -0.018304292441286386
000500 19 a1 9d c1 45 73 68 3f e6 0f 76 6c 32 05 78 bf
       0.0029846537044485697 -0.005864331214414853
000510 0d 5f e6 46 97 98 92 3f c0 8b c7 fa cc 26 7f 3f
       0.018160213186631902 0.007605362607566002
000520 8c bf 9d 25 53 f6 41 bf a5 a6 dd 17 63 ad 91 3f
       -0.0005481630316648152 0.01726298173108511
000530 b7 33 af d4 4a 91 79 bf 91 2c fe 4d 9f 89 6a bf
       -0.006242077167326102 -0.003239451543725354
000540 ef 3b b5 4b 1e c6 a0 bf 5e 49 3c f3 85 ad 3f bf
       -0.032761523000424 -0.00048336525218064207
000550 e9 3e b9 9a 53 f2 6a bf ad 50 cb c7 44 88 85 bf
       -0.0032893784425950157 -0.010513818118319607
000560 6e be 15 2d 82 b1 8e 3f ea f6 38 ba c1 37 70 3f
       0.014987008095629775 0.003959423778324237
000570 64 7b c2 31 b8 a0 9e 3f e8 f0 96 ae 7b 46 9a bf
       0.02990997127255514 -0.02565949681387361
000580 02 c9 c1 79 57 df 87 bf bd 6b 8a 77 84 e2 71 3f
       -0.01165645923922343 0.004366414498373436
000590 7e 9e 47 f3 14 02 45 3f e3 ff 8e 64 01 88 6b bf
       0.0006411173149531572 -0.0033607508853208275
0005a0 14 20 97 7e 41 1b 7a bf b4 3a 25 98 bb 57 a1 3f
       -0.006373649442544167 0.033872473070564096
0005b0 3a 5b d8 66 97 32 46 3f 12 12 3d 6e 39 0e 93 bf
       0.000677417685156146 -0.018608949044635344
0005c0 e4 4b 5a 8c f4 c1 a4 bf e2 18 a9 51 db e8 8d 3f
       -0.040542261250400974 0.014604295186597619
0005d0 ae 08 48 52 19 11 87 bf e8 70 5e 95 c5 0d 92 bf
       -0.01126308233597614 -0.017630660287623195
0005e0 c9 59 b8 ec f5 96 b0 3f 32 de bf 60 4f ee c2 3f
       0.06480347661304288 0.14789764618011386
0005f0 13 eb 31 e5 53 52 d0 3f a6 34 46 0d ab 2a d4 3f
       0.2550248850090366 0.31510425850212653
000600 28 9c 96 67 fa 55 75 3f a2 d6 4e 9b 91 8d 67 3f
       0.005208948271877602 0.0028751224403674317
000610 87 21 43 52 c7 a3 80 3f cc 4d 8d 1e 9c 9a 75 3f
       0.00812488288683323 0.005274400559602776
000620 c5 ee 01 21 b4 db 85 bf 02 c4 43 27 b4 f4 1c bf
       -0.01067295766573951 -0.00011045789307552459
000630 70 25 aa 42 91 a0 7e 3f aa 1a ac 0f b1 b6 8f bf
       0.007477347777816376 -0.015485175410060965
000640 a4 91 fd 20 1f bc 6b bf 7b de 6a 78 81 c1 7f bf
       -0.003385601805279319 -0.007752900832819538
000650 fd 59 68 8e 8c d0 88 3f 69 dd e3 b1 e4 8d 83 3f
       0.012116525741515888 0.00954798381688589
000660 97 5d 20 c3 41 48 8b bf ec 0c 48 31 5e ca 78 3f
       -0.01332141281822778 0.0060523681063415595
000670 00 ee 93 28 cd fb af 3e 60 79 1a 6f 94 93 92 bf
       9.53185535084789e-07 -0.018141097336973444
000680 54 04 2b de fb 6c 49 bf ac 63 ef 39 a2 ce 7a 3f
       -0.0007759313415008997 0.006544717499274915
000690 4c 03 39 f0 79 85 63 3f 30 38 64 bf 50 ca 50 bf
       0.0023829824074543034 -0.0010247982550626415
0006a0 9a e2 00 6e 61 6d 60 bf 11 7c 59 52 00 a1 87 3f
       -0.0020052817272041114 0.011537554276570135
0006b0 aa 0d 05 fc a2 47 8a 3f b2 e4 2f 74 a8 f2 75 bf
       0.012831948581726167 -0.005358369849085042
0006c0 65 92 16 f9 49 66 87 3f 92 59 06 6f 34 c4 69 3f
       0.011425569452350357 0.0031453155608673422
0006d0 56 ff d7 a0 fe 3a 83 3f 2a f6 39 11 d5 1c 66 bf
       0.009389867099343679 -0.0026992951841851203
0006e0 62 51 c0 ab 34 28 96 bf 3c 7e 51 a8 3f 85 82 3f
       -0.021637747748245124 0.009043214153449879
0006f0 66 8e 0a 52 39 bf 8b 3f 3e 06 f1 fb a5 ba a0 bf
       0.013548324409675416 -0.03267401409585745
000700 14 30 ec 4c 9f 78 90 3f 35 37 0f 06 94 80 58 3f
       0.01608513743398994 0.0014954991859101434
000710 23 96 8d a0 a7 b8 54 3f 30 df 3f cc 0d cb 76 bf
       0.0012647282585133222 -0.005564741037225748
000720 be 82 66 13 28 11 66 bf 12 fa 60 6d 7d 8b 77 bf
       -0.0026937277536521467 -0.005748262357939031
000730 24 fb 37 8c b8 12 17 bf ea f0 10 0b 77 bb 82 bf
       -8.801700010250803e-05 -0.009146623635495083
000740 de ca 58 4f 12 18 80 bf 94 92 2d bc 4b 36 52 3f
       -0.007858412786935384 0.0011115779495522215
000750 54 67 cf 98 81 66 10 bf 40 67 89 c9 53 59 69 bf
       -6.256261822504039e-05 -0.003094352385500182
000760 70 0a ec fb ca 1c 66 3f d7 30 f5 3f 80 72 5b 3f
       0.0026992764027238755 0.0016752483787341643
000770 9a f3 6e 85 a3 dc 8b 3f d9 3d cd 90 97 4e 66 3f
       0.013604428777279232 0.002723022486328591
000780 47 a3 ba 17 08 e1 80 bf 8a aa 2a eb 23 0c 8c 3f
       -0.00824171373763395 0.013695030798165381
000790 34 44 bb 7a 9a ad 73 3f 56 53 33 ae 0f 42 46 3f
       0.004804233012422766 0.0006792618336485072
0007a0 72 e3 24 e4 02 ee 88 3f 19 0d c3 8f 27 21 90 3f
       0.012172720515637645 0.015751474523097195
0007b0 3a ef 05 0d 1c 9a 94 3f 04 d7 9e d1 a0 2e 91 bf
       0.020119131369468614 -0.01677943496152691
0007c0 c9 ca 14 02 0c dd 81 bf d3 07 c7 a7 da f2 67 3f
       -0.008722394765390178 0.002923419057169399
0007d0 e9 ba f8 0b d4 63 95 3f 61 f1 99 54 b6 bd 5c bf
       0.020888627272308922 -0.0017542152949366551
0007e0 4c 23 99 41 82 fa 73 3f 20 8c 09 22 70 0d 73 3f
       0.004877575696419733 0.0046514873689345315
0007f0 0e 81 e9 05 90 33 5b bf 58 ed 38 23 12 d6 82 bf
       -0.0016602426982431115 -0.00919737024297855
