exp/data_checkpoints/Model_hs1_bs32_e100_lr9e-3/checkpoint.pth (torch, 72377 bytes, 114 tensors)

inv_timescales f8 [1]
1.0
00000000: 0000 0000 0000 f03f

blocks1.SCINet_Tree.workingblock.interact.level.phi.1.weight f8 [1, 1, 5]
-0.30519892302995455 -0.8635929724458014 0.1297466111644014 0.3039567718370602 0.12686970635920833
00000000: 7009 4c10 6188 d3bf 84b9 b6ba 8da2 ebbf
00000010: 36e5 db75 899b c03f ad06 9c1a 0774 d33f
00000020: f73c d53b 443d c03f

blocks1.SCINet_Tree.workingblock.interact.level.phi.1.bias f8 [1]
0.11896069254890448
00000000: 66ce 013c 3574 be3f

blocks1.SCINet_Tree.workingblock.interact.level.phi.4.weight f8 [1, 1, 3]
-0.03268185577130452 -0.4672875487438505 0.29904609784888503
00000000: ebb1 6b1b adbb a0bf b6b3 eb08 0ae8 ddbf
00000010: de78 903e 9223 d33f

blocks1.SCINet_Tree.workingblock.interact.level.phi.4.bias f8 [1]
-2.900635810045748
00000000: 0e06 2e8c 8034 07c0

blocks1.SCINet_Tree.workingblock.interact.level.psi.1.weight f8 [1, 1, 5]
0.4963104082453475 -0.08320159752306037 -0.050774074351035044 0.13202404270244028 0.5489312890255651
00000000: d700 05bb 8cc3 df3f cb24 562c b34c b5bf
00000010: 690d a539 0fff a9bf 04aa d8f0 29e6 c03f
00000020: aab5 c359 d890 e13f

blocks1.SCINet_Tree.workingblock.interact.level.psi.1.bias f8 [1]
-2.0150431009715417
00000000: 26a0 d5ea ce1e 00c0

blocks1.SCINet_Tree.workingblock.interact.level.psi.4.weight f8 [1, 1, 3]
-0.09176228088179168 -0.3106217281701763 -0.14165152932521524
00000000: fdc6 649b bb7d b7bf 06bf faf4 39e1 d3bf
00000010: e2a9 f026 a321 c2bf

blocks1.SCINet_Tree.workingblock.interact.level.psi.4.bias f8 [1]
-0.21059261366475443
00000000: 7711 3ce2 b2f4 cabf

blocks1.SCINet_Tree.workingblock.interact.level.P.1.weight f8 [1, 1, 5]
-0.04581217774026615 0.8318265765304607 1.243679056363592 -1.1992881508748414 -1.3017697038382956
00000000: b253 4e9a b174 a7bf 048b c4c4 529e ea3f
00000010: 0bd4 9c02 1ce6 f33f dbcd a7c5 4830 f3bf
00000020: 9d8b 0e78 0cd4 f4bf

blocks1.SCINet_Tree.workingblock.interact.level.P.1.bias f8 [1]
-0.2641195806211887
00000000: 5414 40d0 55e7 d0bf

blocks1.SCINet_Tree.workingblock.interact.level.P.4.weight f8 [1, 1, 3]
-0.4930378152616147 0.6040028010428382 2.847345450822369
00000000: ee5a 0f7b ee8d dfbf fc7b a5ae fd53 e33f
00000010: 5592 3d0d 5dc7 0640

blocks1.SCINet_Tree.workingblock.interact.level.P.4.bias f8 [1]
-0.5471456472550034
00000000: dc7c a396 3782 e1bf

blocks1.SCINet_Tree.workingblock.interact.level.U.1.weight f8 [1, 1, 5]
-0.19784044617844698 -0.3622447755526638 0.3424984305500086 -0.20028719336065123 0.6829319104204639
00000000: 14cc 14f3 d552 c9bf b750 09b6 042f d7bf
00000010: fa30 8989 7eeb d53f fb53 a5c0 02a3 c9bf
00000020: 7cd2 9405 94da e53f

blocks1.SCINet_Tree.workingblock.interact.level.U.1.bias f8 [1]
-0.5580845787780875
00000000: 4e1f c830 d4db e1bf

blocks1.SCINet_Tree.workingblock.interact.level.U.4.weight f8 [1, 1, 3]
-0.22823709367653353 0.17787790427691821 -0.01045656419631902
00000000: 0b93 8982 df36 cdbf ed72 c602 b4c4 c63f
00000010: 0183 034a 406a 85bf

blocks1.SCINet_Tree.workingblock.interact.level.U.4.bias f8 [1]
0.10141781841151967
00000000: 0a24 4fa5 84f6 b93f

blocks1.SCINet_Tree.SCINet_Tree_odd.workingblock.interact.level.phi.1.weight f8 [1, 1, 5]
0.3988994832877073 0.37407920701627106 0.29751112614774655 0.13875795471385236 -0.16239710145133032
00000000: 082b c7b2 9187 d93f 64e7 0fea e9f0 d73f
00000010: 800b 401b 6c0a d33f ed25 c716 d2c2 c13f
00000020: 9f6d d99f 6dc9 c4bf

blocks1.SCINet_Tree.SCINet_Tree_odd.workingblock.interact.level.phi.1.bias f8 [1]
-0.23980425945826836
00000000: 194a e8ed e7b1 cebf

blocks1.SCINet_Tree.SCINet_Tree_odd.workingblock.interact.level.phi.4.weight f8 [1, 1, 3]
-0.2649791876008429 -0.19057246418860824 -0.33012121344684503
00000000: f370 3744 6bf5 d0bf 6aa6 9ab2 ad64 c8bf
00000010: 0d15 deb9 b420 d5bf

blocks1.SCINet_Tree.SCINet_Tree_odd.workingblock.interact.level.phi.4.bias f8 [1]
-1.946331598703229
00000000: d4a0 399a 2c24 ffbf

blocks1.SCINet_Tree.SCINet_Tree_odd.workingblock.interact.level.psi.1.weight f8 [1, 1, 5]
-0.012207495977641255 -0.37846875368071936 -0.35321829356985585 0.09592127396428364 0.1700690253384659
00000000: fe8f eb5f 3e00 89bf df75 e701 d538 d8bf
00000010: 35d0 cee6 209b d6bf 31d1 aaee 4b8e b83f
00000020: 5416 f262 d2c4 c53f

blocks1.SCINet_Tree.SCINet_Tree_odd.workingblock.interact.level.psi.1.bias f8 [1]
-0.4342550403531213
00000000: f325 1ca7 d5ca dbbf

blocks1.SCINet_Tree.SCINet_Tree_odd.workingblock.interact.level.psi.4.weight f8 [1, 1, 3]
-0.2807350484593431 -0.31048110456958705 0.2513222522110573
00000000: 9f53 fe22 90f7 d1bf d1bf 8923 ecde d3bf
00000010: 3e3a 80ed a915 d03f

blocks1.SCINet_Tree.SCINet_Tree_odd.workingblock.interact.level.psi.4.bias f8 [1]
-2.574462225978672
00000000: 12ed caa6 7f98 04c0

blocks1.SCINet_Tree.SCINet_Tree_odd.workingblock.interact.level.P.1.weight f8 [1, 1, 5]
-0.19450922760172548 -0.9388592050808122 -1.5041850064430133 -0.810529580966214 -0.15456863167464951
00000000: afe9 a8a9 ade5 c8bf 54dc ab75 220b eebf
00000010: 92e6 1c4c 2411 f8bf 5b18 56bb dbef e9bf
00000020: f8d9 03a9 e7c8 c3bf

blocks1.SCINet_Tree.SCINet_Tree_odd.workingblock.interact.level.P.1.bias f8 [1]
0.30257703301252253
00000000: cbce 530f 6c5d d33f

blocks1.SCINet_Tree.SCINet_Tree_odd.workingblock.interact.level.P.4.weight f8 [1, 1, 3]
-0.33651015315573646 -0.7228087452500136 -0.36386825111152526
00000000: 8dda a4e1 6189 d5bf 4292 43ce 3f21 e7bf
00000010: ede8 a40f 9e49 d7bf

blocks1.SCINet_Tree.SCINet_Tree_odd.workingblock.interact.level.P.4.bias f8 [1]
-0.22347873104747187
00000000: 0da9 9978 f39a ccbf

blocks1.SCINet_Tree.SCINet_Tree_odd.workingblock.interact.level.U.1.weight f8 [1, 1, 5]
0.1369866897839637 -0.8445092902404042 0.5643825763880472 0.7618658633408294 0.9948644353583568
00000000: 8501 4ea4 c788 c13f cd05 d858 3806 ebbf
00000010: b49a 800c 6c0f e23f f99a df84 3461 e83f
00000020: 2d2a baf0 edd5 ef3f

blocks1.SCINet_Tree.SCINet_Tree_odd.workingblock.interact.level.U.1.bias f8 [1]
-0.5822123928341978
00000000: a48f 51e2 7ba1 e2bf

blocks1.SCINet_Tree.SCINet_Tree_odd.workingblock.interact.level.U.4.weight f8 [1, 1, 3]
-0.20343312290698948 -0.5751203575108694 1.529460947073313
00000000: 7182 e7b8 180a cabf 84bc d8ce 6267 e2bf
00000010: 6a06 c30a ac78 f83f

blocks1.SCINet_Tree.SCINet_Tree_odd.workingblock.interact.level.U.4.bias f8 [1]
-0.20506149981628088
00000000: ed97 b089 743f cabf

blocks1.SCINet_Tree.SCINet_Tree_odd.SCINet_Tree_odd.workingblock.interact.level.phi.1.weight f8 [1, 1, 5]
-0.621502484287265 -0.9422501515703396 -0.00046905171464072686 -0.6801997109080342 -0.12784261052819745
00000000: 98b0 8c2d 59e3 e3bf 2ea9 34ca e926 eebf
00000010: 8497 46c6 61bd 3ebf 3c28 232f 32c4 e5bf
00000020: ec7e a08b 255d c0bf

blocks1.SCINet_Tree.SCINet_Tree_odd.SCINet_Tree_odd.workingblock.interact.level.phi.1.bias f8 [1]
0.3541579524309113
00000000: 18c8 d31d 86aa d63f

blocks1.SCINet_Tree.SCINet_Tree_odd.SCINet_Tree_odd.workingblock.interact.level.phi.4.weight f8 [1, 1, 3]
0.25408063394435565 0.26472553829554457 0.7142915365593371
00000000: 0ea1 556b db42 d03f 924d 5962 43f1 d03f
00000010: 439f aaec 79db e63f

blocks1.SCINet_Tree.SCINet_Tree_odd.SCINet_Tree_odd.workingblock.interact.level.phi.4.bias f8 [1]
-1.460449085794606
00000000: f95f 4fdc ff5d f7bf

blocks1.SCINet_Tree.SCINet_Tree_odd.SCINet_Tree_odd.workingblock.interact.level.psi.1.weight f8 [1, 1, 5]
-0.21138376705058795 -0.23375811467393862 0.24411860621614087 -0.3581950933725837 0.00773572333803459
00000000: 7d9b 318f 9f0e cbbf dd7e d930 c9eb cdbf
00000010: 078f 054b 473f cf3f d0dd e71c abec d6bf
00000020: d4d5 f66b 7eaf 7f3f

blocks1.SCINet_Tree.SCINet_Tree_odd.SCINet_Tree_odd.workingblock.interact.level.psi.1.bias f8 [1]
-0.6942385258980763
00000000: 2660 8bb6 3337 e6bf

blocks1.SCINet_Tree.SCINet_Tree_odd.SCINet_Tree_odd.workingblock.interact.level.psi.4.weight f8 [1, 1, 3]
-0.2242825706800761 -0.03727010818531851 0.6040028073659024
00000000: 3d1e 1191 4ab5 ccbf 5074 8c4f 1115 a3bf
00000010: 0785 0ab2 fd53 e33f

blocks1.SCINet_Tree.SCINet_Tree_odd.SCINet_Tree_odd.workingblock.interact.level.psi.4.bias f8 [1]
-1.7540966585476068
00000000: f2c1 67a8 c710 fcbf

blocks1.SCINet_Tree.SCINet_Tree_odd.SCINet_Tree_odd.workingblock.interact.level.P.1.weight f8 [1, 1, 5]
-0.0862713036800947 -0.06265901148122911 -0.30996147485904324 -0.794959941651109 -0.6763460822374568
00000000: 96a8 e34b e015 b6bf b18f 1cc5 6b0a b0bf
00000010: 7287 62a7 68d6 d3bf cbb0 e0d4 4f70 e9bf
00000020: 739a ff89 a0a4 e5bf

blocks1.SCINet_Tree.SCINet_Tree_odd.SCINet_Tree_odd.workingblock.interact.level.P.1.bias f8 [1]
0.23797162067353148
00000000: ab9f 15a4 da75 ce3f

blocks1.SCINet_Tree.SCINet_Tree_odd.SCINet_Tree_odd.workingblock.interact.level.P.4.weight f8 [1, 1, 3]
-0.18656654301700593 -0.19684635313440696 -0.043528618422481416
00000000: ac95 6498 69e1 c7bf 624a 86e4 4232 c9bf
00000010: fa15 2111 6249 a6bf

blocks1.SCINet_Tree.SCINet_Tree_odd.SCINet_Tree_odd.workingblock.interact.level.P.4.bias f8 [1]
0.15855501763329996
00000000: 6105 ade3 874b c43f

blocks1.SCINet_Tree.SCINet_Tree_odd.SCINet_Tree_odd.workingblock.interact.level.U.1.weight f8 [1, 1, 5]
-0.5443566340348057 -0.5203435081143202 -0.19073474785854644 -0.30839397721489864 -0.4841737765176102
00000000: c148 919a 5e6b e1bf 6a2e c16d a7a6 e0bf
00000010: 9ab2 2108 ff69 c8bf 8bf7 9a17 babc d3bf
00000020: 2c55 ee01 b4fc debf

blocks1.SCINet_Tree.SCINet_Tree_odd.SCINet_Tree_odd.workingblock.interact.level.U.1.bias f8 [1]
0.09877177808056821
00000000: 05b2 9f74 1b49 b93f

blocks1.SCINet_Tree.SCINet_Tree_odd.SCINet_Tree_odd.workingblock.interact.level.U.4.weight f8 [1, 1, 3]
0.036325030009779734 0.409033876335618 0.5881660635556667
00000000: 4321 d6bf 3199 a23f 5b53 746c 9c2d da3f
00000010: 30d6 f2a2 41d2 e23f

blocks1.SCINet_Tree.SCINet_Tree_odd.SCINet_Tree_odd.workingblock.interact.level.U.4.bias f8 [1]
0.11934658981014638
00000000: 2bab 1f84 7f8d be3f

blocks1.SCINet_Tree.SCINet_Tree_odd.SCINet_Tree_even.workingblock.interact.level.phi.1.weight f8 [1, 1, 5]
-0.02759600334415921 0.41930727130513373 0.9247804644607923 0.8018785525637299 1.1481660674442455
00000000: 9831 746f 2042 9cbf 4fc1 4e2a eed5 da3f
00000010: 65d7 5a33 cd97 ed3f 4d00 d435 fda8 e93f
00000020: a8cc e061 e35e f23f

blocks1.SCINet_Tree.SCINet_Tree_odd.SCINet_Tree_even.workingblock.interact.level.phi.1.bias f8 [1]
0.8520519573944724
00000000: bf10 7077 0244 eb3f

blocks1.SCINet_Tree.SCINet_Tree_odd.SCINet_Tree_even.workingblock.interact.level.phi.4.weight f8 [1, 1, 3]
-1.2603452328363456 -1.3343833568877852 -1.3519575575709748
00000000: cb39 4bc3 5f2a f4bf 458e e25c a259 f5bf
00000010: d88e 753f 9ea1 f5bf

blocks1.SCINet_Tree.SCINet_Tree_odd.SCINet_Tree_even.workingblock.interact.level.phi.4.bias f8 [1]
-0.9669869394123465
00000000: d8ec 0d98 8ef1 eebf

blocks1.SCINet_Tree.SCINet_Tree_odd.SCINet_Tree_even.workingblock.interact.level.psi.1.weight f8 [1, 1, 5]
0.4092984489181237 0.1376276055587969 -0.03635191552034125 0.2627391720261175 -0.04517882654471002
00000000: 200a 1a1f f231 da3f db6e 7308 c89d c13f
00000010: 9317 9de0 b79c a2bf 1ebd cef5 b7d0 d03f
00000020: 0a5e f6dc ad21 a7bf

blocks1.SCINet_Tree.SCINet_Tree_odd.SCINet_Tree_even.workingblock.interact.level.psi.1.bias f8 [1]
1.3899702623143753
00000000: 33d8 3075 513d f63f

blocks1.SCINet_Tree.SCINet_Tree_odd.SCINet_Tree_even.workingblock.interact.level.psi.4.weight f8 [1, 1, 3]
-0.8025229091697632 -0.9574925260938076 -0.3345555068786285
00000000: e098 2586 44ae e9bf 3698 b75d c7a3 eebf
00000010: eb62 2f80 5b69 d5bf

blocks1.SCINet_Tree.SCINet_Tree_odd.SCINet_Tree_even.workingblock.interact.level.psi.4.bias f8 [1]
-1.7996835681700356
00000000: b105 47ff 80cb fcbf

blocks1.SCINet_Tree.SCINet_Tree_odd.SCINet_Tree_even.workingblock.interact.level.P.1.weight f8 [1, 1, 5]
-0.8561122564932082 -0.7489803903076084 0.7233028980699515 1.2201432130382313 1.2899065090044748
00000000: 9efa ea87 4565 ebbf 84ed 36b9 a5f7 e7bf
00000010: b3ff 891e 4c25 e73f 12f8 c6e3 b485 f33f
00000020: e225 f101 75a3 f43f

blocks1.SCINet_Tree.SCINet_Tree_odd.SCINet_Tree_even.workingblock.interact.level.P.1.bias f8 [1]
-0.06941665222363458
00000000: 402b 192b 4ac5 b1bf

blocks1.SCINet_Tree.SCINet_Tree_odd.SCINet_Tree_even.workingblock.interact.level.P.4.weight f8 [1, 1, 3]
0.28113336122501936 0.22565535204143253 0.2723348013400704
00000000: 31aa 11c8 16fe d13f 8db8 974a 46e2 cc3f
00000010: 5c5e 54f2 ee6d d13f

blocks1.SCINet_Tree.SCINet_Tree_odd.SCINet_Tree_even.workingblock.interact.level.P.4.bias f8 [1]
-0.3441992329019918
00000000: 73d4 2738 5c07 d6bf

blocks1.SCINet_Tree.SCINet_Tree_odd.SCINet_Tree_even.workingblock.interact.level.U.1.weight f8 [1, 1, 5]
-0.33423478039175675 -0.20777886778959076 0.026358599183441397 0.6322988582414968 1.2740037657943988
00000000: 3df9 bd46 1a64 d5bf c464 fa78 7f98 cabf
00000010: bc52 d8a5 bffd 9a3f 7640 aed0 ca3b e43f
00000020: a715 d1c5 5162 f43f

blocks1.SCINet_Tree.SCINet_Tree_odd.SCINet_Tree_even.workingblock.interact.level.U.1.bias f8 [1]
-0.3226435589024184
00000000: 590f 702b 31a6 d4bf

blocks1.SCINet_Tree.SCINet_Tree_odd.SCINet_Tree_even.workingblock.interact.level.U.4.weight f8 [1, 1, 3]
0.19475726258707024 0.3002318782140787 0.9084249365613418
00000000: 5b27 bc54 ceed c83f 145a 89c4 ff36 d33f
00000010: dbdb 2c2c d111 ed3f

blocks1.SCINet_Tree.SCINet_Tree_odd.SCINet_Tree_even.workingblock.interact.level.U.4.bias f8 [1]
0.29170631804801045
00000000: bd60 03fa 50ab d23f

blocks1.SCINet_Tree.SCINet_Tree_even.workingblock.interact.level.phi.1.weight f8 [1, 1, 5]
0.0845265600921615 0.36533440144800056 0.09827826474100271 0.1143213855589509 0.3175159415855753
00000000: 063d 3d5b 88a3 b53f 5aaa 948a a361 d73f
00000010: 6c61 f8ac c328 b93f a187 3594 2a44 bd3f
00000020: 7465 4462 2e52 d43f

blocks1.SCINet_Tree.SCINet_Tree_even.workingblock.interact.level.phi.1.bias f8 [1]
-2.2112258642669858
00000000: b0c4 982f 97b0 01c0

blocks1.SCINet_Tree.SCINet_Tree_even.workingblock.interact.level.phi.4.weight f8 [1, 1, 3]
-0.32764157129456667 -0.2663917421812728 -0.3187632848033387
00000000: 394b 615a 14f8 d4bf 36f4 25f3 8f0c d1bf
00000010: fe55 d91e 9e66 d4bf

blocks1.SCINet_Tree.SCINet_Tree_even.workingblock.interact.level.phi.4.bias f8 [1]
0.8205455619354501
00000000: 9f80 2cc4 e841 ea3f

blocks1.SCINet_Tree.SCINet_Tree_even.workingblock.interact.level.psi.1.weight f8 [1, 1, 5]
0.49175474996121676 0.06441812234040374 0.20066919941747488 -0.34203428305200556 0.5528480576226202
00000000: fd1b 2fea e878 df3f 55c5 b8c0 b47d b03f
00000010: dd01 6840 87af c93f 4c6d f4c2 e3e3 d5bf
00000020: 4eae e468 eeb0 e13f

blocks1.SCINet_Tree.SCINet_Tree_even.workingblock.interact.level.psi.1.bias f8 [1]
1.5856965610666856
00000000: ca93 725b 035f f93f

blocks1.SCINet_Tree.SCINet_Tree_even.workingblock.interact.level.psi.4.weight f8 [1, 1, 3]
-0.2924798840927405 -0.5667425421512284 -0.42032817411653145
00000000: e0a2 3a8c fdb7 d2bf 6053 7941 c122 e2bf
00000010: d0be 5a24 a8e6 dabf

blocks1.SCINet_Tree.SCINet_Tree_even.workingblock.interact.level.psi.4.bias f8 [1]
-2.011115340859523
00000000: eacd cba3 c316 00c0

blocks1.SCINet_Tree.SCINet_Tree_even.workingblock.interact.level.P.1.weight f8 [1, 1, 5]
-1.3481338165747936 -0.7736973334665347 -0.09900646240389317 0.3826797524724186 0.8517393654225042
00000000: 5d20 cdc3 f491 f5bf b0b7 07e9 20c2 e8bf
00000010: 450c 1ece 7c58 b9bf 6877 6d37 d37d d83f
00000020: 0993 e6e9 7241 eb3f

blocks1.SCINet_Tree.SCINet_Tree_even.workingblock.interact.level.P.1.bias f8 [1]
-0.3272862843514605
00000000: 1f02 ee2b 42f2 d4bf

blocks1.SCINet_Tree.SCINet_Tree_even.workingblock.interact.level.P.4.weight f8 [1, 1, 3]
0.44946759440905965 0.5679006065844073 0.36904964397895673
00000000: 2951 a6ba 13c4 dc3f 2f13 95e4 3d2c e23f
00000010: 2f5d df65 829e d73f

blocks1.SCINet_Tree.SCINet_Tree_even.workingblock.interact.level.P.4.bias f8 [1]
-0.719371699199225
00000000: dc50 37cc 1705 e7bf

blocks1.SCINet_Tree.SCINet_Tree_even.workingblock.interact.level.U.1.weight f8 [1, 1, 5]
-0.0820864843825836 0.8899315159261686 1.1584436109541834 0.23247094854701633 -1.2746242600992077
00000000: 59e7 ddad 9e03 b5bf a3a4 92a8 517a ec3f
00000010: 10ef f42a fc88 f23f c4c7 a3a8 9bc1 cd3f
00000020: 5a07 7d68 dc64 f4bf

blocks1.SCINet_Tree.SCINet_Tree_even.workingblock.interact.level.U.1.bias f8 [1]
-0.5749320584263895
00000000: 30a0 8bea d765 e2bf

blocks1.SCINet_Tree.SCINet_Tree_even.workingblock.interact.level.U.4.weight f8 [1, 1, 3]
-0.8619448870778786 -1.1073030771044352 -0.9228073280028363
00000000: 5d86 9e71 0d95 ebbf 8ac7 6e6e 83b7 f1bf
00000010: a100 c93b a387 edbf

blocks1.SCINet_Tree.SCINet_Tree_even.workingblock.interact.level.U.4.bias f8 [1]
0.5344050957797036
00000000: ff10 26b7 d819 e13f

blocks1.SCINet_Tree.SCINet_Tree_even.SCINet_Tree_odd.workingblock.interact.level.phi.1.weight f8 [1, 1, 5]
-0.6946154177789808 -0.5582138064519122 0.13628147672620053 0.2328491786800745 0.6699457647877706
00000000: 270f d51c 4a3a e6bf 545f 5c33 e3dc e1bf
00000010: 8d78 cbe2 ab71 c13f ac6a aa7b 00ce cd3f
00000020: 0b6e bb19 3270 e53f

blocks1.SCINet_Tree.SCINet_Tree_even.SCINet_Tree_odd.workingblock.interact.level.phi.1.bias f8 [1]
-1.4408415171188897
00000000: 1cea abd5 af0d f7bf

blocks1.SCINet_Tree.SCINet_Tree_even.SCINet_Tree_odd.workingblock.interact.level.phi.4.weight f8 [1, 1, 3]
-0.15839815760199333 -0.19107436032698843 -0.08009758264809669
00000000: f2d7 520d 6446 c4bf 48b1 5ae8 1f75 c8bf
00000010: dc54 f671 4681 b4bf

blocks1.SCINet_Tree.SCINet_Tree_even.SCINet_Tree_odd.workingblock.interact.level.phi.4.bias f8 [1]
-0.012948390970363391
00000000: 083c 079e af84 8abf

blocks1.SCINet_Tree.SCINet_Tree_even.SCINet_Tree_odd.workingblock.interact.level.psi.1.weight f8 [1, 1, 5]
-0.698145718320939 -0.4237560015760228 -0.12308194425808137 0.021370378309558905 -0.17692858561611483
00000000: d0fc 80b0 3557 e6bf ee2c 107e d11e dbbf
00000010: b709 515d 4c82 bfbf 0154 c5cf 1de2 953f
00000020: 9d70 798c 98a5 c6bf

blocks1.SCINet_Tree.SCINet_Tree_even.SCINet_Tree_odd.workingblock.interact.level.psi.1.bias f8 [1]
-0.8355980831825657
00000000: 2fd2 fb30 38bd eabf

blocks1.SCINet_Tree.SCINet_Tree_even.SCINet_Tree_odd.workingblock.interact.level.psi.4.weight f8 [1, 1, 3]
-0.10120646011255026 0.11764273393606897 0.39388491987789576
00000000: 05cc 53a4 aae8 b9bf ea10 de8e d51d be3f
00000010: 54d7 5018 6935 d93f

blocks1.SCINet_Tree.SCINet_Tree_even.SCINet_Tree_odd.workingblock.interact.level.psi.4.bias f8 [1]
-2.5398095457197782
00000000: 037b c7aa 8751 04c0

blocks1.SCINet_Tree.SCINet_Tree_even.SCINet_Tree_odd.workingblock.interact.level.P.1.weight f8 [1, 1, 5]
0.6737581468729106 -0.5552059639822298 -0.3928873272649154 -0.3453043924487549 -1.0193476107476558
00000000: 6872 c73e 6d8f e53f 6e21 3b4c 3fc4 e1bf
00000010: fc66 67e3 1025 d9bf 20e2 2e98 7719 d6bf
00000020: b4ab b670 3f4f f0bf

blocks1.SCINet_Tree.SCINet_Tree_even.SCINet_Tree_odd.workingblock.interact.level.P.1.bias f8 [1]
-0.05813457244200497
00000000: 968a cf8e d0c3 adbf

blocks1.SCINet_Tree.SCINet_Tree_even.SCINet_Tree_odd.workingblock.interact.level.P.4.weight f8 [1, 1, 3]
0.5153717048034445 0.4761525698594232 -0.36661670164681476
00000000: 1444 2dcd ec7d e03f 0af7 dca0 4879 de3f
00000010: ad63 efe5 a576 d7bf

blocks1.SCINet_Tree.SCINet_Tree_even.SCINet_Tree_odd.workingblock.interact.level.P.4.bias f8 [1]
0.6493311896017894
00000000: 4799 f333 52c7 e43f

blocks1.SCINet_Tree.SCINet_Tree_even.SCINet_Tree_odd.workingblock.interact.level.U.1.weight f8 [1, 1, 5]
-0.6778369368676175 -0.6773007766876258 -1.0323795821048458 -0.1342826614221933 -0.051971667322233316
00000000: 61c0 7b16 d7b0 e5bf 56b8 adad 72ac e5bf
00000010: e42c e373 a084 f0bf 6234 9d9b 2c30 c1bf
00000020: 2b67 efc6 079c aabf

blocks1.SCINet_Tree.SCINet_Tree_even.SCINet_Tree_odd.workingblock.interact.level.U.1.bias f8 [1]
-0.15960081915073762
00000000: bf67 55b5 cc6d c4bf

blocks1.SCINet_Tree.SCINet_Tree_even.SCINet_Tree_odd.workingblock.interact.level.U.4.weight f8 [1, 1, 3]
0.3012277956291041 0.23593569793380814 0.2549568994643232
00000000: 15e2 b7f2 5047 d33f 82d5 4a15 2433 ce3f
00000010: 5caf 45be 3651 d03f

blocks1.SCINet_Tree.SCINet_Tree_even.SCINet_Tree_odd.workingblock.interact.level.U.4.bias f8 [1]
0.008510617495710311
00000000: e4b2 80be 036e 813f

blocks1.SCINet_Tree.SCINet_Tree_even.SCINet_Tree_even.workingblock.interact.level.phi.1.weight f8 [1, 1, 5]
-0.05964864304602642 0.3289340531823822 0.8768724140120522 0.9970605805441222 0.08887356537058523
00000000: 0a55 4456 448a aebf 2e61 3d6a 410d d53f
00000010: 6348 9ebc 560f ec3f 3e2b 3297 ebe7 ef3f
00000020: 71de be00 6bc0 b63f

blocks1.SCINet_Tree.SCINet_Tree_even.SCINet_Tree_even.workingblock.interact.level.phi.1.bias f8 [1]
-0.9131020232818151
00000000: b904 fdbb 2138 edbf

blocks1.SCINet_Tree.SCINet_Tree_even.SCINet_Tree_even.workingblock.interact.level.phi.4.weight f8 [1, 1, 3]
-1.7703698435503803 -1.2765024594675398 -0.7294505800144221
00000000: f0f9 3d54 6f53 fcbf 8ed3 cad7 8d6c f4bf
00000010: bfb9 26be a857 e7bf

blocks1.SCINet_Tree.SCINet_Tree_even.SCINet_Tree_even.workingblock.interact.level.phi.4.bias f8 [1]
-0.8744525068814936
00000000: 65c2 ded2 83fb ebbf

blocks1.SCINet_Tree.SCINet_Tree_even.SCINet_Tree_even.workingblock.interact.level.psi.1.weight f8 [1, 1, 5]
-0.26560605974587853 0.09281467015233322 -0.1528874855263054 -0.049483049766106284 -0.25016834847783415
00000000: 1197 0e8f b0ff d0bf 36af e4c4 b3c2 b73f
00000010: c9cd 262f d191 c3bf ff4d e7a0 d755 a9bf
00000020: 6939 cd1a c202 d0bf

blocks1.SCINet_Tree.SCINet_Tree_even.SCINet_Tree_even.workingblock.interact.level.psi.1.bias f8 [1]
-0.6163310433818427
00000000: d0b4 5ae1 fbb8 e3bf

blocks1.SCINet_Tree.SCINet_Tree_even.SCINet_Tree_even.workingblock.interact.level.psi.4.weight f8 [1, 1, 3]
0.7506641490343746 -0.17347078998471996 0.2737121619636623
00000000: e03b 4cd2 7005 e83f 13d8 e574 4a34 c6bf
00000010: 4ab0 0904 8084 d13f

blocks1.SCINet_Tree.SCINet_Tree_even.SCINet_Tree_even.workingblock.interact.level.psi.4.bias f8 [1]
-2.7020815990674802
00000000: 19f2 18f5 dc9d 05c0

blocks1.SCINet_Tree.SCINet_Tree_even.SCINet_Tree_even.workingblock.interact.level.P.1.weight f8 [1, 1, 5]
-0.08163022186182604 0.22935931349005137 0.7151256399084175 1.1614168303160792 1.318617169823772
00000000: 2b03 43dd b7e5 b4bf 2184 3c5f a55b cd3f
00000010: d901 7e2a 4fe2 e63f 65b4 73d0 2995 f23f
00000020: 1665 4551 0e19 f53f

blocks1.SCINet_Tree.SCINet_Tree_even.SCINet_Tree_even.workingblock.interact.level.P.1.bias f8 [1]
-0.5850204332046359
00000000: 9961 83c5 7cb8 e2bf

blocks1.SCINet_Tree.SCINet_Tree_even.SCINet_Tree_even.workingblock.interact.level.P.4.weight f8 [1, 1, 3]
0.5549936010636543 0.4925947151648176 0.512865735451417
00000000: 66d8 c1f0 81c2 e13f 512e f4fb ab86 df3f
00000010: 2217 2067 6569 e03f

blocks1.SCINet_Tree.SCINet_Tree_even.SCINet_Tree_even.workingblock.interact.level.P.4.bias f8 [1]
-0.07962697698432358
00000000: 6cea 06fe 6e62 b4bf

blocks1.SCINet_Tree.SCINet_Tree_even.SCINet_Tree_even.workingblock.interact.level.U.1.weight f8 [1, 1, 5]
-0.220290623415637 0.03291023563414493 0.8675331261246285 0.6392684857012062 -1.034242849253084
00000000: 28c2 97af 7b32 ccbf 4a2e 8143 9cd9 a03f
00000010: 8ddc 9cd4 d4c2 eb3f 6b67 ee2e e374 e43f
00000020: 259f da3a 428c f0bf

blocks1.SCINet_Tree.SCINet_Tree_even.SCINet_Tree_even.workingblock.interact.level.U.1.bias f8 [1]
-0.22704201489651946
00000000: 1d35 6676 b60f cdbf

blocks1.SCINet_Tree.SCINet_Tree_even.SCINet_Tree_even.workingblock.interact.level.U.4.weight f8 [1, 1, 3]
-0.6774209115898593 -0.5339571182948146 -0.011227288831584494
00000000: 60f5 9c9e 6ead e5bf 3e5d 113d 2d16 e1bf
00000010: 6ed0 d532 55fe 86bf

blocks1.SCINet_Tree.SCINet_Tree_even.SCINet_Tree_even.workingblock.interact.level.U.4.bias f8 [1]
0.08354932045657264
00000000: ebc8 f6fe 7c63 b53f

projection1.weight f8 [24, 48, 1]
-0.004106080727737622 -0.006572460213733492 0.0043235721138381545 0.0006297654799577257 0.0069680918482348305 0.00046153647190018274 -0.0037964207384463635 0.012217403315939096
0.006671494334603327 0.014971074715782809 0.0025338680481515473 -0.004443571997940908 -0.00041070828812744847 0.007634506490418542 0.0013398307476867573 -0.004791077813541615
0.006728119553091372 -0.0054908855961068705 -0.004927808656219765 -0.005217986137792916 -0.009147466276096338 -0.004062071925909179 -0.005439205388125278 -0.0024899601988365235
0.000251213363435554 -0.01817076202488028 -0.0038190425482212222 -0.0004814075529643064 -0.011705968846176324 -0.018972143341492304 -0.004371624359124737 0.018036446058282283
-0.012259830597064736 0.002093684610241474 0.0035269375793774427 -0.0018910266729654048 -0.0006697310058559886 -0.005558623914184047 0.0026247714225483662 -0.005782721973117775
-0.009548383659913263 -0.018648703985491726 0.0026590646008991642 -0.006691480929885854 -0.000128505730771756 0.021108110552781695 0.03979210659401541 0.8983391023790237
-0.005265947362883829 0.0018097580168448641 0.005028774847767318 0.007335232135934522 0.011149963597177489 -0.0017816389306232186 -0.00018065766959692714 -0.0018354036295799795
-0.002657084761223359 0.0048306120107543885 0.010242720028781927 0.0019652926725875785 0.004822761175796052 0.00028433162160321137 0.007491702660765236 0.001613896076116088
0.011965110595727082 -0.005770558648915635 -0.008438156191947812 -0.0183638887326721 -0.006008181110275432 -0.004146902503574356 0.003965470691236091 -0.01352452746164702
-0.002328179100581113 -0.029746094430060672 -0.0017429672671758004 -0.010898907675092452 -0.013748225235954216 -0.017238291824462317 0.0046897949204375315 -0.004771589659371344
-0.002430176968945907 -0.00299160696101704 0.011495614996077782 0.0004986023483494436 -0.001640454225083398 -0.005935052675416803 0.006747014742515093 -0.012992490291998747
-0.013384640606825076 -0.019709621247162558 0.01360717376455598 -0.003645401845494349 0.009449731297539902 0.011967940902091365 0.06034869334408418 0.8440918003027589
0.00639397846257904 0.010109012022411072 -0.0006768059612307966 -0.0073403783151379815 0.0012957731152706306 -0.002432234825841016 -0.001952018243413647 0.013390314664065206
0.0028867422980595244 0.00602440117539914 0.0027723950706777002 -0.0031266125156306623 -0.0027894932685231387 -0.004163865587296197 0.005730333744101669 -0.006698044430573767
-0.008577545249056356 -0.00038196436327963174 0.0012901476337558884 -0.006111381934904314 -0.005048216564358556 0.0023972842701369505 -0.011686814066753015 -0.0007653997012246857
-0.01133882971535851 -0.003532683980923338 -0.0027725033915543627 0.0050622164641117295 0.0035004229905616258 -0.005320446213179555 -0.0006714327310828489 0.024843855369407458
-0.0017699528588215202 0.0037983210920950017 -0.0031311813938733096 0.013384212229250257 0.00560209929041436 0.0024532733325612513 0.011431287674111662 -0.00016828978147203033
0.0014389923610573763 -0.03463502812104078 0.011131571151795194 -0.017599984766708824 -0.0003806863236096753 -0.014649873936546643 0.07412493117316578 0.8077887401610414
-0.013549990302592595 -0.00908741114631755 0.0016208729823730989 0.00937250194966625 0.0035439728068476497 0.004890772248541547 0.001872238830817054 -0.005123825444823537
-0.0028124531462544703 -0.0075582439889773645 0.008124252301483035 -0.0032034738162976576 0.008706528893244548 -0.00013815091238582723 0.009175557392507505 -0.009390478176938647
0.007536914522485414 -0.0028632615464695725 -0.00130911622885045 -0.014511902028234824 -0.005350053332938013 -0.012961140822985667 0.008306907269299984 -0.00968343736537378
0.003968965440357924 -0.004281529260850683 -0.00295218488750137 -0.023204527517656677 -0.014013388576855655 -0.0006741051121527863 -0.00400816669634285 -0.010202016073297855
-0.013595443022920248 0.0009262076036813223 0.007520170547595765 -0.008099238833947793 -0.004982913593181604 -0.0014491549361222219 0.020809221081026147 -0.022575689895780657
-0.0076488932126918445 -0.02225625466721301 0.035239330669286056 -0.021805221306349678 0.006144043709611161 -0.022448116272760717 0.1129418411039683 0.7458579174463833
-0.015185610682594022 -0.009248828040183475 0.012904241558611572 -0.004947670767835952 -3.195237860595943e-05 0.005278351180137539 0.00304365264458286 -0.0017510669812060035
0.012934051034923717 -0.001936665008276613 0.003333901240365802 -0.008756422978803002 0.00020163228786555158 0.0007382229173380077 -0.002072263536217922 -0.010221582816076992
-0.005703759888007864 0.003258211717942236 0.004621874598454859 -0.009795496874218587 -0.005767724224254219 -0.011467626817841442 0.007310003898773921 -0.017843181079821288
-0.007283772222234937 -0.020442076139284462 -0.0014192970188112541 -0.014512549864112668 -0.012312019091602589 -0.02047095110848504 0.01288448406445438 -0.010680384912849955
0.0012044923025438092 -0.012236726272858947 -0.0012675566225926803 -0.005329954235958449 -0.0036494136963997922 0.0005674700588549068 0.026299976019009096 -0.0171372588021052
-0.013286032212645215 -0.0204871016570027 0.03365025236582623 -0.025191430965817996 0.014753572773351863 -0.030116017627005918 0.13145765419136893 0.6936137388323916
-0.012258187534718853 -0.0103754908844563 0.0049789496374556775 -0.0009197070517942675 -0.003523921186226195 0.014423919029345951 0.008225219470145321 -0.008744467750347798
-0.0023152639382637164 -0.0012642500086322314 0.006675500555659285 -0.004384699291970538 0.0033114348677493835 0.011285986897067985 0.007931126604614383 -0.015605204676923964
00000000: 54c0 0ba7 89d1 70bf 9185 c15a b9eb 7abf
00000010: fb16 4b0d 98b5 713f 5223 fe11 dba2 443f
00000020: c6b9 a8e9 928a 7c3f e738 7f0d 4c3f 3e3f
00000030: 5541 3bdd ab19 6fbf 30d5 781d 7005 893f
00000040: eb9b b89f 9153 7b3f a873 52a2 27a9 8e3f
00000050: a12a c60c e8c1 643f a588 8946 6c33 72bf
00000060: 058c 6baa 8aea 3abf 94be 283b 5c45 7f3f
00000070: 7456 954f a8f3 553f 1119 5928 cf9f 73bf
00000080: 730e 1bd7 f18e 7b3f ed50 fb60 9c7d 76bf
00000090: 7080 4f90 2e2f 74bf 973c 017d 745f 75bf
000000a0: d30d fa23 e8bb 82bf bb64 3621 64a3 70bf
000000b0: 99b0 2194 6b47 76bf 113f ea33 d365 64bf
000000c0: 9a6d 262e a976 303f 32a0 8f32 5b9b 92bf
000000d0: 55b2 17db 1c49 6fbf 48f6 2eb2 ad8c 3fbf
000000e0: 2a09 e68a 4cf9 87bf 1837 bffc 6e6d 93bf
000000f0: f305 72fa fae7 71bf 0958 d367 2578 923f
00000100: 134b c09b ae1b 89bf b065 bb5d c626 613f
00000110: 80e6 de31 86e4 6c3f aa0a d76d 8afb 5ebf
00000120: fbdb 3562 1cf2 45bf 0144 c1be a3c4 76bf
00000130: 1913 6b6d 8b80 653f 6438 1a9c 9faf 77bf
00000140: f453 645c 1a8e 83bf ce00 ec56 a518 93bf
00000150: 1b47 f66f 76c8 653f b636 17bc 8668 7bbf
00000160: ea54 70d2 efd7 20bf b8a8 0452 5d9d 953f
00000170: dba4 eb88 a15f a43f eaf2 2da5 31bf ec3f
00000180: 42f4 4bfb be91 75bf 31d5 bedf aca6 5d3f
00000190: 0467 2978 0d99 743f cd56 1e62 8c0b 7e3f
000001a0: 9101 03c8 cad5 863f fcfd 2d3c bc30 5dbf
000001b0: fcca bc90 ddad 27bf 68ab 18a4 3d12 5ebf
000001c0: b072 de84 4fc4 65bf e894 b189 43c9 733f
000001d0: 4d99 5d9c 22fa 843f c5c6 2f78 8419 603f
000001e0: ff63 6c18 08c1 733f f2dd 1804 4ba2 323f
000001f0: dfa0 b59e 9eaf 7e3f 7a8c 6db7 2b71 5a3f
00000200: a105 9df5 2981 883f 0cf0 d38a dea2 77bf
00000210: 1b4b 1027 0648 81bf d407 23b6 fbcd 92bf
00000220: e382 08d6 089c 78bf 3fef 1eaa 57fc 70bf
00000230: 7ce7 e9ee 183e 703f c80d 2259 bfb2 8bbf
00000240: c149 14a3 8b12 63bf 3519 0b9b c275 9ebf
00000250: a0ef 45da 888e 5cbf e791 36a0 2a52 86bf
00000260: 87b8 218e 0728 8cbf 17f8 7f2e eaa6 91bf
00000270: 837e ee3c 9b35 733f b245 97d8 5f8b 73bf
00000280: 4c1a 5d53 73e8 63bf a6f6 ebc1 da81 68bf
00000290: 4bfd a453 038b 873f dec4 d263 9456 403f
000002a0: ca0f d44f 90e0 5abf 6157 4192 5a4f 78bf
000002b0: 37be a2fa c1a2 7b3f 2c8e 2e87 ce9b 8abf
000002c0: b674 660d 6869 8bbf ba43 b14a c22e 94bf
000002d0: f361 7af2 13de 8b3f 2330 a136 f6dc 6dbf
000002e0: 0208 0877 615a 833f 6515 33d6 a582 883f
000002f0: 3bd1 8920 06e6 ae3f 58e8 a3ce cc02 eb3f
00000300: f1ad 3586 9230 7a3f 2fbf 3fa0 08b4 843f
00000310: 2b89 0fbc 752d 46bf e24d dccc f110 7ebf
00000320: 13c6 ccc9 dd3a 553f 49ce 0f21 c4ec 63bf
00000330: 71e8 10a1 5bfb 5fbf e0c0 859c 616c 8b3f
00000340: 0c7f 63f8 efa5 673f f2d1 6be0 0aad 783f
00000350: c8f7 1f45 22b6 663f 5c8c 0f50 fb9c 69bf
00000360: a102 8bcb fdd9 66bf fca7 5b28 210e 71bf
00000370: dbd4 6ac0 b078 773f 0b6b 6c9c 686f 7bbf
00000380: e3e5 98a2 1a91 81bf 556f d272 4c08 39bf
00000390: c92f 3779 4523 553f d951 b398 3f08 79bf
000003a0: c2b2 c050 70ad 74bf d833 4331 78a3 633f
000003b0: 9368 b0a1 41ef 87bf de47 b257 a314 49bf
000003c0: 0c45 6bf6 cf38 87bf 2110 4945 93f0 6cbf
000003d0: 54ff a16c 5cb6 66bf 60c2 8962 1ebc 743f
000003e0: e938 8848 ebac 6c3f 3690 c567 e4ca 75bf
000003f0: 9528 8ccf 6200 46bf 7bcb 45e9 aa70 993f
00000400: c5ef 3869 b8ff 5cbf 1721 d91b a81d 6f3f
00000410: 89aa e735 90a6 69bf 8c75 758e 2e69 8b3f
00000420: a242 dc13 3af2 763f a771 6817 e318 643f
00000430: 1d1b b175 4969 873f 56f6 2037 de0e 26bf
00000440: f6db 5048 9293 573f bddd 26b2 aebb a1bf
00000450: 8084 6630 26cc 863f 11b5 eefb ba05 92bf
00000460: 3e19 584f dbf2 38bf 1a7c 95cb c000 8ebf
00000470: d1fd 34fb d9f9 b23f e932 a2c5 67d9 e93f
00000480: ec9e afe9 18c0 8bbf 1b0f 6ead 6b9c 82bf
00000490: 9219 d11c 6f8e 5a3f 1617 d8ea e331 833f
000004a0: 7ed4 b4e9 3f08 6d3f ad35 c1ad 5808 743f
000004b0: 0841 1d23 bdac 5e3f bf72 746b b8fc 74bf
000004c0: 3939 1c49 240a 67bf c02d f7ab 64f5 7ebf
000004d0: 72bb 83af 72a3 803f 8b72 c9e8 2b3e 6abf
000004e0: 4d85 dd86 bad4 813f 94b6 1c4d 931b 22bf
000004f0: b31a 6377 a2ca 823f d55d 4fa5 503b 83bf
00000500: 976c 3016 07df 7e3f 46a1 76d6 b174 67bf
00000510: 39ce eed8 d472 55bf c085 e984 6ab8 8dbf
00000520: ea97 8c01 f0e9 75bf 63eb a0df 5e8b 8abf
00000530: 569e 6b38 3603 813f 728d 60f6 e8d4 83bf
00000540: 53a2 3e0c c341 703f 037f 6f42 8289 71bf
00000550: f6df 6431 2e2f 68bf c2d8 3a7b edc2 97bf
00000560: 8c5e 262d 0db3 8cbf aede 93b4 cd16 46bf
00000570: 7e18 0b0e de6a 70bf 04ca 1a6b cbe4 84bf
00000580: 38bc 4379 edd7 8bbf 63b7 fdae 9759 4e3f
00000590: de0a ff68 78cd 7e3f f77b 506f 5596 80bf
000005a0: 0d80 beae f668 74bf 9dc8 ad43 32be 57bf
000005b0: e832 fe2f 034f 953f 69e7 25e7 141e 97bf
000005c0: b58b 2f23 7254 7fbf d860 b5f7 57ca 96bf
000005d0: ccd8 83b9 e30a a23f e73d 92a1 1b54 96bf
000005e0: dd80 c42c 7f2a 793f af45 fe94 a3fc 96bf
000005f0: 163e e4a9 c1e9 bc3f e4a2 5c6c 11de e73f
00000600: ee21 032a a219 8fbf 0cdc abaf 0cf1 82bf
00000610: f996 cafb 896d 8a3f e449 3a42 0244 74bf
00000620: 30b3 7f5e 93c0 00bf 0abe 209b c09e 753f
00000630: 3029 3492 00ef 683f 8c70 b6da 81b0 5cbf
00000640: b72c 99f1 2a7d 8a3f 2240 ed37 f6ba 5fbf
00000650: ec72 7499 b24f 6b3f d359 9732 e3ee 81bf
00000660: 1425 162a a86d 2a3f 7f7e c0a4 a930 483f
00000670: 0069 bc03 daf9 60bf 816a 449f 0def 84bf
00000680: 0083 ee62 d35c 77bf ad45 b418 f7b0 6a3f
00000690: 77fa f103 63ee 723f d85f c855 a90f 84bf
000006a0: 15f7 a5ae e59f 77bf 50b3 29d1 567c 87bf
000006b0: 1ba3 dc3a 18f1 7d3f dc1a c79c 7b45 92bf
000006c0: d5b4 c6b7 96d5 7dbf 341a ec81 c4ee 94bf
000006d0: aed9 dc91 f640 57bf c72a 6278 c1b8 8dbf
000006e0: edef c43a 0b37 89bf 38a7 1d46 56f6 94bf
000006f0: eb18 762d 2e63 8a3f 436a 46ff 98df 85bf
00000700: b8ab 0dc3 01bc 533f 285d 3799 910f 89bf
00000710: 99ed 598f 84c4 54bf 4534 1fb2 dcd4 75bf
00000720: c735 380f 60e5 6dbf f916 10ac 4898 423f
00000730: 9685 8c83 61ee 9a3f 2f7c 64f8 6d8c 91bf
00000740: b37a c60e b535 8bbf b536 6d1e 92fa 94bf
00000750: 45a5 d31a 9b3a a13f e0ee 8c50 c8cb 99bf
00000760: 7951 7c04 1f37 8e3f c9cc 2cbb bbd6 9ebf
00000770: 85c8 c7ba 9ad3 c03f cfec 8a70 1532 e63f
00000780: be0e 8f14 d21a 89bf afbf 3ad0 be3f 85bf
00000790: dbe5 c79d ce64 743f 7235 ccda 0f23 4ebf
000007a0: 93e6 f3c7 32de 6cbf 51ec 16a4 498a 8d3f
000007b0: 8279 0345 62d8 803f d5c1 1198 9ee8 81bf
000007c0: a4b9 afdc 75f7 62bf 0e0d 3a1c a6b6 54bf
000007d0: b2c2 2209 c557 7b3f 312a fdc0 b0f5 71bf
000007e0: 95d3 b60e 9520 6b3f d707 0285 1b1d 873f
000007f0: c818 19cb 313e 803f 8bd1 e01d 9ff5 8fbf
