exp/data_checkpoints/Model_hs1_bs32_e100_new/checkpoint.pth (torch, 72377 bytes, 114 tensors)

inv_timescales f8 [1]
00000000: 0000 0000 0000 f03f
1.0

blocks1.SCINet_Tree.workingblock.interact.level.phi.1.weight f8 [1, 1, 5]
00000000: f0e5 5e34 8a3b c13f 9d74 a815 60f9 c8bf
00000010: 4581 ad42 998c c1bf 80b0 2a45 d446 8c3f
00000020: fc3c a301 f8ea c03f
0.13462951237833876 -0.19511033113022772 -0.13710323100804991 0.013806970940400953 0.13217067794764847

blocks1.SCINet_Tree.workingblock.interact.level.phi.1.bias f8 [1]
00000000: bc84 d179 7efe dbbf
-0.43740808388072216

blocks1.SCINet_Tree.workingblock.interact.level.phi.4.weight f8 [1, 1, 3]
00000000: c446 2a13 e659 c03f e517 0e17 9c8e 833f
00000010: b650 090c 8a9e acbf
0.1277434915141865 0.009549350217422823 -0.05589705845764696

blocks1.SCINet_Tree.workingblock.interact.level.phi.4.bias f8 [1]
00000000: 5190 b21e 283d f4bf
-1.2649308394548096

blocks1.SCINet_Tree.workingblock.interact.level.psi.1.weight f8 [1, 1, 5]
00000000: f3d2 6600 1cae c4bf ebbc 278b 9b70 d5bf
00000010: 7cdb 5865 5d7a d5bf b65d f7eb 3b57 e0bf
00000020: 7c61 24ac bbf4 a33f
-0.16156339664089323 -0.3349980219781645 -0.3355935563771977 -0.510648690101269 0.038976540339890925

blocks1.SCINet_Tree.workingblock.interact.level.psi.1.bias f8 [1]
00000000: 6338 d200 a2b2 e6bf
-0.7093057647741826

blocks1.SCINet_Tree.workingblock.interact.level.psi.4.weight f8 [1, 1, 3]
00000000: 79bd 6993 2306 dc3f 191a e8db 4b5f e93f
00000010: 9344 6cf5 4231 e13f
0.43787469287686737 0.7928828520824168 0.5372633737007554

blocks1.SCINet_Tree.workingblock.interact.level.psi.4.bias f8 [1]
00000000: a8ad e541 8b35 d7bf
-0.3626430648352774

blocks1.SCINet_Tree.workingblock.interact.level.P.1.weight f8 [1, 1, 5]
00000000: 764c 5e2d f710 b3bf 4ade fa26 d291 b43f
00000010: c84f 91ea 4eed eb3f 7f83 bf33 3684 f1bf
00000020: f51a 6b03 d86d a4bf
-0.07447762353540263 0.0803500504651932 0.8727182942770861 -1.0947782536897817 -0.03990054170349381

blocks1.SCINet_Tree.workingblock.interact.level.P.1.bias f8 [1]
00000000: ae2e 7168 93de b9bf
-0.10105248737198266

blocks1.SCINet_Tree.workingblock.interact.level.P.4.weight f8 [1, 1, 3]
00000000: bb9b 3300 f64f e2bf 526c ba75 6685 0740
00000010: 16cf 3b0a 7971 0740
-0.5722608570039179 2.9401368329541038 2.9304066466810452

blocks1.SCINet_Tree.workingblock.interact.level.P.4.bias f8 [1]
00000000: 4fb0 17ec b375 e6bf
-0.7018680201704316

blocks1.SCINet_Tree.workingblock.interact.level.U.1.weight f8 [1, 1, 5]
00000000: 0467 046d f0d2 9a3f 1523 f5e7 cb52 a5bf
00000010: cebb 3141 5ca2 d63f 32a0 5f5b 762d cbbf
00000020: 4c62 fff1 f915 dc3f
0.026195294050103804 -0.04164731222642196 0.3536596905386745 -0.2123249002609114 0.43884132988526825

blocks1.SCINet_Tree.workingblock.interact.level.U.1.bias f8 [1]
00000000: 3047 727d f675 dcbf
-0.44469988108277203

blocks1.SCINet_Tree.workingblock.interact.level.U.4.weight f8 [1, 1, 3]
00000000: 1b3a a08e c242 b4bf 77cf 8400 0f05 b7bf
00000010: 88b6 6766 f246 b6bf
-0.07914367658688841 -0.0899209381357745 -0.08702006340146273

blocks1.SCINet_Tree.workingblock.interact.level.U.4.bias f8 [1]
00000000: 0491 a909 7adc cf3f
0.2489159152202164

blocks1.SCINet_Tree.SCINet_Tree_odd.workingblock.interact.level.phi.1.weight f8 [1, 1, 5]
00000000: aaa5 daae 87d5 c03f d61b 9e60 8e57 c13f
00000010: 719a f457 8be5 73bf d99c 2f75 dbce a93f
00000020: e872 a049 fa5d cdbf
0.13151641881749515 0.1354845020070729 -0.004857582388729229 0.0504063206242848 -0.22943047137314143

blocks1.SCINet_Tree.SCINet_Tree_odd.workingblock.interact.level.phi.1.bias f8 [1]
00000000: c0a8 8d63 1e33 dabf
-0.409370038242411

blocks1.SCINet_Tree.SCINet_Tree_odd.workingblock.interact.level.phi.4.weight f8 [1, 1, 3]
00000000: f82d caca ca6d a0bf e15a 3b6b f911 c3bf
00000010: 94c2 73d4 64c5 c8bf
-0.032087647680864195 -0.148986031874947 -0.19352398275033933

blocks1.SCINet_Tree.SCINet_Tree_odd.workingblock.interact.level.phi.4.bias f8 [1]
00000000: e719 2243 0dcd dbbf
-0.4343903689954502

blocks1.SCINet_Tree.SCINet_Tree_odd.workingblock.interact.level.psi.1.weight f8 [1, 1, 5]
00000000: f74c c3fe f804 b43f 334f c1f9 7152 c9bf
00000010: e169 d92e 886f b1bf adb0 7642 0fc5 d63f
00000020: ccab 813f 00f7 e63f
0.07820087642476269 -0.19782852835725748 -0.06810809272557307 0.35577756395901866 0.7176514854776257

blocks1.SCINet_Tree.SCINet_Tree_odd.workingblock.interact.level.psi.1.bias f8 [1]
00000000: 7e33 6096 3696 f3bf
-1.2241731523565416

blocks1.SCINet_Tree.SCINet_Tree_odd.workingblock.interact.level.psi.4.weight f8 [1, 1, 3]
00000000: 2d3a e43c ecfb cd3f 190e 17d6 0e67 d33f
00000010: 5269 be88 35bf f03f
0.23425057385652917 0.30316515834076224 1.0466819135241008

blocks1.SCINet_Tree.SCINet_Tree_odd.workingblock.interact.level.psi.4.bias f8 [1]
00000000: 72d0 ae2a 51ed f7bf
-1.4954387347507034

blocks1.SCINet_Tree.SCINet_Tree_odd.workingblock.interact.level.P.1.weight f8 [1, 1, 5]
00000000: a771 5904 084e c8bf 20b1 eb68 a685 debf
00000010: 7372 8ea0 9864 d6bf 0a02 16ad a64f c2bf
00000020: 95e5 be53 2e99 d13f
-0.18988132679340916 -0.47690735098037074 -0.3498899047788548 -0.1430557580133754 0.2749744241551409

blocks1.SCINet_Tree.SCINet_Tree_odd.workingblock.interact.level.P.1.bias f8 [1]
00000000: dc2d 7e07 2c21 af3f
0.06079995719400319

blocks1.SCINet_Tree.SCINet_Tree_odd.workingblock.interact.level.P.4.weight f8 [1, 1, 3]
00000000: ee78 0b4c e5b8 b3bf c911 b9ab 3b1b abbf
00000010: 497b 79ea 763e d0bf
-0.07704003435671655 -0.05294214698054451 -0.25381253145126387

blocks1.SCINet_Tree.SCINet_Tree_odd.workingblock.interact.level.P.4.bias f8 [1]
00000000: d896 0162 8058 cabf
-0.20582585130175945

blocks1.SCINet_Tree.SCINet_Tree_odd.workingblock.interact.level.U.1.weight f8 [1, 1, 5]
00000000: b751 6b9d 8b15 c6bf 0628 e419 b7ae c8bf
00000010: 85f8 14d4 0b32 de3f 304f c4bc c474 ca3f
00000020: 96ef d648 e778 d23f
-0.17253251253590715 -0.19283188595028394 0.4718045779335472 0.20668849198465855 0.28862936127893

blocks1.SCINet_Tree.SCINet_Tree_odd.workingblock.interact.level.U.1.bias f8 [1]
00000000: 95b5 2214 b6c9 e4bf
-0.6496229546807394

blocks1.SCINet_Tree.SCINet_Tree_odd.workingblock.interact.level.U.4.weight f8 [1, 1, 3]
00000000: 98e4 09b6 d3f8 c4bf f331 8dd5 dcab e73f
00000010: 7f2c 6359 40cb e83f
-0.16384359730344467 0.7397293253830511 0.7748109575126277

blocks1.SCINet_Tree.SCINet_Tree_odd.workingblock.interact.level.U.4.bias f8 [1]
00000000: 6a71 87d2 8aaf c5bf
-0.16941962508907277

blocks1.SCINet_Tree.SCINet_Tree_odd.SCINet_Tree_odd.workingblock.interact.level.phi.1.weight f8 [1, 1, 5]
00000000: 91dd 45dc 421e c7bf 5dc4 3864 f9a4 d6bf
00000010: 1a5b e7f8 9eea bbbf 4746 659d c854 e4bf
00000020: ad64 39d6 02a8 d23f
-0.18061099772942815 -0.35381922518997105 -0.10904878212691607 -0.6353495668537982 0.29150458259898465

blocks1.SCINet_Tree.SCINet_Tree_odd.SCINet_Tree_odd.workingblock.interact.level.phi.1.bias f8 [1]
00000000: d866 8dce 0099 cb3f
0.21560678563655844

blocks1.SCINet_Tree.SCINet_Tree_odd.SCINet_Tree_odd.workingblock.interact.level.phi.4.weight f8 [1, 1, 3]
00000000: 79ba 1e05 2041 e03f 8cb2 fda8 1111 ce3f
00000010: 1e79 670e 0b80 db3f
0.5079498386383668 0.2348959040786166 0.42969013601931916

blocks1.SCINet_Tree.SCINet_Tree_odd.SCINet_Tree_odd.workingblock.interact.level.phi.4.bias f8 [1]
00000000: 32bd 8278 deed eabf
-0.8415367463802907

blocks1.SCINet_Tree.SCINet_Tree_odd.SCINet_Tree_odd.workingblock.interact.level.psi.1.weight f8 [1, 1, 5]
00000000: fe96 5148 bd60 b43f 4787 498a 32a8 b13f
00000010: 77cb c63a 8933 d53f c385 0dd6 2b94 e6bf
00000020: 6886 a1c5 fd19 d4bf
0.0796011258658744 0.06897273899224131 0.33127051105400745 -0.7055873089522539 -0.3140863828649345

blocks1.SCINet_Tree.SCINet_Tree_odd.SCINet_Tree_odd.workingblock.interact.level.psi.1.bias f8 [1]
00000000: 6720 8526 d781 ce3f
0.23833741551266316

blocks1.SCINet_Tree.SCINet_Tree_odd.SCINet_Tree_odd.workingblock.interact.level.psi.4.weight f8 [1, 1, 3]
00000000: 2454 9876 5599 f8bf 45f8 3bda 0edb f1bf
00000010: a9b2 fe66 175f e4bf
-1.5374350197428237 -1.1159809613013902 -0.636607838785115

blocks1.SCINet_Tree.SCINet_Tree_odd.SCINet_Tree_odd.workingblock.interact.level.psi.4.bias f8 [1]
00000000: 3a72 bcbf a30a c6bf
-0.1721996961795343

blocks1.SCINet_Tree.SCINet_Tree_odd.SCINet_Tree_odd.workingblock.interact.level.P.1.weight f8 [1, 1, 5]
00000000: b329 38f9 777d d13f abdd 779a 3fe8 9fbf
00000010: 9c22 3845 0764 d03f 83cd 593a 9966 dbbf
00000020: e076 bb34 293a d7bf
0.27328299844580356 -0.03115939503001434 0.25610524902053 -0.4281371183235125 -0.3629248633350084

blocks1.SCINet_Tree.SCINet_Tree_odd.SCINet_Tree_odd.workingblock.interact.level.P.1.bias f8 [1]
00000000: 8f06 9e85 56dc 913f
0.01744208517584994

blocks1.SCINet_Tree.SCINet_Tree_odd.SCINet_Tree_odd.workingblock.interact.level.P.4.weight f8 [1, 1, 3]
00000000: d00a 9065 c3f3 9cbf 3b13 3aa6 5b5a a9bf
00000010: 2f5b 56fd efaf b7bf
-0.02827363307370484 -0.04951750187050271 -0.09252834258073216

blocks1.SCINet_Tree.SCINet_Tree_odd.SCINet_Tree_odd.workingblock.interact.level.P.4.bias f8 [1]
00000000: 0443 f776 e4a4 d33f
0.3069392358566321

blocks1.SCINet_Tree.SCINet_Tree_odd.SCINet_Tree_odd.workingblock.interact.level.U.1.weight f8 [1, 1, 5]
00000000: 0d9c b0c8 b98f d53f 4f73 d93d 2a81 c13f
00000010: 90f9 44ae a6f2 c43f 24ac f482 6155 dfbf
00000020: cc9f 83df 5a0e e7bf
0.3368973216879006 0.13675430316916468 0.16365512379884395 -0.48958623684547065 -0.7205023160467987

blocks1.SCINet_Tree.SCINet_Tree_odd.SCINet_Tree_odd.workingblock.interact.level.U.1.bias f8 [1]
00000000: 7ccc a8aa 50e9 c03f
0.13212021191575107

blocks1.SCINet_Tree.SCINet_Tree_odd.SCINet_Tree_odd.workingblock.interact.level.U.4.weight f8 [1, 1, 3]
00000000: f584 458d 5a49 cabf 26b5 e8b4 b7b0 ebbf
00000010: 8466 b9bc f43e fcbf
-0.20536357782388107 -0.8653219731692487 -1.765370118335711

blocks1.SCINet_Tree.SCINet_Tree_odd.SCINet_Tree_odd.workingblock.interact.level.U.4.bias f8 [1]
00000000: 01b5 0b7c a051 b73f
0.09108927753887387

blocks1.SCINet_Tree.SCINet_Tree_odd.SCINet_Tree_even.workingblock.interact.level.phi.1.weight f8 [1, 1, 5]
00000000: c7bd 98f2 8334 c63f d33d 70f0 e473 c6bf
00000010: e240 36f9 50b8 b83f 1811 534a 3dea d7bf
00000020: 376c d670 6e0d d8bf
0.17347764344729752 -0.17541181316526763 0.09656244358325553 -0.3736718393158909 -0.3758197881631448

blocks1.SCINet_Tree.SCINet_Tree_odd.SCINet_Tree_even.workingblock.interact.level.phi.1.bias f8 [1]
00000000: 3847 25c2 d4c3 e33f
0.6176551620394326

blocks1.SCINet_Tree.SCINet_Tree_odd.SCINet_Tree_even.workingblock.interact.level.phi.4.weight f8 [1, 1, 3]
00000000: c777 1a20 6d18 d5bf a9f8 28b6 4f4c e2bf
00000010: 218c 3e63 cfc0 d6bf
-0.32961586127373405 -0.5718153531850209 -0.35551819507435495

blocks1.SCINet_Tree.SCINet_Tree_odd.SCINet_Tree_even.workingblock.interact.level.phi.4.bias f8 [1]
00000000: 17f8 9509 dac2 c9bf
-0.20125890224511586

blocks1.SCINet_Tree.SCINet_Tree_odd.SCINet_Tree_even.workingblock.interact.level.psi.1.weight f8 [1, 1, 5]
00000000: a2cd 2877 6c9b ea3f 01c7 5599 9188 d53f
00000010: 8c27 b3e9 ff52 db3f e73b 7a0a 7f4a e23f
00000020: b0f5 c4f7 554b da3f
0.8314726188022414 0.33646049474837986 0.426940897200091 0.5715937809599126 0.41084813305118484

blocks1.SCINet_Tree.SCINet_Tree_odd.SCINet_Tree_even.workingblock.interact.level.psi.1.bias f8 [1]
00000000: 08e0 dc1d 828e f13f
1.0972920576587075

blocks1.SCINet_Tree.SCINet_Tree_odd.SCINet_Tree_even.workingblock.interact.level.psi.4.weight f8 [1, 1, 3]
00000000: 9991 737d 95e5 f3bf fe97 022d 4cef e9bf
00000010: 72b0 4aed 0e72 e5bf
-1.2435507679411784 -0.810461128149427 -0.670173133335551

blocks1.SCINet_Tree.SCINet_Tree_odd.SCINet_Tree_even.workingblock.interact.level.psi.4.bias f8 [1]
00000000: 0cc8 a3cc 70d1 f0bf
-1.051132964490992

blocks1.SCINet_Tree.SCINet_Tree_odd.SCINet_Tree_even.workingblock.interact.level.P.1.weight f8 [1, 1, 5]
00000000: 9300 e89f a52f c4bf e29b 7381 f079 ca3f
00000010: 8795 fbd9 9ef2 c7bf 768b 9708 03bf e5bf
00000020: a793 7765 3630 e0bf
-0.15770407016680518 0.20684629746321465 -0.18709169048012717 -0.6795668762027691 -0.5058853132037385

blocks1.SCINet_Tree.SCINet_Tree_odd.SCINet_Tree_even.workingblock.interact.level.P.1.bias f8 [1]
00000000: 0e40 007f d1f0 93bf
-0.019473336578869342

blocks1.SCINet_Tree.SCINet_Tree_odd.SCINet_Tree_even.workingblock.interact.level.P.4.weight f8 [1, 1, 3]
00000000: 1c5c b4c3 f406 c93f 9782 c805 37b4 d13f
00000010: 7775 6961 0521 de3f
0.19552478366742398 0.276624446532915 0.4707654429710923

blocks1.SCINet_Tree.SCINet_Tree_odd.SCINet_Tree_even.workingblock.interact.level.P.4.bias f8 [1]
00000000: 0e60 2e63 d062 dbbf
-0.42790612874660006

blocks1.SCINet_Tree.SCINet_Tree_odd.SCINet_Tree_even.workingblock.interact.level.U.1.weight f8 [1, 1, 5]
00000000: 1202 465e acad e5bf e3d1 2cd3 5f37 85bf
00000010: 34aa b4c2 5536 c33f d1cd d69c 60ba de3f
00000020: fd1b 83ea c592 de3f
-0.6774503556517308 -0.010359524375965051 0.150095672675279 0.4801255733138677 0.47770831967903843

blocks1.SCINet_Tree.SCINet_Tree_odd.SCINet_Tree_even.workingblock.interact.level.U.1.bias f8 [1]
00000000: a861 5766 a5d0 d5bf
-0.3408597468783463

blocks1.SCINet_Tree.SCINet_Tree_odd.SCINet_Tree_even.workingblock.interact.level.U.4.weight f8 [1, 1, 3]
00000000: 9d5e 9f3b d72d d83f 681c 7f98 344a d53f
00000010: d9c2 8a81 9747 d53f
0.3777978975535719 0.3326541413520716 0.3324946179446165

blocks1.SCINet_Tree.SCINet_Tree_odd.SCINet_Tree_even.workingblock.interact.level.U.4.bias f8 [1]
00000000: c1ff 3c4e dad5 d73f
0.37242753639656817

blocks1.SCINet_Tree.SCINet_Tree_even.workingblock.interact.level.phi.1.weight f8 [1, 1, 5]
00000000: c943 5a36 3be9 89bf bee0 9ffb 8a06 b5bf
00000010: 35ef 4462 cdd0 c43f 494e 2e0b 6ec5 bd3f
00000020: 7f1f 5a15 df61 db3f
-0.012651884647569294 -0.08213108676125366 0.16262213991455501 0.11629379055948975 0.4278485973850294

blocks1.SCINet_Tree.SCINet_Tree_even.workingblock.interact.level.phi.1.bias f8 [1]
00000000: ecdb fc58 b114 f2bf
-1.130051944359134

blocks1.SCINet_Tree.SCINet_Tree_even.workingblock.interact.level.phi.4.weight f8 [1, 1, 3]
00000000: edbc 483a 1c38 debf fc09 7f33 b045 e2bf
00000010: 64ff de5c 6b58 e4bf
-0.47217469875154344 -0.5710068708215768 -0.6357933820618027

blocks1.SCINet_Tree.SCINet_Tree_even.workingblock.interact.level.phi.4.bias f8 [1]
00000000: aba6 a953 10db e53f
0.6829911836659525

blocks1.SCINet_Tree.SCINet_Tree_even.workingblock.interact.level.psi.1.weight f8 [1, 1, 5]
00000000: ecff 5832 f7a9 803f 8a98 9177 5732 96bf
00000010: a7ef a2e4 55d4 d73f 1582 fe8a 8043 c2bf
00000020: 503e ff1f 92db d53f
0.00813668367766237 -0.02167641322412143 0.3723349316385289 -0.14268500124764275 0.34152653813086875

blocks1.SCINet_Tree.SCINet_Tree_even.workingblock.interact.level.psi.1.bias f8 [1]
00000000: ea6b d2c5 ee12 f2bf
-1.1296222426815299

blocks1.SCINet_Tree.SCINet_Tree_even.workingblock.interact.level.psi.4.weight f8 [1, 1, 3]
00000000: a238 34bc e483 d2bf db02 225d 9293 e1bf
00000010: e38f 64fd 9117 ddbf
-0.2893001401834089 -0.5492641276360603 -0.45456361527817374

blocks1.SCINet_Tree.SCINet_Tree_even.workingblock.interact.level.psi.4.bias f8 [1]
00000000: f6d8 e8e7 4a0e de3f
0.46962235114496254

blocks1.SCINet_Tree.SCINet_Tree_even.workingblock.interact.level.P.1.weight f8 [1, 1, 5]
00000000: d6f4 d862 6ded c8bf 2c8c 15f2 b417 bbbf
00000010: d88a 34fd 4b6b aa3f ee0b cdfd bd32 dc3f
00000020: 2f53 079a 1f39 d13f
-0.19474570585763357 -0.10583048734911021 0.05159985986599275 0.44059705529451676 0.2691115383325266

blocks1.SCINet_Tree.SCINet_Tree_even.workingblock.interact.level.P.1.bias f8 [1]
00000000: cb96 5cd3 92a6 f1bf
-1.103167367583796

blocks1.SCINet_Tree.SCINet_Tree_even.workingblock.interact.level.P.4.weight f8 [1, 1, 3]
00000000: 982f 56e3 6825 bf3f 259f c9b4 5dcf c43f
00000010: 26cd 317f cbe7 cd3f
0.12166457700931088 0.1625783093215826 0.23363631926222544

blocks1.SCINet_Tree.SCINet_Tree_even.workingblock.interact.level.P.4.bias f8 [1]
00000000: f8a3 dc6a 6a5c e5bf
-0.6675312125345263

blocks1.SCINet_Tree.SCINet_Tree_even.workingblock.interact.level.U.1.weight f8 [1, 1, 5]
00000000: 3d7e 344b b12d c1bf c99a 3430 8d09 a9bf
00000010: df11 f91b 8b13 e03f c4b7 1a92 8bb2 b23f
00000020: ad5c c595 498c c8bf
-0.13420692607995646 -0.04890099729009518 0.5023856684061306 0.07303688351632248 -0.19178123295816843

blocks1.SCINet_Tree.SCINet_Tree_even.workingblock.interact.level.U.1.bias f8 [1]
00000000: 5efd 0c2b d79b e3bf
-0.6127734986147677

blocks1.SCINet_Tree.SCINet_Tree_even.workingblock.interact.level.U.4.weight f8 [1, 1, 3]
00000000: 38fa eb9e bf4f be3f 668f e2c3 0a35 c2bf
00000010: 98e2 c064 34b5 c4bf
0.11840436582495151 -0.14224371494958205 -0.16177992744066638

blocks1.SCINet_Tree.SCINet_Tree_even.workingblock.interact.level.U.4.bias f8 [1]
00000000: d892 ec7f 2bab b6bf
-0.08854934571406703

blocks1.SCINet_Tree.SCINet_Tree_even.SCINet_Tree_odd.workingblock.interact.level.phi.1.weight f8 [1, 1, 5]
00000000: e790 238e 3c59 b6bf f671 d969 8d85 9e3f
00000010: 83c7 6b27 22e6 c9bf 744e e15c 015c e5bf
00000020: 27f3 34c4 82d4 c93f
-0.08729914159954753 0.02980633696130216 -0.2023356144414344 -0.6674811185898322 0.20179781513606906

blocks1.SCINet_Tree.SCINet_Tree_even.SCINet_Tree_odd.workingblock.interact.level.phi.1.bias f8 [1]
00000000: 4fa1 bd47 491b cf3f
0.24302021029439877

blocks1.SCINet_Tree.SCINet_Tree_even.SCINet_Tree_odd.workingblock.interact.level.phi.4.weight f8 [1, 1, 3]
00000000: ebe4 77ff 257e d1bf 6dae 01d9 10af cdbf
00000010: 7289 6100 56a4 c7bf
-0.2733244890983559 -0.23190508457206552 -0.18470263498881995

blocks1.SCINet_Tree.SCINet_Tree_even.SCINet_Tree_odd.workingblock.interact.level.phi.4.bias f8 [1]
00000000: e46d b545 00a7 cabf
-0.20822146800752173

blocks1.SCINet_Tree.SCINet_Tree_even.SCINet_Tree_odd.workingblock.interact.level.psi.1.weight f8 [1, 1, 5]
00000000: 7192 5622 8e9e ebbf f688 cc27 ea71 f1bf
00000010: 36ad 4ef2 f692 d7bf 34ee 66e6 6d95 953f
00000020: 09f3 fc22 3184 cdbf
-0.8631048842112944 -1.0903111986777367 -0.36834500944924586 0.021077840030313946 -0.23059667786028396

blocks1.SCINet_Tree.SCINet_Tree_even.SCINet_Tree_odd.workingblock.interact.level.psi.1.bias f8 [1]
00000000: ac5b 8b01 e581 d2bf
-0.2891781344491686

blocks1.SCINet_Tree.SCINet_Tree_even.SCINet_Tree_odd.workingblock.interact.level.psi.4.weight f8 [1, 1, 3]
00000000: 982c 7d01 d32f 96bf e82c bc88 ec4a d43f
00000010: c688 74dd dab0 f33f
-0.021666810003165254 0.3170729956916163 1.2306774759859294

blocks1.SCINet_Tree.SCINet_Tree_even.SCINet_Tree_odd.workingblock.interact.level.psi.4.bias f8 [1]
00000000: 4c14 18d9 e0d8 fcbf
-1.8029488067852695

blocks1.SCINet_Tree.SCINet_Tree_even.SCINet_Tree_odd.workingblock.interact.level.P.1.weight f8 [1, 1, 5]
00000000: cb9f f26e 9b99 da3f ebc6 f58e a532 e0bf
00000010: eb45 711d 3d41 ddbf f4f7 b58f a5fc cbbf
00000020: bb74 5062 7b01 e7bf
0.4156254371141556 -0.5061824600399779 -0.45710685611001506 -0.21864766614083886 -0.7189309044075779

blocks1.SCINet_Tree.SCINet_Tree_even.SCINet_Tree_odd.workingblock.interact.level.P.1.bias f8 [1]
00000000: fe5f 06b1 ff9e c83f
0.1923522581462293

blocks1.SCINet_Tree.SCINet_Tree_even.SCINet_Tree_odd.workingblock.interact.level.P.4.weight f8 [1, 1, 3]
00000000: 594b e525 b567 d13f 205e 7e0e d9db c43f
00000010: e6f4 06f1 b317 e7bf
0.27195481014967055 0.162959224774327 -0.7216434199869155

blocks1.SCINet_Tree.SCINet_Tree_even.SCINet_Tree_odd.workingblock.interact.level.P.4.bias f8 [1]
00000000: 9c25 4190 ffaa df3f
0.4948119076476247

blocks1.SCINet_Tree.SCINet_Tree_even.SCINet_Tree_odd.workingblock.interact.level.U.1.weight f8 [1, 1, 5]
00000000: f0c2 d351 4ba9 b8bf 7335 c635 810d cbbf
00000010: 5164 517a dcdb b0bf 3793 83b8 1c00 adbf
00000020: 7aa4 cd8d ffee 623f
-0.09633322475179873 -0.21134963155456496 -0.06585481630590208 -0.05664148094527948 0.0023112288749201322

blocks1.SCINet_Tree.SCINet_Tree_even.SCINet_Tree_odd.workingblock.interact.level.U.1.bias f8 [1]
00000000: 7b15 3628 acd1 cf3f
0.24858619655075728

blocks1.SCINet_Tree.SCINet_Tree_even.SCINet_Tree_odd.workingblock.interact.level.U.4.weight f8 [1, 1, 3]
00000000: 1ba4 c853 2ac6 953f df6e 3203 6fea 8c3f
00000010: 21ab 75c6 ee1e 933f
0.021263753284220237 0.014119021687569453 0.01867268644620446

blocks1.SCINet_Tree.SCINet_Tree_even.SCINet_Tree_odd.workingblock.interact.level.U.4.bias f8 [1]
00000000: b430 a587 4829 a6bf
-0.04328371673418144

blocks1.SCINet_Tree.SCINet_Tree_even.SCINet_Tree_even.workingblock.interact.level.phi.1.weight f8 [1, 1, 5]
00000000: 7bdf 68a4 5373 edbf ee80 6f3f 9670 85bf
00000010: 553d bad7 1638 b43f 7791 8710 848a d03f
00000020: a131 68ed 49ab b63f
-0.9203279696584866 -0.010468648730182353 0.07898085371765735 0.2584543382092969 0.08855115934438242

blocks1.SCINet_Tree.SCINet_Tree_even.SCINet_Tree_even.workingblock.interact.level.phi.1.bias f8 [1]
00000000: 3b8c 740c ae31 eabf
-0.8185644381777658

blocks1.SCINet_Tree.SCINet_Tree_even.SCINet_Tree_even.workingblock.interact.level.phi.4.weight f8 [1, 1, 3]
00000000: 12c8 f2d3 2078 ebbf 4f97 2a6e 2847 dbbf
00000010: 4a74 6fd2 c48e cbbf
-0.8584140910736571 -0.4262181354373426 -0.2152944591061064

blocks1.SCINet_Tree.SCINet_Tree_even.SCINet_Tree_even.workingblock.interact.level.phi.4.bias f8 [1]
00000000: 545c af01 7534 e03f
0.5064034493360716

blocks1.SCINet_Tree.SCINet_Tree_even.SCINet_Tree_even.workingblock.interact.level.psi.1.weight f8 [1, 1, 5]
00000000: b02f 2af5 fa7c 8abf 1583 bb10 c923 ac3f
00000010: b994 eae3 4469 ccbf c671 39f7 b5fa a2bf
00000020: e236 f5f8 b3b2 cfbf
-0.012933693510852468 0.05496052102330943 -0.22196255806662693 -0.037069021633871865 -0.2476410832991212

blocks1.SCINet_Tree.SCINet_Tree_even.SCINet_Tree_even.workingblock.interact.level.psi.1.bias f8 [1]
00000000: 4b2f ed9f 6a76 f1bf
-1.0914102790001887

blocks1.SCINet_Tree.SCINet_Tree_even.SCINet_Tree_even.workingblock.interact.level.psi.4.weight f8 [1, 1, 3]
00000000: ed05 fd48 616a e03f 0eb8 f761 b55c c83f
00000010: 1493 2f80 38e7 e33f
0.5129858422807821 0.19032923968865173 0.6219751838330887

blocks1.SCINet_Tree.SCINet_Tree_even.SCINet_Tree_even.workingblock.interact.level.psi.4.bias f8 [1]
00000000: d1db 6149 2545 05c0
-2.6587625248898594

blocks1.SCINet_Tree.SCINet_Tree_even.SCINet_Tree_even.workingblock.interact.level.P.1.weight f8 [1, 1, 5]
00000000: 116c ff9e 13f6 90bf 4bd5 23eb 3798 c43f
00000010: 0b64 f439 6cbb c33f a7be b692 6ffc da3f
00000020: 54c0 d7b4 481d e03f
-0.016563707904293127 0.16089533788150798 0.15415718869988412 0.42165746047519764 0.5035747081838147

blocks1.SCINet_Tree.SCINet_Tree_even.SCINet_Tree_even.workingblock.interact.level.P.1.bias f8 [1]
00000000: ece3 6e78 6323 e0bf
-0.5043198921404133

blocks1.SCINet_Tree.SCINet_Tree_even.SCINet_Tree_even.workingblock.interact.level.P.4.weight f8 [1, 1, 3]
00000000: ac7d 8567 c523 d53f a8da ee7e 1fa9 d53f
00000010: 1b39 5215 3b85 d33f
0.3303082953406953 0.3384474505977928 0.30500676233431684

blocks1.SCINet_Tree.SCINet_Tree_even.SCINet_Tree_even.workingblock.interact.level.P.4.bias f8 [1]
00000000: 0187 e5b5 9a06 aabf
-0.050831637100385414

blocks1.SCINet_Tree.SCINet_Tree_even.SCINet_Tree_even.workingblock.interact.level.U.1.weight f8 [1, 1, 5]
00000000: e546 c3fa c98c dd3f 4c13 a9f3 ef6f d03f
00000010: aef9 56ae 6988 e6bf 8938 109a 0e41 d8bf
00000020: 79b9 8457 72e1 e3bf
0.4617180775504564 0.25683211131063355 -0.704151955134696 -0.378970766499045 -0.621270342764361

blocks1.SCINet_Tree.SCINet_Tree_even.SCINet_Tree_even.workingblock.interact.level.U.1.bias f8 [1]
00000000: 4de5 ec7b 9439 debf
-0.47226440527045527

blocks1.SCINet_Tree.SCINet_Tree_even.SCINet_Tree_even.workingblock.interact.level.U.4.weight f8 [1, 1, 3]
00000000: a242 e529 2f7e e6bf 6a39 bcf8 e6be e23f
00000010: 5731 5c5f cad4 f13f
-0.7029033487579748 0.5858034952268956 1.1144508099560733

blocks1.SCINet_Tree.SCINet_Tree_even.SCINet_Tree_even.workingblock.interact.level.U.4.bias f8 [1]
00000000: 8afb a757 0671 cd3f
0.23001174240195282

projection1.weight f8 [24, 48, 1]
00000000: c56d cde0 1294 623f 2e11 fbbc 9ffe 1bbf
00000010: 2548 73ec 9e30 643f fe2b 827d 904b 3bbf
00000020: 6a0b ee74 2e4f 5d3f 53a1 632d b01f 613f
00000030: f896 6959 71ae 4f3f 1a25 e4c4 b84c 4fbf
00000040: 0d3f 18c5 b02d 2e3f 0b34 b084 959f 493f
00000050: f4a2 7bf8 f46f 333f 5a03 3de2 7a36 41bf
00000060: 3c93 3fd9 d4f2 31bf 7869 c9ec f74e 4d3f
00000070: a635 1f8a ba64 50bf 940e 0f3b 228e 693f
00000080: d0aa e453 23e3 58bf 09c4 8d3d ebac 633f
00000090: aa04 620f 89d8 3abf a0ed 1c79 6826 62bf
000000a0: 6165 9e2f e785 3abf 0709 d34c eb26 57bf
000000b0: 6ba4 87b6 0511 463f 6aac d69d 51c3 683f
000000c0: f249 4658 c5e0 68bf 6ecd 05fb 1ec2 77bf
000000d0: 45c4 b69c dcf9 4cbf 2c77 8329 59fc 6dbf
000000e0: 114d e64c d6b9 1c3f f4a9 b1d3 3176 2ebf
000000f0: ab28 f00c d670 5abf 6d0e 0959 195a 7f3f
00000100: f053 283f 3dc5 b83e 5f69 292c 0532 5a3f
00000110: b6c7 f464 9038 673f 1340 a45e 1b91 69bf
00000120: 1608 4b63 a4ea 653f c2f8 8b05 5a40 683f
00000130: a21a 5539 77bd 683f 6c69 0eb9 c1a1 76bf
00000140: 6601 5395 162c 40bf a8e4 c7fc ac7f 86bf
00000150: 6153 b8df 5add 59bf e128 55a8 afbf 533f
00000160: 043a f3d6 1d09 6a3f 893e feea ff0f 8bbf
00000170: 9bb4 ba1c bff7 883f d2dc 9ecc 3e69 eb3f
00000180: acdb 7926 ed67 36bf ed40 9f0f d89b 45bf
00000190: ec36 4461 d8cb 643f 2212 b579 5674 5fbf
000001a0: be58 fcdb f980 323f 4118 1a0f ffc6 513f
000001b0: 341f 2a52 2fc3 2b3f ebcf 9151 722a 5e3f
000001c0: c218 b602 7fa3 2d3f b475 39ea ee10 47bf
000001d0: d792 bae8 daca 58bf 2f96 198c 3d26 5abf
000001e0: 58ef 47a5 a639 56bf 415f dae7 2064 5cbf
000001f0: 6c1f 06d2 ba9b 52bf b056 8f2f 1507 663f
00000200: d867 2c22 3c41 4f3f 7900 4ff2 8812 6b3f
00000210: 5ac4 5a9d dc7f 0bbf 8ff1 aa37 b493 53bf
00000220: 4ad5 c35e 3576 37bf b402 3bef e53e 633f
00000230: fa06 6f01 32f2 533f 7fc5 46cb 98e1 4e3f
00000240: 64a7 ca01 f6b9 583f da29 91c8 ca5c 7abf
00000250: cdaf c36f 6abb 52bf 93de 0494 d329 69bf
00000260: 16d8 ba72 688d 41bf adc0 9b8e 8131 5e3f
00000270: 569c a45f 4158 62bf a164 1097 6d48 753f
00000280: f534 b76e 379f 463f 18d1 30c4 e0e3 5a3f
00000290: 077a 1393 cca6 5a3f 35e9 30ae e0a4 66bf
000002a0: cf46 66db 1304 633f ade2 5061 fddb 733f
000002b0: 2d5c 8ee1 acb3 773f 312e b74f 19af 85bf
000002c0: 1502 fce2 3e2c 6d3f 83e1 06b9 25ec 98bf
000002d0: 29b4 2a9e 8a8f 603f d93b 7d29 00a6 81bf
000002e0: f1d7 53e8 5f01 8e3f f496 2892 6edb 94bf
000002f0: e429 791d 36be 993f 6e5d feac fb9f ea3f
00000300: 7aac 0e00 ab79 5abf 9022 8a9d 2c40 573f
00000310: dd73 0fe7 5897 32bf b5ec dab7 4990 43bf
00000320: b8a9 2580 9327 30bf 193f 6d38 3132 6c3f
00000330: edec e666 a2db 523f 0221 bc67 eb4a 55bf
00000340: 06db 2c9d 596c 65bf 3ec3 a96d 4eb9 49bf
00000350: b675 a45b d813 313f 0a50 1ba9 7516 65bf
00000360: 8315 f296 ba3a 51bf 3b8c b04c 171d 59bf
00000370: 3df6 241a 3b2a 40bf dba5 412f 46b2 573f
00000380: 7794 8479 4e6b 61bf 390f 04ef e94f 613f
00000390: 71ac d9c4 8f05 3fbf cdd5 4f86 ee22 69bf
000003a0: 4bd0 5a64 f13c 5fbf 72b9 b079 42ed 613f
000003b0: fad3 4054 b28e 403f 7b07 875e 59c4 723f
000003c0: 7fa4 2232 7126 623f cd0e 42f7 6098 66bf
000003d0: 71bc 2a08 267d 20bf 7d98 37a3 8ade 6dbf
000003e0: 1f25 195d d731 4d3f deba efab 8a47 6b3f
000003f0: 6f97 8e40 93d0 5abf 4630 9fdd cea4 713f
00000400: efde 2a40 9bf4 4b3f 540a bb7a 90cc 713f
00000410: 3075 1989 af85 6a3f 09e2 0444 5070 72bf
00000420: e72c cd42 88a8 6a3f a317 9ed1 2e3d 643f
00000430: 585c 8391 661b 803f 2b71 aa3b 80a7 89bf
00000440: d227 b152 4103 743f 06a2 3645 0871 9ebf
00000450: c9c4 e30e 7833 703f fe7f 02be ef28 96bf
00000460: fef7 ace1 e49e 983f 0508 002e a4fd a0bf
00000470: 5d81 74cf 0bb7 a83f b9ec 98d6 1c62 e93f
00000480: 8326 d043 dbcb 55bf 1156 62e2 c429 403f
00000490: a865 6556 f446 5e3f 0741 1094 b790 4c3f
000004a0: 5a3d 38af f8fe 5f3f c0bb 4b84 9e5a 233f
000004b0: 0c37 f1b8 dd18 563f 5f5b be82 29ff 5e3f
000004c0: 22ca 186e a2ce 253f 46a6 9ba9 bb5b 5abf
000004d0: 6481 d759 305b 1ebf b7c8 eb4e 7eab 59bf
000004e0: c287 1db5 54bc 2c3f b757 6a0f dc86 3abf
000004f0: 9619 6105 b2b4 553f 178e b6de 1e5e 713f
00000500: 7517 a0cc 7914 3d3f 78b6 9a84 ea28 683f
00000510: 3ffa 18d2 917e 493f 582f f784 373d 6bbf
00000520: 8765 db58 126e 1dbf 6673 d062 9fad 6ebf
00000530: cdbb 1f9e de69 37bf 9cd0 9549 252d 4fbf
00000540: 106d f20e b0f0 6c3f 19fb b687 8e55 80bf
00000550: e7af 4e8d 1597 6a3f 0ec7 6694 143f 15bf
00000560: 884a 3f24 1ee0 543f b724 d2f5 0eef 6a3f
00000570: 80fb a158 7172 6ebf 7b9a e91e 7029 6c3f
00000580: 3498 6bc0 58e2 2f3f 3b28 e63f 34f3 493f
00000590: 0d63 e2a0 495d 603f b3ab 762c e7ff 76bf
000005a0: 2fca 7de4 4bb5 673f 10de 99ea 196d 563f
000005b0: 410d 804b d083 823f d5fb 50c7 0836 92bf
000005c0: 386b 12aa 3a78 853f c8a3 e626 5234 a3bf
000005d0: fef0 e982 474a 633f 31a8 37df 9fda a0bf
000005e0: 9d69 e8c2 125b a13f 2ad9 fa85 e5b1 a5bf
000005f0: c770 5113 645a b03f 7f99 b40e cd48 e83f
00000600: d242 f8c1 dae1 553f aad2 5396 f0d7 63bf
00000610: c6b9 1db7 79c6 533f 15a6 af38 3645 593f
00000620: ec33 4f0a d799 613f 6a0e b8e3 f908 5c3f
00000630: 2f9b 6629 7b60 703f 983a 23b0 d5d1 593f
00000640: 896c 6b44 5776 633f 7f34 227f a1ae 713f
00000650: e274 9bde 31ec 49bf c68a 7b9f 3df1 74bf
00000660: 3077 44f2 ba78 30bf 4aac 6367 cc51 63bf
00000670: b6c3 ec9a 2ff7 153f d83a 73dd 2e28 683f
00000680: 6b6a c0fc 5de7 323f 10ec 4ac2 2c62 723f
00000690: 5d76 c7f7 e171 393f 8b4c 56e2 128f 61bf
000006a0: d299 a03a f500 233f 8381 36ee 3df7 70bf
000006b0: c070 91ac 0284 52bf 5c06 57ef f189 623f
000006c0: 4410 6f93 d5ef 673f ab93 9faf 1c82 7cbf
000006d0: c77b 39a7 23d6 533f 5e54 e3cc f6c3 6bbf
000006e0: ea78 4d51 da8d 593f 8c05 d936 99ef 5b3f
000006f0: c177 f6ca 4741 13bf e26d da48 aa33 793f
00000700: aa51 2d76 3145 683f d0d4 2ab0 2252 6a3f
00000710: 2614 7f99 b9ac 683f 8f61 b67f 105a 6fbf
00000720: d748 af33 ad23 793f 0e97 fe13 807f 85bf
00000730: a395 05d7 cc53 863f 69ff 3319 14a3 92bf
00000740: 9a97 cff5 1819 893f f376 4c63 5e5a a4bf
00000750: cfff 3959 c768 52bf bcff 0a5f dcc0 a7bf
00000760: e13a 5822 cedb a63f 7f61 c69a 4af0 abbf
00000770: 1c02 a209 b9cf b63f 12cc db05 1b89 e63f
00000780: ef54 819b 7d57 6a3f b710 61cb 1bf4 2cbf
00000790: 4c76 9cec f728 643f 4d31 4ebc a0c8 373f
000007a0: 5713 be59 d607 5e3f 54d4 5cff c1b4 683f
000007b0: 186d aa76 8e45 723f 862e 85f8 3972 77bf
000007c0: 77cc 590d 92c7 50bf 683c 1167 8254 5a3f
000007d0: 4bd6 765d 59f0 473f 44c9 85b5 6b92 69bf
000007e0: 14db 7145 ca51 6d3f e926 0940 f2d5 62bf
000007f0: 7453 c012 1723 693f eac2 1f4e 38ae 5b3f
0.0022678726876798915 -0.00010679101910244092 0.0024645904519298317 -0.00041649129480764147 0.0017888978652258144 0.002090305420200314 0.0009668401206226187 -0.0009551908677007143
0.00023024351916988602 0.000781963355053984 0.00029659014442855115 -0.000525293351962923 -0.0002738732957808137 0.0008944235392605434 -0.0010005780863936247 0.003119532448609361
-0.001518997668947964 0.0024017900981836465 -0.00040963503068531615 -0.0022155800333202996 -0.00040470976056779766 -0.0014130876400462748 0.0006734159369986675 0.00302282276853343
-0.003036866606813898 -0.00580036260395232 -0.0008842780311423345 -0.003660368103836206 0.00010958071218274505 -0.00023240431059730305 -0.001613816293458951 0.007654284491369273
1.476434814966619e-06 0.001598839808727513 0.002834589023813695 -0.003120950180466772 0.002675362653776335 0.002960372756546454 0.0030200317948215353 -0.005525356988892543
-0.0004935369749077656 -0.010985709633120358 -0.0015786540451518604 0.0012053695111995876 0.0031781752401010017 -0.013214110716744958 0.01219128900933191 0.8565973278517964
-0.0003418878536431368 -0.0006594471917598356 0.0025386072321741306 -0.0019198269354358051 0.0002823457725623749 0.001085042077109147 0.00021181061409358273 0.0018411747353441709
0.0002261250059342798 -0.0007039228989459884 -0.0015132081779622353 -0.0015960312888635521 -0.0013565184973449353 -0.0017328568787089024 -0.0011357616823221795 0.0026889241966994923
0.0009538215275342 0.003304736589115062 -5.2451057553589474e-05 -0.0011948833404594494 -0.00035799792273335086 0.0023493281276788184 0.0012174118362370799 0.000942420584172307
0.001509180299005008 -0.006436149714384299 -0.0011433162135814246 -0.0030717022310929403 -0.0005356559754179392 0.0018428578572944707 -0.0022393490627510655 0.005196025930694821
0.0006903668085499736 0.0016412444099503428 0.0016266820714957457 -0.0027641666688654983 0.002321280272732241 0.004848470464872062 0.005786586109841213 -0.010587880845284921
0.0035611370329891126 -0.024338330667633478 0.0020215709094686574 -0.008617402330541356 0.014651059415410091 -0.020368316336450712 0.025139661358744805 0.8320291880399233
-0.0016159219669400746 0.0014191089341314723 -0.00028367920373090027 -0.0005970344497748999 -0.0002464995487999849 0.0034419022880810665 0.0011509977299358168 -0.0012996004942938404
-0.002615141894604436 -0.0007850296927483858 0.00026058227708055813 -0.002574186139876038 -0.0010515997089738111 -0.0015328147444584456 -0.0004933155617334383 0.0014463124653282175
-0.0021263630589083943 0.0021133011833870644 -0.000473353957977713 -0.0030684145626717952 -0.0019066197723249963 0.0021883295389876706 0.0005052920100810925 0.004581784342407742
0.0022155962806960634 -0.002758206736020208 -0.0001258000302945847 -0.0036461551442129024 0.00089095130733444 0.0033300121717653028 -0.0016366422662285848 0.004307563847714196
0.0008531339702448608 0.004345478413315524 0.0032375744274718773 -0.004501641786469176 0.0032541905733630585 0.002470580523495651 0.007864762607296225 -0.01252651388249911
0.0048859168701457945 -0.029728059029055863 0.0039553346416464985 -0.02164053532817433 0.024043632768773186 -0.03318512975239688 0.04827153117571712 0.7932266417841652
-0.0013303414591540337 0.0004932605122742203 0.0018479715450524323 0.0008717438105368133 0.0019528797682858063 0.0001476591588906711 0.0013487019785033997 0.001891890085038837
0.00016637547291649494 -0.0016087849275500262 -0.00011579973803277837 -0.0015667661170338085 0.00021923574473264705 -0.00040476677478673166 0.00132481942047633 0.004240151010353375
0.0004437253343215688 0.0029491978101166515 0.0007780277266603088 -0.003325088917085422 -0.00011226641637609144 -0.003744899082916242 -0.00035726246835471044 -0.0009514267032231408
0.0035327376022685833 -0.007975686566053452 0.0032458706795832517 -8.104861362914445e-05 0.0012741369582626467 0.0032878200714248867 -0.0037166799348251067 0.0034377279146611795
0.00024325688737930758 0.0007919316411044772 0.001997607999396306 -0.005615141889772457 0.0028940660740144545 0.0013687851991600643 0.009040477089007683 -0.01778424946337139
0.010483225169357277 -0.037508551834725845 0.0023547550875361303 -0.03291797256299878 0.033897959034408155 -0.042372868161168434 0.0638792559779545 0.7588868415084987
0.0013355861955270287 -0.0024223040551255197 0.0012069882036161868 0.0015423802858499692 0.0021485519414228185 0.0017111244513906784 0.003998261547542722 0.0015759074017755222
0.0023757652701142423 0.004316931577830307 -0.0007910960677822954 -0.005112877573739188 -0.0002513367092137229 -0.0023583404791814077 8.379200037890344e-05 0.002948848279266652
0.00028844875919423776 0.0044881580731113285 0.00038825766367076524 -0.002143418200554919 0.0001449870445082284 -0.004142038265314676 -0.0011301065553857431 0.0022630429545820573
0.002921979084449718 -0.006960022024917227 0.0012107227493271964 -0.003389341384812768 0.0015596992500018178 0.0017050739510441086 -7.345200241678976e-05 0.006152787374641618
0.00296268139337937 0.003212993383693609 0.0030120491973968542 -0.0038271257632908682 0.006137539453407301 -0.010497093782599911 0.010902023612923644 -0.018200220144535182
0.0122549009337936 -0.0397519584860059 -0.0011236140025232438 -0.046393286325382616 0.044645730678998914 -0.054567653077529414 0.08910709843804238 0.704236518328232
0.003215546919856586 -0.0002208980492374218 0.0024609415312529023 0.00036291050155836253 0.0018329232470659285 0.003015879536997926 0.004460865495868015 -0.0057241692050628065
-0.0010241438189069454 0.0016070626700359861 0.0007305561402321607 -0.0031215766613793845 0.003579039631911649 -0.002299283165744782 0.003068490090309012 0.0016894864897915537
