exp/data_checkpoints/999/checkpoint.pth (torch, 72377 bytes, 114 tensors)

inv_timescales f8 [1]
0	0x3ff0000000000000	1.0

blocks1.SCINet_Tree.workingblock.interact.level.phi.1.weight f8 [1, 1, 5]
0	0xbfc8dcd7e58415be	-0.1942396040614493
1	0xbfe05bd89e0f7786	-0.5112116896741419
2	0x3faf62e0d1af753c	0.06130125579486864
3	0x3fcf8d8ea4d6e12a	0.24650748299405595
4	0x3fc87698980ccf04	0.1911192648345762

blocks1.SCINet_Tree.workingblock.interact.level.phi.1.bias f8 [1]
0	0x3faafd79673bc26b	0.05271510491536876

blocks1.SCINet_Tree.workingblock.interact.level.phi.4.weight f8 [1, 1, 3]
0	0x3fd1502811247e7b	0.27051736520841246
1	0xbfc3edf36ef1e0d6	-0.15569918553570145
2	0x3fc7479a76e6ef95	0.18187266164556762

blocks1.SCINet_Tree.workingblock.interact.level.phi.4.bias f8 [1]
0	0xbfe0a17dbc906fda	-0.5197132761854804

blocks1.SCINet_Tree.workingblock.interact.level.psi.1.weight f8 [1, 1, 5]
0	0xbf97851852ee0762	-0.022968654691346464
1	0xbfabff76e1bc27bf	-0.054683413558521014
2	0xbfcf1fc9b748b0ec	-0.24315759133731463
3	0xbfbaa5e84aabfad6	-0.10409404585878276
4	0x3fd6d6bd545465a9	0.35685666308708136

blocks1.SCINet_Tree.workingblock.interact.level.psi.1.bias f8 [1]
0	0xbfb14904f8af90ec	-0.06752043792181767

blocks1.SCINet_Tree.workingblock.interact.level.psi.4.weight f8 [1, 1, 3]
0	0xbfd8aa28377f8b29	-0.38538556499240656
1	0x3fd1fabfa0a78d51	0.280929476632271
2	0xbfb3284fb8af037d	-0.07483385332944965

blocks1.SCINet_Tree.workingblock.interact.level.psi.4.bias f8 [1]
0	0xbfddaeb723a17d44	-0.4637887809712604

blocks1.SCINet_Tree.workingblock.interact.level.P.1.weight f8 [1, 1, 5]
0	0xbfc554bb172854ec	-0.1666482794832186
1	0x3fc97be3c4fd1d7e	0.1990933143481292
2	0x3fd2802324e1eaf5	0.2890708789997654
3	0xbfcf782a9cd5bbff	-0.2458546891971025
4	0x3fc9286c8c44827f	0.19654614304547022

blocks1.SCINet_Tree.workingblock.interact.level.P.1.bias f8 [1]
0	0xbfb06116ce9d76b4	-0.06398146194757254

blocks1.SCINet_Tree.workingblock.interact.level.P.4.weight f8 [1, 1, 3]
0	0xbfcb09fa0c95a865	-0.21124196638567408
1	0x3fdcb6d70f35b024	0.44865967259716144
2	0xbf9e6afe8782898e	-0.02970502569281446

blocks1.SCINet_Tree.workingblock.interact.level.P.4.bias f8 [1]
0	0xbfd30147ec9991da	-0.29695318322617725

blocks1.SCINet_Tree.workingblock.interact.level.U.1.weight f8 [1, 1, 5]
0	0x3fb37209d2963968	0.0759588374259913
1	0xbfd29c30fb4ebc1f	-0.2907831625151988
2	0x3fda6f86b252ed69	0.41305701651045595
3	0xbfc4e07b4049fef8	-0.16310063017953502
4	0x3fdb439a6b308719	0.42600117175798996

blocks1.SCINet_Tree.workingblock.interact.level.U.1.bias f8 [1]
0	0xbfc93d32d1d75d10	-0.19718013044505556

blocks1.SCINet_Tree.workingblock.interact.level.U.4.weight f8 [1, 1, 3]
0	0x3fcf1afa0617e16d	0.24301076219104392
1	0xbfe0d18bf36b8e01	-0.525579429082825
2	0xbfd0fd02da516bb2	-0.2654425746929362

blocks1.SCINet_Tree.workingblock.interact.level.U.4.bias f8 [1]
0	0x3fb81937190ec7e9	0.09413475381623439

blocks1.SCINet_Tree.SCINet_Tree_odd.workingblock.interact.level.phi.1.weight f8 [1, 1, 5]
0	0xbfd231113b8c1342	-0.28424483122971733
1	0x3fb0ebeda43ac9d9	0.06609997996819263
2	0xbf66cb1506628258	-0.0027823839801189125
3	0x3fcc5ced086416c4	0.22158587369647453
4	0xbfb0d2a8968a270d	-0.06571439433369282

blocks1.SCINet_Tree.SCINet_Tree_odd.workingblock.interact.level.phi.1.bias f8 [1]
0	0xbfb321b0ab87605c	-0.07473282039370716

blocks1.SCINet_Tree.SCINet_Tree_odd.workingblock.interact.level.phi.4.weight f8 [1, 1, 3]
0	0x3fd7f81ff1a26fb1	0.37451933476563243
1	0xbfa259e7c9a0ee65	-0.035842173922415545
2	0xbfc5447a28c9e3f6	-0.16615225783951332

blocks1.SCINet_Tree.SCINet_Tree_odd.workingblock.interact.level.phi.4.bias f8 [1]
0	0xbf82664f4831386c	-0.008984202757485536

blocks1.SCINet_Tree.SCINet_Tree_odd.workingblock.interact.level.psi.1.weight f8 [1, 1, 5]
0	0x3f9fdb1510c2c222	0.031109170101162438
1	0xbfd853e60f6db592	-0.38012076861090194
2	0xbfc09a642036011a	-0.12971164295959953
3	0x3fcc5d86843b2b71	0.22160417038534377
4	0x3fd64ddf5d33d04a	0.348502961175886

blocks1.SCINet_Tree.SCINet_Tree_odd.workingblock.interact.level.psi.1.bias f8 [1]
0	0xbfc573c0648fc673	-0.16759495649562303

blocks1.SCINet_Tree.SCINet_Tree_odd.workingblock.interact.level.psi.4.weight f8 [1, 1, 3]
0	0xbfd03dad2b4b4b0e	-0.2537644312662203
1	0xbfd418df59062e05	-0.31401809400333064
2	0x3fd2645baa215396	0.28737537016177706

blocks1.SCINet_Tree.SCINet_Tree_odd.workingblock.interact.level.psi.4.bias f8 [1]
0	0xbfdf18e6f02f6159	-0.48589490371297966

blocks1.SCINet_Tree.SCINet_Tree_odd.workingblock.interact.level.P.1.weight f8 [1, 1, 5]
0	0xbfc65cfc75d3fa8f	-0.1747127127964245
1	0xbfdfd5f1e3787976	-0.49743315900732143
2	0xbfde3e1daf5ec737	-0.4725412571525455
3	0x3fd50dc2188f7b1b	0.3289647331093179
4	0x3fce40fa9c97450d	0.23635800024070655

blocks1.SCINet_Tree.SCINet_Tree_odd.workingblock.interact.level.P.1.bias f8 [1]
0	0xbfb415c7c592e1ef	-0.0784573418958485

blocks1.SCINet_Tree.SCINet_Tree_odd.workingblock.interact.level.P.4.weight f8 [1, 1, 3]
0	0xbfdfe6fd55ed7272	-0.4984734858642589
1	0xbfdb6d2b0a25deb0	-0.4285380934811469
2	0x3fbfc941778babee	0.12416466873735008

blocks1.SCINet_Tree.SCINet_Tree_odd.workingblock.interact.level.P.4.bias f8 [1]
0	0x3f97a9403eb6c27a	0.023106578662636747

blocks1.SCINet_Tree.SCINet_Tree_odd.workingblock.interact.level.U.1.weight f8 [1, 1, 5]
0	0xbfd14283847dff27	-0.26968467653931544
1	0xbfd634df5eac869c	-0.34697708364010693
2	0x3fca2514692effc6	0.20425658355634208
3	0xbfc17333cb5235ba	-0.1363281958369223
4	0xbfb7349e3f53cb0c	-0.09064663930966449

blocks1.SCINet_Tree.SCINet_Tree_odd.workingblock.interact.level.U.1.bias f8 [1]
0	0xbfd747056d035a12	-0.36370978971300005

blocks1.SCINet_Tree.SCINet_Tree_odd.workingblock.interact.level.U.4.weight f8 [1, 1, 3]
0	0xbfd8a402aff3ba50	-0.38501040633028527
1	0x3f84f55e916e2d5d	0.010233630002196287
2	0x3fe04ff58371e731	0.5097606246265284

blocks1.SCINet_Tree.SCINet_Tree_odd.workingblock.interact.level.U.4.bias f8 [1]
0	0xbfd2cfb0699d5bae	-0.29392633737500773

blocks1.SCINet_Tree.SCINet_Tree_odd.SCINet_Tree_odd.workingblock.interact.level.phi.1.weight f8 [1, 1, 5]
0	0xbfd483d5e0514502	-0.3205465975380123
1	0xbfc98f82a04f28df	-0.19969208552931314
2	0x3fcc22e081e16784	0.21981436101742358
3	0xbfddf239198a691e	-0.46790912145810803
4	0xbf6351e65344198e	-0.0023583887615387716

blocks1.SCINet_Tree.SCINet_Tree_odd.SCINet_Tree_odd.workingblock.interact.level.phi.1.bias f8 [1]
0	0xbfc3b22078457112	-0.15387349960918378

blocks1.SCINet_Tree.SCINet_Tree_odd.SCINet_Tree_odd.workingblock.interact.level.phi.4.weight f8 [1, 1, 3]
0	0xbfd1ab96592bdcd3	-0.27609785755289556
1	0xbfe10296dd2716a2	-0.5315660781277141
2	0x3fc27754b226a640	0.14426668833520928

blocks1.SCINet_Tree.SCINet_Tree_odd.SCINet_Tree_odd.workingblock.interact.level.phi.4.bias f8 [1]
0	0xbfd74d5481acb2fd	-0.3640948549607826

blocks1.SCINet_Tree.SCINet_Tree_odd.SCINet_Tree_odd.workingblock.interact.level.psi.1.weight f8 [1, 1, 5]
0	0xbfc262d5daad1b10	-0.1436412160639624
1	0xbfcabf9d34110239	-0.20897259752566003
2	0x3fce805bb57ddc2d	0.23829218255898024
3	0xbfe0acfea56c23fd	-0.5211175185114595
4	0xbf4a626b75106a4f	-0.0008051895803221162

blocks1.SCINet_Tree.SCINet_Tree_odd.SCINet_Tree_odd.workingblock.interact.level.psi.1.bias f8 [1]
0	0xbfd2fe0de03ef8f2	-0.29675623797437745

blocks1.SCINet_Tree.SCINet_Tree_odd.SCINet_Tree_odd.workingblock.interact.level.psi.4.weight f8 [1, 1, 3]
0	0xbfdd8594ee1c2894	-0.46127818348816985
1	0xbf8fd6b8f9948a03	-0.015546269527992434
2	0x3fe1400cc14e4b63	0.5390685821060796

blocks1.SCINet_Tree.SCINet_Tree_odd.SCINet_Tree_odd.workingblock.interact.level.psi.4.bias f8 [1]
0	0xbfcb001f4391ccb0	-0.21094122695249018

blocks1.SCINet_Tree.SCINet_Tree_odd.SCINet_Tree_odd.workingblock.interact.level.P.1.weight f8 [1, 1, 5]
0	0xbfb187e0eeb8a989	-0.06847959354550971
1	0xbfc19abef0c4cddd	-0.13753496891295827
2	0xbfa1d981994a18c1	-0.03486256595810878
3	0xbfd4fe4383594a5b	-0.32801902606039385
4	0xbfd550d452eee958	-0.3330584344763756

blocks1.SCINet_Tree.SCINet_Tree_odd.SCINet_Tree_odd.workingblock.interact.level.P.1.bias f8 [1]
0	0xbfd4567e071efca5	-0.3177790708104545

blocks1.SCINet_Tree.SCINet_Tree_odd.SCINet_Tree_odd.workingblock.interact.level.P.4.weight f8 [1, 1, 3]
0	0xbfc31b1e6e1410fa	-0.14926510214730354
1	0x3fde1449c63d5af3	0.46998829230635336
2	0xbfd92d1976300940	-0.3933776525665458

blocks1.SCINet_Tree.SCINet_Tree_odd.SCINet_Tree_odd.workingblock.interact.level.P.4.bias f8 [1]
0	0x3fd2eb8539933236	0.2956250250106537

blocks1.SCINet_Tree.SCINet_Tree_odd.SCINet_Tree_odd.workingblock.interact.level.U.1.weight f8 [1, 1, 5]
0	0x3fb920cff08b00fa	0.09815692541724622
1	0xbfd1f89248720acb	-0.28079659533265716
2	0x3fd0b2c7274b4bca	0.26091173970524706
3	0x3f7c9492ec08e738	0.0069776286259697826
4	0xbfbe416fe67ca581	-0.11818599106904594

blocks1.SCINet_Tree.SCINet_Tree_odd.SCINet_Tree_odd.workingblock.interact.level.U.1.bias f8 [1]
0	0xbf71512226bc61a7	-0.0042277654681800786

blocks1.SCINet_Tree.SCINet_Tree_odd.SCINet_Tree_odd.workingblock.interact.level.U.4.weight f8 [1, 1, 3]
0	0xbfd1f1846e53e82a	-0.2803660466594261
1	0xbfd61a2c11b06dc3	-0.3453474209543083
2	0xbfbc3f0c4debdea6	-0.11033703710915663

blocks1.SCINet_Tree.SCINet_Tree_odd.SCINet_Tree_odd.workingblock.interact.level.U.4.bias f8 [1]
0	0xbfcdab63dc33f584	-0.2317929101190367

blocks1.SCINet_Tree.SCINet_Tree_odd.SCINet_Tree_even.workingblock.interact.level.phi.1.weight f8 [1, 1, 5]
0	0x3fb3256e9f213e49	0.07478991875654474
1	0x3fb2a4d32aa7ba7f	0.07282752791773282
2	0x3fb6f0706e27419c	0.08960631074228903
3	0xbfd36a6595c0425b	-0.3033689463054878
4	0xbfc6d660fd94ed5c	-0.17841732389374954

blocks1.SCINet_Tree.SCINet_Tree_odd.SCINet_Tree_even.workingblock.interact.level.phi.1.bias f8 [1]
0	0xbfc8cac28b39bec4	-0.19368774221537965

blocks1.SCINet_Tree.SCINet_Tree_odd.SCINet_Tree_even.workingblock.interact.level.phi.4.weight f8 [1, 1, 3]
0	0x3f9f9da1b2ca83b4	0.030874754464665435
1	0xbfc0a672459a2d1d	-0.13007954023883253
2	0xbfc4bb0cfd499e18	-0.16195833556706485

blocks1.SCINet_Tree.SCINet_Tree_odd.SCINet_Tree_even.workingblock.interact.level.phi.4.bias f8 [1]
0	0x3fc9b341f780e3d6	0.20078301034098328

blocks1.SCINet_Tree.SCINet_Tree_odd.SCINet_Tree_even.workingblock.interact.level.psi.1.weight f8 [1, 1, 5]
0	0x3fdd5f429bec65f9	0.4589392206849819
1	0x3fa9cfb51c56973b	0.050412807187326845
2	0xbfb60eb29670a45e	-0.08616176770068892
3	0x3fc7eef1975b53c2	0.1869794835135093
4	0x3f776f3637f84131	0.0057212942042641915

blocks1.SCINet_Tree.SCINet_Tree_odd.SCINet_Tree_even.workingblock.interact.level.psi.1.bias f8 [1]
0	0x3fcdf2a286c6ec37	0.23396712857160804

blocks1.SCINet_Tree.SCINet_Tree_odd.SCINet_Tree_even.workingblock.interact.level.psi.4.weight f8 [1, 1, 3]
0	0xbfe103a72c2f8628	-0.5316959250450894
1	0xbfe217c0e1603a6c	-0.565399589717186
2	0xbfab659375632e54	-0.05350933845474218

blocks1.SCINet_Tree.SCINet_Tree_odd.SCINet_Tree_even.workingblock.interact.level.psi.4.bias f8 [1]
0	0x3fcd60ce214c3b7f	0.22951676011913588

blocks1.SCINet_Tree.SCINet_Tree_odd.SCINet_Tree_even.workingblock.interact.level.P.1.weight f8 [1, 1, 5]
0	0x3fdb287c3e065992	0.42434602791890896
1	0xbfb0f7a6386e3140	-0.06627882840820565
2	0xbfcebf915c224879	-0.24022118567205888
3	0xbfcd2b9e007ee975	-0.2278935911579755
4	0x3fb72a4e438b80c9	0.0904892840294479

blocks1.SCINet_Tree.SCINet_Tree_odd.SCINet_Tree_even.workingblock.interact.level.P.1.bias f8 [1]
0	0xbfad845708d345a5	-0.05765029890757071

blocks1.SCINet_Tree.SCINet_Tree_odd.SCINet_Tree_even.workingblock.interact.level.P.4.weight f8 [1, 1, 3]
0	0x3fe4db071ecacd2b	0.6517367936525366
1	0x3fd89bd56d91aaf0	0.38451133442019536
2	0x3fe217938c3a616e	0.5653779734448514

blocks1.SCINet_Tree.SCINet_Tree_odd.SCINet_Tree_even.workingblock.interact.level.P.4.bias f8 [1]
0	0xbfd44dfd1cb4c608	-0.31726005366644516

blocks1.SCINet_Tree.SCINet_Tree_odd.SCINet_Tree_even.workingblock.interact.level.U.1.weight f8 [1, 1, 5]
0	0xbfdb96200020c006	-0.4310379029511754
1	0x3f8abe1c9f7dff74	0.01305792199832443
2	0x3fdb9d3de6541f7d	0.43147227757480505
3	0x3fd99470abd56717	0.3996850660383741
4	0xbfc86e0c8252e0de	-0.19085842479194687

blocks1.SCINet_Tree.SCINet_Tree_odd.SCINet_Tree_even.workingblock.interact.level.U.1.bias f8 [1]
0	0x3fb3a5276820695d	0.07673879902032384

blocks1.SCINet_Tree.SCINet_Tree_odd.SCINet_Tree_even.workingblock.interact.level.U.4.weight f8 [1, 1, 3]
0	0x3fd7d0b7790e7b96	0.3721140558426951
1	0x3fa32a89916d7c77	0.037433909418489834
2	0x3fd3ccf2fecbd3e3	0.3093841064685973

blocks1.SCINet_Tree.SCINet_Tree_odd.SCINet_Tree_even.workingblock.interact.level.U.4.bias f8 [1]
0	0xbf7f1aab2b0dee2c	-0.0075937925583918035

blocks1.SCINet_Tree.SCINet_Tree_even.workingblock.interact.level.phi.1.weight f8 [1, 1, 5]
0	0x3fd2f0dfd8f7ba5a	0.29595180691004475
1	0xbfb9f90bc702895e	-0.10145639046326013
2	0xbf7864ac78e66d61	-0.005955384940900061
3	0xbfc3495ace2d8184	-0.15067610804818454
4	0x3fb8273bfce92530	0.09434866833284583

blocks1.SCINet_Tree.SCINet_Tree_even.workingblock.interact.level.phi.1.bias f8 [1]
0	0x3f923dc159747915	0.017813702664278248

blocks1.SCINet_Tree.SCINet_Tree_even.workingblock.interact.level.phi.4.weight f8 [1, 1, 3]
0	0xbfa7c9448a60afb4	-0.04645742596798588
1	0x3fac82eddaa19d21	0.05568640989150198
2	0xbfd09b16a19123ec	-0.25946584489844216

blocks1.SCINet_Tree.SCINet_Tree_even.workingblock.interact.level.phi.4.bias f8 [1]
0	0x3fcfc91d6bde0122	0.2483250405021034

blocks1.SCINet_Tree.SCINet_Tree_even.workingblock.interact.level.psi.1.weight f8 [1, 1, 5]
0	0x3fc87cc28884975d	0.19130736986079003
1	0x3f9ac02ae4ac6d68	0.026123686034322274
2	0x3fcd8a7b9ab05bcb	0.23078866055649735
3	0xbfdc26b7cd1e6ffa	-0.43986315756933403
4	0x3fbb3ded5c1fa9c9	0.10641368388284102

blocks1.SCINet_Tree.SCINet_Tree_even.workingblock.interact.level.psi.1.bias f8 [1]
0	0xbfd4019a56d5a186	-0.31259783248835793

blocks1.SCINet_Tree.SCINet_Tree_even.workingblock.interact.level.psi.4.weight f8 [1, 1, 3]
0	0x3fd991eda4413409	0.3995317558336074
1	0xbfd09b93186b401d	-0.25949551949179456
2	0xbfb4b4a1b451ba0a	-0.08088122036290471

blocks1.SCINet_Tree.SCINet_Tree_even.workingblock.interact.level.psi.4.bias f8 [1]
0	0x3fb2afb3cbd11ad6	0.07299350477215269

blocks1.SCINet_Tree.SCINet_Tree_even.workingblock.interact.level.P.1.weight f8 [1, 1, 5]
0	0xbfb9458cd886e217	-0.0987175015096756
1	0xbfd088fe44ab7f3a	-0.25836140352292924
2	0xbfd2c84268fe5a0d	-0.2934728646590948
3	0x3fda805a87159040	0.4140840834791142
4	0x3fbce94add844335	0.1129347601711402

blocks1.SCINet_Tree.SCINet_Tree_even.workingblock.interact.level.P.1.bias f8 [1]
0	0xbfd08290f187a46d	-0.2579691275300949

blocks1.SCINet_Tree.SCINet_Tree_even.workingblock.interact.level.P.4.weight f8 [1, 1, 3]
0	0x3fd2f5706b8998a6	0.2962304163141972
1	0x3fb16661243ebcfa	0.06796843657388144
2	0xbfcdf1f1b70e3062	-0.23394605100873195

blocks1.SCINet_Tree.SCINet_Tree_even.workingblock.interact.level.P.4.bias f8 [1]
0	0xbfdde1756daa300c	-0.4668859072633047

blocks1.SCINet_Tree.SCINet_Tree_even.workingblock.interact.level.U.1.weight f8 [1, 1, 5]
0	0x3fb13c23f7ce5ee8	0.0673239212031792
1	0xbfcc6c8be2f88db4	-0.22206257422031472
2	0x3fdab6b055343c5a	0.41740043945987326
3	0x3fb593c7db9221bb	0.08428620443931482
4	0xbfb4be36364d8458	-0.0810274012160489

blocks1.SCINet_Tree.SCINet_Tree_even.workingblock.interact.level.U.1.bias f8 [1]
0	0xbfc5b86360f3da6b	-0.1696895812417155

blocks1.SCINet_Tree.SCINet_Tree_even.workingblock.interact.level.U.4.weight f8 [1, 1, 3]
0	0xbfdf265a37185175	-0.4867158449208298
1	0x3fcb930c5087992b	0.2154250519954045
2	0xbfcb1a01afad56b6	-0.21173115804656611

blocks1.SCINet_Tree.SCINet_Tree_even.workingblock.interact.level.U.4.bias f8 [1]
0	0xbfd107073f23978e	-0.2660539738266089

blocks1.SCINet_Tree.SCINet_Tree_even.SCINet_Tree_odd.workingblock.interact.level.phi.1.weight f8 [1, 1, 5]
0	0xbfd72180fdcc4085	-0.36141991410205093
1	0xbfb02b41511195e8	-0.06316002110687402
2	0xbf9199b7dc5e5961	-0.01718795092127701
3	0xbfd468902987bc54	-0.3188820272034196
4	0x3fddbe467f35f254	0.46473848746226065

blocks1.SCINet_Tree.SCINet_Tree_even.SCINet_Tree_odd.workingblock.interact.level.phi.1.bias f8 [1]
0	0x3fc62e5a1ebbcf03	0.17328955174127011

blocks1.SCINet_Tree.SCINet_Tree_even.SCINet_Tree_odd.workingblock.interact.level.phi.4.weight f8 [1, 1, 3]
0	0x3f9c4c4a2bb799cb	0.027634772222791242
1	0xbfe1c13ade704a50	-0.5548376411919183
2	0x3fb196b92cbd1f42	0.06870610563521232

blocks1.SCINet_Tree.SCINet_Tree_even.SCINet_Tree_odd.workingblock.interact.level.phi.4.bias f8 [1]
0	0xbfd73a2b4e89e28a	-0.3629253642061846

blocks1.SCINet_Tree.SCINet_Tree_even.SCINet_Tree_odd.workingblock.interact.level.psi.1.weight f8 [1, 1, 5]
0	0xbfd58789305144c4	-0.336397454438224
1	0xbfd5b26b2158ab1e	-0.3390147996566827
2	0xbfc0e33aa5cdbc31	-0.13193448158151136
3	0x3fc7963b166ee629	0.18427218051310604
4	0x3fb18abf74bad7b9	0.06852337455606418

blocks1.SCINet_Tree.SCINet_Tree_even.SCINet_Tree_odd.workingblock.interact.level.psi.1.bias f8 [1]
0	0xbfd3351bc7e76a39	-0.3001164867579607

blocks1.SCINet_Tree.SCINet_Tree_even.SCINet_Tree_odd.workingblock.interact.level.psi.4.weight f8 [1, 1, 3]
0	0x3fbc561ad3469954	0.11068885477161433
1	0xbfd04c74887e9d22	-0.25466645555066425
2	0x3fc605e9600023d2	0.17205540835882843

blocks1.SCINet_Tree.SCINet_Tree_even.SCINet_Tree_odd.workingblock.interact.level.psi.4.bias f8 [1]
0	0xbfd7bbd82ea05867	-0.37084011605600725

blocks1.SCINet_Tree.SCINet_Tree_even.SCINet_Tree_odd.workingblock.interact.level.P.1.weight f8 [1, 1, 5]
0	0x3fd7428a69ddbfbf	0.36343632067200454
1	0xbfd003f2fb4a4695	-0.25024103679707227
2	0x3fb0aef27ece4f5d	0.06516948314520961
3	0x3fc87a0b2ec13599	0.19122447760530006
4	0xbfd15ed796794d88	-0.27141370482169025

blocks1.SCINet_Tree.SCINet_Tree_even.SCINet_Tree_odd.workingblock.interact.level.P.1.bias f8 [1]
0	0xbfc20e10b01c4df1	-0.1410542354502549

blocks1.SCINet_Tree.SCINet_Tree_even.SCINet_Tree_odd.workingblock.interact.level.P.4.weight f8 [1, 1, 3]
0	0x3fe2d970e833fd81	0.5890430960861722
1	0xbfdaa0764b482a85	-0.4160438285040658
2	0x3fb8ae006130d1ca	0.0964050519258485

blocks1.SCINet_Tree.SCINet_Tree_even.SCINet_Tree_odd.workingblock.interact.level.P.4.bias f8 [1]
0	0x3fe052db26f7c69a	0.5101142655459683

blocks1.SCINet_Tree.SCINet_Tree_even.SCINet_Tree_odd.workingblock.interact.level.U.1.weight f8 [1, 1, 5]
0	0x3f7382e384d5d2cb	0.004763497110037827
1	0xbf82ae294528bb24	-0.009121248648708731
2	0xbfa435009f386d78	-0.03946687644585273
3	0xbf974b7c5c8b5eee	-0.02274889292570397
4	0x3fb01a95a7c0ba38	0.06290564866569859

blocks1.SCINet_Tree.SCINet_Tree_even.SCINet_Tree_odd.workingblock.interact.level.U.1.bias f8 [1]
0	0x3fb490ec1096e6f7	0.08033633618370205

blocks1.SCINet_Tree.SCINet_Tree_even.SCINet_Tree_odd.workingblock.interact.level.U.4.weight f8 [1, 1, 3]
0	0x3f9194e45efa9715	0.01716954068856243
1	0x3fcfc458573a023f	0.2481794763480298
2	0x3fbfe9c8da6076f6	0.12466101962533202

blocks1.SCINet_Tree.SCINet_Tree_even.SCINet_Tree_odd.workingblock.interact.level.U.4.bias f8 [1]
0	0xbfd9b52e85afc0f5	-0.40168345504117947

blocks1.SCINet_Tree.SCINet_Tree_even.SCINet_Tree_even.workingblock.interact.level.phi.1.weight f8 [1, 1, 5]
0	0xbfdab614ad3886ae	-0.41736332813352817
1	0x3f9849a3884a21d4	0.023718409722762804
2	0x3fcb7cd3363f7e13	0.21474685810879687
3	0x3fbeeaecd6daeb4f	0.12077217336165556
4	0xbfa02a9f0aabe3d4	-0.03157517438189186

blocks1.SCINet_Tree.SCINet_Tree_even.SCINet_Tree_even.workingblock.interact.level.phi.1.bias f8 [1]
0	0xbfb291847344065d	-0.07253291906456512

blocks1.SCINet_Tree.SCINet_Tree_even.SCINet_Tree_even.workingblock.interact.level.phi.4.weight f8 [1, 1, 3]
0	0xbfe2b0a924b7969a	-0.5840650288707423
1	0xbfbd62dbd5a73195	-0.11478971449031967
2	0x3fbb1275efe9fa0b	0.10575043780588815

blocks1.SCINet_Tree.SCINet_Tree_even.SCINet_Tree_even.workingblock.interact.level.phi.4.bias f8 [1]
0	0x3fc09bb1007b1531	0.12975132487751176

blocks1.SCINet_Tree.SCINet_Tree_even.SCINet_Tree_even.workingblock.interact.level.psi.1.weight f8 [1, 1, 5]
0	0xbfc23be0d2d4be68	-0.14245233816608338
1	0x3fc989274620add1	0.1994980900211503
2	0xbfc10d8a5a63bf57	-0.13322572148853837
3	0xbf85605d3bc9eef3	-0.01043770636282868
4	0xbfd190d9315203ab	-0.2744658452648376

blocks1.SCINet_Tree.SCINet_Tree_even.SCINet_Tree_even.workingblock.interact.level.psi.1.bias f8 [1]
0	0xbfd77bb22f64c327	-0.36692480686456225

blocks1.SCINet_Tree.SCINet_Tree_even.SCINet_Tree_even.workingblock.interact.level.psi.4.weight f8 [1, 1, 3]
0	0x3fd9bfd91ea85468	0.4023344802274722
1	0xbfd5171bd0df8ae8	-0.3295354404237245
2	0x3fe0bf04b2fafb12	0.5233176704130946

blocks1.SCINet_Tree.SCINet_Tree_even.SCINet_Tree_even.workingblock.interact.level.psi.4.bias f8 [1]
0	0xbfdd33f58a04bfe7	-0.4562963340604242

blocks1.SCINet_Tree.SCINet_Tree_even.SCINet_Tree_even.workingblock.interact.level.P.1.weight f8 [1, 1, 5]
0	0x3f630864c1c90470	0.002323338309253624
1	0x3fd538e5ff930f79	0.33159780462687355
2	0xbfd0c9ae9d36a2fe	-0.262309697655425
3	0x3f82377352458ccf	0.008894825885994355
4	0x3fc995e44ea1fc2f	0.19988683547487215

blocks1.SCINet_Tree.SCINet_Tree_even.SCINet_Tree_even.workingblock.interact.level.P.1.bias f8 [1]
0	0x3fc565c7fda5d14b	0.16716861615317166

blocks1.SCINet_Tree.SCINet_Tree_even.SCINet_Tree_even.workingblock.interact.level.P.4.weight f8 [1, 1, 3]
0	0xbfadbe0f45f3058e	-0.058090665138943995
1	0x3f95dd9d7f8d5100	0.021353207502515126
2	0xbf9ad2df5c69fe2a	-0.02619503976393226

blocks1.SCINet_Tree.SCINet_Tree_even.SCINet_Tree_even.workingblock.interact.level.P.4.bias f8 [1]
0	0x3fc1a997d83e5b0e	0.13798807200210955

blocks1.SCINet_Tree.SCINet_Tree_even.SCINet_Tree_even.workingblock.interact.level.U.1.weight f8 [1, 1, 5]
0	0xbfb2103b6b8ad634	-0.07056018233819189
1	0x3fc09768b4d129bd	0.12962063626248535
2	0xbfce9ce3dc37a280	-0.23916290524291028
3	0x3f692230d7d17ab5	0.003068061253130717
4	0xbfcaf7ed477bf411	-0.21069112768591983

blocks1.SCINet_Tree.SCINet_Tree_even.SCINet_Tree_even.workingblock.interact.level.U.1.bias f8 [1]
0	0xbfd5c820e90ed366	-0.340339877696627

blocks1.SCINet_Tree.SCINet_Tree_even.SCINet_Tree_even.workingblock.interact.level.U.4.weight f8 [1, 1, 3]
0	0xbfcdcaa72b518be3	-0.23274697890437243
1	0x3fd118877a7d56c6	0.2671221443355133
2	0x3fc30a11deb5858d	0.14874480604616416

blocks1.SCINet_Tree.SCINet_Tree_even.SCINet_Tree_even.workingblock.interact.level.U.4.bias f8 [1]
0	0x3fd19bed7a901c5d	0.2751420685676232

projection1.weight f8 [24, 48, 1]
0	0xbf90affb26349df5	-0.01629631443679887
1	0xbfb1813f4cd4f809	-0.06837840677050634
2	0x3fbe9e2127444c97	0.11960036476766543
3	0xbfb4229cd073d72b	-0.07865314568684016
4	0x3f98878879acd71e	0.023954517771208043
5	0x3fb2a2637110a54c	0.07279035101295966
6	0xbfa57136cd26dc8e	-0.04187937979025334
7	0x3fac450c2aedd8e0	0.05521429084812879
8	0x3fb2919bf930917f	0.07253432115300561
9	0x3fb7ec0aba3cf8ed	0.09344546362715152
10	0x3f7bd5d4bd9162c3	0.006795722024514009
11	0xbfb53d37febff911	-0.08296537370185698
12	0xbfa0e6333a976ea3	-0.03300628748158132
13	0xbf97bc95905b7d77	-0.023180329261660994
14	0xbf575518aec9365a	-0.001424097160583135
15	0xbf5a10eaee983d87	-0.0015909475572505065
16	0xbfc0b81b5e6a999b	-0.1306184969918832
17	0x3fb2eb228f8298f5	0.07390037540116963
18	0x3f9b876cb1fcad09	0.026883791316476145
19	0x3fb63bd905899c44	0.08685070405191292
20	0x3fb061f7f185502e	0.06399488111975479
21	0x3f567d9489d9244c	0.0013727140971176053
22	0xbfc30b2b44ef0738	-0.14877835145858298
23	0x3fa14488f133ee3d	0.0337260050236776
24	0x3fab189d7fdf4e10	0.052922174319658066
25	0xbfa92540d792e749	-0.049112345042387213
26	0xbf920caf26a73947	-0.017626511320309814
27	0xbfb383a483c0431a	-0.07622745720460636
28	0x3faee6ab795491fa	0.06035362106402782
29	0xbf9470cdae2ee621	-0.019961560970591322
30	0xbfa6afbafd712122	-0.04430946677945459
31	0xbfb87a60a0bec37e	-0.09561733173792494
32	0x3faaabaa58845360	0.05209095316437273
33	0x3f9007d9315860e6	0.01565493930510877
34	0x3f80da6f7e781d75	0.008229132697137523
35	0x3fa0cd4c8b46c9af	0.032816307069328025
36	0xbfb4692b7ffe3edc	-0.07972976565201456
37	0xbf4bc352ca50a062	-0.0008472589730717068
38	0x3fc3e9b90ce83bf7	0.15557015543205896
39	0xbf90976231646fc2	-0.016202482475918385
40	0x3fb75293901ff782	0.09110376614259333
41	0x3f7dbd613e235fd0	0.0072606848281892705
42	0x3fa5a63f97b8f98c	0.04228399970132832
43	0x3fc01ab0437d7818	0.12581446929374418
44	0x3faee1ee1d268812	0.06031746011582596
45	0x3fa939dce87b21f2	0.04926958406355543
46	0x3fc021c6f2bc4879	0.12603079654997254
47	0x3fb9735b31990df2	0.09941644631276583
48	0x3fb3fe4258e6e408	0.07809843702752073
49	0x3fa70631aa575e11	0.04496913151131932
50	0xbf8847bdc5907fce	-0.011855585662544767
51	0xbfac7a8bb217f606	-0.05562244938844789
52	0xbfabaf983e15393a	-0.05407405622337298
53	0x3fb10908ffabd777	0.06654411546682391
54	0x3fb753f803c92a5e	0.09112501232554268
55	0xbfb6d640fb8b09d4	-0.08920675412358686
56	0x3fb4c7cfe6cf4b78	0.08117389092448757
57	0xbfa72d5e25b88ad0	-0.045268003563497694
58	0xbfa03cb617e39287	-0.031713190475589896
59	0xbf88ca3c2ea03818	-0.012104482815654946
60	0xbf86bc6bdcc3f4c0	-0.011101572680212946
61	0xbf9268e4d4cb590a	-0.01797826336663725
62	0x3fa407b25face90d	0.03912122171318986
63	0xbfa1013fc3ccf3c5	-0.03321265473503091
64	0x3fb55f79f98e3f96	0.08348810522715974
65	0x3fb50c0f0b69bc7e	0.08221525219572531
66	0x3faf364b0ecac61e	0.060961099200891974
67	0xbfaa7f0f2ebce08d	-0.051750635581300754
68	0x3f92cdd91b6e8930	0.018363373088171986
69	0xbfb42943923960b7	-0.07875463790822122
70	0xbfaa18f9ad29716f	-0.05097179640572135
71	0xbf81f3f71fabba1c	-0.00876610818292272
72	0xbfb5b666e77f9521	-0.08481448318305641
73	0x3fc250de39bf5cd0	0.1430928976030601
74	0xbf715086269347dc	-0.004227184320557211
75	0x3fa77c3ef3c35171	0.045869796043606643
76	0xbfb79a9ec4a113bf	-0.09220306683080447
77	0x3fa24959ec9caa01	0.03571587575273228
78	0x3fc2882093ac538e	0.14477927408793473
79	0xbf642d6e394425fb	-0.002463069229752033
80	0xbfba06be0eb6d6b0	-0.1016653810428021
81	0xbfaa7f5f9a26bc10	-0.05175303227166961
82	0xbfb45aed90fd3c78	-0.07951245107436644
83	0x3fa66f33ef9839a3	0.04381716060389642
84	0x3f97b49125dd14b3	0.02314974588013703
85	0xbf9a8449878df2e8	-0.025895260714139307
86	0xbf9cc723585cb674	-0.02810340143985575
87	0x3f84d5e13318c3d0	0.010173568126534166
88	0xbf9f35fd8302a079	-0.030479394074661024
89	0xbf9313c10cae1965	-0.018630043410234793
90	0x3fbb216c2d07e449	0.1059787378252547
91	0x3fa87dedcf9da840	0.04783576163647796
92	0x3fb08f82b3d5f137	0.06468979731102285
93	0x3fbcd02ed71e7b78	0.11255162002497154
94	0x3fd311028fff2982	0.29791320860081083
95	0x3f9b3ce3d2d4488f	0.02659946417140496
96	0x3fae016dbe77526a	0.05860465002084399
97	0xbfa6a8f9b155d434	-0.04425792970406697
98	0xbf91c1a80c4290b8	-0.01734030318097332
99	0x3faa84587e9a0446	0.05179096742086435
100	0xbfb605210409605e	-0.08601576183844048
101	0x3fb0b63c1bc70f26	0.06528068235553217
102	0xbfb20edf88fafd86	-0.07053944677590182
103	0x3fb18e50fd96536e	0.06857782546133048
104	0x3fafe7c0cc64c7b2	0.062315010977172305
105	0xbf945c605e5c76f1	-0.019883638152456255
106	0x3fb1ac453e3203f0	0.06903488892022813
107	0x3f434d5efafc9133	0.0005890573283733658
108	0x3fb29665ba36a9c7	0.07260738178471292
109	0x3f85b5070bfeff89	0.010599188855735313
110	0xbfa136c06438167e	-0.033620846017623926
111	0xbfb383118397309a	-0.07621869528446937
112	0xbf800bcd296cae8e	-0.007835009409596052
113	0xbfa2e31ae1d5d898	-0.036888923709669175
114	0x3fae22a804c224c0	0.05885815675817119
115	0xbfa25815bfb7d3b7	-0.03582828488644146
116	0x3fc3b254a62486de	0.15387971985278787
117	0x3fb0af1b2203906b	0.06517190533082988
118	0xbfb0fd02b1dd57a4	-0.06636063425443567
119	0xbfb3c81b511dbc62	-0.07727213602423569
120	0xbf8bb36cda622c11	-0.013525820173773824
121	0xbfa67be986f621b4	-0.043914125180040925
122	0xbfa73956eee1c63b	-0.04535934129752347
123	0x3fb6ad84c6dde0d3	0.08858518462318736
124	0x3fc1639fc255b95f	0.13585278500563455
125	0xbfa7b5330cdc97dd	-0.046304316825896065
126	0xbfae52cf4fc731ae	-0.05922553871969015
127	0xbfa5ee160e2916c0	-0.04283207819802959
128	0xbfb1d1e74988d245	-0.06960912270808091
129	0xbf9213d97a013faa	-0.01765384490164449
130	0xbfb862e66f514238	-0.09525909631452911
131	0x3f920b8fc9e20fb1	0.017622229287112826
132	0xbfae25c8d153534e	-0.05888202243082806
133	0x3fb8cc8c56920419	0.0968711577752547
134	0x3f9b660cc45334c2	0.02675647686264849
135	0x3fac33ede0a9e5fc	0.05508368842579256
136	0x3fbb7dab903c250c	0.10738632460938308
137	0x3fc11b172a408f1f	0.133639236098241
138	0xbfb73818adcd032b	-0.09069971316513363
139	0x3fb8b9d214ef47da	0.0965853978262027
140	0x3f9891eb27bd9894	0.023994135189604096
141	0x3faa6c02a922e085	0.0516053039040694
142	0x3fc88b6a6c8e0666	0.19175463009382837
143	0x3fad602743c511d3	0.05737421705501657
144	0x3fb467476548b37b	0.07970091078523282
145	0x3fb267c49349ec3a	0.07189587207715045
146	0xbfb29a5a78ac2d0a	-0.07266774602992512
147	0x3fadf2f71e052a92	0.05849430314500127
148	0x3f979c3464e724c5	0.02305681100714165
149	0xbfa1361f88382698	-0.033616052034699695
150	0xbfb2912d6a4a4880	-0.0725277313706858
151	0x3fa59416924f3cec	0.042145448074387776
152	0xbfa68f3300452f83	-0.04406127336787249
153	0x3fc07985af881916	0.12870856352692134
154	0x3fa4b2230f583433	0.04042157709418639
155	0x3f9124bbcc7d6289	0.016741690021577802
156	0xbfb1fda4bf4ededa	-0.07027654333694092
157	0xbfa4db22bc4a6837	-0.04073437260122186
158	0x3fa4e0b624c4dc76	0.040776912678148244
159	0xbfa10f13963692c8	-0.03331814964920948
160	0x3fb207c052e9682a	0.07043077491962949
161	0xbf821475665df4f1	-0.008828084169858448
162	0x3fb7fbc6e7a51174	0.09368556170836034
163	0x3f92cbce65e2c494	0.018355584114662607
164	0x3f92377c9ee49dbf	0.01778979034238914
165	0x3fb3f6432abc0358	0.07797641557045887
166	0xbfb57971b38be433	-0.08388434060533782
167	0x3fb33486b0a50e95	0.07502023518196162
168	0xbfb34a29ed971677	-0.07535039949933685
169	0xbfc22ebdf1ffb53d	-0.1420514518389754
170	0x3f9b895518f87145	0.02689106907756524
171	0xbfa65f304296df0a	-0.0436949807439629
172	0x3fb02d4bd3ee3ec4	0.06319116520011919
173	0x3fb29c43f672ac7a	0.07269692198558345
174	0xbfc18689cd739078	-0.13691828281219265
175	0xbfb03b107bf95c3d	-0.06340125109396495
176	0xbfb27a0a88f2b83e	-0.07217470019779257
177	0xbfa06819eb9c532f	-0.03204422951799867
178	0x3f667d4a3398cfd7	0.0027452897309334467
179	0x3f9a226bbf440801	0.025521930264410745
180	0xbf8e647a8034f659	-0.014840085065425489
181	0x3fb8ef514c5a33d9	0.09740169633933195
182	0x3f97d6ddfea23448	0.023280590693094433
183	0x3f8a3aae7de0dccc	0.012807238785269702
184	0x3fbacc6e4f202d17	0.10468186790256016
185	0x3fb881df93df25a5	0.09573171005390309
186	0x3fbe825d183ddf25	0.1191766914542965
187	0x3f8cc972370c5c83	0.014056103043499362
188	0x3fa5fefaca1eb083	0.0429609653213854
189	0xbf9baa493b63dae3	-0.0270167772768798
190	0x3fac3f95e55c02d9	0.05517261910245503
191	0x3fc7f9b3860beaf1	0.18730777783624533
192	0x3fb039408218206c	0.06337359596375486
193	0x3fa057974e10d227	0.03191826656294366
194	0xbfc06986f8cba39a	-0.12822043560234136
195	0x3fba43f3865deab7	0.10259935408059105
196	0x3fa05b87f72e69d0	0.03194832699155692
197	0xbf7f82d3c5558777	-0.007693125943974858
198	0xbfb102c4455ec8a6	-0.06644846624002074
199	0xbf9b8d9a2ac496ed	-0.026907357082698025
200	0x3fbf2180f3b01ed3	0.12160497617162074
201	0x3f65ebd8804935df	0.0026759365594333086
202	0x3f95774a2054f234	0.020962866042497377
203	0x3fa3233a96c49da7	0.03737814989500104
204	0xbfb31a67a5b9de68	-0.07462165638013973
205	0x3f9064e7bbecfe42	0.016009922833516883
206	0x3fa9420e9c7a5e51	0.04933210048801285
207	0xbfa65690662b3249	-0.043629181358117615
208	0xbfa305b3a24e1ddc	-0.03715287548316912
209	0xbfac12c460e5c914	-0.054830681637115714
210	0xbfb1fb9d841f5b0a	-0.07024559474607997
211	0x3f9ccfa72f3818fb	0.028135883576418923
212	0x3fb2cdea33600710	0.07345451120638935
213	0x3fbb7c1eead71a7d	0.10736268266109934
214	0xbf7d70870f53748a	-0.007187392785650401
215	0xbfb0e57185e40269	-0.06600102919402108
216	0xbf888f249841bd3e	-0.011991773506649591
217	0xbf4774238abf051f	-0.0007157491249857628
218	0x3fb27c3a9e43b37a	0.07220808376196244
219	0x3f81b5ecf9a28d08	0.008647776954893618
220	0xbf8f359ab43347cf	-0.015238960861470389
221	0x3f97b43a797975e0	0.023148454345905622
222	0xbfbdad9f093cc4f8	-0.11593049979707704
223	0x3fb4b15818c6bfc3	0.08083105664149941
224	0xbfb8125f38d636e4	-0.09403033387772158
225	0x3fb7211b48697ba2	0.09034891622421395
226	0xbfb798b24d5636a3	-0.09217371357064023
227	0xbfc04b232d8426d0	-0.1272930118796496
228	0x3fa7ae21f8f74d3a	0.046250402108535885
229	0x3fa1c9d07334708c	0.034742845595446686
230	0x3fbcef2cad9531f8	0.1130245136057012
231	0x3fb4b152e70e0dbd	0.0808307470415945
232	0x3fa5dc46f41152bd	0.04269620637265834
233	0xbf700d856bd747c6	-0.003919144799015178
234	0xbf7fe181d45da33c	-0.0077834197489686195
235	0x3f8e1faea0daa362	0.014708866390110212
236	0x3f951ef8aea68794	0.02062595907194227
237	0x3fc1049262d68fa4	0.13295202089386493
238	0x3fbcaa23dd4b1b5a	0.11197113182707366
239	0x3fc87c9a17f71db3	0.19130254907780184
240	0xbf967d1b950dd57e	-0.021961623165642312
241	0x3fb4cf628e894505	0.08128944377792287
242	0xbfa8adb2700ff33a	-0.04820020311306057
243	0xbfad314744801237	-0.05701658927140268
244	0x3fb3831c8a5e5b33	0.07621935251368654
245	0x3fa69c4fc3f0f0a4	0.04416131274089821
246	0x3f8d21d670e55adc	0.0142246964648342
247	0x3fb43a8ca293fd3f	0.07901839226905326
248	0x3f7ae34b209bdd90	0.006564420191117817
249	0xbfa3f2eb525f821d	-0.038962701611812124
250	0xbfb13d0230e9b903	-0.0673371667305425
251	0xbfa1a45df516dbcd	-0.03445714585125579
252	0xbf8e8646731ca1e3	-0.014904547107634286
253	0x3fa580bb68b9c4d4	0.041997772725957866
254	0x3f841eec202b0782	0.009824604732219692
255	0xbf9ff92eebb58ab0	-0.03122399629263367
