exp/data_checkpoints/nytjtyjyt/checkpoint.pth (torch, 72377 bytes, 114 tensors)

inv_timescales f8 [1]
0	0x3ff0000000000000	1.0

blocks1.SCINet_Tree.workingblock.interact.level.phi.1.weight f8 [1, 1, 5]
0	0xbfc1ccabdebea18b	-0.13905857444957478
1	0xbfded1c1694e1acd	-0.48155246051503015
2	0x3fbb778dada79f8b	0.10729299058550461
3	0x3fd22ef9a2f996e9	0.28411713519595466
4	0x3fccd5df7ba5a019	0.22527688538980398

blocks1.SCINet_Tree.workingblock.interact.level.phi.1.bias f8 [1]
0	0x3fb02bb65628669e	0.06316699603521633

blocks1.SCINet_Tree.workingblock.interact.level.phi.4.weight f8 [1, 1, 3]
0	0x3fd0c0b1e3bb2372	0.26176116217953116
1	0xbfcd7353ad5e91f4	-0.23008199658683248
2	0x3fc783958f4bbc9b	0.18370313164584648

blocks1.SCINet_Tree.workingblock.interact.level.phi.4.bias f8 [1]
0	0xbfdb299f7163cecd	-0.4244154555628768

blocks1.SCINet_Tree.workingblock.interact.level.psi.1.weight f8 [1, 1, 5]
0	0xbf6dc6daf3ca93a0	-0.0036348606502820263
1	0xbf9b35e2d582b964	-0.026572746545462947
2	0xbfcf949dd491a08b	-0.24672291640604657
3	0xbfba848791fca988	-0.10358474077353297
4	0x3fd6a59ff8e73355	0.35385894114442823

blocks1.SCINet_Tree.workingblock.interact.level.psi.1.bias f8 [1]
0	0xbfa65f352c9b48ec	-0.04369512719644483

blocks1.SCINet_Tree.workingblock.interact.level.psi.4.weight f8 [1, 1, 3]
0	0xbfd76a701dbef906	-0.36587145714646885
1	0x3fd0aa56490f6c92	0.26039654860296324
2	0xbfbb1b555bcf1463	-0.10588582507541981

blocks1.SCINet_Tree.workingblock.interact.level.psi.4.bias f8 [1]
0	0xbfd9cd07bab83d2c	-0.40313904985756

blocks1.SCINet_Tree.workingblock.interact.level.P.1.weight f8 [1, 1, 5]
0	0xbfcdf194ad5537d4	-0.233934960017392
1	0x3fc0d950981c5d2e	0.13163192202839852
2	0x3fce6cf7670d2e8d	0.23770039111910926
3	0xbfd324f640ba75b4	-0.2991309768784405
4	0x3fc36dc72e1bee9b	0.15178766013547293

blocks1.SCINet_Tree.workingblock.interact.level.P.1.bias f8 [1]
0	0xbf7ed0deaa654ab8	-0.007523412501842124

blocks1.SCINet_Tree.workingblock.interact.level.P.4.weight f8 [1, 1, 3]
0	0xbfd1140b2b0b880c	-0.26684836581819193
1	0x3fda242a031f2659	0.4084572821126123
2	0xbfbc6572c33f491c	-0.11092297808435031

blocks1.SCINet_Tree.workingblock.interact.level.P.4.bias f8 [1]
0	0xbfd47a057700990f	-0.319947591984957

blocks1.SCINet_Tree.workingblock.interact.level.U.1.weight f8 [1, 1, 5]
0	0x3fadf4eda4081e67	0.05850927951183565
1	0xbfcde3ddc1181f9f	-0.2335164254038746
2	0x3fd7ff8a13a247dc	0.3749718848931687
3	0xbfcfcfd1b0d5c06f	-0.24852963575858975
4	0x3fd46c08b2a75daa	0.3190938706079246

blocks1.SCINet_Tree.workingblock.interact.level.U.1.bias f8 [1]
0	0xbfcd5ec3b7574a26	-0.22945448353000691

blocks1.SCINet_Tree.workingblock.interact.level.U.4.weight f8 [1, 1, 3]
0	0x3fd0f9f7a8a72490	0.26525680036554267
1	0xbfdc77cb44156bb2	-0.4448116459731707
2	0xbfd12e3f12b2929c	-0.2684476549714334

blocks1.SCINet_Tree.workingblock.interact.level.U.4.bias f8 [1]
0	0x3fb4ee5cce288f89	0.08176212342419666

blocks1.SCINet_Tree.SCINet_Tree_odd.workingblock.interact.level.phi.1.weight f8 [1, 1, 5]
0	0xbfd2e29e1c9e8986	-0.2950816421017851
1	0x3fad2b3387e1241c	0.056970224701736266
2	0x3f7221f82613a5af	0.004426926928525018
3	0x3fcc72ba4dfb3223	0.22225121314694815
4	0xbfb90ee0d9ee4d61	-0.097883275228289

blocks1.SCINet_Tree.SCINet_Tree_odd.workingblock.interact.level.phi.1.bias f8 [1]
0	0x3f5d5bcc0edef5b1	0.0017919056658536154

blocks1.SCINet_Tree.SCINet_Tree_odd.workingblock.interact.level.phi.4.weight f8 [1, 1, 3]
0	0x3fd4f9bc52b969de	0.32774265364210275
1	0xbfa657c148dc2192	-0.0436382676544468
2	0xbfd17d7f83fc2ee1	-0.27328479661149

blocks1.SCINet_Tree.SCINet_Tree_odd.workingblock.interact.level.phi.4.bias f8 [1]
0	0xbfa29fab33fa8903	-0.03637442597870868

blocks1.SCINet_Tree.SCINet_Tree_odd.workingblock.interact.level.psi.1.weight f8 [1, 1, 5]
0	0x3fa5b39c480c3d32	0.042385944170855075
1	0xbfd6033f9e5bbbd2	-0.34394827332192535
2	0xbfb6446b8d3f8247	-0.08698150824012273
3	0x3fcaf0429dbfb2a1	0.21045716002062867
4	0x3fd3a18f77f0085f	0.3067358657136818

blocks1.SCINet_Tree.SCINet_Tree_odd.workingblock.interact.level.psi.1.bias f8 [1]
0	0xbfbb9fa8177690b3	-0.10790491650419902

blocks1.SCINet_Tree.SCINet_Tree_odd.workingblock.interact.level.psi.4.weight f8 [1, 1, 3]
0	0xbfce495e917ce9cf	-0.23661405662444543
1	0xbfd4caae2c462d09	-0.32487062762875546
2	0x3fd283fdbcb49129	0.28930610111480576

blocks1.SCINet_Tree.SCINet_Tree_odd.workingblock.interact.level.psi.4.bias f8 [1]
0	0xbfe0a102a108f2c5	-0.519654573937793

blocks1.SCINet_Tree.SCINet_Tree_odd.workingblock.interact.level.P.1.weight f8 [1, 1, 5]
0	0xbfc4492154f19183	-0.15848175666463868
1	0xbfdac8b70ce39840	-0.4185006738538313
2	0xbfda09c3c678c066	-0.4068459928703362
3	0x3fd921db5b56f03d	0.3926914588917077
4	0x3fd08853682bea77	0.2583206670093782

blocks1.SCINet_Tree.SCINet_Tree_odd.workingblock.interact.level.P.1.bias f8 [1]
0	0xbfb82f8bb30a9965	-0.09447548981788641

blocks1.SCINet_Tree.SCINet_Tree_odd.workingblock.interact.level.P.4.weight f8 [1, 1, 3]
0	0xbfdc8f464c3b52ea	-0.4462447876406218
1	0xbfd6f7e8a1542f78	-0.35888114695330087
2	0x3fa7aa8b6b2edb05	0.04622302707087126

blocks1.SCINet_Tree.SCINet_Tree_odd.workingblock.interact.level.P.4.bias f8 [1]
0	0x3fa24fee83331022	0.03576608039432495

blocks1.SCINet_Tree.SCINet_Tree_odd.workingblock.interact.level.U.1.weight f8 [1, 1, 5]
0	0xbfcf2e1d38d9b99e	-0.24359479213621865
1	0xbfd3650e1b324dd8	-0.3030429139700721
2	0x3fd21675b85dc3d1	0.28262084011572336
3	0xbfa064593e14ec7f	-0.03201559908708251
4	0x3f90d7e42a92dd75	0.01644855985497658

blocks1.SCINet_Tree.SCINet_Tree_odd.workingblock.interact.level.U.1.bias f8 [1]
0	0xbfd875cda368aa56	-0.3821901412763159

blocks1.SCINet_Tree.SCINet_Tree_odd.workingblock.interact.level.U.4.weight f8 [1, 1, 3]
0	0xbfd98c29b62cf025	-0.39917986670093547
1	0x3fa4e5fb02d22a14	0.040817112058977895
2	0x3fdffa62432f98a7	0.4996572166550188

blocks1.SCINet_Tree.SCINet_Tree_odd.workingblock.interact.level.U.4.bias f8 [1]
0	0xbfd4ec8d3779f392	-0.3269379655610517

blocks1.SCINet_Tree.SCINet_Tree_odd.SCINet_Tree_odd.workingblock.interact.level.phi.1.weight f8 [1, 1, 5]
0	0xbfcd6d57ee3d241d	-0.22989939816241725
1	0xbfbf725cf01f158e	-0.12283879148806973
2	0x3fd18c3bd9cd9c63	0.27418419141617373
3	0xbfdbc0798b5fd0b7	-0.43362272845048316
4	0xbfa681582d271221	-0.0439555697553582

blocks1.SCINet_Tree.SCINet_Tree_odd.SCINet_Tree_odd.workingblock.interact.level.phi.1.bias f8 [1]
0	0xbfc782ec8c66548f	-0.18368298392730195

blocks1.SCINet_Tree.SCINet_Tree_odd.SCINet_Tree_odd.workingblock.interact.level.phi.4.weight f8 [1, 1, 3]
0	0xbfd2d814f5fa26ca	-0.29443859120565874
1	0xbfdc8ab61f08091b	-0.4459662726441295
2	0x3fc212c808c3fa37	0.14119816234593127

blocks1.SCINet_Tree.SCINet_Tree_odd.SCINet_Tree_odd.workingblock.interact.level.phi.4.bias f8 [1]
0	0xbfd522e5ab5bcc00	-0.3302549527572296

blocks1.SCINet_Tree.SCINet_Tree_odd.SCINet_Tree_odd.workingblock.interact.level.psi.1.weight f8 [1, 1, 5]
0	0xbfc6587ee810c2b8	-0.17457567530938944
1	0xbfc6900f51275b1a	-0.17627135717949544
2	0x3fd22f87c45735ec	0.28415102170842377
3	0xbfdc785ad0a44404	-0.44484587073480975
4	0x3fae3bc4be0866d6	0.05904974765526354

blocks1.SCINet_Tree.SCINet_Tree_odd.SCINet_Tree_odd.workingblock.interact.level.psi.1.bias f8 [1]
0	0xbfcfcff35f7367fa	-0.2485336509769807

blocks1.SCINet_Tree.SCINet_Tree_odd.SCINet_Tree_odd.workingblock.interact.level.psi.4.weight f8 [1, 1, 3]
0	0xbfdb38650a33e9c7	-0.4253170585285741
1	0x3f961bd78ee513b2	0.021590583893402467
2	0x3fe190a5796001bb	0.5489070292097077

blocks1.SCINet_Tree.SCINet_Tree_odd.SCINet_Tree_odd.workingblock.interact.level.psi.4.bias f8 [1]
0	0xbfb3330a1266d995	-0.0749975485731283

blocks1.SCINet_Tree.SCINet_Tree_odd.SCINet_Tree_odd.workingblock.interact.level.P.1.weight f8 [1, 1, 5]
0	0xbfa067642604f881	-0.03203881229500017
1	0xbfb829e420e3d3d9	-0.09438920786835982
2	0x3f7faf20196468ca	0.007735371959166135
3	0xbfd1fa8245b2e2f4	-0.2809148483898263
4	0xbfd33c8c793a4d0b	-0.30057060087820336

blocks1.SCINet_Tree.SCINet_Tree_odd.SCINet_Tree_odd.workingblock.interact.level.P.1.bias f8 [1]
0	0xbfd6ca474e6b71a9	-0.35609610231565597

blocks1.SCINet_Tree.SCINet_Tree_odd.SCINet_Tree_odd.workingblock.interact.level.P.4.weight f8 [1, 1, 3]
0	0xbfc2cc9bf35fbbe0	-0.1468691767072121
1	0x3fdf0d951850e7fc	0.4852040040456129
2	0xbfd7b890a373d70f	-0.370639953252394

blocks1.SCINet_Tree.SCINet_Tree_odd.SCINet_Tree_odd.workingblock.interact.level.P.4.bias f8 [1]
0	0x3fd1f701788bf261	0.2807010342801615

blocks1.SCINet_Tree.SCINet_Tree_odd.SCINet_Tree_odd.workingblock.interact.level.U.1.weight f8 [1, 1, 5]
0	0x3fc055425961eeed	0.12760190357572956
1	0xbfd0e9c57d192638	-0.2642682763731474
2	0x3fd0ea5ca6863922	0.2643043161596258
3	0x3f8f3e83d6ee9c61	0.015255956646639203
4	0xbfbf03407f6c04f4	-0.1211433707321879

blocks1.SCINet_Tree.SCINet_Tree_odd.SCINet_Tree_odd.workingblock.interact.level.U.1.bias f8 [1]
0	0x3f8fe7bf14283f90	0.01557873993172601

blocks1.SCINet_Tree.SCINet_Tree_odd.SCINet_Tree_odd.workingblock.interact.level.U.4.weight f8 [1, 1, 3]
0	0xbfd1ba9935d8dbda	-0.2770140672541267
1	0xbfd614ce0b7bb488	-0.34501982804688014
2	0xbfac70819c3a1dc8	-0.055545854874306466

blocks1.SCINet_Tree.SCINet_Tree_odd.SCINet_Tree_odd.workingblock.interact.level.U.4.bias f8 [1]
0	0xbfcbeb7cec0b0dc0	-0.21812402272744968

blocks1.SCINet_Tree.SCINet_Tree_odd.SCINet_Tree_even.workingblock.interact.level.phi.1.weight f8 [1, 1, 5]
0	0x3fbbc3cc88f27ca0	0.10845640510022969
1	0x3fb74db95ee99a66	0.09102972571563725
2	0x3fb2d143633c878a	0.07350560353054739
3	0xbfd890dff3553028	-0.3838424564644378
4	0xbfcfd357e6ce4966	-0.24863718766989534

blocks1.SCINet_Tree.SCINet_Tree_odd.SCINet_Tree_even.workingblock.interact.level.phi.1.bias f8 [1]
0	0xbfcfc2ffbf412048	-0.248138397584855

blocks1.SCINet_Tree.SCINet_Tree_odd.SCINet_Tree_even.workingblock.interact.level.phi.4.weight f8 [1, 1, 3]
0	0xbf8e1bfbd29f6c1f	-0.014701812138744384
1	0xbfc5312b75286341	-0.16556304188341112
2	0xbfc0ca27541d03d7	-0.1311692391118686

blocks1.SCINet_Tree.SCINet_Tree_odd.SCINet_Tree_even.workingblock.interact.level.phi.4.bias f8 [1]
0	0x3fc23f73dbc3384a	0.14256141882509815

blocks1.SCINet_Tree.SCINet_Tree_odd.SCINet_Tree_even.workingblock.interact.level.psi.1.weight f8 [1, 1, 5]
0	0x3fdb4448783f1d15	0.4260426687510102
1	0x3fae6016f600111d	0.0593268561642921
2	0xbfc0c22214dfe1cd	-0.13092447299255952
3	0x3fc524033f0bd565	0.1651615197985549
4	0xbf837b2bb8722568	-0.00951227337488332

blocks1.SCINet_Tree.SCINet_Tree_odd.SCINet_Tree_even.workingblock.interact.level.psi.1.bias f8 [1]
0	0x3fcdda8adf96615c	0.23323188702921527

blocks1.SCINet_Tree.SCINet_Tree_odd.SCINet_Tree_even.workingblock.interact.level.psi.4.weight f8 [1, 1, 3]
0	0xbfe0edb2b6f0691c	-0.5290158818272945
1	0xbfe254a11193f039	-0.5728307097738315
2	0x3f1b484217fefbac	0.00010407355693951734

blocks1.SCINet_Tree.SCINet_Tree_odd.SCINet_Tree_even.workingblock.interact.level.psi.4.bias f8 [1]
0	0x3fd0657c1fc8148e	0.25619414428394627

blocks1.SCINet_Tree.SCINet_Tree_odd.SCINet_Tree_even.workingblock.interact.level.P.1.weight f8 [1, 1, 5]
0	0x3fda40def9905e06	0.41020941134908673
1	0xbfad0b3cf0848704	-0.056726364479130736
2	0xbfcbc2806b23e343	-0.21687321883634966
3	0xbfcb4b4586dd3e98	-0.21323460660140792
4	0x3fa57afa795493e6	0.04195387583812486

blocks1.SCINet_Tree.SCINet_Tree_odd.SCINet_Tree_even.workingblock.interact.level.P.1.bias f8 [1]
0	0xbfb57287ae7933fd	-0.08377883920293523

blocks1.SCINet_Tree.SCINet_Tree_odd.SCINet_Tree_even.workingblock.interact.level.P.4.weight f8 [1, 1, 3]
0	0x3fe162fbb7c70327	0.5433329190637765
1	0x3fd719d09050ae6a	0.36095060437467075
2	0x3fe0b15afe99f8e6	0.5216498348889018

blocks1.SCINet_Tree.SCINet_Tree_odd.SCINet_Tree_even.workingblock.interact.level.P.4.bias f8 [1]
0	0xbfd1b302332e5ab6	-0.2765508174719956

blocks1.SCINet_Tree.SCINet_Tree_odd.SCINet_Tree_even.workingblock.interact.level.U.1.weight f8 [1, 1, 5]
0	0xbfdb2558ef77c9bf	-0.42415450463809273
1	0x3f9788f21a392df4	0.02298334393553421
2	0x3fdb7c2f176fc1c6	0.4294545868752063
3	0x3fd91886a213cecf	0.3921219427859172
4	0xbfcb6883f75629b9	-0.21412705971699866

blocks1.SCINet_Tree.SCINet_Tree_odd.SCINet_Tree_even.workingblock.interact.level.U.1.bias f8 [1]
0	0x3fb87309986650dd	0.09550533266730406

blocks1.SCINet_Tree.SCINet_Tree_odd.SCINet_Tree_even.workingblock.interact.level.U.4.weight f8 [1, 1, 3]
0	0x3fd4dc599c238d11	0.3259490990441956
1	0x3fac0869f9b8ff92	0.05475169347164334
2	0x3fd3a3cf9cd6c19d	0.30687322918222454

blocks1.SCINet_Tree.SCINet_Tree_odd.SCINet_Tree_even.workingblock.interact.level.U.4.bias f8 [1]
0	0x3f7de5ac09ef1910	0.007299110437946746

blocks1.SCINet_Tree.SCINet_Tree_even.workingblock.interact.level.phi.1.weight f8 [1, 1, 5]
0	0x3fdc87945ada0e50	0.4457751166557715
1	0xbf9ef0808d029c2a	-0.03021431790025645
2	0x3fb2c977b11a7c86	0.07338665078940396
3	0xbfc4fcace1151185	-0.16396103849741564
4	0xbfb06dbb2583033b	-0.0641743628102746

blocks1.SCINet_Tree.SCINet_Tree_even.workingblock.interact.level.phi.1.bias f8 [1]
0	0x3fae792cc7db239a	0.05951824130676826

blocks1.SCINet_Tree.SCINet_Tree_even.workingblock.interact.level.phi.4.weight f8 [1, 1, 3]
0	0xbfc18007d2a666c7	-0.1367196825565797
1	0x3f9a540cee4a3741	0.02571125225454485
2	0xbfd64a985b321224	-0.34830292611903446

blocks1.SCINet_Tree.SCINet_Tree_even.workingblock.interact.level.phi.4.bias f8 [1]
0	0x3fd5bb91e7fe6242	0.3395733609736774

blocks1.SCINet_Tree.SCINet_Tree_even.workingblock.interact.level.psi.1.weight f8 [1, 1, 5]
0	0x3fc30abc36763eb0	0.14876511248848123
1	0x3fa68b519677926b	0.04403166734463045
2	0x3fc864495e97c4b5	0.1905605041388633
3	0xbfdcb884513ee0e3	-0.44876201566832047
4	0x3fa6767b312f6046	0.0438726899662361

blocks1.SCINet_Tree.SCINet_Tree_even.workingblock.interact.level.psi.1.bias f8 [1]
0	0xbfd24fbbf8fa2ffd	-0.28611659349621715

blocks1.SCINet_Tree.SCINet_Tree_even.workingblock.interact.level.psi.4.weight f8 [1, 1, 3]
0	0x3fd91c6d455174cd	0.39236003655771584
1	0xbfd1db7af9d8635a	-0.27902101897193676
2	0xbfb213fbc26f0ce9	-0.07061742302817077

blocks1.SCINet_Tree.SCINet_Tree_even.workingblock.interact.level.psi.4.bias f8 [1]
0	0x3fbc167411c341aa	0.10971761163387464

blocks1.SCINet_Tree.SCINet_Tree_even.workingblock.interact.level.P.1.weight f8 [1, 1, 5]
0	0xbfc0182159631b39	-0.12573639740568313
1	0xbfc6a4dbac0eb7fb	-0.17690606976742615
2	0xbfd1096a9bf9abec	-0.2661997340389337
3	0x3fd8b7f620903b07	0.38622811489123915
4	0x3fbe8e2503172560	0.11935645413827478

blocks1.SCINet_Tree.SCINet_Tree_even.workingblock.interact.level.P.1.bias f8 [1]
0	0xbfd3af6c16931383	-0.3075819225744498

blocks1.SCINet_Tree.SCINet_Tree_even.workingblock.interact.level.P.4.weight f8 [1, 1, 3]
0	0x3fc778abe69279f0	0.18337010153204814
1	0x3f90b812a729971c	0.016327182247912395
2	0xbfd17220594d284d	-0.27259072037543747

blocks1.SCINet_Tree.SCINet_Tree_even.workingblock.interact.level.P.4.bias f8 [1]
0	0xbfdfb5cdfc7f80d3	-0.49547147424710863

blocks1.SCINet_Tree.SCINet_Tree_even.workingblock.interact.level.U.1.weight f8 [1, 1, 5]
0	0x3fb3542cc915ee9e	0.07550315770452662
1	0xbfce7faf6c040a2a	-0.2382716443463136
2	0x3fd905a2b094edae	0.3909689640456361
3	0x3fb6cd600efc8425	0.08907127729300209
4	0xbfc25f86bc778652	-0.14354023172841096

blocks1.SCINet_Tree.SCINet_Tree_even.workingblock.interact.level.U.1.bias f8 [1]
0	0xbfcb5c44f1dee019	-0.21375333604896765

blocks1.SCINet_Tree.SCINet_Tree_even.workingblock.interact.level.U.4.weight f8 [1, 1, 3]
0	0xbfde7dcfe6405591	-0.4764289616153628
1	0x3fcc374641a4bfe0	0.22043684201480485
2	0xbfb77870217c810a	-0.09168148820436187

blocks1.SCINet_Tree.SCINet_Tree_even.workingblock.interact.level.U.4.bias f8 [1]
0	0xbfcfb62c3a1e716a	-0.24774697149122044

blocks1.SCINet_Tree.SCINet_Tree_even.SCINet_Tree_odd.workingblock.interact.level.phi.1.weight f8 [1, 1, 5]
0	0xbfc7cb065402b68e	-0.18588332273559555
1	0x3f9bf9aec1b259fb	0.027319651195819344
2	0xbfc03b4a902841e1	-0.1268094257252548
3	0xbfd4064693ce9948	-0.31288303789405747
4	0x3fdb7bc853a4dc07	0.4294300858340993

blocks1.SCINet_Tree.SCINet_Tree_even.SCINet_Tree_odd.workingblock.interact.level.phi.1.bias f8 [1]
0	0xbf526456a70052bc	-0.0011225553716986266

blocks1.SCINet_Tree.SCINet_Tree_even.SCINet_Tree_odd.workingblock.interact.level.phi.4.weight f8 [1, 1, 3]
0	0xbf9ae1c00a3d494f	-0.026251793503726358
1	0xbfde7c3e5939f1cc	-0.47633322442541437
2	0x3f9f266eece9f283	0.03042004891402651

blocks1.SCINet_Tree.SCINet_Tree_even.SCINet_Tree_odd.workingblock.interact.level.phi.4.bias f8 [1]
0	0xbfd6f6be399ac5cc	-0.35881000161597565

blocks1.SCINet_Tree.SCINet_Tree_even.SCINet_Tree_odd.workingblock.interact.level.psi.1.weight f8 [1, 1, 5]
0	0xbfd11c0969d27ffe	-0.2673362286968767
1	0xbfd3beacf95ffcb1	-0.3085129199316255
2	0xbfb96134ca393780	-0.09913949906441921
3	0x3fbc6c72ff921c84	0.11102980365295606
4	0x3f968ba4d35a584a	0.022017074012716166

blocks1.SCINet_Tree.SCINet_Tree_even.SCINet_Tree_odd.workingblock.interact.level.psi.1.bias f8 [1]
0	0xbfd2cd1675e4e5f4	-0.29376756203745846

blocks1.SCINet_Tree.SCINet_Tree_even.SCINet_Tree_odd.workingblock.interact.level.psi.4.weight f8 [1, 1, 3]
0	0x3fbb388a8ee21511	0.10633150089605105
1	0xbfd5d285f37bde68	-0.3409743192455381
2	0x3fb48b55a54eaabc	0.08025107656309677

blocks1.SCINet_Tree.SCINet_Tree_even.SCINet_Tree_odd.workingblock.interact.level.psi.4.bias f8 [1]
0	0xbfd3e380bd0114be	-0.31076067407077435

blocks1.SCINet_Tree.SCINet_Tree_even.SCINet_Tree_odd.workingblock.interact.level.P.1.weight f8 [1, 1, 5]
0	0x3fd3e70992f20fe9	0.3109764037146748
1	0xbfd202d9d8ea7efa	-0.28142400916293264
2	0x3fb00c95d339ccaa	0.06269203574065565
3	0x3fcb4b61f25bbd69	0.21323799451736683
4	0xbfd2b31ac2ca7b76	-0.2921816732650123

blocks1.SCINet_Tree.SCINet_Tree_even.SCINet_Tree_odd.workingblock.interact.level.P.1.bias f8 [1]
0	0xbfba2c5d2009b255	-0.10223943741011372

blocks1.SCINet_Tree.SCINet_Tree_even.SCINet_Tree_odd.workingblock.interact.level.P.4.weight f8 [1, 1, 3]
0	0x3fe2d9ce1e569364	0.5890875427763658
1	0xbfd9fa95d0889cec	-0.40591950764287676
2	0x3f8af5c7f7af5b9c	0.013164102789159852

blocks1.SCINet_Tree.SCINet_Tree_even.SCINet_Tree_odd.workingblock.interact.level.P.4.bias f8 [1]
0	0x3fe02f95ea090ff2	0.505808789348974

blocks1.SCINet_Tree.SCINet_Tree_even.SCINet_Tree_odd.workingblock.interact.level.U.1.weight f8 [1, 1, 5]
0	0x3fa1b4105dd92e25	0.03457690377817028
1	0x3f8afea23915a0dc	0.013180987708168272
2	0xbf952a90b3e84b74	-0.020670186024357176
3	0x3f9866e8f6eb0f10	0.0238300705630215
4	0x3fbe40744cbefb3f	0.11817099450761946

blocks1.SCINet_Tree.SCINet_Tree_even.SCINet_Tree_odd.workingblock.interact.level.U.1.bias f8 [1]
0	0x3fb0ce4133038a8a	0.0656471967263689

blocks1.SCINet_Tree.SCINet_Tree_even.SCINet_Tree_odd.workingblock.interact.level.U.4.weight f8 [1, 1, 3]
0	0x3fac097ab7280557	0.05475982175631582
1	0x3fd4068eaa5e9d7d	0.31290022504477816
2	0x3fc323882b1376db	0.14952184775659458

blocks1.SCINet_Tree.SCINet_Tree_even.SCINet_Tree_odd.workingblock.interact.level.U.4.bias f8 [1]
0	0xbfd60039f8b7eb1e	-0.34376382149609863

blocks1.SCINet_Tree.SCINet_Tree_even.SCINet_Tree_even.workingblock.interact.level.phi.1.weight f8 [1, 1, 5]
0	0xbfd8ee9a2f5b40b0	-0.389563127752818
1	0x3fb3ba99e9916c00	0.07706605865807603
2	0x3fd06900dba14290	0.25640889595255434
3	0x3fc19ab1ff1c4988	0.13753342587058293
4	0xbfa2daf48c5637ad	-0.036826746111827326

blocks1.SCINet_Tree.SCINet_Tree_even.SCINet_Tree_even.workingblock.interact.level.phi.1.bias f8 [1]
0	0x3f9fb758bde37a73	0.030972849454764927

blocks1.SCINet_Tree.SCINet_Tree_even.SCINet_Tree_even.workingblock.interact.level.phi.4.weight f8 [1, 1, 3]
0	0xbfe1f0cc55e4041e	-0.5606443097641465
1	0xbfc7a087789d557d	-0.1845864619196326
2	0xbf3512aba2a89b76	-0.0003215474158956769

blocks1.SCINet_Tree.SCINet_Tree_even.SCINet_Tree_even.workingblock.interact.level.phi.4.bias f8 [1]
0	0x3fc600f7044ff089	0.17190444670257346

blocks1.SCINet_Tree.SCINet_Tree_even.SCINet_Tree_even.workingblock.interact.level.psi.1.weight f8 [1, 1, 5]
0	0xbfba7804533359f1	-0.10339381247772629
1	0x3fca531f71663c47	0.20566170727804176
2	0xbfc0717048e2263f	-0.12846187170753073
3	0xbf8acba11fbb9886	-0.013083704739482959
4	0xbfcecbed2930c104	-0.24059834014179426

blocks1.SCINet_Tree.SCINet_Tree_even.SCINet_Tree_even.workingblock.interact.level.psi.1.bias f8 [1]
0	0xbfd90cb68822f92d	-0.3914009408434989

blocks1.SCINet_Tree.SCINet_Tree_even.SCINet_Tree_even.workingblock.interact.level.psi.4.weight f8 [1, 1, 3]
0	0x3fd8ef244509ab8f	0.3895960497090351
1	0xbfd708cad45b580a	-0.3599116395756715
2	0x3fde359006f08194	0.4720192020195324

blocks1.SCINet_Tree.SCINet_Tree_even.SCINet_Tree_even.workingblock.interact.level.psi.4.bias f8 [1]
0	0xbfdd3b4db3e02e6e	-0.45674459997164873

blocks1.SCINet_Tree.SCINet_Tree_even.SCINet_Tree_even.workingblock.interact.level.P.1.weight f8 [1, 1, 5]
0	0x3f8ff93b45dfb49f	0.01561209017742221
1	0x3fd596f1c82ac9eb	0.33733791873524294
2	0xbfd24bf4b115b79d	-0.28588597577515334
3	0x3fb26e2e2158b803	0.07199371637463518
4	0x3fccef18c84f6ec5	0.2260466554715689

blocks1.SCINet_Tree.SCINet_Tree_even.SCINet_Tree_even.workingblock.interact.level.P.1.bias f8 [1]
0	0x3fc9a758832ad083	0.20041948704386323

blocks1.SCINet_Tree.SCINet_Tree_even.SCINet_Tree_even.workingblock.interact.level.P.4.weight f8 [1, 1, 3]
0	0xbfc54c5c6ef0a0f8	-0.16639285485258148
1	0x3f85379d5e10287c	0.010359982903555436
2	0xbfb38661fd3b2dc4	-0.07626926834489384

blocks1.SCINet_Tree.SCINet_Tree_even.SCINet_Tree_even.workingblock.interact.level.P.4.bias f8 [1]
0	0x3fbeb061bf01827e	0.11987887299756925

blocks1.SCINet_Tree.SCINet_Tree_even.SCINet_Tree_even.workingblock.interact.level.U.1.weight f8 [1, 1, 5]
0	0xbfa9f4196be87175	-0.05069045488582705
1	0x3fc73d6c97cf0b3b	0.18156201756036147
2	0xbfcc3934c8670272	-0.22049579415581239
3	0x3f92335fc805d0c8	0.017774101813714777
4	0xbfc8f6e75e1dfc9a	-0.19503490539134277

blocks1.SCINet_Tree.SCINet_Tree_even.SCINet_Tree_even.workingblock.interact.level.U.1.bias f8 [1]
0	0xbfd728e0e335be55	-0.36187002361746085

blocks1.SCINet_Tree.SCINet_Tree_even.SCINet_Tree_even.workingblock.interact.level.U.4.weight f8 [1, 1, 3]
0	0xbfcdc9e59f0f7404	-0.232723906198686
1	0x3fd13d48b714f4c5	0.2693654811772144
2	0x3fc5fec8bf7b9040	0.1718378958677267

blocks1.SCINet_Tree.SCINet_Tree_even.SCINet_Tree_even.workingblock.interact.level.U.4.bias f8 [1]
0	0x3fd0ae825e065167	0.2606511991700899

projection1.weight f8 [24, 48, 1]
0	0xbfad50d25d3a7c6f	-0.05725724590342273
1	0xbfb84e9f021e30fb	-0.09494966317851443
2	0x3fc0622a3fb95c6a	0.12799575912024191
3	0xbfb4bb0d11b1b0e4	-0.08097917253479953
4	0x3fa79e63abb18f23	0.04613028975361846
5	0x3fa7117ce37f0ac1	0.045055296679057395
6	0xbfa9ae738b8abe8d	-0.05015908316033544
7	0x3fac6c2b6dc6493e	0.05551276888867783
8	0x3fb0bb2c3db7a20b	0.0653560305287401
9	0x3fb7dca40268102e	0.09321045931579938
10	0x3f907213f6800e26	0.016060172958544915
11	0xbfb73d20f6b042cb	-0.09077650091809202
12	0xbfa84d53327c1c6e	-0.04746494284886969
13	0xbfa455ff0f53face	-0.03971859991178449
14	0xbf09a58ee317a890	-4.891722018014841e-05
15	0xbf916cee9d0f86e5	-0.017017105423184815
16	0xbfbb82cdddf12964	-0.10746466320521147
17	0x3fad86df055e0885	0.05766961040991795
18	0x3f8f47668f5d3276	0.015272904634593614
19	0x3fb26e44ac289990	0.07199505999651579
20	0x3fae285e5dfb6a11	0.05890173814050937
21	0xbf8f744fe7436844	-0.015358566517921564
22	0xbfc300e0a289d3d6	-0.14846427856869465
23	0x3fb1859f71d2067a	0.06844517258471142
24	0x3fa985fd746d9576	0.049850388014230626
25	0xbfa1d4235993a7e6	-0.03482161015001832
26	0xbf7f043f684c81eb	-0.007572410283302559
27	0xbfa6960f6623de8d	-0.04411361810519763
28	0x3fb2cfd5c7810566	0.07348381157591674
29	0xbf8586a2363506a0	-0.010510699538488766
30	0xbf93a91fdc30e62c	-0.019199846090691405
31	0xbfab9be203d6bd64	-0.05392366692410169
32	0x3fae204d75778501	0.0588401990787677
33	0x3f96dcbfb58f4c05	0.022326465088394105
34	0x3fa45c7418b2f68f	0.0397678642416227
35	0x3fb80037052acce5	0.09375327945854257
36	0xbfaaf49049255a17	-0.052647122315353005
37	0xbf6d122e37c5bd70	-0.003548708218822298
38	0x3fc52a97e7a37783	0.165362346749074
39	0xbf838a33f3ec2ad2	-0.009540944940018479
40	0x3fb20e44ab1f0b98	0.07053021600499532
41	0xbfa40a39c4570289	-0.0391405155346592
42	0x3f7246ce22508ea8	0.004462056361294188
43	0x3fbae0603cb46c4e	0.10498620492983088
44	0x3fa1e929c4d81916	0.03498201873667221
45	0x3fa7cf4f733a14bc	0.046503527465611566
46	0x3faf4326c2cb6cbb	0.06105919959892377
47	0x3fb5e69f0cd2f444	0.0855502516087237
48	0x3fb52f352fcbcb8d	0.08275158326050143
49	0x3f9ea9186ebe17b6	0.029941922911824036
50	0xbf9a912bd85495e9	-0.025944409445534253
51	0xbfb02dd71fe6f441	-0.06319946793424071
52	0xbfac923401945a03	-0.05580294150620448
53	0x3fb4873605dedca3	0.08018815654110027
54	0x3fb994cee851410e	0.09992688342868325
55	0xbfb34203d491a0b8	-0.0752260583846035
56	0x3fb08e710fd38435	0.06467348705656735
57	0xbfb18c4fbb2860f5	-0.06854723281174187
58	0xbfa72a7859e54c0b	-0.04524589631423489
59	0xbf6868451c866dcd	-0.0029794072945159345
60	0xbf9f10dfbd73f851	-0.030337806642812663
61	0xbfa2ab489a1dae48	-0.036463040173512484
62	0x3f9bf43ca3ccd793	0.027298877236908558
63	0xbfb4d2d367be8f41	-0.08134194643804184
64	0x3fbb764748725516	0.10727353590694508
65	0x3fb69d4dfc5848c9	0.08833777819407652
66	0x3faab9e25a5e8bdc	0.052199433833514525
67	0xbfb767b50b596140	-0.09142619635656946
68	0x3f842142853f0d33	0.009829063121179793
69	0xbfb282a315c8c7a2	-0.07230586320727508
70	0xbfb03f6fd32543de	-0.0634679689876658
71	0x3f93844185d2ee54	0.01905920390411915
72	0xbfb5de065ac94ed0	-0.08541907993759001
73	0x3fc374534d7d486d	0.15198746951734013
74	0x3f561957b0e5d41e	0.0013488155705918613
75	0x3fb3fb58db107c3e	0.078054002268332
76	0xbfb6fe97c050d502	-0.089822277500236
77	0x3fb19aeb668e1ab1	0.06877013448511594
78	0x3fc56ec6c942a5e1	0.16744313075223174
79	0x3fa19684c6753e4a	0.034351491189792485
80	0xbfbbf2da48cfe76a	-0.10917438771857993
81	0xbfa5a1ad783cbb99	-0.04224912731876102
82	0xbfab2a013209c69b	-0.0530548451978465
83	0x3fb8ecd67dcea4b8	0.0973638589045035
84	0x3fa305c176fd0271	0.03715328767294047
85	0xbf5503ce20289d5e	-0.0012826455064301671
86	0xbfa1b35d94913d9d	-0.03457157553259125
87	0x3f96d31108a3b453	0.022289529945670527
88	0xbf9f86f50be033f0	-0.030788258409348346
89	0xbf9df053352225ce	-0.0292370797328994
90	0x3fb2e4d31aea61ba	0.0738040867530633
91	0x3fa8006e52115c60	0.04687828780941383
92	0x3fa3c5e39c571f7e	0.03861914905024742
93	0x3fb8d24185b29983	0.09695825113394645
94	0x3fcf277c01eb17c6	0.24339246839207201
95	0x3f887afce8e632db	0.011953330857772773
96	0x3fadf77598e1b97a	0.058528590118714655
97	0xbfa8129e08cc79b1	-0.04701703889280696
98	0xbf9a34443a34e32d	-0.02559000592484322
99	0x3faa78879b6d2ccd	0.051700818751294265
100	0xbfb6fb5667923bf1	-0.08977260616869366
101	0x3fb0bc95c854ea43	0.06537758007918008
102	0xbfb07aeb476d6b19	-0.06437559598763833
103	0x3fa8c6a53dc176fe	0.04839054468969371
104	0x3fa1b6d23804958a	0.03459793981373156
105	0xbfa7cf216c2f56ce	-0.04650215573898962
106	0x3f9d1868f86e0548	0.02841342941565486
107	0xbf638130208211aa	-0.002380937574402793
108	0x3faf42eb1a796f3f	0.06105742166684402
109	0x3f7989852c99f39c	0.006234665118992757
110	0xbfa6a2deecf7ef00	-0.044211355616395664
111	0xbfb6f303b6c6a09c	-0.08964560711194952
112	0x3f8100a0aa9d0940	0.008301978308399627
113	0xbf912c9a442cffa5	-0.016771707926863794
114	0x3fa8940272ba9290	0.04800422335145982
115	0xbfa6f9999803044f	-0.04487304669010738
116	0x3fc2272c17ee2de7	0.14182044189907048
117	0x3fb10b7fcdc2e6a2	0.06658171437711727
118	0xbfb40cdcc5f7ef53	-0.07832126458373283
119	0xbfb4003a79d5f850	-0.07812848543650941
120	0xbf9d007d34216e3d	-0.02832217817954884
121	0xbfabd65029eacf44	-0.05436945449528577
122	0xbfa73207706d590b	-0.04530356643106089
123	0x3fb7e2c3d06a1c81	0.09330390775913779
124	0x3fc00341083acbe7	0.1250993051704363
125	0xbf9759271b655cf7	-0.02280102829658134
126	0xbfaf39eefa8932c1	-0.06098887260723052
127	0xbf61b965912a2401	-0.0021635993701392135
128	0xbfaf03ef78712ec6	-0.060576899959952565
129	0xbf9233f84a5ad6d8	-0.017776374376544307
130	0xbfb0da422e517310	-0.06583036070646764
131	0x3faa6aebd231407b	0.05159699383568835
132	0xbfaba623c35be25e	-0.05400192031624294
133	0x3fc01f8eea3de5a4	0.1259630817183225
134	0x3f96cb26d3154908	0.022259337075703406
135	0x3fb0c4d489ca7bfb	0.06550339092289896
136	0x3fbf18e8f87c25a6	0.12147384706999861
137	0x3fc18a5be5da6cc5	0.13703488086034646
138	0xbfb623bc7dcc5559	-0.08648279258007587
139	0x3fb7c1891bb97f33	0.09279686858053253
140	0x3f843b18b32f3a43	0.00987834259822507
141	0x3faea6050ebe9440	0.059860380220279286
142	0x3fc602cafd0b91d4	0.17196023326609
143	0x3fabbfe73be3f5b6	0.054198480664108414
144	0x3fb02b820a662f0b	0.06316387895475033
145	0x3fa3f01c5a121ea5	0.03894127463814571
146	0xbfb3258c943ac589	-0.0747917043579688
147	0x3f9c00733303dca6	0.027345466603006095
148	0x3f9275350e5f08d7	0.018025235178137002
149	0xbfa091d374205941	-0.03236256401594285
150	0xbfaba8c30afea1d8	-0.05402192601406214
151	0x3fa14fde6097b9f0	0.033812474528406855
152	0xbfa9e32018366113	-0.050560954051606675
153	0x3fb4e3a84dcb80d1	0.0815987768105544
154	0x3f9750f738acbe9f	0.02276979716697147
155	0xbf71c876005632a3	-0.004341565077436246
156	0xbfad615894a7b333	-0.05738331617963013
157	0xbf95dd0e2f9ff23f	-0.021351071984087474
158	0x3f95c1dcd24f193d	0.021247339569322
159	0xbf9592e907ba1819	-0.02106823072110595
160	0x3faf14f0ebf1328d	0.060706642915282584
161	0xbfa72b751ed4495e	-0.04525342942555953
162	0x3fa2a8575dc21836	0.03644059199818665
163	0xbf965d3bca39d2c8	-0.021840032785308577
164	0x3f8cb9fc5cf8894e	0.01402661474918845
165	0x3fb0bb52fcb0970a	0.06535833996948895
166	0xbfb44d304211c0d9	-0.07930280316373074
167	0x3fb60259187b153c	0.08597332809138875
168	0xbfb4dc160cf2b843	-0.08148324791065513
169	0xbfb68a93ab02fbe8	-0.08805201459016099
170	0x3fa2ebd85012cb7c	0.03695560433825215
171	0xbf9715cc7f6c576d	-0.022544093396468613
172	0x3fb0d9c25343de59	0.06582273991431843
173	0x3fb5ff3374c38cb5	0.08592530823402707
174	0xbfb81bd251c55ffc	-0.09417452331888393
175	0xbf93d4747ac3df69	-0.019365139000881913
176	0xbfaab587459ff04e	-0.05216620182906749
177	0xbf955524d5d6bf6f	-0.020832610656440872
178	0x3f979cb18ed0ec40	0.023058676091960217
179	0x3fa393549a48979e	0.03823341735214501
180	0x3f80d74bb99edf6e	0.008223144151869834
181	0x3fb5ef6bd04531ce	0.08568452677463442
182	0x3f961d8c9b3f4af0	0.021597096419848805
183	0x3f8470b69c033297	0.009980608593104718
184	0x3fb64030627bba38	0.08691694645288173
185	0x3fb2ec9e0ebb20c7	0.07392299518244548
186	0x3fb8a9c291c200a0	0.09634033258953645
187	0x3f80569aade1c224	0.007977684432462225
188	0x3fa7ebff6527b2a7	0.046722394083052614
189	0xbf94c51e19c9de34	-0.020283193897254928
190	0x3f9a5bfe22ba78d4	0.025741549367574404
191	0x3fca5065bcba59a2	0.20557853427153555
192	0x3facca7889ccb428	0.056232230015986595
193	0x3f8e2d5b32a1778a	0.014734947664859072
194	0xbfb79e87290cea5c	-0.09226269485672262
195	0x3fa9ce244e77256a	0.050400862291619955
196	0x3f8cccd205845ef7	0.014062538903587092
197	0x3f443f95bb7ef9a6	0.0006179314723267395
198	0xbfa886a47459b17f	-0.047902239993024225
199	0xbfacad8f4a62e598	-0.056011655645714586
200	0x3fb9233d6031fadb	0.09819396589771705
201	0xbf91893816aa89f2	-0.017125011809762065
202	0x3f9f0352e7592889	0.0302861169532567
203	0x3f79eefba453e009	0.0063314275514514485
204	0xbfb0fc80f51e4990	-0.06635290130933513
205	0x3fa0181953c95116	0.03143386028082966
206	0x3fa6c22878957577	0.04445005866976264
207	0xbf8faeab4f14efe8	-0.015469873762974332
208	0x3f9889498e60d5d7	0.023961209597663426
209	0xbfa7828b80f3b0fe	-0.04591785382385359
210	0xbfa9623571fe683b	-0.04957739845777139
211	0x3f84109868e9c6f6	0.00979727811975149
212	0x3fa59dd8f8bdaedf	0.04221990620029969
213	0x3fb278f7eaa152c6	0.07215833166385285
214	0xbf916ac1d5fc0373	-0.017008808789799667
215	0xbfa787c29cc938bd	-0.04595764316455717
216	0xbf9088c092ff05d0	-0.016146668407378162
217	0xbf80e7152f1f16c2	-0.008253255367786653
218	0x3fb025c40d105374	0.06307626074733524
219	0x3f8192f37e69fa0d	0.008581068320606478
220	0xbf983a8f067871af	-0.023660883684088748
221	0x3f97989c26b09a67	0.02304309831756726
222	0xbfbaca66fc30227e	-0.10465091378149258
223	0x3fb13b4886e7cc65	0.06731084149923701
224	0xbfb265f03ddcc445	-0.07186795721351398
225	0x3fb41db7b3358cd5	0.07857845425819517
226	0xbfa9c1f7c62ff36d	-0.05030798239020027
227	0xbfb3db127541dcd8	-0.07756152498938051
228	0x3fae17f683af9c34	0.05877657277579154
229	0x3fa7568a214babe2	0.045582119526294
230	0x3fbe4a3eedcaa8de	0.11832040124378149
231	0x3fb7876a6a2fe25f	0.0919100293393824
232	0x3f9541337708853a	0.02075653471013548
233	0xbf81360be8d84e1e	-0.008403866809238155
234	0xbf8ec1058be26420	-0.01501659711020592
235	0x3f7c5f7a95c29343	0.006926993224770697
236	0x3f97ad933ce0508c	0.02312307414111152
237	0x3fc18b79fba78261	0.1370689848690914
238	0x3fb358b0db39f5ab	0.07557206489760541
239	0x3fc9de474ec8cc9c	0.20209590289014023
240	0xbf8fa087110f559d	-0.015442900856139025
241	0x3fb16722358d73a6	0.0679799443000336
242	0xbfa5db91ff7f91bc	-0.04269081348300882
243	0xbfaee85a2794325c	-0.06036645634785451
244	0x3fb68a150c058785	0.08804446738716194
245	0x3fa471257a09afd4	0.03992573847503392
246	0x3f903a831e006197	0.01584820623983915
247	0x3fb3ba8b68513977	0.07706519409950895
248	0x3f93cea7ffe8f381	0.019343018526558623
249	0xbfae1feeb0ddf552	-0.058837374773228604
250	0xbfb0aa76a46841a9	-0.06510106576775478
251	0xbfafb4ccc19a7ec6	-0.06192626822780549
252	0xbf99659ac5e8c108	-0.024801653222483316
253	0x3fa409daeb5d0603	0.03913768885696458
254	0x3f8a8c62720e8652	0.012963074784980187
255	0xbfafc3347d847aad	-0.062036171266517705
