exp/data_checkpoints/Model_hs2_bs32_e100/checkpoint.pth (torch, 101817 bytes, 114 tensors)

inv_timescales f8 [1]
1.0
00000000: 0000 0000 0000 f03f

blocks1.SCINet_Tree.workingblock.interact.level.phi.1.weight f8 [2, 1, 7]
0.021043127115967522 -0.16979489551790705 0.022475975690583044 -0.06254567599692933 -0.33039210574967326 -0.33498721546711785 0.007924552636247409 0.009530214447274171
0.10200934133743692 -0.5843457376216338 -0.2915498494707744 -0.1309655668371699 0.16730300312610857 -0.17491008101789904
00000000: 5419 135b 548c 953f 9479 a3d1 d6bb c5bf
00000010: 88a0 2532 f103 973f ebbb e950 fe02 b0bf
00000020: 784a 43ee 2425 d5bf a099 c037 6e70 d5bf
00000030: dbd0 4373 bf3a 803f 70d0 ffba 9384 833f
00000040: 6a48 eec0 481d ba3f 8f8a 14d5 f5b2 e2bf
00000050: 5f5d 28b3 c0a8 d2bf 21df 3bcd 7ac3 c0bf
00000060: 1c80 794f 2f6a c53f 0b36 db1a 7463 c6bf

blocks1.SCINet_Tree.workingblock.interact.level.phi.1.bias f8 [2]
-0.5310970201155377 -0.5854554911613608
00000000: f9c6 8c2d bffe e0bf 36a7 7927 0dbc e2bf

blocks1.SCINet_Tree.workingblock.interact.level.phi.4.weight f8 [1, 2, 3]
0.25146129064906964 0.1508058982090996 0.19319169727740373 0.14011096520832317 0.2221959069633998 0.2527448294403461
00000000: 980d e318 f117 d03f ef0d 6d90 9b4d c33f
00000010: a924 d56a 81ba c83f 26bc b0f6 27ef c13f
00000020: 063f db5c ea70 cc3f 097b 2ba6 f82c d03f

blocks1.SCINet_Tree.workingblock.interact.level.phi.4.bias f8 [1]
-0.4992307961777499
00000000: 9a53 afb9 65f3 dfbf

blocks1.SCINet_Tree.workingblock.interact.level.psi.1.weight f8 [2, 1, 7]
0.12989575047686636 -0.15387282954447382 -0.48286895191038637 -0.13642696240650218 0.08803650291100913 0.29144891331876344 0.03690330519636905 -0.028502929365561064
-0.07376270782072351 0.02884431813328224 -0.19137723962996891 -0.09320951873593121 -0.032458866629355494 0.05427568989628593
00000000: 9200 1888 6ca0 c03f c178 51d9 1ab2 c3bf
00000010: b85e 2d2d 53e7 debf df0d ea4e 7076 c1bf
00000020: e563 db6c 8f89 b63f 3c2a ca57 19a7 d23f
00000030: 6b8c dd71 fde4 a23f 1873 dc35 df2f 9dbf
00000040: 1321 c1e1 1ce2 b2bf 7c41 3b6c 5d89 9d3f
00000050: 9169 b4a4 0c7f c8bf b18f a53a 94dc b7bf
00000060: 41d0 46d5 729e a0bf bd0f 25f2 05ca ab3f

blocks1.SCINet_Tree.workingblock.interact.level.psi.1.bias f8 [2]
-0.2813124349866579 -1.1886347855300814
00000000: de73 0edf 0501 d2bf b4d5 abe8 a504 f3bf

blocks1.SCINet_Tree.workingblock.interact.level.psi.4.weight f8 [1, 2, 3]
-0.41424905782702415 -0.2198458105464638 0.25276379740858407 0.046000626174910665 0.28980071815312974 0.0846257126127433
00000000: 3404 f17a 0e83 dabf 98d6 3a53 e823 ccbf
00000010: 8be3 de34 482d d03f 2595 08e2 648d a73f
00000020: e5cc b44f 188c d23f 978a 12dc 07aa b53f

blocks1.SCINet_Tree.workingblock.interact.level.psi.4.bias f8 [1]
-0.9812142625595868
00000000: 66fd 0174 1b66 efbf

blocks1.SCINet_Tree.workingblock.interact.level.P.1.weight f8 [2, 1, 7]
-0.5745982586631241 -0.18044785593658005 -0.06687647196445307 -0.42095355146791874 0.26806827981349896 0.5705232643280305 0.4264434378941686 0.8543680427629643
-0.5250690689857502 -0.2436695694851427 -0.2193020759820349 -0.2090289976422886 0.2818747185474722 0.0006250374822300077
00000000: 4b7e 29e3 1b63 e2bf 57c2 f053 ea18 c7bf
00000010: 448d f503 d11e b1bf 1725 2c2a e7f0 dabf
00000020: 8f36 b9db 0728 d13f 7aac 3c01 ba41 e23f
00000030: 4c5a d66a d94a db3f 4443 4da6 fb56 eb3f
00000040: 3ceb eda5 5dcd e0bf 0f0b fc7f 9030 cfbf
00000050: e5d4 2426 1712 ccbf 7a07 6552 76c1 cabf
00000060: 1dc2 6e42 3c0a d23f 3ffd c0c5 317b 443f

blocks1.SCINet_Tree.workingblock.interact.level.P.1.bias f8 [2]
0.005758476982922228 -0.028354081921509316
00000000: 200e 1065 3396 773f 7873 3e3a da08 9dbf

blocks1.SCINet_Tree.workingblock.interact.level.P.4.weight f8 [1, 2, 3]
-0.13005596128570157 -0.2091227838917618 -0.11555087506892577 -0.10091085074993042 0.07438799422339742 -0.5006262855512318
00000000: 6a9b 2f7a aca5 c0bf 9af0 d40e 89c4 cabf
00000010: cdf9 71fd bd94 bdbf 2651 c823 4bd5 b9bf
00000020: 348f 6772 170b b33f 66bc 7e6a 2105 e0bf

blocks1.SCINet_Tree.workingblock.interact.level.P.4.bias f8 [1]
0.022945174479937533
00000000: 6c29 f897 f07e 973f

blocks1.SCINet_Tree.workingblock.interact.level.U.1.weight f8 [2, 1, 7]
0.1413613236900102 0.302615099062382 0.20600144362748685 0.02804141531990872 -0.6632314614747338 0.4645044528240154 -0.8780689556190275 -0.3242327434216873
-0.40721394205207273 -0.5839080331501795 -0.21830740799712595 0.5376978681817753 0.613532721722615 0.40313062811473493
00000000: 907c 15bb 2018 c23f 35eb 6fb8 0b5e d33f
00000010: 3088 a75b 415e ca3f 8f24 ee86 e3b6 9c3f
00000020: e1ca 962f 3139 e5bf f06e 6ee2 70ba dd3f
00000030: fa87 0011 2419 ecbf e276 52b1 3ac0 d4bf
00000040: 66b0 e510 cb0f dabf f70d 48e6 5faf e2bf
00000050: 5a3d e944 7ff1 cbbf 5307 df28 d234 e13f
00000060: 4e62 da5f 0fa2 e33f c932 f167 e4cc d93f

blocks1.SCINet_Tree.workingblock.interact.level.U.1.bias f8 [2]
-0.1427599824180662 0.005147467410752404
00000000: 6ce1 d487 f545 c2bf 4c86 fbc2 8215 753f

blocks1.SCINet_Tree.workingblock.interact.level.U.4.weight f8 [1, 2, 3]
-0.7092962749362317 0.5879306825232906 0.030561125208310332 0.6216348100026927 1.5343423087048547 1.255040437318322
00000000: dcd2 001a 8eb2 e6bf 6a14 b801 54d0 e23f
00000010: 5fd2 3165 6a4b 9f3f 2089 60af 6ee4 e33f
00000020: 921a 4c85 aa8c f83f 2309 1748 a514 f43f

blocks1.SCINet_Tree.workingblock.interact.level.U.4.bias f8 [1]
-0.07871469292760241
00000000: 54b7 d667 a526 b4bf

blocks1.SCINet_Tree.SCINet_Tree_odd.workingblock.interact.level.phi.1.weight f8 [2, 1, 7]
0.10352517035156944 -0.147632557840304 0.1681826350670069 0.19275958101778795 0.31844892955964826 -0.0732944962524234 0.005167060178888048 -0.008479921761739373
0.05019613726630428 0.020553532962887054 0.11842604441301482 0.2934783404892387 0.2743083632791185 -0.09773308129885748
00000000: b40a f924 a080 ba3f 12dd dfa7 9fe5 c2bf
00000010: 4317 af32 0287 c53f d624 3b90 58ac c83f
00000020: d5e9 799e 7761 d43f 2486 6198 6dc3 b2bf
00000030: 24b1 c127 0e2a 753f 334e 1dd5 eb5d 81bf
00000040: c77b e3df 4eb3 a93f 5649 923f fc0b 953f
00000050: 76a0 bf53 2b51 be3f 9c14 9f60 59c8 d23f
00000060: 0366 53aa 448e d13f 8f78 ea03 0905 b9bf

blocks1.SCINet_Tree.SCINet_Tree_odd.workingblock.interact.level.phi.1.bias f8 [2]
-0.850208270999883 -0.8559108227419189
00000000: 6676 d7f9 e734 ebbf 0102 ff17 9f63 ebbf

blocks1.SCINet_Tree.SCINet_Tree_odd.workingblock.interact.level.phi.4.weight f8 [1, 2, 3]
-0.19156808747477033 -0.24753105062838082 -0.188552923648922 -0.13005510640160642 -0.22705996342988427 -0.1409728932628858
00000000: f2a8 5497 4d85 c8bf dac1 98f3 18af cfbf
00000010: 3693 5190 8022 c8bf 071b 564e a5a5 c0bf
00000020: 8ac6 9406 4d10 cdbf 4ae2 1757 660b c2bf

blocks1.SCINet_Tree.SCINet_Tree_odd.workingblock.interact.level.phi.4.bias f8 [1]
-0.21121182532676244
00000000: cd48 2735 fd08 cbbf

blocks1.SCINet_Tree.SCINet_Tree_odd.workingblock.interact.level.psi.1.weight f8 [2, 1, 7]
0.011774563391451118 0.06794930357769786 0.3985349829693913 0.21478412109774667 -0.11257402096991444 0.17288087743170222 -0.019212547264826317 -0.49754871450062055
-0.2737396142924266 -0.05578344181668114 -0.4019158098966698 0.17520027637104468 -0.22380848001792497 -0.5425412384346736
00000000: c516 8725 431d 883f cdf5 a624 2065 b13f
00000010: c796 8adf 9881 d93f 7b4f e8cb 0b7e cb3f
00000020: 91eb 71aa a6d1 bcbf 1423 56e9 f520 c63f
00000030: 767d b338 74ac 93bf c09b 3c90 d6d7 dfbf
00000040: 2f5c c028 f384 d1bf 1e9d 85b4 a58f acbf
00000050: 6519 d016 fdb8 d9bf 26c4 a170 f66c c63f
00000060: 604a 1f9b c1a5 ccbf 47dd 7971 7f5c e1bf

blocks1.SCINet_Tree.SCINet_Tree_odd.workingblock.interact.level.psi.1.bias f8 [2]
1.4760099076280866 0.5194695572106317
00000000: 935a 9d90 bc9d f73f ab97 ef9e 7e9f e03f

blocks1.SCINet_Tree.SCINet_Tree_odd.workingblock.interact.level.psi.4.weight f8 [1, 2, 3]
-0.45588765617464716 -1.1381335134436206 -1.158434614490226 -0.28274471565217796 -0.4646493994317193 -0.4150816098771038
00000000: 97e4 7a6b 432d ddbf 038d ab7c cb35 f2bf
00000010: 62a3 fcbb f288 f2bf 76f2 b54a 7d18 d2bf
00000020: df93 aad5 d0bc ddbf d9f6 e574 b290 dabf

blocks1.SCINet_Tree.SCINet_Tree_odd.workingblock.interact.level.psi.4.bias f8 [1]
-2.4961316183071616
00000000: 6320 99da 13f8 03c0

blocks1.SCINet_Tree.SCINet_Tree_odd.workingblock.interact.level.P.1.weight f8 [2, 1, 7]
-0.015460166813893514 -0.08403079093142339 -0.03898308766528469 -0.07176967108280105 -0.39135159975129485 -0.5092540234813399 -0.21960520811180823 -0.22626442118323528
-0.10901404238540259 -0.274364984665883 0.5025282905020426 0.058606674396950165 0.18988835519885383 0.3297482812915152
00000000: 45dc d976 94a9 8fbf 6750 e8ba 0a83 b5bf
00000010: f02e 3d5d 97f5 a3bf de32 2546 7f5f b2bf
00000020: 6cd2 8a94 e70b d9bf 40ae 0618 cf4b e0bf
00000030: fe8c 6f01 061c ccbf 9b7c 9d88 3bf6 ccbf
00000040: a99d d922 58e8 bbbf 3aae 1327 328f d1bf
00000050: 87ac a035 b614 e03f 1875 b9ab b101 ae3f
00000060: 1433 bcf9 424e c83f 05cb 0389 981a d53f

blocks1.SCINet_Tree.SCINet_Tree_odd.workingblock.interact.level.P.1.bias f8 [2]
-0.19723735502170697 -0.3656442461494118
00000000: 2e13 afda 123f c9bf c4aa cb1f b766 d7bf

blocks1.SCINet_Tree.SCINet_Tree_odd.workingblock.interact.level.P.4.weight f8 [1, 2, 3]
-0.00221540969906703 0.15656230348688277 0.11072905479749669 0.10552094253790319 0.17383555337832735 0.17046770367689015
00000000: 852e 8d06 0d26 62bf 7e9c a1ca 3b0a c43f
00000010: 557e 1245 bd58 bc3f c54e 3ea5 6b03 bb3f
00000020: 582c 5250 3e40 c63f d581 28be e2d1 c53f

blocks1.SCINet_Tree.SCINet_Tree_odd.workingblock.interact.level.P.4.bias f8 [1]
-0.09773929197820849
00000000: 3ea2 9436 7105 b9bf

blocks1.SCINet_Tree.SCINet_Tree_odd.workingblock.interact.level.U.1.weight f8 [2, 1, 7]
-0.7483748610987805 -0.9425034490741919 -0.7079934345093997 -0.4459592064706133 -0.5747537547453803 -0.20589813898959078 -0.23190085885298684 -0.28046594227665944
-0.23664560256099543 0.4222165887308107 0.9451623954053381 1.5303184667433658 0.8953510423606842 0.7571262870463437
00000000: 752b 32d6 aff2 e7bf e481 44fe fc28 eebf
00000010: d404 e0d8 e1a7 e6bf a10c c97b 988a dcbf
00000020: c04e 7cfc 6164 e2bf 3d3f a2c6 de5a cabf
00000030: cc0c 5866 edae cdbf ba15 6e6c 27f3 d1bf
00000040: acef de31 674a cebf 645c 1bba 9805 db3f
00000050: 2c99 3535 c53e ee3f bb0a 7237 2f7c f83f
00000060: e51d ac3a b7a6 ec3f 61ca 39e8 603a e83f

blocks1.SCINet_Tree.SCINet_Tree_odd.workingblock.interact.level.U.1.bias f8 [2]
-0.29575808433928963 -0.47693676698917414
00000000: 72f3 f050 b3ed d2bf 579f 1eca 2186 debf

blocks1.SCINet_Tree.SCINet_Tree_odd.workingblock.interact.level.U.4.weight f8 [1, 2, 3]
0.835217639081513 0.9590389572836169 0.8471307136966397 -1.788879339454295 -1.6174494475354597 -1.3374171048959929
00000000: bfb7 9c57 1aba ea3f 3cf0 a377 72b0 ee3f
00000010: 6274 d8de b11b eb3f f623 37f1 3f9f fcbf
00000020: af91 01ac 12e1 f9bf 893a 6a7a 0f66 f5bf

blocks1.SCINet_Tree.SCINet_Tree_odd.workingblock.interact.level.U.4.bias f8 [1]
0.29391000206328605
00000000: 1310 b5e5 6bcf d23f

blocks1.SCINet_Tree.SCINet_Tree_odd.SCINet_Tree_odd.workingblock.interact.level.phi.1.weight f8 [2, 1, 7]
-0.5155988982124746 0.0961791939173886 0.1305719657715359 0.2914212567789901 0.33440178876223237 0.06049488379736988 0.013760345376379797 -0.24587325265903795
0.13639557610581046 0.22636403127125893 0.3154506211795999 0.40806330960897985 -0.4278156777138277 -0.2574081217596356
00000000: 86a3 b542 c97f e0bf a04a 6e1c 339f b83f
00000010: d2af 6109 95b6 c03f 1666 ce57 a5a6 d23f
00000020: c44a 9dc2 d666 d53f 0e55 f876 2ff9 ae3f
00000030: b158 fc4a 622e 8c3f f9db 9055 c678 cfbf
00000040: c1c5 5805 6975 c13f e87f a61f 7ff9 cc3f
00000050: 7608 5ecd 5730 d43f 34f5 5d92 b51d da3f
00000060: 4bce 1f02 5561 dbbf c9ac 2bea 5f79 d0bf

blocks1.SCINet_Tree.SCINet_Tree_odd.SCINet_Tree_odd.workingblock.interact.level.phi.1.bias f8 [2]
-0.9856630730799264 -0.6782393879838708
00000000: bd19 f848 8d8a efbf 34fe c716 23b4 e5bf

blocks1.SCINet_Tree.SCINet_Tree_odd.SCINet_Tree_odd.workingblock.interact.level.phi.4.weight f8 [1, 2, 3]
-0.4428272644764406 -0.24785517277394106 -0.21752869464952596 -0.3545351811252094 -0.41924478272097376 -0.4215529473025116
00000000: 6805 ad2a 4857 dcbf 57b0 9ae2 b7b9 cfbf
00000010: 5c0b bbf2 fad7 cbbf a1b5 0d54 b4b0 d6bf
00000020: 8888 b311 e8d4 dabf b696 8c36 b9fa dabf

blocks1.SCINet_Tree.SCINet_Tree_odd.SCINet_Tree_odd.workingblock.interact.level.phi.4.bias f8 [1]
0.14714475082309636
00000000: 2a19 48a2 a3d5 c23f

blocks1.SCINet_Tree.SCINet_Tree_odd.SCINet_Tree_odd.workingblock.interact.level.psi.1.weight f8 [2, 1, 7]
0.30635043069336926 0.140097723158908 0.22357526247360338 -0.11527275976662449 0.06322044450916163 -0.014881999525323358 -0.16965362499670525 0.17189528599405487
0.801033584803324 0.9388170175886633 0.8185196139238742 0.6617758727926477 0.5780128271309061 0.28107540086338545
00000000: e362 3cd6 3e9b d33f c814 9be1 b8ee c13f
00000010: 2866 423c 1d9e cc3f ac3b 51fd 8382 bdbf
00000020: 97fd 9a0d 372f b03f 1633 152a 747a 8ebf
00000030: fd1c 81c1 35b7 c5bf 132c d72b aa00 c63f
00000040: 1d4b 372f 11a2 e93f 1117 6ffc c90a ee3f
00000050: b400 9e0b 5031 ea3f 12a4 5d98 442d e53f
00000060: 8743 a6c1 147f e23f eec5 9aad 23fd d13f

blocks1.SCINet_Tree.SCINet_Tree_odd.SCINet_Tree_odd.workingblock.interact.level.psi.1.bias f8 [2]
-0.6922392193562884 0.8097684592373581
00000000: 3f9a 04dd d226 e6bf 6537 388b 9fe9 e93f

blocks1.SCINet_Tree.SCINet_Tree_odd.SCINet_Tree_odd.workingblock.interact.level.psi.4.weight f8 [1, 2, 3]
-0.0944862511861003 -0.2992956489360088 -0.44075745366266483 -2.3875834347555585 -2.126460561072276 -2.6608038994439887
00000000: c614 c43e 4030 b8bf f0f9 00f0 a827 d3bf
00000010: a8c2 3cc0 5e35 dcbf c7f8 0558 c519 03c0
00000020: 5b50 30c1 fd02 01c0 1b73 098e 5349 05c0

blocks1.SCINet_Tree.SCINet_Tree_odd.SCINet_Tree_odd.workingblock.interact.level.psi.4.bias f8 [1]
-0.7598708166529665
00000000: 9db2 569a dc50 e8bf

blocks1.SCINet_Tree.SCINet_Tree_odd.SCINet_Tree_odd.workingblock.interact.level.P.1.weight f8 [2, 1, 7]
-0.7095756533842313 0.04646766255157 0.1722635894778752 0.3012588307700934 0.01044492626052154 0.4043365172012195 0.03359573010384434 -0.5865509335926495
0.017430258404856076 0.05775146479679524 0.20727817609709998 0.16929276238096885 0.5428026445173867 -0.17926780652699034
00000000: e156 2a00 d8b4 e6bf 930b f605 9cca a73f
00000010: 77ad 8cb9 bb0c c63f e07a 721e d347 d33f
00000020: 8fa6 9545 2664 853f 414c 7d45 a6e0 d93f
00000030: 249a 29a4 7533 a13f 92ff a676 06c5 e2bf
00000040: 521e 3dd7 3cd9 913f 6c58 3299 9991 ad3f
00000050: 3c7b c15d 1788 ca3f ea18 f09e 62ab c53f
00000060: bd4d cca6 a35e e13f 7f29 215b 3ff2 c6bf

blocks1.SCINet_Tree.SCINet_Tree_odd.SCINet_Tree_odd.workingblock.interact.level.P.1.bias f8 [2]
-0.30546352830445206 -0.29481697671745516
00000000: 9d0e 0ce6 b68c d3bf eda6 5306 48de d2bf

blocks1.SCINet_Tree.SCINet_Tree_odd.SCINet_Tree_odd.workingblock.interact.level.P.4.weight f8 [1, 2, 3]
0.2162137793330393 0.2228021686885807 0.08658144280619404 0.22799240510998203 0.20594842571023944 0.12132117437437906
00000000: 1409 97a3 e4ac cb3f f366 ff0d c884 cc3f
00000010: 7608 4b91 332a b63f 5285 d7e9 da2e cd3f
00000020: f548 8b9c 845c ca3f c811 408c e70e bf3f

blocks1.SCINet_Tree.SCINet_Tree_odd.SCINet_Tree_odd.workingblock.interact.level.P.4.bias f8 [1]
0.14051864203611525
00000000: 4600 03ce 83fc c13f

blocks1.SCINet_Tree.SCINet_Tree_odd.SCINet_Tree_odd.workingblock.interact.level.U.1.weight f8 [2, 1, 7]
-0.6733913248927614 -0.4625111741664479 -0.2938445657744025 -0.17633238661203302 0.5411394471813734 0.06367177643879697 0.4329381690428719 0.2780581043499103
0.5458364513315286 0.46473716288956146 0.4431520261666487 0.04376901124871836 -0.6103398458487116 -1.0690631085836395
00000000: 7a62 baf6 6b8c e5bf c515 c577 c899 ddbf
00000010: b1ef 0670 59ce d2bf 31b6 dc44 0f92 c6bf
00000020: 4b06 87ac 0351 e13f 799c 7b25 cb4c b03f
00000030: 1bac 4e4b 42b5 db3f 0a85 2438 b4cb d13f
00000040: 24e0 6d01 7e77 e13f ea2c f6f0 40be dd3f
00000050: 5eae e250 9a5c dc3f e272 c84f e468 a63f
00000060: 6fb5 ab6d e787 e3bf 17a1 0beb e11a f1bf

blocks1.SCINet_Tree.SCINet_Tree_odd.SCINet_Tree_odd.workingblock.interact.level.U.1.bias f8 [2]
-0.10996051820625367 0.007816183705986303
00000000: eb0c 8c5d 5f26 bcbf a185 2c6b ee01 803f

blocks1.SCINet_Tree.SCINet_Tree_odd.SCINet_Tree_odd.workingblock.interact.level.U.4.weight f8 [1, 2, 3]
-0.7908576524744487 0.19895105977149946 -0.2134718871997613 -0.688510807119806 -1.2253468162677241 -1.7392653013181933
00000000: 3169 25b5 b44e e9bf 928f 9c73 3a77 c93f
00000010: 4cb6 11fb 0b53 cbbf 4bb5 f0d0 4708 e6bf
00000020: a20a 6243 059b f3bf e9aa 43da 07d4 fbbf

blocks1.SCINet_Tree.SCINet_Tree_odd.SCINet_Tree_odd.workingblock.interact.level.U.4.bias f8 [1]
0.29903164911979907
00000000: 2010 5ca4 5523 d33f

blocks1.SCINet_Tree.SCINet_Tree_odd.SCINet_Tree_even.workingblock.interact.level.phi.1.weight f8 [2, 1, 7]
0.41740298394096054 0.5344591915700333 0.34815385767711465 0.3877105422735836 0.42817225687472 0.0812327302819342 0.47277920587979516 0.37980022261145296
0.14096661584765716 0.24466767560573108 0.3747545527430434 0.6730680865222194 0.5816666360643131 0.1427373319147861
00000000: 0cdf 5101 bbb6 da3f 65e0 9a29 4a1a e13f
00000010: b9c3 2c1e 2748 d63f 3049 d8e0 3fd0 d83f
00000020: 3536 159c 2c67 db3f 6efa ec0f abcb b43f
00000030: 72e2 deb6 0342 de3f 2c4d c897 a54e d83f
00000040: a55d 72ae 310b c23f bfb6 8e38 4551 cf3f
00000050: 1dbe 0385 fafb d73f f003 7315 c689 e53f
00000060: 0542 6259 039d e23f cc03 3f86 3745 c23f

blocks1.SCINet_Tree.SCINet_Tree_odd.SCINet_Tree_even.workingblock.interact.level.phi.1.bias f8 [2]
0.0015679117575611611 -0.2793895972060068
00000000: 0ff9 306e 4cb0 593f 15ea b5e7 84e1 d1bf

blocks1.SCINet_Tree.SCINet_Tree_odd.SCINet_Tree_even.workingblock.interact.level.phi.4.weight f8 [1, 2, 3]
-0.4172129564305684 -0.4004363778679609 -0.17749949373756388 -0.5703477884741537 -0.3785178755585147 -0.45030194012619057
00000000: 8b8d d5f8 9db3 dabf ef94 c4e6 bfa0 d9bf
00000010: 0367 54ac 4db8 c6bf 12f5 5a01 4a40 e2bf
00000020: fa69 1e0a a339 d8bf adb5 8a3a bfd1 dcbf

blocks1.SCINet_Tree.SCINet_Tree_odd.SCINet_Tree_even.workingblock.interact.level.phi.4.bias f8 [1]
-1.2431076127486582
00000000: 3ca0 e2ce c4e3 f3bf

blocks1.SCINet_Tree.SCINet_Tree_odd.SCINet_Tree_even.workingblock.interact.level.psi.1.weight f8 [2, 1, 7]
0.396077212009356 0.20333749016027536 0.045042172567355314 0.20375066412527237 -0.19198207165154768 -0.6371315193945883 -0.3380114177422017 0.2916406995394595
0.9816609536346955 0.5125651651524857 0.6335995558759666 -0.0880483251606385 0.37477002014742006 0.4487651607475426
00000000: c258 113c 5459 d93f 6001 257f f606 ca3f
00000010: 5f33 3c84 c40f a73f de68 7a73 8014 ca3f
00000020: 70b3 9457 de92 c8bf 149e e1a3 6163 e4bf
00000030: 8326 38a4 faa1 d5bf 3217 adc0 3daa d23f
00000040: c9e0 733b c469 ef3f afc2 ac0f ef66 e03f
00000050: b6ea 6793 7246 e43f fd52 08c5 558a b6bf
00000060: c97b 0365 3bfc d73f 16ac 3f82 91b8 dc3f

blocks1.SCINet_Tree.SCINet_Tree_odd.SCINet_Tree_even.workingblock.interact.level.psi.1.bias f8 [2]
0.8847934154726004 0.1552343266552172
00000000: 7f78 e547 3a50 ec3f d0b1 19ea b7de c33f

blocks1.SCINet_Tree.SCINet_Tree_odd.SCINet_Tree_even.workingblock.interact.level.psi.4.weight f8 [1, 2, 3]
-0.8222943461263346 -1.0346365989777804 -0.9716625755708118 -0.733652269750759 -0.46548939405272133 -0.6414307060740971
00000000: c48b 893b 3c50 eabf f1aa 3d1b df8d f0bf
00000010: 495c 1a1d dc17 efbf dae6 2653 147a e7bf
00000020: c7d7 0507 94ca ddbf 44a1 27b0 9986 e4bf

blocks1.SCINet_Tree.SCINet_Tree_odd.SCINet_Tree_even.workingblock.interact.level.psi.4.bias f8 [1]
-1.8856828864604305
00000000: 4497 7fd1 c12b febf

blocks1.SCINet_Tree.SCINet_Tree_odd.SCINet_Tree_even.workingblock.interact.level.P.1.weight f8 [2, 1, 7]
0.7020670059765097 0.07981624287083583 0.3654688557427126 -0.26022004596261655 -0.6593009755086041 -0.4385907617435732 0.6631870943034004 -0.13862745199596718
-0.10262286992747775 -0.005436966532450305 0.472841580519721 0.5853086537331104 -0.36060219699227003 -0.8043212653600632
00000000: c2a1 c839 5577 e63f 94e0 d158 d66e b43f
00000010: 88c6 c77b d763 d73f 5513 cbfa 71a7 d0bf
00000020: a4f8 005c fe18 e5bf 490c 81fc de11 dcbf
00000030: 2832 2524 d438 e53f 3943 535a 8bbe c1bf
00000040: 7b01 290e 7e45 babf 0d21 2497 1245 76bf
00000050: 905a 2155 0943 de3f 152f bb36 d9ba e23f
00000060: a6a4 bc3c 1b14 d7bf a55c 46f3 ffbc e9bf

blocks1.SCINet_Tree.SCINet_Tree_odd.SCINet_Tree_even.workingblock.interact.level.P.1.bias f8 [2]
-0.1519870472798996 -0.17279818055746382
00000000: 8ecb bdc2 4f74 c3bf eebb 2633 401e c6bf

blocks1.SCINet_Tree.SCINet_Tree_odd.SCINet_Tree_even.workingblock.interact.level.P.4.weight f8 [1, 2, 3]
-0.43264567793035413 -0.33541690793775547 -0.19120500426396284 0.1629093960280955 0.7546015261127609 0.290670528533898
00000000: 1add 5d7f 77b0 dbbf fe8e 877a 7877 d5bf
00000010: e997 12d4 6779 c8bf 9c6d 1310 37da c43f
00000020: db4f 8519 b225 e83f 41b4 7d8f 589a d23f

blocks1.SCINet_Tree.SCINet_Tree_odd.SCINet_Tree_even.workingblock.interact.level.P.4.bias f8 [1]
-0.07725563326445954
00000000: bb78 4d72 06c7 b3bf

blocks1.SCINet_Tree.SCINet_Tree_odd.SCINet_Tree_even.workingblock.interact.level.U.1.weight f8 [2, 1, 7]
0.1771311615328397 0.7036046012151098 0.5537798913330391 -0.46149947901639277 -0.5384683510513482 0.04755108750829847 0.02519683030500953 -0.13823223815076482
0.3716139656787164 0.8847434951719187 -0.09286231027908869 -0.581907956886326 -0.2736998306788385 -0.4274981528437475
00000000: c069 f1e0 3bac c63f ae16 f1cb ed83 e63f
00000010: 99a6 4e9b 90b8 e13f c2c5 5f1c 3589 ddbf
00000020: 724a b6fa 213b e1bf 5b89 79bb 9d58 a83f
00000030: a3d3 7da8 32cd 993f 3122 0e0f 98b1 c1bf
00000040: ceec 54f1 85c8 d73f 8796 2397 d14f ec3f
00000050: 3300 ae09 d3c5 b7bf 817c 836f fd9e e2bf
00000060: 24ed 6b4b 4c84 d1bf 921d 6436 215c dbbf

blocks1.SCINet_Tree.SCINet_Tree_odd.SCINet_Tree_even.workingblock.interact.level.U.1.bias f8 [2]
-0.19167989670120264 -0.26218137124708935
00000000: fbef d083 f788 c8bf 951b c85f 94c7 d0bf

blocks1.SCINet_Tree.SCINet_Tree_odd.SCINet_Tree_even.workingblock.interact.level.U.4.weight f8 [1, 2, 3]
0.9544289730770256 0.44606380942813806 0.03904117037735934 -0.08899773418741955 -0.8630015737903841 -1.2142067522080209
00000000: e30f 37a1 ae8a ee3f ea12 5b38 4f8c dc3f
00000010: f2c7 ef4b 34fd a33f 12c9 c035 8ec8 b6bf
00000020: 7b70 fa79 b59d ebbf 9f0d 350f 646d f3bf

blocks1.SCINet_Tree.SCINet_Tree_odd.SCINet_Tree_even.workingblock.interact.level.U.4.bias f8 [1]
0.042667865944322134
00000000: ee56 a401 90d8 a53f

blocks1.SCINet_Tree.SCINet_Tree_even.workingblock.interact.level.phi.1.weight f8 [2, 1, 7]
0.40706001387112073 0.3470978190916753 -0.07814919523650402 -0.1642614072241288 -0.8238056469419354 -0.448881584558521 -0.6984174496525017 -0.03318903273549428
-0.18350096814689887 -0.43047960514626316 0.12088871446576724 -0.10104673471475963 -0.40104887890812974 0.3532295082399324
00000000: 417d c571 450d da3f 33bf 60c5 d936 d63f
00000010: 7adf bfed 9501 b4bf 9ee3 028e 8406 c5bf
00000020: 0506 fca8 9d5c eabf 0427 5dd3 79ba dcbf
00000030: b6d2 268d 6f59 e6bf e7a0 5e24 27fe a0bf
00000040: 98d5 7cb0 f57c c7bf 34af 6c54 fa8c dbbf
00000050: fa00 1613 90f2 be3f cdac f7e4 32de b9bf
00000060: 2181 c0ea c8aa d9bf dcd9 77f0 4f9b d63f

blocks1.SCINet_Tree.SCINet_Tree_even.workingblock.interact.level.phi.1.bias f8 [2]
0.4957737143421576 -0.2542015257910933
00000000: 8f39 54ac c1ba df3f 4d6d f779 d644 d0bf

blocks1.SCINet_Tree.SCINet_Tree_even.workingblock.interact.level.phi.4.weight f8 [1, 2, 3]
-1.10088756585545 -0.16175410545305102 -1.5765386827110812 0.5080624039531055 0.47447019093081655 -0.5294789232067141
00000000: 59c1 be47 3c9d f1bf 4411 75c8 5bb4 c4bf
00000010: def7 31a0 8039 f9bf 89c8 2916 0c42 e03f
00000020: 0662 3e38 b85d de3f 2203 63c8 7df1 e0bf

blocks1.SCINet_Tree.SCINet_Tree_even.workingblock.interact.level.phi.4.bias f8 [1]
-1.5244196327681299
00000000: 42e9 41d7 0564 f8bf

blocks1.SCINet_Tree.SCINet_Tree_even.workingblock.interact.level.psi.1.weight f8 [2, 1, 7]
0.05570181435689299 0.14983742374817963 0.09375903040257312 0.07600045023700676 -0.03779621057085581 0.17756608682598746 0.07488500194311422 -0.1399705153930233
0.2198874541549104 -0.09816447594457442 0.6668843035931414 -0.00844629998521445 -0.2987551675113423 -0.14872235179908644
00000000: 7a3f fbbd f284 ac3f c78f 5b69 df2d c33f
00000010: f5a1 4881 9700 b83f d9cc 3ff8 c374 b33f
00000020: 610d a160 065a a3bf 92ed e54b 7cba c63f
00000030: 817b 4eda a92b b33f e036 02c9 8dea c1bf
00000040: 6cb1 32a8 4525 cc3f d698 cf9d 4e21 b9bf
00000050: b1be 44c0 1d57 e53f 9d6b ab31 4b4c 81bf
00000060: cd38 7efe cd1e d3bf eca4 9482 5509 c3bf

blocks1.SCINet_Tree.SCINet_Tree_even.workingblock.interact.level.psi.1.bias f8 [2]
-1.0101495849654347 0.07943260066914365
00000000: 89e9 779c 9229 f0bf 0c36 1ce6 b155 b43f

blocks1.SCINet_Tree.SCINet_Tree_even.workingblock.interact.level.psi.4.weight f8 [1, 2, 3]
-0.38581497014314803 -0.3219086661511124 -0.24776357784485803 -0.08991929133312856 -0.08255694801048288 -0.060174258280882825
00000000: 429c c445 31b1 d8bf adc0 5ace 269a d4bf
00000010: 1ce7 fd87 b7b6 cfbf 0e27 8e5f f304 b7bf
00000020: 8239 c3bf 7322 b5bf fc40 c10e 29cf aebf

blocks1.SCINet_Tree.SCINet_Tree_even.workingblock.interact.level.psi.4.bias f8 [1]
0.11866330847496218
00000000: 5e97 22f5 b760 be3f

blocks1.SCINet_Tree.SCINet_Tree_even.workingblock.interact.level.P.1.weight f8 [2, 1, 7]
-0.015128720980163775 0.060677055859636564 0.11591195237046625 0.06658882362342265 0.0858281693487379 0.07904249726546589 0.4788352429098302 -0.26725554290588444
0.07129444315327439 -0.42815021094704725 -0.32070379384401665 -0.1801670307223984 0.07665732306642035 0.647574959573883
00000000: e48c b88e cefb 8ebf c0c4 1125 1011 af3f
00000010: a88b a5dc 67ac bd3f dfe0 bd13 f70b b13f
00000020: 3daa 6dbc d5f8 b53f 1ad5 bf0c 213c b43f
00000030: 7113 1e93 3ca5 de3f e326 1dfe b61a d1bf
00000040: 19d7 ba45 5a40 b23f a5c1 7224 d066 dbbf
00000050: e7d7 9034 6986 d4bf 9193 6298 b60f c7bf
00000060: e7b5 9177 d09f b33f d781 221f efb8 e43f

blocks1.SCINet_Tree.SCINet_Tree_even.workingblock.interact.level.P.1.bias f8 [2]
-0.811419645086036 -0.19648904369365683
00000000: 183f df54 26f7 e9bf 90e1 5790 8d26 c9bf

blocks1.SCINet_Tree.SCINet_Tree_even.workingblock.interact.level.P.4.weight f8 [1, 2, 3]
-0.09031051600744047 -0.14457292274111416 -0.19387127736498383 -0.07973022450424852 -0.127615026889767 -0.2191143690636565
00000000: a2a1 bc08 971e b7bf 4ab5 8793 5d81 c2bf
00000010: fa4a f525 c6d0 c8bf ba9c bf32 3369 b4bf
00000020: 741f 7c6f b055 c0bf 6625 9b8c f00b ccbf

blocks1.SCINet_Tree.SCINet_Tree_even.workingblock.interact.level.P.4.bias f8 [1]
-0.12584447705806934
00000000: 605e acfc ab1b c0bf

blocks1.SCINet_Tree.SCINet_Tree_even.workingblock.interact.level.U.1.weight f8 [2, 1, 7]
0.32296188501778855 0.11660991486088051 -0.04945255103524241 -0.04305007258195729 -0.10666607352519923 0.06525713218206045 0.4485501981859906 -0.4614972254885162
-0.3073637529538779 0.2042567599375531 0.17533447613535308 -0.11479257732675968 0.03053347839560272 0.5437647890368599
00000000: e660 8053 68ab d43f ec81 b7ba 25da bd3f
00000010: c5de cc42 d851 a9bf f5ec a8bb a80a a6bf
00000020: 932a 62c1 774e bbbf aa7d 8d00 b1b4 b03f
00000030: 76ae f4e3 0bb5 dc3f 1dbf aaa8 2b89 ddbf
00000040: 276a ba04 d9ab d3bf 6898 f5e3 1525 ca3f
00000050: ca6a 6e30 5c71 c63f dc25 71dd 0b63 bdbf
00000060: 60a6 910c 2b44 9f3f 1d26 346a 8566 e13f

blocks1.SCINet_Tree.SCINet_Tree_even.workingblock.interact.level.U.1.bias f8 [2]
-0.5747688123895255 -0.45456541820249347
00000000: 2329 7f90 8164 e2bf 1da0 448d 9917 ddbf

blocks1.SCINet_Tree.SCINet_Tree_even.workingblock.interact.level.U.4.weight f8 [1, 2, 3]
-0.29753173634392655 -0.3433374443251797 -0.3953371701277401 -0.2024758538605092 -0.33193570225152297 -0.40693183501791375
00000000: f1a1 478d c20a d3bf 879b b79d 3df9 d5bf
00000010: 93e0 2546 344d d9bf 82c0 4791 baea c9bf
00000020: abe2 623e 6f3e d5bf f29a c6d2 2b0b dabf

blocks1.SCINet_Tree.SCINet_Tree_even.workingblock.interact.level.U.4.bias f8 [1]
0.4327124993998212
00000000: 9b87 5fc4 8fb1 db3f

blocks1.SCINet_Tree.SCINet_Tree_even.SCINet_Tree_odd.workingblock.interact.level.phi.1.weight f8 [2, 1, 7]
-0.0822115864478221 -0.20726537126650377 -0.05870291990490545 -0.03486842174879256 0.4830209671063123 0.3323490272167933 0.23896866695851512 -0.13782596923829202
-0.11151837073320639 -0.06914626048702693 -0.047915822589354076 0.0719931944505443 -0.06683245783995173 0.17204491933686286
00000000: cf4a 258b d10b b5bf 4f6a 97f3 ab87 cabf
00000010: 88b1 5722 4f0e aebf 6ffd 2516 46da a1bf
00000020: f33f 40c6 d0e9 de3f 053a b0da 3445 d53f
00000030: 4782 ad78 8696 ce3f eb7f 3507 48a4 c1bf
00000040: 92cb 33cb 778c bcbf dcb6 6ebf 91b3 b1bf
00000050: bae4 f635 6c88 a8bf b01c b35f 256e b23f
00000060: 50e0 bb94 ee1b b1bf 1555 ff62 9105 c63f

blocks1.SCINet_Tree.SCINet_Tree_even.SCINet_Tree_odd.workingblock.interact.level.phi.1.bias f8 [2]
-0.18236372912486348 -0.5892797238751085
00000000: aab0 48d6 b157 c7bf ffa9 c726 61db e2bf

blocks1.SCINet_Tree.SCINet_Tree_even.SCINet_Tree_odd.workingblock.interact.level.phi.4.weight f8 [1, 2, 3]
-0.28830714435736393 -0.275415826226398 -0.2860361795559219 0.01637915842218018 0.05469723480682507 0.2808233212967818
00000000: 30f4 0dcf 9f73 d2bf 5d5d 9cb3 69a0 d1bf
00000010: 0997 2ab1 6a4e d2bf 3f7d 09b7 b2c5 903f
00000020: bd98 5aa5 4601 ac3f 2e1f 3b61 02f9 d13f

blocks1.SCINet_Tree.SCINet_Tree_even.SCINet_Tree_odd.workingblock.interact.level.phi.4.bias f8 [1]
-2.0555535369790294
00000000: 3704 840d c671 00c0

blocks1.SCINet_Tree.SCINet_Tree_even.SCINet_Tree_odd.workingblock.interact.level.psi.1.weight f8 [2, 1, 7]
-0.15617550994620594 -0.3086944382927851 -0.3181608471639044 -0.3601086399227337 -0.09303413623469278 -0.2378949041074794 -0.1551260119634568 -0.08017900856671024
0.18601134825547122 0.039511288794206276 -0.19582493361444564 -0.021379043669594484 0.5949771221498255 0.7119248775755392
00000000: 92d9 d321 8ffd c3bf ae2c 3b51 a6c1 d3bf
00000010: a5f1 5b50 bf5c d4bf 5e69 de1b 050c d7bf
00000020: 2624 8acc 15d1 b7bf 416a 8318 5773 cebf
00000030: 792b 124e 2bdb c3bf 41a6 9e8b 9c86 b4bf
00000040: 3e97 b848 38cf c73f 6e4a 63da d23a a43f
00000050: ecc5 ce9a ca10 c9bf d2cc 8555 63e4 95bf
00000060: e80d 3076 0d0a e33f f1a9 4cae 16c8 e63f

blocks1.SCINet_Tree.SCINet_Tree_even.SCINet_Tree_odd.workingblock.interact.level.psi.1.bias f8 [2]
1.3184339908833256 -0.9387503018343405
00000000: 5575 8c3d 4e18 f53f c9a2 af12 3e0a eebf

blocks1.SCINet_Tree.SCINet_Tree_even.SCINet_Tree_odd.workingblock.interact.level.psi.4.weight f8 [1, 2, 3]
-1.4572305187623227 -1.4756728514168782 -1.7314764992139327 0.44067595506289003 0.43348072259572235 0.36198780372299033
00000000: 9f13 cdf2 d050 f7bf 92e3 c622 5b9c f7bf
00000010: 9ea9 9eb3 20b4 fbbf 443c c8eb 0834 dc3f
00000020: 52af bfed 25be db3f 8ea1 a2e4 ce2a d73f

blocks1.SCINet_Tree.SCINet_Tree_even.SCINet_Tree_odd.workingblock.interact.level.psi.4.bias f8 [1]
-0.8304097334355431
00000000: f257 ec6e b792 eabf

blocks1.SCINet_Tree.SCINet_Tree_even.SCINet_Tree_odd.workingblock.interact.level.P.1.weight f8 [2, 1, 7]
-0.05362910820353641 0.03722249684594081 -0.1640382746646892 0.1140071012997872 0.4113590920775831 -0.14338157123231315 -0.5008460636085181 -0.8092662661778058
-0.7365209293461298 -0.14445863555207228 -0.18081243626202026 0.1734581100466327 0.35020516346096014 0.43645921224878753
00000000: 5317 b243 4675 abbf 50ef 41bd d30e a33f
00000010: cb11 7dc8 34ff c4bf 0027 98c3 912f bd3f
00000020: 93ab d815 b553 da3f 4e5c a5cb 535a c2bf
00000030: ecec f052 ee06 e0bf aeab 5f5e 82e5 e9bf
00000040: 938e 0b57 9491 e7bf 5814 a9dd 9e7d c2bf
00000050: 904c 3aa6 dc24 c7bf 2c29 f016 e033 c63f
00000060: 4f21 fdea c269 d63f af5f a99e f2ee db3f

blocks1.SCINet_Tree.SCINet_Tree_even.SCINet_Tree_odd.workingblock.interact.level.P.1.bias f8 [2]
-0.34741712765673716 -0.1425098658765752
00000000: c6c7 560c 153c d6bf db0b a666 c33d c2bf

blocks1.SCINet_Tree.SCINet_Tree_even.SCINet_Tree_odd.workingblock.interact.level.P.4.weight f8 [1, 2, 3]
0.0782888441740041 0.262817402103649 -0.2733308836416486 -0.1586950278346943 -0.36435338762396446 -0.5387154845360724
00000000: fb75 5ed9 bc0a b43f eeb5 b614 00d2 d03f
00000010: 0492 8ed1 407e d1bf be3d 4b61 1e50 c4bf
00000020: 0108 02df 9051 d7bf 98cc 7d41 283d e1bf

blocks1.SCINet_Tree.SCINet_Tree_even.SCINet_Tree_odd.workingblock.interact.level.P.4.bias f8 [1]
-0.2582261021670173
00000000: 2bfa f1c5 c686 d0bf

blocks1.SCINet_Tree.SCINet_Tree_even.SCINet_Tree_odd.workingblock.interact.level.U.1.weight f8 [2, 1, 7]
0.9631089642148749 0.39938510569369445 0.3413233004717994 0.1628688075053312 -0.3617553663588949 -0.8008116215289668 -1.270780576418829 -0.12602271818124944
0.32040983976714354 0.3932453894621703 0.52112311829689 0.11855066583752868 -0.04535389701221297 -0.011430915370501248
00000000: be31 f9e3 c9d1 ee3f e2b0 dd8b 868f d93f
00000010: fee7 38af 3dd8 d53f b50f e394 e2d8 c43f
00000020: 317e eafa ff26 d7bf 1328 97b1 3fa0 e9bf
00000030: 3ec6 8103 1e55 f4bf 601c 922e 8321 c0bf
00000040: 7074 c745 9881 d43f 4fbd c2b5 ee2a d93f
00000050: 31ca c863 0aad e03f 26f3 b020 5659 be3f
00000060: 46c4 d340 a038 a7bf 8cea 6f7d 1769 87bf

blocks1.SCINet_Tree.SCINet_Tree_even.SCINet_Tree_odd.workingblock.interact.level.U.1.bias f8 [2]
0.008973462525426997 0.0058597744814757515
00000000: 11f4 a0c0 ad60 823f 5671 283c 6b00 783f

blocks1.SCINet_Tree.SCINet_Tree_even.SCINet_Tree_odd.workingblock.interact.level.U.4.weight f8 [1, 2, 3]
0.7947725214718492 0.5692860982612884 0.3914787769973401 -0.17105404844276137 -0.050543016211287435 0.02102549585719887
00000000: c364 6fc8 c66e e93f 8c30 c37a 9737 e23f
00000010: 9a06 1200 fd0d d93f d77c f45b 19e5 c5bf
00000020: e15c 5633 c6e0 a9bf 2ffc 5a24 b587 953f

blocks1.SCINet_Tree.SCINet_Tree_even.SCINet_Tree_odd.workingblock.interact.level.U.4.bias f8 [1]
0.39330371930669233
00000000: 6750 f45c e32b d93f

blocks1.SCINet_Tree.SCINet_Tree_even.SCINet_Tree_even.workingblock.interact.level.phi.1.weight f8 [2, 1, 7]
-0.7986683551087106 -0.19176568826635804 -0.04047919529924269 0.2682461476653719 0.3603535073759957 0.2651082391311835 0.0430958502848052 -0.10834264570336506
0.10917805685807949 0.28163826786672835 0.18050802863218046 0.2751386722416677 -0.13624852185914768 -0.2445805118210421
00000000: 4858 31f0 b08e e9bf 06aa cc2f c78b c8bf
00000010: dd10 f567 b0b9 a4bf 700c e0e3 f12a d13f
00000020: 6671 4b28 0810 d73f 39fd 3d8c 88f7 d03f
00000030: ec12 22c7 a810 a63f 89dd 0ef8 57bc bbbf
00000040: 9a72 a5d7 17f3 bb3f 378a 7283 5c06 d23f
00000050: b600 d217 e31a c73f 0f24 c93b df9b d13f
00000060: 73b6 c170 9770 c1bf 1352 c109 6a4e cfbf

blocks1.SCINet_Tree.SCINet_Tree_even.SCINet_Tree_even.workingblock.interact.level.phi.1.bias f8 [2]
-0.7478515439061023 -0.6123295648533742
00000000: c9df 6a5c 66ee e7bf b469 ed2b 3498 e3bf

blocks1.SCINet_Tree.SCINet_Tree_even.SCINet_Tree_even.workingblock.interact.level.phi.4.weight f8 [1, 2, 3]
-0.6151082030962586 -0.3060983219019635 -0.07740536945975372 -0.5078897258106936 -0.1778206216489461 -0.3100624953888567
00000000: 9b97 f965 f7ae e3bf 847b 7b6a 1d97 d3bf
00000010: e74b 5d9a d6d0 b3bf 4e9a 4af4 a140 e0bf
00000020: bdaf 447d d3c2 c6bf 9552 5a5d 10d8 d3bf

blocks1.SCINet_Tree.SCINet_Tree_even.SCINet_Tree_even.workingblock.interact.level.phi.4.bias f8 [1]
0.19041620855069527
00000000: 2f41 2dee 8e5f c83f

blocks1.SCINet_Tree.SCINet_Tree_even.SCINet_Tree_even.workingblock.interact.level.psi.1.weight f8 [2, 1, 7]
0.32534803107059607 0.3692574085291867 0.4500167617705918 0.04651249869028808 -0.10707067368562385 -0.44795358041341193 -0.6908273761277854 -0.7829135370729595
-0.2858229065727335 0.026347107154303138 0.2975298828283471 0.2742698513439314 0.2952866380723928 -0.28155138113049155
00000000: 7409 518c 80d2 d43f 8111 5cd3 e9a1 d73f
00000010: 8a37 9d1a 13cd dc3f 83c6 7579 7cd0 a73f
00000020: 3927 d7d1 fb68 bbbf 061c 807e 45ab dcbf
00000030: 80cf 7403 421b e6bf 935e aab0 a00d e9bf
00000040: 0b5d 0b29 ec4a d2bf 89aa 496e bcfa 9a3f
00000050: 4d26 15c7 ba0a d33f 0b43 7322 a38d d13f
00000060: abde 5ded f9e5 d23f 8957 8615 f004 d2bf

blocks1.SCINet_Tree.SCINet_Tree_even.SCINet_Tree_even.workingblock.interact.level.psi.1.bias f8 [2]
0.016233176222726284 -0.5153913235591937
00000000: 6c7f f203 6e9f 903f 4786 eaf1 157e e0bf

blocks1.SCINet_Tree.SCINet_Tree_even.SCINet_Tree_even.workingblock.interact.level.psi.4.weight f8 [1, 2, 3]
-0.33056341338364836 -0.3108065337300789 -0.44657092841617163 -1.202395605887016 -0.47582393515943144 -0.011095161444415132
00000000: 5829 6f72 f327 d5bf 6b3e 7016 41e4 d3bf
00000010: 7c13 393b 9e94 dcbf af38 c22c 033d f3bf
00000020: 6a7b 0a3c e673 debf be7d 615c 0fb9 86bf

blocks1.SCINet_Tree.SCINet_Tree_even.SCINet_Tree_even.workingblock.interact.level.psi.4.bias f8 [1]
0.1349263412237922
00000000: 786a 762f 4445 c13f

blocks1.SCINet_Tree.SCINet_Tree_even.SCINet_Tree_even.workingblock.interact.level.P.1.weight f8 [2, 1, 7]
-0.8804173553907522 -0.8838989264329202 0.031915840746724336 0.03184516150187534 -0.45907568460345105 0.16254890816599957 0.2999065784342081 0.36376939836051075
0.3902741301978291 0.24256059407437172 0.06678438667848037 -0.04555449469007084 -0.2621592371036275 -0.6239072311659095
00000000: aa7d 8704 612c ecbf 02f7 bf66 e648 ecbf
00000010: 7a8a 76e8 4557 a03f e16e 5f4e 024e a03f
00000020: 36ae f0fa 7e61 ddbf a567 4912 67ce c43f
00000030: 50bb 8e5c ab31 d33f 879d 4f71 ff47 d73f
00000040: 5e2b 6b58 40fa d83f 5583 6cbd 390c cf3f
00000050: b5e0 aa14 c818 b13f c962 c231 eb52 a7bf
00000060: b914 6d89 37c7 d0bf 480e 334c 0cf7 e3bf

blocks1.SCINet_Tree.SCINet_Tree_even.SCINet_Tree_even.workingblock.interact.level.P.1.bias f8 [2]
-0.08730192975492969 -0.046543032638493416
00000000: 29d4 2c55 6b59 b6bf 79f6 1306 7dd4 a7bf

blocks1.SCINet_Tree.SCINet_Tree_even.SCINet_Tree_even.workingblock.interact.level.P.4.weight f8 [1, 2, 3]
0.3238742995445167 0.3655835483081106 0.4134661491199149 0.1469667551171158 0.047651122163656995 0.10077687640778413
00000000: 37c0 2345 5bba d43f 1a18 fc89 b865 d73f
00000010: 2b47 1eb9 3a76 da3f 6de3 697f cecf c23f
00000020: f407 9f56 ba65 a83f b24d 5d6c 83cc b93f

blocks1.SCINet_Tree.SCINet_Tree_even.SCINet_Tree_even.workingblock.interact.level.P.4.bias f8 [1]
0.04594159862647987
00000000: 74dd 403f a885 a73f

blocks1.SCINet_Tree.SCINet_Tree_even.SCINet_Tree_even.workingblock.interact.level.U.1.weight f8 [2, 1, 7]
-0.7693645924855493 -0.7144979589863351 0.24242876247686948 0.2707261672300563 0.4062354189522786 0.3248176984126803 -0.5211619937194377 0.5584741766426272
0.42650478288722754 0.18506918035534384 -0.35470905725321117 -0.8482657329646702 -0.6513515634976066 -0.05802386577362476
00000000: 2ba0 6d7e a29e e8bf 3df6 dcd2 2add e6bf
00000010: ff54 39db e707 cf3f 512b 9bd8 9353 d13f
00000020: 0d1f b8d7 c2ff d93f 850b f62b d0c9 d43f
00000030: 392e deea 5bad e0bf 49e6 8a3c 05df e13f
00000040: 71a5 85b7 da4b db3f 4dd6 8fce 58b0 c73f
00000050: 97d7 1f9e 8db3 d6bf c3d2 ac2d fe24 ebbf
00000060: 4676 ed3b dfd7 e4bf 853a c5db 4db5 adbf

blocks1.SCINet_Tree.SCINet_Tree_even.SCINet_Tree_even.workingblock.interact.level.U.1.bias f8 [2]
-0.024064500288410146 -0.25026566222041535
00000000: 48e7 ee46 5da4 98bf 141a a344 5a04 d0bf

blocks1.SCINet_Tree.SCINet_Tree_even.SCINet_Tree_even.workingblock.interact.level.U.4.weight f8 [1, 2, 3]
-0.7648385692124545 -0.3088555179660422 -0.23516054304693979 -0.41974153928521196 -0.7179014476534501 -0.7971309966297393
00000000: e394 2fbc 8e79 e8bf 559c 36ef 49c4 d3bf
00000010: 4c1d d99c bd19 cebf fc2b 009e 0bdd dabf
00000020: 2386 ed74 0cf9 e6bf 3ce2 24dd 1882 e9bf

blocks1.SCINet_Tree.SCINet_Tree_even.SCINet_Tree_even.workingblock.interact.level.U.4.bias f8 [1]
-0.035277272717294375
00000000: cac7 39d9 dc0f a2bf

projection1.weight f8 [48, 96, 1]
-0.0020277784161307883 0.0021815568940723616 -0.0007278915499893026 0.0029379944996262156 0.0013418784560825237 0.00435923561109483 -0.0016434602851824757 0.008036905914323851
-0.00103773756811383 0.0017641590665614976 -0.005121779532812756 -0.0005602509315435946 -0.001986774445285393 -0.003254635117274816 -0.008565270061331752 0.004688499364938273
-0.0027057701252156917 -0.005612241376390256 -0.004625449003135581 0.00014746997985115774 -0.004209999637628637 0.0036057528786495037 0.007882393387984514 0.007273088539324338
0.0010158591698803357 0.002665586683860569 -0.002136368933839992 0.0017008116109208066 -0.0045669908419470745 -0.006744957383271482 -0.006098807272172391 0.008235502105568376
-0.006070269382365666 0.0034562509877269715 -0.005221030642370748 0.004801744879942328 -0.0009197754703163656 0.0025518592441250132 -0.0008453239368150395 0.009212398019921249
0.0013680403915570353 0.004116604581481156 -0.0003586070400750144 -8.403407930913259e-05 -0.00350364135385452 -0.0010927331067057814 -0.004417511019645422 0.0030849941849339386
-0.0052960115754279785 -0.006869973100101058 -0.007892661120288807 -0.00024425433164357546 -0.006539219637214772 0.005956482817744256 0.00030855283587367683 0.011270347655173716
0.0010773062931340874 0.005382375669809768 0.004398451731961696 -0.0002953151140313512 -0.006781259639299296 -0.0010914687013340604 -0.0004445646404720402 0.00342164511176592
-0.006966317621282524 -6.968785792729026e-05 0.0013631567263494525 -0.004084210285838691 -0.012925648898555634 -0.005649893143940809 -0.0034584154222386983 -0.00019708001766020091
-0.0051234644453651956 0.001338219677215091 0.00805179060622492 0.005355666057672628 -0.012296607028022715 0.004536468843092381 0.009349170610661657 -0.0030525449111904503
-0.008830558281274391 -0.0026370967740693093 0.008091675380221043 -0.011472309935422979 -0.015388910095181299 0.005434801950900726 0.011043647397562325 -0.004884822713680088
-0.01500299767318413 -0.0017147557262044437 0.05329737273056299 -0.009351464353271562 -0.009143966726483533 0.013634872443049737 0.16593910421056926 0.5534126790556911
-0.00449940946089359 0.0017827567995601082 -0.0035813904497297767 -0.0032202720776821187 -5.651691200856117e-06 -0.0004937300794256229 -0.0020330661653658096 0.008489489163030127
-0.0028671101868596345 -0.0022465176741346543 -0.008384961587269122 0.0013166640844438989 -0.0026133382471456713 -0.0035270963124359855 -0.010535069975323386 0.004065479456101406
-0.003611441359560234 -0.0030680253034147623 -0.0036298216034190613 -0.0008741354045589076 -0.0019269387944732428 -0.0009638180397702904 0.0009344737876180038 0.0020538228135148382
-0.000404529383322573 -0.0009784000762533215 -0.0035734388308950155 0.000708602467316558 -0.0018836683600451393 -0.0056881231400091655 -0.0036933509325611895 0.006949392470083468
-0.0024755064108982886 0.00459165008222422 0.0013392078687299836 0.004418619865492398 0.002012829923277444 -0.0014028510571385778 -0.005516616700704119 0.010031271114944184
-0.0005562285290293262 0.000796425363668757 0.0029790509445553554 0.003361878889947757 -0.0028527891371827783 -0.003543233382092186 -0.001530817623613777 0.006762894591438209
-0.0018402725079263156 -0.0031005829360062527 -0.00967799445445841 -0.0036958831485404855 -0.0015483766537602193 0.004529038253763502 0.004547861344028403 0.010372961315377363
-0.0018082279429371762 0.0010413449304257601 -0.005606048752280043 0.0019181985600541904 -0.0026154740777403923 -0.0028188382149498406 -0.0017291372357630323 0.005467895064154468
-0.0022335129236483973 -0.0010079223667446954 -0.00403235436184955 -0.007731901087101009 -0.009550190818026988 -0.00470308124590828 -0.00021642394115791477 -0.0018478849567166306
-0.0014506483138616102 0.0031477603048393698 0.013740794258020685 0.004082854404973064 -0.0041922130859980145 0.005917047749583126 0.0061597354690792585 -0.006669206225615245
-0.002200471492196855 0.003138340594999344 0.009262876808288004 -0.01104199441529956 -0.010932468275286109 0.010354667385536202 0.010246209794639421 0.0041407253904244086
-0.009555917176229712 0.0022765578511772275 0.027108105755387066 -0.006247839910689365 0.006109466184211553 0.013449117046829344 0.14896993271841305 0.5389374333832602
-0.002625420356306099 -0.0015888404071693276 -0.002760470136919523 -0.003224117944219893 -0.0014160433763466952 -0.004243983861507346 0.0010865393951984947 0.0037236573641440496
-0.004043838874628593 -0.00568280876468727 -0.006727203555130979 -0.005677816364440848 -0.002359309433733809 -0.0014811049239962472 -0.002200465103137026 0.013635806619282318
-0.0011296768222585668 0.004779219322948647 0.005524247744547672 -0.0006971796112389723 -0.001931044698502232 -0.0037808586223168146 0.00021756819009251488 0.007721831676444536
0.002217278181416375 0.00223865231711295 -0.0055673968003470565 0.002463313953991758 0.0009207964493821096 0.0012006195826181352 -0.0009864698204733516 0.005186983108016638
0.0039343390533556725 0.006512125286978864 0.003908373615796592 0.005970268387163295 0.0010310317032927127 0.0033150745166900535 0.0051691691441368886 0.008416718057087092
-0.004446998709277364 -0.00027190888550235987 0.001197868549322689 -4.7600143242501104e-05 -0.00030686370511609463 -0.0003215659180931168 0.0017477811122973282 0.008645929406738622
0.0034466480748947927 0.006811557733716273 -0.0014855281867267986 0.009793402425664875 -0.0033361509261324836 -0.00311241475465898 0.0018157175544091244 4.1035667102856384e-05
-0.003667550411713861 -0.005718914055505641 -0.0058886257400699756 -0.0027955857280991844 -0.0068469445841904215 -0.0046354480964909866 0.002270598866094351 0.0002501572045664397
00000000: 1bd9 623f 8f9c 60bf a6ff 7570 0edf 613f
00000010: a68f 7c33 ffd9 47bf 62ca 55c9 6b11 683f
00000020: 0097 6105 3ffc 553f dfd2 2966 fdda 713f
00000030: 0728 560b 2ced 5abf 5120 8140 a775 803f
00000040: 3d27 ae3a 9600 51bf 9292 bb5f 6be7 5c3f
00000050: 5cb9 7339 93fa 74bf a62d dab6 b95b 42bf
00000060: 0a81 8b68 9146 60bf 9593 73ec 76a9 6abf
00000070: acce 5b16 ab8a 81bf d01e 0977 3f34 733f
00000080: 386f 5846 692a 66bf 70a0 b392 dcfc 76bf
00000090: a31e 2a83 22f2 72bf 4640 307b 4554 233f
000000a0: 4116 282c 813e 71bf ffc7 1ed6 cf89 6d3f
000000b0: 5c59 86ee a424 803f b74d add6 62ca 7d3f
000000c0: edd7 5d7a d2a4 503f 6efc 37f4 23d6 653f
000000d0: 623f 7f56 4a80 61bf 6e49 b78f b8dd 5b3f
000000e0: 50ad ea44 d6b4 72bf 522b fcb5 99a0 7bbf
000000f0: 0d18 751c 10fb 78bf 562b ad61 c6dd 803f
00000100: 8b4c 9a87 23dd 78bf 3294 b09e 4850 6c3f
00000110: d82e c4bd a562 75bf 75c4 9193 feaa 733f
00000120: 742a 47c8 a223 4ebf bb9e ebff a2e7 643f
00000130: 95fc e154 17b3 4bbf 04d5 b421 f3dd 823f
00000140: 3530 722f fa69 563f 36b6 c4a0 92dc 703f
00000150: 5864 5d82 6d80 37bf 10c2 517d 6e07 16bf
00000160: 27d6 0321 abb3 6cbf 3f3e 383d 41e7 51bf
00000170: 2fdc be95 1818 72bf 4499 3ea4 b345 693f
00000180: 474f 4048 45b1 75bf 751c a15c b023 7cbf
00000190: 23d3 1e0b 072a 80bf 2dda c65d e801 30bf
000001a0: 472e bb67 dec8 7abf cb1f 6c2e d365 783f
000001b0: d08c d356 a838 343f 2588 bf74 e814 873f
000001c0: 448a fed2 8ca6 513f 4c3b a077 d40b 763f
000001d0: cf0d 7865 1c04 723f 8047 bcc1 905a 33bf
000001e0: e50a 0686 aac6 7bbf 891a 1e98 f3e1 51bf
000001f0: a93f 7f97 8e22 3dbf 274e 50bb b507 6c3f
00000200: 7f18 b6a5 b688 7cbf eb65 6c48 ac44 12bf
00000210: eb8b c663 7e55 563f e0fd b8d9 9aba 70bf
00000220: 8218 643a c378 8abf f346 77a4 5724 77bf
00000230: 28cd 4da4 d254 6cbf da14 0a76 e8d4 29bf
00000240: aed0 c283 57fc 74bf ff76 e76f e6ec 553f
00000250: e8b1 9f0a 757d 803f 4357 0ea9 d2ef 753f
00000260: 4306 4ca8 f62e 89bf b660 2015 d594 723f
00000270: 84df 2370 a825 833f 0832 0592 a601 69bf
00000280: 661e 3078 c115 82bf f51c d58c 649a 65bf
00000290: 41ef 0549 5e92 803f e294 db5f cb7e 87bf
000002a0: 489c a38c 3884 8fbf f4cc 3a8a cd42 763f
000002b0: 6b6c 3543 0d9e 863f 940c d59c 1b02 74bf
000002c0: 3c4c c942 e4b9 8ebf 0777 f0f0 3418 5cbf
000002d0: bd54 ae11 cb49 ab3f 243d 894c dc26 83bf
000002e0: ba1f 5e70 12ba 82bf 8501 d399 99ec 8b3f
000002f0: 8d20 db18 7e3d c53f cd8c b781 8eb5 e13f
00000300: a80b c607 f96d 72bf 7c3c a789 6c35 5d3f
00000310: 8dae 625b b856 6dbf 9b71 4068 6661 6abf
00000320: 40c1 480c 75b4 d7be bad6 a745 b52d 40bf
00000330: 0c72 1b16 a6a7 60bf 2c0a 85f2 ef62 813f
00000340: 6826 920f c47c 67bf 20e4 16fe 4967 62bf
00000350: 9242 5d7e 222c 81bf a226 ae4b 7d92 553f
00000360: 9f8c c149 9168 65bf 1ce5 f969 dbe4 6cbf
00000370: 406a 0a28 6993 85bf b37c e7d4 f6a6 703f
00000380: bcc3 fbd0 bd95 6dbf f44b ed8a 1d22 69bf
00000390: ecc6 76a2 49bc 6dbf d516 c87c c7a4 4cbf
000003a0: cc4d a2c6 2a92 5fbf 89d3 e47a 1795 4fbf
000003b0: 813f ab2d ef9e 4e3f e63c 1bba 2dd3 603f
000003c0: 4d7f bd78 e082 3abf e546 1d15 b507 50bf
000003d0: 1be4 365d 0b46 6dbf 5185 2436 3038 473f
000003e0: 8893 2f80 addc 5ebf c696 caed 6d4c 77bf
000003f0: 18de f9ae 8441 6ebf 3d5f 2d56 f776 7c3f
00000400: 9d55 6d62 8347 64bf b458 01af b1ce 723f
00000410: f65f eb7f 0bf1 553f 6f4b 0d3d 4219 723f
00000420: f620 2cd6 357d 603f 6c26 57da fbfb 56bf
00000430: ed84 0685 9798 76bf 8609 026b 468b 843f
00000440: 802a afab fb39 42bf 3538 0172 e618 4a3f
00000450: 72d2 28cc 8567 683f e982 55fc 5e8a 6b3f
00000460: eb9d 7d81 bb5e 67bf 241a f1ef b206 6dbf
00000470: c7bc 4ae8 b614 59bf 105b 8bb1 68b3 7b3f
00000480: 7e74 2f8f a926 5ebf 28ba e0c9 6466 69bf
00000490: 50d4 616d 0ed2 83bf a717 1728 d446 6ebf
000004a0: cc1e bfc5 5c5e 59bf 087c ea72 0a8d 723f
000004b0: 005b d43b c7a0 723f 08d3 e54c 6b3e 853f
000004c0: 2473 3bf8 41a0 5dbf 6fd6 e19a b70f 513f
000004d0: 3c2d d040 5ef6 76bf b26a 4a05 826d 5f3f
000004e0: a5e9 13f4 0b6d 65bf a203 453e 8817 67bf
000004f0: 5e7b 2ff8 8654 5cbf 09f3 a7e7 8065 763f
00000500: 38dc ca1e 044c 62bf 3267 8866 8883 50bf
00000510: 6dab c2e1 3a84 70bf a34d e164 7cab 7fbf
00000520: bd33 dfe9 0c8f 83bf b305 44c2 8943 73bf
00000530: da1a aa7f fb5d 2cbf 40f2 2c5d 9746 5ebf
00000540: 25e3 39c4 75c4 57bf 73ec 13f2 54c9 693f
00000550: 4e92 ac2f 2224 8c3f ae8c 4ce2 2eb9 703f
00000560: 60b6 a2a1 da2b 71bf 005c 2c69 793c 783f
00000570: 2d6e 4466 f33a 793f cf99 116a 2b51 7bbf
00000580: 5052 0823 b906 62bf 7ef1 03c7 93b5 693f
00000590: 55f4 aa47 6af8 823f 19ad 2b67 2f9d 86bf
000005a0: 25c1 a70d c363 86bf 2233 41ee d334 853f
000005b0: 03b5 ceff f6fb 843f eb2e 2382 ddf5 703f
000005c0: baa1 0a7e 0d92 83bf 4792 95b0 49a6 623f
000005d0: 4c1e b42e 3ac2 9b3f 2393 64c1 5597 79bf
000005e0: ccb7 5057 3d06 793f 6979 02ef 358b 8b3f
000005f0: a773 8e5e 7211 c33f bc14 5fb7 f93e e13f
00000600: 20de 31d2 e781 65bf e23b 9765 1408 5abf
00000610: 4b7c b51e 209d 66bf 7bb6 1f24 7769 6abf
00000620: be9d 6eff 5033 57bf e222 3dbe 2362 71bf
00000630: 38ad c3ca 46cd 513f 175d 3753 1381 6e3f
00000640: a81b 78bb 4590 70bf 6137 b35c db46 77bf
00000650: 5a85 34f4 fb8d 7bbf e845 9139 9f41 77bf
00000660: 8e2e 7d9b d453 63bf 6cf8 784d 3444 58bf
00000670: 6143 edb4 b506 62bf ff0b e0fb 16ed 8b3f
00000680: 12f3 6c40 3582 52bf 6761 14eb 5f93 733f
00000690: 3387 5df6 97a0 763f 2551 9ad0 5dd8 46bf
000006a0: b289 f074 63a3 5fbf 11dd 4604 09f9 6ebf
000006b0: 588a ae85 6084 2c3f 4ead 3f68 eda0 7f3f
000006c0: 0967 cf28 f829 623f f5d3 a64f cb56 623f
000006d0: b2ca e6b2 d6cd 76bf a6db e89b f12d 643f
000006e0: c28a 7451 332c 4e3f 04f3 e775 c3ab 533f
000006f0: 1be0 83e7 8d29 50bf ca78 052d f23e 753f
00000700: cc71 0c19 741d 703f ff13 2952 75ac 7a3f
00000710: 362e c40d 3a02 703f 7812 8ab7 4774 783f
00000720: ea10 98dc 75e4 503f 816d 4114 3728 6b3f
00000730: f5b5 be46 442c 753f fad5 5bc6 c83c 813f
00000740: 9de2 5820 0437 72bf 7a32 4ec5 dfd1 31bf
00000750: ffc1 a18f 39a0 533f e8da d477 c8f4 08bf
00000760: fae5 ea93 511c 34bf 6533 0a1a fb12 35bf
00000770: c1cd f1ad b9a2 5c3f d61d 5d00 f5b4 813f
00000780: da5a 6618 253c 6c3f 3ad1 379b 6fe6 7b3f
00000790: b77c acbe c156 58bf d210 1439 900e 843f
000007a0: fa8b e963 6a54 6bbf 3bb1 a6f2 347f 69bf
000007b0: 011c f5e0 abbf 5d3f 70a9 10c9 b683 053f
000007c0: 1b4a 6422 690b 6ebf 197b 644d b76c 77bf
000007d0: 743f 8def ab1e 78bf 87ab cfa8 c4e6 66bf
000007e0: 6be2 10b1 8a0b 7cbf 15b4 a09f 9efc 72bf
000007f0: c824 e97b ca99 623f 6857 3103 f164 303f
