exp/data_checkpoints/Model_hs1_bs64_e100/checkpoint.pth (torch, 100025 bytes, 114 tensors)

inv_timescales f8 [1]
1.0
00000000: 0000 0000 0000 f03f

blocks1.SCINet_Tree.workingblock.interact.level.phi.1.weight f8 [1, 1, 7]
0.11431839769295658 0.11006615694869816 0.27099937356529413 -0.07471574492283632 0.03077358305095819 -0.4611301196399169 -0.5221580213385685
00000000: 7720 6c73 f843 bd3f 39b6 7db0 4b2d bc3f
00000010: 62c3 acc1 0d58 d13f ab9a f030 9220 b3bf
00000020: 946f 2333 1c83 9f3f e874 c3e7 2783 ddbf
00000030: 79c8 1fbd 84b5 e0bf

blocks1.SCINet_Tree.workingblock.interact.level.phi.1.bias f8 [1]
-0.8258005785516773
00000000: f4b6 bc55 f56c eabf

blocks1.SCINet_Tree.workingblock.interact.level.phi.4.weight f8 [1, 1, 3]
-0.8747346991569641 -0.6138681262315828 -0.4309901938220479
00000000: 25c7 b19f d3fd ebbf 1a16 c7c4 cea4 e3bf
00000010: 8331 d7e4 5795 dbbf

blocks1.SCINet_Tree.workingblock.interact.level.phi.4.bias f8 [1]
-1.0789289628637817
00000000: 7350 2304 4b43 f1bf

blocks1.SCINet_Tree.workingblock.interact.level.psi.1.weight f8 [1, 1, 7]
-0.22770649859348566 0.14949828348342448 -0.21083666551285657 -0.41530016224231875 -0.3085699931323162 -0.38644201625645125 -0.23694317086554248
00000000: 33d9 458e 7c25 cdbf fa49 2f7f c222 c33f
00000010: d673 9623 b2fc cabf 15ac b621 4794 dabf
00000020: 7fef 415b 9cbf d3bf e4ca 674b 77bb d8bf
00000030: c763 f060 2754 cebf

blocks1.SCINet_Tree.workingblock.interact.level.psi.1.bias f8 [1]
-0.8932695464794831
00000000: 588c 1404 aa95 ecbf

blocks1.SCINet_Tree.workingblock.interact.level.psi.4.weight f8 [1, 1, 3]
1.2285977828223642 1.3197411470316525 1.352047899979288
00000000: 0990 1226 56a8 f33f cdfb 9ae4 a81d f53f
00000010: 9795 90fa fca1 f53f

blocks1.SCINet_Tree.workingblock.interact.level.psi.4.bias f8 [1]
0.13191244428900695
00000000: f80e 14c9 81e2 c03f

blocks1.SCINet_Tree.workingblock.interact.level.P.1.weight f8 [1, 1, 7]
0.16552673831547687 0.34304730776195785 0.21228633951632916 -0.9349066893841801 -0.1566167421978838 0.03545043415015609 0.17298012614657923
00000000: dad9 d6eb fa2f c53f 9561 f4b1 7cf4 d53f
00000010: 951a cee2 322c cb3f 13ef f66e c1ea edbf
00000020: 147c df74 040c c4bf a99b 9b2e 8f26 a23f
00000030: 5d29 5478 3624 c63f

blocks1.SCINet_Tree.workingblock.interact.level.P.1.bias f8 [1]
-0.05147602101709937
00000000: 91e2 97a5 105b aabf

blocks1.SCINet_Tree.workingblock.interact.level.P.4.weight f8 [1, 1, 3]
-0.2707458647314489 -0.49347434309216676 -0.858757883980771
00000000: c01f a376 e653 d1bf 7abd 3f69 1595 dfbf
00000010: 7825 5cd0 f17a ebbf

blocks1.SCINet_Tree.workingblock.interact.level.P.4.bias f8 [1]
-0.5504651836463159
00000000: 381f 2b29 699d e1bf

blocks1.SCINet_Tree.workingblock.interact.level.U.1.weight f8 [1, 1, 7]
0.6292201845652918 0.010170467866980218 0.5981438101279781 0.1512347001873665 -0.060084069595509576 -0.3566960739827953 -0.6259740357752189
00000000: c61c 565e 9222 e43f db55 fd16 41d4 843f
00000010: 76be d97c fe23 e33f 049d a99d a85b c33f
00000020: fcba d8d3 56c3 aebf 6f88 17c5 1bd4 d6bf
00000030: 2397 79b3 fa07 e4bf

blocks1.SCINet_Tree.workingblock.interact.level.U.1.bias f8 [1]
-0.24108423732965437
00000000: 5dbb 7429 d9db cebf

blocks1.SCINet_Tree.workingblock.interact.level.U.4.weight f8 [1, 1, 3]
-0.16410853773511944 -0.253292760179748 -1.0782240393452958
00000000: 478a 4831 8201 c5bf 1647 52d6 f235 d0bf
00000010: 29fc abd9 6740 f1bf

blocks1.SCINet_Tree.workingblock.interact.level.U.4.bias f8 [1]
0.35813517867225275
00000000: be71 fccf afeb d63f

blocks1.SCINet_Tree.SCINet_Tree_odd.workingblock.interact.level.phi.1.weight f8 [1, 1, 7]
-0.18220703359663995 -0.10260621444718784 0.13023530684377577 0.06847835848961045 0.2976273977758519 0.3883902281439924 1.1370066091293287
00000000: f909 3361 8f52 c7bf c6c2 6a9f 6644 babf
00000010: 76da d6ef 8cab c03f 0e57 3236 cc87 b13f
00000020: c4d0 f5c8 530c d33f 28b9 fdaf 62db d83f
00000030: bcbd 98d7 2d31 f23f

blocks1.SCINet_Tree.SCINet_Tree_odd.workingblock.interact.level.phi.1.bias f8 [1]
-0.5214758892981993
00000000: 6906 4634 eeaf e0bf

blocks1.SCINet_Tree.SCINet_Tree_odd.workingblock.interact.level.phi.4.weight f8 [1, 1, 3]
-1.052651952545595 -1.1104408755988493 -1.2412802982138615
00000000: df0f e492 a9d7 f0bf 296b cda6 5dc4 f1bf
00000010: 6df6 dfba 48dc f3bf

blocks1.SCINet_Tree.SCINet_Tree_odd.workingblock.interact.level.phi.4.bias f8 [1]
-2.686619458552169
00000000: f83a ba57 327e 05c0

blocks1.SCINet_Tree.SCINet_Tree_odd.workingblock.interact.level.psi.1.weight f8 [1, 1, 7]
-0.6975725070083337 -0.504162549970488 -0.5538328900468886 -0.36950990724086985 -0.6282844784398146 0.15335649543206492 0.2458155643409538
00000000: 9510 0694 8352 e6bf 02b8 ff7f 1922 e0bf
00000010: e96a c6c0 ffb8 e1bf 2071 c9e1 0ca6 d7bf
00000020: 2f78 ef0c e81a e4bf 2644 4186 2fa1 c33f
00000030: 5e99 d868 e276 cf3f

blocks1.SCINet_Tree.SCINet_Tree_odd.workingblock.interact.level.psi.1.bias f8 [1]
0.25794119362552964
00000000: 316c bac7 1b82 d03f

blocks1.SCINet_Tree.SCINet_Tree_odd.workingblock.interact.level.psi.4.weight f8 [1, 1, 3]
0.3665516232752 -0.04973125372840428 -0.652834791112026
00000000: 05d0 90f0 9475 d73f a384 b4f8 5f76 a9bf
00000010: 708c b0c9 05e4 e4bf

blocks1.SCINet_Tree.SCINet_Tree_odd.workingblock.interact.level.psi.4.bias f8 [1]
-0.8743971762207223
00000000: e6a5 72c9 0ffb ebbf

blocks1.SCINet_Tree.SCINet_Tree_odd.workingblock.interact.level.P.1.weight f8 [1, 1, 7]
0.36621223391733243 0.17918742303729607 -0.007723749997399381 -0.36033743099505183 -0.5205497962836411 -0.4604030178351382 -0.35440921496635247
00000000: 9d7b 0470 0570 d73f b05c e60c 9def c63f
00000010: b9ce 425a f0a2 7fbf 757f 69ba c40f d7bf
00000020: 5349 df0b 58a8 e0bf 5139 2538 3e77 ddbf
00000030: fc9d ebfc a3ae d6bf

blocks1.SCINet_Tree.SCINet_Tree_odd.workingblock.interact.level.P.1.bias f8 [1]
0.13998582413778013
00000000: d3a5 4934 0eeb c13f

blocks1.SCINet_Tree.SCINet_Tree_odd.workingblock.interact.level.P.4.weight f8 [1, 1, 3]
-0.33553166323440153 -0.264582324281732 -0.26411556147205156
00000000: b64f 17cc 5979 d5bf f0f0 78b3 eaee d0bf
00000010: e3c6 b8f4 44e7 d0bf

blocks1.SCINet_Tree.SCINet_Tree_odd.workingblock.interact.level.P.4.bias f8 [1]
-0.21191654017984132
00000000: d1e5 c6c8 1420 cbbf

blocks1.SCINet_Tree.SCINet_Tree_odd.workingblock.interact.level.U.1.weight f8 [1, 1, 7]
0.06467724583156532 0.059479301243175735 -0.11805202769316556 -0.22246161331702793 -0.19338373126837075 0.11961095285456422 1.0301720548454252
00000000: 3955 a41f b08e b03f f7b9 412b 1274 ae3f
00000010: 7e2b 2b5e a838 bebf b3f0 e744 9f79 ccbf
00000020: 3524 b050 ccc0 c8bf d6f5 c0ca d29e be3f
00000030: 0b07 4db1 957b f03f

blocks1.SCINet_Tree.SCINet_Tree_odd.workingblock.interact.level.U.1.bias f8 [1]
-0.5335765019676444
00000000: 00af 3b07 0f13 e1bf

blocks1.SCINet_Tree.SCINet_Tree_odd.workingblock.interact.level.U.4.weight f8 [1, 1, 3]
0.3823775945976225 0.3415432566071302 0.32239494209013075
00000000: 9d46 e1df df78 d83f 6501 533f d8db d53f
00000010: 3611 2b65 1ea2 d43f

blocks1.SCINet_Tree.SCINet_Tree_odd.workingblock.interact.level.U.4.bias f8 [1]
-0.13993032570021705
00000000: 8def 4ca6 3ce9 c1bf

blocks1.SCINet_Tree.SCINet_Tree_odd.SCINet_Tree_odd.workingblock.interact.level.phi.1.weight f8 [1, 1, 7]
0.1654740748533961 0.1906735684805869 0.041991539458042564 0.42265880991911453 -0.13048833420081904 -0.21715644268324763 0.1405016521118949
00000000: 8264 ea25 412e c53f 6ff9 6ad2 fd67 c83f
00000010: 3faa 5c41 ea7f a53f 1602 7e89 d70c db3f
00000020: eb75 f37b d7b3 c0bf 045a b845 c8cb cbbf
00000030: 2762 6d48 f5fb c13f

blocks1.SCINet_Tree.SCINet_Tree_odd.SCINet_Tree_odd.workingblock.interact.level.phi.1.bias f8 [1]
-0.6128809512458203
00000000: 3f26 3e83 b89c e3bf

blocks1.SCINet_Tree.SCINet_Tree_odd.SCINet_Tree_odd.workingblock.interact.level.phi.4.weight f8 [1, 1, 3]
-0.5724221528033736 -0.930329843993494 -0.6751555581994894
00000000: 257c 3943 4851 e2bf 1f3c ce17 43c5 edbf
00000010: e7bd 45d4 df9a e5bf

blocks1.SCINet_Tree.SCINet_Tree_odd.SCINet_Tree_odd.workingblock.interact.level.phi.4.bias f8 [1]
-1.4476420088734525
00000000: e5d5 c6aa 8a29 f7bf

blocks1.SCINet_Tree.SCINet_Tree_odd.SCINet_Tree_odd.workingblock.interact.level.psi.1.weight f8 [1, 1, 7]
-0.78883450570631 -0.38472900330534193 -0.5336243127694733 0.2443400575987932 0.8270169315240692 0.9113905081934088 1.6478906767610273
00000000: aee0 7edc 213e e9bf 4139 c165 669f d8bf
00000010: 6a40 764b 7313 e1bf 55aa 3ef6 8846 cf3f
00000020: f24a 4436 ec76 ea3f 966a 526d 1c2a ed3f
00000030: 9526 419d c25d fa3f

blocks1.SCINet_Tree.SCINet_Tree_odd.SCINet_Tree_odd.workingblock.interact.level.psi.1.bias f8 [1]
-0.6989937254960059
00000000: 5eaa e316 285e e6bf

blocks1.SCINet_Tree.SCINet_Tree_odd.SCINet_Tree_odd.workingblock.interact.level.psi.4.weight f8 [1, 1, 3]
-1.5184666009641696 -1.8316599249583911 -2.205212507698317
00000000: aa59 73a2 a34b f8bf 1171 31a3 7a4e fdbf
00000010: f95a 8a74 46a4 01c0

blocks1.SCINet_Tree.SCINet_Tree_odd.SCINet_Tree_odd.workingblock.interact.level.psi.4.bias f8 [1]
-0.2996242271934278
00000000: 99a4 3818 0b2d d3bf

blocks1.SCINet_Tree.SCINet_Tree_odd.SCINet_Tree_odd.workingblock.interact.level.P.1.weight f8 [1, 1, 7]
-0.325167337103449 -0.37455337320753257 -0.3722233489967959 -0.7998678400105431 -0.5673804552219542 0.1445823475001741 0.6905822289777452
00000000: d58c a5a9 8acf d4bf f819 22b6 aef8 d7bf
00000010: e0ec afe1 81d2 d7bf 4bf5 be70 8498 e9bf
00000020: 1f2c 720e fb27 e2bf bdcb 0ba3 ac81 c23f
00000030: f80f 15e7 3f19 e63f

blocks1.SCINet_Tree.SCINet_Tree_odd.SCINet_Tree_odd.workingblock.interact.level.P.1.bias f8 [1]
0.28279583253724405
00000000: d652 0cb1 5319 d23f

blocks1.SCINet_Tree.SCINet_Tree_odd.SCINet_Tree_odd.workingblock.interact.level.P.4.weight f8 [1, 1, 3]
-0.24583815543788357 -0.6595117720039942 -0.7437105474511494
00000000: 747a dbea 9f77 cfbf 78b1 826e b81a e5bf
00000010: 30c6 df0f 7acc e7bf

blocks1.SCINet_Tree.SCINet_Tree_odd.SCINet_Tree_odd.workingblock.interact.level.P.4.bias f8 [1]
0.15398799228160867
00000000: 3dc1 69e7 e0b5 c33f

blocks1.SCINet_Tree.SCINet_Tree_odd.SCINet_Tree_odd.workingblock.interact.level.U.1.weight f8 [1, 1, 7]
0.5571499291748659 -0.5174111927951787 -0.29012882223960235 -0.29496321969389666 0.13900334753818974 0.19920007093883793 0.7886032078713453
00000000: e1ca 9816 2cd4 e13f f577 f4ea a18e e0bf
00000010: 8859 c97a 7891 d2bf ebeb 8669 ade0 d2bf
00000020: 9703 db97 dcca c13f 3787 054f 637f c93f
00000030: f17f 6acb 3c3c e93f

blocks1.SCINet_Tree.SCINet_Tree_odd.SCINet_Tree_odd.workingblock.interact.level.U.1.bias f8 [1]
-0.3492746441185311
00000000: 8de9 7309 845a d6bf

blocks1.SCINet_Tree.SCINet_Tree_odd.SCINet_Tree_odd.workingblock.interact.level.U.4.weight f8 [1, 1, 3]
0.8712125123486247 1.1283601314640448 1.068458778990943
00000000: 28e8 0c10 f9e0 eb3f 2cf9 6b5a c30d f23f
00000010: 3a3e 8e3b 6818 f13f

blocks1.SCINet_Tree.SCINet_Tree_odd.SCINet_Tree_odd.workingblock.interact.level.U.4.bias f8 [1]
0.04969883693607986
00000000: 8a53 943e 2072 a93f

blocks1.SCINet_Tree.SCINet_Tree_odd.SCINet_Tree_even.workingblock.interact.level.phi.1.weight f8 [1, 1, 7]
0.06533823067837362 -0.13027191757703657 -0.38459688409332754 -0.7557092234630304 -0.4723667590872815 -0.7409208906356508 -1.2173245062252402
00000000: af2e f19b 01ba b03f 6f50 ca0c c0ac c0bf
00000010: 0fc2 d43f 3c9d d8bf 8de5 011c c52e e8bf
00000020: 27d5 7fc9 413b debf 8a81 46ba 9fb5 e7bf
00000030: 45b5 ed42 297a f3bf

blocks1.SCINet_Tree.SCINet_Tree_odd.SCINet_Tree_even.workingblock.interact.level.phi.1.bias f8 [1]
0.05759991481704097
00000000: c17c c86c bc7d ad3f

blocks1.SCINet_Tree.SCINet_Tree_odd.SCINet_Tree_even.workingblock.interact.level.phi.4.weight f8 [1, 1, 3]
-1.2090701855298367 -0.5346930578158947 -0.995565641606698
00000000: 75b5 96fa 5958 f3bf cdf5 969d 341c e1bf
00000010: d41a f779 acdb efbf

blocks1.SCINet_Tree.SCINet_Tree_odd.SCINet_Tree_even.workingblock.interact.level.phi.4.bias f8 [1]
-0.5569505795190274
00000000: 13b8 9005 8ad2 e1bf

blocks1.SCINet_Tree.SCINet_Tree_odd.SCINet_Tree_even.workingblock.interact.level.psi.1.weight f8 [1, 1, 7]
0.09038064994657138 -0.09244270125228053 -0.02273396899921032 -0.08240635640436278 -0.3225459932678642 0.6254179133056055 0.7039090752660339
00000000: 2235 b6af 2f23 b73f cbe7 a12a 53aa b7bf
00000010: 0086 70d5 9247 97bf 0840 bd3d 9518 b5bf
00000020: dfa4 22f3 97a4 d4bf 4c5d 7f6d 6c03 e43f
00000030: c901 3453 6c86 e63f

blocks1.SCINet_Tree.SCINet_Tree_odd.SCINet_Tree_even.workingblock.interact.level.psi.1.bias f8 [1]
-0.784777994217223
00000000: 0612 79bd e61c e9bf

blocks1.SCINet_Tree.SCINet_Tree_odd.SCINet_Tree_even.workingblock.interact.level.psi.4.weight f8 [1, 1, 3]
0.5105796290440426 0.645253401398522 0.8055980855150341
00000000: 69ef 1717 ab56 e03f 1276 1476 eaa5 e43f
00000010: a93b e0a2 75c7 e93f

blocks1.SCINet_Tree.SCINet_Tree_odd.SCINet_Tree_even.workingblock.interact.level.psi.4.bias f8 [1]
-1.8960939888350354
00000000: c704 83a6 6656 febf

blocks1.SCINet_Tree.SCINet_Tree_odd.SCINet_Tree_even.workingblock.interact.level.P.1.weight f8 [1, 1, 7]
-0.2196016953571053 0.12913568195962627 0.24477570605620907 -0.09900069786138371 -0.4103549809257065 0.21378279475687476 0.7970024105598564
00000000: e53a da89 e81b ccbf 3eb2 619d 8487 c03f
00000010: eaf0 2e72 cf54 cf3f ac87 9817 1c58 b9bf
00000020: 3be7 b489 4143 dabf 23d1 f60f 3c5d cb3f
00000030: 0902 0633 0b81 e93f

blocks1.SCINet_Tree.SCINet_Tree_odd.SCINet_Tree_even.workingblock.interact.level.P.1.bias f8 [1]
-0.2517040732971947
00000000: 4836 c566 eb1b d0bf

blocks1.SCINet_Tree.SCINet_Tree_odd.SCINet_Tree_even.workingblock.interact.level.P.4.weight f8 [1, 1, 3]
-0.33734360071200997 -0.35146190677203576 -0.4105553953177642
00000000: 76ab 249d 0997 d5bf 610b d814 5a7e d6bf
00000010: 7683 0523 8a46 dabf

blocks1.SCINet_Tree.SCINet_Tree_odd.SCINet_Tree_even.workingblock.interact.level.P.4.bias f8 [1]
-0.15567644047482648
00000000: ce6c 4ca2 34ed c3bf

blocks1.SCINet_Tree.SCINet_Tree_odd.SCINet_Tree_even.workingblock.interact.level.U.1.weight f8 [1, 1, 7]
-0.45799265430531494 -0.3986035117755185 0.2445326940653439 1.072592692019792 0.9608308800028329 1.1302549129478736 1.3226589527221349
00000000: 032c 036c c04f ddbf f161 c94d b882 d9bf
00000010: 521e e8e9 d84c cf3f 2c75 62f4 5629 f13f
00000020: 902b d366 20bf ee3f 3412 f42c 8615 f23f
00000030: 3940 1b6f 9c29 f53f

blocks1.SCINet_Tree.SCINet_Tree_odd.SCINet_Tree_even.workingblock.interact.level.U.1.bias f8 [1]
-0.3943298583308172
00000000: c37f 574d b33c d9bf

blocks1.SCINet_Tree.SCINet_Tree_odd.SCINet_Tree_even.workingblock.interact.level.U.4.weight f8 [1, 1, 3]
-2.015691822037602 -2.4160646954261003 -2.408778130135313
00000000: aeba b308 2320 00c0 9e00 1fba 1954 03c0
00000010: 7602 e277 2d45 03c0

blocks1.SCINet_Tree.SCINet_Tree_odd.SCINet_Tree_even.workingblock.interact.level.U.4.bias f8 [1]
0.08151778215389507
00000000: f2b7 6470 59de b43f

blocks1.SCINet_Tree.SCINet_Tree_even.workingblock.interact.level.phi.1.weight f8 [1, 1, 7]
-0.2084861267383472 -0.019843007411490938 0.04279752729428985 -0.2415596061453488 -0.7656154753809591 -0.8489179306659723 -0.5036359311970544
00000000: 9465 0164 acaf cabf 25eb 8baf b951 94bf
00000010: cd43 28b8 8ee9 a53f a5e6 36d8 6ceb cebf
00000020: a953 8206 ec7f e8bf db58 a6ef 552a ebbf
00000030: 8e9e b219 c91d e0bf

blocks1.SCINet_Tree.SCINet_Tree_even.workingblock.interact.level.phi.1.bias f8 [1]
-0.5833513669607309
00000000: 228b 657c d0aa e2bf

blocks1.SCINet_Tree.SCINet_Tree_even.workingblock.interact.level.phi.4.weight f8 [1, 1, 3]
0.5031668090350214 0.7057788932471027 0.5309059545720813
00000000: 789e a747 f119 e03f 1a82 169e bd95 e63f
00000010: a670 047c 2efd e03f

blocks1.SCINet_Tree.SCINet_Tree_even.workingblock.interact.level.phi.4.bias f8 [1]
-0.15946753020813562
00000000: 6748 8299 6e69 c4bf

blocks1.SCINet_Tree.SCINet_Tree_even.workingblock.interact.level.psi.1.weight f8 [1, 1, 7]
0.12459991189572074 -0.44142318519855983 -0.5045236296582877 -1.5847189263481058 -0.44037358590895104 0.008225946309695729 0.016081479866514984
00000000: c935 ada2 c7e5 bf3f 0eef 0708 4740 dcbf
00000010: 4521 2ebd 0e25 e0bf 0e47 a03b 025b f9bf
00000020: 8413 60b1 142f dcbf b2c5 07d3 c3d8 803f
00000030: c150 64d8 a977 903f

blocks1.SCINet_Tree.SCINet_Tree_even.workingblock.interact.level.psi.1.bias f8 [1]
-0.6285054680844607
00000000: 31f5 d87f b71c e4bf

blocks1.SCINet_Tree.SCINet_Tree_even.workingblock.interact.level.psi.4.weight f8 [1, 1, 3]
0.4803023068088708 0.6632389437926612 0.508367443680831
00000000: 51ff fbe2 45bd de3f edbc a0e0 4039 e53f
00000010: b4ba 1ecd 8b44 e03f

blocks1.SCINet_Tree.SCINet_Tree_even.workingblock.interact.level.psi.4.bias f8 [1]
-0.5358753496766284
00000000: 74ff b20f e425 e1bf

blocks1.SCINet_Tree.SCINet_Tree_even.workingblock.interact.level.P.1.weight f8 [1, 1, 7]
0.12165067618819227 -0.03714657679327974 0.10320690580957716 -0.12452786784999163 0.7426837473962682 -0.2635966329592831 -0.01911509245373256
00000000: f9ba c3ab 7f24 bf3f 0592 f848 e004 a3bf
00000010: 9969 2c8d c46b ba3f 0b38 dbef 0ee1 bfbf
00000020: 6ace cab4 10c4 e73f 6355 7969 c4de d0bf
00000030: a291 cb23 e892 93bf

blocks1.SCINet_Tree.SCINet_Tree_even.workingblock.interact.level.P.1.bias f8 [1]
-0.4144525930614405
00000000: fd3d 3c2b 6486 dabf

blocks1.SCINet_Tree.SCINet_Tree_even.workingblock.interact.level.P.4.weight f8 [1, 1, 3]
0.35622458890549186 0.30853808048098813 0.3144836117273602
00000000: 1554 d837 62cc d63f 2922 4f81 16bf d33f
00000010: 6dce dfde 7f20 d43f

blocks1.SCINet_Tree.SCINet_Tree_even.workingblock.interact.level.P.4.bias f8 [1]
0.3541249226119387
00000000: 9346 5494 fba9 d63f

blocks1.SCINet_Tree.SCINet_Tree_even.workingblock.interact.level.U.1.weight f8 [1, 1, 7]
0.16799807280394938 0.010514645931986071 0.06659699075242932 0.052549177421972536 0.04271840969209675 0.09037629680522666 0.2503798001653285
00000000: 5ff3 3dfa f580 c53f 9654 41e3 b388 853f
00000010: d12f 4b19 800c b13f b30b ebcc b9e7 aa3f
00000020: 631e 21f9 2fdf a53f 82ae 1ca7 e622 b73f
00000030: a380 52ff 3806 d03f

blocks1.SCINet_Tree.SCINet_Tree_even.workingblock.interact.level.U.1.bias f8 [1]
-0.8891323336595398
00000000: c648 dca6 c573 ecbf

blocks1.SCINet_Tree.SCINet_Tree_even.workingblock.interact.level.U.4.weight f8 [1, 1, 3]
-0.19714082327473997 -0.2683021185220351 -0.2465196526560566
00000000: 7ef4 5516 e93b c9bf 60fa 1fa6 dc2b d1bf
00000010: 4551 fdba f48d cfbf

blocks1.SCINet_Tree.SCINet_Tree_even.workingblock.interact.level.U.4.bias f8 [1]
0.280901601323364
00000000: f7fb c4b5 4afa d13f

blocks1.SCINet_Tree.SCINet_Tree_even.SCINet_Tree_odd.workingblock.interact.level.phi.1.weight f8 [1, 1, 7]
-0.006624004311809876 0.15368378156874968 0.27136407906177384 0.1367538024830659 0.15956994508225406 0.39876872864813867 -0.05186757470414543
00000000: 845f 349e c521 7bbf aeb6 e1ff e8ab c33f
00000010: 5a49 3871 075e d13f 505b a20a 2681 c13f
00000020: 0fc2 c6b7 c96c c43f 2f85 0d46 6d85 d93f
00000030: 177f 2702 638e aabf

blocks1.SCINet_Tree.SCINet_Tree_even.SCINet_Tree_odd.workingblock.interact.level.phi.1.bias f8 [1]
-0.8829424269061891
00000000: b503 fa79 1041 ecbf

blocks1.SCINet_Tree.SCINet_Tree_even.SCINet_Tree_odd.workingblock.interact.level.phi.4.weight f8 [1, 1, 3]
-0.6590043349271243 -0.5003589720303154 -0.32253054882171917
00000000: 35e5 4d42 9016 e5bf 1a2c a4d1 f002 e0bf
00000010: 209d c92b 57a4 d4bf

blocks1.SCINet_Tree.SCINet_Tree_even.SCINet_Tree_odd.workingblock.interact.level.phi.4.bias f8 [1]
0.7526999399419158
00000000: dd0d 382f 1e16 e83f

blocks1.SCINet_Tree.SCINet_Tree_even.SCINet_Tree_odd.workingblock.interact.level.psi.1.weight f8 [1, 1, 7]
0.15032679750857472 0.2709564946054842 0.5948878495868398 0.324374738568943 0.4621047303413441 -0.17014213102956935 -0.0039501256771743015
00000000: c980 8193 e83d c33f ea09 bee8 5957 d13f
00000010: 7f6c 583e 5209 e33f 9756 7343 8ec2 d43f
00000020: 7326 09b8 1f93 dd3f b5cc 38a4 37c7 c5bf
00000030: d0ac 93c9 012e 70bf

blocks1.SCINet_Tree.SCINet_Tree_even.SCINet_Tree_odd.workingblock.interact.level.psi.1.bias f8 [1]
-0.6355747577735452
00000000: af9d d9df a056 e4bf

blocks1.SCINet_Tree.SCINet_Tree_even.SCINet_Tree_odd.workingblock.interact.level.psi.4.weight f8 [1, 1, 3]
-0.921389862337771 -1.129108006249175 -1.0275298362739231
00000000: d469 b397 067c edbf 1cdf 878e d310 f2bf
00000010: 2b5f 2720 c370 f0bf

blocks1.SCINet_Tree.SCINet_Tree_even.SCINet_Tree_odd.workingblock.interact.level.psi.4.bias f8 [1]
-0.6065979717905818
00000000: a622 5526 4069 e3bf

blocks1.SCINet_Tree.SCINet_Tree_even.SCINet_Tree_odd.workingblock.interact.level.P.1.weight f8 [1, 1, 7]
-0.09527714709676721 0.1213299655546565 0.30784357243279376 0.23727773399005347 0.29251311274869024 0.5189306047130637 -0.11776229489013319
00000000: 4c38 d646 1564 b8bf a201 150a 7b0f bf3f
00000010: 717d f886 b5b3 d33f c433 c7e5 1d5f ce3f
00000020: c508 3aeb 88b8 d23f 085b 045b 149b e03f
00000030: a549 4175 ab25 bebf

blocks1.SCINet_Tree.SCINet_Tree_even.SCINet_Tree_odd.workingblock.interact.level.P.1.bias f8 [1]
-0.5066803718212388
00000000: 37ea 4fc1 b936 e0bf

blocks1.SCINet_Tree.SCINet_Tree_even.SCINet_Tree_odd.workingblock.interact.level.P.4.weight f8 [1, 1, 3]
0.3140634791108784 0.2620604300545798 0.18020193783184646
00000000: 868c e9b4 9d19 d43f 563f 2a1c 99c5 d03f
00000010: 08f1 d46a db10 c73f

blocks1.SCINet_Tree.SCINet_Tree_even.SCINet_Tree_odd.workingblock.interact.level.P.4.bias f8 [1]
-0.3137422068402596
00000000: f93d 7031 5a14 d4bf

blocks1.SCINet_Tree.SCINet_Tree_even.SCINet_Tree_odd.workingblock.interact.level.U.1.weight f8 [1, 1, 7]
0.005365174156108937 0.16183612065905173 0.2738730090857182 0.5034542125210405 0.24249115392965767 -0.16210684320851337 -0.46798649217218935
00000000: 06f6 9af8 caf9 753f c064 c5c6 0bb7 c43f
00000010: f4ef 51a8 2287 d13f 31f6 3902 4c1c e03f
00000020: 3f3d d93b f309 cf3f 22e9 04c3 eabf c4bf
00000030: 265b b69d 7df3 ddbf

blocks1.SCINet_Tree.SCINet_Tree_even.SCINet_Tree_odd.workingblock.interact.level.U.1.bias f8 [1]
-0.5145131831749198
00000000: c11b e359 e476 e0bf

blocks1.SCINet_Tree.SCINet_Tree_even.SCINet_Tree_odd.workingblock.interact.level.U.4.weight f8 [1, 1, 3]
-0.24462451082396605 -0.474820799499249 -0.2706601346935432
00000000: bbfb e420 db4f cfbf 8bd4 53c7 7663 debf
00000010: 06be b5e2 7e52 d1bf

blocks1.SCINet_Tree.SCINet_Tree_even.SCINet_Tree_odd.workingblock.interact.level.U.4.bias f8 [1]
0.19929414525804787
00000000: 8f73 1576 7882 c93f

blocks1.SCINet_Tree.SCINet_Tree_even.SCINet_Tree_even.workingblock.interact.level.phi.1.weight f8 [1, 1, 7]
-0.1081806639369412 0.08233718120637126 0.11000047298161102 0.34022237351489076 0.2933134954602439 0.10528785571207128 0.14900821596121946
00000000: d431 ab5d bab1 bbbf 6ab4 86ac 0c14 b53f
00000010: 1b24 00b2 fd28 bc3f ff4a e70f 34c6 d53f
00000020: 508a 9ef7 a5c5 d23f 2c06 f318 25f4 ba3f
00000030: 53c2 3183 b312 c33f

blocks1.SCINet_Tree.SCINet_Tree_even.SCINet_Tree_even.workingblock.interact.level.phi.1.bias f8 [1]
-0.8858093870697493
00000000: 458a 7eed 8c58 ecbf

blocks1.SCINet_Tree.SCINet_Tree_even.SCINet_Tree_even.workingblock.interact.level.phi.4.weight f8 [1, 1, 3]
-0.7429004165498025 -0.4593766274573433 -0.42510737856834024
00000000: 8a84 2818 d7c5 e7bf da77 de39 6d66 ddbf
00000010: e650 0f94 f534 dbbf

blocks1.SCINet_Tree.SCINet_Tree_even.SCINet_Tree_even.workingblock.interact.level.phi.4.bias f8 [1]
0.19104252928458113
00000000: 2511 b6e3 1474 c83f

blocks1.SCINet_Tree.SCINet_Tree_even.SCINet_Tree_even.workingblock.interact.level.psi.1.weight f8 [1, 1, 7]
-0.06850961998141573 -0.21745603852121978 0.25358196388831683 0.3486490649950405 0.1494705830192393 -0.11676619952007816 -0.07014494521480795
00000000: e314 48b1 d889 b1bf ed17 e276 99d5 cbbf
00000010: 995e 70d8 af3a d03f c1d1 fb2a 4450 d63f
00000020: 470e e420 da21 c33f d089 37c0 63e4 bdbf
00000030: 4f64 ade5 04f5 b1bf

blocks1.SCINet_Tree.SCINet_Tree_even.SCINet_Tree_even.workingblock.interact.level.psi.1.bias f8 [1]
-0.6012499600512292
00000000: d385 648e 703d e3bf

blocks1.SCINet_Tree.SCINet_Tree_even.SCINet_Tree_even.workingblock.interact.level.psi.4.weight f8 [1, 1, 3]
-0.41256549614347926 -0.34259063511044524 -0.34368188096708957
00000000: 843b 591c 7967 dabf 5bc6 6d45 01ed d5bf
00000010: 7fcf be49 e2fe d5bf

blocks1.SCINet_Tree.SCINet_Tree_even.SCINet_Tree_even.workingblock.interact.level.psi.4.bias f8 [1]
-1.0447610188740577
00000000: 0a32 8354 57b7 f0bf

blocks1.SCINet_Tree.SCINet_Tree_even.SCINet_Tree_even.workingblock.interact.level.P.1.weight f8 [1, 1, 7]
0.6237038395902225 0.5318837798982577 0.18748838182595118 -0.11466114610778773 -0.2744633455545774 -0.5124891794356095 -0.3527671479703806
00000000: 93bf 2dc1 61f5 e33f b9f2 fd21 3105 e13f
00000010: 1845 298a 9eff c73f ada2 a7d0 6e5a bdbf
00000020: dae3 46b5 ce90 d1bf ac5a 27b5 4f66 e0bf
00000030: dbb3 e8a8 bc93 d6bf

blocks1.SCINet_Tree.SCINet_Tree_even.SCINet_Tree_even.workingblock.interact.level.P.1.bias f8 [1]
-0.009108125767710801
00000000: fdc0 66f2 47a7 82bf

blocks1.SCINet_Tree.SCINet_Tree_even.SCINet_Tree_even.workingblock.interact.level.P.4.weight f8 [1, 1, 3]
1.4813202263804042 1.7877659258459146 1.9212393449317688
00000000: 7f50 73d6 7cb3 f73f f394 8671 b09a fc3f
00000010: 9a53 a477 65bd fe3f

blocks1.SCINet_Tree.SCINet_Tree_even.SCINet_Tree_even.workingblock.interact.level.P.4.bias f8 [1]
0.5119776482576592
00000000: a296 f1f2 1e62 e03f

blocks1.SCINet_Tree.SCINet_Tree_even.SCINet_Tree_even.workingblock.interact.level.U.1.weight f8 [1, 1, 7]
0.9145437033286247 0.07353560628988036 -0.03930569069554026 0.07594467641276526 -0.005343224174293665 -0.3465306111656643 -0.6710228008169277
00000000: b7e4 1128 f143 ed3f 0b48 1bc0 3ad3 b23f
00000010: e306 2b20 e01f a4bf 6885 7f3d 1c71 b33f
00000020: fa31 57d1 c6e2 75bf 303e 81ba 8e2d d6bf
00000030: fc20 0ccf 0479 e5bf

blocks1.SCINet_Tree.SCINet_Tree_even.SCINet_Tree_even.workingblock.interact.level.U.1.bias f8 [1]
-0.3284846796493391
00000000: 412e 159b e405 d5bf

blocks1.SCINet_Tree.SCINet_Tree_even.SCINet_Tree_even.workingblock.interact.level.U.4.weight f8 [1, 1, 3]
-2.0889184751601895 -2.260240920520043 -2.385660598015261
00000000: eb95 b6e3 1ab6 00c0 56b7 1531 f914 02c0
00000010: 9aa6 3e39 d515 03c0

blocks1.SCINet_Tree.SCINet_Tree_even.SCINet_Tree_even.workingblock.interact.level.U.4.bias f8 [1]
-0.09234482155493805
00000000: df8d 8804 e9a3 b7bf

projection1.weight f8 [48, 96, 1]
-0.0006666434370270687 0.00267388233138454 0.00152224205345219 -0.0020587936109014667 -0.0013485989319301562 -0.0055838889844718395 0.001071050853340473 -0.0031082929280782257
-0.0021186159519258623 -0.0021397284813698177 -0.0007990164831791601 -0.0005362604453372913 -0.00046409613583385035 -0.003909885031384976 -0.000944727289219352 -0.0012210768592330753
-0.0025149658904256235 -0.0031991373164713165 -0.00275020369497867 0.0003587231741519834 0.0016850759835326944 0.0011874759072997825 0.00018693486162470394 0.004544349894676281
0.002405560228580201 0.002926141593070198 0.0003300025187664452 -0.0008470306945561006 -0.0028283814729192203 -0.0015353680548439138 0.0012749642587210302 0.0009153181710572699
-0.0004579033019517351 -0.0009034862908635067 -0.0002705574306062036 0.0010447162551166721 0.002459767565824529 0.0010945104253216246 -0.0010322375198314792 -0.0010550416012663523
-0.003906661422584763 -0.0032683693709228646 -0.0003005060409253987 -0.004483592432479824 0.0004500650951505189 -0.004632014338987631 0.0011161715309885877 0.0010380249438506942
0.002246230902069694 0.0012769866186642161 0.0002580407907725368 0.0024678457811118104 0.0033666998956227105 0.0018809939821765838 9.811179014705882e-05 0.0027482112545887645
0.0023247443241095882 0.0010228339307655878 0.0023013595644581267 -0.00029952462081363066 -0.0007553397453777609 -0.0018457598868810265 -0.00023677455416239862 0.00416351663953287
-0.0009932533556168675 0.0017618548896244951 -0.00370051976914265 0.005721299066917249 0.0030004453690465655 -0.0015573137870948965 0.0008454878722031379 0.0056335455785334575
0.0016284215472595139 0.004837288854076344 9.689828794529316e-05 0.008292001488192499 -0.00036393382936822355 -0.013342867308883788 -0.00049311726151854 0.0032964507867725822
-0.004263121295682018 0.0018664015472243125 -0.002266213777376133 0.0075716564905088275 0.0031039343502882767 0.007733981397842636 -0.0005343354509196544 -0.01157546242680796
-0.005788499555120485 0.00028043854298650053 -0.006936051785877648 -0.000828782805867383 0.0047596250574691145 -0.04196285677960054 0.01771725014060799 0.935836941011513
-0.0025920373896918137 -7.763314648038245e-05 -0.001803777445074076 -0.0010930861231226753 0.0025721503001612006 0.002933238117703912 0.0012114936572162308 -0.001120204199258196
-0.0015540225712066442 -0.005426553523335907 -0.0013345459849793885 0.0023600682111243375 0.0031829455553345687 -0.00859167784329544 -5.1731586421277745e-05 0.0005683526351034467
-0.0015385283145923161 0.0004248625740376114 0.0026358288257433125 0.002810632224427574 0.0025011130563618576 -0.005958218106718319 -0.0027307611812783543 -0.00024371039496953696
-0.002699954648373015 0.001664845165125398 0.00339228842104858 0.0023654932154301245 0.0013751914377078522 -3.535402934693908e-05 0.0011937152589305468 -0.004383306814354113
0.0016536678637796261 0.0017761882258550319 0.001019441605235387 0.001815159444186088 0.0009047668685660728 -0.005901103030510961 -0.0008058090109394544 0.0036138694544022346
0.00013845532883703288 7.302417971394575e-06 3.1442021184714696e-05 -0.000784225242734242 0.002589054279253049 -0.007069575276714556 0.0002025561444450456 0.00538581588995515
0.00032754369178052486 0.001507768061700843 -0.002113376645588204 -0.002088138531538258 -0.0015198817738115201 0.0010715960654833403 0.0004274340766862956 0.005948121671789624
-0.00035362140733999483 0.003113439434319437 -0.0014962988419300071 -0.005087240891281228 0.0004408278892080237 -0.001696507964451239 0.0010842947057865975 0.004407450499532015
0.00046448670951219396 -0.0012652350301156643 0.002268571868922483 0.0036730613885598805 0.0013568912899335605 -0.00832431368580347 -0.0004457504097570722 -0.0019276859864756767
0.0006623560186512602 0.0011319160008544354 -0.0008273076423930621 0.011159300945538483 -1.0073347019439097e-05 -0.005827947912054998 -0.0002740397888649743 0.011172986870198217
0.006929561871733091 -0.00015445334762523863 -0.00251910884264899 0.009794083134034678 0.002692712378290052 0.007791974033629086 0.002753049840122458 -0.014192866417887081
-0.010730365163318059 -0.00443985868247414 -0.0041086530175151684 -0.001709527484843548 0.006100233258842455 -0.05492585603028044 0.024831228216338923 0.9069195438014017
0.0007406267122654084 0.005820383506781912 0.0030961422643998706 -0.001993298363607398 0.0016974037324620863 0.001529776477211322 0.0020710738103123408 0.0011749306210248611
-0.004691570855173819 -0.00926479810597714 -0.00028567583137713797 -0.0004145848210466142 9.801113440885146e-05 -0.006266101262026821 -0.0005327772285201422 -0.0003785627690895754
0.0028567780233108137 -0.0016960788833850179 0.002320260693822416 -0.002239193709747424 0.004581675009491772 -0.001560847456802838 0.004302810257843029 0.001975128794037998
0.0036017209558899493 -0.00015077062424440955 0.0013626263044144893 8.132070390097928e-05 -0.0003534586475287427 -0.0008850722782887236 0.002276691545020749 -0.002037926675242593
-0.0008972050085061451 0.0011012037095670768 -0.0022606717027235175 -0.0017301916193449408 -0.0008617754199903882 -0.007615653346879926 -0.0024283022039038736 0.003008124030074815
-0.004609676225512576 0.0009903628416639235 -0.0021229245083616128 -0.0038880654590240466 0.004109196013595849 -0.002996019735551329 0.0011219505404606199 0.005887634469536986
-0.002211485169139757 0.0015539705928191297 -0.00037127939400032696 -0.0009953215100911537 -0.0023497479374039267 -0.0014060056908765251 -0.0022342850286387996 -0.00014798959838500342
-0.001304712169105623 -0.004910513242604967 -0.0032901717383380423 -0.0008352935338951676 -0.0009492616649298851 -0.00078904220528999 -0.00040010411587858193 0.006524628546213968
00000000: bfc0 4be1 35d8 45bf ef2f 55a5 89e7 653f
00000010: eddb 83f5 bef0 583f 3511 4c67 9add 60bf
00000020: 9a43 b713 6f18 56bf 9831 2ac9 21df 76bf
00000030: 06fc cb18 508c 513f e496 1e0f 9076 69bf
00000040: 01e5 3d47 0f5b 61bf 4c96 31fb 5587 61bf
00000050: 6624 05d5 a22e 4abf 7e14 9589 7a92 41bf
00000060: a656 c1b9 3d6a 3ebf dc66 74c5 cf03 70bf
00000070: 1a78 c967 f2f4 4ebf 41a3 484b 9101 54bf
00000080: b174 ff07 449a 64bf 8afe c9c4 1335 6abf
00000090: cd35 ac5d 9887 66bf 8b00 224d 6082 373f
000000a0: 4223 658f b89b 5b3f f8ea f18b a274 533f
000000b0: 4d72 fc3b 7e80 283f 4011 dea2 189d 723f
000000c0: 2876 5450 d3b4 633f 8230 434e 90f8 673f
000000d0: 343e 9406 86a0 353f d1b1 df90 68c1 4bbf
000000e0: 3b59 a8bd 8b2b 67bf 74de 4de5 cc27 59bf
000000f0: ee9a dd72 96e3 543f b897 18ce 3efe 4d3f
00000100: dd98 e4b4 5702 3ebf ec99 2b09 fe9a 4dbf
00000110: aec6 ee50 33bb 31bf 618d 8e89 db1d 513f
00000120: c302 08a8 8126 643f 5e3e d79e b5ee 513f
00000130: 949b eb98 84e9 50bf 104e 184b 2a49 51bf
00000140: 6ea7 be70 6e00 70bf b64a e671 44c6 6abf
00000150: 56e3 369e a7b1 33bf 5085 db2d 635d 72bf
00000160: 80c5 5fdd d67e 3d3f 7ddf 9be1 04f9 72bf
00000170: 0a87 3a0e 9049 523f 11dd ebcb ca01 513f
00000180: 55da 6f08 b066 623f 1815 eff0 11ec 543f
00000190: 5c19 e5c1 34e9 303f 007e 7c9d 7237 643f
000001a0: 7405 4f3e 7b94 6b3f 6f82 cbe8 75d1 5e3f
000001b0: 92bc 5ab8 2bb8 193f ba2a c0ae 6a83 663f
000001c0: 3cdf fe9a 570b 633f 3447 0a92 13c2 503f
000001d0: 4b16 1a02 4dda 623f e6c8 6373 30a1 33bf
000001e0: 466b 7bc0 3fc0 48bf 3353 6d96 ad3d 5ebf
000001f0: 0013 edee d508 2fbf 18af d97c c30d 713f
00000200: 7a02 75ab 0146 50bf 0d27 6648 c1dd 5c3f
00000210: fc97 5f6c 8d50 6ebf b0f3 2086 376f 773f
00000220: 49bf 78d7 6394 683f 0c6e 40f2 d883 59bf
00000230: 9ac2 5061 77b4 4b3f fc41 5360 3313 773f
00000240: 2280 8852 18ae 5a3f ad7d dfd6 43d0 733f
00000250: b9d0 3ae9 bb66 193f ab6d ae99 65fb 803f
00000260: fda3 21e5 cbd9 37bf 80eb cf55 8153 8bbf
00000270: d9c6 7241 9128 40bf 5c54 4e8a 2801 6b3f
00000280: c38c b3e8 3476 71bf 866c d166 4194 5e3f
00000290: 130a e841 9890 62bf f470 0d10 7503 7f3f
000002a0: 88d9 bf10 6c6d 693f 71e6 bed2 aaad 7f3f
000002b0: d0a4 b5a4 5482 41bf c146 7944 e0b4 87bf
000002c0: e6b2 8384 aeb5 77bf 42e5 e35e fa60 323f
000002d0: 0add 5639 fa68 7cbf 5ddb f985 5528 4bbf
000002e0: 2ea9 681f d47e 733f 4fbd 07d3 277c a5bf
000002f0: 0142 b787 7824 923f 660f 0150 60f2 ed3f
00000300: e414 337a e53b 65bf 9229 064d df59 14bf
00000310: a8db b148 978d 5dbf 902c a249 bce8 51bf
00000320: c945 6dad 3012 653f 8c70 2e39 7207 683f
00000330: f282 c568 5fd9 533f 4e58 a419 7a5a 52bf
00000340: 558e b707 0b76 59bf a581 9a5e 273a 76bf
00000350: dd57 12d7 7ddd 55bf 0a39 0ff9 6b55 633f
00000360: ae62 15e2 1e13 6a3f 5878 d67a 8398 81bf
00000370: 5613 59c6 4b1f 0bbf 6097 7cfd af9f 423f
00000380: a6a3 e332 0e35 59bf 4e77 5cdc 02d8 3b3f
00000390: fd6b 57d3 bb97 653f 101f 85af 5206 673f
000003a0: 7d45 fbd8 367d 643f c398 92fe a467 78bf
000003b0: 06d6 ef3e d25e 66bf f063 285a 90f1 2fbf
000003c0: e653 4b1d 371e 66bf 4221 60e2 dd46 5b3f
000003d0: 44cf 76fa 24ca 6b3f 174d f97f cc60 633f
000003e0: b860 0b90 f887 563f d075 d832 2389 02bf
000003f0: 58a8 dcff cd8e 533f bddf a7f6 3af4 71bf
00000400: f421 2d59 fc17 5b3f 5692 dc95 df19 5d3f
00000410: 47e0 b216 d9b3 503f 039a c99c 54bd 5d3f
00000420: b01a 350e bca5 4d3f 1204 6c48 c12b 78bf
00000430: b8b5 a5ac 9d67 4abf 0b27 cc63 d59a 6d3f
00000440: 77bd f737 ca25 223f 4081 1b5e e9a0 de3e
00000450: d0a0 259f 137c 003f c143 97e2 8eb2 49bf
00000460: 0a6c 9fee a335 653f 58f7 c2a9 fcf4 7cbf
00000470: fa89 3008 a88c 2a3f 1c10 c1f1 6f0f 763f
00000480: 41a5 b771 4577 353f 3514 f5a0 09b4 583f
00000490: 1739 7672 1250 61bf 59ab 7ad6 241b 61bf
000004a0: 15a3 c9a0 d8e6 58bf d8c9 9183 998e 513f
000004b0: a59d 6c61 2703 3c3f 1ff2 d8c0 0e5d 783f
000004c0: 196a 3361 c82c 37bf 4023 8d11 5b81 693f
000004d0: 8a1b d5a5 ee83 58bf 172e 14d4 5bd6 74bf
000004e0: 723c 085e dde3 3c3f b7d6 618e abcb 5bbf
000004f0: 4ab1 3c93 dcc3 513f 4a52 11fc 8b0d 723f
00000500: a25a 0e3a cb70 3e3f 04d4 dec4 c7ba 54bf
00000510: f86c 8a3f 8a95 623f 7836 48d1 f716 6e3f
00000520: 383c baed 363b 563f d05d 5678 560c 81bf
00000530: 2423 9d6e 7336 3dbf bd2c 3511 4d95 5fbf
00000540: 5e03 1eb8 3eb4 453f f3ba 268d 998b 523f
00000550: 4491 47a2 f51b 4bbf 2bc5 db04 b0da 863f
00000560: 3e3d b645 1620 e5be 8d09 f6da 0bdf 77bf
00000570: cd8f 54ee 9ff5 31bf 112c a6e9 dce1 863f
00000580: f2d1 d519 2c62 7c3f d064 5327 983e 24bf
00000590: 6d07 0443 f4a2 64bf 1e35 0a96 eb0e 843f
000005a0: 00f6 45f3 060f 663f 88dc 541a 7aea 7f3f
000005b0: d0f7 e160 908d 663f be81 cf48 2611 8dbf
000005c0: 48ce 9a3b cdf9 85bf 3300 717d 872f 72bf
000005d0: fa13 7425 3cd4 70bf 19a4 e528 4702 5cbf
000005e0: fde3 83e5 8efc 783f 10b0 b5e6 3d1f acbf
000005f0: ee4b 6f84 5b6d 993f 4a5e 9722 7c05 ed3f
00000600: 0819 fdc0 d344 483f 6628 fd4c 1dd7 773f
00000610: 9a9a 9eb8 145d 693f ff38 0de9 3f54 60bf
00000620: 2ad6 3761 6dcf 5b3f 3de4 25fc 5810 593f
00000630: e776 0d49 5bf7 603f 0067 e925 0440 533f
00000640: 17c7 3cf6 7737 73bf c326 f426 6cf9 82bf
00000650: 5dad 5f5a d8b8 32bf edaf 703f 942b 3bbf
00000660: 3c77 bc77 6ab1 193f c9b9 e6bf 7baa 79bf
00000670: 62d6 e262 4275 41bf 7a02 75b6 3acf 38bf
00000680: 9b5d d305 1967 673f ef0e 7ad5 dec9 5bbf
00000690: 158a 8a79 f001 633f b7b9 16f8 ed57 62bf
000006a0: dc07 3a05 3cc4 723f ca1d fc31 ab92 59bf
000006b0: d0cb 69d5 d29f 713f 88cc 6c32 252e 603f
000006c0: f72c e036 5b81 6d3f 47b1 f7cc 05c3 23bf
000006d0: 5219 81da 4453 563f 3b7d 120e 5751 153f
000006e0: 3455 e554 0d2a 37bf 6a48 b33e 8600 4dbf
000006f0: 0282 5377 91a6 623f df7d 7f8d d7b1 60bf
00000700: bef9 ac15 4d66 4dbf 2e05 ce7a c80a 523f
00000710: 5151 f7e0 f884 62bf b905 f01a f358 5cbf
00000720: 1fce 679f 183d 4cbf 4e17 0061 9731 7fbf
00000730: e148 9ed1 84e4 63bf 5882 9b4a 7ea4 683f
00000740: 12bd 238a 98e1 72bf ed1c 0801 e239 503f
00000750: 1bb2 ba6a 1864 61bf 9609 b83f ddd9 6fbf
00000760: 9826 dce7 cdd4 703f 3c1f 09d9 1b8b 68bf
00000770: 4caa 4138 cd61 523f 759c f5d7 a11d 783f
00000780: 60f2 430f d21d 62bf c4b3 0138 d375 593f
00000790: 7563 dbda 0855 38bf 7021 6e55 ae4e 50bf
000007a0: d595 7051 c73f 63bf 43a1 751d 3709 57bf
000007b0: 5a22 18a4 a24d 62bf 25ad 6df8 b465 23bf
000007c0: 5747 3506 5c60 55bf 9e79 89dc 0b1d 74bf
000007d0: 4ad8 7580 fdf3 6abf 18da 8f34 f35e 4bbf
000007e0: 9e3a 32e7 fb1a 4fbf bfdc c23b f7da 49bf
000007f0: efc2 ba17 a238 3abf 21b4 97a3 91b9 7a3f
