exp/data_checkpoints/checkpoint.pth (torch, 100025 bytes, 114 tensors)

inv_timescales f8 [1]
00000000: 0000 0000 0000 f03f
1.0

blocks1.SCINet_Tree.workingblock.interact.level.phi.1.weight f8 [1, 1, 7]
00000000: 1282 81d4 8383 bb3f c43e 0448 aa7d a03f
00000010: 4842 be16 3024 d23f 150b 70c0 9d16 983f
00000020: 671d a73b db68 d33f 0c91 a58d 8c0c afbf
00000030: 8b45 f992 0047 9ebf
0.10747550905353645 0.03220874909504581 0.2834587308980514 0.023523774023497774 0.30327492547481544 -0.06064261654936062 -0.02956772706085568

blocks1.SCINet_Tree.workingblock.interact.level.phi.1.bias f8 [1]
00000000: 9d13 a77b c9f1 e1bf
-0.5607650199022945

blocks1.SCINet_Tree.workingblock.interact.level.phi.4.weight f8 [1, 1, 3]
00000000: 4b14 1239 8a18 e2bf b526 8d3a b32a e0bf
00000010: e2fb 8fd9 17ab b5bf
-0.5654955973301495 -0.5052124160367472 -0.08464192449171962

blocks1.SCINet_Tree.workingblock.interact.level.phi.4.bias f8 [1]
00000000: 0a0b 7767 f986 b0bf
-0.06455954338074946

blocks1.SCINet_Tree.workingblock.interact.level.psi.1.weight f8 [1, 1, 7]
00000000: fecb e92f 4883 c9bf 287f 59ce 3732 d23f
00000010: a26e c170 9b55 8d3f bb58 3422 b2b4 93bf
00000020: 1977 6788 bf81 70bf e5ac cf10 2353 d3bf
00000030: fae6 68e1 fc09 d1bf
-0.19931890811457714 0.28431506301238807 0.014323439005401287 -0.019243987405467716 -0.004029987502205201 -0.30194927827569834 -0.26623460781739505

blocks1.SCINet_Tree.workingblock.interact.level.psi.1.bias f8 [1]
00000000: 206d 004e 008f c13f
0.1371765499942308

blocks1.SCINet_Tree.workingblock.interact.level.psi.4.weight f8 [1, 1, 3]
00000000: 5f1a d560 eb2f b93f 4e8a 7490 43c1 c6bf
00000010: 257f b99d cc7e d3bf
0.09838744272301757 -0.17777294686773576 -0.30461421397011385

blocks1.SCINet_Tree.workingblock.interact.level.psi.4.bias f8 [1]
00000000: e30b e6e2 9844 f0bf
-1.0167473662593174

blocks1.SCINet_Tree.workingblock.interact.level.P.1.weight f8 [1, 1, 7]
00000000: 5f40 b6c1 25c5 d0bf df5b e5f8 b958 b03f
00000010: 86eb 8d3e 1066 c23f 0b61 eecb 0c74 d3bf
00000020: 3411 f2cc 3616 b13f 0c8b b24c 8518 ce3f
00000030: b73c 68ad fc37 adbf
-0.26203292767696057 0.06385385824738375 0.14373972944653363 -0.3039581290736499 0.06674520972780301 0.2351233124255362 -0.0570677720717127

blocks1.SCINet_Tree.workingblock.interact.level.P.1.bias f8 [1]
00000000: bab8 729e eebe 53bf
-0.0012051897299829987

blocks1.SCINet_Tree.workingblock.interact.level.P.4.weight f8 [1, 1, 3]
00000000: 57cf 6d29 247d a13f fdb8 9ba8 4ed7 793f
00000010: 9555 0c1c 78c6 8a3f
0.03415787702297617 0.006308848629244188 0.013073862415278007

blocks1.SCINet_Tree.workingblock.interact.level.P.4.bias f8 [1]
00000000: 8080 e126 5cc9 d9bf
-0.4029150371261565

blocks1.SCINet_Tree.workingblock.interact.level.U.1.weight f8 [1, 1, 7]
00000000: a5e0 fa84 bb21 d53f f6ac 8575 bb1a b0bf
00000010: af5d 77bc f86f dd3f b77a e7a6 cb92 a33f
00000020: 3d44 7eba edbf d23f 2019 ad48 d00d d2bf
00000030: 668f 2f55 7e5e c8bf
0.33018386827780893 -0.06290790194696058 0.459959205674262 0.03822933590321525 0.292964393732351 -0.2820931157806559 -0.19038371238195423

blocks1.SCINet_Tree.workingblock.interact.level.U.1.bias f8 [1]
00000000: 23a2 ae36 16a5 cebf
-0.23941304845836084

blocks1.SCINet_Tree.workingblock.interact.level.U.4.weight f8 [1, 1, 3]
00000000: 9419 1c1c 2a51 d2bf d041 206a 32e1 e1bf
00000010: e740 3890 da66 cbbf
-0.28620388741583125 -0.5587398598454971 -0.214076347751422

blocks1.SCINet_Tree.workingblock.interact.level.U.4.bias f8 [1]
00000000: 6ab1 c11c 1c40 e23f
0.5703259050037961

blocks1.SCINet_Tree.SCINet_Tree_odd.workingblock.interact.level.phi.1.weight f8 [1, 1, 7]
00000000: 3755 d423 700a cb3f 7a96 1122 bf38 df3f
00000010: a00f ec49 4695 e23f 1ad1 8918 0f3f cd3f
00000020: 9e7f 3506 9982 b13f c68b aa42 e98a 983f
00000030: 59b3 d865 22e0 db3f
0.21125604390605598 0.48783853842756 0.5807219928542402 0.22848690698777646 0.0683990135344161 0.023967404073697705 0.4355550760836216

blocks1.SCINet_Tree.SCINet_Tree_odd.workingblock.interact.level.phi.1.bias f8 [1]
00000000: b7a0 f674 6679 b63f
0.08778992038299092

blocks1.SCINet_Tree.SCINet_Tree_odd.workingblock.interact.level.phi.4.weight f8 [1, 1, 3]
00000000: 8bc3 6403 3ea2 d9bf 454c 5e97 b601 dfbf
00000010: 623b c45f 1970 d7bf
-0.40052748042494873 -0.4844795683104091 -0.36621698715400985

blocks1.SCINet_Tree.SCINet_Tree_odd.workingblock.interact.level.phi.4.bias f8 [1]
00000000: ae09 439d d9e2 f0bf
-1.0553833144227656

blocks1.SCINet_Tree.SCINet_Tree_odd.workingblock.interact.level.psi.1.weight f8 [1, 1, 7]
00000000: efb8 1b61 ecd1 dcbf acf8 8966 21fd d9bf
00000010: fc3e e623 b048 c0bf 522a 4f0d 8ef1 c13f
00000020: 83ac 15ce 2d9e dbbf 8df2 9558 c6cc b93f
00000030: 5e64 87dc bfde b9bf
-0.4503127048800612 -0.4060748578411999 -0.1272182631769211 0.1401841702448388 -0.43152947545485904 0.10078086531388859 -0.10105513700490706

blocks1.SCINet_Tree.SCINet_Tree_odd.workingblock.interact.level.psi.1.bias f8 [1]
00000000: 4617 6194 9cf8 dcbf
-0.45267405023729557

blocks1.SCINet_Tree.SCINet_Tree_odd.workingblock.interact.level.psi.4.weight f8 [1, 1, 3]
00000000: 1915 69e3 e416 df3f 0b62 1b27 e8f6 803f
00000010: 23d7 3726 488c be3f
0.4857723446660472 0.008283437436532834 0.11932803090152481

blocks1.SCINet_Tree.SCINet_Tree_odd.workingblock.interact.level.psi.4.bias f8 [1]
00000000: 5b13 d338 cfb5 87bf
-0.01157724277653365

blocks1.SCINet_Tree.SCINet_Tree_odd.workingblock.interact.level.P.1.weight f8 [1, 1, 7]
00000000: b219 a2f4 dd01 b13f 269a 8c75 4506 a23f
00000010: a59a 743b 3b53 d0bf fe44 5e94 3876 d3bf
00000020: abd1 6e0e 8924 c13f 564b 2ecf 8440 cbbf
00000030: 52f5 7cdc 093d c5bf
0.06643473837366434 0.035204096411963356 -0.25508004003715207 -0.3040906380566212 0.1339274712060051 -0.21290645710231598 -0.16592524782201196

blocks1.SCINet_Tree.SCINet_Tree_odd.workingblock.interact.level.P.1.bias f8 [1]
00000000: 840c 67d1 190d d5bf
-0.3289246125170353

blocks1.SCINet_Tree.SCINet_Tree_odd.workingblock.interact.level.P.4.weight f8 [1, 1, 3]
00000000: 4e69 d940 7bf6 ddbf 8825 44a3 eebb a43f
00000010: 2da1 a9e7 a25d ca3f
-0.46816903431831214 0.04049630873675897 0.20598255454684403

blocks1.SCINet_Tree.SCINet_Tree_odd.workingblock.interact.level.P.4.bias f8 [1]
00000000: 7cd2 a7ab 6833 9abf
-0.025586734272979403

blocks1.SCINet_Tree.SCINet_Tree_odd.workingblock.interact.level.U.1.weight f8 [1, 1, 7]
00000000: 4629 9a4d a21d d4bf 689c 1e45 1657 91bf
00000010: 5035 35e0 b5fb 943f 27ff 564b af6d d23f
00000020: f47f 8cd2 03db a13f 502d 0f2e 712c c93f
00000030: 2669 d6e2 ada4 d43f
-0.31430871561373797 -0.01693377301094437 0.020491449174462162 0.287944625448278 0.034874076320420416 0.19666876553524526 0.32255122329810815

blocks1.SCINet_Tree.SCINet_Tree_odd.workingblock.interact.level.U.1.bias f8 [1]
00000000: 5b44 b986 dd70 d2bf
-0.2881387534772039

blocks1.SCINet_Tree.SCINet_Tree_odd.workingblock.interact.level.U.4.weight f8 [1, 1, 3]
00000000: e64d ac85 7f20 dbbf e148 d0bd e3e7 cabf
00000010: b294 238e de1a c2bf
-0.4238585286522877 -0.21020170944445396 -0.14144498768215424

blocks1.SCINet_Tree.SCINet_Tree_odd.workingblock.interact.level.U.4.bias f8 [1]
00000000: 5637 f416 c313 ccbf
-0.21935309048461232

blocks1.SCINet_Tree.SCINet_Tree_odd.SCINet_Tree_odd.workingblock.interact.level.phi.1.weight f8 [1, 1, 7]
00000000: fcee 6821 fbf6 d03f 774e e694 2bca c1bf
00000010: e803 61ee 5038 cebf 141b e1e3 a687 c5bf
00000020: 83c6 abb1 8e85 99bf 9fb5 e46d bfe3 cabf
00000030: 560b a9a5 32b0 cc3f
0.2650745226162454 -0.1389822461174963 -0.23609363212202017 -0.16820226790351767 -0.024923543543030845 -0.2100753103817796 0.2241271313560797

blocks1.SCINet_Tree.SCINet_Tree_odd.SCINet_Tree_odd.workingblock.interact.level.phi.1.bias f8 [1]
00000000: 34cc c61f 0063 973f
0.02283859437893572

blocks1.SCINet_Tree.SCINet_Tree_odd.SCINet_Tree_odd.workingblock.interact.level.phi.4.weight f8 [1, 1, 3]
00000000: b8d0 c649 525e d73f b0c2 3e5e 3689 dcbf
00000010: a208 c40f 1734 e0bf
0.36513192372082015 -0.44587477878216486 -0.506358652870649

blocks1.SCINet_Tree.SCINet_Tree_odd.SCINet_Tree_odd.workingblock.interact.level.phi.4.bias f8 [1]
00000000: d5d5 0691 d0ee e1bf
-0.5604021866371861

blocks1.SCINet_Tree.SCINet_Tree_odd.SCINet_Tree_odd.workingblock.interact.level.psi.1.weight f8 [1, 1, 7]
00000000: e33b a4b6 554d e43f 0407 68a9 a916 e33f
00000010: 6b84 5e0e 3c95 a93f 4352 1ab4 4c7c d23f
00000020: 4d88 61c6 564a e03f 0d84 4d0a 0a21 b93f
00000030: 81d4 815c e2d9 da3f
0.6344402854173236 0.5965164478986655 0.04996669459729549 0.2888366469208316 0.5090745806339868 0.09816038848431692 0.41954859765912295

blocks1.SCINet_Tree.SCINet_Tree_odd.SCINet_Tree_odd.workingblock.interact.level.psi.1.bias f8 [1]
00000000: b34a 482e f779 d83f
0.38244418639912253

blocks1.SCINet_Tree.SCINet_Tree_odd.SCINet_Tree_odd.workingblock.interact.level.psi.4.weight f8 [1, 1, 3]
00000000: 0ecc b228 c71a c3bf b763 7cfc faf4 c4bf
00000010: d2ba 809d a8bd cdbf
-0.1492546986315521 -0.1637262089577953 -0.23235042276924972

blocks1.SCINet_Tree.SCINet_Tree_odd.SCINet_Tree_odd.workingblock.interact.level.psi.4.bias f8 [1]
00000000: 4b69 84ae 0533 f0bf
-1.012456590373932

blocks1.SCINet_Tree.SCINet_Tree_odd.SCINet_Tree_odd.workingblock.interact.level.P.1.weight f8 [1, 1, 7]
00000000: c942 df0a 6054 e0bf d617 66ca c209 e2bf
00000010: 9a17 992f a3ed dabf e7a1 bc4a 85c7 e1bf
00000020: 80d1 e6ec a374 d3bf d6b3 6311 d22c ce3f
00000030: a8f9 9682 d84d e83f
-0.5102997028680757 -0.5636915162183367 -0.4207542385887507 -0.5556055507377636 -0.30399416098523346 0.2357428154859053 0.7595026541310306

blocks1.SCINet_Tree.SCINet_Tree_odd.SCINet_Tree_odd.workingblock.interact.level.P.1.bias f8 [1]
00000000: 07d2 28b3 1ff2 a1bf
-0.0350503832054621

blocks1.SCINet_Tree.SCINet_Tree_odd.SCINet_Tree_odd.workingblock.interact.level.P.4.weight f8 [1, 1, 3]
00000000: 26c3 db8c c640 d7bf 9d39 453b 27b5 e4bf
00000010: 7241 0daf eb5e ebbf
-0.36332858806331314 -0.6471134336114123 -0.8553369921665264

blocks1.SCINet_Tree.SCINet_Tree_odd.SCINet_Tree_odd.workingblock.interact.level.P.4.bias f8 [1]
00000000: b42b 981c fac9 c7bf
-0.18585134884082566

blocks1.SCINet_Tree.SCINet_Tree_odd.SCINet_Tree_odd.workingblock.interact.level.U.1.weight f8 [1, 1, 7]
00000000: 7fbb 5fd9 60bf ae3f 9773 2d63 9529 d9bf
00000010: 8b52 cc89 ccc0 cfbf f177 2a9d a0f2 b23f
00000020: 2854 a4ab 5611 e03f 4387 15bc 9f51 bebf
00000030: 2a24 5af1 cb91 c73f
0.060053850684076863 -0.3931630581408227 -0.24807125786232506 0.07401470028932501 0.5021165230160749 -0.11843298284432273 0.18413686070224006

blocks1.SCINet_Tree.SCINet_Tree_odd.SCINet_Tree_odd.workingblock.interact.level.U.1.bias f8 [1]
00000000: 1525 d74a 5ca5 a5bf
-0.042277225623886285

blocks1.SCINet_Tree.SCINet_Tree_odd.SCINet_Tree_odd.workingblock.interact.level.U.4.weight f8 [1, 1, 3]
00000000: 1f74 1419 4730 e4bf cdaf 13f1 a188 cf3f
00000010: b2e9 a4c9 6d73 ea3f
-0.6308932771531807 0.24635719558079786 0.8265904367793182

blocks1.SCINet_Tree.SCINet_Tree_odd.SCINet_Tree_odd.workingblock.interact.level.U.4.bias f8 [1]
00000000: 6d14 2188 8565 b73f
0.09139284680812106

blocks1.SCINet_Tree.SCINet_Tree_odd.SCINet_Tree_even.workingblock.interact.level.phi.1.weight f8 [1, 1, 7]
00000000: 28b2 b24f 9461 c0bf c05c 70f6 b5fe c9bf
00000010: 65b5 1123 97ef 9bbf 9692 27d4 921d d1bf
00000020: 3fef c8d2 5d3c c13f 93cd 7ba8 d7b4 babf
00000030: 67d5 c571 6dfc cbbf
-0.1279778851652662 -0.2030856564822212 -0.02728115226311924 -0.26743002622814893 0.13465473930579638 -0.10432193625802304 -0.21864097647964373

blocks1.SCINet_Tree.SCINet_Tree_odd.SCINet_Tree_even.workingblock.interact.level.phi.1.bias f8 [1]
00000000: 99b8 bc01 b5dd d0bf
-0.26353192491195326

blocks1.SCINet_Tree.SCINet_Tree_odd.SCINet_Tree_even.workingblock.interact.level.phi.4.weight f8 [1, 1, 3]
00000000: 8868 77de 8834 debf dd9a 987c b84a c33f
00000010: 3273 15c6 df9e cf3f
-0.47195646023977433 0.15071779331011373 0.247035953255272

blocks1.SCINet_Tree.SCINet_Tree_odd.SCINet_Tree_even.workingblock.interact.level.phi.4.bias f8 [1]
00000000: f59f 75ad b700 e2bf
-0.5625875842933953

blocks1.SCINet_Tree.SCINet_Tree_odd.SCINet_Tree_even.workingblock.interact.level.psi.1.weight f8 [1, 1, 7]
00000000: 2773 c45c 9ef4 c13f f079 315e f09a d7bf
00000010: cf5c 9d93 ca70 d6bf ae08 b06d 4ead dabf
00000020: d8e4 3f7c 02f0 a6bf 68a0 60e8 f575 d53f
00000030: 3878 72a0 0e16 a53f
0.14027766732842759 -0.3688317222458002 -0.35063423552987855 -0.41682778083498817 -0.04479987875670027 0.33532474225149267 0.04118390759070717

blocks1.SCINet_Tree.SCINet_Tree_odd.SCINet_Tree_even.workingblock.interact.level.psi.1.bias f8 [1]
00000000: a43b 7646 59c9 b6bf
-0.08900983782062483

blocks1.SCINet_Tree.SCINet_Tree_odd.SCINet_Tree_even.workingblock.interact.level.psi.4.weight f8 [1, 1, 3]
00000000: acf3 2f86 f2fb d1bf 3022 22d5 c306 e63f
00000010: 1d2f 61d9 6b7d e23f
-0.28100264648656537 0.6883258021126206 0.577810215539532

blocks1.SCINet_Tree.SCINet_Tree_odd.SCINet_Tree_even.workingblock.interact.level.psi.4.bias f8 [1]
00000000: 7e65 da72 dd82 b9bf
-0.09965309194594416

blocks1.SCINet_Tree.SCINet_Tree_odd.SCINet_Tree_even.workingblock.interact.level.P.1.weight f8 [1, 1, 7]
00000000: 9d1a 82e5 31ce c8bf 5171 4636 a7fb bebf
00000010: 0de8 9e4b 818d a8bf a4de 5031 21da c2bf
00000020: 3699 b0a0 a618 a8bf d34d 1973 ab72 d13f
00000030: d6a7 9c41 98be e23f
-0.1937925692220305 -0.12102742266728696 -0.047954597931905686 -0.14728178890230936 -0.04706307136102554 0.27262388458367787 0.5857659608348011

blocks1.SCINet_Tree.SCINet_Tree_odd.SCINet_Tree_even.workingblock.interact.level.P.1.bias f8 [1]
00000000: ae4c c89f aa6f ab3f
0.05358632278889651

blocks1.SCINet_Tree.SCINet_Tree_odd.SCINet_Tree_even.workingblock.interact.level.P.4.weight f8 [1, 1, 3]
00000000: 77ff 4697 23c4 ccbf a857 68c2 fe6b cfbf
00000010: 70f3 7fab a4f1 d6bf
-0.2247356880816331 -0.24548325054700837 -0.3584987330248657

blocks1.SCINet_Tree.SCINet_Tree_odd.SCINet_Tree_even.workingblock.interact.level.P.4.bias f8 [1]
00000000: 02fb 79d0 ef4b c73f
0.18200490645900663

blocks1.SCINet_Tree.SCINet_Tree_odd.SCINet_Tree_even.workingblock.interact.level.U.1.weight f8 [1, 1, 7]
00000000: a49a 658b 25bb a3bf 8ee5 ef0d 3a3a 97bf
00000010: 2dad f51b 141f dc3f e0cf 4296 3042 e03f
00000020: c892 41b8 8ddb 95bf abb2 c3df 524c d7bf
00000030: 8812 bfa0 f230 e1bf
-0.03853719069120601 -0.02268305502000128 0.43939688425480733 0.5080798086914875 -0.021345342990019472 -0.36403343059536536 -0.5372250690057436

blocks1.SCINet_Tree.SCINet_Tree_odd.SCINet_Tree_even.workingblock.interact.level.U.1.bias f8 [1]
00000000: b7d9 3134 f591 963f
0.022041159926141165

blocks1.SCINet_Tree.SCINet_Tree_odd.SCINet_Tree_even.workingblock.interact.level.U.4.weight f8 [1, 1, 3]
00000000: 8a5d 93bf 8702 d3bf 9e52 dee2 6fef d8bf
00000010: aeff 6330 576e cebf
-0.2970294352394026 -0.3896140780937375 -0.23774232733557937

blocks1.SCINet_Tree.SCINet_Tree_odd.SCINet_Tree_even.workingblock.interact.level.U.4.bias f8 [1]
00000000: 2c8d 25b4 6995 8e3f
0.014933420000210328

blocks1.SCINet_Tree.SCINet_Tree_even.workingblock.interact.level.phi.1.weight f8 [1, 1, 7]
00000000: 70c7 9862 faf4 c3bf 6be9 98d8 45b6 c93f
00000010: 7e6c 0598 71da aa3f 62da 9640 5931 debf
00000020: fa08 2c55 72c7 dfbf ecbc e1d4 a648 e1bf
00000030: f960 d15b 7ef2 e0bf
-0.15591363729759733 0.200875025520712 0.052447843367837685 -0.47176200206323504 -0.49654825513438505 -0.5401186139914933 -0.5296012681310734

blocks1.SCINet_Tree.SCINet_Tree_even.workingblock.interact.level.phi.1.bias f8 [1]
00000000: 45e8 05a2 4c33 e0bf
-0.5062621273530189

blocks1.SCINet_Tree.SCINet_Tree_even.workingblock.interact.level.phi.4.weight f8 [1, 1, 3]
00000000: 9d39 8faa 6229 f03f 885a 57e7 090d d43f
00000010: 7ee6 f9f9 601d aa3f
1.0101038610915574 0.31329581825176733 0.05100539256541213

blocks1.SCINet_Tree.SCINet_Tree_even.workingblock.interact.level.phi.4.bias f8 [1]
00000000: 5b70 f043 6185 ebbf
-0.8600317313134939

blocks1.SCINet_Tree.SCINet_Tree_even.workingblock.interact.level.psi.1.weight f8 [1, 1, 7]
00000000: 3740 92af 5d59 c6bf a00c b944 ea64 ddbf
00000010: aaca dfa3 552f e0bf 3e8e f200 c23c d6bf
00000020: 5570 ab58 0a94 c5bf a230 9abb dc47 c53f
00000030: 94fd 331f 7b11 b63f
-0.17460223267380723 -0.45928436957565033 -0.5057781410854052 -0.34745836346175796 -0.16858033494543415 0.16625556144970682 0.08620423805040495

blocks1.SCINet_Tree.SCINet_Tree_even.workingblock.interact.level.psi.1.bias f8 [1]
00000000: ddf1 f00a e18e ccbf
-0.2231103232787878

blocks1.SCINet_Tree.SCINet_Tree_even.workingblock.interact.level.psi.4.weight f8 [1, 1, 3]
00000000: 0593 6de4 0b7a c63f 5c86 c4df 9861 bb3f
00000010: 1b84 855a 66d2 e03f
0.17559956220352305 0.1069579645450402 0.5256835716246572

blocks1.SCINet_Tree.SCINet_Tree_even.workingblock.interact.level.psi.4.bias f8 [1]
00000000: 85d1 97d4 0fda e7bf
-0.7453688766677692

blocks1.SCINet_Tree.SCINet_Tree_even.workingblock.interact.level.P.1.weight f8 [1, 1, 7]
00000000: b13f 48c3 8254 c73f 2f9e f2b4 0fe6 d8bf
00000010: 1096 150b 0a37 ac3f 4f51 b740 a1fd c8bf
00000020: 39e6 5cf1 2bb0 d33f 02d9 fbed 289e c5bf
00000030: df43 1119 4fed a4bf
0.18226656470551242 -0.38904183073688875 0.055107416012827426 -0.19524017009701786 0.30762766428560756 -0.1688891565351654 -0.04087302380560919

blocks1.SCINet_Tree.SCINet_Tree_even.workingblock.interact.level.P.1.bias f8 [1]
00000000: db07 620e 3d2f a33f
0.0374697761590281

blocks1.SCINet_Tree.SCINet_Tree_even.workingblock.interact.level.P.4.weight f8 [1, 1, 3]
00000000: 4c08 a482 7e99 df3f 19a1 243f 474e c0bf
00000010: 4470 af9d ef1a c93f
0.4937435413158979 -0.1273888643565975 0.19613452147939558

blocks1.SCINet_Tree.SCINet_Tree_even.workingblock.interact.level.P.4.bias f8 [1]
00000000: 965d e320 ff5b d73f
0.3649900265858944

blocks1.SCINet_Tree.SCINet_Tree_even.workingblock.interact.level.U.1.weight f8 [1, 1, 7]
00000000: 2c21 336c 518e 533f a502 cff2 7681 c83f
00000010: 8d0f 2c2e b225 e43f 9dfa ed4e 5c65 b8bf
00000020: 81ad 1271 e344 ab3f bc78 9f33 d63d d13f
00000030: f7fa 333f 34cd c7bf
0.001193599237739272 0.19145094734087312 0.6296015645789211 -0.09529663969986264 0.05325995211873203 0.2693992141847834 -0.1859498318298944

blocks1.SCINet_Tree.SCINet_Tree_even.workingblock.interact.level.U.1.bias f8 [1]
00000000: 6b70 bab7 02d7 c6bf
-0.17843660327060049

blocks1.SCINet_Tree.SCINet_Tree_even.workingblock.interact.level.U.4.weight f8 [1, 1, 3]
00000000: a269 8e19 5b71 d7bf 0e87 0b68 c184 d4bf
00000010: f7dd 96d4 c3fc d2bf
-0.36629369254810673 -0.32060275231025137 -0.29667754898716175

blocks1.SCINet_Tree.SCINet_Tree_even.workingblock.interact.level.U.4.bias f8 [1]
00000000: 50ca b3f4 75ae de3f
0.47939824005803633

blocks1.SCINet_Tree.SCINet_Tree_even.SCINet_Tree_odd.workingblock.interact.level.phi.1.weight f8 [1, 1, 7]
00000000: f3d2 cbac a891 bb3f d216 7854 f087 c33f
00000010: 275e 62f5 77d1 913f 5775 cd18 14c0 cc3f
00000020: 3635 3867 5f39 d83f 7a7b 05db da15 da3f
00000030: 6f36 f317 6654 b93f
0.10769132822663234 0.1525860226103562 0.01740062174994086 0.2246117707353885 0.3785017498019728 0.4075839175110826 0.0989440735313225

blocks1.SCINet_Tree.SCINet_Tree_even.SCINet_Tree_odd.workingblock.interact.level.phi.1.bias f8 [1]
00000000: 7f92 42f6 7f44 c53f
0.16615294956604384

blocks1.SCINet_Tree.SCINet_Tree_even.SCINet_Tree_odd.workingblock.interact.level.phi.4.weight f8 [1, 1, 3]
00000000: 08c0 4b9f 8e6f d1bf 5571 cf5e dfd4 c4bf
00000010: f928 23b7 03d6 d5bf
-0.2724339061378491 -0.1627463543835669 -0.34118740925318

blocks1.SCINet_Tree.SCINet_Tree_even.SCINet_Tree_odd.workingblock.interact.level.phi.4.bias f8 [1]
00000000: d781 b66b 34b2 e6bf
-0.7092535117881721

blocks1.SCINet_Tree.SCINet_Tree_even.SCINet_Tree_odd.workingblock.interact.level.psi.1.weight f8 [1, 1, 7]
00000000: 8ec6 9f1e 99cc d53f 8a87 419b 9112 77bf
00000010: 7933 0aef a16d d53f f488 3539 9f8e d6bf
00000020: e50d 3830 129d d5bf c80e f347 6802 d7bf
00000030: e762 c8da b177 d43f
0.34061267843854004 -0.005632942939060368 0.33481644004569194 -0.352454954021723 -0.3377118559730817 -0.35952193285286826 0.3198055874395735

blocks1.SCINet_Tree.SCINet_Tree_even.SCINet_Tree_odd.workingblock.interact.level.psi.1.bias f8 [1]
00000000: ddc3 002f d86f b7bf
-0.09155036113294508

blocks1.SCINet_Tree.SCINet_Tree_even.SCINet_Tree_odd.workingblock.interact.level.psi.4.weight f8 [1, 1, 3]
00000000: 5570 ce08 6872 c53f f1fe 1468 006c a9bf
00000010: 4e34 5b9b df34 d9bf
0.16755390577316356 -0.049652111726116284 -0.3938521401549381

blocks1.SCINet_Tree.SCINet_Tree_even.SCINet_Tree_odd.workingblock.interact.level.psi.4.bias f8 [1]
00000000: 5a86 fe2c 0a5c d1bf
-0.27124266046494017

blocks1.SCINet_Tree.SCINet_Tree_even.SCINet_Tree_odd.workingblock.interact.level.P.1.weight f8 [1, 1, 7]
00000000: 85b3 c9eb 9149 af3f 3d91 b278 2741 d93f
00000010: 481e 51a7 74fc c4bf 2f5d 78ea 090d cd3f
00000020: 2f66 3546 9b33 da3f a4df a5ce ea72 dc3f
00000030: 2875 721f c449 c7bf
0.0611081695868512 0.3946016958891681 -0.16395433587807617 0.22696041058291302 0.40939981323535596 0.44451399021590476 -0.1819386628675741

blocks1.SCINet_Tree.SCINet_Tree_even.SCINet_Tree_odd.workingblock.interact.level.P.1.bias f8 [1]
00000000: ac3a 1de1 5beb b6bf
-0.08952879186584067

blocks1.SCINet_Tree.SCINet_Tree_even.SCINet_Tree_odd.workingblock.interact.level.P.4.weight f8 [1, 1, 3]
00000000: 1f6e 946c e440 d63f a698 f844 77b9 e23f
00000010: 3c6a b145 9863 a53f
0.347710710558859 0.5851398799029723 0.04177547312493288

blocks1.SCINet_Tree.SCINet_Tree_even.SCINet_Tree_odd.workingblock.interact.level.P.4.bias f8 [1]
00000000: 22e8 f1e5 d0a9 b7bf
-0.0924349366559061

blocks1.SCINet_Tree.SCINet_Tree_even.SCINet_Tree_odd.workingblock.interact.level.U.1.weight f8 [1, 1, 7]
00000000: 2a10 b7ae d49e d3bf e5bf 8c48 c627 c4bf
00000010: 7678 dd52 b8e1 cfbf 2329 63aa d392 c93f
00000020: 10a0 7164 5c8c c23f 7b2e 4baf 6911 e23f
00000030: 283d ec0b 5eb3 cf3f
-0.30656926214237734 -0.15746382276984075 -0.2490759281744805 0.1997932989091363 0.14490847496495052 0.5646255897240303 0.24766135770958297

blocks1.SCINet_Tree.SCINet_Tree_even.SCINet_Tree_odd.workingblock.interact.level.U.1.bias f8 [1]
00000000: 1892 686d 7275 75bf
-0.005238959295216471

blocks1.SCINet_Tree.SCINet_Tree_even.SCINet_Tree_odd.workingblock.interact.level.U.4.weight f8 [1, 1, 3]
00000000: 15ff 820c 6970 dcbf 2d45 d0af b26a b93f
00000010: b364 9836 d209 d73f
-0.44436098310323874 0.09928433220217832 0.35997443515368416

blocks1.SCINet_Tree.SCINet_Tree_even.SCINet_Tree_odd.workingblock.interact.level.U.4.bias f8 [1]
00000000: 2ebb 64d5 3059 c93f
0.19803438586810657

blocks1.SCINet_Tree.SCINet_Tree_even.SCINet_Tree_even.workingblock.interact.level.phi.1.weight f8 [1, 1, 7]
00000000: 8cf8 ea37 5ca9 953f 64bf ab42 461a a53f
00000010: a6bc aeee 15b5 c13f 83c5 6940 4871 cf3f
00000020: ace4 c4d2 2aa6 c4bf 6849 aed7 e04b c8bf
00000030: 380b d442 3b82 d43f
0.021153870499568003 0.041216083181892654 0.13833879618093653 0.24564459939169234 -0.1613210229059282 -0.18981562167443689 0.32044869924736785

blocks1.SCINet_Tree.SCINet_Tree_even.SCINet_Tree_even.workingblock.interact.level.phi.1.bias f8 [1]
00000000: 1991 7d7a 90f5 d1bf
-0.28061305963480404

blocks1.SCINet_Tree.SCINet_Tree_even.SCINet_Tree_even.workingblock.interact.level.phi.4.weight f8 [1, 1, 3]
00000000: 2254 865a 716c d4bf ac82 34da 356c e3bf
00000010: 3ea0 ff11 6bff e7bf
-0.31911882248215495 -0.606959272558091 -0.7499289847883188

blocks1.SCINet_Tree.SCINet_Tree_even.SCINet_Tree_even.workingblock.interact.level.phi.4.bias f8 [1]
00000000: 366d ba96 d4b7 cfbf
-0.24779755935456088

blocks1.SCINet_Tree.SCINet_Tree_even.SCINet_Tree_even.workingblock.interact.level.psi.1.weight f8 [1, 1, 7]
00000000: 1236 aa44 8487 bfbf 0ff5 053d d9b1 d3bf
00000010: c046 76e2 43ab d1bf e878 cc6a c3c5 cabf
00000020: 4006 a5c6 2f73 d13f 2bd1 326c 0f8a a53f
00000030: 9bcd 1f14 af6b aebf
-0.12316157032383782 -0.3077300163202645 -0.2760781966727386 -0.20916025843411679 0.27265543364419287 0.042068941076112 -0.05941531296403043

blocks1.SCINet_Tree.SCINet_Tree_even.SCINet_Tree_even.workingblock.interact.level.psi.1.bias f8 [1]
00000000: ba4c 725c 9a73 cabf
-0.20665292276371422

blocks1.SCINet_Tree.SCINet_Tree_even.SCINet_Tree_even.workingblock.interact.level.psi.4.weight f8 [1, 1, 3]
00000000: 029e 76ea 8662 d9bf 131c 96fc edf3 d73f
00000010: d2eb e306 cee3 e53f
-0.396638611763109 0.37426328341138165 0.6840582022263055

blocks1.SCINet_Tree.SCINet_Tree_even.SCINet_Tree_even.workingblock.interact.level.psi.4.bias f8 [1]
00000000: 8d4a 9193 a896 e7bf
-0.7371409303835478

blocks1.SCINet_Tree.SCINet_Tree_even.SCINet_Tree_even.workingblock.interact.level.P.1.weight f8 [1, 1, 7]
00000000: 4ff8 30c5 8ca6 b93f dbfd 14d7 d1fc ce3f
00000010: 550b 8aff 2459 a23f dd9e 7705 38ed cdbf
00000020: 17e2 1388 3c00 c5bf 1a75 0cb3 8b0d c8bf
00000030: 56de d10f 9d9a 88bf
0.10019759954681827 0.24209044458437642 0.03583636874556954 -0.2338018442817348 -0.16406971592347538 -0.18791338198290292 -0.012013651891023585

blocks1.SCINet_Tree.SCINet_Tree_even.SCINet_Tree_even.workingblock.interact.level.P.1.bias f8 [1]
00000000: 6ac6 5e9c 2927 87bf
-0.011305165371456389

blocks1.SCINet_Tree.SCINet_Tree_even.SCINet_Tree_even.workingblock.interact.level.P.4.weight f8 [1, 1, 3]
00000000: 633f d6d9 2d5c cfbf 4a2b 353d dd21 d73f
00000010: 7449 8946 a735 d23f
-0.24500058304374325 0.36144190766633655 0.2845247448759871

blocks1.SCINet_Tree.SCINet_Tree_even.SCINet_Tree_even.workingblock.interact.level.P.4.bias f8 [1]
00000000: a61d 8bf1 b5e4 da3f
0.42020939434265825

blocks1.SCINet_Tree.SCINet_Tree_even.SCINet_Tree_even.workingblock.interact.level.U.1.weight f8 [1, 1, 7]
00000000: d9e6 86e2 6692 d53f c93c 9bf6 0801 b13f
00000010: acd5 6444 5bf0 d0bf 9511 ba85 3fba b53f
00000020: ee52 3d2d db06 8b3f 7494 f084 c2a7 c7bf
00000030: b619 7cf8 1f20 c3bf
0.3370606624772399 0.06642204304374667 -0.26467019728746766 0.08487317099394993 0.013196670835591697 -0.18480712405395006 -0.1494178736977127

blocks1.SCINet_Tree.SCINet_Tree_even.SCINet_Tree_even.workingblock.interact.level.U.1.bias f8 [1]
00000000: 5810 9af3 5c45 cebf
-0.23649179358119699

blocks1.SCINet_Tree.SCINet_Tree_even.SCINet_Tree_even.workingblock.interact.level.U.4.weight f8 [1, 1, 3]
00000000: 3515 31c0 dabf b43f d3c9 3fd8 55bd c6bf
00000010: f0e6 7734 318f d0bf
0.0810524672716227 -0.17765305575410525 -0.25873975871910115

blocks1.SCINet_Tree.SCINet_Tree_even.SCINet_Tree_even.workingblock.interact.level.U.4.bias f8 [1]
00000000: a91c 3a26 c416 c9bf
-0.1960072695403359

projection1.weight f8 [48, 96, 1]
00000000: 6435 ef82 0294 783f a20e e35a a53b 85bf
00000010: a700 f6ae e639 713f d5c5 63e8 a67a 58bf
00000020: 03fa cdc8 6cf8 a1bf 2c83 6114 8001 813f
00000030: 8051 6e06 3325 973f 308e 02e8 e6d6 b0bf
00000040: 6f66 0f97 d7e8 963f 0f0a 97d8 246d 913f
00000050: a160 7eb4 5dd7 923f 7ae9 35dc a3d5 9dbf
00000060: d5ee 96f2 ba62 9c3f d6dc dc8d a9d6 68bf
00000070: 067f 6405 0cfd 95bf 28a2 5211 863f 8bbf
00000080: 58f6 dc78 a51e acbf fae8 6d0d e0be a03f
00000090: 81d5 4e0d 3dc8 84bf ff2e 2330 528f 793f
000000a0: 5bc8 3192 f347 a8bf 6a54 e50d b4d5 853f
000000b0: 86a9 c1aa 2d3b ae3f 9a62 fc06 6f07 9bbf
000000c0: 9995 44d8 bd17 9ebf a17f ee27 feb1 93bf
000000d0: 53f3 1596 e676 a9bf 966c 3c95 e173 843f
000000e0: 4615 8555 88f2 80bf 9887 a28c 1f3b a13f
000000f0: 4949 1f30 d032 75bf dd18 82cb 1cc8 80bf
00000100: c578 b2bc 644b 923f d0a9 4a3d 9ef8 913f
00000110: 7bf6 d720 eebf a13f 5b66 467c 4797 9cbf
00000120: 2c48 0668 804d 8bbf 600a c759 3c77 723f
00000130: ceec 6785 32a7 b13f 423a 0e14 28e3 a7bf
00000140: 0a05 39bc 03e5 ab3f 2738 b320 3aeb 933f
00000150: bbc8 6438 933c 893f 65ec ae2a 47c9 b03f
00000160: 7da8 1088 f4f8 a4bf fa4e 855a 4a4f a63f
00000170: 52de fa98 1ff5 9ebf 3895 c8bd d5a9 80bf
00000180: 86f6 1fea 45d6 923f e2f2 0ec2 cea7 7fbf
00000190: 3627 753f 7cb8 9c3f 4233 65f8 d1a6 793f
000001a0: a004 574d 857d 73bf ed1e 5f0b 0f7f 9a3f
000001b0: 492e 0e3d f4d8 87bf 6729 4e22 aca1 b0bf
000001c0: e541 760a b8cf 923f 56ff cbb0 a0db 533f
000001d0: cb0b 19ab bfe8 a03f c565 d10e 2f16 aebf
000001e0: 469e 864c bc2d 953f 5f86 8638 cb19 a03f
000001f0: f267 93b2 0ca4 a2bf 17f1 0b43 96d2 a9bf
00000200: 2450 8cce 3424 933f f6e0 9a3d 495b 90bf
00000210: 347c ef88 37ac 96bf a7a6 5a3f dda4 943f
00000220: 5519 e79b a9c8 9b3f 9b2a 1237 db91 6bbf
00000230: 035d 3258 f145 a5bf 6931 ee7d 1036 aabf
00000240: 96aa af6b e338 a0bf 6754 2ba1 0181 7d3f
00000250: eee5 3a61 0949 83bf 3c07 e3cc ae2d 9c3f
00000260: 7d4f 270f c141 a0bf a918 6c5d 4d4f a83f
00000270: 6c3d d151 c44c 513f 2243 3edc 6f47 9bbf
00000280: d1f1 895d 8c29 933f 0d24 63be d2c8 9b3f
00000290: 8a66 712f ca16 b2bf 1ff0 afc5 63cf 853f
000002a0: ebde 557e 7f53 a1bf 1034 601b 5271 8b3f
000002b0: 8848 ad0b ccc9 a63f 70a1 5113 9b5f b8bf
000002c0: ee69 7894 bf02 9b3f c071 2d3c b969 863f
000002d0: a57d d89c 3a33 a6bf 1e8a 6b53 2338 b63f
000002e0: c255 2599 86f1 c03f 4d07 00ce 3d52 b93f
000002f0: 1ebd edca ad4e cb3f 88ca f7b1 c00f d63f
00000300: e4d3 9213 b8e9 99bf e625 aab4 d4b0 9a3f
00000310: 26ee 7bb1 ddce 903f 68ef 8071 f060 3c3f
00000320: 702d 4b4b bb45 a3bf a9f9 bc70 5f45 9a3f
00000330: 00f4 7ad0 a296 563f 577e d9a4 5450 a8bf
00000340: c76e 2b02 39da 953f 4f55 a426 5375 90bf
00000350: 83fb 20b5 892a 9a3f 6a61 f819 b2a0 9cbf
00000360: 24f3 4f48 436f 8cbf 1b62 2330 9302 a23f
00000370: cc10 896f 2dcc a0bf 12ba f0ba 24e7 813f
00000380: cfb7 2c7c e03b 8ebf 3d1a a7e6 2b80 84bf
00000390: 44a3 fe6e 35ba b03f 74d2 d9d4 0c09 92bf
000003a0: 2341 c8a5 28f1 973f dffb db4d f132 923f
000003b0: ed62 ba60 8dd7 9abf a643 a86a 2ef3 a6bf
000003c0: b23a bf36 8709 97bf 40da 89bb 81dd 73bf
000003d0: 1af3 9e42 7116 953f 7db4 d662 9b57 66bf
000003e0: d756 8ca7 b473 98bf 82c3 71ea 81ea 893f
000003f0: 9cd8 3947 c3f1 76bf a031 fd94 4365 b0bf
00000400: 4203 9855 fd66 6dbf 362a 7f96 c214 a0bf
00000410: 0b3e 2ee9 91c9 ab3f bb7f 6780 d7d6 9ebf
00000420: f344 8105 f69d 7b3f 65c3 7b69 bc03 393f
00000430: 342b 5279 d481 943f ee0d b4eb 31e8 73bf
00000440: e350 b442 5362 a23f 14ce e73e c484 713f
00000450: a025 a521 7e17 a6bf 79a3 c8a6 c422 ae3f
00000460: cc03 1726 4987 a33f 6129 99cd 9a0f a53f
00000470: 3606 1078 7b00 933f 76e9 79e1 0889 aabf
00000480: d7ff 72d7 19a3 b03f 32ea c9f6 61a3 873f
00000490: f04c 3e65 d2ec 9d3f e2d8 9444 1613 81bf
000004a0: d0d0 1f5c 0beb 9dbf 5089 a682 dd22 80bf
000004b0: 8a55 d3c2 1666 a13f 1a71 2b90 56fa 9fbf
000004c0: 3670 f726 f412 a03f 7cb9 81a1 e086 94bf
000004d0: 1aa7 9fc7 c18e 76bf dbdb 90a0 b9c7 893f
000004e0: d243 bad7 9d8d 61bf 47b8 0580 8b21 a73f
000004f0: 1c38 6026 5ba2 84bf 43cd abe8 bd78 b3bf
00000500: 6b21 5ffe a90f a1bf d6ab d341 7f90 8fbf
00000510: 8316 0683 68f2 9b3f f045 ea32 69e8 933f
00000520: aa71 6e5c 2914 873f 988c 0f76 d2ca a93f
00000530: 4260 64bd 1e6d 8ebf 68bf 47a7 aa7b 883f
00000540: 2e0d 4f85 664d a0bf 8c33 b335 3094 a53f
00000550: 1ce5 6203 0c3d 99bf fe66 8a7d 44ef 97bf
00000560: c941 0398 b11b a03f 1042 8c8a c38b 903f
00000570: ed69 5dab 1a09 a93f f0cc 8c3e 2697 713f
00000580: 29fa 8158 0b1c 99bf 7d6f 8b20 796c 82bf
00000590: a8a8 50ab d618 8dbf b64f 138e 92a1 90bf
000005a0: 52c8 9a24 79b5 a3bf 7bdd ca99 aed5 73bf
000005b0: 035a a6df ccbf a1bf e703 2513 e24b 9fbf
000005c0: d18f 03d5 a6ee a3bf eff1 d484 9c88 943f
000005d0: 7960 2515 8c57 88bf 951b 7938 dc9c 563f
000005e0: 7242 e548 6588 c23f c703 7c38 8eb4 c13f
000005f0: 0ed1 62c6 8204 cf3f 77bd 3552 eee6 d33f
00000600: c025 d131 9667 963f 3069 7672 2106 753f
00000610: 1eaf 50ba c4e4 4a3f a5d6 ba88 63dc 83bf
00000620: 390f bb21 5c82 84bf fe18 bdca a6cb 993f
00000630: 43eb 012c dcac a03f 19a7 d5ac 3d1e abbf
00000640: 0b24 14c5 afb2 90bf fed2 f261 d8f1 813f
00000650: 9bdb 877c 9d78 a23f 4062 719b b4e7 6e3f
00000660: d69d 2e19 a6cb b0bf 3386 c120 d9e4 893f
00000670: efc5 f5a7 0d9a 87bf 8dab f9d8 072a 7ebf
00000680: 4ebc a82d 1d20 793f a27f 196e 3835 7cbf
00000690: 0008 cd41 a702 7b3f 8910 9c7a 230d 5dbf
000006a0: 0cc2 e008 ce5b 7abf 00ed 6ad9 07e8 f43e
000006b0: 452a 2ae1 949c 9c3f 420b dfc2 7093 a2bf
000006c0: 7b46 10f6 74c4 a6bf b2fa 16fe 2919 803f
000006d0: 8777 b6ba ef5b 67bf e0db 24e8 a864 96bf
000006e0: 6562 43b0 1872 a3bf acaa 0e41 1659 ac3f
000006f0: a9e9 8d85 228c a73f b320 6417 3763 b2bf
00000700: 7e0a 9c9e 86c9 9e3f 3ae8 143b e428 373f
00000710: 1e55 1d6d a65e 98bf 4a63 c775 94c9 a8bf
00000720: 4277 d01b a0ba 87bf d5ac 6258 cbbc a0bf
00000730: b00c 4113 fa9c a23f ac04 29b1 f491 a3bf
00000740: f184 5dac 45d1 90bf 2e1d b4cd d591 7e3f
00000750: 5c76 de4d edfb 7f3f f2ff 032d d06e 83bf
00000760: 3d3b 4c36 32a4 973f 08ed 60f5 cfc6 713f
00000770: 8daa 84d8 8efd 983f cb68 9be3 36be a33f
00000780: 5e84 1eb9 91a9 99bf a5eb e3bb df02 ad3f
00000790: 0db3 0e47 a8b4 93bf 4df0 7f58 c177 77bf
000007a0: 75db e0e7 7a8f 9d3f b79b 462b 06db 793f
000007b0: c086 c3c3 16eb 9f3f 883e e175 b624 80bf
000007c0: 6a8e a8e5 11ef 9fbf 78c3 8a00 5454 92bf
000007d0: 716a b6af a3d8 743f 54bd c0b4 b858 a3bf
000007e0: 1130 bc10 264e 9e3f afbf cada 0210 9b3f
000007f0: 8cf0 976f f486 72bf 85ed 32bb c904 633f
0.006000528154755134 -0.010367671810292581 0.004205609423820678 -0.0014940862616267165 -0.03509845687129955 0.008303642866111703 0.022602841632378468 -0.06577914394670681
0.02237259730814006 0.01701791355095322 0.018399681226214274 -0.029135284724796297 0.027720376068585423 -0.003032046471073006 -0.021473110036025943 -0.013304755595826626
-0.0549213132894521 0.03270626224453284 -0.010147549599291096 0.0062401972265424535 -0.04742394599533447 0.010661513017718078 0.05904524526052328 -0.0263955448163836
-0.02938744194502405 -0.01923367613528593 -0.04973526556111687 0.009986650816747916 -0.008275094137057192 0.03365419952139276 -0.005175412401472742 -0.008194184265687127
0.01786572839466129 0.01754996537298742 0.03466743613169584 -0.02792083450331116 -0.013331416296555508 0.004508243317504851 0.06895747906667113 -0.046654941986265644
0.05448161766663347 0.01945200752816603 0.01232256904458883 0.0655712584693205 -0.04096187745047162 0.04357368807782609 -0.030231946670680472 -0.008136434416040048
0.01839551202282632 -0.00772839321956262 0.02804750573458322 0.0062626077618233595 -0.004758377753604354 0.02587531573206452 -0.011644275773298978 -0.06496692502529343
0.018370509756609272 0.0012120312923684282 0.033025731693235715 -0.0587629991138772 0.020682279749648445 0.03144679131515881 -0.03640784911995344 -0.0504347760051777
0.018692803484626222 -0.015973228821821693 -0.02214133046424767 0.020160157195880626 0.02713265432410002 -0.0033654481454211244 -0.041549245849802595 -0.05119372880207857
-0.03168402375725525 0.007203108182428065 -0.009416650085188185 0.02751801610498393 -0.03175166425685825 0.04748002782257405 0.001055900305136105 -0.026639697854594087
0.0187131816951352 0.027133267278973295 -0.07066024454379707 0.010649470777927715 -0.033840164348417044 0.01339973588985724 0.04450833933391701 -0.09520882817890253
0.026377671658432016 0.010943839215251994 -0.04335959591503106 0.08679409777281719 0.13237078168701372 0.09891115454959483 0.21333858879686657 0.3447114694564921
-0.025305629915880604 0.026065181280989246 0.016414131124277052 0.0004330241222338855 -0.03764138502227865 0.025655261283867557 0.001378687857069183 -0.047487874148597946
0.02134026599638508 -0.01607255862571338 0.025552894287325777 -0.02795675548085922 -0.01388409199170721 0.035175895334479367 -0.03280775057331339 0.008741652445761115
-0.014762643613348473 -0.010010092712844027 0.06534131965476059 -0.017612648478876072 0.023380885237260018 0.0177724555751374 -0.026212891606152523 -0.04482407619446542
-0.022497284618845988 -0.00484991719041844 0.020593423548905233 -0.002727321136907933 -0.023878882147150584 0.01265431877820489 -0.005601656728336259 -0.06404516589572617
-0.003589148324636333 -0.03140838706129438 0.05427223178332604 -0.03011643143861396 0.00674244024419689 0.0003816924085944722 0.020026512055248705 -0.004860110285565862
0.035906412022230126 0.004277006707059456 -0.04314798508364537 0.05885901008543377 0.038141523265501215 0.04113467941040728 0.018556527331389648 -0.0518267417182469
0.06498872289648659 0.01154209646596369 0.029223716191677462 -0.008337186782779008 -0.029216935632533858 -0.007879000234258499 0.0339820015739561 -0.031228401708049615
0.03139460540452925 -0.020045766694630526 -0.005507237388863629 0.012587976658421532 -0.0021427233567199245 0.04517780244610541 -0.010075294598234356 -0.0760611241383247
-0.033322632123204375 -0.015412325092674022 0.027291901585633226 0.019441264851200957 0.011268923886569155 0.050375534927092847 -0.014856567530429857 0.011954625349033868
-0.03184051873497605 0.04214621215360301 -0.024646938044246544 -0.023373670732872213 0.03146128636001639 0.01615815671090287 0.04889758436066303 0.004294537918031013
-0.024521043088038184 -0.008995958619770534 -0.014207532027360095 -0.016241350099178674 -0.03849390575250368 -0.004842454942881043 -0.03466644506550056 -0.030562908571713534
-0.03893014288203712 0.02005238114110058 -0.011885733027767952 0.0013801718322541169 0.144787464707878 0.13832261808422983 0.24232515990082287 0.3109699061232826
0.021879526892268464 0.0051327997711275025 0.0008207283577852142 -0.00969770203605986 -0.010014266757373146 0.02519093143862338 0.03256881749344711 -0.052965094898196514
-0.01630663528797886 0.008762064446594216 0.036076470805645765 0.0037725951656677748 -0.06560743441388381 0.012643524467594513 -0.011524302185281747 -0.007364302305726944
0.006134141900971347 -0.006886692457186346 0.006594327304641823 -0.0017731520151196575 -0.006435208151785787 1.9937867899538948e-05 0.027941061251605132 -0.03628113154220226
-0.0444675970430923 0.007860496584610164 -0.002851455899601288 -0.02186836163420114 -0.0379798617520393 0.055367179338039335 0.045991019061108425 -0.07182640381882059
0.030065635138280637 0.0003533894733497332 -0.023798561487031404 -0.04841293275575838 -0.011586428498101878 -0.032690386332740275 0.036353888368944154 -0.03822292959785875
-0.016423309941619505 0.007463298006093395 0.007808615655361697 -0.009488703130500629 0.023087296070168895 0.00433999284546905 0.024404746976112213 0.03856059578329648
-0.025060917781619778 0.056662551580266375 -0.019243840538979252 -0.005729441887520959 0.028867645647746316 0.006312393281780729 0.031170230577919567 -0.007882523987205362
-0.031185416834104286 -0.01789981129940396 0.005089415931616701 -0.03778626638847507 0.029594988604955633 0.0264282651939422 -0.004523234203130621 0.002321619039859337
