exp/data_checkpoints/Model_hs1_bs32_e50/checkpoint.pth (torch, 72377 bytes, 114 tensors)

inv_timescales f8 [1]
00000000: 0000 0000 0000 f03f
1.0

blocks1.SCINet_Tree.workingblock.interact.level.phi.1.weight f8 [1, 1, 5]
00000000: a29a 9651 7125 c3bf fdc6 c3b8 8eaf debf
00000010: 93fa 94ab 21fb bb3f d6a3 939f 797f d13f
00000020: 2898 14c7 fbf8 ca3f
-0.14958015903285565 -0.4794651798575698 0.10930071295750059 0.2734054621092218 0.21072337361073434

blocks1.SCINet_Tree.workingblock.interact.level.phi.1.bias f8 [1]
00000000: cc0c 59aa 9590 afbf
-0.06164996818963572

blocks1.SCINet_Tree.workingblock.interact.level.phi.4.weight f8 [1, 1, 3]
00000000: 9b97 5268 6c3c cf3f 133f 5f81 b62d c6bf
00000010: f12e a293 98f0 c83f
0.24403147786977972 -0.17327004734988147 0.19484240730923078

blocks1.SCINet_Tree.workingblock.interact.level.phi.4.bias f8 [1]
00000000: ba05 7a1a 516b debf
-0.47530009828195896

blocks1.SCINet_Tree.workingblock.interact.level.psi.1.weight f8 [1, 1, 5]
00000000: f25c 8c4a c810 aebf 5b6c 6c72 6666 b6bf
00000010: d52a c5b0 d5ea d1bf 5e75 bee4 a534 ccbf
00000020: c3e5 8f9f 0a10 ce3f
-0.05872178945554109 -0.08750000279944585 -0.27995817434991227 -0.22035669011249132 0.23486454764478823

blocks1.SCINet_Tree.workingblock.interact.level.psi.1.bias f8 [1]
00000000: d411 4d7e e8e9 cbbf
-0.21807581107181184

blocks1.SCINet_Tree.workingblock.interact.level.psi.4.weight f8 [1, 1, 3]
00000000: 828e 0d51 0723 c5bf d6ce f0e6 1ff8 e03f
00000010: 02f9 d601 de38 cd3f
-0.16513148744262557 0.5302886496123971 0.2282979496939746

blocks1.SCINet_Tree.workingblock.interact.level.psi.4.bias f8 [1]
00000000: a72e f711 e3dd dcbf
-0.45104290728043356

blocks1.SCINet_Tree.workingblock.interact.level.P.1.weight f8 [1, 1, 5]
00000000: a1b1 d93c 9d6d c9bf 5304 db05 e65e bf3f
00000010: 05db 94b5 72c2 cc3f 6ca2 4117 7a8f d4bf
00000020: 8343 5f24 2dfa c13f
-0.19865766020974454 0.12254178660352126 0.22468408457071845 -0.3212571360695964 0.14044727588636982

blocks1.SCINet_Tree.workingblock.interact.level.P.1.bias f8 [1]
00000000: 9e77 c52a ea00 88bf
-0.011720494680669987

blocks1.SCINet_Tree.workingblock.interact.level.P.4.weight f8 [1, 1, 3]
00000000: 30fe 6688 37cb babf f4fe dd3f df58 e13f
00000010: 5aff b198 1d4b 7cbf
-0.1046633441937892 0.5420986411481565 -0.006907573329158223

blocks1.SCINet_Tree.workingblock.interact.level.P.4.bias f8 [1]
00000000: 73ad 6f39 646d cbbf
-0.2142758636904137

blocks1.SCINet_Tree.workingblock.interact.level.U.1.weight f8 [1, 1, 5]
00000000: bb58 897c 0c08 b93f 32c4 7f35 126a d0bf
00000010: 4d17 407e 7ebe d83f f133 c6f0 b018 cebf
00000020: bc3d 4788 e85c d33f
0.09777906456415313 -0.2564740679218317 0.38662683800827297 -0.23512851482919886 0.3025456744043955

blocks1.SCINet_Tree.workingblock.interact.level.U.1.bias f8 [1]
00000000: 0cd2 35da 4bb1 cfbf
-0.24759815363690085

blocks1.SCINet_Tree.workingblock.interact.level.U.4.weight f8 [1, 1, 3]
00000000: bd57 c596 d7b6 bc3f 4b00 46bb 7101 d9bf
00000010: 11d3 43ff 65c6 d3bf
0.11216494971208042 -0.3907131508676726 -0.3089842789479898

blocks1.SCINet_Tree.workingblock.interact.level.U.4.bias f8 [1]
00000000: 990a 8325 9bb3 b53f
0.08477182069604296

blocks1.SCINet_Tree.SCINet_Tree_odd.workingblock.interact.level.phi.1.weight f8 [1, 1, 5]
00000000: 4aca db11 b619 cdbf e315 36f7 3a4b b93f
00000010: f11b 592c 7b00 b13f 6e04 e25c f6ea d13f
00000020: ac0e 83e2 b527 b2bf
-0.22734714385986116 0.09880417380744393 0.06641359169689999 0.279965964036882 -0.07091843395306324

blocks1.SCINet_Tree.SCINet_Tree_odd.workingblock.interact.level.phi.1.bias f8 [1]
00000000: fea3 3f9e 9b5a b7bf
-0.09122631658068767

blocks1.SCINet_Tree.SCINet_Tree_odd.workingblock.interact.level.phi.4.weight f8 [1, 1, 3]
00000000: 555b 82f8 db58 d63f e744 bed8 7a9f 68bf
00000010: 2376 c592 f8af ccbf
0.3491735388610569 -0.003005733427877122 -0.22412020842141187

blocks1.SCINet_Tree.SCINet_Tree_odd.workingblock.interact.level.phi.4.bias f8 [1]
00000000: 14df 0241 9ee2 b5bf
-0.08548916899860287

blocks1.SCINet_Tree.SCINet_Tree_odd.workingblock.interact.level.psi.1.weight f8 [1, 1, 5]
00000000: 7f22 6fb0 5182 ba3f 995a 07c5 39b8 d4bf
00000010: 25d5 b9b6 2dc8 b9bf 7941 f3d1 5f9c cd3f
00000020: e7e9 4da6 0ec9 d43f
0.10355101163362156 -0.3237442421063093 -0.1007107325657058 0.231334664835696 0.32477155914935313

blocks1.SCINet_Tree.SCINet_Tree_odd.workingblock.interact.level.psi.1.bias f8 [1]
00000000: 9b4a 06c4 e5b3 d6bf
-0.35473007338547696

blocks1.SCINet_Tree.SCINet_Tree_odd.workingblock.interact.level.psi.4.weight f8 [1, 1, 3]
00000000: 655d 873b 9e48 cabf 8a6d 5dd1 3255 d0bf
00000010: 38d1 9942 8c12 d13f
-0.20534112841299215 -0.25520010419651185 0.2667570734404481

blocks1.SCINet_Tree.SCINet_Tree_odd.workingblock.interact.level.psi.4.bias f8 [1]
00000000: 3acf 7dfb 2aad e6bf
-0.7086386596624614

blocks1.SCINet_Tree.SCINet_Tree_odd.workingblock.interact.level.P.1.weight f8 [1, 1, 5]
00000000: 1bd0 c832 c098 c4bf 80cb 7900 4203 dcbf
00000010: 9d8f 5528 d5a6 dabf 83bf 86c3 199b d73f
00000020: 35a0 be2d ea60 d03f
-0.16091158370693467 -0.43769884153805805 -0.4164326566590207 0.3688415917813403 0.2559152075505183

blocks1.SCINet_Tree.SCINet_Tree_odd.workingblock.interact.level.P.1.bias f8 [1]
00000000: 8bbd 541c 5300 9bbf
-0.02636842594546133

blocks1.SCINet_Tree.SCINet_Tree_odd.workingblock.interact.level.P.4.weight f8 [1, 1, 3]
00000000: abf9 1399 d29b ddbf 2a73 8fe7 98ec d9bf
00000010: 736f d216 ce73 b23f
-0.46263565968538484 -0.4050657521564057 0.07207954461267523

blocks1.SCINet_Tree.SCINet_Tree_odd.workingblock.interact.level.P.4.bias f8 [1]
00000000: 7899 0d05 91fb 8b3f
0.013663418738087726

blocks1.SCINet_Tree.SCINet_Tree_odd.workingblock.interact.level.U.1.weight f8 [1, 1, 5]
00000000: 5c84 bb21 5c38 d1bf 6d48 9432 4f8b d4bf
00000010: b476 bbf8 0bd9 d23f 9870 8450 457e b1bf
00000020: c05a 424c 8673 9abf
-0.2690649346751053 -0.32100276889207785 0.29449748316060753 -0.06833298888926931 -0.025831316380016345

blocks1.SCINet_Tree.SCINet_Tree_odd.workingblock.interact.level.U.1.bias f8 [1]
00000000: be31 61e3 b275 bfbf
-0.12288969088803633

blocks1.SCINet_Tree.SCINet_Tree_odd.workingblock.interact.level.U.4.weight f8 [1, 1, 3]
00000000: 21c1 36f1 4acc d8bf 79e3 1fac 343d bd3f
00000010: 03b4 35b6 af04 dd3f
-0.3874690394977894 0.11421517565021401 0.45341103357242235

blocks1.SCINet_Tree.SCINet_Tree_odd.workingblock.interact.level.U.4.bias f8 [1]
00000000: 13cf af0b 3ad5 d2bf
-0.2942643274429752

blocks1.SCINet_Tree.SCINet_Tree_odd.SCINet_Tree_odd.workingblock.interact.level.phi.1.weight f8 [1, 1, 5]
00000000: 341b 1fed 8603 cebf 91ac d829 dfc1 c1bf
00000010: c3c0 e448 cdbc d33f d4b8 72ff 349e d6bf
00000020: 4902 6f79 eae5 79bf
-0.23448263719748186 -0.13872899573593547 0.30839855307113967 -0.35340619035822596 -0.006322780528478741

blocks1.SCINet_Tree.SCINet_Tree_odd.SCINet_Tree_odd.workingblock.interact.level.phi.1.bias f8 [1]
00000000: 3135 3241 8e45 bfbf
-0.12215508548452615

blocks1.SCINet_Tree.SCINet_Tree_odd.SCINet_Tree_odd.workingblock.interact.level.phi.4.weight f8 [1, 1, 3]
00000000: 1cba 6d78 2ef1 ccbf 56c2 19e4 ae2d e0bf
00000010: 0372 c389 9dea c73f
-0.22611027603439104 -0.5055765585985437 0.18684739329081887

blocks1.SCINet_Tree.SCINet_Tree_odd.SCINet_Tree_odd.workingblock.interact.level.phi.4.bias f8 [1]
00000000: 53a5 1ea1 a1ce dabf
-0.4188617776331586

blocks1.SCINet_Tree.SCINet_Tree_odd.SCINet_Tree_odd.workingblock.interact.level.psi.1.weight f8 [1, 1, 5]
00000000: 09cf 08c4 d2ba c5bf 5748 b88a 45ec c5bf
00000010: 8924 d6d6 24be d13f 3b3a 17af b9cc dbbf
00000020: 7e50 2f3a 1d97 983f
-0.16976389476769096 -0.1712729384749447 0.2772304628384253 -0.43437044237808536 0.024013954807586384

blocks1.SCINet_Tree.SCINet_Tree_odd.SCINet_Tree_odd.workingblock.interact.level.psi.1.bias f8 [1]
00000000: bec9 03ec 955f cfbf
-0.2451045420089723

blocks1.SCINet_Tree.SCINet_Tree_odd.SCINet_Tree_odd.workingblock.interact.level.psi.4.weight f8 [1, 1, 3]
00000000: 3d2f 9d32 2cbc d8bf bb83 32d9 6ce9 953f
00000010: 4dbe 31b1 aa02 e33f
-0.38648514693044317 0.021398258930847663 0.5940755329920165

blocks1.SCINet_Tree.SCINet_Tree_odd.SCINet_Tree_odd.workingblock.interact.level.psi.4.bias f8 [1]
00000000: 2fdf c281 6c17 c7bf
-0.1804023393249223

blocks1.SCINet_Tree.SCINet_Tree_odd.SCINet_Tree_odd.workingblock.interact.level.P.1.weight f8 [1, 1, 5]
00000000: b7d2 65f8 8b01 b7bf 6ff8 ad8c c18d c3bf
00000010: 547c 17c8 7b97 a2bf 97b4 f50c 3041 d5bf
00000020: 6d3c a9cf 2aca d3bf
-0.08986735166929348 -0.15276355141753892 -0.03631197755361684 -0.3321037413177889 -0.30921430854227233

blocks1.SCINet_Tree.SCINet_Tree_odd.SCINet_Tree_odd.workingblock.interact.level.P.1.bias f8 [1]
00000000: 04c0 fef7 58df c0bf
-0.1318160258210811

blocks1.SCINet_Tree.SCINet_Tree_odd.SCINet_Tree_odd.workingblock.interact.level.P.4.weight f8 [1, 1, 3]
00000000: 6bc5 6958 23b9 c1bf 7750 5d79 a43e dc3f
00000010: 60b1 a56c c23c d6bf
-0.1384624654488492 0.4413233933639797 -0.3474584637649709

blocks1.SCINet_Tree.SCINet_Tree_odd.SCINet_Tree_odd.workingblock.interact.level.P.4.bias f8 [1]
00000000: fb05 4539 8e51 d03f
0.2549777564309747

blocks1.SCINet_Tree.SCINet_Tree_odd.SCINet_Tree_odd.workingblock.interact.level.U.1.weight f8 [1, 1, 5]
00000000: d8b6 718d f992 713f 7dbf 5384 5170 d6bf
00000010: b8d5 e363 fd6c c33f 10e6 10dc 96b0 adbf
00000020: b95c 31f3 a9df cabf
0.0042905567307635825 -0.35060537264416053 0.15176360490265295 -0.05798789440491359 -0.2099506795372912

blocks1.SCINet_Tree.SCINet_Tree_odd.SCINet_Tree_odd.workingblock.interact.level.U.1.bias f8 [1]
00000000: a16c c345 985c b5bf
-0.08344413474280767

blocks1.SCINet_Tree.SCINet_Tree_odd.SCINet_Tree_odd.workingblock.interact.level.U.4.weight f8 [1, 1, 3]
00000000: 293d 543d bdc5 c7bf 54c6 7410 95b9 d5bf
00000010: 495d ce41 ade0 a53f
-0.1857220220049183 -0.3394520436005213 0.04272977283761265

blocks1.SCINet_Tree.SCINet_Tree_odd.SCINet_Tree_odd.workingblock.interact.level.U.4.bias f8 [1]
00000000: 4256 2a98 d8cb cdbf
-0.2327833884234441

blocks1.SCINet_Tree.SCINet_Tree_odd.SCINet_Tree_even.workingblock.interact.level.phi.1.weight f8 [1, 1, 5]
00000000: c99e 4207 c58d bb3f 487f 8790 ee3c bd3f
00000010: 881c 6ade c29c b13f fa9b 5c44 0e98 d4bf
00000020: 6cea 5717 e107 cabf
0.10763198306323853 0.11421099690005321 0.06879823617974712 -0.3217807452769531 -0.20336545600715128

blocks1.SCINet_Tree.SCINet_Tree_odd.SCINet_Tree_even.workingblock.interact.level.phi.1.bias f8 [1]
00000000: 8d96 862f 98bb c2bf
-0.14634992905228153

blocks1.SCINet_Tree.SCINet_Tree_odd.SCINet_Tree_even.workingblock.interact.level.phi.4.weight f8 [1, 1, 3]
00000000: bd97 58d9 ce5f 683f 5f25 8c2d b750 c1bf
00000010: 7af9 e3cd 8bd6 c5bf
0.0029753723163307975 -0.13527574275966978 -0.1706099276852447

blocks1.SCINet_Tree.SCINet_Tree_odd.SCINet_Tree_even.workingblock.interact.level.phi.4.bias f8 [1]
00000000: c599 62df 303f 903f
0.01586605418619926

blocks1.SCINet_Tree.SCINet_Tree_odd.SCINet_Tree_even.workingblock.interact.level.psi.1.weight f8 [1, 1, 5]
00000000: a861 39d9 e6b4 d93f 7644 baa9 361d 943f
00000010: a72e 62b8 20d5 c3bf ea9e 851e 6148 bd3f
00000020: 17ee 6624 fa20 bfbf
0.4016663667039446 0.019642690762854596 -0.15494164469815994 0.1143856715694899 -0.12159694088671134

blocks1.SCINet_Tree.SCINet_Tree_odd.SCINet_Tree_even.workingblock.interact.level.psi.1.bias f8 [1]
00000000: 221a 1035 2a9f b23f
0.07274116321068694

blocks1.SCINet_Tree.SCINet_Tree_odd.SCINet_Tree_even.workingblock.interact.level.psi.4.weight f8 [1, 1, 3]
00000000: 849f 593f 8e12 debf 4d03 ec3e f45c dfbf
00000010: 4517 ceb8 798f 933f
-0.4698825472501016 -0.4900484671089103 0.019102003006558083

blocks1.SCINet_Tree.SCINet_Tree_odd.SCINet_Tree_even.workingblock.interact.level.psi.4.bias f8 [1]
00000000: d653 d091 0711 c53f
0.164582201192984

blocks1.SCINet_Tree.SCINet_Tree_odd.SCINet_Tree_even.workingblock.interact.level.P.1.weight f8 [1, 1, 5]
00000000: 2548 e415 34c9 d33f 92ca c9a8 260c babf
00000010: 9c16 9d76 bd46 c9bf 495d 764a 7c8b cabf
00000020: cb4b 2a67 3aeb b33f
0.30915548456062175 -0.10174790974432771 -0.19747131625824899 -0.20738175998551814 0.07780804651910882

blocks1.SCINet_Tree.SCINet_Tree_odd.SCINet_Tree_even.workingblock.interact.level.P.1.bias f8 [1]
00000000: 53e8 3cf3 a831 c3bf
-0.14995300175525247

blocks1.SCINet_Tree.SCINet_Tree_odd.SCINet_Tree_even.workingblock.interact.level.P.4.weight f8 [1, 1, 3]
00000000: 2dde dd30 c70b dd3f 0012 ee70 aca2 d33f
00000010: cd57 8484 d53f e03f
0.4538438775266254 0.3068038084823286 0.5077922428342788

blocks1.SCINet_Tree.SCINet_Tree_odd.SCINet_Tree_even.workingblock.interact.level.P.4.bias f8 [1]
00000000: ee61 1e57 3c28 d9bf
-0.3930807925003411

blocks1.SCINet_Tree.SCINet_Tree_odd.SCINet_Tree_even.workingblock.interact.level.U.1.weight f8 [1, 1, 5]
00000000: daf6 2afa 5fc7 c8bf f807 4c4d d331 c73f
00000010: c508 bc54 5501 e03f 3637 5925 6e7a da3f
00000020: b554 defc 5a94 cebf
-0.1935844394228557 0.18120805048243915 0.5001627593012691 0.41372254988970114 -0.2389024481496215

blocks1.SCINet_Tree.SCINet_Tree_odd.SCINet_Tree_even.workingblock.interact.level.U.1.bias f8 [1]
00000000: 7e91 4f57 a6f4 adbf
-0.05850715461545784

blocks1.SCINet_Tree.SCINet_Tree_odd.SCINet_Tree_even.workingblock.interact.level.U.4.weight f8 [1, 1, 3]
00000000: a6fc ad19 798c db3f 539b 5b0d b7b0 b73f
00000010: df0e bc15 2694 c83f
0.43044879443909634 0.0925402076351081 0.19202114163646564

blocks1.SCINet_Tree.SCINet_Tree_odd.SCINet_Tree_even.workingblock.interact.level.U.4.bias f8 [1]
00000000: 8124 d8aa 071e 6abf
-0.0031881475213180748

blocks1.SCINet_Tree.SCINet_Tree_even.workingblock.interact.level.phi.1.weight f8 [1, 1, 5]
00000000: 3018 555b 9213 d33f 5fa1 8618 bab7 ccbf
00000010: 316b e61b 237f b5bf c91d b0ff b8da cabf
00000020: fc56 63db 1d9c c0bf
0.29806956214122504 -0.22435690114549353 -0.08397120886949662 -0.20979988560450938 -0.1297643014174169

blocks1.SCINet_Tree.SCINet_Tree_even.workingblock.interact.level.phi.1.bias f8 [1]
00000000: e213 17a7 f48c b6bf
-0.0880883129057817

blocks1.SCINet_Tree.SCINet_Tree_even.workingblock.interact.level.phi.4.weight f8 [1, 1, 3]
00000000: db86 ad58 28ae c63f 8f56 de4f 24b5 c63f
00000010: ae3f 0235 e84c c7bf
0.1771898682591687 0.1774030103667212 -0.18203451717681446

blocks1.SCINet_Tree.SCINet_Tree_even.workingblock.interact.level.phi.4.bias f8 [1]
00000000: f972 3be0 fb9d d83f
0.3846425714271358

blocks1.SCINet_Tree.SCINet_Tree_even.workingblock.interact.level.psi.1.weight f8 [1, 1, 5]
00000000: ddb9 de67 82e2 ca3f cf73 73b8 eb4d b43f
00000010: 273d b8c7 6621 cd3f a406 a14a fab8 dabf
00000020: 8dc4 1339 d47c bd3f
0.21003751823214048 0.07931397679517647 0.22758183242738392 -0.41754014289845487 0.11518598931776776

blocks1.SCINet_Tree.SCINet_Tree_even.workingblock.interact.level.psi.1.bias f8 [1]
00000000: 7d5a 1b28 3ded dcbf
-0.4519799129169895

blocks1.SCINet_Tree.SCINet_Tree_even.workingblock.interact.level.psi.4.weight f8 [1, 1, 3]
00000000: ee72 4040 5eaf d43f c0a9 2292 2f29 d4bf
00000010: c79d d05c ad0e c3bf
0.3232036235292942 -0.31501378317866724 -0.1488854125211516

blocks1.SCINet_Tree.SCINet_Tree_even.workingblock.interact.level.psi.4.bias f8 [1]
00000000: 94e7 bd51 e9f1 c43f
0.16363255015658906

blocks1.SCINet_Tree.SCINet_Tree_even.workingblock.interact.level.P.1.weight f8 [1, 1, 5]
00000000: 0a59 5400 8145 b8bf 4923 7f6c ba63 c6bf
00000010: 3137 10dc e420 d0bf 58d8 6316 b358 dd3f
00000020: eca3 5773 ba3f c33f
-0.09481054552120241 -0.17491846368491284 -0.25200768938599355 0.45853879152799015 0.1503823340601963

blocks1.SCINet_Tree.SCINet_Tree_even.workingblock.interact.level.P.1.bias f8 [1]
00000000: 585f 86db 5e27 cdbf
-0.22776399344433673

blocks1.SCINet_Tree.SCINet_Tree_even.workingblock.interact.level.P.4.weight f8 [1, 1, 3]
00000000: e2cb 3296 baea d43f a8c4 deb0 7988 c53f
00000010: 6e1f 7a41 9365 c1bf
0.3268267123013954 0.16822739731063518 -0.13591232964631267

blocks1.SCINet_Tree.SCINet_Tree_even.workingblock.interact.level.P.4.bias f8 [1]
00000000: f5ed cefc 9e72 ddbf
-0.46012091339409206

blocks1.SCINet_Tree.SCINet_Tree_even.workingblock.interact.level.U.1.weight f8 [1, 1, 5]
00000000: d5fc e4b8 57db b53f d8fe fe66 63bf cabf
00000010: 82db a1ae db28 d93f 98fa cfc6 d28c aa3f
00000020: 0042 98c7 506c c3bf
0.08537815345788442 -0.20896570710282591 0.3931187825577852 0.05185564686688798 -0.15174302812421558

blocks1.SCINet_Tree.SCINet_Tree_even.workingblock.interact.level.U.1.bias f8 [1]
00000000: 5534 bda7 d0e7 c1bf
-0.13988693418869738

blocks1.SCINet_Tree.SCINet_Tree_even.workingblock.interact.level.U.4.weight f8 [1, 1, 3]
00000000: 06e1 c00a 973c e3bf 3e78 1ccd 6d75 c03f
00000010: e2ba 85db 0f3b cebf
-0.6011462411907196 0.128583645965536 -0.23617742747179366

blocks1.SCINet_Tree.SCINet_Tree_even.workingblock.interact.level.U.4.bias f8 [1]
00000000: 7699 094a 5678 d0bf
-0.2573447917005959

blocks1.SCINet_Tree.SCINet_Tree_even.SCINet_Tree_odd.workingblock.interact.level.phi.1.weight f8 [1, 1, 5]
00000000: 28fe 620e d9fe d4bf 42fe 343c 33f7 bcbf
00000010: 3dfd ee29 d5cc b1bf abc3 61ff e0ad d2bf
00000020: 4866 af1f 2481 de3f
-0.3280546799178148 -0.1131469747533567 -0.06953174852150297 -0.29186272563588983 0.47663214773419726

blocks1.SCINet_Tree.SCINet_Tree_even.SCINet_Tree_odd.workingblock.interact.level.phi.1.bias f8 [1]
00000000: 9cbe 534e 7f42 ac3f
0.05519483405248346

blocks1.SCINet_Tree.SCINet_Tree_even.SCINet_Tree_odd.workingblock.interact.level.phi.4.weight f8 [1, 1, 3]
00000000: 2c15 e8c7 465d b7bf 38f7 3115 1773 debf
00000010: 1f51 bc48 f211 c23f
-0.09126703625232285 -0.47577454633561755 0.14117268134635538

blocks1.SCINet_Tree.SCINet_Tree_even.SCINet_Tree_odd.workingblock.interact.level.phi.4.bias f8 [1]
00000000: e529 3e33 a24f c4bf
-0.1586802244385829

blocks1.SCINet_Tree.SCINet_Tree_even.SCINet_Tree_odd.workingblock.interact.level.psi.1.weight f8 [1, 1, 5]
00000000: 0f97 d9f0 2084 dabf 11cb 6a6f 9443 d8bf
00000010: 634b bd0d b3b4 c1bf 986c a4b1 e651 c23f
00000020: 07b8 c6d1 a6de ac3f
-0.41431449432853723 -0.3791247451837743 -0.13832700892325098 0.1431244246858554 0.05638619719262299

blocks1.SCINet_Tree.SCINet_Tree_even.SCINet_Tree_odd.workingblock.interact.level.psi.1.bias f8 [1]
00000000: b929 e209 0b1f d4bf
-0.3143947216527994

blocks1.SCINet_Tree.SCINet_Tree_even.SCINet_Tree_odd.workingblock.interact.level.psi.4.weight f8 [1, 1, 3]
00000000: fa34 bc44 bda1 9a3f 3c01 0203 5583 d2bf
00000010: 2656 0fc3 fdf7 d83f
0.026007611580145508 -0.28926587384923486 0.39013618515795867

blocks1.SCINet_Tree.SCINet_Tree_even.SCINet_Tree_odd.workingblock.interact.level.psi.4.bias f8 [1]
00000000: 84a5 8b76 82dd d2bf
-0.2947698743506282

blocks1.SCINet_Tree.SCINet_Tree_even.SCINet_Tree_odd.workingblock.interact.level.P.1.weight f8 [1, 1, 5]
00000000: 212a d082 8602 d53f 92d1 c3c8 8161 cbbf
00000010: 07bf 2426 6086 b53f 2c3b c477 b3fa c93f
00000020: 337b 3fe4 5053 d3bf
0.3282791402313326 -0.21391317656492653 0.08408165866125837 0.20296328876471514 -0.30196020402756857

blocks1.SCINet_Tree.SCINet_Tree_even.SCINet_Tree_odd.workingblock.interact.level.P.1.bias f8 [1]
00000000: 350a c0e3 37ff b7bf
-0.0937380724936155

blocks1.SCINet_Tree.SCINet_Tree_even.SCINet_Tree_odd.workingblock.interact.level.P.4.weight f8 [1, 1, 3]
00000000: 8fcf a0ee 7dbc e63f 0e96 aca6 98ad c5bf
00000010: 69df 80ae 34f2 c33f
0.7105092678743733 -0.1693602384413428 0.1558290340487887

blocks1.SCINet_Tree.SCINet_Tree_even.SCINet_Tree_odd.workingblock.interact.level.P.4.bias f8 [1]
00000000: 0d41 3ecc fb97 e03f
0.5185526837467777

blocks1.SCINet_Tree.SCINet_Tree_even.SCINet_Tree_odd.workingblock.interact.level.U.1.weight f8 [1, 1, 5]
00000000: 010b 0c30 6acd a1bf d7a6 15bd 6b8c a2bf
00000010: bd60 930c a90a 9dbf f852 1d3b f3ce 983f
00000020: 8300 e5eb f473 c13f
-0.03477031551849131 -0.03622757609521237 -0.028360978500899792 0.024226952059808377 0.13635121839798012

blocks1.SCINet_Tree.SCINet_Tree_even.SCINet_Tree_odd.workingblock.interact.level.U.1.bias f8 [1]
00000000: 2ea0 3493 9e0e 6bbf
-0.003302869526709904

blocks1.SCINet_Tree.SCINet_Tree_even.SCINet_Tree_odd.workingblock.interact.level.U.4.weight f8 [1, 1, 3]
00000000: 448e 8aae 23ff bb3f 64a9 db4c 3947 d43f
00000010: 050f 9b21 3ef8 ca3f
0.10936186801205233 0.316847157532399 0.2107007659998247

blocks1.SCINet_Tree.SCINet_Tree_even.SCINet_Tree_odd.workingblock.interact.level.U.4.bias f8 [1]
00000000: cbc2 1363 e703 d7bf
-0.3596132724333471

blocks1.SCINet_Tree.SCINet_Tree_even.SCINet_Tree_even.workingblock.interact.level.phi.1.weight f8 [1, 1, 5]
00000000: fd8a 1884 90c4 dbbf 4e88 c8dc ff4b 9a3f
00000010: 25b5 bcc6 97b4 c93f e6c9 d61c e44b c43f
00000020: 00ae 162a 7129 a93f
-0.4338723459242571 0.025680539942307505 0.20082375720941417 0.15856601150660693 0.049144302737968104

blocks1.SCINet_Tree.SCINet_Tree_even.SCINet_Tree_even.workingblock.interact.level.phi.1.bias f8 [1]
00000000: 3d74 847e 7406 52bf
-0.0011001718176608798

blocks1.SCINet_Tree.SCINet_Tree_even.SCINet_Tree_even.workingblock.interact.level.phi.4.weight f8 [1, 1, 3]
00000000: dfa2 1160 60cd e4bf aab0 e313 ee8d ccbf
00000010: 7daf 37eb a67f 6dbf
-0.6500703693719422 -0.2230813595882684 -0.0036009082921192857

blocks1.SCINet_Tree.SCINet_Tree_even.SCINet_Tree_even.workingblock.interact.level.phi.4.bias f8 [1]
00000000: 9495 3e73 a30c c83f
0.18788569571658498

blocks1.SCINet_Tree.SCINet_Tree_even.SCINet_Tree_even.workingblock.interact.level.psi.1.weight f8 [1, 1, 5]
00000000: 4ea5 5232 a072 c2bf 68ed 7ef0 d695 c03f
00000010: 0385 f3a7 a6da c8bf a2c0 e339 6321 a3bf
00000020: da5d ffaa 38ef d0bf
-0.14412310082597418 0.12957274191817736 -0.19417269898170994 -0.03736410218869081 -0.2646009130380357

blocks1.SCINet_Tree.SCINet_Tree_even.SCINet_Tree_even.workingblock.interact.level.psi.1.bias f8 [1]
00000000: f726 04b0 bad4 ddbf
-0.46610896290859166

blocks1.SCINet_Tree.SCINet_Tree_even.SCINet_Tree_even.workingblock.interact.level.psi.4.weight f8 [1, 1, 3]
00000000: de0a 8f57 240c d63f a16f 68d4 c926 d1bf
00000010: 5e66 53ac 9b26 dc3f
0.34449108648929705 -0.26799245589222137 0.43985645130815054

blocks1.SCINet_Tree.SCINet_Tree_even.SCINet_Tree_even.workingblock.interact.level.psi.4.bias f8 [1]
00000000: 5f52 2575 91ad e0bf
-0.5211875236514735

blocks1.SCINet_Tree.SCINet_Tree_even.SCINet_Tree_even.workingblock.interact.level.P.1.weight f8 [1, 1, 5]
00000000: 9ac9 d392 b2ea a0bf 0dd2 375d fffa d13f
00000010: eabe e744 d492 d0bf ece3 781d be3e ba3f
00000020: 4264 33a5 587b d13f
-0.033040600226644304 0.2809446726162442 -0.25896174172429076 0.1025198766664201 0.2731534589088974

blocks1.SCINet_Tree.SCINet_Tree_even.SCINet_Tree_even.workingblock.interact.level.P.1.bias f8 [1]
00000000: 5e62 54e0 c94f c03f
0.12743495420069711

blocks1.SCINet_Tree.SCINet_Tree_even.SCINet_Tree_even.workingblock.interact.level.P.4.weight f8 [1, 1, 3]
00000000: ed33 02c6 c6a7 83bf a500 6b56 49bc 45bf
00000010: 8ab4 58be 10b5 83bf
-0.009597351949446742 -0.0006633146375279077 -0.009622698601641017

blocks1.SCINet_Tree.SCINet_Tree_even.SCINet_Tree_even.workingblock.interact.level.P.4.bias f8 [1]
00000000: 0fdd af4f fda6 c43f
0.1613461150261419

blocks1.SCINet_Tree.SCINet_Tree_even.SCINet_Tree_even.workingblock.interact.level.U.1.weight f8 [1, 1, 5]
00000000: 000d 64f2 2168 a9bf ab73 b47d 8ef2 c83f
00000010: 11e2 7b1c 1095 d0bf d98f d608 bd65 a0bf
00000020: f22d a7bd baef d0bf
-0.049622593725894504 0.1949022401612671 -0.2590980795062317 -0.03202620251548156 -0.2646319248276249

blocks1.SCINet_Tree.SCINet_Tree_even.SCINet_Tree_even.workingblock.interact.level.U.1.bias f8 [1]
00000000: 2739 27ab 69ea d1bf
-0.2799324199121593

blocks1.SCINet_Tree.SCINet_Tree_even.SCINet_Tree_even.workingblock.interact.level.U.4.weight f8 [1, 1, 3]
00000000: 05da 5dad 7e80 d6bf bf47 985e 1bdb d03f
00000010: 86c2 ac03 a603 a43f
-0.3515927022012025 0.2633732246187001 0.03909033579691816

blocks1.SCINet_Tree.SCINet_Tree_even.SCINet_Tree_even.workingblock.interact.level.U.4.bias f8 [1]
00000000: 5482 fce8 ee7b d93f
0.3981892848260362

projection1.weight f8 [24, 48, 1]
00000000: 1c06 5f60 463f 7cbf 8f65 7395 2842 a7bf
00000010: 32a8 e21e 34a1 b13f be07 0cc6 d386 93bf
00000020: a800 6d5c 6a49 593f d735 2935 5c86 913f
00000030: ada2 eb9b 1540 9ebf dd1e b0ac ba99 663f
00000040: 8518 bf26 fdb2 733f e975 bac5 f930 843f
00000050: e830 7a7a 2e15 7b3f 8584 dd26 7cbf 82bf
00000060: f05e 7855 2dc2 503f 56c5 2086 a1ea 62bf
00000070: 4522 7347 0562 7b3f 45b1 500e f775 403f
00000080: 584f ba4d 79ae 92bf a20a feb8 19ba 8b3f
00000090: 59e9 fdcc cba0 78bf e94c 25f5 b35c 21bf
000000a0: 4d92 fcc9 9d53 903f 4c30 20d2 767e 7b3f
000000b0: 0ffe 85aa 4a06 abbf bb92 1fc3 510c 813f
000000c0: 97b0 40b1 5b6e 9e3f e704 da54 cc8d 8abf
000000d0: deb5 e484 041f 773f bb1e 84cc 2182 82bf
000000e0: 3a8f e00f deac 933f 517e 66ae a6ec 7ebf
000000f0: 5a1c f5f5 f955 60bf 46bd 2296 fb9d 84bf
00000100: 0f64 9232 22c7 923f 5164 5f8d 408d 8abf
00000110: 9651 8f9f 8163 393f 37d4 f361 09f9 8a3f
00000120: c5e4 4885 9e49 a0bf 80d9 571d 6a6f a3bf
00000130: 8383 5538 5a57 b83f 6576 7e15 efb0 a4bf
00000140: a67d d2e1 1fb7 a53f 61a8 bed1 d074 9fbf
00000150: d7d5 2144 703c 903f 6d9a ea35 f8c2 9d3f
00000160: 2407 b68a bf85 b43f 88ae 7371 dfd9 a33f
00000170: d179 1528 0ee8 cf3f 7d11 419c dd00 c53f
00000180: b948 c5ca c330 743f 7a33 da86 3e88 54bf
00000190: dc8e 24c7 7112 67bf dddb aa5a 61ba 3fbf
000001a0: 247b fc74 43dd 82bf ff7f 95e2 ca2f 8a3f
000001b0: a3ff d4f7 2439 823f 7990 7dfb a5db 86bf
000001c0: 9f76 8042 25c8 913f de54 0470 25cd 90bf
000001d0: 59b4 0de5 7daf 6bbf a8d6 c956 6103 683f
000001e0: 9a74 4ec0 a66a 7bbf b57b fbc2 983c 5b3f
000001f0: b93b ef42 2d0c 693f 1fea 295c 849a 95bf
00000200: b9b0 eef2 59db a03f e842 c05e 27a0 833f
00000210: 6602 2ffe 3613 913f 6bcb 4396 3f96 97bf
00000220: 3569 da46 8946 8c3f 5178 030d cb44 85bf
00000230: 72b6 3557 c3c6 60bf 4d0b dd0c 1105 70bf
00000240: be15 15d8 b30b 9cbf dadc e24c a134 a73f
00000250: 6591 e4ef b4e8 91bf e3ea f980 e609 573f
00000260: ea03 3199 8b99 a8bf e14c 725a c2d8 76bf
00000270: dc70 4a72 8378 b73f 3f5c f705 4104 80bf
00000280: cf64 6096 ad3f a5bf 2f99 bdf7 fcc7 8ebf
00000290: 1451 9e65 ca72 72bf f429 656a 30ff 7c3f
000002a0: c26c 14db ad28 893f 5d34 f13c dfda 82bf
000002b0: 7448 6168 350f 7b3f 278e 0bf9 64bc 8cbf
000002c0: 16db 206d 44ec 753f 86c6 6c4f 9909 9bbf
000002d0: e9ca bf27 9230 b13f c67c 65d3 2f83 76bf
000002e0: dc01 002e bb5a ab3f 5496 75f2 efc2 a33f
000002f0: fbc3 6963 35ec d63f 23f8 c105 85c5 b53f
00000300: 61fa a90a b218 853f f578 87e8 a2bf 87bf
00000310: ab18 a7e7 e907 6b3f 4d83 8b4a fec1 703f
00000320: 8f09 7025 7e7b 87bf d8c4 654f 700f 9d3f
00000330: 8524 1bae 982a 97bf 1915 bea1 e93b 5b3f
00000340: d7cd 877f e57f 803f 3113 484b 5fd2 91bf
00000350: ea0b b7a5 e7ad 8f3f ce07 6b1f d42a 7abf
00000360: 941f 0a9b 1ae2 6b3f 597f f57f 54a2 753f
00000370: b2a9 897e 1419 78bf a3e2 a563 767b 83bf
00000380: 8331 fa54 771f 873f d08d 90db 8c74 7dbf
00000390: 0c66 d649 0f8c 8e3f ee60 3a72 e5ad 9bbf
000003a0: ce93 bd10 3a9f a83f 0c7d 0381 8cbe 923f
000003b0: d18a e14b d78d a3bf 1017 74f1 9a34 85bf
000003c0: 0e70 445a c933 963f 8fa5 afcd c060 88bf
000003d0: ee8e da3a cbcf 95bf e936 be6b 2204 7b3f
000003e0: 8a4c abe4 21de ae3f 1c2f bc68 7e32 91bf
000003f0: 0126 f8bf 7237 81bf c862 600d 56fb 7cbf
00000400: bcc1 2fb0 3eec 823f eba0 1f4d c9dc 7fbf
00000410: 3022 9f99 e766 7dbf 07f8 8b91 1cc4 2abf
00000420: bd4c 1543 17dd 8abf 91e6 5f75 d545 993f
00000430: 4112 422d db11 753f 3a36 b322 b35c a3bf
00000440: 1b25 a7b5 bb05 b23f 4aad f158 fb37 923f
00000450: 337b cb55 6503 a9bf e81c e78c da3f 983f
00000460: aa6f 3bd5 f178 b13f 6588 bc73 ab11 9b3f
00000470: 50ff d119 ae0c d53f c08b f647 3b92 b93f
00000480: 8f2e 04a3 1163 8d3f 9d3e e476 a78d 883f
00000490: e83f 7ce2 5b7f 97bf 5c15 4590 d538 643f
000004a0: 9e46 9776 4ed0 763f 60ed 2069 5b2d 4a3f
000004b0: 00c1 5299 a02f 76bf 3b41 3bae 8bbb 54bf
000004c0: 1a0d e70b 6241 92bf 7ee1 779a f7ef 943f
000004d0: b490 c4dc 044d 803f 551b 5e70 d908 66bf
000004e0: 6f37 20df ed49 77bf 38c2 c248 5149 63bf
000004f0: 03d3 4069 5bd6 803f 5f4d 242d 6bc5 68bf
00000500: 2fb1 8799 e6b3 923f ae7e 201c 3a53 99bf
00000510: 71eb 0553 0b80 953f fb5e c0c4 670d 8cbf
00000520: 8c4e 0e0b bc6c 613f 48d3 2b28 7ad8 9d3f
00000530: 8a02 d66b 8d54 a4bf 50c0 2ef8 fa82 9b3f
00000540: 70cf 3077 1443 95bf df65 0715 aeb5 a9bf
00000550: be4f c88f 2b8b ad3f fa61 dd5f b73c 99bf
00000560: c7f2 91d0 509b a83f d0c4 1c51 3f5f a33f
00000570: fce5 6a1f e1e4 a6bf 0864 d027 708e 82bf
00000580: 0c7d 5929 e62a 71bf 7852 5865 80ce 96bf
00000590: 6770 fce3 5fac 9e3f e4c8 83ef 1044 92bf
000005a0: 57b2 943b a0a9 713f e3cc f838 54c4 803f
000005b0: 2b0a 002a d498 733f 37f4 0293 8dc3 a7bf
000005c0: 34d2 5702 8f7a b03f c434 7d31 08ab a1bf
000005d0: 7510 5ce8 50d2 b93f a9b8 26e6 0980 a4bf
000005e0: f219 0877 823f ba3f 23cf af99 5948 613f
000005f0: d7bd 8271 45f2 c93f 603c 56f9 11b2 c93f
00000600: fb1d 89ed c7dc 983f 0ab9 a604 07c5 883f
00000610: 7160 9930 c40d a4bf a79f 81d5 2896 703f
00000620: 7d58 1bfb 2490 7d3f 1740 6259 1fc7 823f
00000630: 866c ecd9 0afa 8cbf 6ce6 d5f2 e515 88bf
00000640: cd59 f723 5af2 a73f d72c 47ac 74d1 93bf
00000650: e648 670a b4d1 843f 9342 683b d906 67bf
00000660: 5080 4b71 1c56 92bf 91c6 ee71 f4b1 3b3f
00000670: f090 4939 afd2 953f 8230 18a3 b803 7abf
00000680: c1b8 8099 4b12 933f 9b82 5302 0273 8cbf
00000690: f179 8294 06b1 97bf 7cdb 5865 d301 74bf
000006a0: ea67 b600 ac12 903f b88d 0fa6 47eb 973f
000006b0: 8487 8771 af55 77bf 93e4 97c6 3889 82bf
000006c0: 822b 5fef d147 843f 74f1 595f d2f1 92bf
000006d0: 4f46 98fc 8dec a93f bf89 3f32 ff59 93bf
000006e0: 1382 4a3d c9e3 323f 0006 9fcd d26d 8e3f
000006f0: 52e3 edc0 ff1f a0bf fa47 86a3 f4e7 743f
00000700: 1a30 0501 5420 93bf 8907 30df 2a94 9e3f
00000710: da38 f5c6 5003 93bf c6d7 5ef3 e60c b0bf
00000720: 0969 0728 cbc0 ac3f 3dd9 7297 bf2d a2bf
00000730: 0f29 20c4 3f55 b73f f097 66c5 f438 68bf
00000740: 3208 d9cf 748f a13f a8f9 d063 a62c acbf
00000750: ce8b e568 eaf2 973f fade 78ce 9ff5 a1bf
00000760: e185 928f c384 b43f dc61 69fb 3c28 ab3f
00000770: c535 34f3 b7f3 cc3f 351b 495f fde5 c63f
00000780: 8725 41ff cc1a 63bf 678a f39f d303 9b3f
00000790: f7f9 dca5 87f5 8cbf 394f 8e54 e3f0 87bf
000007a0: fe37 4c47 3ce4 8c3f b77e 043c 272d 6abf
000007b0: 5955 f5a2 1e96 653f 9d1a 5b59 7110 303f
000007c0: e448 362c b85c 703f 7f63 91ef 3dcc 65bf
000007d0: d5ba 784d 5764 3e3f 9079 0cb9 d2bd 77bf
000007e0: ae0d 6f86 38b4 6a3f ad43 eae0 1a20 6d3f
000007f0: 7b66 7ddf 45cb 8c3f 89d4 9cec 8c60 78bf
-0.006896281154639829 -0.04542662453031731 0.06886602167165348 -0.019069012606457873 0.0015433825189603931 0.017114105934799752 -0.02954133762514981 0.002758850668673192
0.0048093689656011395 0.009859038683596348 0.006611997181277675 -0.009154291091990405 0.001022857924800332 -0.002309146381798281 0.0066852766241898886 0.0005023437812546125
-0.01824368988907507 0.01353855224420403 -0.006012722107579493 -0.00013246247051288483 0.01594397111252226 0.006712402480854317 -0.052782376590581596 0.008324278609458493
0.02971785802235213 -0.012965771045176001 0.00564481511382328 -0.009037269643627046 0.019214124411646362 -0.007549906824720746 -0.001994121746665506 -0.010066953200605366
0.018337759339008438 -0.012964729608869659 0.0003874007666671229 0.013170312215587383 -0.031811670084104494 -0.037959400255135556 0.0950828921827576 -0.040412398694780895
0.04241275436038032 -0.0307190540330925 0.015855554731805412 0.02906406239585595 0.08016583572864683 0.03877161273871105 0.24926926572056954 0.16408891801451012
0.004929318249496877 -0.0012531862843474227 -0.0028164121842041267 -0.0004841315918996928 -0.009211089141499658 0.01278646949748463 0.00889805680583306 -0.011161133515720888
0.01736505716700398 -0.01640757080266019 -0.0033795794374129992 0.002931299319523035 -0.0066935075491560084 0.0016623966038691155 0.0030575641644427745 -0.021097248196818904
0.03292351809008793 0.009582812861510928 0.016674861206185908 -0.023034089609562807 0.013806412195937237 -0.010385118803636713 -0.0020479026076632373 -0.003911081888704993
-0.02738839155542449 0.04532341064025909 -0.017489268438241185 0.0014061690343669046 -0.04804645771992695 -0.0055778114248312425 0.09168263950636252 -0.007820613855910817
-0.04150145016337491 -0.015029884634441075 -0.004504004109453303 0.007079304812871435 0.012284620521816673 -0.009206527755077848 0.0066063009490609954 -0.01403120884919591
0.0053522751714385666 -0.026403804276191177 0.06714738340796668 -0.00549620325031625 0.053426598897207106 0.03859662852009352 0.3581670256454001 0.08504516020363488
0.010301009130896323 -0.011595986100413994 0.0032996719794225657 0.004091256451574332 -0.011466012494570047 0.02837920651058287 -0.02262342989596224 0.001662233501492699
0.008056443170949485 -0.017404068918057184 0.01546841597053646 -0.006388500790025687 0.0034037131920889394 0.005281763150691032 -0.005883293205082673 -0.009512829700484565
0.011290485649873677 -0.007191229081431286 0.014915580216256628 -0.027030549141813624 0.04808980421402219 0.01830501115261733 -0.03819153596193348 -0.010354242795539231
0.021681924948197255 -0.011903291966478572 -0.021300483195445467 0.006595739800003144 0.06028848568316743 -0.016794181005976502 -0.008406540378035567 -0.0070756303230374365
0.009239663841044236 -0.007778917630254715 -0.007178215682821107 -0.00020420883881649995 -0.013117009863583435 0.024680457390764025 0.0051439820855461735 -0.03781661795219944
0.07039998230824944 0.01779167871829416 -0.04885403320598982 0.023681082582496155 0.06825171905387487 0.02643459218882817 0.3288989307547938 0.09988756663237464
0.014349115168918373 0.011988933864386648 -0.022946773241585477 0.002468506923977527 0.005569750306180813 0.0007988640156847797 -0.0054165147204658926 -0.0012654174869802376
-0.017827541328881848 0.02044665222453678 0.007959402072238532 -0.002689766583844936 -0.005685738740806786 -0.0023542964537102383 0.008221353673528059 -0.0030238240516468474
0.018264392014246397 -0.024731548277599096 0.02099626249535497 -0.013697443668248868 0.002127043983316151 0.02914610738931181 -0.039707583821841544 0.026866837880959615
-0.02076370217783058 -0.05021423346233766 0.05770240907818856 -0.024645676828500364 0.04805996461889133 0.03783605446950278 -0.04471496113314896 -0.009060741629626903
-0.004191302364773063 -0.022272115884407445 0.029954431810537942 -0.017837776774236938 0.004312158497935834 0.008186967838901221 0.004784420743819721 -0.04641382617544603
0.064370096275362 -0.03450799564471077 0.10086541817514834 -0.04003935751403393 0.10253158002897303 0.0021096944815272175 0.20270603220477199 0.20074677157069498
0.024279712555907534 0.012094549970097752 -0.039167529041777345 0.004049453265999071 0.007217544991098388 0.009168858447338874 -0.014148793006418591 -0.011760517571690353
0.04677087487259577 -0.019353697791115145 0.010165602271545681 -0.00281088283669135 -0.01790661279198985 0.0004225942411109985 0.021311509963553854 -0.006351205099701331
0.018624478572910833 -0.0138912350616363 -0.023136236967383487 -0.004884553685363776 0.015696227591980895 0.023358459005874826 -0.005696950269767135 -0.00905079227503539
0.009902610890909495 -0.01850060183504483 0.050632893642739256 -0.018897998277574986 0.00028823531219227086 0.014857909107266032 -0.03149413328259833 0.005104022617517851
-0.018678009569427535 0.029862089035311654 -0.01856733526556629 -0.06269687120115383 0.05615839828142739 -0.035505282628422986 0.0911445478269892 -0.00295684630255532
0.034297609684032074 -0.055028152165039146 0.02338758721579009 -0.03507708926593796 0.0801508164900251 0.053041368188761345 0.2261877000350251 0.17889372971168319
-0.0023321155404444935 0.02638178504720159 -0.014140186070673784 -0.011689926164570973 0.014107199598154093 -0.0031953588769651725 0.0026350592012628735 0.0002451206904478339
0.003994674133894292 -0.0026608667072136045 0.00046374446307854744 -0.005796263824576889 0.0032597640997395682 0.003555347916809079 0.014059587366932682 -0.005951452718183544
