exp/data_checkpoints/Model_hs2_bs64_e50_test/checkpoint.pth (torch, 74169 bytes, 114 tensors)

inv_timescales f8 [1]
00000000: 0000 0000 0000 f03f
1.0

blocks1.SCINet_Tree.workingblock.interact.level.phi.1.weight f8 [2, 1, 5]
00000000: 6e38 0962 c31e d73f a03b 7abd 5e52 c2bf
00000010: 3122 63c5 820d b9bf a8d5 624e 712a d0bf
00000020: f204 3ad2 cbca ccbf 34be 493b 177a dd3f
00000030: db98 2802 fc94 d63f ad05 15b8 255e 943f
00000040: 80af f9f8 50b5 ccbf 7004 5f2b 2cbb c4bf
0.36125263761358084 -0.14313873531179144 -0.09786240881943155 -0.25259049086465746 -0.22493884816143567 0.46057682790612664 0.3528432866172701 0.01989039360092242
-0.22428333432196368 -0.1619620525143861

blocks1.SCINet_Tree.workingblock.interact.level.phi.1.bias f8 [2]
00000000: 18bc 6d6d c84f d4bf b078 05f6 fc8e d6bf
-0.3173695629729436 -0.3524773027946919

blocks1.SCINet_Tree.workingblock.interact.level.phi.4.weight f8 [1, 2, 3]
00000000: 1ccf 5801 ebd9 b73f 3320 27b8 a99f a33f
00000010: 197a 7262 8813 df3f 8e01 72c6 4d5c bebf
00000020: d3c0 b43b fadc b3bf 6fe8 7022 5ab5 bbbf
0.0931689146316867 0.03832750676116383 0.4855671845815848 -0.11859594435555307 -0.07759059865634592 -0.10823596325727335

blocks1.SCINet_Tree.workingblock.interact.level.phi.4.bias f8 [1]
00000000: f181 084a b436 d7bf
-0.3627138827305592

blocks1.SCINet_Tree.workingblock.interact.level.psi.1.weight f8 [2, 1, 5]
00000000: 9318 ea3e 9a67 b43f 6599 c9bc b06f da3f
00000010: a441 a720 06bd c9bf a03c 6660 7254 cabf
00000020: 233b 9d25 5c17 c23f e0a4 59b5 e71b b8bf
00000030: d38a 21c3 28b7 c63f 7c40 2b8d cdc0 c0bf
00000040: 32a4 cf8d af4f 9bbf d902 fe57 f0e4 cc3f
0.07970584903714188 0.4130670398357295 -0.20108105272676113 -0.20570211131096006 0.14133788906698283 -0.0941757982015079 0.1774645760334211 -0.13088387864127415
-0.026671164541685673 0.22573665901656773

blocks1.SCINet_Tree.workingblock.interact.level.psi.1.bias f8 [2]
00000000: 14d1 4120 26b1 dc3f 7857 ecb3 074f dabf
0.44831231260401805 -0.41107361384035057

blocks1.SCINet_Tree.workingblock.interact.level.psi.4.weight f8 [1, 2, 3]
00000000: d3d9 16e1 cfee bdbf c423 bd4b afc5 983f
00000010: 35ee bead 1738 d3bf 4ebd ce66 2e6a bcbf
00000020: a7ce c862 2452 973f 730a 0b52 1c2d c33f
-0.11692523236602108 0.024191607473117008 -0.30029861419072584 -0.11099519739103877 0.022774284867593277 0.1498141670800411

blocks1.SCINet_Tree.workingblock.interact.level.psi.4.bias f8 [1]
00000000: 3998 a79c a4f4 e7bf
-0.7486136493359999

blocks1.SCINet_Tree.workingblock.interact.level.P.1.weight f8 [2, 1, 5]
00000000: a587 7013 f31d c3bf 9484 bda2 0d44 c03f
00000010: a441 5229 1c2b cd3f a7c2 f74f 83a6 d0bf
00000020: f269 6055 1bc7 cf3f a1dc b0ee effc b23f
00000030: 2536 d20c 1d16 d1bf 7911 3c60 2e37 d93f
00000040: bdf4 d2dd 7de7 a6bf 2645 a8a4 6378 c6bf
-0.14935148667524092 0.12707682081512373 0.22787811296121874 -0.26016314324719264 0.24826375645427806 0.0741720159283994 -0.26697469951690983 0.39399299047388286
-0.04473489125073502 -0.1755489877691982

blocks1.SCINet_Tree.workingblock.interact.level.P.1.bias f8 [2]
00000000: bbf2 89a4 ce4c c9bf a320 b44a cff2 bbbf
-0.19765646967052483 -0.10917373250788613

blocks1.SCINet_Tree.workingblock.interact.level.P.4.weight f8 [1, 2, 3]
00000000: a6ae 12d2 1de0 d13f 18ce 65f4 4d9b b53f
00000010: c057 14c2 5bcc d53f ba8c f3d2 56d5 c33f
00000020: d707 d418 a710 d33f a185 9a13 5b20 b8bf
0.27930398478450014 0.08440100876560341 0.3405980487162843 0.15494809437141105 0.29789140152581467 -0.09424370983699372

blocks1.SCINet_Tree.workingblock.interact.level.P.4.bias f8 [1]
00000000: a598 b876 12d5 c0bf
-0.13150244519164747

blocks1.SCINet_Tree.workingblock.interact.level.U.1.weight f8 [2, 1, 5]
00000000: 4079 9efc b988 a4bf 3c27 6447 8f89 a3bf
00000010: 6393 17f1 41d9 dabf 1c57 64d5 b7ec c03f
00000020: 9bfa 92d3 1f9e d43f 2102 f252 4bf9 d43f
00000030: 2315 798e 4f3d c83f 946c 4e70 979f c43f
00000040: b8cb 7f5e 0a90 cbbf f2bd 9472 15f2 b63f
-0.04010564049461829 -0.03815887209391497 -0.4195103506484001 0.13222406310585988 0.3221511427072216 0.32771571254855486 0.1893710561436502 0.16112034782131401
-0.21533326734751568 0.0896314053286387

blocks1.SCINet_Tree.workingblock.interact.level.U.1.bias f8 [2]
00000000: 4ed8 b07b 479c d9bf 679b 9466 1317 d4bf
-0.40016352729015103 -0.3139084340822848

blocks1.SCINet_Tree.workingblock.interact.level.U.4.weight f8 [1, 2, 3]
00000000: 5afb 952c 06ca d1bf 01a1 1e21 e203 d6bf
00000010: 65c6 46d5 d4fa c5bf ddea bce5 ca6c bf3f
00000020: bfd0 bcd8 6883 bf3f 3ea2 015e 96dc d5bf
-0.27795557359779866 -0.3439870189126993 -0.1717172662152279 0.12275379284703143 0.12309890071338979 -0.3415885847121308

blocks1.SCINet_Tree.workingblock.interact.level.U.4.bias f8 [1]
00000000: 8f01 346a 980e c43f
0.1566954153604567

blocks1.SCINet_Tree.SCINet_Tree_odd.workingblock.interact.level.phi.1.weight f8 [2, 1, 5]
00000000: 4713 3a8a 258b a6bf fc2f 1942 4b46 d5bf
00000010: 59e6 4f7b 3df3 d6bf ab6f 3e63 5573 af3f
00000020: 6b62 239e 5c6f db3f 2138 c452 fa2e 9b3f
00000030: 5d6e cfb0 a173 d83f 196e 19d2 b124 be3f
00000040: ed5f 528d 286b a23f 6d38 c431 a6f5 b03f
-0.0440303546174961 -0.3324154038898539 -0.35859620134542564 0.06142680012200626 0.428671984130722 0.0265463936821605 0.38205759302738845 0.11774741534593892
0.03597380375975932 0.06624830927850818

blocks1.SCINet_Tree.SCINet_Tree_odd.workingblock.interact.level.phi.1.bias f8 [2]
00000000: 6e3b 5822 adfa c4bf d7b4 1cfd 7b41 e4bf
-0.1639000337313194 -0.6329936927410483

blocks1.SCINet_Tree.SCINet_Tree_odd.workingblock.interact.level.phi.4.weight f8 [1, 2, 3]
00000000: 7db3 cbc5 8c8e cabf 1c8a 21f5 83d9 c4bf
00000010: 9f42 0c8f a5a5 dc3f 951e dedc 568f d7bf
00000020: a647 def1 3e5f d2bf faca 6224 382f c6bf
-0.2074752775000909 -0.16288804501807952 0.4476102730705324 -0.36812373704058504 -0.28706334705304426 -0.17331601883559938

blocks1.SCINet_Tree.SCINet_Tree_odd.workingblock.interact.level.phi.4.bias f8 [1]
00000000: 1e7a 3b60 d4ba dc3f
0.44890317342461283

blocks1.SCINet_Tree.SCINet_Tree_odd.workingblock.interact.level.psi.1.weight f8 [2, 1, 5]
00000000: faef c142 2346 db3f 8e6c 3206 01ba bcbf
00000010: 11fd ddfb 0e31 cd3f 4e44 9fb2 9290 dc3f
00000020: dd46 85c5 94ae b3bf 9820 89d9 f6f8 bb3f
00000030: 8f39 f152 8091 cfbf 6982 7507 ad14 a7bf
00000040: ce64 6cc8 3469 a9bf 1554 5945 1252 b6bf
0.42615586776059866 -0.11221319581311404 0.22805964754295663 0.4463240379673764 -0.07688264677315311 0.10926764307908099 -0.24662784624019848 -0.04507961956074242
-0.049630784478901555 -0.08718980973328912

blocks1.SCINet_Tree.SCINet_Tree_odd.workingblock.interact.level.psi.1.bias f8 [2]
00000000: 9bc2 c86d 7cde e5bf e248 3f2f 91ee ddbf
-0.683408941671661 -0.4676859818838591

blocks1.SCINet_Tree.SCINet_Tree_odd.workingblock.interact.level.psi.4.weight f8 [1, 2, 3]
00000000: 6a79 dbb6 a604 cabf 8d78 5e90 e504 c9bf
00000010: c217 a0a1 0ab1 c7bf b078 de81 8182 c1bf
00000020: ed05 0cd6 bcf6 ba3f 52ee 6d08 4ac6 d43f
-0.2032669442041411 -0.19546193646687407 -0.18509037868369488 -0.1367952236295813 0.1053274176192855 0.32460261176286054

blocks1.SCINet_Tree.SCINet_Tree_odd.workingblock.interact.level.psi.4.bias f8 [1]
00000000: ae4f 83e4 fb05 b23f
0.07040380791596476

blocks1.SCINet_Tree.SCINet_Tree_odd.workingblock.interact.level.P.1.weight f8 [2, 1, 5]
00000000: 15e7 dbc5 6130 793f 303e 63d0 2a56 bc3f
00000010: 8a26 dade 5fd3 e13f 68e0 ede7 b35b dcbf
00000020: f735 801e 4aae cebf 8546 a8e6 8fe9 d53f
00000030: 6bf2 34d4 5ff8 d03f c273 0edb 7ac1 d0bf
00000040: adff 234d 6302 d3bf 9918 edad 0fbf b8bf
0.00614965622457377 0.11068980777349036 0.5570525505620065 -0.4430970921453139 -0.23969389428422946 0.34238050007943627 0.26515956614802033 -0.26180907623512095
-0.29702074559463193 -0.09666536327594812

blocks1.SCINet_Tree.SCINet_Tree_odd.workingblock.interact.level.P.1.bias f8 [2]
00000000: 05cb e38f 2cc8 a7bf 7f49 54a5 65ac 91bf
-0.046449081959414364 -0.017259205070396796

blocks1.SCINet_Tree.SCINet_Tree_odd.workingblock.interact.level.P.4.weight f8 [1, 2, 3]
00000000: 5a79 a938 9d4f dcbf 824a f218 a902 b23f
00000010: 9726 4cce 6aba c83f debc 1201 93c6 c3bf
00000020: b5c6 56a3 9501 cdbf 49d0 35ab 66f8 c8bf
-0.44235926183127605 0.07035309657138991 0.19318900178068496 -0.15449750473405904 -0.22661085582290288 -0.1950805984485007

blocks1.SCINet_Tree.SCINet_Tree_odd.workingblock.interact.level.P.4.bias f8 [1]
00000000: 56cd bba2 f8d6 be3f
0.12046770070064858

blocks1.SCINet_Tree.SCINet_Tree_odd.workingblock.interact.level.U.1.weight f8 [2, 1, 5]
00000000: 3d59 9e82 33df e23f a2e8 88b2 a345 a9bf
00000010: 344f fa6c 359f bdbf 8279 e557 914e aebf
00000020: e90b 8431 32cc d5bf d48f 59d1 dc86 c1bf
00000030: 53fa 2377 343c b1bf 4e11 93ec 0600 dc3f
00000040: 063a e515 26f1 cebf 9f42 674c 1c31 c53f
0.5897462416785754 -0.04935943178539161 -0.11571058188047517 -0.0591931743426697 -0.3405881389191437 -0.13692817899857224 -0.06732490452484656 0.437501650838631
-0.24173427647697582 0.16556123476631954

blocks1.SCINet_Tree.SCINet_Tree_odd.workingblock.interact.level.U.1.bias f8 [2]
00000000: 2696 1aad cd0a d2bf 0b84 7d95 0463 ddbf
-0.2819093885867424 -0.4591685733667538

blocks1.SCINet_Tree.SCINet_Tree_odd.workingblock.interact.level.U.4.weight f8 [1, 2, 3]
00000000: 6ea5 b24c b9e0 e6bf 14c3 fc07 38ba cdbf
00000010: d6f4 b927 89ac bdbf 23c8 a709 27a8 d3bf
00000020: db35 2c1d 0793 d2bf d61e ee7d 010b c3bf
-0.7149321077351212 -0.2322454489708653 -0.11591393680460568 -0.3071382135668747 -0.2902238640679948 -0.14877337120946404

blocks1.SCINet_Tree.SCINet_Tree_odd.workingblock.interact.level.U.4.bias f8 [1]
00000000: cd7d 0164 bf23 cfbf
-0.2432784307775208

blocks1.SCINet_Tree.SCINet_Tree_odd.SCINet_Tree_odd.workingblock.interact.level.phi.1.weight f8 [2, 1, 5]
00000000: 44fe ef7b f6f8 c93f e41c 85ee c595 b53f
00000010: 37c0 3637 4e61 ce3f 56b4 c47a cc60 dfbf
00000020: 2654 fb5c 5722 c93f 518c 5850 01c0 d2bf
00000030: 3df9 2c82 b057 c63f 8244 c802 32b0 cabf
00000040: 9c46 cb20 35a7 40bf 2249 1b45 7a23 d23f
0.20291024257311296 0.08431660722009188 0.23734452911367196 -0.4902831267270974 0.1963605121624436 -0.2929690632465212 0.17455107074960977 -0.20850205551008477
-0.0005082139410552302 0.28341538189592275

blocks1.SCINet_Tree.SCINet_Tree_odd.SCINet_Tree_odd.workingblock.interact.level.phi.1.bias f8 [2]
00000000: ec62 db86 6b13 d6bf 2937 b0cc 3317 dbbf
-0.344935304352062 -0.42329115857215754

blocks1.SCINet_Tree.SCINet_Tree_odd.SCINet_Tree_odd.workingblock.interact.level.phi.4.weight f8 [1, 2, 3]
00000000: 0d59 877e cfc4 b5bf e8fe 22f8 00c5 b6bf
00000010: 7daa 28a1 06d6 d3bf 1994 e63a afac d5bf
00000020: 95f6 38dd 3435 aebf 94c7 edf9 e19d debf
-0.08503434027747776 -0.08894353921914055 -0.30993810403985106 -0.3386648249818918 -0.0589996833846104 -0.4783863964759061

blocks1.SCINet_Tree.SCINet_Tree_odd.SCINet_Tree_odd.workingblock.interact.level.phi.4.bias f8 [1]
00000000: 742c 9739 9cfa cb3f
0.21858551799809656

blocks1.SCINet_Tree.SCINet_Tree_odd.SCINet_Tree_odd.workingblock.interact.level.psi.1.weight f8 [2, 1, 5]
00000000: 71f1 e72c 6205 de3f 7801 f1ca 6dac d03f
00000010: 45bf f64d 1ea4 a1bf f6e2 48da fef2 c0bf
00000020: 28ae fa94 a581 c2bf 5d4f e51e a324 c5bf
00000030: a235 9ab0 0427 cc3f ffab dd69 9dd5 c0bf
00000040: bcbd f994 85be b63f cd80 bed1 9bba 8e3f
0.46907858262399943 0.2605242235040559 -0.03445524884898402 -0.13241563471253642 -0.1445815064847562 -0.16518057831364788 0.21994074462092522 -0.1315190092967384
0.08884463202570364 0.015004365290053912

blocks1.SCINet_Tree.SCINet_Tree_odd.SCINet_Tree_odd.workingblock.interact.level.psi.1.bias f8 [2]
00000000: 9bd9 a3bc edc4 d0bf a7d8 3805 5084 e3bf
-0.262019571512974 -0.6099014379494933

blocks1.SCINet_Tree.SCINet_Tree_odd.SCINet_Tree_odd.workingblock.interact.level.psi.4.weight f8 [1, 2, 3]
00000000: 2b0b 9cf3 3e76 c0bf 0071 2928 3d54 dbbf
00000010: bf63 a49f 1fec dabf bd13 20a5 23d6 af3f
00000020: fbfd 706f 9c93 673f 65b2 8a22 ef24 91bf
-0.12860857863423666 -0.42701653406199114 -0.4206618365292875 0.06218062773408615 0.0028780036332418635 -0.016742454989684314

blocks1.SCINet_Tree.SCINet_Tree_odd.SCINet_Tree_odd.workingblock.interact.level.psi.4.bias f8 [1]
00000000: ec5c 94ca 180f efbf
-0.9705928761130997

blocks1.SCINet_Tree.SCINet_Tree_odd.SCINet_Tree_odd.workingblock.interact.level.P.1.weight f8 [2, 1, 5]
00000000: f2c4 98d2 7fb6 c6bf 8f5c 5f57 1cea 8f3f
00000010: 008e b78c f7c4 bebf 39c0 08c1 f9f1 d03f
00000020: 66fb a29a 3ece d7bf 26ee e976 f57c d1bf
00000030: f3d2 daff 4f01 aa3f df81 10da 0305 d83f
00000040: 3d73 73b9 813e c6bf 7acd c8cc e6c6 cdbf
-0.17744443686527905 0.015583249489209442 -0.12019297776674165 0.26476901865953867 -0.37196316815600594 -0.27325188267397704 0.05079126356341659 0.3753060941253618
-0.1737825541994428 -0.23263249396550717

blocks1.SCINet_Tree.SCINet_Tree_odd.SCINet_Tree_odd.workingblock.interact.level.P.1.bias f8 [2]
00000000: e6eb 2072 11b4 c8bf 9d88 054c bcdc 95bf
-0.19299524376569294 -0.021349851741782378

blocks1.SCINet_Tree.SCINet_Tree_odd.SCINet_Tree_odd.workingblock.interact.level.P.4.weight f8 [1, 2, 3]
00000000: a775 6b68 96a8 b43f f5b8 b68d 3c6a b2bf
00000010: 546c 6847 ea24 b93f 24bf 3dec 2927 a8bf
00000020: 4f0c 5a2b eb1b 883f 80bf c229 c8a2 8e3f
0.08069744157133717 -0.07193354091461741 0.09821953051907545 -0.04717379578403172 0.011772000561228206 0.014958919310032348

blocks1.SCINet_Tree.SCINet_Tree_odd.SCINet_Tree_odd.workingblock.interact.level.P.4.bias f8 [1]
00000000: f17e ad82 c8e0 c03f
0.13185984020946465

blocks1.SCINet_Tree.SCINet_Tree_odd.SCINet_Tree_odd.workingblock.interact.level.U.1.weight f8 [2, 1, 5]
00000000: 4b5e b784 8ca3 d7bf 213a a2e5 135b cb3f
00000010: 571a c16d 981c bb3f 66ef fdf0 d8f1 d0bf
00000020: 87ea 842c f27d c3bf 4973 16bc 4e84 c9bf
00000030: fc9f 6aaf 731b c13f 1087 dec7 2c84 663f
00000040: 29c9 e70c 36c4 b4bf af8a 0a9d e9de de3f
-0.3693572326714942 0.21371697151740057 0.10590508155392207 -0.26476119551056454 -0.15228106664456595 -0.1993502062222439 0.13365026536234825 0.0027485727905095583
-0.08111894431184354 0.4823555024724255

blocks1.SCINet_Tree.SCINet_Tree_odd.SCINet_Tree_odd.workingblock.interact.level.U.1.bias f8 [2]
00000000: 0ba6 8bd3 501e d8bf 59cc ead5 b58d e4bf
-0.37685032519093004 -0.6422986200399335

blocks1.SCINet_Tree.SCINet_Tree_odd.SCINet_Tree_odd.workingblock.interact.level.U.4.weight f8 [1, 2, 3]
00000000: 8bd3 cfca 7fdb d0bf 03d0 4e45 49fc d5bf
00000010: 8dc0 72a1 cea6 b13f 66b8 007f 7388 d2bf
00000020: 25c5 1d35 2792 dabf d2a2 71ac 0f39 d9bf
-0.2633971672615238 -0.34352332847925043 0.06895152513129883 -0.2895783176671841 -0.4151704806054844 -0.3941077407858248

blocks1.SCINet_Tree.SCINet_Tree_odd.SCINet_Tree_odd.workingblock.interact.level.U.4.bias f8 [1]
00000000: b1d5 d4b0 9edc d73f
0.3728405691975594

blocks1.SCINet_Tree.SCINet_Tree_odd.SCINet_Tree_even.workingblock.interact.level.phi.1.weight f8 [2, 1, 5]
00000000: 5982 5232 e8d9 b53f b165 a22b 8456 c83f
00000010: cb16 93c6 60ad d13f 803f 7ff5 84da bc3f
00000020: 7ed2 2007 944f c2bf 3730 c324 6b80 d43f
00000030: a629 9c83 f86f b73f b839 4814 7296 d03f
00000040: 0c1d 2203 3ae9 bc3f 0b7b f6f2 1b4c a5bf
0.08535624722072423 0.1901402676638049 0.2762071551518203 0.11270934098797447 -0.14305353496606082 0.3203380450256676 0.09155228818068525 0.2591824720447238
0.11293375565047742 -0.041596291931673766

blocks1.SCINet_Tree.SCINet_Tree_odd.SCINet_Tree_even.workingblock.interact.level.phi.1.bias f8 [2]
00000000: 1ca5 c0fc 2703 cbbf 448e 5d22 0915 d1bf
-0.21103381959373102 -0.2669089160537832

blocks1.SCINet_Tree.SCINet_Tree_odd.SCINet_Tree_even.workingblock.interact.level.phi.4.weight f8 [1, 2, 3]
00000000: 0b43 d053 dc26 c33f 2486 892c 15cf d3bf
00000010: 19fc d6ca b982 e6bf 9649 ff8f a87d cebf
00000020: 799e 297b d2bc ccbf 777c 706e 7dc3 e4bf
0.14962343304116418 -0.30951432561241377 -0.7034577333178077 -0.23820979148019877 -0.22451239599034858 -0.6488635212916866

blocks1.SCINet_Tree.SCINet_Tree_odd.SCINet_Tree_even.workingblock.interact.level.phi.4.bias f8 [1]
00000000: 0ede 85c4 86ef cd3f
0.2338722667297905

blocks1.SCINet_Tree.SCINet_Tree_odd.SCINet_Tree_even.workingblock.interact.level.psi.1.weight f8 [2, 1, 5]
00000000: 6f1f ba35 d159 94bf c95e e62f 6272 d2bf
00000010: 4a1b 9862 94f2 c73f c5d9 afd2 c7a8 b43f
00000020: 8378 858a ccc1 c73f b5f4 97cb 3f3b d63f
00000030: 3d7a 0e26 11c2 b53f 2091 bf2f ed63 b43f
00000040: c987 450b 922e a7bf 63df 07ab 8a79 ce3f
-0.01987387552665559 -0.28823141744349506 0.18709044279258996 0.08070038694118072 0.18560177577723289 0.34736628420052834 0.08499247721781784 0.0796497575352686
-0.045277179599693414 0.23808415747748332

blocks1.SCINet_Tree.SCINet_Tree_odd.SCINet_Tree_even.workingblock.interact.level.psi.1.bias f8 [2]
00000000: 2885 5034 dff9 bfbf f222 2a24 814b cdbf
-0.12490649249277352 -0.22886671319817925

blocks1.SCINet_Tree.SCINet_Tree_odd.SCINet_Tree_even.workingblock.interact.level.psi.4.weight f8 [1, 2, 3]
00000000: a526 ff5c 8514 c3bf 3ae4 d288 2fdb b9bf
00000010: ea6e a64b f3da c33f 040f cc6f ae05 b63f
00000020: e178 d6de 2cb3 dbbf 57d8 54fc ab39 e6bf
-0.14906374970296557 -0.10100075807976419 0.15511933511594772 0.08602419118329513 -0.4328109909200873 -0.6945400169704595

blocks1.SCINet_Tree.SCINet_Tree_odd.SCINet_Tree_even.workingblock.interact.level.psi.4.bias f8 [1]
00000000: d5e6 83c6 dbc6 c1bf
-0.13888117974402428

blocks1.SCINet_Tree.SCINet_Tree_odd.SCINet_Tree_even.workingblock.interact.level.P.1.weight f8 [2, 1, 5]
00000000: e120 36d5 fdd2 d83f 1513 cf0c 4d09 b7bf
00000010: df2a 6c38 eb93 cbbf ee74 1204 c0b6 d2bf
00000020: 630f c5eb 2307 b5bf 1009 fc38 73d4 d23f
00000030: 0075 f40c 5259 cd3f 8803 be68 987e 6f3f
00000040: 6ca9 5a6b 3d97 d83f 47eb bd67 edc2 c0bf
0.3878779012816392 -0.08998567164151113 -0.215451624441207 -0.2924041785971231 -0.08214020258043102 0.2942169243325603 0.22928834564746836 0.0038445450535963856
0.3842309521084164 -0.13094871106644687

blocks1.SCINet_Tree.SCINet_Tree_odd.SCINet_Tree_even.workingblock.interact.level.P.1.bias f8 [2]
00000000: 5724 ea93 c9b2 c3bf c4f9 a865 ad40 d5bf
-0.15389365885156067 -0.33207259109249443

blocks1.SCINet_Tree.SCINet_Tree_odd.SCINet_Tree_even.workingblock.interact.level.P.4.weight f8 [1, 2, 3]
00000000: 00b2 5f40 2923 d33f b2b0 b144 4f05 d03f
00000010: 6616 0814 df0e c6bf fa7f d452 04ad d73f
00000020: 93c3 cd57 f575 e03f c770 296e 972e dd3f
0.29902106558327546 0.25032407482536734 -0.17232883909325664 0.3699351128470877 0.5143992152135176 0.45596872098918734

blocks1.SCINet_Tree.SCINet_Tree_odd.SCINet_Tree_even.workingblock.interact.level.P.4.bias f8 [1]
00000000: 2c42 069e fb97 d3bf
-0.3061512988288395

blocks1.SCINet_Tree.SCINet_Tree_odd.SCINet_Tree_even.workingblock.interact.level.U.1.weight f8 [2, 1, 5]
00000000: ad37 b8b2 0bf8 b53f 5cd2 17c0 8ca4 a13f
00000010: c8bf c606 09f0 db3f 2e82 8dab e62d ab3f
00000020: 8955 1679 240f db3f 34f9 d53c 92c7 cebf
00000030: 1122 52fb 51ba 923f edf0 d9c0 07cb c8bf
00000040: 60ab 4cc9 eb77 b73f dccf 57f2 4560 8cbf
0.08581612694999192 0.03445854039083393 0.43652558957819254 0.053084572259426074 0.42279922318388025 -0.2404654309320421 0.01828888031426074 -0.1936959926278016
0.09167359985864953 -0.013855501611921221

blocks1.SCINet_Tree.SCINet_Tree_odd.SCINet_Tree_even.workingblock.interact.level.U.1.bias f8 [2]
00000000: 38f5 894c 0d91 bdbf 943d b88b 63b4 c1bf
-0.11549456709504546 -0.13831753084421605

blocks1.SCINet_Tree.SCINet_Tree_odd.SCINet_Tree_even.workingblock.interact.level.U.4.weight f8 [1, 2, 3]
00000000: f7b6 7f6d 3735 d03f e7c9 1df5 ccc2 c83f
00000010: b3ed 7497 42df d43f 9f5c ebb2 fae5 af3f
00000020: 224d 8f09 2e9d 953f b0c0 ae97 1039 61bf
0.2532480782818846 0.19344484299251904 0.3261267165250629 0.062301477757210615 0.021107405980569934 -0.0021024059364763356

blocks1.SCINet_Tree.SCINet_Tree_odd.SCINet_Tree_even.workingblock.interact.level.U.4.bias f8 [1]
00000000: 4e38 45c9 4ae1 c23f
0.14750037028938084

blocks1.SCINet_Tree.SCINet_Tree_even.workingblock.interact.level.phi.1.weight f8 [2, 1, 5]
00000000: 1005 9fcc e746 8b3f 0196 5502 4d49 d6bf
00000010: 7213 1535 9b58 d63f 4ac2 47d1 1e79 cc3f
00000020: 4630 3fee 34ea c03f d288 94a1 5b66 dabf
00000030: 5db6 3503 ef8e d4bf 6dd9 58a0 3b20 d9bf
00000040: 5cb2 5eb0 8551 d9bf 20e9 4b2c 1195 c5bf
0.013318835193674633 -0.34822392681084585 0.3491580980665311 0.22244630068554933 0.13214742310663236 -0.41249743251149795 -0.3212239772172774 -0.39259234103101087
-0.3956007215845483 -0.16861166632572466

blocks1.SCINet_Tree.SCINet_Tree_even.workingblock.interact.level.phi.1.bias f8 [2]
00000000: 6ed7 87ea 6406 d6bf ef49 cb7a 3826 aebf
-0.3441402712190812 -0.05888535021735552

blocks1.SCINet_Tree.SCINet_Tree_even.workingblock.interact.level.phi.4.weight f8 [1, 2, 3]
00000000: 0833 e4a2 f95b a5bf 0b8f 4387 2d7f c03f
00000010: 92db 0995 1ea9 d9bf 0636 4907 0b34 ca3f
00000020: e41e d842 004c dc3f b9bd 8fa8 9f94 a73f
-0.04171733964367347 0.12888115982706724 -0.40094723276654876 0.20471322875748416 0.44213873412853233 0.0460557835830246

blocks1.SCINet_Tree.SCINet_Tree_even.workingblock.interact.level.phi.4.bias f8 [1]
00000000: b47d 7835 e4a2 e9bf
-0.8011342090939508

blocks1.SCINet_Tree.SCINet_Tree_even.workingblock.interact.level.psi.1.weight f8 [2, 1, 5]
00000000: 9a00 304e c2b6 d3bf c4eb 10e5 6c87 d6bf
00000010: 52b1 f5b0 45fe aa3f 6397 7338 5102 cabf
00000020: f305 e8a0 2d80 d2bf 62f0 b57f 2b38 d3bf
00000030: 589a 5659 8efa c5bf fc4b 620e b754 d5bf
00000040: 2e33 b9b9 a0b5 d8bf 3b23 231d 1f8b 9ebf
-0.30802972445963805 -0.35201570863472065 0.05272119317200698 -0.20319571739599515 -0.28907337869176714 -0.30030333968875855 -0.17170886385175055 -0.33329559712109336
-0.38608568322233594 -0.02982758155193042

blocks1.SCINet_Tree.SCINet_Tree_even.workingblock.interact.level.psi.1.bias f8 [2]
00000000: 2cce 8219 e0b0 d3bf 79b7 9bae 1270 dcbf
-0.30767061702065024 -0.44434039165104583

blocks1.SCINet_Tree.SCINet_Tree_even.workingblock.interact.level.psi.4.weight f8 [1, 2, 3]
00000000: 4b08 cd93 8e46 b23f f07d f530 349e de3f
00000010: 48de 125e b631 cdbf cf4f bc06 0032 d33f
00000020: 1328 8736 70f5 c2bf f7ed 2a47 1dbb 983f
0.0713891135065136 0.47840599805019135 -0.22807960122530546 0.2999267640855096 -0.14811518347261252 0.02415128466485147

blocks1.SCINet_Tree.SCINet_Tree_even.workingblock.interact.level.psi.4.bias f8 [1]
00000000: a469 5589 e989 cdbf
-0.23077124791855141

blocks1.SCINet_Tree.SCINet_Tree_even.workingblock.interact.level.P.1.weight f8 [2, 1, 5]
00000000: fbf2 3576 268d ca3f 3642 79f8 e513 bdbf
00000010: 075d 9363 4198 a1bf cd3e 0658 0d92 bfbf
00000020: 4dfd 252c c38b d33f 343d 326d e380 d0bf
00000030: 5c22 5813 9e4b cdbf 681d eaca d2f8 d5bf
00000040: 2640 ba36 4c06 a33f 0a23 c247 c118 b7bf
0.20743256351479275 -0.11358487430812478 -0.03436474171183517 -0.1233223285582838 0.3054054194580729 -0.2578667227143854 -0.2288701624350037 -0.34331197563047633
0.0371574227148133 -0.0902214813414838

blocks1.SCINet_Tree.SCINet_Tree_even.workingblock.interact.level.P.1.bias f8 [2]
00000000: c8a2 38df 1d18 c7bf 23f1 6392 9e18 a3bf
-0.18042348288988408 -0.037297206277772575

blocks1.SCINet_Tree.SCINet_Tree_even.workingblock.interact.level.P.4.weight f8 [1, 2, 3]
00000000: 2386 4dbd a75d d6bf d18e 871c 9d2c d8bf
00000010: 3b7a f01d 828f d23f 83c8 6c3e 19ac bebf
00000020: 8b59 f042 74db a0bf 52f0 eb7a 70a8 d1bf
-0.34946626173595713 -0.3777230051621077 0.2900090496422398 -0.11981351636930708 -0.03292430226445039 -0.27590572361055365

blocks1.SCINet_Tree.SCINet_Tree_even.workingblock.interact.level.P.4.bias f8 [1]
00000000: 4e80 598b 8bf8 923f
0.018526249294496026

blocks1.SCINet_Tree.SCINet_Tree_even.workingblock.interact.level.U.1.weight f8 [2, 1, 5]
00000000: 580e 6c8e 346f b93f ca5d 66e4 2e76 973f
00000010: 42ff 09cd d161 b6bf 74d8 618f dbdd b0bf
00000020: 89a1 db21 e920 a7bf 8e3f fab2 a72a e03f
00000030: 3c3d 424c ad89 d33f 37a6 ed54 7593 c93f
00000040: 3ab6 fc15 9fba a83f 8e3c 134d 90cd 9c3f
0.0993531081876936 0.02291177052538077 -0.08743010764919482 -0.06588527918379034 -0.04517296350769857 0.5052069183020522 0.30527813384192704 0.1998125710190821
0.048298808511713934 0.028127913193028813

blocks1.SCINet_Tree.SCINet_Tree_even.workingblock.interact.level.U.1.bias f8 [2]
00000000: 2f26 6b66 913e a7bf 41d7 4476 370d 81bf
-0.045399230720772336 -0.008325990006237684

blocks1.SCINet_Tree.SCINet_Tree_even.workingblock.interact.level.U.4.weight f8 [1, 2, 3]
00000000: d2e9 a495 f297 adbf c77c 4f27 9438 96bf
00000010: 1cb4 324f 6421 b4bf c4ec d163 4816 a5bf
00000020: 55c1 8eea 8a8d b7bf 3c8f daa6 8f38 bdbf
-0.05779989315711344 -0.02170020570690381 -0.0786345189432755 -0.04118562906747905 -0.09200351931099722 -0.11414430450036844

blocks1.SCINet_Tree.SCINet_Tree_even.workingblock.interact.level.U.4.bias f8 [1]
00000000: 0140 9ee5 ecb2 cbbf
-0.21639786922287388

blocks1.SCINet_Tree.SCINet_Tree_even.SCINet_Tree_odd.workingblock.interact.level.phi.1.weight f8 [2, 1, 5]
00000000: 6208 318a 303a cabf 3f28 7d4d e71e d13f
00000010: dc9f f3cb 7054 c0bf c306 a730 e4fe b93f
00000020: 26f7 61fe cb0b d63f 327c b054 ac05 d0bf
00000030: 7397 f0e3 4e09 cf3f 0d8a 00b1 2a81 c03f
00000040: 5ffb a43e b82c dabf d2e6 5ad9 0dc8 b83f
-0.20490080592759613 0.26751120154643 -0.1275769229753213 0.10154558360866432 0.3444700226026377 -0.25034626265000093 0.24247156267045575 0.1289418567913149
-0.40897947423575504 0.09680258327980631

blocks1.SCINet_Tree.SCINet_Tree_even.SCINet_Tree_odd.workingblock.interact.level.phi.1.bias f8 [2]
00000000: 0976 6b5d b6cd d53f 3fcf a65b 167c d8bf
0.34068068621658704 -0.38257368994094415

blocks1.SCINet_Tree.SCINet_Tree_even.SCINet_Tree_odd.workingblock.interact.level.phi.4.weight f8 [1, 2, 3]
00000000: 9c18 fbd3 001d dabf 7b9c 9ba2 9d6e 963f
00000010: 6e3b 84dd a7f5 dabf 95f0 d903 5ad0 cf3f
00000020: aed0 c77f 2c9d b43f 08b9 4a1a 955e a3bf
-0.40802021695379564 0.021906340646549154 -0.4212436354873067 0.24854588687947357 0.08052328223840519 -0.03783098169275162

blocks1.SCINet_Tree.SCINet_Tree_even.SCINet_Tree_odd.workingblock.interact.level.phi.4.bias f8 [1]
00000000: a104 625f e95e e8bf
-0.7615858900973259

blocks1.SCINet_Tree.SCINet_Tree_even.SCINet_Tree_odd.workingblock.interact.level.psi.1.weight f8 [2, 1, 5]
00000000: 07b5 aa9b d06e a6bf 6001 1ef7 2929 bc3f
00000010: 8a1d 44aa e4c6 b13f 0a3b 7cf8 5458 da3f
00000020: b395 dcc1 650d 4ebf 5a4c b087 a961 d23f
00000030: ea9a 4fb4 0418 b73f a75e 8317 bc40 a33f
00000040: 3e07 7c4b a0d6 d13f 4067 5043 ca72 d8bf
-0.04381420040349764 0.110003111678457 0.0694411197365438 0.4116413523305914 -0.0009171244489364821 0.28721082926603503 0.0902102413379954 0.03760326182390133
0.27872474071056164 -0.3820062310565966

blocks1.SCINet_Tree.SCINet_Tree_even.SCINet_Tree_odd.workingblock.interact.level.psi.1.bias f8 [2]
00000000: 07e3 9e6b 9e3d df3f 78cf 3cd5 e954 dfbf
0.48813591489629043 -0.4895577032468661

blocks1.SCINet_Tree.SCINet_Tree_even.SCINet_Tree_odd.workingblock.interact.level.psi.4.weight f8 [1, 2, 3]
00000000: 9465 e616 d93b d8bf 90ff d72c b604 b9bf
00000010: 1ffd 55c6 aeb1 c0bf 4c12 0087 0894 c43f
00000020: a385 3874 3dc0 c33f dc78 d2b2 7915 ddbf
-0.3786528323776903 -0.09772814364259674 -0.13042244610185436 0.1607676181012202 0.15430420088618488 -0.45443575347043264

blocks1.SCINet_Tree.SCINet_Tree_even.SCINet_Tree_odd.workingblock.interact.level.psi.4.bias f8 [1]
00000000: 89e8 6dd0 280a dcbf
-0.4381200824206038

blocks1.SCINet_Tree.SCINet_Tree_even.SCINet_Tree_odd.workingblock.interact.level.P.1.weight f8 [2, 1, 5]
00000000: be06 6b37 2434 d5bf 7b84 21b9 86c7 d03f
00000010: 7216 03e5 6897 b7bf 4085 488e d3d7 dc3f
00000020: a4d6 5126 cf41 d93f 8ace 3793 7ad6 cebf
00000030: cbf3 a316 dad8 99bf 4bfc c6ee 4e42 b1bf
00000040: d850 8958 64cf b23f b244 6f59 efcd a13f
-0.3313074628059488 0.2621781165999619 -0.09215407935251976 0.4506729974255741 0.39464167349010837 -0.2409203738057964 -0.02524128688036224 -0.06741803483508695
0.07347705041439967 0.034774284045519535

blocks1.SCINet_Tree.SCINet_Tree_even.SCINet_Tree_odd.workingblock.interact.level.P.1.bias f8 [2]
00000000: 49b1 4e08 7388 893f 4204 4d71 2e5f d9bf
0.012467287722608094 -0.3964344126180245

blocks1.SCINet_Tree.SCINet_Tree_even.SCINet_Tree_odd.workingblock.interact.level.P.4.weight f8 [1, 2, 3]
00000000: 6008 7993 efd2 a83f e437 630c 9f6e a03f
00000010: ea9c 432c 0394 be3f 3c41 e94b ad84 bdbf
00000020: 61bf 0aea 05ca c13f 8966 9616 8c8b b93f
0.048484312774704774 0.032093973409800275 0.11944598990122626 -0.11530573943423844 0.1389777558119887 0.0997855715890187

blocks1.SCINet_Tree.SCINet_Tree_even.SCINet_Tree_odd.workingblock.interact.level.P.4.bias f8 [1]
00000000: c759 0e01 942a 9bbf
-0.02652961021848357

blocks1.SCINet_Tree.SCINet_Tree_even.SCINet_Tree_odd.workingblock.interact.level.U.1.weight f8 [2, 1, 5]
00000000: 7dd2 8fa9 6b33 efbf 49f6 4cce fd89 debf
00000010: dd4f f1e5 4f85 e6bf b75b ac01 7df7 adbf
00000020: 3068 00ca cfa3 dc3f 3406 95f4 c7f9 e93f
00000030: 0726 d9d9 e2e7 d23f f642 dfe4 ec10 c9bf
00000040: 9bb0 d5dc 8c92 d3bf 486c 7deb 6089 e6bf
-0.9750269233469023 -0.4771723284391994 -0.7037734499995129 -0.058528810934311996 0.4474982712432647 0.8117408539766928 0.29540320657960745 -0.1958290212192179
-0.30581971708193983 -0.7042698478138698

blocks1.SCINet_Tree.SCINet_Tree_even.SCINet_Tree_odd.workingblock.interact.level.U.1.bias f8 [2]
00000000: 2bd7 e3f4 b6ad a3bf adae b963 3bd6 723f
-0.0384347127855292 0.004598838797032973

blocks1.SCINet_Tree.SCINet_Tree_even.SCINet_Tree_odd.workingblock.interact.level.U.4.weight f8 [1, 2, 3]
00000000: 2bdd 4b20 8dae e03f 3c6f d0a3 4d40 d83f
00000010: b57a 855a 7039 e73f df35 18bd 42dc d63f
00000020: 18e0 0eef bcd9 ec3f f3d9 f453 1143 ed3f
0.5213075285709342 0.3789247607944508 0.7257615821834721 0.35719364610926435 0.9015793484786654 0.914436973550265

blocks1.SCINet_Tree.SCINet_Tree_even.SCINet_Tree_odd.workingblock.interact.level.U.4.bias f8 [1]
00000000: ea71 bf80 a0da c83f
0.19417196547045928

blocks1.SCINet_Tree.SCINet_Tree_even.SCINet_Tree_even.workingblock.interact.level.phi.1.weight f8 [2, 1, 5]
00000000: d33b 05c2 e78d a23f 8292 9667 6080 b0bf
00000010: f948 daab f3f3 b4bf 9d66 dc95 534d b43f
00000020: 811a 931e 9798 d63f 804f fed9 c18d aa3f
00000030: 0e79 ebd4 d06d c0bf ea3b 357b 6933 723f
00000040: d9e9 aabe e2a8 dabf 6b71 dbbd f1fd cf3f
0.03623890155233025 -0.06445887116439944 -0.08184740968343708 0.07930490883554815 0.3530633734302811 0.05186277185489896 -0.12835131069636713 0.004443561588529635
-0.4165579664219457 0.2499372651135546

blocks1.SCINet_Tree.SCINet_Tree_even.SCINet_Tree_even.workingblock.interact.level.phi.1.bias f8 [2]
00000000: 6c08 0c65 de0f d0bf 7861 3237 a7b5 b0bf
-0.250968550375666 -0.0652718076474964

blocks1.SCINet_Tree.SCINet_Tree_even.SCINet_Tree_even.workingblock.interact.level.phi.4.weight f8 [1, 2, 3]
00000000: 1d23 5745 f1be d7bf c864 3bde af03 d8bf
00000010: 34c8 7316 b623 bc3f 22f6 cd8b df19 51bf
00000020: dcdb c6cd a9ef c63f 83b9 9508 3ff9 af3f
-0.37102920314332427 -0.3752250356897773 0.10991991089011394 -0.0010437663142676208 0.17918894336409508 0.06244847278400114

blocks1.SCINet_Tree.SCINet_Tree_even.SCINet_Tree_even.workingblock.interact.level.phi.4.bias f8 [1]
00000000: 74dc aa58 d84d e5bf
-0.6657525760446235

blocks1.SCINet_Tree.SCINet_Tree_even.SCINet_Tree_even.workingblock.interact.level.psi.1.weight f8 [2, 1, 5]
00000000: 26ad c945 0f1b c7bf e8ae 662b 4531 d4bf
00000010: 70ff 967a 311b bebf 89ee 7f0a 1564 bcbf
00000020: 4887 3a49 197b d13f a4bb 6303 b152 b23f
00000030: e7e5 5d6c 8600 d43f dc83 7409 4eff aebf
00000040: 93b1 bb78 dccf d13f 15c9 84ec 7fba c1bf
-0.18051329524619425 -0.3155072139586381 -0.11760243647495172 -0.11090213304845 0.2731383528827007 0.07157427151444878 0.3125320490140368 -0.06054157128733781
0.2783118418726868 -0.13850401924862213

blocks1.SCINet_Tree.SCINet_Tree_even.SCINet_Tree_even.workingblock.interact.level.psi.1.bias f8 [2]
00000000: 4e8b 326a ce4a dabf b419 ab9f a409 e63f
-0.4108158146938664 0.6886771315119433

blocks1.SCINet_Tree.SCINet_Tree_even.SCINet_Tree_even.workingblock.interact.level.psi.4.weight f8 [1, 2, 3]
00000000: b478 dd12 cdc4 a13f c8b3 b9c8 9295 b43f
00000010: 312b 10dc 030f d33f 96bb eaa4 e47e c6bf
00000020: 0947 af0e 6d18 e3bf cdb7 573e 7e7f e3bf
0.03470459800040385 0.08040730858347367 0.29779144754927517 -0.1757474713571951 -0.5967316901025878 -0.6093131272916651

blocks1.SCINet_Tree.SCINet_Tree_even.SCINet_Tree_even.workingblock.interact.level.psi.4.bias f8 [1]
00000000: a293 8120 d85f f0bf
-1.0233994741222223

blocks1.SCINet_Tree.SCINet_Tree_even.SCINet_Tree_even.workingblock.interact.level.P.1.weight f8 [2, 1, 5]
00000000: 1d5c c2ba dc80 d5bf a4d9 ef2d 5afb aebf
00000010: 576d 6d19 2d05 ce3f a8a0 f02f 6c74 d33f
00000020: ff63 7708 9969 c53f 3a60 320b 0053 da3f
00000030: 6cee 0748 a2e9 b03f e971 39ca 1f32 a03f
00000040: 3b50 40d2 b343 cc3f 625a c822 d2e5 463f
-0.3359901260204781 -0.06051141558411935 0.23453296414923372 0.30398087197910195 0.16728508866688682 0.4113159283965647 0.06606497057503596 0.03163241714057447
0.22081611410306032 0.0006987834981966974

blocks1.SCINet_Tree.SCINet_Tree_even.SCINet_Tree_even.workingblock.interact.level.P.1.bias f8 [2]
00000000: a186 e4b0 c311 adbf 52d1 148f ee4f d3bf
-0.05677615675291504 -0.30175365422043854

blocks1.SCINet_Tree.SCINet_Tree_even.SCINet_Tree_even.workingblock.interact.level.P.4.weight f8 [1, 2, 3]
00000000: f2e0 1b3c a227 d4bf 5d9b 1c9d 7181 d1bf
00000010: 6b03 0292 15d1 d0bf 021d fd21 bb77 c43f
00000020: 4f2b 74b8 12e3 d33f 4a1e fddf e759 aa3f
-0.314919050884341 -0.27352562277740394 -0.26276149042683156 0.1599038997612539 0.31073444378914855 0.05146717652547446

blocks1.SCINet_Tree.SCINet_Tree_even.SCINet_Tree_even.workingblock.interact.level.P.4.bias f8 [1]
00000000: 49de 9348 d30f d1bf
-0.26659090125710755

blocks1.SCINet_Tree.SCINet_Tree_even.SCINet_Tree_even.workingblock.interact.level.U.1.weight f8 [2, 1, 5]
00000000: 70fb ee5a 2d4a dd3f 9b77 31dd b26d d03f
00000010: 858d d72c f778 b7bf 4a09 5c66 d770 d7bf
00000020: ef85 47bb f2c3 d9bf 65a9 5de8 7855 cf3f
00000030: 1476 daf5 e3cd babf 00db e7da 6ded b23f
00000040: 5ae4 451b 6bc1 b03f e5c0 aa53 684c d1bf
0.4576524150870034 0.2566954765405797 -0.09168953747535198 -0.3662622928242355 -0.40258472718241384 0.24479590745915938 -0.10470413925437355 0.07393538088204465
0.06545133033604725 -0.27028854532819785

blocks1.SCINet_Tree.SCINet_Tree_even.SCINet_Tree_even.workingblock.interact.level.U.1.bias f8 [2]
00000000: 8c1b 4ba0 7c37 34bf d88b 76bf 4372 c1bf
-0.00030848305349844766 -0.13629958008559018

blocks1.SCINet_Tree.SCINet_Tree_even.SCINet_Tree_even.workingblock.interact.level.U.4.weight f8 [1, 2, 3]
00000000: 3f3b c9f1 b006 d53f b2c6 66eb 0779 d13f
00000010: 6509 91a2 44b6 9ebf e000 1d72 31a0 93bf
00000020: 0f68 9217 c6bb c03f ec7f 6183 2cff bd3f
0.32853339778823804 0.2730121420710062 -0.029992172643923527 -0.019165775861666456 0.1307304015252275 0.11717489440479739

blocks1.SCINet_Tree.SCINet_Tree_even.SCINet_Tree_even.workingblock.interact.level.U.4.bias f8 [1]
00000000: e571 47b1 85cd cb3f
0.21720954090314062

projection1.weight f8 [24, 48, 1]
00000000: 461f 356f 3f4c 6f3f 8c7c b8b6 42ef 773f
00000010: 2b7a 2250 dc67 32bf 957d 57ab 52be 85bf
00000020: b629 d998 cd11 5ebf c89f 4937 2347 6ebf
00000030: aa9b f16d cea3 753f 4498 de94 1e40 693f
00000040: 15aa 93dc 4ae8 64bf ac93 e06e 8d01 30bf
00000050: d38f afdd c08f 6d3f ef8a dd22 a60c 84bf
00000060: ac70 b84f 209e 73bf df27 5e29 2e81 7ebf
00000070: 3a8d bf44 8808 6a3f 6e03 70f3 f314 723f
00000080: e700 7021 98b5 6abf e141 66cf 2284 7e3f
00000090: 7a81 1788 083d 6e3f 4073 6eac 17a7 83bf
000000a0: 5909 aab9 8281 7a3f 1f65 47de e0be 7fbf
000000b0: 86a7 6087 a00b 6b3f 6e8f 0865 ff53 69bf
000000c0: a4ef cf5e f20e 5cbf 69ee eac7 c948 693f
000000d0: 530d 4a95 0230 8c3f 2fd9 d824 b17e 96bf
000000e0: 2755 7b3a b611 8f3f ee42 0a1f f2bc 78bf
000000f0: f61a 4a46 039d 7d3f d2bf 4f7f b855 6cbf
00000100: 8d19 c257 5745 88bf 2a4b ed4e deb7 51bf
00000110: ac8e 2d3e 0f07 8d3f 58c7 cb0f 0fa4 a0bf
00000120: 8e9b 6175 1915 913f b1a4 0fde 5820 a1bf
00000130: fb05 f505 cbd2 ab3f 2469 fd81 50e5 9fbf
00000140: 1856 803a 7a84 ae3f be22 827b 500f 95bf
00000150: acb3 af8e 3519 b03f 37f0 70e4 ca00 a2bf
00000160: 066c 2cab 013c ad3f ca29 642c 0549 993f
00000170: 458b 2fce b05e cf3f 820b 3025 dea8 d33f
00000180: f75a 9b06 a1cc 703f 2679 3a12 b805 633f
00000190: 57a9 30da 6db4 4c3f c4b6 e7ae 5dd4 76bf
000001a0: 3add 12e5 2c61 5cbf dab0 fb3f c51f 33bf
000001b0: f2ac 1d1c 12db 493f eb9a 473b 337c 743f
000001c0: 1eed 7c31 bace 51bf e0c8 6cb6 e417 683f
000001d0: cd74 d449 abb6 743f cd37 1f0c 4d4a 7abf
000001e0: 7a2c 2a4f d9af 66bf e07a 9f6f 129f 61bf
000001f0: 624c 30b7 0c3e 7abf b382 46f0 607a 773f
00000200: 61e6 a32d 0df3 67bf f567 77a3 14c2 7a3f
00000210: 5233 2802 531c 7abf 2db4 1e50 faca 89bf
00000220: db25 9a96 3b34 5a3f bf26 1680 4064 81bf
00000230: bb43 a6df d66b 64bf 0bbc bc0d 117e 76bf
00000240: a8e7 708f 72ec 6dbf b00c 567d a4fb 4cbf
00000250: 1652 d7f2 6cab 8b3f 998e bce5 7f11 8dbf
00000260: 974e 033b 7462 8b3f 50ff b4fa efce 7bbf
00000270: 22ae b096 b18c 8a3f 213a 03c2 bef8 74bf
00000280: 8913 babd 91df 71bf fc47 89b2 8e4a 74bf
00000290: 8e4a e72d 9bb4 8c3f c47f 8634 69bc a3bf
000002a0: 3da4 536a 0b51 823f 2a14 4ede 965e 96bf
000002b0: e3f1 765c 4898 a93f d32b 84b6 87a0 9abf
000002c0: d2c7 bfc7 eea7 a13f 9321 5aea fb52 79bf
000002d0: 3ba5 e7ac d277 a93f 043f 305a 9f4c 92bf
000002e0: 648b c5e1 ee1a b03f 11c5 124b 0d79 913f
000002f0: d98b c944 84af ca3f 1d89 0035 035c d43f
00000300: aa88 3a61 25f9 7e3f ac6d 453e 1e49 633f
00000310: 2094 7c27 6eeb fe3e 00fe ab07 e052 62bf
00000320: 6690 48a5 1c63 60bf a7e6 6747 26a7 543f
00000330: 790a 9cb2 d04b 593f 68e6 3629 cb86 743f
00000340: 70d6 81b7 5f36 243f f0e0 de52 16c6 763f
00000350: 20dc cc55 8198 2dbf 4ca7 1262 fd1d 82bf
00000360: 02fc a9a3 20c3 3ebf 849b 77a0 d1e1 6abf
00000370: ba94 fcd2 8c6d 63bf 5d7a a178 c674 663f
00000380: 303b 4424 aa6b 70bf e37c 20da 51cc 783f
00000390: 9290 f639 0424 6cbf 45d8 f8eb cf19 89bf
000003a0: ce31 771a 2e3b 5dbf b3d8 1067 fdb7 73bf
000003b0: f40c 534e cbe9 553f db58 974e 0359 7fbf
000003c0: 0e6f 9e0e 842a 74bf 4aaf 8398 19e4 73bf
000003d0: 7072 8339 c675 833f d193 974b db53 91bf
000003e0: 919e 7383 1abc 9b3f 902f 677f cbb9 7fbf
000003f0: 07f3 c82e e039 713f 901e 9684 12a0 73bf
00000400: 728f 51a9 731f 3d3f 7067 732c 6895 42bf
00000410: 09a1 e364 1b17 733f e635 91ef 1acf 9ebf
00000420: cbdf e4c2 72e3 86bf 3775 7360 4a2f 82bf
00000430: 50aa 4b62 1e99 973f 3c19 b809 94c4 90bf
00000440: a2b9 3961 2c8d 883f 858f 3414 e1a0 82bf
00000450: 9808 b44a f187 ae3f 0a4f ade9 e25d a3bf
00000460: 9293 5f2f 3001 c03f 7172 6136 e502 8f3f
00000470: 55a6 f672 26fd c63f 0c23 b25f 9f7b d43f
00000480: a62e 5e2d 4739 493f 5ca6 8a08 482c 603f
00000490: 2d3f 71ad 3f45 7cbf 2316 5f09 1f62 79bf
000004a0: c208 4017 53eb 73bf 7cf7 bbee e226 77bf
000004b0: 7d97 5ef2 2d46 3e3f be61 6711 bfd6 65bf
000004c0: 94b8 5c2f 280d 623f 7af5 c609 ce0c 293f
000004d0: 3e16 1ce1 b65b 423f ac3a f5cb 33e2 7dbf
000004e0: 3465 b576 e9d8 4e3f d14c 8240 14b4 62bf
000004f0: bbeb 4b5f 4c03 5f3f 4908 8794 df37 713f
00000500: 9f1e 3ab4 65a6 753f c6a8 f558 8d4b 893f
00000510: 3ddb c3ec f099 7f3f 29d4 6aa2 4760 80bf
00000520: 3e19 0f56 96ae 763f eef6 7400 58e8 50bf
00000530: 058b e066 1979 60bf e0ea de7d fe1d 05bf
00000540: fec4 ce51 0a93 6abf 76aa ce99 3da5 40bf
00000550: c6a2 43da e71f 8d3f 7f0e ce7f b36b 83bf
00000560: 2042 1352 3f8f 783f a353 81c1 c374 77bf
00000570: 28eb 7358 7783 8b3f e684 6282 2bad 86bf
00000580: c0ab 7fc1 edc9 923f 98f7 6b7e b521 6bbf
00000590: 7453 7711 d757 553f 9356 344e 89ae a3bf
000005a0: 9aa3 871c bc8f 94bf 98b1 31c8 593a 78bf
000005b0: 5147 2891 02c4 893f 4526 1e31 af7a 88bf
000005c0: 575f 8aee 31d9 7a3f 6743 f79f 7a2d 7cbf
000005d0: c127 5983 23aa a63f 5274 c39d 9fd2 21bf
000005e0: f15a efee 3c03 b13f 397d 637f d38c 933f
000005f0: 3225 61c0 c233 c43f 0e33 9715 70a6 d53f
00000600: b8fc fe36 7392 743f 7eeb 3d4a 4989 7b3f
00000610: 49fd b5c6 252b 57bf 33e3 ec7a ce10 163f
00000620: 52a7 b33a afc7 253f c573 fda1 6369 5f3f
00000630: 1e7c e39b a90e 763f 579c b03b 4e43 203f
00000640: 6f23 0d43 714a 743f 705d 442b 5b7b 6e3f
00000650: 8faa ed1d 36a7 713f 26c3 0565 01b4 7bbf
00000660: d66f aea7 dc0c 52bf aa15 7f3e e2ea 59bf
00000670: b5b5 8da1 83cd 53bf 0b2a fc44 8303 633f
00000680: 2641 a70a 9e64 663f 149a 52db c882 803f
00000690: 4d77 e7cc 8ffc 743f c7c1 b6d2 e279 80bf
000006a0: ef88 f8e8 5b74 79bf 6dae f5a3 d212 76bf
000006b0: eb00 b20c 6fce 83bf 9e33 8dfc b501 363f
000006c0: 98dd 2f1c 8c18 75bf 8a24 02b7 f4d0 80bf
000006d0: ad1d e1ad e75e 483f 827e 6032 3abd 8ebf
000006e0: a353 0010 bf6e 863f 8d64 333e f2de 61bf
000006f0: dcac 6430 9e28 863f 90bb e162 e763 82bf
00000700: cc1c 59df e13c 933f 7bb0 ef51 558d 633f
00000710: 1df9 18bf 7d77 813f 7e82 e288 5d1c 84bf
00000720: 7541 7c09 0c7f 8bbf a71f 44c0 a8fe 8abf
00000730: 9bf7 aa64 94c2 6f3f f2a5 1965 acdb 71bf
00000740: 3c48 4513 e242 74bf ad0f 0b8f a45b 553f
00000750: 43bd a162 6ad6 a93f 1009 49d1 12fb a8bf
00000760: 1fcb 4ad0 4bb3 b33f 60f3 cfaa a850 ae3f
00000770: 6eb0 8f4a 8e55 b83f 4957 95f5 9bf4 d43f
00000780: 1c00 f586 71a6 7b3f bc55 113e aed9 5c3f
00000790: 1840 ebdf fe75 76bf 8cd4 4b09 6eb6 75bf
000007a0: 5b64 ef57 886e 6d3f 7ba1 1d65 807e 4dbf
000007b0: ecd1 e2c8 bfac 51bf fcad 06e4 ebe4 67bf
000007c0: c352 e960 3221 5abf 8619 9bfe 2fcd 44bf
000007d0: be74 b96a f936 713f 6026 7561 2375 633f
000007e0: 74f3 5e73 4303 6c3f 9021 e670 7c7f 78bf
000007f0: dbe2 43f9 39b8 5c3f 0ad6 5f2d d96a 603f
0.003820537467308957 0.005843411064716208 -0.0002808487771605329 -0.010616918424544855 -0.0018352992805313723 -0.003696030408082838 0.00528317104826829 0.003082332353147728
-0.0025521719113517174 -0.000244233159607805 0.003608586016968099 -0.009789750994689565 -0.004789472786367249 -0.007447414702150794 0.003177896642215264 0.004414513524353276
-0.0032604190159873816 0.007450233437694882 0.003691212333009894 -0.009596047353448989 0.00647116722632498 -0.00775039519472756 0.003301442654465472 -0.00309181100625893
-0.0017125479600954363 0.0030864659341583345 0.013763446980425675 -0.021967666505781466 0.015170501384469915 -0.00603956774342927 0.007229817191393142 -0.0034588435614679525
-0.011851007810275838 -0.0010814352969716425 0.014173621258755396 -0.03250166957685846 0.016682050504097705 -0.033449914080685324 0.054342598416507536 -0.031148202833130814
0.05960447277190556 -0.02056623224101161 0.06288466199448689 -0.0351622966631741 0.05709843840141819 0.024692612490108158 0.2450772291914182 0.3071818698082823
0.004101399428427347 0.0023220629826276205 0.0008760010135849078 -0.005573621702280544 -0.0017321527887313574 -0.0002918106620046886 0.0007890547205823535 0.0050012589676728765
-0.0010868852895800705 0.0029410807650488285 0.005057019324593526 -0.006418515173164563 -0.002769398147682231 -0.002151046760430972 -0.0064068314268467 0.00573194376593793
-0.002923513163406708 0.006532745951938414 -0.00637466836134311 -0.012594180650774412 0.0015993673245325777 -0.008491996678248069 -0.002492828059253741 -0.005491320243705476
-0.003652786017053839 -0.0008844903156134589 0.0135105620965215 -0.014193534086707248 0.013371379900866827 -0.006789147776828333 0.012963664447020188 -0.0051200343588804495
-0.0043636029255410625 -0.004953915988680887 0.014016353929865912 -0.038546836530485545 0.008943642790159351 -0.021845204657001606 0.04998994950026139 -0.026002998843107705
0.03448435009330776 -0.0061826553770817525 0.04974230156569567 -0.01787041652647671 0.06291096698764204 0.01706333895407847 0.2084813438296738 0.31811599899278226
0.00756182290538924 0.002354201382485951 2.9487275667556515e-05 -0.0022367835603060993 -0.0020003852353216887 0.0012605546777408134 0.0015439546645558396 0.005011361692078255
0.0001542083589389123 0.0055600044269612375 -0.0002257974510031244 -0.008846263461538627 -0.0004693941770383404 -0.00328150694598456 -0.0023715734931949147 0.002741229666795504
-0.00400892697895365 0.00605422948322529 -0.0034351427600132845 -0.012256264103694412 -0.00178412916453673 -0.004814138273152735 0.001337479153605878 -0.007653248708683526
-0.004923358772341192 -0.004856204970774611 0.009501980428859386 -0.01692145012738761 0.027084745667620928 -0.007745547211424411 0.004205585206872759 -0.0047913287502364815
0.0004443795563189224 -0.0005671271000224753 0.004660708435246138 -0.030086918708823428 -0.011176010677999578 -0.008879262035800124 0.023045038938031503 -0.016374886601647307
0.011988016812406969 -0.009095915249936368 0.05963090931801779 -0.03782567121984755 0.12503626168395648 0.01514224121290761 0.17960053075266794 0.32004532189653
0.0007697675271045215 0.0019742400075600085 -0.006901978245039503 -0.006197091328379342 -0.004863094876784215 -0.005652319388671386 0.000461946694822017 -0.002665875606208539
0.0022035393584679073 0.00019111647715234684 0.0005602496114255962 -0.007295801478291491 0.0009413852653025524 -0.002283134035744185 0.001892876226689862 0.004203675613498056
0.005285641938492041 0.01235113551839041 0.007715169060466928 -0.007996139186937938 0.005537593126922423 -0.0010319575684002952 -0.0020108696108008827 -4.0277794809159264e-05
-0.003243942408936661 -0.0005079794678882327 0.01422101149405942 -0.009482767427250181 0.005995986314886653 -0.005726589843182336 0.013434345614304968 -0.011072482983140518
0.018348421988701125 -0.0033119721223319847 0.0013026809955267423 -0.038440981670800366 -0.020079554787944077 -0.0059150225743959325 0.012580890707827004 -0.01195275181432288
0.006554789587106167 -0.006879309657464506 0.04426680544254636 -0.0001359767765113673 0.06645565827725954 0.019091896677193552 0.15782961267022128 0.3382835589261938
0.005022478158877401 0.006722723282900909 -0.0014140957744926566 8.41737771509865e-05 0.00016616834668719632 0.0019172165848069117 0.005385077032968004 0.00012407617563889542
0.004953806332942941 0.0037209301609767917 0.004309855837031264 -0.00676346344731441 -0.0011016993364369918 -0.001581879560022296 -0.0012086663684515002 0.002321010957421215
0.0027335249662671255 0.008061951821514625 0.0051236741259950815 -0.008044979148366672 -0.006214484237292191 -0.00538904458458554 -0.009671084952288264 0.00033579533606059055
-0.0051503632594100054 -0.008211051783535223 0.0007437354322598532 -0.015009359991437824 0.010953419376201817 -0.0021815043743172503 0.010819660045476125 -0.008979613976604545
0.018786935097776333 0.002386728897809274 0.008528692621550033 -0.009819727649586382 -0.013425916709395061 -0.013181036345954867 0.003876962500128434 -0.004359887521425675
-0.004946597200914889 0.0013035876292386381 0.050463985958112655 -0.048790538833161645 0.07695459208734377 0.059209128237830866 0.09505547829002278 0.32742976172209076
0.006750529733210466 0.001760883482594052 -0.005483623127204872 -0.005300931767796457 0.003592745109454882 -0.000900089924681643 -0.001078784265286288 -0.002916775440288564
-0.0015948287943007712 -0.0006348118160637718 0.004202818188415223 0.0023751917866874778 0.003419524898133403 -0.005980955217076547 0.0017529073857628838 0.0020040742629088325
