exp/data_checkpoints/Model_hs2_bs32_e50/checkpoint.pth (torch, 74169 bytes, 114 tensors)

inv_timescales f8 [1]
00000000: 0000 0000 0000 f03f
1.0

blocks1.SCINet_Tree.workingblock.interact.level.phi.1.weight f8 [2, 1, 5]
00000000: 42bf 13ab 7a6a b73f a63e 6983 1cb8 bebf
00000010: e28f 3f12 5e6a c2bf 45af 899b 5682 d2bf
00000020: 884d b381 3c85 d0bf 1bbc 8ae7 9b6f da3f
00000030: d12a 427d 57f9 d63f 0ba9 452d a679 ae3f
00000040: 8ff3 f3b5 7b47 cebf a344 c372 8914 c8bf
0.09146849323928755 -0.11999681671408755 -0.14387107745198963 -0.2892052191661956 -0.2581321016889082 0.4130620728637397 0.3589686129786687 0.05952185919416494
-0.23655649551792776 -0.18812673667574584

blocks1.SCINet_Tree.workingblock.interact.level.phi.1.bias f8 [2]
00000000: 95fa b2be c208 d7bf 81db 252d ea58 d2bf
-0.3599097120567561 -0.2866769257447502

blocks1.SCINet_Tree.workingblock.interact.level.phi.4.weight f8 [1, 2, 3]
00000000: 3059 0839 4813 913f 0e05 729f 9d6d 903f
00000010: 2ce0 0b58 6b93 d23f 974d 8717 a10d b4bf
00000020: c9d7 318d ee03 b1bf 3ac3 b74c 45e0 b2bf
0.016675117951387708 0.016043150765203733 0.2902477607563039 -0.07833296608378358 -0.06646624514709666 -0.07373459933274953

blocks1.SCINet_Tree.workingblock.interact.level.phi.4.bias f8 [1]
00000000: b57a 2ec9 43c5 ddbf
-0.4651650871909781

blocks1.SCINet_Tree.workingblock.interact.level.psi.1.weight f8 [2, 1, 5]
00000000: 668a e690 7904 b13f 7ff2 6ecf 6166 d43f
00000010: 5be4 9947 285f d3bf e601 327b 7929 d6bf
00000020: cef9 eb0e 9bc6 843f a23b f9ef a489 b7bf
00000030: d77d 5f2f 1487 be3f 2352 581a 1079 c8bf
00000040: 5c1f 2e05 ef15 c0bf 1ed0 d2e7 8b72 be3f
0.06647453105555598 0.31874890572706954 -0.30268294327067274 -0.3462814047889239 0.010144435303570367 -0.09194403513650554 0.11924863964622233 -0.19119454656960597
-0.1256693625730304 0.11893534097436073

blocks1.SCINet_Tree.workingblock.interact.level.psi.1.bias f8 [2]
00000000: 5cd9 51ce 7fa3 e03f 438f d7ee 2cb5 d7bf
0.5199584035570228 -0.37043307613770454

blocks1.SCINet_Tree.workingblock.interact.level.psi.4.weight f8 [1, 2, 3]
00000000: 107b 3769 9726 c1bf 7eda fc92 465c bfbf
00000010: deea 1526 03b1 d5bf 1e75 5b50 1abc b3bf
00000020: ec98 0a34 0a21 bf3f 4d3a a569 992b d03f
-0.13399021756682616 -0.12250176514212716 -0.33892897338198036 -0.07708897077414575 0.12159789820234196 0.2526610881513179

blocks1.SCINet_Tree.workingblock.interact.level.psi.4.bias f8 [1]
00000000: aedd 0bb0 9197 e8bf
-0.7685020864873218

blocks1.SCINet_Tree.workingblock.interact.level.P.1.weight f8 [2, 1, 5]
00000000: 692b 6c60 c249 c8bf 452a bbe5 ac4c be3f
00000010: 9cc8 89fd 18d5 cb3f 5890 7520 ca2c c5bf
00000020: 2e68 5530 efff d43f e14b 1a6c 4f68 bc3f
00000030: e5d0 9fe3 e403 ccbf f4df 9882 0309 d53f
00000040: aaba 2010 6e6b b9bf 164b 41cd 140b d1bf
-0.18975095470554074 0.11835747345609444 0.21744072322650687 -0.16542936882899784 0.32812099189834754 0.11096664799906321 -0.2188688384482084 0.32867515329007735
-0.09929550069567009 -0.2663013462489955

blocks1.SCINet_Tree.workingblock.interact.level.P.1.bias f8 [2]
00000000: 20cc 29ea d977 d4bf ceb1 3391 a5f0 c9bf
-0.3198151385069554 -0.20265645589769438

blocks1.SCINet_Tree.workingblock.interact.level.P.4.weight f8 [1, 2, 3]
00000000: f282 6488 6e0e d43f 0d1b f657 97d2 c23f
00000010: d6ec e128 7885 d63f b58e 8f97 2ac0 9dbf
00000020: 0854 ea2e 3f36 cd3f 8a6b f1bd c32c cabf
0.31338084525673005 0.14705173296916776 0.35189632408555604 -0.029053369045768124 0.2282179812506515 -0.20449110769808626

blocks1.SCINet_Tree.workingblock.interact.level.P.4.bias f8 [1]
00000000: c4b6 ebb3 1e29 bebf
-0.11781494038197154

blocks1.SCINet_Tree.workingblock.interact.level.U.1.weight f8 [2, 1, 5]
00000000: cfd2 b5ba c341 b2bf 6198 ec77 fc30 9d3f
00000010: bdbd 66d9 8f1e dfbf 1c13 7af1 f45a d03f
00000020: 6d91 fdf7 9b3a e23f 981c b564 9180 d83f
00000030: b01f 26fa 2e64 d23f 55dc 75ce 075a d63f
00000040: 94ad ace4 7479 c3bf a4e3 f3cf 39a2 cf3f
-0.0713159876666609 0.028507180041878025 -0.4862403510150804 0.25555156308864624 0.5696544498028239 0.3828471644851077 0.2873647158489758 0.3492450252737787
-0.15214406171558592 0.24713823942127278

blocks1.SCINet_Tree.workingblock.interact.level.U.1.bias f8 [2]
00000000: 83d5 8cc5 f28e b13f 1f70 b7e2 0bd0 c1bf
0.06858746836663525 -0.13916157312530772

blocks1.SCINet_Tree.workingblock.interact.level.U.4.weight f8 [1, 2, 3]
00000000: 7c7f 109b 987f d5bf 3bc7 1fd3 9490 debf
00000010: 1cd3 3a9b 132d dabf 8520 00d4 bb0f bebf
00000020: ec02 1bbe c0c6 cebf a5d7 8f4d 0856 d6bf
-0.3359128488827918 -0.47757454507437885 -0.4090012565532548 -0.11742757726472249 -0.2404404571771218 -0.3490010030212665

blocks1.SCINet_Tree.workingblock.interact.level.U.4.bias f8 [1]
00000000: 5492 6a83 22a3 c93f
0.20029097954570096

blocks1.SCINet_Tree.SCINet_Tree_odd.workingblock.interact.level.phi.1.weight f8 [2, 1, 5]
00000000: fcaa ff0a 83cb a3bf 218a 8b81 09c4 d8bf
00000010: 42db c468 03bd e6bf 3c4f ebe1 b332 d2bf
00000020: a6c2 bac0 3e35 be3f d83a 889e ca9a bd3f
00000030: 1e2b f4d2 3cfc dd3f f6d0 71c4 02c0 bb3f
00000040: 7afc 4db1 5688 aabf 90d7 4444 cfb6 b5bf
-0.03866204747449406 -0.386965157040466 -0.7105729147213895 -0.2843446451417895 0.1179999561816297 0.11564318056501166 0.4685203609557663 0.10839860244761099
-0.05182143129695134 -0.08482070366593875

blocks1.SCINet_Tree.SCINet_Tree_odd.workingblock.interact.level.phi.1.bias f8 [2]
00000000: 7eae 1459 54ec d8bf c1cb 86c9 fbf5 e7bf
-0.38942440699859293 -0.7487772880616533

blocks1.SCINet_Tree.SCINet_Tree_odd.workingblock.interact.level.phi.4.weight f8 [1, 2, 3]
00000000: c79d b8a7 de5c adbf 80e6 b1a3 08bb d63f
00000010: d4f7 ce1a 7bfb e83f 35f4 2d9c 4fda d3bf
00000020: f2fd 2f35 8773 d5bf 94b0 e2d0 7f1f d0bf
-0.057349164937757595 0.3551656340201603 0.7806983493426238 -0.3101996445837501 -0.33517627901161895 -0.25192256354308395

blocks1.SCINet_Tree.SCINet_Tree_odd.workingblock.interact.level.phi.4.bias f8 [1]
00000000: 1b04 5483 29a9 df3f
0.494699838876899

blocks1.SCINet_Tree.SCINet_Tree_odd.workingblock.interact.level.psi.1.weight f8 [2, 1, 5]
00000000: 58d5 10f4 2ec8 d93f 1920 ac85 aa7f c4bf
00000010: ea4d 7400 137f c83f 29f0 9096 36eb d93f
00000020: 0411 a90b dc48 c0bf 878a 7536 648b c33f
00000030: 312a 28c8 76ef c7bf 1aab d38e fa8f 86bf
00000040: 6ab2 f411 8039 a1bf 9e8c fd44 c16a c5bf
0.40284322580858634 -0.1601460602471441 0.19137799760993285 0.4049812765476895 -0.12722349709850544 0.15269138964784565 -0.18699536107335882 -0.01101680515644925
-0.03364181727588263 -0.1673204028003043

blocks1.SCINet_Tree.SCINet_Tree_odd.workingblock.interact.level.psi.1.bias f8 [2]
00000000: 3acb 5e87 0e03 eabf b707 4333 1283 debf
-0.812873138804526 -0.47674994474447935

blocks1.SCINet_Tree.SCINet_Tree_odd.workingblock.interact.level.psi.4.weight f8 [1, 2, 3]
00000000: d0f0 325d da2f c9bf 5cb5 e69e b3f5 c8bf
00000010: fdd0 cd98 f721 c7bf ab97 c2b0 f854 c8bf
00000020: 8e35 5944 25a7 c13f cf7b dcde fe02 d63f
-0.19677285719615734 -0.19499821909759418 -0.1807240959275375 -0.19009312277665677 0.1379133781178265 0.3439328361873181

blocks1.SCINet_Tree.SCINet_Tree_odd.workingblock.interact.level.psi.4.bias f8 [1]
00000000: 66a4 114f 2a73 d4bf
-0.31952913018773754

blocks1.SCINet_Tree.SCINet_Tree_odd.workingblock.interact.level.P.1.weight f8 [2, 1, 5]
00000000: e941 b4bb f61f c2bf 6f99 b077 9c88 c9bf
00000010: 7226 66ee c8da dc3f b443 8eaf 520a b7bf
00000020: da99 8da4 7c63 ba3f 7caf 2a68 eda8 c63f
00000030: e111 2602 2240 ce3f 9c7c d528 461b ab3f
00000040: 7647 708e 9668 91bf 13ad c343 27a1 b23f
-0.14160045781365163 -0.19948154300909546 0.45085356980471325 -0.090001266346248 0.10308054940615055 0.17703025423304186 0.23633217911641594 0.0529424595686063
-0.01700053448082125 0.07277150539782822

blocks1.SCINet_Tree.SCINet_Tree_odd.workingblock.interact.level.P.1.bias f8 [2]
00000000: 9f52 b3c9 02fe cebf bc43 89fc a4aa cfbf
-0.242126797186434 -0.24739515620106356

blocks1.SCINet_Tree.SCINet_Tree_odd.workingblock.interact.level.P.4.weight f8 [1, 2, 3]
00000000: 7bb7 4d82 70c1 c3bf 38aa 416e 0192 d43f
00000010: 8d63 725f dc4e ca3f 1a32 e580 e86f b1bf
00000020: d6e6 fe9d 787f c63f 10b3 9df9 df5b a2bf
-0.15434080469588793 0.3214114739154499 0.2055316415833456 -0.06811383387430006 0.1757651111091067 -0.035857199879364754

blocks1.SCINet_Tree.SCINet_Tree_odd.workingblock.interact.level.P.4.bias f8 [1]
00000000: 0688 4c92 31b7 b43f
0.08092031308891032

blocks1.SCINet_Tree.SCINet_Tree_odd.workingblock.interact.level.U.1.weight f8 [2, 1, 5]
00000000: 54ba 9bee a3c9 e03f 12c3 6e34 2710 c8bf
00000010: d033 885d 5742 d7bf fd5a cc77 4a43 c3bf
00000020: e11b 05b6 92d4 d1bf 2db9 9b91 6c0a cdbf
00000030: f8f1 195b bab4 b7bf 03ef 4fbc 0980 d73f
00000040: 6323 2e45 91dd d3bf 6dd8 aa33 4a5f b23f
0.5246143017119018 -0.1879929548281543 -0.3634241498373827 -0.1504910550072153 -0.2785994317568435 -0.22688061818866725 -0.09260143970636381 0.36718982114665283
-0.3103984046543273 0.0717665077343967

blocks1.SCINet_Tree.SCINet_Tree_odd.workingblock.interact.level.U.1.bias f8 [2]
00000000: f029 08f1 02b3 c6bf 90bc d1b2 3336 d7bf
-0.17733799714217424 -0.36268322432346967

blocks1.SCINet_Tree.SCINet_Tree_odd.workingblock.interact.level.U.4.weight f8 [1, 2, 3]
00000000: f032 022f 2453 e3bf 9270 18a0 ff9b b43f
00000010: 2bf9 20ad 0a79 d33f 9b5c f130 5e6a d6bf
00000020: 996f 1412 a22b c8bf ea6f 02ea 3e75 c13f
-0.603899089635517 0.08050534876423601 0.30426279933080264 -0.350242183490488 -0.18883157618335814 0.13639055658575155

blocks1.SCINet_Tree.SCINet_Tree_odd.workingblock.interact.level.U.4.bias f8 [1]
00000000: 12da 09e2 29ce d1bf
-0.2782082278639858

blocks1.SCINet_Tree.SCINet_Tree_odd.SCINet_Tree_odd.workingblock.interact.level.phi.1.weight f8 [2, 1, 5]
00000000: 5a0d d3a2 866d a93f 93fb cd8a 3dc7 b3bf
00000010: 1a2b 1ceb e6c2 ac3f aeb6 48fe d1c3 e3bf
00000020: fdfe 1464 e562 b73f 0c8c 4371 a897 d1bf
00000030: 2667 123b 2c61 d33f c61c 5eb2 45a9 cfbf
00000040: 3937 bcfe de4d 813f cb60 7352 82a0 cb3f
0.049663741470363745 -0.07725891722473781 0.05617448444362179 -0.6176538435444934 0.09135278409393872 -0.27488146840022476 0.3028059555887118 -0.2473532792030026
0.008449308537389665 0.2158358481017387

blocks1.SCINet_Tree.SCINet_Tree_odd.SCINet_Tree_odd.workingblock.interact.level.phi.1.bias f8 [2]
00000000: 0745 0e44 b9d6 c8bf dd86 bcaa bcac ddbf
-0.19405284712824075 -0.4636680285785653

blocks1.SCINet_Tree.SCINet_Tree_odd.SCINet_Tree_odd.workingblock.interact.level.phi.4.weight f8 [1, 2, 3]
00000000: cdbe 434e c6f9 c5bf be0b ec66 30f3 ac3f
00000010: af1f 8351 3f77 cfbf 1e0a 0cff 4a92 d0bf
00000020: beb7 5bdc 60da c1bf fa6a 1deb a248 dbbf
-0.17168501683726448 0.05654288536427242 -0.2458266399391937 -0.25892901331840956 -0.13947687873536369 -0.4263083740276411

blocks1.SCINet_Tree.SCINet_Tree_odd.SCINet_Tree_odd.workingblock.interact.level.phi.4.bias f8 [1]
00000000: 8aa2 f105 4ceb c73f
0.18686819353321865

blocks1.SCINet_Tree.SCINet_Tree_odd.SCINet_Tree_odd.workingblock.interact.level.psi.1.weight f8 [2, 1, 5]
00000000: e29e e4bc 83a7 e13f 53cc 4853 ae18 c63f
00000010: bd62 257c b10d a23f e2e3 e406 df0d a1bf
00000020: 6612 7f63 1710 b9bf c7cd 5ee4 3ec3 c4bf
00000030: ff1d 81b8 40ad cd3f e7e2 422f 3db3 b1bf
00000040: 33a6 5878 8cb9 b23f ff92 41ac 9b05 913f
0.5516985596959467 0.17262820307368773 0.035260721592469825 -0.033308953849377834 -0.09790178469763475 -0.1622084250535478 0.23184975632669588 -0.06914122012939182
0.07314374864713429 0.016622955692940696

blocks1.SCINet_Tree.SCINet_Tree_odd.SCINet_Tree_odd.workingblock.interact.level.psi.1.bias f8 [2]
00000000: cd3f a440 ade3 d7bf 645d 00c0 19b0 e3bf
-0.37327128708511453 -0.615246653559478

blocks1.SCINet_Tree.SCINet_Tree_odd.SCINet_Tree_odd.workingblock.interact.level.psi.4.weight f8 [1, 2, 3]
00000000: 7a32 bf7d 0892 dcbf 8e8a edb7 80d0 d4bf
00000010: e39c 8625 44f8 debf d653 e66e 0240 c13f
00000020: f8b0 780c bb3d 52bf b68d f5a9 4fc1 babf
-0.4464131572720259 -0.3252260013743261 -0.4839029661620328 0.13476591506028396 -0.0011133505485175204 -0.1045121946277082

blocks1.SCINet_Tree.SCINet_Tree_odd.SCINet_Tree_odd.workingblock.interact.level.psi.4.bias f8 [1]
00000000: d82b 2f5a 9b68 e9bf
-0.794019390240801

blocks1.SCINet_Tree.SCINet_Tree_odd.SCINet_Tree_odd.workingblock.interact.level.P.1.weight f8 [2, 1, 5]
00000000: 6b7a 6cdc 157f c7bf f90b bfee dd85 6d3f
00000010: 8019 3219 f528 cbbf 711e f62f 4e71 d93f
00000020: f904 9907 3aac d1bf 3b51 502d 68a7 d8bf
00000030: 1936 e451 9d95 8fbf ebc1 d3ec d387 d93f
00000040: 8ed6 8bc8 e5f0 b2bf 56e6 1571 3370 c7bf
-0.18356583845975946 0.0036038717862267836 -0.21218742113360278 0.3975406139729563 -0.27613688222852734 -0.3852177088276851 -0.01542208582079767 0.3989152729764373
-0.07398830553196431 -0.18311160108332797

blocks1.SCINet_Tree.SCINet_Tree_odd.SCINet_Tree_odd.workingblock.interact.level.P.1.bias f8 [2]
00000000: fd97 0218 4de6 c9bf 4614 281a 16fc b8bf
-0.20234073326463423 -0.09759653223598361

blocks1.SCINet_Tree.SCINet_Tree_odd.SCINet_Tree_odd.workingblock.interact.level.P.4.weight f8 [1, 2, 3]
00000000: 6ecf 8f1d 9c57 ca3f 610e a667 4c3c c23f
00000010: 5276 0f6d 8acc b73f 9f7a 6f19 e16d b33f
00000020: dc0e 94a1 9d5d a63f f5e4 bc14 9c21 aa3f
0.20579863971181162 0.14246516285867286 0.09296479380233194 0.0758953749750426 0.043682981466216936 0.05103767159602938

blocks1.SCINet_Tree.SCINet_Tree_odd.SCINet_Tree_odd.workingblock.interact.level.P.4.bias f8 [1]
00000000: cefa 8ab0 8bcf b93f
0.10082314548615587

blocks1.SCINet_Tree.SCINet_Tree_odd.SCINet_Tree_odd.workingblock.interact.level.U.1.weight f8 [2, 1, 5]
00000000: 3ef4 63fc e0ca c3bf 52d8 bcec 0b96 dc3f
00000010: fb9b 5e0a a340 d33f d479 4071 aeb5 82bf
00000020: 95a4 789c 0392 d3bf dea1 3887 8ec7 d4bf
00000030: 1633 546c 0e60 b53f caa0 d5ab bd0f a1bf
00000040: 7692 0b83 7529 c0bf 54bd f195 9d46 dd3f
-0.15462887119056917 0.44665811652101184 0.3008201218858059 -0.009135592299625829 -0.30578699379345525 -0.3246799774665571 0.08349695343731542 -0.03332321856106686
-0.12626522921268063 0.45743503230092597

blocks1.SCINet_Tree.SCINet_Tree_odd.SCINet_Tree_odd.workingblock.interact.level.U.1.bias f8 [2]
00000000: 4942 3236 17eb cebf c7e1 c3a8 9bf9 e3bf
-0.24154939791016464 -0.6242197319216353

blocks1.SCINet_Tree.SCINet_Tree_odd.SCINet_Tree_odd.workingblock.interact.level.U.4.weight f8 [1, 2, 3]
00000000: 23a1 31c7 6211 dcbf 7c1e 1288 ad04 dabf
00000010: 2c61 c4ac 4bfb afbf 5288 0099 689f dabf
00000020: a1c0 66a9 3217 d1bf f9e1 0cbb d584 d6bf
-0.43856114819074515 -0.40653551376497155 -0.062464108314261274 -0.4159795278702677 -0.26704088729003145 -0.3518575979865371

blocks1.SCINet_Tree.SCINet_Tree_odd.SCINet_Tree_odd.workingblock.interact.level.U.4.bias f8 [1]
00000000: cbb3 06dc 072a d73f
0.361940350407903

blocks1.SCINet_Tree.SCINet_Tree_odd.SCINet_Tree_even.workingblock.interact.level.phi.1.weight f8 [2, 1, 5]
00000000: bb4f bde6 b927 d4bf 8d29 f04b c700 8fbf
00000010: 8bd0 7174 7b17 d13f bf1a 7e17 4c9c d23f
00000020: 7a59 52c4 3c1c 9f3f bca5 6dc6 c68b d73f
00000030: f20f 9822 43fb ba3f db40 2d5e 6983 b23f
00000040: 29ce 7d6b bbf2 b73f 22cc 20ce db35 993f
-0.314924693423787 -0.015138203625629365 0.2670582425264533 0.29078962606619635 0.030381154520534782 0.3679062783981768 0.10539645762042918 0.0723176817821271
0.09354754804899613 0.02461951680761499

blocks1.SCINet_Tree.SCINet_Tree_odd.SCINet_Tree_even.workingblock.interact.level.phi.1.bias f8 [2]
00000000: f2ff eea8 de5f d1bf 5c05 7559 1b58 dfbf
-0.27147642609997924 -0.48975261436506456

blocks1.SCINet_Tree.SCINet_Tree_odd.SCINet_Tree_even.workingblock.interact.level.phi.4.weight f8 [1, 2, 3]
00000000: ae18 7458 83f3 b2bf 7aab 68b3 1844 e0bf
00000010: ba0d a9a6 fc88 e0bf 875d 9df2 581d d0bf
00000020: 16c5 fde3 25a7 c7bf 901e 1ffe 02bf dabf
-0.07402821454533878 -0.5083125595168518 -0.5167220358929889 -0.25179122631876577 -0.1847884524573053 -0.4179084283500538

blocks1.SCINet_Tree.SCINet_Tree_odd.SCINet_Tree_even.workingblock.interact.level.phi.4.bias f8 [1]
00000000: 7d3b 303d fdc4 9e3f
0.030048329219478632

blocks1.SCINet_Tree.SCINet_Tree_odd.SCINet_Tree_even.workingblock.interact.level.psi.1.weight f8 [2, 1, 5]
00000000: d549 b176 5592 b13f 7e95 206a ce8e cebf
00000010: 2ae2 b5ee bd30 c63f 312e 504b cbec a8bf
00000020: bc71 b9b0 2472 c83f cd18 4b68 85c9 d53f
00000030: f032 192d f69f c7bf f3da b115 9406 d5bf
00000040: d6f0 6afc b7e3 d1bf 5d7f bfa4 699b b4bf
0.06863912723318973 -0.23873310262676378 0.17336248546395555 -0.04868159574843068 0.19098337773438157 0.3404248732080191 -0.1845691414076991 -0.3285265170920148
-0.2795238461510626 -0.08049640915078045

blocks1.SCINet_Tree.SCINet_Tree_odd.SCINet_Tree_even.workingblock.interact.level.psi.1.bias f8 [2]
00000000: 3cc4 d809 cf5e c1bf 9049 6175 9368 cebf
-0.13570583325193464 -0.23756640654989924

blocks1.SCINet_Tree.SCINet_Tree_odd.SCINet_Tree_even.workingblock.interact.level.psi.4.weight f8 [1, 2, 3]
00000000: a375 cffd da8a 88bf e651 0afd 4f90 9dbf
00000010: 58e6 2612 b31d bd3f 2fa0 cda1 25de dd3f
00000020: 6a2b d6c7 7464 c23f 8e9d 9813 8750 dbbf
-0.011983595724752777 -0.028870820826869002 0.11373442834055802 0.46668377686592327 0.14369067914625627 -0.4267900172585194

blocks1.SCINet_Tree.SCINet_Tree_odd.SCINet_Tree_even.workingblock.interact.level.psi.4.bias f8 [1]
00000000: 074a 7f3f 5856 d8bf
-0.38027006340885844

blocks1.SCINet_Tree.SCINet_Tree_odd.SCINet_Tree_even.workingblock.interact.level.P.1.weight f8 [2, 1, 5]
00000000: 3b80 de4e 81d5 de3f 4e76 80ca 070c 87bf
00000010: 0567 fa41 950b c1bf d1b6 c458 c851 d6bf
00000020: 1201 b65c eb96 c4bf aeaa 1508 4662 cb3f
00000030: 170c a8d5 9029 d03f 4d57 ef19 2464 bfbf
00000040: c8fc e18c b9bc d93f 58a4 5b1f 254f 9cbf
0.4817813177305685 -0.011253414981236134 -0.1331659862669811 -0.3487416140440987 -0.16085569407369654 0.21393657107122038 0.25253697266470126 -0.1226217807119074
0.4021438480194317 -0.027645664252223007

blocks1.SCINet_Tree.SCINet_Tree_odd.SCINet_Tree_even.workingblock.interact.level.P.1.bias f8 [2]
00000000: 6620 38ac 0cd7 b5bf 98a2 2afa ec36 d7bf
-0.08531264500209232 -0.36272739820791733

blocks1.SCINet_Tree.SCINet_Tree_odd.SCINet_Tree_even.workingblock.interact.level.P.4.weight f8 [1, 2, 3]
00000000: 1b38 f775 4278 d63f 8465 c838 6ebc d33f
00000010: 4655 acf2 b40d b4bf 5c66 51c0 8d35 d63f
00000020: 82de 1ef8 cc6a d23f c0e9 c8eb 88c7 e33f
0.35109006424034 0.30837588830180374 -0.07833414959562388 0.34701865941096854 0.2877685950329366 0.6181072812244608

blocks1.SCINet_Tree.SCINet_Tree_odd.SCINet_Tree_even.workingblock.interact.level.P.4.bias f8 [1]
00000000: 5d7a 26ff 86e1 d0bf
-0.2637650958730882

blocks1.SCINet_Tree.SCINet_Tree_odd.SCINet_Tree_even.workingblock.interact.level.U.1.weight f8 [2, 1, 5]
00000000: 3bfb 464a 669e cb3f ffc7 7b77 2657 c73f
00000010: e47d 8344 1c28 d43f acaf 5555 4185 d0bf
00000020: 3df6 3ff8 1b9f 83bf 043a e47f 1264 d0bf
00000030: dd8e ccbd a18c 8e3f 9ce0 2f6f 7c1c cdbf
00000040: f134 436d 9099 a43f a7ae 7289 a0ac b4bf
0.2157714712793338 0.18234711488872787 0.31494814577851415 -0.2581332524630351 -0.00958082057331488 -0.2561079262676744 0.01491667137594937 -0.22743182591489564
0.04023410161753727 -0.08075908046401513

blocks1.SCINet_Tree.SCINet_Tree_odd.SCINet_Tree_even.workingblock.interact.level.U.1.bias f8 [2]
00000000: 03db afa2 a89b a6bf 91f1 08c5 d46e b0bf
-0.04415633188175685 -0.06419114885733836

blocks1.SCINet_Tree.SCINet_Tree_odd.SCINet_Tree_even.workingblock.interact.level.U.4.weight f8 [1, 2, 3]
00000000: 4a4f a6d6 59a2 b53f b138 e746 9600 d3bf
00000010: e727 d4ca e56e a8bf 4289 ab08 3b40 a93f
00000020: 47f4 115f 9827 a83f 7708 e159 6b03 a83f
0.08450852861852556 -0.2969108288206242 -0.04772108174263661 0.049318165596349064 0.04717708740734188 0.046901087495386067

blocks1.SCINet_Tree.SCINet_Tree_odd.SCINet_Tree_even.workingblock.interact.level.U.4.bias f8 [1]
00000000: 6639 17f3 b3ee c53f
0.171347135254517

blocks1.SCINet_Tree.SCINet_Tree_even.workingblock.interact.level.phi.1.weight f8 [2, 1, 5]
00000000: b962 0092 bc8c a8bf ca73 fc7d 18b8 d8bf
00000010: 0d3d f03f 82ff d23f 5886 46b1 a902 c63f
00000020: 3e68 0d06 9596 c93f a2bb 675c 1859 d9bf
00000030: 45e3 db77 d0bb bdbf aa46 0980 d7a4 d3bf
00000040: 4d8a 9d79 6d33 d4bf a289 be96 5739 c4bf
-0.04794873506779624 -0.3862363081296364 0.2968450188063379 0.17195626407651576 0.19990790172124834 -0.39606293701120354 -0.11614706922763414 -0.3069361448625424
-0.31563889385703164 -0.15799994335709494

blocks1.SCINet_Tree.SCINet_Tree_even.workingblock.interact.level.phi.1.bias f8 [2]
00000000: 0cfa 741a 9d55 d3bf 7b06 f679 d6bf c4bf
-0.3021004446381148 -0.16210442500237207

blocks1.SCINet_Tree.SCINet_Tree_even.workingblock.interact.level.phi.4.weight f8 [1, 2, 3]
00000000: 3480 7f91 5e06 a8bf 647b 5180 87ba b93f
00000010: 1813 afdb 61d9 dcbf 3d25 d76b 02b9 c43f
00000020: c8a6 d608 ad4d d53f 621f 3ece a1db a53f
-0.046923594723694256 0.10050246126909951 -0.4507679601049843 0.16189604058880916 0.33286596167691274 0.04269128458605455

blocks1.SCINet_Tree.SCINet_Tree_even.workingblock.interact.level.phi.4.bias f8 [1]
00000000: 99c1 da86 fdb3 eabf
-0.8344714769246365

blocks1.SCINet_Tree.SCINet_Tree_even.workingblock.interact.level.psi.1.weight f8 [2, 1, 5]
00000000: d3a2 a5e6 029e d6bf ff59 e21c b07e d8bf
00000010: fd00 b041 bc09 91bf 9828 0754 15d2 cdbf
00000020: 5700 2079 361c d4bf afff a6bf b438 d5bf
00000030: 3b9e 5fba 8113 c7bf 0c48 7b57 9d3a d5bf
00000040: 7439 ffb7 5033 dfbf f260 3e1b 509c cebf
-0.35339424633143074 -0.3827324182579161 -0.016638700017211672 -0.23297373392990006 -0.31422197178472316 -0.331586062584388 -0.18028279876965478 -0.3317025522529782
-0.48750703781561033 -0.239145291616985

blocks1.SCINet_Tree.SCINet_Tree_even.workingblock.interact.level.psi.1.bias f8 [2]
00000000: b580 3fb4 1ef1 d6bf 2f02 1d83 afcd ddbf
-0.3584667930827082 -0.46567905239138246

blocks1.SCINet_Tree.SCINet_Tree_even.workingblock.interact.level.psi.4.weight f8 [1, 2, 3]
00000000: eca8 fe65 fac9 c43f d691 03b8 d4a3 e53f
00000010: 6ea4 f001 228c b8bf f0c2 fc71 b5b2 e03f
00000020: 7af5 f123 5da9 c1bf 2bab 4a0b 7ef5 bb3f
0.16241388302052628 0.6762488931677193 -0.09588825747836591 0.5218150354686184 -0.13798107390531894 0.109214666134602

blocks1.SCINet_Tree.SCINet_Tree_even.workingblock.interact.level.psi.4.bias f8 [1]
00000000: 3129 d5e4 697c dabf
-0.4138436064428275

blocks1.SCINet_Tree.SCINet_Tree_even.workingblock.interact.level.P.1.weight f8 [2, 1, 5]
00000000: 1f4e 4730 9d71 c83f 1b37 d868 ce8a c5bf
00000010: 91d5 11a5 7898 c5bf d3d0 47e0 e99b cebf
00000020: 259f 1720 e1cb bb3f ddce ffd5 898f ddbf
00000030: 7cf1 051d 867c d8bf 9a2f ebd7 87e0 d8bf
00000040: e015 aa94 c80d 83bf 34f7 d579 d540 ac3f
0.1909672246680296 -0.1682985317169646 -0.1687155538562988 -0.23913310481260072 0.10857970269682633 -0.4618858899914196 -0.38260033449457587 -0.38870426259813373
-0.009303633725049332 0.05518214332822283

blocks1.SCINet_Tree.SCINet_Tree_even.workingblock.interact.level.P.1.bias f8 [2]
00000000: ffc9 e704 5610 c8bf 0a33 2a0f cc1b 7e3f
-0.18799853553316834 0.00735072813644134

blocks1.SCINet_Tree.SCINet_Tree_even.workingblock.interact.level.P.4.weight f8 [1, 2, 3]
00000000: ee15 9f65 4c92 d9bf ec91 cbb9 267c d5bf
00000010: cb6e c9a8 a702 ae3f 60ac 51db 444a c0bf
00000020: 609e 64fc fea1 c0bf 4ed3 2cde f5d2 d2bf
-0.399554347266842 -0.33570259231626554 0.05861400542627634 -0.1272665091413243 -0.12994372676733956 -0.29412600228106534

blocks1.SCINet_Tree.SCINet_Tree_even.workingblock.interact.level.P.4.bias f8 [1]
00000000: b39c 4480 8dd7 b0bf
-0.06578907376807556

blocks1.SCINet_Tree.SCINet_Tree_even.workingblock.interact.level.U.1.weight f8 [2, 1, 5]
00000000: 55cc b5a8 1919 da3f aad0 a4c8 55ad c63f
00000010: a84e 7c62 affb d13f 8d36 39f2 0269 db3f
00000020: 539d a078 a703 d13f 3674 c1f7 a0d7 e33f
00000030: c7fe 631c a888 db3f e059 2e22 2709 cd3f
00000040: 4e36 c38d e7d8 9cbf b93a 5687 c3b0 b5bf
0.40778199649429797 0.1771647672372912 0.28098663919193223 0.42828439383161127 0.26584803371448124 0.6200718726137271 0.43021586201210166 0.22684182328221336
-0.028171175029277067 -0.08472845129129326

blocks1.SCINet_Tree.SCINet_Tree_even.workingblock.interact.level.U.1.bias f8 [2]
00000000: b451 ca14 8076 8dbf 88f3 5412 ecaf 8dbf
-0.014386177668065915 -0.014495701131289854

blocks1.SCINet_Tree.SCINet_Tree_even.workingblock.interact.level.U.4.weight f8 [1, 2, 3]
00000000: 9bf1 cf5d 2ef4 d3bf 8a1e 6f2f dcc2 d1bf
00000010: 2ac8 3eff d672 dabf e0f7 4f18 0e47 99bf
00000020: e217 17fb 74fc bdbf e05e fcfa 2e99 c4bf
-0.31177863274913314 -0.277518316576313 -0.41325926710408345 -0.02468511603728263 -0.11713343744403873 -0.16092478995482562

blocks1.SCINet_Tree.SCINet_Tree_even.workingblock.interact.level.U.4.bias f8 [1]
00000000: 0814 4c95 9472 bdbf
-0.11502960820151042

blocks1.SCINet_Tree.SCINet_Tree_even.SCINet_Tree_odd.workingblock.interact.level.phi.1.weight f8 [2, 1, 5]
00000000: 4e6f a9d5 3d5b d1bf 6c40 d3b4 4393 d73f
00000010: eccc 7dc8 c32c 9b3f 9579 0db9 16d2 ca3f
00000020: 5027 67e6 676e e43f adc2 ae71 1a81 c6bf
00000030: ea42 f53e 12f4 d93f fda4 adde f845 c23f
00000040: b9b2 8d19 818d d4bf 5d9d 245f 6464 ca3f
-0.27119394174018374 0.36836331042014225 0.0265379515762562 0.20953640018246902 0.6384772777612202 -0.1758149199572662 0.40552192829367917 0.14276038048709686
-0.3211367368265133 0.20618872304587912

blocks1.SCINet_Tree.SCINet_Tree_even.SCINet_Tree_odd.workingblock.interact.level.phi.1.bias f8 [2]
00000000: 10a4 10c7 fa19 db3f ea31 213b 7de2 c6bf
0.42346066894475687 -0.1787869013518411

blocks1.SCINet_Tree.SCINet_Tree_even.SCINet_Tree_odd.workingblock.interact.level.phi.4.weight f8 [1, 2, 3]
00000000: 7863 5d2f e402 e6bf 851c 62fd 53fd c0bf
00000010: 2e4b 9927 fce9 e6bf b87f c677 c259 d63f
00000020: 4f3c d173 596c bd3f 2c42 32aa 9d40 b93f
-0.6878529477208835 -0.132730959627427 -0.7160626195348863 0.3492284936601169 0.11493453099795768 0.09864221005614898

blocks1.SCINet_Tree.SCINet_Tree_even.SCINet_Tree_odd.workingblock.interact.level.phi.4.bias f8 [1]
00000000: eaa0 901e 9849 edbf
-0.9152336689922127

blocks1.SCINet_Tree.SCINet_Tree_even.SCINet_Tree_odd.workingblock.interact.level.psi.1.weight f8 [2, 1, 5]
00000000: 2a4e 0d6b 8a6e babf 5407 92b3 8e9d 9bbf
00000010: 83db a2c1 332c b33f 5c6d 2a20 47ac d33f
00000020: c522 3b88 67cf b1bf f76e caad ade6 d33f
00000030: 9261 2bd1 b71e 923f d6be 9d7d 8f00 963f
00000040: e34e 89d6 b6dd c63f 7ce4 2032 9c33 dcbf
-0.103249217162834 -0.02696822138796702 0.07489322164006577 0.3073900045507878 -0.06957099033310062 0.3109544942069386 0.017695305005732083 0.021486513177875498
0.1786411807576008 -0.44065003295288085

blocks1.SCINet_Tree.SCINet_Tree_even.SCINet_Tree_odd.workingblock.interact.level.psi.1.bias f8 [2]
00000000: c979 8342 cf8c d03f e5b0 108c f992 e0bf
0.25859433646646984 -0.5179412589691564

blocks1.SCINet_Tree.SCINet_Tree_even.SCINet_Tree_odd.workingblock.interact.level.psi.4.weight f8 [1, 2, 3]
00000000: 05eb a8ad 9698 ddbf 032d 66f2 6663 a53f
00000010: 7b9a c0e2 d3f2 babf f0bf 33ac ae97 bd3f
00000020: a397 4e3d 015a c63f bd1f 8ab2 6103 dfbf
-0.4624382682701909 0.041774003114449364 -0.10526775632806988 0.11559573845056526 0.1746217297888367 -0.48458139834883324

blocks1.SCINet_Tree.SCINet_Tree_even.SCINet_Tree_odd.workingblock.interact.level.psi.4.bias f8 [1]
00000000: 4a21 f5a1 ff18 e7bf
-0.7218015826447666

blocks1.SCINet_Tree.SCINet_Tree_even.SCINet_Tree_odd.workingblock.interact.level.P.1.weight f8 [2, 1, 5]
00000000: dc70 5fc4 075d d5bf 4f10 ca05 cee8 d83f
00000010: 160b 62c1 9b46 abbf 0698 12ce 16ea dc3f
00000020: b652 bb1c 880d e33f 4c5f 641f 79d1 c8bf
00000030: f535 f8c5 32bc c23f 015c c1f1 906d af3f
00000040: a6c2 b143 e41c b33f ad07 cb1f 2ed4 b9bf
-0.33380312134774015 0.3892092758690113 -0.05327307448989964 0.4517876636913346 0.5954018174330347 -0.19389261277023662 0.1463683573387439 0.06138279868235231
0.074659601714084 -0.10089386249731432

blocks1.SCINet_Tree.SCINet_Tree_even.SCINet_Tree_odd.workingblock.interact.level.P.1.bias f8 [2]
00000000: 4b65 4f2a 7d63 d6bf 9425 7635 d5c6 d9bf
-0.3498223221955256 -0.4027607938847606

blocks1.SCINet_Tree.SCINet_Tree_even.SCINet_Tree_odd.workingblock.interact.level.P.4.weight f8 [1, 2, 3]
00000000: 21fc e97d 0aa1 cbbf 9779 c2db 26bf dbbf
00000010: 7edd ab63 cf76 d8bf 25e0 56ac 702c aabf
00000020: 89d5 7059 7714 d23f eda1 82b3 742d 62bf
-0.21585208080429744 -0.4335419794168955 -0.3822515939095509 -0.05112030128242421 0.28249915823411037 -0.002218940670065664

blocks1.SCINet_Tree.SCINet_Tree_even.SCINet_Tree_odd.workingblock.interact.level.P.4.bias f8 [1]
00000000: cbf1 bda0 7ea8 99bf
-0.02505681854334955

blocks1.SCINet_Tree.SCINet_Tree_even.SCINet_Tree_odd.workingblock.interact.level.U.1.weight f8 [2, 1, 5]
00000000: eb14 49f9 3a5e dfbf f7b1 063f 6312 cbbf
00000010: d101 2382 1d90 c8bf f702 b7b4 d750 cf3f
00000020: 90a6 5da7 9bf9 e83f 1566 848f 56f5 e33f
00000030: b820 8a20 b1b9 cc3f 09c6 53b4 0ae9 c1bf
00000040: 5919 1354 8cc3 b13f 0751 55cf a9a8 bebf
-0.4901263651302787 -0.21149864747475508 -0.19189804891904186 0.24465462039918126 0.7804697293151595 0.6236985018796896 0.2244168671497897 -0.13992437176743547
0.06939007809260057 -0.1197610980210052

blocks1.SCINet_Tree.SCINet_Tree_even.SCINet_Tree_odd.workingblock.interact.level.U.1.bias f8 [2]
00000000: 89e7 92d6 8457 c0bf e2ab 3731 89ed c5bf
-0.1276708648418288 -0.17131152060696225

blocks1.SCINet_Tree.SCINet_Tree_even.SCINet_Tree_odd.workingblock.interact.level.U.4.weight f8 [1, 2, 3]
00000000: 9fe5 c69f 7d90 e93f 1a61 bf5c 9413 da3f
00000010: 6f65 3d6f d04f eb3f c404 9b5c 8d11 ce3f
00000020: 5f90 f137 1e21 d63f 8154 0878 704d e43f
0.79888802725252 0.40744504029636774 0.8534929440167341 0.2349106504607673 0.3457713648151692 0.6344530434022461

blocks1.SCINet_Tree.SCINet_Tree_even.SCINet_Tree_odd.workingblock.interact.level.U.4.bias f8 [1]
00000000: d898 bc2c 93c7 d03f
0.26218108528918327

blocks1.SCINet_Tree.SCINet_Tree_even.SCINet_Tree_even.workingblock.interact.level.phi.1.weight f8 [2, 1, 5]
00000000: 6f95 0013 06da ba3f ddc4 43e5 d8ff a43f
00000010: 5dba 3986 ffb2 a63f 97f5 91b9 f56b c43f
00000020: 31c5 67e5 ea56 da3f 042f 5a19 3110 b33f
00000030: 2ca6 5877 cc34 bebf fa9b 47df a84c 7e3f
00000040: abdb a3d9 624e d8bf ecc5 8797 2108 d93f
0.10488927806780678 0.04101445959703096 0.044334397444676134 0.15954467354815158 0.41155502703539343 0.07446581715538164 -0.11799314416625667 0.007397327095964629
-0.37978430990136286 0.3911212901867589

blocks1.SCINet_Tree.SCINet_Tree_even.SCINet_Tree_even.workingblock.interact.level.phi.1.bias f8 [2]
00000000: 1ba9 f821 a923 c93f 7f5b b7e3 8825 83bf
0.1964007774234425 -0.009348935555790082

blocks1.SCINet_Tree.SCINet_Tree_even.SCINet_Tree_even.workingblock.interact.level.phi.4.weight f8 [1, 2, 3]
00000000: 8c99 eacc e9f2 e1bf 2def ba13 0d45 dcbf
00000010: d6e2 ab86 e3fc b3bf 4535 a585 76f2 acbf
00000020: 326a b422 d305 c83f 0b55 bb8b 25fb b73f
-0.5609025003694099 -0.4417145435979702 -0.07807752645374974 -0.05653734570896999 0.18767775721137664 0.0936759439603813

blocks1.SCINet_Tree.SCINet_Tree_even.SCINet_Tree_even.workingblock.interact.level.phi.4.bias f8 [1]
00000000: c394 a281 a4a6 e6bf
-0.7078421146331028

blocks1.SCINet_Tree.SCINet_Tree_even.SCINet_Tree_even.workingblock.interact.level.psi.1.weight f8 [2, 1, 5]
00000000: 45f4 e7db 2bec c2bf db3b a537 a710 c9bf
00000010: 92e6 7001 7f62 bbbf 9ce5 80f9 50e7 c2bf
00000020: d0d6 e1e4 4b18 cf3f 06b3 8d30 fd09 a8bf
00000030: e1b6 1639 091a d73f 91da f90b a5a1 bebf
00000040: 570f 07eb 00b0 ca3f 635f 33a0 7eac cabf
-0.1478323768386948 -0.19582071511328433 -0.10697168145352468 -0.14768421347416172 0.24292896915328877 -0.04695121019071817 0.36096411299773307 -0.1196540025938282
0.20849620319324444 -0.2083891184072356

blocks1.SCINet_Tree.SCINet_Tree_even.SCINet_Tree_even.workingblock.interact.level.psi.1.bias f8 [2]
00000000: 2025 9bf7 9b4e d7bf 60d4 53f3 d9ab e43f
-0.36417292766835097 0.6459779503335419

blocks1.SCINet_Tree.SCINet_Tree_even.SCINet_Tree_even.workingblock.interact.level.psi.4.weight f8 [1, 2, 3]
00000000: c6a2 7a16 aed0 af3f aefa 18d4 eb35 ab3f
00000010: 3f44 1068 9549 d33f a341 ed79 c88a bdbf
00000020: 7f85 c30c b159 e4bf 7981 78ad b0b7 e5bf
0.06213897728350086 0.05314576114732482 0.3013661876912614 -0.11539891220787139 -0.6359486817638497 -0.6786731136417493

blocks1.SCINet_Tree.SCINet_Tree_even.SCINet_Tree_even.workingblock.interact.level.psi.4.bias f8 [1]
00000000: 96ef 84c3 d619 efbf
-0.9719041651473954

blocks1.SCINet_Tree.SCINet_Tree_even.SCINet_Tree_even.workingblock.interact.level.P.1.weight f8 [2, 1, 5]
00000000: c490 f69c 74c3 cebf cbf2 4ba9 54c0 c0bf
00000010: 59b6 c66e f3bf c73f c24c 118a 8a19 c93f
00000020: 10e9 c6fd 4672 a83f 115b be14 94e2 d13f
00000030: 0a36 0503 735d c83f 19bd c9cc 5ba6 d33f
00000040: 6d46 0cf7 043d e33f 834a fcb9 d540 d63f
-0.24033982910362373 -0.13086946741522917 0.185545376863433 0.19609195462780887 0.04774686668266004 0.27945425058116863 0.19035184524038612 0.30702872275192444
0.6011986565737978 0.34770720636985447

blocks1.SCINet_Tree.SCINet_Tree_even.SCINet_Tree_even.workingblock.interact.level.P.1.bias f8 [2]
00000000: c28f faa1 4d43 503f ed6a 84e6 ce20 c2bf
0.0009926088459133319 -0.1416262269566099

blocks1.SCINet_Tree.SCINet_Tree_even.SCINet_Tree_even.workingblock.interact.level.P.4.weight f8 [1, 2, 3]
00000000: db5f 725b e1fc ab3f 5f84 867c 43c6 a23f
00000010: 2b4c 2c2b 71bb a63f 430e a197 f16c d73f
00000020: a23c 8d45 0540 da3f ee9c 23e6 9da5 db3f
0.05466369859021799 0.036668881369458665 0.04439881946577658 0.3660243969681895 0.4101575068679698 0.43198344683192047

blocks1.SCINet_Tree.SCINet_Tree_even.SCINet_Tree_even.workingblock.interact.level.P.4.bias f8 [1]
00000000: 6770 2ac3 465f d6bf
-0.3495652109065816

blocks1.SCINet_Tree.SCINet_Tree_even.SCINet_Tree_even.workingblock.interact.level.U.1.weight f8 [2, 1, 5]
00000000: 9e0a cab4 bd01 d33f 24dc 5121 555a d23f
00000010: 1a85 5e0b 720e 2cbf 9ccb be72 d1b7 d7bf
00000020: 5fce 0fb9 7625 dbbf f5f9 1b06 39df d63f
00000030: e7cb 371f 6bb0 b3bf fba4 8689 8ce3 d03f
00000040: 198a a568 465d ca3f 6272 0899 f572 d6bf
0.2969812646407862 0.28676346067317326 -0.00021405355590523799 -0.37059436994166517 -0.4241616065257627 0.35737443539247177 -0.07691068184048754 0.2638884871508506
0.20597152814578193 -0.3507665628874631

blocks1.SCINet_Tree.SCINet_Tree_even.SCINet_Tree_even.workingblock.interact.level.U.1.bias f8 [2]
00000000: 2b3a 49c3 2bc4 b1bf b82c 10d7 2069 90bf
-0.06939958112455062 -0.01602603256837362

blocks1.SCINet_Tree.SCINet_Tree_even.SCINet_Tree_even.workingblock.interact.level.U.4.weight f8 [1, 2, 3]
00000000: 7adc ca54 8139 b2bf c404 c6fd a981 c3bf
00000010: ec9c 1f39 181a debf 4704 b57b c610 e1bf
00000020: 4aea aac6 7fa1 a03f 9c4a 10b3 4aa3 a33f
-0.07118995971801381 -0.15239453212055853 -0.4703426893087925 -0.5332977691797475 0.03248214054243144 0.03835519252620154

blocks1.SCINet_Tree.SCINet_Tree_even.SCINet_Tree_even.workingblock.interact.level.U.4.bias f8 [1]
00000000: df72 346c eef6 d43f
0.32757149283297154

projection1.weight f8 [24, 48, 1]
00000000: f3f0 5229 292a 6a3f c5a2 2ab4 ddee 7e3f
00000010: 5dd0 23cb cc37 29bf 6c88 e11a 7db9 88bf
00000020: 22d3 80fe 7eb9 653f c813 b060 020f 76bf
00000030: 4e47 3433 15d1 853f dbb1 9f47 c862 66bf
00000040: 9ffe 59f9 6278 7fbf c717 dfb8 d5ca 903f
00000050: d008 668c c4b8 583f ed5e c080 8993 8bbf
00000060: 62b9 9de4 b78e 41bf e9e4 3484 95a7 6bbf
00000070: 98be 2784 f125 6d3f e24c d509 6e52 6ebf
00000080: ae37 3c50 042a 86bf 98a9 a195 dcde 913f
00000090: c2b8 12ef 8f3e 83bf 14fe b73c b53a 8abf
000000a0: 978a b481 ba6a 29bf 6297 e730 ca4c 713f
000000b0: 1498 4595 8e2a 8d3f 619d 2a3c b3d3 63bf
000000c0: 0929 03be a1d8 90bf f585 c32b 319a 963f
000000d0: 27b6 dd71 7c75 7bbf 773e 577f 69cc 96bf
000000e0: 928d 195f 72fb 683f 74f6 bf26 a199 723f
000000f0: fd29 73b1 61de 943f f2c4 3b39 08c5 7bbf
00000100: 34d5 f67e af6a 7fbf ff95 4004 e18f 833f
00000110: 3849 4f22 6685 743f efa6 d055 eb88 9dbf
00000120: c643 9d41 9106 873f 1f38 b417 6f05 513f
00000130: a2f3 dc20 e364 ae3f 2dde 895b cf53 a3bf
00000140: 59d7 9b35 a3b5 a93f 86db 713e 770c a13f
00000150: 4936 f656 91aa 903f e0c6 a560 da14 9bbf
00000160: 8ca1 cc3e 4b1c 79bf 98fc df58 c968 ba3f
00000170: 2321 0dfd 71e1 cc3f 1b46 6e39 d6c6 d23f
00000180: b319 32e0 df92 583f 0a08 7c6d e5ed 953f
00000190: 3ad0 d7e2 c130 6cbf 0eff fb4f 58f2 6cbf
000001a0: 160c e92c 0a8c 58bf 51e4 2063 315b 803f
000001b0: d90a a836 8c6c 8d3f 88e6 63bc fb80 613f
000001c0: 65ee 6fe7 b238 90bf 08ce 2254 b945 733f
000001d0: 55ce 8be2 f543 81bf 12df 2866 ddfa 8abf
000001e0: 5e4c 2cd2 f899 7ebf f4c6 e10c 7e60 4e3f
000001f0: 86e6 5e34 2e1a 723f 2508 8503 a0b5 71bf
00000200: e871 04a0 4d13 6bbf 7367 b426 1de4 813f
00000210: 79a2 c508 35f8 8cbf 0471 f618 52f9 92bf
00000220: 9c69 61f6 6a34 7cbf 0a61 3081 d1a3 793f
00000230: 1608 f317 50b3 923f d2d6 881a 9cb0 74bf
00000240: 2683 902d 0e53 80bf 6b9f 71d8 0af1 923f
00000250: 642d 529b 40f9 71bf d12a d34d 6d24 73bf
00000260: 94d3 7b62 3548 903f f880 3bf2 90dd 763f
00000270: 3259 1559 34cc 8b3f beb1 5900 984f 6fbf
00000280: 5617 fdaf 7e61 623f 3787 3f1e 181e 863f
00000290: eb82 b32e 7af3 7b3f 384d df07 b233 9bbf
000002a0: a21f c3a6 9f35 833f 6824 f41c ccf9 1e3f
000002b0: cd5b 150f de42 a63f 3243 72ac d736 a0bf
000002c0: 7c29 a75f 5b4b 973f f423 df94 c518 a83f
000002d0: ac36 324f 4ed7 8f3f b296 2bb9 c6a5 9dbf
000002e0: 32a5 5bf5 bc33 40bf 7081 4898 2478 b13f
000002f0: a871 6a3a 48ad cb3f 36ba 971f 5d43 d33f
00000300: 7bd2 bedd c488 5ebf 1d67 6559 2928 763f
00000310: ddef 92e0 0ff2 6bbf 2f4e 8158 5741 76bf
00000320: 551c b18b 4039 613f da7b b920 c592 5cbf
00000330: c67b a23b 9383 7fbf c04e 30c5 0473 f1be
00000340: e31f 2be9 3444 80bf 6e00 a714 873a 913f
00000350: a3db 6ce1 ebdd 5ebf ccaa 800e 652c 72bf
00000360: 6e9d f4d7 0b89 753f 3009 4a33 4095 61bf
00000370: 3d3b a195 85a3 823f b095 bf96 beda 613f
00000380: b42c 80a0 51b6 2cbf 9b81 55fd c54b 8d3f
00000390: 1d1f d14a a7f8 613f ffb9 ba61 2c9a 87bf
000003a0: ba7b 9245 d750 653f fa2c 3689 ef29 8d3f
000003b0: 3c7c 161e 3c95 8f3f 1450 1387 3d06 35bf
000003c0: df0d cde5 c9d4 753f b199 9c82 2734 903f
000003d0: c78e bebc 308a 8fbf 4bed 172c 9f14 89bf
000003e0: b6f8 cb01 b78d 393f f974 2ac7 4215 5d3f
000003f0: c33f 6b94 2bb8 503f b8de 645f 5dc3 81bf
00000400: 9cc1 e964 f09b 92bf 0440 83dd 2a20 943f
00000410: 320a 7100 161d 99bf 5f17 ffe9 2ddd 90bf
00000420: 737a 9b51 b773 2ebf 0d61 be29 6cb4 803f
00000430: 3e38 e27f b08d 943f 67c9 6db4 020e 99bf
00000440: 6087 8693 d802 7bbf 35c9 3118 e330 9d3f
00000450: afde 868b 60e1 8c3f 4340 710c fd3d 9ebf
00000460: b856 ce8c c3ca a73f 242f 0c1a 62d8 ac3f
00000470: eead c69a 0f21 c83f 2921 fc6a ab57 d43f
00000480: 5b98 57ee 7e04 60bf 02de c6b4 cd91 753f
00000490: af33 8a0b 3e99 74bf eb79 7bc2 2638 7abf
000004a0: 8b6e 353c c698 75bf aba2 bd5f aeb5 70bf
000004b0: 3240 c7c4 817e 57bf 1c26 7ec3 49a2 6abf
000004c0: d390 a6b1 08ed 6abf 695d 5b9c 07e7 8e3f
000004d0: df8a 3baa 41bc 79bf 7122 cf22 b526 7bbf
000004e0: e3fd 78e7 f177 78bf dbc2 2e64 1b39 613f
000004f0: bc75 684f ec22 7e3f a04c 6b67 a16c 653f
00000500: cf91 3662 0e1c 773f 8c75 f429 46e7 903f
00000510: 9e3b 88ba 7fc8 783f dd5a e495 f5ca 92bf
00000520: dc11 0294 3afe 343f fe47 9d52 29c3 6f3f
00000530: 50a7 afe0 302a 713f 5f8c 0ed5 6816 7abf
00000540: 89a4 0eed 5595 62bf 506c ab58 3a6a 57bf
00000550: 4a84 3fad 97fe 85bf 2558 6ae8 b257 7a3f
00000560: e6e8 0b86 52c3 6e3f 84e9 9c5e 32cb 893f
00000570: c3b6 a5d4 4099 943f 49b7 369e 0591 81bf
00000580: 2c88 ca79 f23c 76bf 06c3 2c53 d3f6 853f
00000590: de75 bd1c 2d81 8fbf 9726 fe13 4393 9cbf
000005a0: de8e ea2b f156 7dbf a91a f1fb 2f74 8f3f
000005b0: d78c 82f7 9cb5 3a3f 0cef 6e6f 3861 82bf
000005c0: 99da 3365 e35c 88bf d1db 8381 f014 9d3f
000005d0: a37d 15d0 573f 87bf 2a7c 2d6a eeb2 873f
000005e0: bcf2 6dc7 090c 963f 4a70 486f 61d9 a83f
000005f0: 1f5e bb7d 95e1 c43f e59f 662f f37a d43f
00000600: 082a a435 94f9 3b3f 8348 e1fa 8dab 763f
00000610: 5fff f71b 8e30 80bf 6328 e1ed 87cb 513f
00000620: 7d21 995f d078 75bf dee4 da6b 3d55 803f
00000630: e0ac f6a4 3981 743f 857c 72f8 52c8 62bf
00000640: 6708 bb6d c1d1 95bf 9525 c3b8 0a6f 7d3f
00000650: 30be 820a 3219 75bf f001 c1f4 9df5 81bf
00000660: 2f85 5827 a62f 78bf 1bf2 6157 d420 723f
00000670: 3b22 1735 8b07 703f 5219 8d34 2c2d 53bf
00000680: e984 e700 8d81 5ebf 0719 c524 3bf7 783f
00000690: 3bd3 1bc3 90e3 793f 8c8d 797b 2af5 8dbf
000006a0: ab1c b118 c6f0 79bf 4bd8 c62c 149f 84bf
000006b0: fca5 b08e 2a15 453f b7dc 5de0 affb 373f
000006c0: 048f 4d08 b6ea 82bf f3ef cdea ca05 943f
000006d0: 05f1 1809 8fd6 523f 0fae 866c 9850 7a3f
000006e0: 2e64 2b46 bba9 8e3f a1b8 f35c 0bf7 933f
000006f0: 8ae7 92bb c76b 7a3f 02e1 5f39 fe6f 7a3f
00000700: 3862 40cb 3c8e 773f 5edc d23e 9e89 8a3f
00000710: 8088 62f6 ea43 6dbf 0a82 85f4 766b 89bf
00000720: b003 1ee8 189a 32bf a707 720d 2dfe 893f
00000730: 6d02 777f ccc2 8fbf 0dc9 76b7 48f4 7d3f
00000740: c023 4942 7559 73bf de8e e3a4 8c02 953f
00000750: f898 7a16 0870 803f 69de db40 568b a0bf
00000760: 3eea 0105 0968 a13f 7df3 8afe 21fc bd3f
00000770: 6972 be2f 0327 b33f 00d7 cda7 9bea d33f
00000780: 863e 43cf dde8 7ebf fdcb aa28 346a 843f
00000790: f3ab 9913 6139 83bf 4be4 f917 afb5 75bf
000007a0: 4794 04b5 281f 67bf f62f 91db 27ab 29bf
000007b0: 4838 5e8c 0fa6 85bf adbc c2f5 ba30 6f3f
000007c0: 8c0b cb5b 2d01 49bf c94c 09db d194 893f
000007d0: 14ea 5a0e 7163 73bf a655 0423 dc78 5fbf
000007e0: d8e3 16e2 9956 78bf 65ec fa2f d9f7 723f
000007f0: abbf 0587 c3e7 723f 4e3d 9f1c 6c4f 833f
0.003193931954767243 0.007552019148228954 -0.00019239783211555647 -0.012072541601984642 0.0026519279818110345 -0.005385407722319387 0.010652700066689082 -0.0027326499666655408
-0.007683168999960493 0.016398753555925596 0.0015088958185463415 -0.013464998475725543 -0.0005358121791070698 -0.0033758087389769054 0.003558131896390492 -0.00370141498448505
-0.010822328280052886 0.017451712258130664 -0.009396671756203626 -0.01280728904293852 -0.00019391562168731967 0.004223623093343539 0.014241327219405554 -0.002420282429131213
-0.01645138475650135 0.022072571083191012 -0.006703840362985803 -0.02226414527632278 0.0030495866601982302 0.004541043756032804 0.0203795685345458 -0.006779701350511079
-0.007670102625913434 0.009551771108884386 0.00501003166296448 -0.028842618096098723 0.01124299508561134 0.0010388932121858719 0.0593634584060745 -0.03774879448331734
0.050213909429585875 0.03329823148026549 0.016275664265370336 -0.0264467355240815 -0.006130498816482432 0.1031614152889112 0.22563004356403224 0.2933860359999884
0.0014998613631021895 0.02141531449070303 -0.0034412180746077577 -0.003533527837021106 -0.0014982318276828325 0.007986436689053774 0.01436719457433837 0.0021366993634018318
-0.01584128892498739 0.00470516580587655 -0.008430405594004467 -0.013173799209752288 -0.00747105785082444 0.0009270301323011918 0.0044194989076743515 -0.004323601773935014
-0.0033051029314619014 0.00873587393157369 -0.01414529259700824 -0.018529207967376685 -0.00688592703053317 0.006259745004193693 0.01826214929747757 -0.005051240711102261
-0.007970915570753311 0.018497628651317138 -0.004388096208582357 -0.0046734113395340985 0.015900453697173925 0.0055823957406746436 0.013573082893952735 -0.0038221329476099955
0.002243754803120372 0.010799587653255933 0.006823994898895273 -0.02656438992546592 0.00937962272327281 0.00011816318805214917 0.04347890791057516 -0.03166841487939677
0.02274840136832655 0.04706399385720053 0.015547382156252475 -0.028952698757072688 -0.0004944489143926865 0.06823948591091322 0.21622565128644777 0.3009865578195873
-0.0018636629601875 0.005409394760443023 -0.0034113226034531 -0.005433407968741074 0.0021024952561990253 -0.0017439770771472325 -0.007693839195922208 -1.6640941179770245e-05
-0.007942593923317481 0.016824827800292423 -0.0018839648743786761 -0.004436869385282715 0.005257650627107464 -0.0021463636315398812 0.009100955609168454 0.0021795008124054424
-0.00021905657217788854 0.014304682534828575 0.0021937625338387516 -0.011524531109299295 0.002602024510067716 0.014240142226091813 0.015421361606796073 -0.00032080652370081284
0.005329884207472684 0.015823953005701778 -0.015400295982380808 -0.012246364148259877 0.00038991659111776587 0.0017750885132621892 0.0010204721053703604 -0.008673409913725436
-0.018172985228774516 0.019653959055006012 -0.02452501657195167 -0.016468732268342886 -0.00023233044412669968 0.008156628631511365 0.020071752362632582 -0.024467508566382714
-0.006594511033115896 0.028506801940644883 0.014101747758885478 -0.0295333422512274 0.046468840540155154 0.05633837287868307 0.18850894029070225 0.31785092780821117
-0.0019552687760891314 0.005266002216039125 -0.005028955806335596 -0.006401206402840458 -0.005272650104725006 -0.004079514644992936 -0.001433970191204292 -0.0032512131401219013
-0.0032868547252339147 0.015089091738828402 -0.006283051017563961 -0.006628711283106812 -0.005973763406984275 0.0021024260508614007 0.00735752400080741 0.002615275613928228
0.0056419908391131665 0.01650724059174062 0.00605058568954933 -0.01835235335701212 0.0003203289998128503 0.0038772399028994533 0.004190627029837149 -0.006369027615536898
-0.002268474411228076 -0.001429135302422297 -0.010739502882588198 0.006431292399289777 0.0037552463330686623 0.012594598305089695 0.020115864733660126 -0.008577388659286493
-0.005429217501530952 0.010724688506884583 -0.015383102836206083 -0.02790551003957961 -0.0071629925502383045 0.015358328701166117 0.00040755350301875437 -0.008974495793033131
-0.011895920301396233 0.02840019026276847 -0.011351285970419072 0.011571753134999769 0.02153029708596209 0.048533482393594854 0.16313427581074877 0.32000426892272876
0.0004268633689582806 0.005534700974822229 -0.007905111530817242 0.0010861232217558518 -0.005242170294487256 0.007975082258200702 0.005006051228899383 -0.0022927876012342496
-0.021307966539787417 0.007185975915669292 -0.005150981400376106 -0.008769258529469831 -0.005904816663617126 0.004425839861252469 0.003913444308132836 -0.0011704379741828874
-0.0018619420039772078 0.006095152883352612 0.006320538975832342 -0.014627773183014246 -0.006333135427730212 -0.010069043747403713 0.0006433923530312908 0.0003659538636990411
-0.009236738327394807 0.019553347188306657 0.0011497876006521534 0.006424518018700378 0.014972174719718092 0.019497087047903098 0.0064504434641835615 0.006454461157766158
0.005750882603046174 0.012957798282839213 -0.0035724248037505846 -0.012412003838734104 -0.00028384311746526125 0.01269183347017473 -0.015508268012923676 0.007313045548857267
-0.004723985712708989 0.020517537654895494 0.008026183305741771 -0.03231305639013444 0.03399685083509894 0.11712849106238639 0.07481403270362254 0.3111943377219717
-0.007546297496631054 0.009968192568839735 -0.00938678589883144 -0.005300220450970515 -0.002822474962288743 -0.00019583570045467153 -0.01057064196700365 0.0038074161112358813
-0.0007630797841432376 0.012490882393797158 -0.004733506799022642 -0.001920905091599459 -0.0059419642506605905 0.0046308978923504706 0.004615558413533376 0.00942882978770734
