exp/data_checkpoints/Model_hs1_bs64_e10/checkpoint.pth (torch, 100025 bytes, 114 tensors)

inv_timescales f8 [1]
00000000: 0000 0000 0000 f03f
1.0

blocks1.SCINet_Tree.workingblock.interact.level.phi.1.weight f8 [1, 1, 5]
00000000: 8ba7 b81d aab1 c0bf e552 c1ea b04b e0bf
00000010: 3cc6 b209 b82f 9a3f 01bf 11be 8084 be3f
00000020: 64ce 2b56 4a71 b43f
-0.13042189074741048 -0.5092396340429245 0.025572658149661573 0.11920933380474354 0.07985367397105275

blocks1.SCINet_Tree.workingblock.interact.level.phi.1.bias f8 [1]
00000000: 2de8 b8e1 161c cbbf
-0.21179471990200352

blocks1.SCINet_Tree.workingblock.interact.level.phi.4.weight f8 [1, 1, 3]
00000000: 0ef0 2e22 2bc5 a8bf b38a f8e1 980f c3bf
00000010: 3780 af00 b7e3 ca3f
-0.048379276201984664 -0.14891348870977125 0.21007430585359696

blocks1.SCINet_Tree.workingblock.interact.level.phi.4.bias f8 [1]
00000000: 9f3f 5e2e 3c0b f2bf
-1.1277429400688346

blocks1.SCINet_Tree.workingblock.interact.level.psi.1.weight f8 [1, 1, 5]
00000000: fba5 729b 7022 c8bf e5f9 749a ea92 d4bf
00000010: 67be 2582 4035 e0bf d055 2966 c2b1 d5bf
00000020: a2a3 045f b50f af3f
-0.18855102148272337 -0.321467066609243 -0.5065004865591164 -0.3389745710058749 0.060666721199886156

blocks1.SCINet_Tree.workingblock.interact.level.psi.1.bias f8 [1]
00000000: 5165 a232 39b9 e6bf
-0.7101102818443598

blocks1.SCINet_Tree.workingblock.interact.level.psi.4.weight f8 [1, 1, 3]
00000000: a34b d0c2 1adf cd3f bdba 3533 bf9b f03f
00000010: 24db 66a0 abc1 ed3f
0.23337111008058029 1.0380241394411052 0.9298914082381526

blocks1.SCINet_Tree.workingblock.interact.level.psi.4.bias f8 [1]
00000000: edfd d4d5 9d27 dbbf
-0.42429300195723735

blocks1.SCINet_Tree.workingblock.interact.level.P.1.weight f8 [1, 1, 5]
00000000: 7c53 bcdc d736 b6bf 521e a3b6 499d ca3f
00000010: 26da 0e0b 8310 d83f f596 053f 796d e0bf
00000020: 736d 35f9 8d2c 82bf
-0.08677434100202491 0.2079250470908272 0.3760078056324424 -0.5133634787459572 -0.008874043624635708

blocks1.SCINet_Tree.workingblock.interact.level.P.1.bias f8 [1]
00000000: 61df b9a0 f9f7 9ebf
-0.03024282496923492

blocks1.SCINet_Tree.workingblock.interact.level.P.4.weight f8 [1, 1, 3]
00000000: 8d2d 3b24 072a bfbf 680b 9031 fb82 ee3f
00000010: ef02 06e6 4c4b e23f
-0.12173504480886362 0.9534889190693834 0.5716919415136469

blocks1.SCINet_Tree.workingblock.interact.level.P.4.bias f8 [1]
00000000: 83a5 e5c6 952b debf
-0.4714102213243551

blocks1.SCINet_Tree.workingblock.interact.level.U.1.weight f8 [1, 1, 5]
00000000: d1e5 3751 f631 c33f ef70 a216 2baa afbf
00000010: bdd8 d20c 8878 d23f 1274 2223 7077 ccbf
00000020: b6c5 667b 8492 d33f
0.14996222463359613 -0.06184515620518193 0.2886066556196843 -0.2223949595981201 0.30581771899150156

blocks1.SCINet_Tree.workingblock.interact.level.U.1.bias f8 [1]
00000000: 5fae 4ba7 f349 debf
-0.473263657927168

blocks1.SCINet_Tree.workingblock.interact.level.U.4.weight f8 [1, 1, 3]
00000000: c15e 2da6 5be4 c2bf 41ae 849b 075d ccbf
00000010: df88 3833 0b7a c5bf
-0.1475939332401506 -0.22158904164949614 -0.16778697968499665

blocks1.SCINet_Tree.workingblock.interact.level.U.4.bias f8 [1]
00000000: 556b c9c7 5b45 c23f
0.1427416539689498

blocks1.SCINet_Tree.SCINet_Tree_odd.workingblock.interact.level.phi.1.weight f8 [1, 1, 5]
00000000: 2cef 4c3a b7f4 d1bf afaf b481 b70f 8b3f
00000010: 883d 2580 9c00 a1bf db09 6f83 dacd 943f
00000020: 15ea 7ff6 9bb5 cdbf
-0.28056126302157014 0.013213571210677203 -0.03320778908038863 0.020316519043044195 -0.23210477386585696

blocks1.SCINet_Tree.SCINet_Tree_odd.workingblock.interact.level.phi.1.bias f8 [1]
00000000: 7242 a5f5 7c24 c0bf
-0.12611352915202506

blocks1.SCINet_Tree.SCINet_Tree_odd.workingblock.interact.level.phi.4.weight f8 [1, 1, 3]
00000000: 3e34 d0f5 a15e d13f 4b9a 70b0 1c3d a1bf
00000010: b061 364f 385e cebf
0.27140091901020813 -0.03366937307173553 -0.23725036495012608

blocks1.SCINet_Tree.SCINet_Tree_odd.workingblock.interact.level.phi.4.bias f8 [1]
00000000: 5a04 45c9 66f9 e4bf
-0.6554445200964765

blocks1.SCINet_Tree.SCINet_Tree_odd.workingblock.interact.level.psi.1.weight f8 [1, 1, 5]
00000000: 14c6 b6c7 6371 c43f 9a35 e6ee 2631 d4bf
00000010: 3f50 5bea 6eb4 bebf e16d 00b1 cb2b cf3f
00000020: b447 49a2 a952 dc3f
0.1597103810468502 -0.31550000505452547 -0.11994069310759502 0.2435240377679824 0.44254532669321667

blocks1.SCINet_Tree.SCINet_Tree_odd.workingblock.interact.level.psi.1.bias f8 [1]
00000000: aef9 d8f2 b60f debf
-0.4697091456945611

blocks1.SCINet_Tree.SCINet_Tree_odd.workingblock.interact.level.psi.4.weight f8 [1, 1, 3]
00000000: ea46 d0ae c56b c6bf 8d3c a09f 17b0 cabf
00000010: 6b6c 26b9 be00 db3f
-0.17516394649333417 -0.2084989098952729 0.4219204719644895

blocks1.SCINet_Tree.SCINet_Tree_odd.workingblock.interact.level.psi.4.bias f8 [1]
00000000: 75c6 022b 03e1 f3bf
-1.2424346618758169

blocks1.SCINet_Tree.SCINet_Tree_odd.workingblock.interact.level.P.1.weight f8 [1, 1, 5]
00000000: f4d8 53bf b133 dcbf ed3e ff90 78ed e2bf
00000010: 9951 ce50 a281 dfbf ee05 c7e7 0b4e ce3f
00000020: b5a0 7fe3 cdd2 dd3f
-0.44065517124489806 -0.5914881545995435 -0.49228723422245363 0.23675679032571345 0.46599147049574735

blocks1.SCINet_Tree.SCINet_Tree_odd.workingblock.interact.level.P.1.bias f8 [1]
00000000: 58d9 1d56 3b99 ae3f
0.059762815725593554

blocks1.SCINet_Tree.SCINet_Tree_odd.workingblock.interact.level.P.4.weight f8 [1, 1, 3]
00000000: 1135 f1ec c90b d2bf 73cc a985 819d dbbf
00000010: 09b3 82f3 db1c e0bf
-0.28196952952278403 -0.43148840001158034 -0.5035228496613807

blocks1.SCINet_Tree.SCINet_Tree_odd.workingblock.interact.level.P.4.bias f8 [1]
00000000: ce31 f448 f598 c3bf
-0.15310541212273993

blocks1.SCINet_Tree.SCINet_Tree_odd.workingblock.interact.level.U.1.weight f8 [1, 1, 5]
00000000: 16e9 83b4 e4fb c2bf 1a0e ffbd 685e 3bbf
00000010: 4e73 b580 ee93 d83f 6bef a66e 10dc c73f
00000020: 1ca6 b6f5 f26a d33f
-0.14831217588636808 -0.00041761452848396304 0.38402903145997846 0.18640332606252782 0.30340265269714606

blocks1.SCINet_Tree.SCINet_Tree_odd.workingblock.interact.level.U.1.bias f8 [1]
00000000: 0ec0 01ea 3ee8 e2bf
-0.590850312275508

blocks1.SCINet_Tree.SCINet_Tree_odd.workingblock.interact.level.U.4.weight f8 [1, 1, 3]
00000000: 99df 49b6 d070 cbbf 6604 bccc 7b2e de3f
00000010: e954 f818 36a8 e73f
-0.21438034916695584 0.47158713334653724 0.7392836082168773

blocks1.SCINet_Tree.SCINet_Tree_odd.workingblock.interact.level.U.4.bias f8 [1]
00000000: 81f7 66b1 db19 b8bf
-0.09414456444844001

blocks1.SCINet_Tree.SCINet_Tree_odd.SCINet_Tree_odd.workingblock.interact.level.phi.1.weight f8 [1, 1, 5]
00000000: feda cb06 f50f b8bf 3bfc 5380 0804 bfbf
00000010: e6a0 6a2d dbe3 d53f dbdd 8a52 4503 d5bf
00000020: 8bb8 e0c7 766c 9cbf
-0.09399348655629677 -0.12115529187211475 0.34203223643500136 -0.32832463322435296 -0.027757507276128506

blocks1.SCINet_Tree.SCINet_Tree_odd.SCINet_Tree_odd.workingblock.interact.level.phi.1.bias f8 [1]
00000000: 4f51 b278 c338 9ebf
-0.02951341079877184

blocks1.SCINet_Tree.SCINet_Tree_odd.SCINet_Tree_odd.workingblock.interact.level.phi.4.weight f8 [1, 1, 3]
00000000: 74ac 67e7 073c d0bf 5594 f5c9 a93b e0bf
00000010: ce05 f3fd c125 b3bf
-0.25366399381773097 -0.5072831100957368 -0.07479488801893483

blocks1.SCINet_Tree.SCINet_Tree_odd.SCINet_Tree_odd.workingblock.interact.level.phi.4.bias f8 [1]
00000000: 732d f907 416d e8bf
-0.7633366733293044

blocks1.SCINet_Tree.SCINet_Tree_odd.SCINet_Tree_odd.workingblock.interact.level.psi.1.weight f8 [1, 1, 5]
00000000: 5bd8 eb0a 37ff c8bf 09e2 c4a8 f009 d3bf
00000010: 57d3 770d 2af5 c53f ae30 a573 f104 dbbf
00000020: ae9d a0d5 3dbc 863f
-0.19528854401841297 -0.2974816940436829 0.17154431970234427 -0.42217670720561784 0.011101229745760968

blocks1.SCINet_Tree.SCINet_Tree_odd.SCINet_Tree_odd.workingblock.interact.level.psi.1.bias f8 [1]
00000000: 6181 d54c 13b8 d8bf
-0.38623507026024667

blocks1.SCINet_Tree.SCINet_Tree_odd.SCINet_Tree_odd.workingblock.interact.level.psi.4.weight f8 [1, 1, 3]
00000000: a1e6 c3c2 e42b d6bf ff8e b72d 8765 a0bf
00000010: 3703 9680 4753 e13f
-0.34642905254404793 -0.03202459748334085 0.5414159308857965

blocks1.SCINet_Tree.SCINet_Tree_odd.SCINet_Tree_odd.workingblock.interact.level.psi.4.bias f8 [1]
00000000: be58 5653 29aa dfbf
-0.49476082933814414

blocks1.SCINet_Tree.SCINet_Tree_odd.SCINet_Tree_odd.workingblock.interact.level.P.1.weight f8 [1, 1, 5]
00000000: fad6 a97c 905f a33f d61f d60b 746e cdbf
00000010: 5157 d720 0a61 c23f 803b 5fb4 db50 d8bf
00000020: 5f73 1a12 3211 dcbf
0.03783847352762666 -0.229933267383102 0.14358641246388484 -0.3799351941533402 -0.4385495354452384

blocks1.SCINet_Tree.SCINet_Tree_odd.SCINet_Tree_odd.workingblock.interact.level.P.1.bias f8 [1]
00000000: 2ce4 ff5b f883 9f3f
0.030776863684853037

blocks1.SCINet_Tree.SCINet_Tree_odd.SCINet_Tree_odd.workingblock.interact.level.P.4.weight f8 [1, 1, 3]
00000000: 4ea3 aa5a 1a1f d1bf 9266 b284 a74e c03f
00000010: efe7 cf48 d27f d2bf
-0.26752337316661545 0.12740034083690382 -0.2890516005569443

blocks1.SCINet_Tree.SCINet_Tree_odd.SCINet_Tree_odd.workingblock.interact.level.P.4.bias f8 [1]
00000000: c4c7 6c41 4b11 c93f
0.19584026999069526

blocks1.SCINet_Tree.SCINet_Tree_odd.SCINet_Tree_odd.workingblock.interact.level.U.1.weight f8 [1, 1, 5]
00000000: f732 09c5 a3dd 7a3f 56d5 4a34 40cd b8bf
00000010: e7db 14ab 75e2 d73f c541 0c21 8c51 c2bf
00000020: 05a5 7928 ab78 d5bf
0.006559028363494638 -0.09688187863033212 0.3731969996182997 -0.14311362851777978 -0.33549002602246986

blocks1.SCINet_Tree.SCINet_Tree_odd.SCINet_Tree_odd.workingblock.interact.level.U.1.bias f8 [1]
00000000: 9ae0 117c 7cc5 b1bf
-0.06941965130852382

blocks1.SCINet_Tree.SCINet_Tree_odd.SCINet_Tree_odd.workingblock.interact.level.U.4.weight f8 [1, 1, 3]
00000000: c6f1 af8d 33fe d9bf 5770 0a11 b208 dfbf
00000010: 3e06 b668 b64b b73f
-0.4061402209915993 -0.4849057356275401 0.09099903160497377

blocks1.SCINet_Tree.SCINet_Tree_odd.SCINet_Tree_odd.workingblock.interact.level.U.4.bias f8 [1]
00000000: c7f5 98a8 ff00 b13f
0.06642148843908223

blocks1.SCINet_Tree.SCINet_Tree_odd.SCINet_Tree_even.workingblock.interact.level.phi.1.weight f8 [1, 1, 5]
00000000: cad6 ae91 bc3a b93f 0b1d 3963 8d9a c03f
00000010: bc21 8f96 f346 c83f a2e5 1c17 7686 c4bf
00000020: 4e4e 7927 c0b9 d5bf
0.09855249935830127 0.12971656174543286 0.18966526843565912 -0.16035343292768994 -0.3394623170363261

blocks1.SCINet_Tree.SCINet_Tree_odd.SCINet_Tree_even.workingblock.interact.level.phi.1.bias f8 [1]
00000000: edfa 797e 190b b0bf
-0.06266936624340831

blocks1.SCINet_Tree.SCINet_Tree_odd.SCINet_Tree_even.workingblock.interact.level.phi.4.weight f8 [1, 1, 3]
00000000: 3d9d a661 dbc2 b63f bdea 2d20 d0d2 b9bf
00000010: b75e 08b4 2d71 d6bf
0.08891078123143799 -0.1008730009615801 -0.3506578691608228

blocks1.SCINet_Tree.SCINet_Tree_odd.SCINet_Tree_even.workingblock.interact.level.phi.4.bias f8 [1]
00000000: f7d9 e79b ad18 d4bf
-0.3140062353626542

blocks1.SCINet_Tree.SCINet_Tree_odd.SCINet_Tree_even.workingblock.interact.level.psi.1.weight f8 [1, 1, 5]
00000000: 43c2 7ec9 bd23 d53f 9194 3065 ee74 ac3f
00000010: 5fd7 d3e9 e927 c2bf 1e11 6003 fd56 b63f
00000020: 4b00 0877 b424 d1bf
0.33030647923718365 0.055579614498392556 -0.14184307019575734 0.08726483662036741 -0.26786529182573265

blocks1.SCINet_Tree.SCINet_Tree_odd.SCINet_Tree_even.workingblock.interact.level.psi.1.bias f8 [1]
00000000: 1adc 6e94 791a e43f
0.6282318018992357

blocks1.SCINet_Tree.SCINet_Tree_odd.SCINet_Tree_even.workingblock.interact.level.psi.4.weight f8 [1, 1, 3]
00000000: 1353 f7e3 2b14 ebbf e42f b117 12f2 e6bf
00000010: c8bf 2530 bc2d 9abf
-0.8462123348677743 -0.7170496428238917 -0.025565090597808454

blocks1.SCINet_Tree.SCINet_Tree_odd.SCINet_Tree_even.workingblock.interact.level.psi.4.bias f8 [1]
00000000: 15ad 4502 c9aa d1bf
-0.27604890081302474

blocks1.SCINet_Tree.SCINet_Tree_odd.SCINet_Tree_even.workingblock.interact.level.P.1.weight f8 [1, 1, 5]
00000000: 5e06 e21b 091f cd3f 7fba 5aaf fde3 c9bf
00000010: 8d92 ac75 4566 cabf 9204 a0e3 7a23 d0bf
00000020: 9543 a469 a309 aebf
0.22750963078947256 -0.2022702318403908 -0.2062460732060071 -0.2521655295277664 -0.05866728462763785

blocks1.SCINet_Tree.SCINet_Tree_odd.SCINet_Tree_even.workingblock.interact.level.P.1.bias f8 [1]
00000000: b41e b4fb 0310 c1bf
-0.13330125608648802

blocks1.SCINet_Tree.SCINet_Tree_odd.SCINet_Tree_even.workingblock.interact.level.P.4.weight f8 [1, 1, 3]
00000000: 6127 5c7d e53b bebf edc1 cd2a 5cf2 c9bf
00000010: 9153 b2e3 bd8e da3f
-0.11810144720598494 -0.2027087410929335 0.4149622653579224

blocks1.SCINet_Tree.SCINet_Tree_odd.SCINet_Tree_even.workingblock.interact.level.P.4.bias f8 [1]
00000000: 9feb 8314 7276 d8bf
-0.38222934726189267

blocks1.SCINet_Tree.SCINet_Tree_odd.SCINet_Tree_even.workingblock.interact.level.U.1.weight f8 [1, 1, 5]
00000000: d0a6 e1f9 0f4f e8bf 9b73 59b0 b50c c4bf
00000010: 64a9 5c40 917a ce3f c6f5 76b1 78c5 e13f
00000020: 8525 1c9a 606a c83f
-0.7596511726853468 -0.15663786993800674 0.23811545984910787 0.5553554025752241 0.19074637913608342

blocks1.SCINet_Tree.SCINet_Tree_odd.SCINet_Tree_even.workingblock.interact.level.U.1.bias f8 [1]
00000000: 2ce7 5253 54ea c2bf
-0.14777616566225882

blocks1.SCINet_Tree.SCINet_Tree_odd.SCINet_Tree_even.workingblock.interact.level.U.4.weight f8 [1, 1, 3]
00000000: 22ed a236 717a dd3f 6a89 d66d e42f db3f
00000010: f149 a5a6 30cb e23f
0.46059828124607993 0.424798114074426 0.5873034720228231

blocks1.SCINet_Tree.SCINet_Tree_odd.SCINet_Tree_even.workingblock.interact.level.U.4.bias f8 [1]
00000000: 0dd1 cfc8 9160 d03f
0.25589413271451705

blocks1.SCINet_Tree.SCINet_Tree_even.workingblock.interact.level.phi.1.weight f8 [1, 1, 5]
00000000: c018 d294 d42c c13f 99b5 7a70 295d a1bf
00000010: fcfa 4bcb ad45 b33f 6e32 512f 3973 c33f
00000020: e27f 521a baca c43f
0.13418061510691892 -0.03391389368094195 0.07528196538258308 0.15195383844765636 0.1624367359663657

blocks1.SCINet_Tree.SCINet_Tree_even.workingblock.interact.level.phi.1.bias f8 [1]
00000000: 3567 1210 95da ebbf
-0.8704324067977952

blocks1.SCINet_Tree.SCINet_Tree_even.workingblock.interact.level.phi.4.weight f8 [1, 1, 3]
00000000: 9cca 8018 0a45 ddbf 02e4 ec3e 4f46 e1bf
00000010: 6127 c1dd 6a68 e0bf
-0.45733883278732335 -0.5398327092181037 -0.5127462702887265

blocks1.SCINet_Tree.SCINet_Tree_even.workingblock.interact.level.phi.4.bias f8 [1]
00000000: c637 8749 9099 e63f
0.7062455593202166

blocks1.SCINet_Tree.SCINet_Tree_even.workingblock.interact.level.psi.1.weight f8 [1, 1, 5]
00000000: b863 022f fc5c d33f 0a7f 0015 3b44 ce3f
00000010: 7044 d67b 56c0 d83f b78b e70c 1caf c9bf
00000020: 6575 ff64 67da c63f
0.30255035963778765 0.2364572384403732 0.38673936932997943 -0.20065642004109716 0.1785401576188789

blocks1.SCINet_Tree.SCINet_Tree_even.workingblock.interact.level.psi.1.bias f8 [1]
00000000: 5553 7389 c83b dfbf
-0.4880238859453148

blocks1.SCINet_Tree.SCINet_Tree_even.workingblock.interact.level.psi.4.weight f8 [1, 1, 3]
00000000: b020 a6ea f905 d1bf be24 c383 61a4 d5bf
00000010: 7ad9 3a3e 4faa c5bf
-0.26598976054129775 -0.33815801494035813 -0.16925993479317097

blocks1.SCINet_Tree.SCINet_Tree_even.workingblock.interact.level.psi.4.bias f8 [1]
00000000: ebcd 2e2e f72b c13f
0.1341542220594499

blocks1.SCINet_Tree.SCINet_Tree_even.workingblock.interact.level.P.1.weight f8 [1, 1, 5]
00000000: c96d 05ea 29e7 d2bf 11f7 88c5 7c68 a4bf
00000010: f6a0 9068 504a b5bf 4e3f 561b 4bb1 d53f
00000020: f6d1 1ed7 9f50 da3f
-0.29535911420472566 -0.03985967551532899 -0.08316519310813306 0.3389461295091579 0.4111709214005538

blocks1.SCINet_Tree.SCINet_Tree_even.workingblock.interact.level.P.1.bias f8 [1]
00000000: cf83 564b 3155 e1bf
-0.5416494819111167

blocks1.SCINet_Tree.SCINet_Tree_even.workingblock.interact.level.P.4.weight f8 [1, 1, 3]
00000000: b558 0023 3dc2 c93f e5e2 a75f 7279 c73f
00000010: 1b21 471c fd9c de3f
0.20124019822168795 0.1833937613553395 0.47833183061131174

blocks1.SCINet_Tree.SCINet_Tree_even.workingblock.interact.level.P.4.bias f8 [1]
00000000: b7de 36b8 6992 e1bf
-0.5491226766525504

blocks1.SCINet_Tree.SCINet_Tree_even.workingblock.interact.level.U.1.weight f8 [1, 1, 5]
00000000: 85a9 ffa1 ba41 913f bf50 95a8 e7a3 afbf
00000010: 86a4 18e0 5158 d93f a3d9 e0ea cb86 ab3f
00000020: 99cd ab22 806e cebf
0.01685229886781194 -0.061797370270740164 0.39601561436081345 0.05376279108206752 -0.23774720852780432

blocks1.SCINet_Tree.SCINet_Tree_even.workingblock.interact.level.U.1.bias f8 [1]
00000000: f9bf 6fac 9a8f ddbf
-0.4618899043989582

blocks1.SCINet_Tree.SCINet_Tree_even.workingblock.interact.level.U.4.weight f8 [1, 1, 3]
00000000: 0696 4b79 1627 b0bf a235 455e df86 ccbf
00000010: d9e5 f5a1 367e ccbf
-0.06309643231687553 -0.22286598303837218 -0.22260172756413857

blocks1.SCINet_Tree.SCINet_Tree_even.workingblock.interact.level.U.4.bias f8 [1]
00000000: 2bd8 25e6 4fd6 b9bf
-0.10092639321177958

blocks1.SCINet_Tree.SCINet_Tree_even.SCINet_Tree_odd.workingblock.interact.level.phi.1.weight f8 [1, 1, 5]
00000000: c842 4a08 c7ac ebbf af9e f597 d71e d9bf
00000010: ca78 9d36 b0b3 b43f 4d22 5f10 f6dc babf
00000020: 259a 0294 315a e33f
-0.8648409997859625 -0.39250745620527544 0.08086682637574252 -0.1049341001481789 0.604759968836167

blocks1.SCINet_Tree.SCINet_Tree_even.SCINet_Tree_odd.workingblock.interact.level.phi.1.bias f8 [1]
00000000: 201e 1413 f984 cebf
-0.23843301230975644

blocks1.SCINet_Tree.SCINet_Tree_even.SCINet_Tree_odd.workingblock.interact.level.phi.4.weight f8 [1, 1, 3]
00000000: 329c 6069 d7fc d4bf 0ea6 6279 d3c1 cbbf
00000010: 9449 454f ba41 c7bf
-0.3279322175098428 -0.21685260226267683 -0.18169335241925622

blocks1.SCINet_Tree.SCINet_Tree_even.SCINet_Tree_odd.workingblock.interact.level.phi.4.bias f8 [1]
00000000: 551e 1a5a 8c0d a53f
0.0411189899432968

blocks1.SCINet_Tree.SCINet_Tree_even.SCINet_Tree_odd.workingblock.interact.level.psi.1.weight f8 [1, 1, 5]
00000000: 3268 b6a9 0838 e0bf bd7d 69b7 39f0 e1bf
00000010: aa5b 8e87 5fef b2bf efe4 7326 dcbf d03f
00000020: 46e4 b0fa 4ace d23f
-0.5068400683114815 -0.5605743963496291 -0.07396504458880196 0.2617102027430311 0.2938411186365254

blocks1.SCINet_Tree.SCINet_Tree_even.SCINet_Tree_odd.workingblock.interact.level.psi.1.bias f8 [1]
00000000: c0d1 c426 cca4 aabf
-0.05203855489017739

blocks1.SCINet_Tree.SCINet_Tree_even.SCINet_Tree_odd.workingblock.interact.level.psi.4.weight f8 [1, 1, 3]
00000000: fc58 c707 85e8 d3bf 55b0 c573 792d bcbf
00000010: a703 93e1 e1cb d53f
-0.31106687316550086 -0.11006888462515126 0.3405689909814619

blocks1.SCINet_Tree.SCINet_Tree_even.SCINet_Tree_odd.workingblock.interact.level.psi.4.bias f8 [1]
00000000: 0606 a494 6b7c dcbf
-0.44509400859541903

blocks1.SCINet_Tree.SCINet_Tree_even.SCINet_Tree_odd.workingblock.interact.level.P.1.weight f8 [1, 1, 5]
00000000: 3a1a 2722 1dd4 dd3f 56e4 e7d1 fe27 9cbf
00000010: 00f1 8b5c 6089 b6bf 803e ed1e 3066 bc3f
00000020: 6d64 fe13 4a45 e0bf
0.46607139907101536 -0.027496320306429865 -0.08803369769515612 0.11093426470801582 -0.5084581747534124

blocks1.SCINet_Tree.SCINet_Tree_even.SCINet_Tree_odd.workingblock.interact.level.P.1.bias f8 [1]
00000000: 6c83 6c82 955d c1bf
-0.13566845768312008

blocks1.SCINet_Tree.SCINet_Tree_even.SCINet_Tree_odd.workingblock.interact.level.P.4.weight f8 [1, 1, 3]
00000000: 9575 0f83 4b47 f03f e0bd ee69 7058 d63f
00000010: 8037 3f00 dcdb 6d3f
1.017405998186722 0.34914789528826695 0.0036448761838760446

blocks1.SCINet_Tree.SCINet_Tree_even.SCINet_Tree_odd.workingblock.interact.level.P.4.bias f8 [1]
00000000: 02ad 92f2 a541 de3f
0.4727568501354683

blocks1.SCINet_Tree.SCINet_Tree_even.SCINet_Tree_odd.workingblock.interact.level.U.1.weight f8 [1, 1, 5]
00000000: e3de 0d7f 403d bdbf 3866 bf3e d4f6 bebf
00000010: a2bd 94ba 331d cdbf f7da 825a 51c0 c4bf
00000020: 35d0 2628 da8c c0bf
-0.11421588041218515 -0.12095381290364393 -0.22745367632294938 -0.16211907309999393 -0.12929846725967456

blocks1.SCINet_Tree.SCINet_Tree_even.SCINet_Tree_odd.workingblock.interact.level.U.1.bias f8 [1]
00000000: b1ec e126 937d aa3f
0.05173930978431807

blocks1.SCINet_Tree.SCINet_Tree_even.SCINet_Tree_odd.workingblock.interact.level.U.4.weight f8 [1, 1, 3]
00000000: 91a3 998e 8978 c13f 7d0d 4ef7 9b07 d63f
00000010: 25c0 c6c5 c0ac c33f
0.13649100745103884 0.3442144312941407 0.15370950371789252

blocks1.SCINet_Tree.SCINet_Tree_even.SCINet_Tree_odd.workingblock.interact.level.U.4.bias f8 [1]
00000000: 7a38 5a2b 265d cabf
-0.20596768490617362

blocks1.SCINet_Tree.SCINet_Tree_even.SCINet_Tree_even.workingblock.interact.level.phi.1.weight f8 [1, 1, 5]
00000000: 9b8d f555 88d3 d7bf 3e8d 2a15 bf6e b73f
00000010: d631 a112 4d54 d33f 400b 76ed 3ebb d23f
00000020: 56c8 97b4 834b c43f
-0.3722859229512438 0.09153360621217119 0.30202032870581996 0.29267857732354585 0.15855451887142874

blocks1.SCINet_Tree.SCINet_Tree_even.SCINet_Tree_even.workingblock.interact.level.phi.1.bias f8 [1]
00000000: c408 976f 59ca d4bf
-0.3248504247423052

blocks1.SCINet_Tree.SCINet_Tree_even.SCINet_Tree_even.workingblock.interact.level.phi.4.weight f8 [1, 1, 3]
00000000: 3eb8 413e 1b13 e9bf a8ea e8fe 8e62 d4bf
00000010: 05b5 9750 1dd7 cabf
-0.7835823265029445 -0.3185155381540121 -0.20968977389512858

blocks1.SCINet_Tree.SCINet_Tree_even.SCINet_Tree_even.workingblock.interact.level.phi.4.bias f8 [1]
00000000: 8f5d 9ad3 e8d6 c93f
0.20187101680924655

blocks1.SCINet_Tree.SCINet_Tree_even.SCINet_Tree_even.workingblock.interact.level.psi.1.weight f8 [1, 1, 5]
00000000: 97f2 e7d0 fb1c c3bf 2616 6bb5 89d7 a63f
00000010: c2c3 7ed7 fa74 c7bf b196 04af 75ed b0bf
00000020: 7886 5438 3eae d1bf
-0.14932201099863526 0.044613173862256425 -0.18325744173264807 -0.0661233475007872 -0.2762599516009696

blocks1.SCINet_Tree.SCINet_Tree_even.SCINet_Tree_even.workingblock.interact.level.psi.1.bias f8 [1]
00000000: 679e 37c8 7cb4 e2bf
-0.5845321569913268

blocks1.SCINet_Tree.SCINet_Tree_even.SCINet_Tree_even.workingblock.interact.level.psi.4.weight f8 [1, 1, 3]
00000000: 62f4 d054 77ec d63f 5349 2c9c 9f00 b7bf
00000010: 9095 e493 e6a5 db3f
0.35818274767718183 -0.08985326350037796 0.4320007747904464

blocks1.SCINet_Tree.SCINet_Tree_even.SCINet_Tree_even.workingblock.interact.level.psi.4.bias f8 [1]
00000000: 2ec6 15fe 52c5 f4bf
-1.2981748509595366

blocks1.SCINet_Tree.SCINet_Tree_even.SCINet_Tree_even.workingblock.interact.level.P.1.weight f8 [1, 1, 5]
00000000: ba49 0b36 c241 893f 808f e543 1876 d73f
00000010: a463 a890 504c b7bf 56ad 3087 a2f8 d93f
00000020: 1d69 bbf9 87ec e23f
0.012332455896658757 0.36658293371714734 -0.09100822002109382 0.40580046846544826 0.5913734319285912

blocks1.SCINet_Tree.SCINet_Tree_even.SCINet_Tree_even.workingblock.interact.level.P.1.bias f8 [1]
00000000: 5fa2 9863 8c26 c1bf
-0.13398890364739466

blocks1.SCINet_Tree.SCINet_Tree_even.SCINet_Tree_even.workingblock.interact.level.P.4.weight f8 [1, 1, 3]
00000000: 7889 3980 4011 c6bf 1ad5 277c 65a5 bfbf
00000010: 47d9 ed11 5e7b d1bf
-0.1724014879319602 -0.12361749917166201 -0.273154752262958

blocks1.SCINet_Tree.SCINet_Tree_even.SCINet_Tree_even.workingblock.interact.level.P.4.bias f8 [1]
00000000: 86f7 b367 7e06 a9bf
-0.048877668532425964

blocks1.SCINet_Tree.SCINet_Tree_even.SCINet_Tree_even.workingblock.interact.level.U.1.weight f8 [1, 1, 5]
00000000: 4e49 3547 56c6 b7bf a0a7 fa95 7fbb b53f
00000010: 06fb 5b2b dcfd cebf 77f5 0926 3ec0 803f
00000020: 31e6 4224 97e0 cabf
-0.09287013281326503 0.08489224826430908 -0.2421221935000732 0.008179173980574756 -0.20997895498821742

blocks1.SCINet_Tree.SCINet_Tree_even.SCINet_Tree_even.workingblock.interact.level.U.1.bias f8 [1]
00000000: b2d3 acff cb4f d6bf
-0.34862041443130487

blocks1.SCINet_Tree.SCINet_Tree_even.SCINet_Tree_even.workingblock.interact.level.U.4.weight f8 [1, 1, 3]
00000000: 13dd a046 cb85 d0bf 81ba ec33 e19a d33f
00000010: df94 7de8 91ae c13f
-0.2581661405306061 0.30632810660146254 0.138139952202585

blocks1.SCINet_Tree.SCINet_Tree_even.SCINet_Tree_even.workingblock.interact.level.U.4.bias f8 [1]
00000000: 4adf d1c4 6588 db3f
0.4302000448292246

projection1.weight f8 [48, 96, 1]
00000000: 6326 1406 08b5 70bf 762a b119 7931 4e3f
00000010: ace9 1e02 75b2 71bf 808c 7dc2 9ad0 74bf
00000020: 092c da34 7f04 62bf 8fe5 f79b 29c7 66bf
00000030: 7eee a0fa d5ad 55bf 223e 582d 31d3 8c3f
00000040: ae40 8077 9c40 78bf 44d6 c702 98d4 643f
00000050: 8091 789e a4c9 50bf 290e b524 32dc 70bf
00000060: 1680 a967 0aac 603f 2780 d06f 52ff 70bf
00000070: 3827 9cca f47e 60bf a07c 34d4 a2ac 613f
00000080: f548 3acb 47ff 7fbf 0e00 e813 3970 673f
00000090: 6e1c 7168 7bc5 5abf a8bb b449 67c4 6cbf
000000a0: a299 6cfe ca49 613f 5958 1edc 440d 70bf
000000b0: 5d82 7515 8a89 703f 306b ff3d f4cc 813f
000000c0: 71cc 618b 6c05 84bf 8321 897d f3d6 6dbf
000000d0: 3d1d c883 f66d 5fbf fff6 959f ca94 6dbf
000000e0: d785 ab1a 5548 6d3f 3787 90cf b000 80bf
000000f0: 4d9e c09d bd40 523f c484 5b6e 3987 8a3f
00000100: dae9 21b6 14ae 79bf bed1 e26e f020 6b3f
00000110: 5733 a6c7 6ee0 703f 4021 4173 c804 5fbf
00000120: 6cf9 00d5 00aa 433f e5bf 6fff cf51 5cbf
00000130: 665e 49fc 402f 30bf bcb7 9e68 5f1f 833f
00000140: ce01 34f3 7be6 71bf f266 43d6 9cc9 6dbf
00000150: e6ee ec1a 7507 723f f112 7bac a2bd 55bf
00000160: ecba 473b ed5d 403f 669d d185 6b51 64bf
00000170: ccda ee40 8ae9 5fbf 3cc4 d2cc 8a1b 633f
00000180: 24cb 6d5d 3243 87bf 789d 1e28 3a37 7a3f
00000190: d394 fff6 5bcc 6e3f dcc4 0886 cc5b 243f
000001a0: dc6a 61fa 20f3 7c3f e92a 5b15 35ca 73bf
000001b0: fe2b a08a 8cbc 43bf cd03 68a2 ee3d 853f
000001c0: e1e9 b2b6 b85d 74bf 5eb0 abf0 9c52 4bbf
000001d0: 16f9 affa 6da4 603f dc2a 1a41 abbb 73bf
000001e0: ed5a 183f 9501 763f 67e1 8e50 def8 72bf
000001f0: da21 06a7 16c5 513f e12e 0fe7 3c1d 893f
00000200: 30aa 7bef 1888 87bf 9548 2cd2 979f 72bf
00000210: ee47 db9e 54b7 76bf ff34 511d ddfd 80bf
00000220: ccb7 585c 7418 42bf 91ed 1c7e 9856 7bbf
00000230: 8f02 f972 44ed 743f fdc2 4cb6 e18e 863f
00000240: 9634 c654 1b36 87bf e439 7cd4 0a3b 553f
00000250: d24e 8c06 a90f 723f 0ee1 2370 dee4 70bf
00000260: b03d a557 22e5 763f 455f c6eb 855e 77bf
00000270: cbf0 6c00 dfd4 6c3f 0eb0 ad01 b8de 923f
00000280: f69e 1916 9fd5 76bf 9e16 db14 f92f 593f
00000290: a13c 80bf 383c 4cbf 063a 035b 9b98 593f
000002a0: eb07 2623 d67c 793f 9798 a17d 61ae 54bf
000002b0: b5c8 e410 8d70 7bbf c9c3 7612 a23f 943f
000002c0: 2cb0 4903 be68 9cbf 81af 614a ac9e 973f
000002d0: dcb0 fcfa c37f 93bf 5790 03b5 4959 9a3f
000002e0: 205a 91d7 cddb 5dbf 7830 19e4 7fc8 9e3f
000002f0: b298 65b7 a409 b83f dc72 653f e6fb e43f
00000300: 7160 fe80 173e 6abf 209b 4c70 f038 4d3f
00000310: f540 e6db 5942 213f 7149 767f 6520 80bf
00000320: 1767 dcee 4999 703f 8db9 6e86 ec97 283f
00000330: 01a0 450b 890b 5ebf 0a44 0cd8 cf7c 803f
00000340: 2e88 b174 b01b 85bf 9c87 dc79 94dc 56bf
00000350: 73b1 205a 4c34 693f fae3 a59c f943 62bf
00000360: c696 dcac 9185 453f f5fc 5e63 b9b2 77bf
00000370: 50c9 0007 02d1 26bf 8aed a3f0 fe13 853f
00000380: 7db5 3264 34fe 73bf e10e 5a2c 0ae0 68bf
00000390: 650e 5445 c425 513f 55d5 4971 af6d 5cbf
000003a0: cf38 7361 5c6d 533f d9c1 6b1a adbc 7abf
000003b0: 20c3 8c1f a050 663f 9f42 1ea3 8f8f 793f
000003c0: 30b3 e218 c225 84bf 416a 4c44 62e1 683f
000003d0: 2976 dcfe 5b4a 743f fb7d 73f8 69ae 6bbf
000003e0: 40e9 b9b7 685e 703f d455 a6eb 3b29 7fbf
000003f0: c9cc 3301 be31 5b3f 3a7b 8e9a 18f8 7e3f
00000400: ec36 e2c8 a9d1 77bf e3cf efa2 3991 713f
00000410: 4892 0d30 8a8f 683f f9c7 aba3 0deb 5ebf
00000420: e95e 21a2 c9fe 593f 116c 32f4 8ee0 7fbf
00000430: 1f0b e8c6 d2d1 43bf 4fee 4c56 82e9 743f
00000440: bc19 29fc b7dd 69bf e0c0 2b94 a15e 6ebf
00000450: eed1 6f8b 31c7 19bf b1e8 d26a c986 67bf
00000460: 9583 0549 0d9d 713f 0d1f 4b19 2c61 76bf
00000470: 9ad5 a46d fdfa 53bf 6126 3db6 711b 8b3f
00000480: e464 ff79 dd54 6fbf f646 bf4c bbab 6f3f
00000490: 6561 2f40 5bbc 483f a008 6d0c d91e 67bf
000004a0: c7a9 874e 6039 433f 9cfb 95b5 eee2 6c3f
000004b0: 7888 5183 7a56 723f 8489 3624 1ffb 7d3f
000004c0: 9f88 fe7c dd9c 72bf 70e0 dfb7 0f3b 753f
000004d0: fc50 e0e3 933e 383f f45c bed3 193b 5d3f
000004e0: 73ea 4704 1047 633f 8ba0 e4c8 d1f2 83bf
000004f0: 4674 a6cb 900a 713f 4df7 4ce4 00d8 7d3f
00000500: 34cc 6830 ece4 75bf a462 fd12 8524 603f
00000510: 2c71 f8d0 cf1b 753f d6ad 3802 0d28 66bf
00000520: eab6 89a8 f749 773f 99fe 1e57 1719 4fbf
00000530: e7c4 4d10 6f53 5b3f e84e aac4 44d2 913f
00000540: 91df 1388 7ef0 81bf 433c a84e c793 4a3f
00000550: b285 b5be 82e1 53bf 6dbc 212b ca17 6e3f
00000560: 084b f896 3744 673f 60b0 bc72 1a66 403f
00000570: 0780 a4de 07a4 79bf f817 7d9f 1b8c 8d3f
00000580: b6dd f30a 33a3 77bf b61a f754 80d1 5cbf
00000590: 003d a6f1 ca22 593f 44f5 6de1 d1eb 2cbf
000005a0: e331 8c6e 946e 673f 380a d3ff acc4 3e3f
000005b0: 7378 1e71 ef73 69bf 19f8 910f 2ef7 713f
000005c0: 2412 99c0 4d81 9cbf d5b2 9ab7 57e5 893f
000005d0: b331 9123 e966 85bf ad56 3404 1637 8f3f
000005e0: e247 f506 b768 843f 1213 0cd6 fa2e 813f
000005f0: d44e a6fd d929 ba3f 2bfa 72e7 0ea9 e43f
00000600: 1b71 8af6 35da 583f 4560 26fa 1d39 7d3f
00000610: 01c6 cf60 8b2c 693f 7c6c fc2e de37 79bf
00000620: 3e3f 7836 e2d0 153f 977a 2ef8 fe77 4d3f
00000630: 9816 2dd2 7e61 693f 25ba 060b 34b3 843f
00000640: 19de 33cc 8eb3 7ebf c07c 8b20 76ec 623f
00000650: 11c4 bd42 2fd3 50bf b5f0 87d4 d64f 7abf
00000660: 5d1d 2c39 9cd8 493f aed6 4977 eb7c 7dbf
00000670: 3ea1 368f 715c 413f 269a dbeb 0ca5 753f
00000680: 3dda d88c 3462 83bf 72d0 5ebc 2edf 633f
00000690: 058e 6467 d2e2 643f 49a7 1114 8951 543f
000006a0: ecc4 5f9f 0d0c 0f3f f201 6450 9a5c 76bf
000006b0: 402c 472f a73d 603f 4ba3 d6f4 1d6a 8b3f
000006c0: d486 72a4 493e 73bf 9a85 c6b2 0cd6 6cbf
000006d0: 8c74 8325 2aec 643f 70c6 d174 3b9e 6ebf
000006e0: 7a81 e095 fc78 7d3f 58cb 2256 f905 7cbf
000006f0: 5edf 4855 e892 55bf 8490 d469 d0e3 813f
00000700: 373a 0b9d 303c 83bf dfe7 9790 607f 75bf
00000710: 741a 9e54 e064 703f 5133 47c1 786f 63bf
00000720: ceb4 684d 1f65 373f f0a1 239f 1b9f 76bf
00000730: 4043 167e 51e8 6e3f 4907 aa4b cb5b 853f
00000740: 8864 a47d a8d6 86bf 6160 bc95 3b4a 7abf
00000750: 29b1 c231 ff15 303f e2a0 5b09 3626 21bf
00000760: 9e48 5cca 433e 583f 6648 8ae9 430c 76bf
00000770: 7acd 817e 071c 563f 7e8e 2fcc 702c 7b3f
00000780: 9aa0 ed6a f01e 73bf e250 b4a1 d766 67bf
00000790: 2843 b171 cdae 553f 76b4 be97 e4f5 613f
000007a0: 785d 2d64 3ac0 743f 97c6 4d5a 7383 63bf
000007b0: 8cfe 1d97 9bd7 63bf f7b0 3222 6ecc 823f
000007c0: dc71 ae37 f5f8 86bf ee2e 8005 2c57 583f
000007d0: 1217 5740 901f 76bf bd3f 976c 2a1f 6bbf
000007e0: 1ab3 afec 1749 703f c360 20c3 30fe 70bf
000007f0: 701e 2ab8 3b32 5f3f f7c5 a0ce e032 833f
-0.004078894942048802 0.0009214249906873268 -0.004320580543146251 -0.005081753282726642 -0.0021994099141173823 -0.002780514972752619 -0.001323183978924641 0.014074691959677092
-0.005920993040504792 0.0025427788698333693 -0.001024637947815682 -0.004116245148285049 0.0020351603719035534 -0.004149744051602545 -0.002013662441531585 0.002157514596219892
-0.007811813778646694 0.0028611292648292935 -0.0016339974552168862 -0.003511621221739831 0.002110382530548808 -0.003918904288999847 0.00403741778367869 0.008691700117130802
-0.009775970462419377 -0.0036425357505189284 -0.0019183070536444434 -0.0036109883773737246 0.003574529856778179 -0.007813817343108915 0.0011140681954290466 0.012953232460349524
-0.006269532112236987 0.0033116050682002454 0.0041202857340863685 -0.0018932302018744435 0.0006000999510502986 -0.001728489992952825 -0.0002469571739189602 0.009337182407616378
-0.004370197467551807 -0.0036361754629127213 0.004401643220997653 -0.0013269508944386244 0.0004994781834833629 -0.0024802303365053955 -0.0019477701314209337 0.002332469076087777
-0.011358636356566594 0.006400324988056531 0.0037595554531316493 0.00015532371163965483 0.007067803211692616 -0.00483151183807238 -0.000602310775549397 0.010372032481429283
-0.00497219232345933 -0.0008338228520563642 0.0020315311462574355 -0.004817646944170941 0.005372603410725968 -0.004631870667190042 0.0010845872130592544 0.012262798119898334
-0.011490053947871365 -0.004546731043563086 -0.005545931385954701 -0.008296706635656735 -0.0005522316138859506 -0.0066743809455219886 0.005109088305801492 0.011014712692117618
-0.011333669209103097 0.001295815063659605 0.0044094660340936054 -0.004124516390440881 0.005589613103736665 -0.005705378655328113 0.003519473600503619 0.018427729704328093
-0.005574819022150504 0.0015373165546618615 -0.0008616711702432897 0.0015622632163744279 0.006222568963837087 -0.0012622787530971785 -0.006699133910205092 0.01977399099058966
-0.027743309927629564 0.023066226997272125 -0.019042074388537653 0.025731231377804722 -0.0018224249054320588 0.030061720177670698 0.0938971469637149 0.6557494390686673
-0.003203435808199422 0.0008917974488199289 0.00013167712127116313 -0.007874291374524419 0.004052437592486211 0.00018763315457932494 -0.0018338049240700374 0.00805055978847415
-0.010306719361498375 -0.0013953638039727384 0.003076695561523285 -0.0022296786530060482 0.0006567918114554698 -0.005785679028064585 -0.00017407560108180032 0.010292045325050809
-0.0048811003245367 -0.003036517972590733 0.001046601935116431 -0.001735135393713468 0.001185741630070281 -0.0065275918811810935 0.0027239921004355155 0.0062404261424410514
-0.009837643036314597 0.003037158896757292 0.0049537271095494795 -0.0033790654884879845 0.003996285489501539 -0.007607683243255409 0.0016598086847892538 0.0075608216365299855
-0.0058151848044312 0.004288888113467923 0.002998132608285329 -0.0018870957562140396 0.0015866250110060881 -0.007782514966630864 -0.0006048468765701176 0.005105504159299181
-0.003157481523234666 -0.0037072330318253938 -9.833564659784247e-05 -0.002871888535620114 0.004300166984052907 -0.00546376443953257 -0.0012195086370188958 0.013235939382542474
-0.003824646541016651 0.003866067714604844 0.000754875713364672 -0.002822326586653892 0.0005866737602080945 0.0035261785785105203 0.004477003637562864 0.0073195663893862485
-0.004544129551421388 0.00518327846474885 0.0003699408588329204 0.0017841102808001082 0.0023532212092026105 -0.009740485137243368 0.004160466773467658 0.007286075099555434
-0.005345270742100051 0.001970539007669041 0.005153476507555415 -0.0027046445918778956 0.005685775199351298 -0.000949036022795685 0.001667841396934039 0.01740367365216758
-0.008759487655410488 0.000811073606486697 -0.0012134339147781112 0.00367345319778383 0.0028401456581915764 0.0005004529134331574 -0.006259947529798643 0.014427390866000409
-0.005770873437760773 -0.001758933376423561 0.001534174144214806 -0.00022065102595184894 0.0028603457507243454 0.0004694864617925984 -0.00310704008093326 0.004386119771082186
-0.02783700454735273 0.012644467631014159 -0.010450192830966687 0.015241786959943349 0.009965352916569917 0.008390388161851035 0.10220110361688778 0.6456369896403137
0.0015168692572507584 0.007134549234614045 0.0030729982595338883 -0.006156795410585333 8.322125142279106e-05 0.0008993144004881434 0.0030982472393670905 0.010107428156371398
-0.007495458415398137 0.002310019223258658 -0.0010269128351547733 -0.006423796825853302 0.0007887614068246386 -0.007199210919329664 0.0005298189629927908 0.005284357522873628
-0.009464655445396203 0.0024257576760309757 0.0025495633555168173 0.0012401426941103957 5.92176110528838e-05 -0.00545940665165333 0.001982523472383174 0.013385995897651567
-0.00469807402183316 -0.003520035554360046 0.00255401832337882 -0.00373756039203315 0.007195459997121007 -0.0068416347223088855 -0.0013167637708999184 0.008735302190480583
-0.009392146866415192 -0.005248429495162881 0.004002453128015494 -0.0023724897857619128 0.00035697950571285115 -0.0055228308649266505 0.003772887387363616 0.010428989645564395
-0.011151615461630252 -0.006418450120485004 0.00024545173961134037 -0.00013083848596485206 0.0014796888366999448 -0.005382790834703588 0.0013494561372028023 0.00663417874872929
-0.0046681777301743835 -0.0028566562228978668 0.0013234144487521225 0.00219244620344355 0.005066135493357542 -0.0023820164664634757 -0.0024221457360338924 0.009178982180252577
-0.011217036973726495 0.0014856271645866076 -0.005401195031884647 -0.0033107594106027414 0.003975957351013882 -0.004148664929765458 0.0019040663907236265 0.009374386125361218
