exp/data_checkpoints/SCINet_data_ftS_sl160_ll12_pl12_lr0.0001_bs1024_hid2_s1_l4_dp0.25_invFalse_itr0/checkpoint.pth (torch, 172095 bytes, 242 tensors)

inv_timescales f8 [1]
1.0
00000000: 0000 0000 0000 f03f

blocks1.SCINet_Tree.workingblock.interact.level.phi.1.weight f8 [2, 1, 5]
0.014018184865468958 -0.16473153378062227 -0.13932029149244557 -0.40449107661498435 -0.3722930664506384 0.39948871035437056 0.25942342169162347 -0.08357490715430009
-0.33063319729501417 -0.27129524535455174
00000000: 5d2c 5fec 90b5 8c3f a695 1a43 ec15 c5bf
00000010: f68a d04f 3fd5 c1bf b973 658a 2ee3 d9bf
00000020: 0ab7 3b4c a6d3 d7bf 9df7 8518 3991 d93f
00000030: 1ad8 feb1 649a d03f db73 fe44 2a65 b5bf
00000040: f6a7 5624 1829 d5bf 0aeb 96bb e65c d1bf

blocks1.SCINet_Tree.workingblock.interact.level.phi.1.bias f8 [2]
0.10265679566742156 0.15150394127142475
00000000: 0e8e 1a3c b747 ba3f 70e9 7c2c 7b64 c33f

blocks1.SCINet_Tree.workingblock.interact.level.phi.4.weight f8 [1, 2, 3]
-0.23776664909622336 -0.28124768354042223 0.28594468533969086 -0.07510013339796813 -0.04094235405287116 -0.3180247871103855
00000000: 1851 f936 236f cebf 9370 b848 f6ff d1bf
00000010: 56ef ffef ea4c d23f 3d98 de28 c339 b3bf
00000020: af4e 5b6f 65f6 a4bf c636 fda2 845a d4bf

blocks1.SCINet_Tree.workingblock.interact.level.phi.4.bias f8 [1]
-0.3682786209104188
00000000: 2914 287e e091 d7bf

blocks1.SCINet_Tree.workingblock.interact.level.psi.1.weight f8 [2, 1, 5]
0.08975987803564824 0.41052252887863677 -0.2084332143416837 -0.22085516586600343 0.10911946442509819 0.06228239567736241 0.3176927377327468 -0.014157905936897688
0.08710197104753467 0.32168136528056845
00000000: 69f3 a7dc 80fa b63f 7984 f348 0046 da3f
00000010: 4bb4 7f87 f0ad cabf b108 4669 fb44 ccbf
00000020: c515 10d3 40ef bb3f e402 1a69 7ae3 af3f
00000030: 5d49 afeb 1355 d43f 7b9f d4f7 d1fe 8cbf
00000040: 0ef9 1095 504c b63f 0236 e76f 6d96 d43f

blocks1.SCINet_Tree.workingblock.interact.level.psi.1.bias f8 [2]
0.033998072923152475 -0.1718466332208034
00000000: 0ef7 a906 3268 a13f 2437 ce0a 12ff c5bf

blocks1.SCINet_Tree.workingblock.interact.level.psi.4.weight f8 [1, 2, 3]
0.05599910026167872 0.18491673068699493 -0.2165731746746294 -0.006877898718533473 0.2747054588582024 0.3657353488197458
00000000: 6b6b 7500 eaab ac3f 4656 64f7 59ab c73f
00000010: 128f 3577 abb8 cbbf 5c17 fbe0 ff2b 7cbf
00000020: a608 7534 c694 d13f 6601 8b3c 3568 d73f

blocks1.SCINet_Tree.workingblock.interact.level.psi.4.bias f8 [1]
0.024750975318169766
00000000: 6d7f 24d6 5158 993f

blocks1.SCINet_Tree.workingblock.interact.level.P.1.weight f8 [2, 1, 5]
-0.27267638055250487 0.09012091623757709 0.19432908664888726 -0.3501896913733838 0.123033844000831 0.16999500203634133 -0.18435844594933193 0.39765457999708365
-0.061511420468978506 -0.18618571150070706
00000000: 9256 37a2 8773 d1bf fe0a ed13 2a12 b73f
00000010: 4cc5 e887 c6df c83f c114 f605 8269 d6bf
00000020: 64e4 4860 257f bf3f 8c61 1d6f 65c2 c53f
00000030: 7800 0cbc 0e99 c7bf 344b 0c32 2c73 d93f
00000040: 3052 7dc6 6c7e afbf 3863 f0f2 eed4 c7bf

blocks1.SCINet_Tree.workingblock.interact.level.P.1.bias f8 [2]
0.03462160041072819 -0.31169342194650623
00000000: b69e ff22 ecb9 a13f 61de 68f7 c8f2 d3bf

blocks1.SCINet_Tree.workingblock.interact.level.P.4.weight f8 [1, 2, 3]
0.3560359783962529 -0.14709427379516768 0.3537725052548518 -0.08655659192956053 0.27029188817405797 -0.3081125515795224
00000000: 3a52 da20 4bc9 d63f d786 b033 fcd3 c2bf
00000010: f6c9 126f 35a4 d63f ce36 97a3 9228 b6bf
00000020: 0d3a 0559 764c d13f b75a 21b5 1db8 d3bf

blocks1.SCINet_Tree.workingblock.interact.level.P.4.bias f8 [1]
-0.13404148981509906
00000000: 520f 8883 4528 c1bf

blocks1.SCINet_Tree.workingblock.interact.level.U.1.weight f8 [2, 1, 5]
-0.045778170699687766 -0.04901726207596074 -0.3770444257815178 0.21141753894704216 0.3999254094944754 0.34383165968072676 0.23343746531451146 0.3176147741053959
-0.09083698619067135 0.21606762432763515
00000000: 193e 0d84 3c70 a7bf 5786 1c63 ca18 a9bf
00000010: d9b9 77f1 7e21 d8bf 7307 cadb ba0f cb3f
00000020: 4290 a7be 6098 d93f b11e 6a81 5601 d63f
00000030: 57ee 9763 47e1 cd3f 2595 e0ea cc53 d43f
00000040: 66c5 f4bc 1741 b7bf f015 1b9a 1aa8 cb3f

blocks1.SCINet_Tree.workingblock.interact.level.U.1.bias f8 [2]
-0.23130168520816638 -0.21468474019819522
00000000: 0f48 bd2a 4b9b cdbf 1efe 0c21 ca7a cbbf

blocks1.SCINet_Tree.workingblock.interact.level.U.4.weight f8 [1, 2, 3]
-0.19924219678240535 -0.4040087482802367 -0.27107812389125296 0.14674365585264573 0.1385153694660966 -0.30962002222516194
00000000: bef1 94af c480 c9bf 3a56 4a82 47db d9bf
00000010: b088 310f 5859 d1bf fd2b 6401 7fc8 c23f
00000020: bad4 ec22 dfba c13f 1035 697f d0d0 d3bf

blocks1.SCINet_Tree.workingblock.interact.level.U.4.bias f8 [1]
0.23314740919541846
00000000: 191b d238 c6d7 cd3f

blocks1.SCINet_Tree.SCINet_Tree_odd.workingblock.interact.level.phi.1.weight f8 [2, 1, 5]
0.018006977190855273 -0.19995680521102502 -0.3639669148490865 0.05853578792688687 0.41451257425382004 0.04073621878080754 0.36061900951970494 -0.07566337015530424
-0.22358057196999284 -0.2144242446759411
00000000: 35c5 89c8 6b70 923f 393b 7f41 2f98 c9bf
00000010: fc94 06e3 3b4b d7bf c348 951d 67f8 ad3f
00000020: 04dc 8cbf 5f87 da3f fb3f daae 60db a43f
00000030: b2fe 0cc1 6114 d73f 017a 52b4 ac5e b3bf
00000040: 71e8 50c6 499e ccbf 4324 2def 4072 cbbf

blocks1.SCINet_Tree.SCINet_Tree_odd.workingblock.interact.level.phi.1.bias f8 [2]
-0.003956289822335632 -0.12438432467742118
00000000: 7028 6876 7834 70bf cde3 9fae a6d7 bfbf

blocks1.SCINet_Tree.SCINet_Tree_odd.workingblock.interact.level.phi.4.weight f8 [1, 2, 3]
0.3356389903716647 0.21180305828894494 0.3418299423554911 -0.28967207543635426 -0.39168675043865214 0.010576717824499291
00000000: 1b29 baf5 1b7b d53f 3f9b 45d4 5c1c cb3f
00000010: 2f77 cdb1 8ae0 d53f cd11 a4be fc89 d2bf
00000020: 0946 da4d 6511 d9bf f2f0 3d09 3fa9 853f

blocks1.SCINet_Tree.SCINet_Tree_odd.workingblock.interact.level.phi.4.bias f8 [1]
0.36023676416418254
00000000: d7ba 3980 1e0e d73f

blocks1.SCINet_Tree.SCINet_Tree_odd.workingblock.interact.level.psi.1.weight f8 [2, 1, 5]
0.39432085613030654 -0.24107456518476977 0.1860570750407802 0.399369894725499 -0.10565265115301704 0.23102793222592222 -0.15244936703056663 0.02300628174175005
0.012585023793662078 -0.009121160056712466
00000000: fe76 4d8b 8d3c d93f 4cd9 ae06 88db cebf
00000010: 31aa 3ede b7d0 c73f 3e97 36bf 468f d93f
00000020: 891a 7059 0d0c bbbf 3cb9 afc2 5292 cd3f
00000030: 7f99 d8fa 7583 c3bf 8bc7 bb6e f58e 973f
00000040: aec0 e74c 2dc6 893f 754a 2961 1dae 82bf

blocks1.SCINet_Tree.SCINet_Tree_odd.workingblock.interact.level.psi.1.bias f8 [2]
-0.459793339213948 -0.32193865020532336
00000000: 31ec b50a 416d ddbf dbd0 7c91 a49a d4bf

blocks1.SCINet_Tree.SCINet_Tree_odd.workingblock.interact.level.psi.4.weight f8 [1, 2, 3]
-0.18385882438450157 -0.05253144814081567 -0.15190466525522628 -0.1276103454731453 0.1767753142938204 0.37523100655066843
00000000: 16fe e79a af88 c7bf 407a 8de7 66e5 aabf
00000010: 68c5 b0b0 9c71 c3bf 2b1e 382a 8955 c0bf
00000020: ffe7 d0d0 92a0 c63f 5a23 65e9 c803 d83f

blocks1.SCINet_Tree.SCINet_Tree_odd.workingblock.interact.level.psi.4.bias f8 [1]
-0.011177715616879138
00000000: 21db 2598 57e4 86bf

blocks1.SCINet_Tree.SCINet_Tree_odd.workingblock.interact.level.P.1.weight f8 [2, 1, 5]
-0.11790560873036668 -0.1728999094595998 0.31650437649356095 -0.2737016991710847 -0.1059998231770636 -0.11633890930045915 -0.02926071867099978 -0.31199988017380176
-0.33745189943844 -0.21722093155508682
00000000: ae0b 83dd 0f2f bebf b11f 4e90 9521 c6bf
00000010: 712a 8592 9b41 d43f 032a b321 5484 d1bf
00000020: a261 eded cd22 bbbf dca1 b202 63c8 bdbf
00000030: e262 ff96 85f6 9dbf 14f4 6c58 cef7 d3bf
00000040: 62ea 03da cf98 d5bf 8893 843e e5cd cbbf

blocks1.SCINet_Tree.SCINet_Tree_odd.workingblock.interact.level.P.1.bias f8 [2]
-0.10517246185450287 0.33172055351810004
00000000: 8dda 1a1c 95ec babf 485c 31d8 e83a d53f

blocks1.SCINet_Tree.SCINet_Tree_odd.workingblock.interact.level.P.4.weight f8 [1, 2, 3]
-0.2557781033779016 0.3075953609747634 0.06607356969936919 -0.1822947277023627 0.18491452447313728 0.017708611873199897
00000000: a79f 421f ab5e d0bf 576d f273 a4af d33f
00000010: d91f fd8c 32ea b03f f680 db02 6f55 c7bf
00000020: 2c71 9575 47ab c73f f36b 69d3 3422 923f

blocks1.SCINet_Tree.SCINet_Tree_odd.workingblock.interact.level.P.4.bias f8 [1]
-0.03741633226452246
00000000: 4125 d3c6 3b28 a3bf

blocks1.SCINet_Tree.SCINet_Tree_odd.workingblock.interact.level.U.1.weight f8 [2, 1, 5]
0.23778543748268022 -0.3277524577421595 -0.3990102824247382 -0.1409797015796198 -0.1907042111487341 -0.25639628488309457 -0.09019929816938554 0.3387009556616333
-0.39117632455712376 -0.047823310913685455
00000000: 4801 bad2 c06f ce3f a7ea cb71 e5f9 d4bf
00000010: dd0b 726c 6289 d9bf 5c97 d773 9f0b c2bf
00000020: faf0 0bdf fe68 c8bf f1e1 98f6 cb68 d0bf
00000030: 5079 c21b 4d17 b7bf ca33 ecc5 46ad d53f
00000040: 1b4f 3c6c 0809 d9bf 26b0 b808 4c7c a8bf

blocks1.SCINet_Tree.SCINet_Tree_odd.workingblock.interact.level.U.1.bias f8 [2]
-0.08851001967053643 -0.2618969443907217
00000000: f26f dab7 97a8 b6bf 9726 c566 ebc2 d0bf

blocks1.SCINet_Tree.SCINet_Tree_odd.workingblock.interact.level.U.4.weight f8 [1, 2, 3]
-0.3902326108411239 0.1540368417496581 -0.15923020241350855 -0.11550057179019715 -0.10785488063372882 0.3192022700880932
00000000: f54c 5933 92f9 d8bf 02d2 d8ae 7ab7 c33f
00000010: ae63 f3bf a761 c4bf 3219 820a 7291 bdbf
00000020: 672d 09a1 609c bbbf a496 b55b cf6d d43f

blocks1.SCINet_Tree.SCINet_Tree_odd.workingblock.interact.level.U.4.bias f8 [1]
-0.42266738390647846
00000000: 7bb5 bd7f fb0c dbbf

blocks1.SCINet_Tree.SCINet_Tree_odd.SCINet_Tree_odd.workingblock.interact.level.phi.1.weight f8 [2, 1, 5]
0.2948768019700983 0.16304013588443572 0.2951782509637741 -0.36751052560677533 0.1575567789115691 -0.1406200250299655 0.423946860618039 -0.14562041849391005
0.018885195872027867 0.2141389725755605
00000000: 89e1 33f3 42df d23f de8e c7c9 7fde c43f
00000010: 1f50 9851 33e4 d23f 02ae 1ade 4a85 d7bf
00000020: f219 580e d22a c43f b44c 5544 d6ff c1bf
00000030: 902a 6603 f221 db3f a8d4 879b b0a3 c2bf
00000040: e27c 980a a456 933f d96a 01e6 e768 cb3f

blocks1.SCINet_Tree.SCINet_Tree_odd.SCINet_Tree_odd.workingblock.interact.level.phi.1.bias f8 [2]
0.36608325386297935 -0.21645067307512084
00000000: d21a bd74 e86d d73f ba04 07d9 a7b4 cbbf

blocks1.SCINet_Tree.SCINet_Tree_odd.SCINet_Tree_odd.workingblock.interact.level.phi.4.weight f8 [1, 2, 3]
0.0962986049441371 0.24886401501642147 -0.18804286841094947 -0.03227208418191094 0.39844046170034225 -0.35811799150501655
00000000: a7af e27e 06a7 b83f cac9 d2aa c6da cf3f
00000010: 7a18 09e9 c911 c8bf 6c27 4574 f785 a0bf
00000020: b7fd 196c 0c80 d93f 5ce3 67b9 67eb d6bf

blocks1.SCINet_Tree.SCINet_Tree_odd.SCINet_Tree_odd.workingblock.interact.level.phi.4.bias f8 [1]
-0.08499112935770062
00000000: 229b 0a89 fac1 b5bf

blocks1.SCINet_Tree.SCINet_Tree_odd.SCINet_Tree_odd.workingblock.interact.level.psi.1.weight f8 [2, 1, 5]
0.4059867014713149 -0.07069078251158385 -0.13666512286141297 -0.18957801274157657 -0.16204677239266568 -0.07918903044422099 0.30357594499955526 -0.007630677837607013
0.4028498762454046 0.22841012003884875
00000000: 9a88 5ba5 affb d93f 1d12 0487 ca18 b2bf
00000010: 94c7 9824 3e7e c1bf db03 62a2 1744 c8bf
00000020: 46a7 ecd9 f2bd c4bf 88ba f577 bb45 b4bf
00000030: 4d06 e8cc c96d d33f 3f2f 247c 5841 7fbf
00000040: 7afc ead8 4ac8 d93f 8c36 d2f5 8a3c cd3f

blocks1.SCINet_Tree.SCINet_Tree_odd.SCINet_Tree_odd.workingblock.interact.level.psi.1.bias f8 [2]
-0.37154562489593546 -0.35139774473792224
00000000: 6498 f94c 67c7 d7bf ed66 62f7 4c7d d6bf

blocks1.SCINet_Tree.SCINet_Tree_odd.SCINet_Tree_odd.workingblock.interact.level.psi.4.weight f8 [1, 2, 3]
-0.11039152921143236 -0.1402223702271783 -0.32402048002817363 0.39394552672196753 0.12066242142812937 0.04773507671498343
00000000: a0f1 b787 9e42 bcbf ff8b 257f cef2 c1bf
00000010: 7022 3d65 c0bc d4bf 3b49 6b4c 6736 d93f
00000020: 13d6 e381 bbe3 be3f adce b962 bb70 a83f

blocks1.SCINet_Tree.SCINet_Tree_odd.SCINet_Tree_odd.workingblock.interact.level.psi.4.bias f8 [1]
-0.41120405469684584
00000000: 80f4 b9cf 2a51 dabf

blocks1.SCINet_Tree.SCINet_Tree_odd.SCINet_Tree_odd.workingblock.interact.level.P.1.weight f8 [2, 1, 5]
-0.21342637952664406 0.0914509747043552 -0.13820974518621457 0.2300535551392538 -0.3641440631821772 -0.4120321647257579 0.06192283495708993 0.2831230147045914
-0.16345768202960798 -0.23138336821564992
00000000: e2d6 153c 8e51 cbbf 2ce3 8ac1 5469 b73f
00000010: b919 c85f dbb0 c1bf 8a68 d317 6572 cd3f
00000020: be99 99e6 224e d7bf f86b 1928 bc5e dabf
00000030: 5e59 088e 59b4 af3f 65ac 39fe af1e d23f
00000040: dc6e 4c6b 2eec c4bf 9a8a a95f f89d cdbf

blocks1.SCINet_Tree.SCINet_Tree_odd.SCINet_Tree_odd.workingblock.interact.level.P.1.bias f8 [2]
-0.3183386964691993 0.3284018284195992
00000000: 1ebc 9844 a95f d4bf e28f 401a 8904 d53f

blocks1.SCINet_Tree.SCINet_Tree_odd.SCINet_Tree_odd.workingblock.interact.level.P.4.weight f8 [1, 2, 3]
0.026691325857129414 -0.2267324417648512 0.14583740048846253 -0.018630607453022956 -0.12820996631810078 -0.16749096475152597
00000000: 21b0 928e f854 9b3f d43f 2993 9105 cdbf
00000010: 4dd8 d0c8 ccaa c23f 0b84 dce6 e613 93bf
00000020: b4c2 2d26 2f69 c0bf 8adc fd0b 5870 c5bf

blocks1.SCINet_Tree.SCINet_Tree_odd.SCINet_Tree_odd.workingblock.interact.level.P.4.bias f8 [1]
-0.012667340328198117
00000000: 26cc 7ea3 55f1 89bf

blocks1.SCINet_Tree.SCINet_Tree_odd.SCINet_Tree_odd.workingblock.interact.level.U.1.weight f8 [2, 1, 5]
-0.3121052833129769 0.3334958439778284 -0.014369507461491569 -0.19721052075461995 -0.14639860372256006 -0.3418198849308883 0.21710386785813304 -0.12331073296617232
-0.2931610135593903 0.2731081659285163
00000000: 373c 2f70 88f9 d3bf f425 cff3 fe57 d53f
00000010: 7f97 daa4 c26d 8dbf 7fbb 88c0 313e c9bf
00000020: 1390 957f 30bd c2bf 39a4 b982 60e0 d5bf
00000030: ab94 243e 0fca cb3f 46e3 55cd 4a91 bfbf
00000040: 6cc9 6c69 26c3 d2bf c6be 3bac 9a7a d13f

blocks1.SCINet_Tree.SCINet_Tree_odd.SCINet_Tree_odd.workingblock.interact.level.U.1.bias f8 [2]
-0.25784065272895845 -0.11674338387486988
00000000: fb35 c314 7680 d0bf 2c56 c4f7 e4e2 bdbf

blocks1.SCINet_Tree.SCINet_Tree_odd.SCINet_Tree_odd.workingblock.interact.level.U.4.weight f8 [1, 2, 3]
-0.28407669607413377 -0.2311265536611706 0.23307441230664863 -0.019850490210547245 0.11908557075562248 -0.234173438071254
00000000: ba6c cc05 502e d2bf 1720 9b0e 8e95 cdbf
00000010: e11b 32e1 61d5 cd3f 9033 0ed9 af53 94bf
00000020: 0426 d257 647c be3f 3bd0 0d2d 65f9 cdbf

blocks1.SCINet_Tree.SCINet_Tree_odd.SCINet_Tree_odd.workingblock.interact.level.U.4.bias f8 [1]
0.322400887786276
00000000: 3794 4f55 37a2 d43f

blocks1.SCINet_Tree.SCINet_Tree_odd.SCINet_Tree_odd.SCINet_Tree_odd.workingblock.interact.level.phi.1.weight f8 [2, 1, 5]
-0.40522247780517123 -0.049379545587744676 0.1641488616020117 0.24015175972488462 -0.0698542690041247 0.2676993243691491 -0.08861051515389831 0.033798806484372224
-0.23510132542199802 -0.3081727652006707
00000000: 39bf 7142 2aef d9bf 6b0a c89a 4648 a9bf
00000010: 78cd 2074 d402 c53f 7a30 0cf9 4abd ce3f
00000020: e6d3 db28 f8e1 b1bf 26ea d458 fc21 d13f
00000030: c2ee aac0 2daf b6bf 4809 fdc0 134e a13f
00000040: a084 f7db cc17 cebf 5081 0343 1ab9 d3bf

blocks1.SCINet_Tree.SCINet_Tree_odd.SCINet_Tree_odd.SCINet_Tree_odd.workingblock.interact.level.phi.1.bias f8 [2]
0.34046556817648166 -0.23110840478107028
00000000: dcd9 2e18 30ca d53f 4fc6 2ed0 f594 cdbf

blocks1.SCINet_Tree.SCINet_Tree_odd.SCINet_Tree_odd.SCINet_Tree_odd.workingblock.interact.level.phi.4.weight f8 [1, 2, 3]
0.3704338047033223 -0.22372583533805354 -0.3944505893761062 -0.3532986534973121 0.31437792919009355 -0.2499052174267754
00000000: d626 22fd 2fb5 d73f 570b 0655 0ca3 ccbf
00000010: 0288 50af ad3e d9bf 8379 9ff4 719c d6bf
00000020: 7629 1d9b c41e d43f 8450 f9e7 e4fc cfbf

blocks1.SCINet_Tree.SCINet_Tree_odd.SCINet_Tree_odd.SCINet_Tree_odd.workingblock.interact.level.phi.4.bias f8 [1]
0.14226090484487527
00000000: 0f70 e7f6 9a35 c23f

blocks1.SCINet_Tree.SCINet_Tree_odd.SCINet_Tree_odd.SCINet_Tree_odd.workingblock.interact.level.psi.1.weight f8 [2, 1, 5]
0.09816942661305751 -0.14519594727357213 0.27271098917620484 0.213909443615237 0.3628743580413118 0.09409292272679663 -0.2576686623384559 -0.11737666408413304
-0.17344780501838314 0.04604638102680105
00000000: d128 c5ac a121 b93f 2d9f 86e2 c795 c2bf
00000010: 0e62 f1ca 1874 d13f 1c06 5178 6261 cb3f
00000020: 1f0b 165f 5539 d73f a38a e549 7916 b83f
00000030: b1a7 7cb3 a47d d0bf d70f 8ea5 650c bebf
00000040: e6f7 0ea5 8933 c6bf a3f1 3729 6493 a73f

blocks1.SCINet_Tree.SCINet_Tree_odd.SCINet_Tree_odd.SCINet_Tree_odd.workingblock.interact.level.psi.1.bias f8 [2]
-0.014447046269652663 -0.37014560378532624
00000000: 0602 04ba 6996 8dbf 9a08 c12f 77b0 d7bf

blocks1.SCINet_Tree.SCINet_Tree_odd.SCINet_Tree_odd.SCINet_Tree_odd.workingblock.interact.level.psi.4.weight f8 [1, 2, 3]
0.22064560317077817 0.099810936494716 0.30447005305781494 0.33177912622718225 -0.040633728849034 -0.40454766279580234
00000000: b7f5 cf78 1d3e cc3f f326 07a4 358d b93f
00000010: 2aa9 1ff6 6f7c d33f 7b09 2984 de3b d53f
00000020: e9d1 0ab1 f1cd a4bf b265 58e1 1be4 d9bf

blocks1.SCINet_Tree.SCINet_Tree_odd.SCINet_Tree_odd.SCINet_Tree_odd.workingblock.interact.level.psi.4.bias f8 [1]
0.24019740637884174
00000000: 3a96 7de2 c9be ce3f

blocks1.SCINet_Tree.SCINet_Tree_odd.SCINet_Tree_odd.SCINet_Tree_odd.workingblock.interact.level.P.1.weight f8 [2, 1, 5]
0.07744132606062137 -0.16254452593454577 -0.3261399716965816 -0.3478854072486098 -0.09568424395861194 0.28099202282094793 0.16431624845081422 -0.15472873841706342
0.1980848400812213 -0.2094571644671929
00000000: b80b cada 31d3 b33f 722f 844f 42ce c4bf
00000010: 54bb 1630 7adf d4bf e1db b827 c143 d6bf
00000020: 0673 8b3a c37e b8bf 9cfb 1cf7 c5fb d13f
00000030: a619 a698 5008 c53f 0e56 a0bb 26ce c3bf
00000040: e4b9 fd12 d85a c93f 9555 a60b 7ecf cabf

blocks1.SCINet_Tree.SCINet_Tree_odd.SCINet_Tree_odd.SCINet_Tree_odd.workingblock.interact.level.P.1.bias f8 [2]
0.05068521707460417 -0.11021358673072577
00000000: 81c1 73ab 69f3 a93f e754 9526 f536 bcbf

blocks1.SCINet_Tree.SCINet_Tree_odd.SCINet_Tree_odd.SCINet_Tree_odd.workingblock.interact.level.P.4.weight f8 [1, 2, 3]
-0.0705434524112018 0.23897106651864336 -0.321690582353152 0.06161364816941754 0.185665917010289 0.40689279431659775
00000000: 4c94 0dbd 220f b2bf e2a3 b199 9a96 ce3f
00000010: b5d4 a818 9496 d4bf b6f2 bff7 d28b af3f
00000020: d840 c598 e6c3 c73f 8657 2413 880a da3f

blocks1.SCINet_Tree.SCINet_Tree_odd.SCINet_Tree_odd.SCINet_Tree_odd.workingblock.interact.level.P.4.bias f8 [1]
-0.1508415930354055
00000000: 8257 7bfe c64e c3bf

blocks1.SCINet_Tree.SCINet_Tree_odd.SCINet_Tree_odd.SCINet_Tree_odd.workingblock.interact.level.U.1.weight f8 [2, 1, 5]
0.05073471456024913 -0.03941319888638346 0.1358337040592768 -0.31323424921710097 -0.10520257764705492 -0.3950938220663981 -0.16034513321580685 -0.3789231255412972
-0.10523169253822048 -0.23732425163432974
00000000: cfc7 9d87 e6f9 a93f 7ada 7e80 f72d a4bf
00000010: 8a87 50b2 ff62 c13f d4f8 17aa 070c d4bf
00000020: c3f1 725e 8eee babf de1d 2899 3749 d9bf
00000030: 2209 9e77 3086 c4bf 6778 f9c7 4640 d8bf
00000040: 8652 f4d5 76f0 babf 6a97 a81d a460 cebf

blocks1.SCINet_Tree.SCINet_Tree_odd.SCINet_Tree_odd.SCINet_Tree_odd.workingblock.interact.level.U.1.bias f8 [2]
0.24845736489872763 0.09764262295739543
00000000: 295e 5870 73cd cf3f 3e34 4c60 1bff b83f

blocks1.SCINet_Tree.SCINet_Tree_odd.SCINet_Tree_odd.SCINet_Tree_odd.workingblock.interact.level.U.4.weight f8 [1, 2, 3]
0.22414764745224636 -0.30749921558253895 0.07577631034293579 0.2331569546522661 0.07960663280808099 -0.05404133886204179
00000000: b030 a4bf deb0 cc3f 0940 9e30 11ae d3bf
00000010: 4b05 bc86 1366 b33f 0a81 884b 16d8 cd3f
00000020: 5794 74ac 1961 b43f c4cb 166e 4eab abbf

blocks1.SCINet_Tree.SCINet_Tree_odd.SCINet_Tree_odd.SCINet_Tree_odd.workingblock.interact.level.U.4.bias f8 [1]
-0.00796488096508152
00000000: bfab 173a e44f 80bf

blocks1.SCINet_Tree.SCINet_Tree_odd.SCINet_Tree_odd.SCINet_Tree_even.workingblock.interact.level.phi.1.weight f8 [2, 1, 5]
0.025825778591623796 -0.3385558021567687 0.35840024285409255 0.23792579876715714 0.16834107981516172 -0.4041215048164012 -0.12304616100852334 -0.2998681319863636
-0.3063579510372203 -0.04132378421961458
00000000: 776f c7a9 1272 9a3f 7c99 88f4 e5aa d5bf
00000010: 4af4 7b92 07f0 d63f e430 4a42 5a74 ce3f
00000020: aa91 3054 338c c53f f2fd b271 20dd d9bf
00000030: bc11 6e05 f47f bfbf 679e ff1a 0a31 d3bf
00000040: 78c3 2461 5e9b d3bf 6058 8a1b 6428 a5bf

blocks1.SCINet_Tree.SCINet_Tree_odd.SCINet_Tree_odd.SCINet_Tree_even.workingblock.interact.level.phi.1.bias f8 [2]
-0.28554931938721184 0.3846279794136729
00000000: c870 0aa7 7046 d2bf 9054 2dac be9d d83f

blocks1.SCINet_Tree.SCINet_Tree_odd.SCINet_Tree_odd.SCINet_Tree_even.workingblock.interact.level.phi.4.weight f8 [1, 2, 3]
0.008608086938231596 0.17462108896539677 -0.3873757207719017 0.16908941219038987 0.40310865129455675 -0.020557694822354245
00000000: 53f0 0bdf 1da1 813f 392e 26dd fb59 c63f
00000010: 27b4 fe88 c3ca d8bf 4092 bacb b8a4 c53f
00000020: d4dd 823a 88cc d93f bdcb c58b 130d 95bf

blocks1.SCINet_Tree.SCINet_Tree_odd.SCINet_Tree_odd.SCINet_Tree_even.workingblock.interact.level.phi.4.bias f8 [1]
-0.4210123817052722
00000000: 54a7 a8ea ddf1 dabf

blocks1.SCINet_Tree.SCINet_Tree_odd.SCINet_Tree_odd.SCINet_Tree_even.workingblock.interact.level.psi.1.weight f8 [2, 1, 5]
-0.32191263739986015 -0.3395872476717332 0.11169475133321204 -0.1218902506187701 -0.22286332363709693 -0.3462936297379209 -0.19206786722706595 -0.3393712095740082
-0.40765274921296324 -0.04024417596852828
00000000: df4b 7376 379a d4bf 38e1 b826 ccbb d5bf
00000010: 5f6a 1cf8 0698 bc3f 56de 1b10 3334 bfbf
00000020: a0e5 3f0f c986 ccbf 7466 a2c1 ac29 d6bf
00000030: e125 2d0c ae95 c8bf c7c1 9405 42b8 d5bf
00000040: 6ea0 7f8e fb16 dabf 1452 4777 e29a a4bf

blocks1.SCINet_Tree.SCINet_Tree_odd.SCINet_Tree_odd.SCINet_Tree_even.workingblock.interact.level.psi.1.bias f8 [2]
-0.16900906127229642 -0.20498509421993852
00000000: bc32 72c3 16a2 c5bf 69ca eb99 f33c cabf

blocks1.SCINet_Tree.SCINet_Tree_odd.SCINet_Tree_odd.SCINet_Tree_even.workingblock.interact.level.psi.4.weight f8 [1, 2, 3]
0.00716425284589943 0.40893742545829503 -0.2980352892372064 0.2597659421210033 -0.1942839488178237 -0.04768776159044225
00000000: b04c c67a 4358 7d3f 4e0b 1de1 072c da3f
00000010: 13f9 149b 0213 d3bf c18e 8154 01a0 d03f
00000020: 9bb7 27e3 4bde c8bf 199a e6c0 876a a8bf

blocks1.SCINet_Tree.SCINet_Tree_odd.SCINet_Tree_odd.SCINet_Tree_even.workingblock.interact.level.psi.4.bias f8 [1]
0.15288819286268387
00000000: 1d17 251e d791 c33f

blocks1.SCINet_Tree.SCINet_Tree_odd.SCINet_Tree_odd.SCINet_Tree_even.workingblock.interact.level.P.1.weight f8 [2, 1, 5]
0.15123836669602567 -0.13401216111978667 -0.08923322928456368 -0.1659077824558923 0.27382614480568607 -0.164241711841475 -0.11459870729658174 -0.23749952698130758
0.0581001165581611 -0.0468640532318836
00000000: bd10 6e5f c75b c33f 514c a37c 4f27 c1bf
00000010: 3061 7e29 fdd7 b6bf 6f64 e659 773c c5bf
00000020: 4dbb 2e18 5e86 d13f bac4 7f56 df05 c5bf
00000030: a1b0 0044 5756 bdbf af9f 996e 6266 cebf
00000040: 97ad 0569 4cbf ad3f c256 faaf 90fe a7bf

blocks1.SCINet_Tree.SCINet_Tree_odd.SCINet_Tree_odd.SCINet_Tree_even.workingblock.interact.level.P.1.bias f8 [2]
-0.04428810358725896 0.17120222896325135
00000000: acad 0429 eeac a6bf c921 3363 f4e9 c53f

blocks1.SCINet_Tree.SCINet_Tree_odd.SCINet_Tree_odd.SCINet_Tree_even.workingblock.interact.level.P.4.weight f8 [1, 2, 3]
-0.22608604809686994 -0.2266726951567739 0.33750483108570134 -0.19403598508306155 -0.0544235195830423 -0.36667686270918337
00000000: 5c37 543b 63f0 ccbf 4819 4c62 9c03 cdbf
00000010: 6b53 f0dc ad99 d53f f9e5 16d1 2bd6 c8bf
00000020: 8619 7c49 66dd abbf f34a 623b a277 d7bf

blocks1.SCINet_Tree.SCINet_Tree_odd.SCINet_Tree_odd.SCINet_Tree_even.workingblock.interact.level.P.4.bias f8 [1]
-0.33626368702422127
00000000: 807d a620 5885 d5bf

blocks1.SCINet_Tree.SCINet_Tree_odd.SCINet_Tree_odd.SCINet_Tree_even.workingblock.interact.level.U.1.weight f8 [2, 1, 5]
-0.00043368599959706425 -0.1479000199799902 -0.27521441351928216 -0.2099408273828535 -0.18085329501175 0.34470109180720443 0.0769172991743208 -0.048704617708069636
-0.24742516112345356 -0.2707066602074421
00000000: 3c52 5c2f 0b6c 3cbf a626 724a 63ee c2bf
00000010: 3300 5dea 1c9d d1bf 452e da4d 57df cabf
00000020: dd82 b965 3326 c7bf a446 0d2b 950f d63f
00000030: 824a 7324 dab0 b33f 9cd0 70c8 cfef a8bf
00000040: 33cb 9daf a0ab cfbf 4f9f 1907 4253 d1bf

blocks1.SCINet_Tree.SCINet_Tree_odd.SCINet_Tree_odd.SCINet_Tree_even.workingblock.interact.level.U.1.bias f8 [2]
0.2583570086542328 0.28592324331864977
00000000: 3b30 b7d5 eb88 d03f 0b12 ce00 914c d23f

blocks1.SCINet_Tree.SCINet_Tree_odd.SCINet_Tree_odd.SCINet_Tree_even.workingblock.interact.level.U.4.weight f8 [1, 2, 3]
-0.22841845885874 0.17636363550845827 -0.248903575120204 -0.11723513428831564 -0.05296168102413787 -0.15299950648933805
00000000: e3ed 4ce9 d03c cdbf f532 5b67 1593 c63f
00000010: 38d7 7f85 12dc cfbf 46e2 b52b 1f03 bebf
00000020: cc34 e11f cb1d abbf 2582 56e2 7c95 c3bf

blocks1.SCINet_Tree.SCINet_Tree_odd.SCINet_Tree_odd.SCINet_Tree_even.workingblock.interact.level.U.4.bias f8 [1]
-0.15104148224336036
00000000: 698c 49c9 5355 c3bf

blocks1.SCINet_Tree.SCINet_Tree_odd.SCINet_Tree_even.workingblock.interact.level.phi.1.weight f8 [2, 1, 5]
-0.39219724429803393 0.17801771314768772 -0.17233573722844364 0.03037864385983653 0.31429891396615084 -0.14711812410936817 0.38590346593007885 0.16744339435172576
-0.34322781041196787 0.22958307293129404
00000000: 24d9 7578 c219 d9bf d2fc 09d0 48c9 c63f
00000010: f402 aaf1 180f c6bf 33d3 7f47 941b 9f3f
00000020: b2c9 2931 791d d43f e76b d945 c4d4 c2bf
00000030: 984b 6573 a4b2 d83f 9900 56ff c86e c53f
00000040: 8703 33c7 71f7 d5bf 6a40 fa66 fa62 cd3f

blocks1.SCINet_Tree.SCINet_Tree_odd.SCINet_Tree_even.workingblock.interact.level.phi.1.bias f8 [2]
0.0691842881088474 -0.21257824100109418
00000000: 2315 d3be 0fb6 b13f 9a6f 7888 c335 cbbf

blocks1.SCINet_Tree.SCINet_Tree_odd.SCINet_Tree_even.workingblock.interact.level.phi.4.weight f8 [1, 2, 3]
-0.31378840625063953 0.14246524660513732 -0.251235623057469 0.33806803464423124 0.15421318459621552 -0.02879578685049401
00000000: 2878 adf7 1b15 d4bf 7229 7e1b 4d3c c23f
00000010: 0fcf 2794 3e14 d0bf 8fad 271c e8a2 d53f
00000020: eef3 39f4 41bd c33f 434f 248b a47c 9dbf

blocks1.SCINet_Tree.SCINet_Tree_odd.SCINet_Tree_even.workingblock.interact.level.phi.4.bias f8 [1]
-0.3509516763960375
00000000: 163b 2605 fe75 d6bf

blocks1.SCINet_Tree.SCINet_Tree_odd.SCINet_Tree_even.workingblock.interact.level.psi.1.weight f8 [2, 1, 5]
-0.06998371876948778 0.0796115148274257 0.05097010536959009 0.3872148382128386 -0.01678954249330893 0.3763809290807912 0.13209933628919618 0.14134934739490043
0.34833119271866486 -0.2928317163675548
00000000: ac0e 5ef7 73ea b1bf b29d 9194 6b61 b43f
00000010: 1baa 45ef c018 aa3f cb9a a9be 20c8 d83f
00000020: cdba b11f 4731 91bf b15d 4f09 a016 d83f
00000030: 4ebb 978c a1e8 c03f 039f 2f44 bc17 c23f
00000040: 4ed0 39ea 0e4b d63f baee 413d c1bd d2bf

blocks1.SCINet_Tree.SCINet_Tree_odd.SCINet_Tree_even.workingblock.interact.level.psi.1.bias f8 [2]
0.3362013638416886 -0.3357227004287129
00000000: 8585 a4b9 5284 d53f a06e b710 7b7c d5bf

blocks1.SCINet_Tree.SCINet_Tree_odd.SCINet_Tree_even.workingblock.interact.level.psi.4.weight f8 [1, 2, 3]
-0.37591248700666324 0.20755874182057202 0.01937849860052958 0.2553511776448887 0.2885112682330606 -0.3866951825483204
00000000: 5481 763f f30e d8bf 4923 0fec 4891 ca3f
00000010: 2c7e f006 f5d7 933f 68b6 3e77 ac57 d03f
00000020: a4a9 65f7 f776 d23f d735 a426 9dbf d8bf

blocks1.SCINet_Tree.SCINet_Tree_odd.SCINet_Tree_even.workingblock.interact.level.psi.4.bias f8 [1]
-0.06941572543623899
00000000: a9a6 939e 3ac5 b1bf

blocks1.SCINet_Tree.SCINet_Tree_odd.SCINet_Tree_even.workingblock.interact.level.P.1.weight f8 [2, 1, 5]
-0.38115177042069653 0.34398260336787073 -0.20966964919840475 0.2683405988112711 0.2650359098859842 -0.14283491066405565 0.25455725843951893 0.12993443859041504
0.21340337811677737 0.09539475980731597
00000000: b73d 3165 ca64 d8bf 8fe8 f69b cf03 d63f
00000010: 32ae 227f 74d6 cabf 8157 050c 7e2c d13f
00000020: 3b75 4e2d 59f6 d03f d9bc 0313 6a48 c2bf
00000030: 0242 fd86 aa4a d03f 9e5a 2f12 b1a1 c03f
00000040: 9d09 ef48 cd50 cb3f e30a 957d ca6b b83f

blocks1.SCINet_Tree.SCINet_Tree_odd.SCINet_Tree_even.workingblock.interact.level.P.1.bias f8 [2]
-0.1969935854044337 -0.3648180507998369
00000000: cdba 6af7 1537 c9bf c13f 4bcf 2d59 d7bf

blocks1.SCINet_Tree.SCINet_Tree_odd.SCINet_Tree_even.workingblock.interact.level.P.4.weight f8 [1, 2, 3]
0.02649702189786214 -0.14143008617950217 0.17852258117691785 -0.17029996582980905 0.3638478744336596 0.20941166810439327
00000000: f489 f809 0922 9b3f b9dc 678d 611a c2bf
00000010: 934d e0f3 d3d9 c63f 82dd dfa7 63cc c5bf
00000020: 0259 5a98 4849 d73f dc5f f464 00ce ca3f

blocks1.SCINet_Tree.SCINet_Tree_odd.SCINet_Tree_even.workingblock.interact.level.P.4.bias f8 [1]
-0.3124533865936607
00000000: 0f6e 3c7d 3cff d3bf

blocks1.SCINet_Tree.SCINet_Tree_odd.SCINet_Tree_even.workingblock.interact.level.U.1.weight f8 [2, 1, 5]
-0.3722617079472834 -0.13524833259114946 -0.32582931344171134 -0.21354825732788305 0.28147312265212837 0.32532001504093117 -0.1625714338024639 -0.35627211706017736
-0.1572911310180338 -0.31514726018206773
00000000: a8f2 4bc5 22d3 d7bf 6da4 a83e d14f c1bf
00000010: afdb 5331 63da d4bf 87a7 ab9e 8c55 cbbf
00000020: dd9b 1fd8 a703 d23f 1771 550a 0bd2 d43f
00000030: 3d03 b907 24cf c4bf 6202 d090 29cd d6bf
00000040: e72e d6a3 1d22 c4bf a4fb f969 5f2b d4bf

blocks1.SCINet_Tree.SCINet_Tree_odd.SCINet_Tree_even.workingblock.interact.level.U.1.bias f8 [2]
-0.3097348749411934 -0.41713197328262436
00000000: 9765 9339 b2d2 d3bf 2b59 d74d 4ab2 dabf

blocks1.SCINet_Tree.SCINet_Tree_odd.SCINet_Tree_even.workingblock.interact.level.U.4.weight f8 [1, 2, 3]
0.051422576747613614 -0.2994055460702558 0.34500830760265244 -0.006988209535158565 0.13491105475116644 0.3623966100784226
00000000: ed68 d05a 0f54 aa3f a037 27e1 7529 d3bf
00000010: dc1b 80b9 9d14 d63f 0fdf 9336 ab9f 7cbf
00000020: 4e37 03f4 c344 c13f 2cf5 1d8d 8131 d73f

blocks1.SCINet_Tree.SCINet_Tree_odd.SCINet_Tree_even.workingblock.interact.level.U.4.bias f8 [1]
0.32917644871201696
00000000: db37 7518 3a11 d53f

blocks1.SCINet_Tree.SCINet_Tree_odd.SCINet_Tree_even.SCINet_Tree_odd.workingblock.interact.level.phi.1.weight f8 [2, 1, 5]
0.025774859190917817 -0.06205819252584963 -0.09633447210201278 0.10193156206180569 0.3716421886583505 0.1762742973045531 -0.04251015784856819 0.050853569638179795
-0.4142516299149112 0.3278822273698566
00000000: 1fd0 2285 b964 9a3f dddd b166 17c6 afbf
00000010: 63d3 273f 60a9 b8bf 8b53 7cd5 2f18 ba3f
00000020: 9c7e 8651 fcc8 d73f 2b33 06fb 2790 c63f
00000030: 1530 6a33 e4c3 a5bf c330 f6a4 7a09 aa3f
00000040: bb26 b344 1983 dabf 1a90 dfbc 05fc d43f

blocks1.SCINet_Tree.SCINet_Tree_odd.SCINet_Tree_even.SCINet_Tree_odd.workingblock.interact.level.phi.1.bias f8 [2]
-0.3453079688877311 0.2985383249942078
00000000: 82f1 5a98 8619 d6bf b9f9 9c7d 401b d33f

blocks1.SCINet_Tree.SCINet_Tree_odd.SCINet_Tree_even.SCINet_Tree_odd.workingblock.interact.level.phi.4.weight f8 [1, 2, 3]
-0.2925698809642146 -0.30956630681582703 0.19714761624188465 0.09586322997283009 0.3466797378046597 0.24685459157646147
00000000: 6d4c a205 77b9 d2bf 2deb ed32 efcf d3bf
00000010: ea22 1f12 223c c93f 9c4a 9f1d 7e8a b83f
00000020: bba3 0336 0030 d63f 7f1b d866 ee98 cf3f

blocks1.SCINet_Tree.SCINet_Tree_odd.SCINet_Tree_even.SCINet_Tree_odd.workingblock.interact.level.phi.4.bias f8 [1]
-0.07295229908073354
00000000: 4942 b87a 00ad b2bf

blocks1.SCINet_Tree.SCINet_Tree_odd.SCINet_Tree_even.SCINet_Tree_odd.workingblock.interact.level.psi.1.weight f8 [2, 1, 5]
-0.22862977091540213 -0.3320580866257044 -0.20916090592396466 -0.17936380625447707 0.11933862121991937 -0.09409728248406242 0.2597671682898315 -0.1423600568580943
0.18123411675377027 -0.23745803302450505
00000000: b79f 7c86 bd43 cdbf c980 9b8f 7040 d5bf
00000010: d5c7 45d9 c8c5 cabf c67a f9a8 64f5 c6bf
00000020: 9a0e 4ad3 f98c be3f 7d59 e96e c216 b8bf
00000030: 5847 1879 06a0 d03f e129 3bb6 da38 c2bf
00000040: e63d 30f6 ad32 c73f 5fa1 015b 0665 cebf

blocks1.SCINet_Tree.SCINet_Tree_odd.SCINet_Tree_even.SCINet_Tree_odd.workingblock.interact.level.psi.1.bias f8 [2]
-0.2365414360303239 0.31613637889394064
00000000: 4616 f361 fd46 cebf c438 1b14 943b d43f

blocks1.SCINet_Tree.SCINet_Tree_odd.SCINet_Tree_even.SCINet_Tree_odd.workingblock.interact.level.psi.4.weight f8 [1, 2, 3]
0.14166205845996074 0.02300922707414632 0.23347742641205133 0.006207849979142011 -0.27698108745887373 -0.3538601900111088
00000000: 85b4 157a fb21 c23f 20a6 2817 bb8f 973f
00000010: 06a2 659b 96e2 cd3f e7e3 380a 676d 793f
00000020: aac4 0fe2 0eba d1bf 4a0f dd35 a5a5 d6bf

blocks1.SCINet_Tree.SCINet_Tree_odd.SCINet_Tree_even.SCINet_Tree_odd.workingblock.interact.level.psi.4.bias f8 [1]
-0.31910348238047
00000000: 0149 3703 316c d4bf

blocks1.SCINet_Tree.SCINet_Tree_odd.SCINet_Tree_even.SCINet_Tree_odd.workingblock.interact.level.P.1.weight f8 [2, 1, 5]
-0.29626856904790466 -0.14159669261370111 0.21541643428374463 0.24506330580539296 0.040327335193300756 0.3695305856277083 0.03021276357091535 0.0017946351458224127
0.263410523147052 0.0876447836445567
00000000: 962e b971 10f6 d2bf b8b1 ff25 d71f c2bf
00000010: ca82 2206 c492 cb3f ad20 f101 3c5e cf3f
00000020: 4c82 94d3 c8a5 a43f 9122 099d 63a6 d73f
00000030: d1df d53d 18f0 9e3f 419f 9cd0 3e67 5d3f
00000040: 8baf 95cf b7db d03f 151a 6b77 e36f b63f

blocks1.SCINet_Tree.SCINet_Tree_odd.SCINet_Tree_even.SCINet_Tree_odd.workingblock.interact.level.P.1.bias f8 [2]
0.18873645575941084 -0.2773517758232065
00000000: f659 8624 8428 c83f 097c a9a9 21c0 d1bf

blocks1.SCINet_Tree.SCINet_Tree_odd.SCINet_Tree_even.SCINet_Tree_odd.workingblock.interact.level.P.4.weight f8 [1, 2, 3]
-0.16038011180184605 -0.3602413448014762 -0.30308348729407497 0.15812063248200547 0.3064593732373941 0.0855210739020701
00000000: 8312 8fe3 5587 c4bf bab8 a5b6 310e d7bf
00000010: 0aaf 7848 b865 d3bf 58a1 aa00 4c3d c43f
00000020: 6fdd 66c6 079d d33f 7937 8787 b5e4 b53f

blocks1.SCINet_Tree.SCINet_Tree_odd.SCINet_Tree_even.SCINet_Tree_odd.workingblock.interact.level.P.4.bias f8 [1]
-0.3698260796593449
00000000: d410 5601 3bab d7bf

blocks1.SCINet_Tree.SCINet_Tree_odd.SCINet_Tree_even.SCINet_Tree_odd.workingblock.interact.level.U.1.weight f8 [2, 1, 5]
0.3627428794386318 0.2047779812362748 -0.05609367964866051 -0.2931005225659861 -0.1630631749206593 0.3956807296791504 -0.05654077521312643 0.048040415587676584
0.008457834584816542 -0.4024098494072166
00000000: 4cee 02e9 2d37 d73f cde3 2c36 2a36 ca3f
00000010: 6ee3 348f 4fb8 acbf 8321 b7b1 28c2 d2bf
00000020: 1aab bb0d 41df c4bf 8f47 6844 d552 d93f
00000030: 659a dc98 e9f2 acbf 01af abdb c098 a83f
00000040: 897e 7e57 5752 813f b8b4 b23d 15c1 d9bf

blocks1.SCINet_Tree.SCINet_Tree_odd.SCINet_Tree_even.SCINet_Tree_odd.workingblock.interact.level.U.1.bias f8 [2]
-0.0010508325191669508 0.0854204530032209
00000000: 51d4 6ad3 8237 51bf 4aef 0e64 1dde b53f

blocks1.SCINet_Tree.SCINet_Tree_odd.SCINet_Tree_even.SCINet_Tree_odd.workingblock.interact.level.U.4.weight f8 [1, 2, 3]
-0.03331786254099841 -0.035988237407690325 -0.2804044867718646 -0.2676563961594972 0.18827141716263554 0.2893394026394581
00000000: bbf0 f8f3 090f a1bf 63d6 69dd 0c6d a2bf
00000010: 828e 15a9 25f2 d1bf 267f 044b 4821 d1bf
00000020: 8517 be1d 4719 c83f 26f6 f169 8984 d23f

blocks1.SCINet_Tree.SCINet_Tree_odd.SCINet_Tree_even.SCINet_Tree_odd.workingblock.interact.level.U.4.bias f8 [1]
0.3457615858551916
00000000: 6383 dd33 f520 d63f

blocks1.SCINet_Tree.SCINet_Tree_odd.SCINet_Tree_even.SCINet_Tree_even.workingblock.interact.level.phi.1.weight f8 [2, 1, 5]
0.3414597952971751 0.13632896009113765 0.25885933950601075 -0.18308233574731153 0.09891832170156385 0.25510608095808446 -0.3486813063311672 0.38228862105973627
-0.2971036766783674 -0.1949032625439705
00000000: 6ed0 6c2f 7ada d53f 7668 8b34 3a73 c13f
00000010: 8b51 5cc3 2691 d03f 8247 41f2 3d6f c7bf
00000020: ddf4 ae0c b652 b93f e371 ae74 a853 d03f
00000030: 99cf da65 cb50 d6bf 8468 45b1 6a77 d83f
00000040: 6fb7 b623 bf03 d3bf 7c49 4111 97f2 c8bf

blocks1.SCINet_Tree.SCINet_Tree_odd.SCINet_Tree_even.SCINet_Tree_even.workingblock.interact.level.phi.1.bias f8 [2]
0.27224885157707707 -0.38327130516296
00000000: 276a 7972 866c d13f b9e3 4a5e 8487 d8bf

blocks1.SCINet_Tree.SCINet_Tree_odd.SCINet_Tree_even.SCINet_Tree_even.workingblock.interact.level.phi.4.weight f8 [1, 2, 3]
0.22017868488066325 0.2733151543692905 -0.17028639427557832 -0.16122161470180962 -0.2858406773426909 -0.30265654358005895
00000000: c75b 6bad d02e cc3f 591b 61d8 fe7d d13f
00000010: ff05 2fcf f1cb c5bf 1cbb 46ed e8a2 c4bf
00000020: 046a 43b2 364b d2bf 2f31 268d b95e d3bf

blocks1.SCINet_Tree.SCINet_Tree_odd.SCINet_Tree_even.SCINet_Tree_even.workingblock.interact.level.phi.4.bias f8 [1]
0.20654200019991523
00000000: b9f5 0de0 f76f ca3f

blocks1.SCINet_Tree.SCINet_Tree_odd.SCINet_Tree_even.SCINet_Tree_even.workingblock.interact.level.psi.1.weight f8 [2, 1, 5]
-0.13228346814340589 -0.14004541325049552 0.3652058001736212 0.4396939875107081 0.25757184045982023 0.07759229834015938 0.4281813675925561 0.35022186595950977
-0.07374942383694821 -0.1685722629758078
00000000: fd1a bd28 aaee c0bf b6ce ee12 02ed c1bf
00000010: a188 0326 885f d73f 02ce 2640 f223 dc3f
00000020: 2d4f c999 0e7c d03f a2de cabf 16dd b33f
00000030: e442 a4d2 5267 db3f e0f8 28f9 086a d63f
00000040: 4c81 7a03 3ee1 b2bf 0a35 3fa2 c693 c5bf

blocks1.SCINet_Tree.SCINet_Tree_odd.SCINet_Tree_even.SCINet_Tree_even.workingblock.interact.level.psi.1.bias f8 [2]
0.34940821365570074 -0.39793978843683353
00000000: 92b8 a644 b45c d63f 4641 4772 d877 d9bf

blocks1.SCINet_Tree.SCINet_Tree_odd.SCINet_Tree_even.SCINet_Tree_even.workingblock.interact.level.psi.4.weight f8 [1, 2, 3]
0.10071983498293856 0.33316156764248855 0.32711773127385757 0.2741994321283235 -0.13344898369380798 0.006404379123140337
00000000: bf6b 4f6d c6c8 b93f c7bf 53e5 8452 d53f
00000010: ecd3 7035 7fef d43f bdaa 64c6 7b8c d13f
00000020: a81d 5336 db14 c1bf 3542 296e 7a3b 7a3f

blocks1.SCINet_Tree.SCINet_Tree_odd.SCINet_Tree_even.SCINet_Tree_even.workingblock.interact.level.psi.4.bias f8 [1]
-0.10583477657439265
00000000: a79e 2ae8 fc17 bbbf

blocks1.SCINet_Tree.SCINet_Tree_odd.SCINet_Tree_even.SCINet_Tree_even.workingblock.interact.level.P.1.weight f8 [2, 1, 5]
-0.19108029340783125 0.06028589966402197 -0.020414287281542886 -0.2683800311570723 -0.23301231684331075 0.03089676838986713 0.3925615117516514 0.06419968402674808
-0.46470847072441346 0.09301736830875251
00000000: 4f61 8cad 5175 c8bf 0f0f ef1e cbdd ae3f
00000010: b343 fba0 7be7 94bf 8405 2e70 232d d1bf
00000020: 721f 34fc 58d3 cdbf 8871 2507 67a3 9f3f
00000030: ff10 a951 ba1f d93f 64f4 4ef7 636f b03f
00000040: b6df fb98 c8bd ddbf a098 d87a fccf b73f

blocks1.SCINet_Tree.SCINet_Tree_odd.SCINet_Tree_even.SCINet_Tree_even.workingblock.interact.level.P.1.bias f8 [2]
0.18010973552358606 0.21007144881417697
00000000: e6eb e1f7 d50d c73f 1d78 3d09 9fe3 ca3f

blocks1.SCINet_Tree.SCINet_Tree_odd.SCINet_Tree_even.SCINet_Tree_even.workingblock.interact.level.P.4.weight f8 [1, 2, 3]
-0.09909080893742607 -0.248855273008179 0.03353511830882433 0.14750326965820343 0.13774348993289268 0.32648880590733503
00000000: 116e b8e7 035e b9bf 90ee 8055 7dda cfbf
00000010: d8ca ced8 832b a13f 3616 9e1b 63e1 c23f
00000020: b9d4 3f24 94a1 c13f 4174 f84d 31e5 d43f

blocks1.SCINet_Tree.SCINet_Tree_odd.SCINet_Tree_even.SCINet_Tree_even.workingblock.interact.level.P.4.bias f8 [1]
0.28361733730704247
00000000: 83fd 1355 c926 d23f

blocks1.SCINet_Tree.SCINet_Tree_odd.SCINet_Tree_even.SCINet_Tree_even.workingblock.interact.level.U.1.weight f8 [2, 1, 5]
0.09708209692097879 -0.2425508151203645 0.1083552817410751 -0.05342530498045857 -0.1999541958029934 -0.36818359787643906 0.3588248192598924 0.21987188802334076
-0.22386216743061002 0.2911060622853964
00000000: 277e 4d4f 5fda b83f 9db1 47b5 e70b cfbf
00000010: af41 6df7 2bbd bb3f 8afc 56c3 8f5a abbf
00000020: c2fe d55d 1998 c9bf 0e63 f3ef 5190 d7bf
00000030: e4b7 ed5f fcf6 d63f e75c 2f14 c324 cc3f
00000040: f78b f6f7 83a7 ccbf 2fb8 4b52 7ba1 d23f

blocks1.SCINet_Tree.SCINet_Tree_odd.SCINet_Tree_even.SCINet_Tree_even.workingblock.interact.level.U.1.bias f8 [2]
0.17616802192332062 -0.20003000086390932
00000000: 817e 617a ac8c c63f b0f4 f643 959a c9bf

blocks1.SCINet_Tree.SCINet_Tree_odd.SCINet_Tree_even.SCINet_Tree_even.workingblock.interact.level.U.4.weight f8 [1, 2, 3]
-0.10880733634190076 -0.10180896703398358 -0.2620182807551258 0.014653696437817984 -0.10623513706423704 -0.16242863300600874
00000000: 0841 272f ccda bbbf 79ba d907 2710 babf
00000010: ca08 b352 e8c4 d0bf b83e bad7 c102 8e3f
00000020: 7881 60d7 3932 bbbf 00ef 5821 76ca c4bf

blocks1.SCINet_Tree.SCINet_Tree_odd.SCINet_Tree_even.SCINet_Tree_even.workingblock.interact.level.U.4.bias f8 [1]
0.12688382087344288
00000000: b17f 85a2 ba3d c03f

blocks1.SCINet_Tree.SCINet_Tree_even.workingblock.interact.level.phi.1.weight f8 [2, 1, 5]
0.023560456740058515 -0.4016297255852431 0.027610789677256695 -0.11943879551061289 0.3764270506330704 0.2109724807796287 0.38494862196043605 -0.2572668044802114
-0.09648785902465325 -0.4298762923226723
00000000: 8ea1 b57c 3b20 983f 5e5d 1f2a 4db4 d9bf
00000010: 99e2 b8ba 0046 9c3f 917a 9778 8a93 bebf
00000020: 1b1f f37b 6117 d83f a8f9 a670 2501 cb3f
00000030: 3776 7d8b ffa2 d83f 19b1 e52f 0f77 d0bf
00000040: 55d1 f8a6 6db3 b8bf d680 36da 1783 dbbf

blocks1.SCINet_Tree.SCINet_Tree_even.workingblock.interact.level.phi.1.bias f8 [2]
0.3806196516031836 -0.23892852503269904
00000000: 0770 f686 125c d83f 2d69 8cbc 3595 cebf

blocks1.SCINet_Tree.SCINet_Tree_even.workingblock.interact.level.phi.4.weight f8 [1, 2, 3]
0.011574603215765781 0.33993584966138585 0.33039243233371995 0.35833318403290865 0.10369654194495322 -0.41454724729554365
00000000: 0f06 35f2 6cb4 873f e926 424b 82c1 d53f
00000010: b407 ee4c 2625 d53f 8b8b 9f4e eeee d63f
00000020: 45a3 5c48 db8b ba3f edfe 712d f187 dabf

blocks1.SCINet_Tree.SCINet_Tree_even.workingblock.interact.level.phi.4.bias f8 [1]
-0.3444601996964424
00000000: 0312 1ecb a20b d6bf

blocks1.SCINet_Tree.SCINet_Tree_even.workingblock.interact.level.psi.1.weight f8 [2, 1, 5]
0.4092108612428192 0.43550585517358464 -0.19210654830359367 -0.22138073406938893 -0.20561995214611326 -0.05893415516646132 -0.33772929036540084 0.2696317947042151
-0.30771255728510466 -0.3465694825396926
00000000: 812d 8dc0 8230 da3f c4f8 4bf3 53df db3f
00000010: 45db 2787 f296 c8bf 9770 6532 3456 ccbf
00000020: b7b2 ef2c c151 cabf c65b 1d1a 9e2c aebf
00000030: e552 4150 5b9d d5bf 55d9 0db7 a541 d13f
00000040: 4fea 8602 90b1 d3bf 052d 53c4 312e d6bf

blocks1.SCINet_Tree.SCINet_Tree_even.workingblock.interact.level.psi.1.bias f8 [2]
-0.18587471370828745 0.1212666044555895
00000000: 08e6 431c beca c7bf 63d5 3b04 540b bf3f

blocks1.SCINet_Tree.SCINet_Tree_even.workingblock.interact.level.psi.4.weight f8 [1, 2, 3]
0.3823727549426583 -0.41290493448501 -0.42159825492856035 -0.17771750228797212 -0.07780937986914732 -0.10941624960660266
00000000: 880c 5793 cb78 d83f c816 7ed1 086d dabf
00000010: 6f01 3e3f 77fb dabf 7477 2076 72bf c6bf
00000020: d42a dcc5 50eb b3bf cf19 b60d b402 bcbf

blocks1.SCINet_Tree.SCINet_Tree_even.workingblock.interact.level.psi.4.bias f8 [1]
-0.29097960254209454
00000000: 002b 2ee9 689f d2bf

blocks1.SCINet_Tree.SCINet_Tree_even.workingblock.interact.level.P.1.weight f8 [2, 1, 5]
-0.02740907066907633 0.37701151748884215 -0.002017531052052993 0.06717982555532089 0.0631157485532662 -0.049378130619878544 0.18880961910446908 -0.3267905946906472
-0.04815070052593384 0.02838010261173716
00000000: f0bb 8c98 1f11 9cbf 3b1d 75ea f420 d83f
00000010: 8734 64bc 1187 60bf e109 b671 b232 b13f
00000020: 391a e68b 5a28 b03f 16cc 4c20 1748 a9bf
00000030: 22a9 9ce1 e92a c83f d68c 3519 23ea d4bf
00000040: 00a6 1368 35a7 a8bf fb52 4c72 ac0f 9d3f

blocks1.SCINet_Tree.SCINet_Tree_even.workingblock.interact.level.P.1.bias f8 [2]
0.3028610226291576 -0.18051219461213905
00000000: e638 db32 1362 d33f 9fb4 310a 061b c7bf

blocks1.SCINet_Tree.SCINet_Tree_even.workingblock.interact.level.P.4.weight f8 [1, 2, 3]
0.08410756797108243 0.024885506097829115 0.18509157748255953 0.24706664287335342 -0.31869477755766024 -0.22081311596960276
00000000: 582a c8d5 1288 b53f 5a9d 560b 967b 993f
00000010: 03bd 06b0 14b1 c73f 8f6a 8937 e19f cf3f
00000020: 8708 c1c7 7e65 d4bf a903 cfab 9a43 ccbf

blocks1.SCINet_Tree.SCINet_Tree_even.workingblock.interact.level.P.4.bias f8 [1]
-0.2984381747037876
00000000: d3c3 0e6e 9c19 d3bf

blocks1.SCINet_Tree.SCINet_Tree_even.workingblock.interact.level.U.1.weight f8 [2, 1, 5]
-0.3185161371343398 0.15801278581246264 0.1708403202516069 0.06580325969447509 -0.058363006876546386 -0.09059801323368258 0.3793440011374923 -0.2938556867855064
0.13345430143606798 -0.14337214858081843
00000000: 1a60 0f82 9162 d4bf 660a b551 c339 c43f
00000010: 08cf 287a 18de c53f a0a3 5b80 7bd8 b03f
00000020: 8077 a98b c1e1 adbf 82d6 eb6f 6e31 b7bf
00000030: ad6f b40f 2c47 d83f 0f31 1f15 88ce d2bf
00000040: 0dd7 16d2 0715 c13f 4aeb a7c0 045a c2bf

blocks1.SCINet_Tree.SCINet_Tree_even.workingblock.interact.level.U.1.bias f8 [2]
0.09095153141989024 -0.15640051184693135
00000000: 1a34 f87c 9948 b73f d7e8 ba95 ee04 c4bf

blocks1.SCINet_Tree.SCINet_Tree_even.workingblock.interact.level.U.4.weight f8 [1, 2, 3]
-0.06627235089091517 -0.19267517952972152 -0.030675074722205212 -0.10939484881861307 0.3216413376038427 -0.40960156705250966
00000000: c59c b48b 39f7 b0bf ea60 6a8d 94a9 c8bf
00000010: 61d9 ef6a 4969 9fbf d9dc 0602 4d01 bcbf
00000020: 7836 838c c595 d43f 5760 b87d e936 dabf

blocks1.SCINet_Tree.SCINet_Tree_even.workingblock.interact.level.U.4.bias f8 [1]
0.1211902831665346
00000000: 2212 cb8e 5306 bf3f

blocks1.SCINet_Tree.SCINet_Tree_even.SCINet_Tree_odd.workingblock.interact.level.phi.1.weight f8 [2, 1, 5]
-0.2960232314082013 0.35085123710753874 -0.04489419783261372 -0.4031936373901639 0.3987785739742692 0.02969359150526454 -0.2961923524811087 0.19199377797621425
0.3433039570846178 0.3628669570362803
00000000: 2649 706c 0bf2 d2bf 54d5 48bf 5874 d63f
00000010: 0f45 f14e 5ffc a6bf 44f2 a2af eccd d9bf
00000020: 0229 6491 9685 d93f 47e0 a931 ff67 9e3f
00000030: 9fd3 cec4 d0f4 d2bf e2be b88a 4093 c83f
00000040: 3603 1129 b1f8 d53f 6745 5154 3639 d73f

blocks1.SCINet_Tree.SCINet_Tree_even.SCINet_Tree_odd.workingblock.interact.level.phi.1.bias f8 [2]
-0.28430368016734275 -0.3950677124391054
00000000: 26e0 1c10 0832 d2bf 556a 2816 ca48 d9bf

blocks1.SCINet_Tree.SCINet_Tree_even.SCINet_Tree_odd.workingblock.interact.level.phi.4.weight f8 [1, 2, 3]
0.0025248530060121522 0.3842314001862681 -0.18011847032120787 0.3497249795136697 -0.012023973704997047 0.27679993488708365
00000000: 3623 d122 00af 643f 245d 794c 3f97 d83f
00000010: 7cb2 b73d 1f0e c7bf 35c0 66e1 e461 d63f
00000020: acbc a56e 06a0 88bf 3eff f712 17b7 d13f

blocks1.SCINet_Tree.SCINet_Tree_even.SCINet_Tree_odd.workingblock.interact.level.phi.4.bias f8 [1]
-0.4385601132316234
00000000: 773b ea6f 5e11 dcbf

blocks1.SCINet_Tree.SCINet_Tree_even.SCINet_Tree_odd.workingblock.interact.level.psi.1.weight f8 [2, 1, 5]
-0.06523427650032172 -0.4344543564377552 -0.3494386848978942 0.25978567707214034 -0.028261931743571302 0.43663662821172317 -0.036947414383501596 0.09060538767820203
0.05814345506104052 0.27792857295095413
00000000: 8da8 258c 31b3 b0bf 0c50 20a5 19ce dbbf
00000010: 42ff e512 345d d6bf ad9e bf1a 54a0 d03f
00000020: 87df 3d22 b2f0 9cbf 89ec 99c1 daf1 db3f
00000030: 23d6 e580 c5ea a2bf e055 eb28 ea31 b73f
00000040: e95e ed9b fac4 ad3f ebb0 dcec 94c9 d13f

blocks1.SCINet_Tree.SCINet_Tree_even.SCINet_Tree_odd.workingblock.interact.level.psi.1.bias f8 [2]
-0.183936725291271 0.21249105064855944
00000000: 6b65 d415 3d8b c7bf 0c37 9d20 e832 cb3f

blocks1.SCINet_Tree.SCINet_Tree_even.SCINet_Tree_odd.workingblock.interact.level.psi.4.weight f8 [1, 2, 3]
0.33690712296211256 -0.27941085401166105 -0.1808832191562216 0.28468526471256084 -0.20191645170728442 0.03261121720124152
00000000: b059 bae4 e28f d53f 3329 0810 dee1 d1bf
00000010: fbe8 556b 2e27 c7bf c0fc 658b 4838 d23f
00000020: 17b7 4df6 65d8 c9bf 3463 b9de 6ab2 a03f

blocks1.SCINet_Tree.SCINet_Tree_even.SCINet_Tree_odd.workingblock.interact.level.psi.4.bias f8 [1]
-0.26105012021385593
00000000: 43dd 3b90 0bb5 d0bf

blocks1.SCINet_Tree.SCINet_Tree_even.SCINet_Tree_odd.workingblock.interact.level.P.1.weight f8 [2, 1, 5]
-0.31001634656980925 -0.014667977514520484 -0.03630428740144427 0.3856717219828184 0.3704139622259629 -0.09235302509862438 -0.4392540075372368 -0.18572377681362126
-0.3555704886333843 0.32490847021307656
00000000: ee88 6fcd 4ed7 d3bf a260 c99d 3e0a 8ebf
00000010: fa04 30be 7996 a2bf 1a20 3a72 d8ae d83f
00000020: ae81 6fc3 dcb4 d73f ed39 7ca6 72a4 b7bf
00000030: 8399 40d7 bc1c dcbf 8f86 c0f5 cbc5 c7bf
00000040: 9b99 06b9 aac1 d6bf 268c 70e5 4ccb d43f

blocks1.SCINet_Tree.SCINet_Tree_even.SCINet_Tree_odd.workingblock.interact.level.P.1.bias f8 [2]
0.017907382654991606 -0.20282556565877796
00000000: 45ca 701b 5056 923f 1409 a629 30f6 c9bf

blocks1.SCINet_Tree.SCINet_Tree_even.SCINet_Tree_odd.workingblock.interact.level.P.4.weight f8 [1, 2, 3]
0.1196120642105062 0.12100125533557364 0.06457733449150119 0.18870566027789065 -0.12650598512485348 -0.24409986953106752
00000000: b9bd fd6f e59e be3f bbf4 7032 f0f9 be3f
00000010: 8a2f b4e3 2388 b03f 1e58 bbcf 8127 c83f
00000020: 5d04 6e1e 5931 c0bf b301 4c1e aa3e cfbf

blocks1.SCINet_Tree.SCINet_Tree_even.SCINet_Tree_odd.workingblock.interact.level.P.4.bias f8 [1]
-0.32212455121068767
00000000: b511 2c4b b09d d4bf

blocks1.SCINet_Tree.SCINet_Tree_even.SCINet_Tree_odd.workingblock.interact.level.U.1.weight f8 [2, 1, 5]
-0.21546768488538443 -0.4414864650679661 0.2381656215549403 -0.036823830755489 -0.4407236261812432 0.3793057030453513 0.054202178660414733 -0.1718318332648933
-0.27640626857273926 -0.41672981515541474
00000000: 46ba f6f1 7194 cbbf e7fc 4572 5041 dcbf
00000010: de13 ce09 367c ce3f cfd4 9db9 92da a2bf
00000020: 5378 41de d034 dcbf 5007 716d 8b46 d83f
00000030: 1bd6 6f51 63c0 ab3f 9568 24e4 95fe c5bf
00000040: c779 fbea a3b0 d1bf 9614 d787 b3ab dabf

blocks1.SCINet_Tree.SCINet_Tree_even.SCINet_Tree_odd.workingblock.interact.level.U.1.bias f8 [2]
0.3582727386215134 -0.16241914576074837
00000000: 5b60 dbc7 f0ed d63f a5b1 a48b 26ca c4bf

blocks1.SCINet_Tree.SCINet_Tree_even.SCINet_Tree_odd.workingblock.interact.level.U.4.weight f8 [1, 2, 3]
-0.007768952129270747 -0.15895395352738279 -0.05401654301316332 -0.13837580285830253 0.21594121381529513 -0.12957391768560322
00000000: f54a 1c35 56d2 7fbf 6229 fc67 9a58 c4bf
00000010: 9678 5e6b 0ea8 abbf 84c5 ea5d 4cb6 c1bf
00000020: 7efd 9831 f6a3 cb3f d0e7 6fcd e095 c0bf

blocks1.SCINet_Tree.SCINet_Tree_even.SCINet_Tree_odd.workingblock.interact.level.U.4.bias f8 [1]
-0.2761701532759397
00000000: dbe4 1c94 c5ac d1bf

blocks1.SCINet_Tree.SCINet_Tree_even.SCINet_Tree_odd.SCINet_Tree_odd.workingblock.interact.level.phi.1.weight f8 [2, 1, 5]
-0.17430752935693392 -0.40854622623221676 0.14797787488994912 -0.026504882478110284 0.20705272550814346 -0.38179592041906624 0.014051139022275417 0.32873958644293905
-0.25059085879658183 -0.0979843357441593
00000000: 7b6d 0489 b54f c6bf e794 2412 9f25 dabf
00000010: 668a 9762 f0f0 c23f 1113 b68d 1824 9bbf
00000020: 4475 4d26 b480 ca3f 098d fc27 586f d8bf
00000030: 4de9 93f4 d7c6 8c3f 3d12 2bc3 110a d53f
00000040: ca4d cd3d ae09 d0bf 569c 8a5d 8015 b9bf

blocks1.SCINet_Tree.SCINet_Tree_even.SCINet_Tree_odd.SCINet_Tree_odd.workingblock.interact.level.phi.1.bias f8 [2]
-0.3866041884249286 0.2956915277713421
00000000: 3607 727e 1fbe d8bf 34dc 5e28 9cec d23f

blocks1.SCINet_Tree.SCINet_Tree_even.SCINet_Tree_odd.SCINet_Tree_odd.workingblock.interact.level.phi.4.weight f8 [1, 2, 3]
0.03307946299920023 0.1864908987512039 -0.16297073371464624 -0.03591201894810527 0.36720857567684334 -0.06007658697404841
00000000: c969 8097 caef a03f 36ac 910b efde c73f
00000010: 4938 c199 39dc c4bf 23b5 d465 0f63 a2bf
00000020: 29f0 d565 5880 d73f f41f 9ec0 5bc2 aebf

blocks1.SCINet_Tree.SCINet_Tree_even.SCINet_Tree_odd.SCINet_Tree_odd.workingblock.interact.level.phi.4.bias f8 [1]
-0.29889140647839585
00000000: 6c54 f86b 0921 d3bf

blocks1.SCINet_Tree.SCINet_Tree_even.SCINet_Tree_odd.SCINet_Tree_odd.workingblock.interact.level.psi.1.weight f8 [2, 1, 5]
-0.4102694963280459 -0.12435658704233914 0.14443059932354155 -0.2619061148112576 0.3684450851252285 0.1103244790648833 0.16587995004294917 -0.17561776757871694
0.28251176742993744 0.1585486994550556
00000000: 529f 51fd da41 dabf 1397 6352 d5d5 bfbf
00000010: f971 51ae b37c c23f 4827 6fdd 11c3 d0bf
00000020: d706 bfb1 9a94 d73f 482b 889d 393e bc3f
00000030: f38f 3fe0 8d3b c53f 606e 2c9c a47a c6bf
00000040: fa30 763c ac14 d23f 49cc 7de3 524b c43f

blocks1.SCINet_Tree.SCINet_Tree_even.SCINet_Tree_odd.SCINet_Tree_odd.workingblock.interact.level.psi.1.bias f8 [2]
0.1135650138053653 0.09879877345473227
00000000: 868a 43c4 9812 bd3f 257c df5c e04a b93f

blocks1.SCINet_Tree.SCINet_Tree_even.SCINet_Tree_odd.SCINet_Tree_odd.workingblock.interact.level.psi.4.weight f8 [1, 2, 3]
0.30057118163145174 -0.027546173020595716 -0.043348979152543786 0.3512058464055015 0.17808944889684392 0.2440972724934936
00000000: cf89 cee8 8e3c d33f 857f 0361 1035 9cbf
00000010: f3e1 8c5f d631 a6bf b170 1e16 287a d63f
00000020: 5a26 6393 a2cb c63f 6280 3355 943e cf3f

blocks1.SCINet_Tree.SCINet_Tree_even.SCINet_Tree_odd.SCINet_Tree_odd.workingblock.interact.level.psi.4.bias f8 [1]
0.37014037545574163
00000000: 96bd e041 61b0 d73f

blocks1.SCINet_Tree.SCINet_Tree_even.SCINet_Tree_odd.SCINet_Tree_odd.workingblock.interact.level.P.1.weight f8 [2, 1, 5]
-0.064096595361904 -0.042226860685720735 0.34604936247024015 0.38225061475255034 -0.2590086017506889 -0.1732530625867171 0.2203501591232236 -0.25964400242282465
0.36046679513026464 0.2112381589564933
00000000: 4544 dd6c a268 b0bf b8da 5053 c29e a5bf
00000010: 0d20 a739 ac25 d63f 033d 4f48 cb76 d83f
00000020: afb8 79d0 9893 d0bf 03f3 de06 282d c6bf
00000030: 5a23 8d1b 6f34 cc3f 858c c0e0 019e d0bf
00000040: 0338 1852 e311 d73f 6754 311c da09 cb3f

blocks1.SCINet_Tree.SCINet_Tree_even.SCINet_Tree_odd.SCINet_Tree_odd.workingblock.interact.level.P.1.bias f8 [2]
-0.427752329660344 -0.32831849095698473
00000000: 8b74 ab4e 4b60 dbbf c044 558f 2b03 d5bf

blocks1.SCINet_Tree.SCINet_Tree_even.SCINet_Tree_odd.SCINet_Tree_odd.workingblock.interact.level.P.4.weight f8 [1, 2, 3]
0.32542062622269957 0.10796874769380506 0.3046346787648022 -0.03172462216591017 0.34023163385628724 -0.35334125396442745
00000000: 5d80 c408 b1d3 d43f 79c0 5500 d7a3 bb3f
00000010: 386d a173 227f d33f da6f 5cad 353e a0bf
00000020: b98d 1ee7 5ac6 d53f cdb5 86a2 249d d6bf

blocks1.SCINet_Tree.SCINet_Tree_even.SCINet_Tree_odd.SCINet_Tree_odd.workingblock.interact.level.P.4.bias f8 [1]
-0.38432918311517666
00000000: 7332 186e d998 d8bf

blocks1.SCINet_Tree.SCINet_Tree_even.SCINet_Tree_odd.SCINet_Tree_odd.workingblock.interact.level.U.1.weight f8 [2, 1, 5]
-0.353318094722822 0.11220914529149299 0.030155082546792396 0.3981662878407652 -0.1599916097041612 -0.0009829849510891637 -0.09258840875860967 0.24782723842728852
0.21805594805022985 -0.043832057435694925
00000000: ebd9 7a7f c39c d6bf 9bcd 5611 bdb9 bc3f
00000010: 32f9 6255 f9e0 9e3f ef54 2974 8e7b d93f
00000020: 9229 a8e5 9a7a c4bf daaf e90d f01a 50bf
00000030: 5b5e 9bbb dfb3 b7bf 9d35 0d8e cdb8 cf3f
00000040: 3b79 c9de 41e9 cb3f bbc8 67ca 2771 a6bf

blocks1.SCINet_Tree.SCINet_Tree_even.SCINet_Tree_odd.SCINet_Tree_odd.workingblock.interact.level.U.1.bias f8 [2]
-0.15698612019006783 -0.08206829163502434
00000000: cb35 1206 1f18 c4bf cd6b 9c74 6d02 b5bf

blocks1.SCINet_Tree.SCINet_Tree_even.SCINet_Tree_odd.SCINet_Tree_odd.workingblock.interact.level.U.4.weight f8 [1, 2, 3]
0.24008907083939596 0.07033770664986719 -0.1002138030012696 0.23908710523574178 -0.31370836792807977 0.27949527346692565
00000000: 02ed b019 3dbb ce3f 52a0 bce5 a601 b23f
00000010: a18c 7f9e 9ca7 b9bf 4a00 f100 689a ce3f
00000020: 8ae3 2e43 cc13 d4bf 5554 bb24 40e3 d13f

blocks1.SCINet_Tree.SCINet_Tree_even.SCINet_Tree_odd.SCINet_Tree_odd.workingblock.interact.level.U.4.bias f8 [1]
-0.2452611289716811
00000000: 91ea f477 b764 cfbf

blocks1.SCINet_Tree.SCINet_Tree_even.SCINet_Tree_odd.SCINet_Tree_even.workingblock.interact.level.phi.1.weight f8 [2, 1, 5]
0.4293432549696429 0.4162702247999319 -0.14202624602692374 0.19918625450994382 0.07676300656922551 -0.41636164523667063 -0.322359094895566 0.24393455808775844
0.36711164654555734 -0.0924767204907888
00000000: 5e94 b621 5c7a db3f 181d 74de 2ba4 da3f
00000010: 21fd ed80 ea2d c2bf 9e6a 7768 ef7e c93f
00000020: afe8 c18a bda6 b33f 926a 6650 aba5 dabf
00000030: 6641 890a 88a1 d4bf fcf1 ac62 3f39 cf3f
00000040: 5535 f9d8 c17e d73f 9f36 26ea 8dac b7bf

blocks1.SCINet_Tree.SCINet_Tree_even.SCINet_Tree_odd.SCINet_Tree_even.workingblock.interact.level.phi.1.bias f8 [2]
-0.07418089156597478 0.11626698978613113
00000000: 7394 43d7 84fd b2bf 575d bc66 acc3 bd3f

blocks1.SCINet_Tree.SCINet_Tree_even.SCINet_Tree_odd.SCINet_Tree_even.workingblock.interact.level.phi.4.weight f8 [1, 2, 3]
0.0006499357991605094 0.3830825101943058 0.19127288695794772 -0.15668562557966204 0.24653285400978733 -0.32052772000417523
00000000: 2010 3e80 0e4c 453f 7710 3d81 6c84 d83f
00000010: 2346 0c45 a17b c83f f818 cf4a 460e c4bf
00000020: 3948 ae78 638e cf3f b947 b8b2 8683 d4bf

blocks1.SCINet_Tree.SCINet_Tree_even.SCINet_Tree_odd.SCINet_Tree_even.workingblock.interact.level.phi.4.bias f8 [1]
0.36787554288153423
00000000: f229 6bdc 458b d73f

blocks1.SCINet_Tree.SCINet_Tree_even.SCINet_Tree_odd.SCINet_Tree_even.workingblock.interact.level.psi.1.weight f8 [2, 1, 5]
-0.28906979389991183 0.4152766116656637 0.260220572797218 -0.4302880907869982 -0.2646082336539104 0.08566475171364345 -0.17976160150467696 -0.3591264605556029
-0.14434483141958276 0.2008642350434552
00000000: f4f0 c397 1e80 d2bf 3574 795a e493 da3f
00000010: a044 7a30 74a7 d03f bd75 720f d789 dbbf
00000020: 90ef 725f 57ef d0bf ebb1 070b 20ee b53f
00000030: 9603 c59b 6d02 c7bf 29bb cd8c edfb d6bf
00000040: 5099 2535 e479 c2bf 254e 3954 ebb5 c93f

blocks1.SCINet_Tree.SCINet_Tree_even.SCINet_Tree_odd.SCINet_Tree_even.workingblock.interact.level.psi.1.bias f8 [2]
0.16483422668754608 0.3677796997343572
00000000: 0336 71b6 4919 c53f 1079 9fdd b389 d73f

blocks1.SCINet_Tree.SCINet_Tree_even.SCINet_Tree_odd.SCINet_Tree_even.workingblock.interact.level.psi.4.weight f8 [1, 2, 3]
-0.31153066488628217 -0.08470975972897594 -0.0917970062616557 -0.03356563560448049 0.010232909420772306 -0.023486693941355042
00000000: 5dd0 5850 1ef0 d3bf c51e b0ef 89af b5bf
00000010: 7bb7 c333 0280 b7bf 06a3 61d6 832f a1bf
00000020: 19f1 70da fdf4 843f dd24 7a59 e50c 98bf

blocks1.SCINet_Tree.SCINet_Tree_even.SCINet_Tree_odd.SCINet_Tree_even.workingblock.interact.level.psi.4.bias f8 [1]
-0.4446122517879931
00000000: 6b24 35f2 8674 dcbf

blocks1.SCINet_Tree.SCINet_Tree_even.SCINet_Tree_odd.SCINet_Tree_even.workingblock.interact.level.P.1.weight f8 [2, 1, 5]
-0.09485035357542351 0.26396623357810894 -0.1049445569755068 0.0641753070667453 -0.24995165499142946 -0.41069017696488974 0.31373956703986006 0.34753183264064547
0.31939824249390225 0.00489819966361674
00000000: d2d7 9ede 1c48 b8bf 73d7 1da1 d2e4 d03f
00000010: e35e 1a80 a5dd babf 55fb 0ffd ca6d b03f
00000020: 4477 e273 6afe cfbf e291 b673 bf48 dabf
00000030: fa6e f91e 4f14 d43f 52ac e027 f63d d63f
00000040: e650 7a53 0571 d43f a40a d575 2210 743f

blocks1.SCINet_Tree.SCINet_Tree_even.SCINet_Tree_odd.SCINet_Tree_even.workingblock.interact.level.P.1.bias f8 [2]
0.1589814489493834 0.06059558237719795
00000000: 0543 f40d 8159 c43f dc2c 2f59 6206 af3f

blocks1.SCINet_Tree.SCINet_Tree_even.SCINet_Tree_odd.SCINet_Tree_even.workingblock.interact.level.P.4.weight f8 [1, 2, 3]
-0.15445016831951588 -0.20676254948263798 -0.10755653537654088 -0.241302258572519 0.026577066221491644 0.26125329857501256
00000000: 51a2 e5ea 05c5 c3bf b162 08fa 3177 cabf
00000010: b1ce e939 d388 bbbf 3d8c 820e fee2 cebf
00000020: b1cf fab8 0437 9b3f ee83 56c1 5fb8 d03f

blocks1.SCINet_Tree.SCINet_Tree_even.SCINet_Tree_odd.SCINet_Tree_even.workingblock.interact.level.P.4.bias f8 [1]
0.29637652224020217
00000000: 88ba 943b d5f7 d23f

blocks1.SCINet_Tree.SCINet_Tree_even.SCINet_Tree_odd.SCINet_Tree_even.workingblock.interact.level.U.1.weight f8 [2, 1, 5]
-0.4225500779444102 -0.4041149105490382 0.02633581462236548 -0.23839570049149972 -0.14968663430402224 -0.031213900362946745 -0.039316632691112116 0.15640131397101678
0.27074697513280527 0.3987734771886747
00000000: 2f62 6c7b 0f0b dbbf d794 28c9 04dd d9bf
00000010: e9f9 109a c6f7 9a3f b41a 8f14 c083 cebf
00000020: 92f6 7d7f ee28 c3bf b034 f564 89f6 9fbf
00000030: 66c0 3147 4f21 a4bf f949 4750 f504 c43f
00000040: bbec eb1e eb53 d13f 6167 c230 8185 d93f

blocks1.SCINet_Tree.SCINet_Tree_even.SCINet_Tree_odd.SCINet_Tree_even.workingblock.interact.level.U.1.bias f8 [2]
-0.46349952678851775 -0.3894693398888269
00000000: 8729 51eb f9a9 ddbf 8880 67cf 10ed d8bf

blocks1.SCINet_Tree.SCINet_Tree_even.SCINet_Tree_odd.SCINet_Tree_even.workingblock.interact.level.U.4.weight f8 [1, 2, 3]
0.14410855908308004 0.04711249262261604 0.0802153143310476 0.020203778326122804 0.34478381144237663 -0.20536656335506304
00000000: 13f2 2a36 2672 c23f 9b27 18ee 201f a83f
00000010: 93b1 b0a7 fd88 b43f b152 aa9c 4cb0 943f
00000020: 8b74 951e f010 d63f eaa4 a698 7349 cabf

blocks1.SCINet_Tree.SCINet_Tree_even.SCINet_Tree_odd.SCINet_Tree_even.workingblock.interact.level.U.4.bias f8 [1]
-0.38644712569069867
00000000: 5762 9eb9 8cbb d8bf

blocks1.SCINet_Tree.SCINet_Tree_even.SCINet_Tree_even.workingblock.interact.level.phi.1.weight f8 [2, 1, 5]
0.33517427042801373 0.3854798675850365 0.34287343411183296 0.285824062642186 0.08194851717500921 0.12103106829062284 -0.21558084156162993 -0.3698652889839572
-0.16162909704226264 0.31838580101499764
00000000: 12bc 7cc8 7e73 d53f 3ad3 22c0 b3ab d83f
00000010: b55c 8b6a a3f1 d53f 9950 5d02 f14a d23f
00000020: 83ec 38f9 93fa b43f e1b0 1b60 e4fb be3f
00000030: b45f 132c 2798 cbbf da25 0776 dfab d7bf
00000040: 9e73 f022 43b0 c4bf 01b1 b7d6 6e60 d43f

blocks1.SCINet_Tree.SCINet_Tree_even.SCINet_Tree_even.workingblock.interact.level.phi.1.bias f8 [2]
-0.31870870282706804 -0.039335247895177713
00000000: 17f1 e52f b965 d4bf 0e66 94e6 bf23 a4bf

blocks1.SCINet_Tree.SCINet_Tree_even.SCINet_Tree_even.workingblock.interact.level.phi.4.weight f8 [1, 2, 3]
0.02916018170048851 -0.1954496430283668 0.034154731037726475 -0.005372285064987333 -0.2824225072534896 -0.2523282512149757
00000000: 01fe feaa 2adc 9d3f c92d 6970 7e04 c9bf
00000010: 8f15 9f99 ba7c a13f 09e5 8aca 3f01 76bf
00000020: 44b7 13da 3513 d2bf f6cf b464 2526 d0bf

blocks1.SCINet_Tree.SCINet_Tree_even.SCINet_Tree_even.workingblock.interact.level.phi.4.bias f8 [1]
0.31176359347412486
00000000: ee81 8349 eff3 d33f

blocks1.SCINet_Tree.SCINet_Tree_even.SCINet_Tree_even.workingblock.interact.level.psi.1.weight f8 [2, 1, 5]
-0.17829745784373702 -0.23393852964383935 0.09520459448779008 -0.03309507327539921 -0.3841542240788997 0.08850191378900925 0.4010297510223757 0.373122799270429
0.1572365450248703 0.12172824052145685
00000000: 860b 337b 73d2 c6bf 651c 0c9f b2f1 cdbf
00000010: 2906 c10b 545f b83f e5cc c062 d6f1 a0bf
00000020: 1b81 4299 fb95 d8bf dd71 5bb9 0fa8 b63f
00000030: d84d 57b0 78aa d93f b28a 1073 3ee1 d73f
00000040: b115 4fbd 5320 c43f 330e 0afc 9429 bf3f

blocks1.SCINet_Tree.SCINet_Tree_even.SCINet_Tree_even.workingblock.interact.level.psi.1.bias f8 [2]
-0.3861938009694869 -0.44833760939594725
00000000: 833d 4534 66b7 d8bf dc08 7b3a 90b1 dcbf

blocks1.SCINet_Tree.SCINet_Tree_even.SCINet_Tree_even.workingblock.interact.level.psi.4.weight f8 [1, 2, 3]
0.0466927872213172 -0.16323058430621218 0.07417768228534284 -0.3222307303047103 0.16136748648405028 0.32057879174074166
00000000: c037 26f4 1de8 a73f ecac a662 bde4 c4bf
00000010: 5135 82ff 4efd b23f 0032 1ba4 6d9f d4bf
00000020: 9319 8b96 b0a7 c43f e054 94e8 5c84 d43f

blocks1.SCINet_Tree.SCINet_Tree_even.SCINet_Tree_even.workingblock.interact.level.psi.4.bias f8 [1]
0.2567286701497146
00000000: 2745 8f16 3e6e d03f

blocks1.SCINet_Tree.SCINet_Tree_even.SCINet_Tree_even.workingblock.interact.level.P.1.weight f8 [2, 1, 5]
-0.27444415464624483 0.32946961197318536 -0.14091844806418766 0.3578443016198291 0.09636770864740125 0.4366083678441191 0.3533160939554336 0.029586719355675983
-0.2566517612786508 -0.01584267638395813
00000000: dc2c 3237 7e90 d1bf 4ed7 1cb6 0716 d53f
00000010: 815c eb9e 9d09 c2bf 9718 21c9 ebe6 d63f
00000020: 8df2 07dd 8dab b83f 3d3a 4339 64f1 db3f
00000030: 6819 2c1b bb9c d63f 733e 1d20 fb4b 9e3f
00000040: 45c4 4982 fb6c d0bf 4c04 cd03 1039 90bf

blocks1.SCINet_Tree.SCINet_Tree_even.SCINet_Tree_even.workingblock.interact.level.P.1.bias f8 [2]
0.3744290749886105 -0.3076670003719162
00000000: e7d8 ef5d a5f6 d73f a0f8 29ee d0b0 d3bf

blocks1.SCINet_Tree.SCINet_Tree_even.SCINet_Tree_even.workingblock.interact.level.P.4.weight f8 [1, 2, 3]
0.12576401998852008 0.27938864146857256 0.05912391754244527 0.2685522702986892 0.10213533803913338 -0.3004239993100666
00000000: 959d 6e10 0919 c03f 12cf 7ee5 80e1 d13f
00000010: 0e2d 8378 7d45 ae3f 56c3 8cdc f52f d13f
00000020: 0cdc a4a0 8a25 ba3f c818 fe94 253a d3bf

blocks1.SCINet_Tree.SCINet_Tree_even.SCINet_Tree_even.workingblock.interact.level.P.4.bias f8 [1]
0.2898994161313076
00000000: 2576 da47 b68d d23f

blocks1.SCINet_Tree.SCINet_Tree_even.SCINet_Tree_even.workingblock.interact.level.U.1.weight f8 [2, 1, 5]
-0.2864456605306715 -0.29715537091759453 -0.17781801856499488 -0.32905775730421993 -0.31684365689213173 -0.20390311025701863 -0.34978165694326396 -0.32988444362933156
0.02233414049577386 0.3690265543928531
00000000: cfdc 032e 2055 d2bf 11ff faf5 9704 d3bf
00000010: 7726 30a7 bdc2 c6bf 8078 8744 480f d5bf
00000020: f7fd 129e 2a47 d4bf 52a4 0d43 7f19 cabf
00000030: f9f7 539a d262 d6bf 7437 36a4 d31c d5bf
00000040: ddf1 0dcc c2de 963f 7d43 9e8d 219e d73f

blocks1.SCINet_Tree.SCINet_Tree_even.SCINet_Tree_even.workingblock.interact.level.U.1.bias f8 [2]
0.3601607035851728 0.17225847441008535
00000000: 80f8 cc7a df0c d73f f46b 06d1 900c c63f

blocks1.SCINet_Tree.SCINet_Tree_even.SCINet_Tree_even.workingblock.interact.level.U.4.weight f8 [1, 2, 3]
0.3351544399952351 -0.27060599485399617 -0.24575620531927575 -0.2663074585986443 0.08515462970313112 -0.17988250986782192
00000000: f0e0 b89b 2b73 d53f 1ef7 7fce 9b51 d1bf
00000010: 2b53 5178 f074 cfbf d92b 5770 2e0b d1bf
00000020: 5e8d ad9d b1cc b53f c399 80dc 6306 c7bf

blocks1.SCINet_Tree.SCINet_Tree_even.SCINet_Tree_even.workingblock.interact.level.U.4.bias f8 [1]
-0.23450133153121652
00000000: 7fc3 e5be 2304 cebf

blocks1.SCINet_Tree.SCINet_Tree_even.SCINet_Tree_even.SCINet_Tree_odd.workingblock.interact.level.phi.1.weight f8 [2, 1, 5]
-0.44577924650010964 0.14655556947445986 0.20271847306204854 -0.001613659116589724 -0.24368171183123005 -0.00969630755888145 -0.16996767938688176 -0.3473800320854852
-0.17943263305448354 0.06481839768941487
00000000: 0906 3dad a587 dcbf 4240 f838 55c2 c23f
00000010: ee5b 0cce adf2 c93f f041 7d48 2d70 5abf
00000020: 2266 795b f630 cfbf 1cdc db5e a8db 83bf
00000030: 65fd 2b3c 80c1 c5bf 38cc 4575 793b d6bf
00000040: 38ef 6605 a6f7 c6bf 1752 4142 f097 b03f

blocks1.SCINet_Tree.SCINet_Tree_even.SCINet_Tree_even.SCINet_Tree_odd.workingblock.interact.level.phi.1.bias f8 [2]
-0.24560238460864678 0.19415327159916915
00000000: 375c db20 e66f cfbf e704 f7af 03da c83f

blocks1.SCINet_Tree.SCINet_Tree_even.SCINet_Tree_even.SCINet_Tree_odd.workingblock.interact.level.phi.4.weight f8 [1, 2, 3]
-0.11754701475791016 -0.22540303646873366 0.20985809085380916 -0.06562139277560816 -0.30406697532894916 0.34296073964686913
00000000: e6ad 20a8 8f17 bebf fab1 06b7 01da ccbf
00000010: 5551 8242 a1dc ca3f 1ea3 e347 90cc b0bf
00000020: e536 b554 d575 d3bf f618 269a 11f3 d53f

blocks1.SCINet_Tree.SCINet_Tree_even.SCINet_Tree_even.SCINet_Tree_odd.workingblock.interact.level.phi.4.bias f8 [1]
-0.329001491726557
00000000: ee3f d345 5c0e d5bf

blocks1.SCINet_Tree.SCINet_Tree_even.SCINet_Tree_even.SCINet_Tree_odd.workingblock.interact.level.psi.1.weight f8 [2, 1, 5]
-0.33404485564300535 0.4126740851828144 -0.12336293934132991 -0.2651113337156087 0.3598498294294969 -0.044328312471836974 -0.09787837321335154 -0.27913612186724274
0.22713563477092355 -0.038464868619769096
00000000: 588f 98ac fd60 d5bf fd14 f190 4069 da3f
00000010: e86a 02ae b694 bfbf fae0 0687 95f7 d0bf
00000020: 4bbc 3794 c707 d73f fdf1 b458 33b2 a6bf
00000030: 05e1 ef9b 8e0e b9bf 3f55 a3c0 5ddd d1bf
00000040: e374 8ccd c712 cd3f e69f 88d1 aab1 a3bf

blocks1.SCINet_Tree.SCINet_Tree_even.SCINet_Tree_even.SCINet_Tree_odd.workingblock.interact.level.psi.1.bias f8 [2]
0.31502760718076206 -0.13920301265855525
00000000: ac6c 8b8d 6929 d43f ffc3 6f81 67d1 c1bf

blocks1.SCINet_Tree.SCINet_Tree_even.SCINet_Tree_even.SCINet_Tree_odd.workingblock.interact.level.psi.4.weight f8 [1, 2, 3]
0.189197288455498 0.041577201850693905 -0.20859045303616394 0.028655282705388908 0.12409305973505348 -0.0348143875920565
00000000: 4841 34e3 9d37 c83f 9f74 6a64 9b49 a53f
00000010: b729 068b 17b3 cabf 6d22 4f78 cf57 9d3f
00000020: 39fe 3811 90c4 bf3f b6bb 4600 31d3 a1bf

blocks1.SCINet_Tree.SCINet_Tree_even.SCINet_Tree_even.SCINet_Tree_odd.workingblock.interact.level.psi.4.bias f8 [1]
0.2514718200978917
00000000: 16e8 cb42 1d18 d03f

blocks1.SCINet_Tree.SCINet_Tree_even.SCINet_Tree_even.SCINet_Tree_odd.workingblock.interact.level.P.1.weight f8 [2, 1, 5]
0.018288372212728367 -0.08266593919221495 -0.23025266554915477 -0.16081988670516212 0.34269399401150263 -0.12918509642702378 0.22357065820621985 -0.041244161217984326
0.3347891447216877 -0.004183833040332708
00000000: 1af6 33e2 2fba 923f 35dd 5251 9829 b5bf
00000010: 67db 2c5a eb78 cdbf ecf8 f8fc be95 c4bf
00000020: 5929 34ca b2ee d53f 2f70 2422 2389 c0bf
00000030: e2a2 ab9c f69d cc3f 5c15 2a67 f41d a5bf
00000040: 5fab e872 2f6d d53f c14e 4821 1123 71bf

blocks1.SCINet_Tree.SCINet_Tree_even.SCINet_Tree_even.SCINet_Tree_odd.workingblock.interact.level.P.1.bias f8 [2]
0.10212679425761383 0.3252545148298074
00000000: cfbb 6149 fb24 ba3f f080 0450 f8d0 d43f

blocks1.SCINet_Tree.SCINet_Tree_even.SCINet_Tree_even.SCINet_Tree_odd.workingblock.interact.level.P.4.weight f8 [1, 2, 3]
-0.2452898104107808 0.15848442593125187 -0.10971869517848239 -0.2518174403522306 0.35785013290997253 -0.03752848568203339
00000000: e0cf e010 a865 cfbf 6768 26b9 3749 c43f
00000010: e526 8d3f 8616 bcbf 4704 b8e5 c61d d0bf
00000020: ebec 6d3e 04e7 d63f 1271 5805 ef36 a3bf

blocks1.SCINet_Tree.SCINet_Tree_even.SCINet_Tree_even.SCINet_Tree_odd.workingblock.interact.level.P.4.bias f8 [1]
0.24315085876597023
00000000: bd73 323d 911f cf3f

blocks1.SCINet_Tree.SCINet_Tree_even.SCINet_Tree_even.SCINet_Tree_odd.workingblock.interact.level.U.1.weight f8 [2, 1, 5]
-0.1562555661298436 -0.08982954558066227 -0.29363133590544155 0.38787065786739794 0.3195481228751144 0.06845935939655715 0.2538791025113333 -0.3536141872688814
-0.25179782070959283 0.3128936078938539
00000000: 0c3e 2cb1 2e00 c4bf b9c5 7bb0 11ff b6bf
00000010: bedb 3216 dbca d2bf 2a95 a773 dfd2 d83f
00000020: abcb 4ff8 7973 d43f 5a9c b675 8d86 b13f
00000030: f222 9b22 8e3f d03f 7c2c 6e66 9da1 d6bf
00000040: a5b6 499b 741d d0bf ea04 42e9 7206 d43f

blocks1.SCINet_Tree.SCINet_Tree_even.SCINet_Tree_even.SCINet_Tree_odd.workingblock.interact.level.U.1.bias f8 [2]
0.051911853632942685 0.3010849992360823
00000000: 0da7 41c3 3094 aa3f 0940 4204 fa44 d33f

blocks1.SCINet_Tree.SCINet_Tree_even.SCINet_Tree_even.SCINet_Tree_odd.workingblock.interact.level.U.4.weight f8 [1, 2, 3]
-0.20435355580294698 0.3522977754636567 -0.03828106029898342 0.06355103144069997 -0.11301874119619104 -0.06686076202948782
00000000: 1f5b 7fdf 4128 cabf 2c7a 04f8 0b8c d63f
00000010: 27a7 143c 9399 a3bf 3135 aa61 e144 b03f
00000020: 88d1 45d5 cbee bcbf cc62 4d72 c91d b1bf

blocks1.SCINet_Tree.SCINet_Tree_even.SCINet_Tree_even.SCINet_Tree_odd.workingblock.interact.level.U.4.bias f8 [1]
0.3569698092339814
00000000: 8f6f 14e6 97d8 d63f

blocks1.SCINet_Tree.SCINet_Tree_even.SCINet_Tree_even.SCINet_Tree_even.workingblock.interact.level.phi.1.weight f8 [2, 1, 5]
0.38446007877464455 0.007523295233789454 -0.22347814231002308 0.32848970648848286 0.42401134742344376 0.01248625951970993 0.10867771535692088 0.43141457717946396
-0.4356491402749238 0.06447883878259021
00000000: 8319 3d72 fe9a d83f 6ae4 cb2f bfd0 7e3f
00000010: 35d3 4b88 ee9a ccbf fc33 9cb0 f905 d53f
00000020: ed42 947d 0023 db3f 79cc 4a62 6592 893f
00000030: 9b10 4381 4dd2 bb3f c838 00e3 4b9c db3f
00000040: 5fb9 80ee ace1 dbbf b9f3 da67 af81 b03f

blocks1.SCINet_Tree.SCINet_Tree_even.SCINet_Tree_even.SCINet_Tree_even.workingblock.interact.level.phi.1.bias f8 [2]
0.023446857968949214 -0.3128101705753115
00000000: 28b0 ae00 7402 983f 8989 1ef3 1405 d4bf

blocks1.SCINet_Tree.SCINet_Tree_even.SCINet_Tree_even.SCINet_Tree_even.workingblock.interact.level.phi.4.weight f8 [1, 2, 3]
0.37946546187682423 0.3661992644151301 0.07120122998324939 0.2046925595480374 -0.09368883024895343 0.30268001309577397
00000000: 5b3d 2e81 2949 d83f 07dd 1e0a cf6f d73f
00000010: 2f89 366a 3e3a b23f 3226 7fa4 5d33 ca3f
00000020: c574 ebbd fdfb b7bf 828c 59fd 1b5f d33f

blocks1.SCINet_Tree.SCINet_Tree_even.SCINet_Tree_even.SCINet_Tree_even.workingblock.interact.level.phi.4.bias f8 [1]
0.265780296699842
00000000: d1ce 8f5c 8b02 d13f

blocks1.SCINet_Tree.SCINet_Tree_even.SCINet_Tree_even.SCINet_Tree_even.workingblock.interact.level.psi.1.weight f8 [2, 1, 5]
-0.3535868087006287 0.2778271182090554 -0.09332026781054188 0.17324042786871816 -0.4369271833671426 0.1179340711485244 0.37174573912293485 0.08614081209443972
-0.19824480628526403 0.27396741394993573
00000000: 29a3 ea90 2aa1 d6bf a396 a964 ebc7 d13f
00000010: 75dc 4c4a d6e3 b7bf c345 050a be2c c63f
00000020: bfe5 d26e 9df6 dbbf c1c3 aa62 ed30 be3f
00000030: 6c76 fda3 aeca d73f 6ae7 cb02 530d b63f
00000040: 9a6c ccf7 1560 c9bf 346b c59e ae88 d13f

blocks1.SCINet_Tree.SCINet_Tree_even.SCINet_Tree_even.SCINet_Tree_even.workingblock.interact.level.psi.1.bias f8 [2]
0.3385999609785123 0.38671680668730896
00000000: f217 b52b 9fab d53f 6346 62d9 f7bf d83f
