exp/data_checkpoints/Model_hs2_bs32_e100_supernew/checkpoint.pth (torch, 74169 bytes, 114 tensors)

inv_timescales f8 [1]
1.0
00000000: 0000 0000 0000 f03f

blocks1.SCINet_Tree.workingblock.interact.level.phi.1.weight f8 [2, 1, 5]
0.1351836413317498 -0.009879456341441752 -0.04664816799069333 -0.27520124437194937 -0.24815588313948708 0.4334831889482765 0.3323487903628813 0.005076434987457601
-0.2585428832222089 -0.21562668008170424
00000000: f9ad 3c93 b24d c13f 142a 1c2f ae3b 84bf
00000010: 596e e0c7 44e2 a7bf 8058 19ae e59c d1bf
00000020: b371 326d 92c3 cfbf 4183 f945 30be db3f
00000030: ad51 5edc 3345 d53f 9abc 0524 07cb 743f
00000040: 4763 0373 f78b d0bf e348 8cb1 a799 cbbf

blocks1.SCINet_Tree.workingblock.interact.level.phi.1.bias f8 [2]
-0.2945466488670045 -0.15802593999382183
00000000: 77ee 0130 dad9 d2bf 43b8 18aa 313a c4bf

blocks1.SCINet_Tree.workingblock.interact.level.phi.4.weight f8 [1, 2, 3]
-0.1171720860507334 -0.19568147309942283 0.17402971277048848 -0.08844501808728611 -0.10827948106126987 -0.13728163502493762
00000000: 2a8d 9765 fdfe bdbf 7393 b22b 170c c9bf
00000010: b3d5 700a 9b46 c63f 68d4 2d2c 55a4 b6bf
00000020: db6a fc3d 34b8 bbbf 8c02 63d2 7192 c1bf

blocks1.SCINet_Tree.workingblock.interact.level.phi.4.bias f8 [1]
-0.492654431485806
00000000: 2e81 dd73 a687 dfbf

blocks1.SCINet_Tree.workingblock.interact.level.psi.1.weight f8 [2, 1, 5]
0.07467765193644715 0.3347558215694363 -0.28391034586523434 -0.32001311617050615 0.029239422826816422 -0.0936142200342042 0.12173785109302565 -0.19718060290598088
-0.10392328926236344 0.1514341361933429
00000000: f021 cf18 131e b33f 6653 72ae a36c d53f
00000010: c82e 9f4c 962b d2bf 6b93 0f4b 187b d4bf
00000020: b42c 2e73 f0f0 9d3f dbc9 7cfd 19f7 b7bf
00000030: b43e 2139 362a bf3f 0a81 71c8 363d c9bf
00000040: 84b2 ac78 b79a babf c065 399b 3162 c33f

blocks1.SCINet_Tree.workingblock.interact.level.psi.1.bias f8 [2]
-0.0034406234939365924 -0.3261053424345594
00000000: 063e 4cac 822f 6cbf 07ab 33f1 e8de d4bf

blocks1.SCINet_Tree.workingblock.interact.level.psi.4.weight f8 [1, 2, 3]
-0.06424081515828134 -0.019393648710164166 -0.2759020631360709 -0.07760851442734934 0.13281417386118438 0.2664858234551428
00000000: cc56 2c08 1672 b0bf 6950 d7bb eddb 93bf
00000010: e05f 8420 61a8 d1bf c44a 5bcf 26de b3bf
00000020: f2ea 960a 0e00 c13f 1499 258e 1a0e d13f

blocks1.SCINet_Tree.workingblock.interact.level.psi.4.bias f8 [1]
-0.5266188948338288
00000000: ec8a 58de 0fda e0bf

blocks1.SCINet_Tree.workingblock.interact.level.P.1.weight f8 [2, 1, 5]
-0.16545015769163257 0.15845683464982527 0.21899548436203226 -0.2742413145392825 0.1653721206994017 0.18193316317080394 -0.20515626518678431 0.39605422536235657
-0.057650732331405156 -0.20600953732952434
00000000: 52a9 3384 782d c5bf eb07 5345 5048 c43f
00000010: ee3e a745 0b08 cc3f 0f21 4a71 2b8d d1bf
00000020: f17b 09e5 e92a c53f 022f f0fc 9549 c73f
00000030: a4fb c57c 8f42 cabf 8eee 57d2 f358 d93f
00000040: 0f5d e893 6584 adbf 7148 bf40 855e cabf

blocks1.SCINet_Tree.workingblock.interact.level.P.1.bias f8 [2]
-0.23943756058792115 -0.31293265935504216
00000000: b25e 14d6 e3a5 cebf 09ef 71b4 1607 d4bf

blocks1.SCINet_Tree.workingblock.interact.level.P.4.weight f8 [1, 2, 3]
0.3119449958238707 -0.09959501432043329 0.41698694866198915 0.13502203369975718 0.3617259312390782 -0.26734033306545935
00000000: 6cb8 cd24 e8f6 d33f 69d5 5911 0f7f b9bf
00000010: 3a2c d706 eaaf da3f 486c 7de9 6648 c13f
00000020: f95d 3285 8426 d73f ccbe daa0 1a1c d1bf

blocks1.SCINet_Tree.workingblock.interact.level.P.4.bias f8 [1]
-0.14933685942060534
00000000: b340 a65f 781d c3bf

blocks1.SCINet_Tree.workingblock.interact.level.U.1.weight f8 [2, 1, 5]
0.015019212808106253 0.008141001080535126 -0.4154120277217628 0.17779662820310213 0.38632425235766255 0.3533272722135176 0.1904057843269412 0.20344844958378785
-0.23556392035522009 0.07397588681411334
00000000: c070 949e 64c2 8e3f 6648 2eab 3aac 803f
00000010: 6485 5b54 1c96 dabf ab56 bc37 0ac2 c63f
00000020: aac7 615b 89b9 d83f df48 bcfd e99c d63f
00000030: fba3 537c 375f c83f e12f b14a 990a ca3f
00000040: 3388 0563 f526 cebf ad28 8f6e 15f0 b23f

blocks1.SCINet_Tree.workingblock.interact.level.U.1.bias f8 [2]
-0.2670067715327506 -0.13630867795536603
00000000: 1bcc e291 a316 d1bf 7b59 fd10 9072 c1bf

blocks1.SCINet_Tree.workingblock.interact.level.U.4.weight f8 [1, 2, 3]
-0.16590676004356483 -0.4009273161435232 -0.28637195153604134 0.028690693887456074 -0.03062676881454665 -0.35935783965840185
00000000: 6745 49c6 6e3c c5bf 0135 ba0b cba8 d9bf
00000010: 16b2 9505 eb53 d2bf 09e1 c8df 1761 9d3f
00000020: a834 c3a9 9f5c 9fbf 1438 3906 b8ff d6bf

blocks1.SCINet_Tree.workingblock.interact.level.U.4.bias f8 [1]
0.25291767399865805
00000000: 64e5 999c cd2f d03f

blocks1.SCINet_Tree.SCINet_Tree_odd.workingblock.interact.level.phi.1.weight f8 [2, 1, 5]
-0.01773286051639664 -0.30616377323444205 -0.48176743280637135 -0.21026871362060998 0.09036975845007758 0.1025860675643645 0.5017710193689803 0.07501873560910889
-0.1071373735077753 -0.11707938467121594
00000000: 3908 ee1f 9028 92bf c9c2 50f0 2f98 d3bf
00000010: 7a99 0b12 47d5 debf 65ae 2fd0 15ea cabf
00000020: 322b 17f5 7822 b73f 48d5 369d 1443 ba3f
00000030: bba6 c818 820e e03f c944 0788 6d34 b33f
00000040: e82d 65db 5a6d bbbf 71dc 3220 eaf8 bdbf

blocks1.SCINet_Tree.SCINet_Tree_odd.workingblock.interact.level.phi.1.bias f8 [2]
-0.19376928504644375 -0.5011625164450506
00000000: 1c34 1f93 6ecd c8bf 0c9a 43f9 8509 e0bf

blocks1.SCINet_Tree.SCINet_Tree_odd.workingblock.interact.level.phi.4.weight f8 [1, 2, 3]
-0.029613512331446816 0.13679097980344246 0.5353922747149463 -0.3086993391987389 -0.3617458085966924 -0.2156400773050371
00000000: deda ee2b 0153 9ebf e460 52e8 5d82 c13f
00000010: d5d0 cdfa ee21 e13f fbf1 89df bac1 d3bf
00000020: dbd2 58e4 d726 d7bf b0b3 dd13 189a cbbf

blocks1.SCINet_Tree.SCINet_Tree_odd.workingblock.interact.level.phi.4.bias f8 [1]
0.3789359538767066
00000000: 0d75 4b96 7c40 d83f

blocks1.SCINet_Tree.SCINet_Tree_odd.workingblock.interact.level.psi.1.weight f8 [2, 1, 5]
0.43536370395387586 -0.16625948135105514 0.1930424929758391 0.4170742515831035 -0.10525438415951195 0.17499567518017253 -0.17827342981630506 -0.005893312000219609
-0.03111074984077209 -0.1610917319128715
00000000: 893a 96b9 ffdc db3f ffbe 869d fd47 c5bf
00000010: a4e6 08cd 9db5 c83f 1666 a333 58b1 da3f
00000020: 11c9 b989 f3f1 babf 4b8e eb1e 4266 c63f
00000030: 9e44 67eb a9d1 c6bf 1ba7 e5e4 9523 78bf
00000040: 7a09 7b14 7fdb 9fbf 5f63 1c64 a79e c4bf

blocks1.SCINet_Tree.SCINet_Tree_odd.workingblock.interact.level.psi.1.bias f8 [2]
-0.6285690281317842 -0.43938147768416996
00000000: 3458 63cb 3c1d e4bf 57c9 477d d31e dcbf

blocks1.SCINet_Tree.SCINet_Tree_odd.workingblock.interact.level.psi.4.weight f8 [1, 2, 3]
-0.19366833372036413 -0.15632003966557986 -0.18521435677884115 -0.18640527082161185 0.14257535239586439 0.35232041041610196
00000000: 86c5 ccbb 1fca c8bf f55a 0989 4b02 c4bf
00000010: b9b1 8ea2 1ab5 c7bf 5c8c fdbe 20dc c7bf
00000020: c0c1 e0bd e83f c23f 44d4 1ce8 6a8c d63f

blocks1.SCINet_Tree.SCINet_Tree_odd.workingblock.interact.level.psi.4.bias f8 [1]
-0.17614603469605497
00000000: 3d79 2b09 f48b c6bf

blocks1.SCINet_Tree.SCINet_Tree_odd.workingblock.interact.level.P.1.weight f8 [2, 1, 5]
-0.174581694163252 -0.19659667165174388 0.2610331537022555 -0.32861908461345957 -0.17754917918660093 0.18957809709335374 0.2101435011710401 -0.08655456598107449
-0.14050754242967184 -0.03696357765075933
00000000: 1daa 7465 b158 c6bf 8c93 9f69 142a c9bf
00000010: ddaa 9466 c4b4 d03f a866 5057 1808 d5bf
00000020: 4be0 0477 eeb9 c6bf 1de5 8657 1844 c83f
00000030: 1d8f 7f74 fbe5 ca3f e14b 35a6 7028 b6bf
00000040: b2d3 c9b1 26fc c1bf 046c 4eda e3ec a2bf

blocks1.SCINet_Tree.SCINet_Tree_odd.workingblock.interact.level.P.1.bias f8 [2]
-0.10710304198186243 -0.07251254792046134
00000000: 243d 9dde 1a6b bbbf 2f36 dead 2e90 b2bf

blocks1.SCINet_Tree.SCINet_Tree_odd.workingblock.interact.level.P.4.weight f8 [1, 2, 3]
-0.11670005868454637 0.32779215694426606 0.11488809919135087 -0.03719575479755045 0.14701137462551256 0.05130583803204194
00000000: e1cc 7d17 0ee0 bdbf bf7f 7df4 8bfa d43f
00000010: 06f9 b974 4e69 bd3f 919f cf6c 520b a3bf
00000020: d60a 14cb 44d1 c23f 630b e240 c244 aa3f

blocks1.SCINet_Tree.SCINet_Tree_odd.workingblock.interact.level.P.4.bias f8 [1]
0.029756201900406138
00000000: 95c9 0fe8 6878 9e3f

blocks1.SCINet_Tree.SCINet_Tree_odd.workingblock.interact.level.U.1.weight f8 [2, 1, 5]
0.4693300793952869 -0.12829968946386044 -0.23939331833690894 -0.11556654895879706 -0.18774586765453496 -0.2052497031541975 -0.026981813504114258 0.43319401832350807
-0.26132570521831194 0.05726724728513005
00000000: ae09 8207 8109 de3f 42c8 2acd 1f6c c0bf
00000010: 0da8 91b4 70a4 cebf 4a24 4af4 c495 bdbf
00000020: 1187 c47c 0e08 c8bf 66ce 474d 9f45 cabf
00000030: 4c07 59da 1ea1 9bbf 3b6d 6167 73b9 db3f
00000040: 0713 6173 8fb9 d0bf b872 71f4 2152 ad3f

blocks1.SCINet_Tree.SCINet_Tree_odd.workingblock.interact.level.U.1.bias f8 [2]
-0.1607628551618301 -0.2890058527371135
00000000: 5873 aa92 e093 c4bf 93f1 7667 127f d2bf

blocks1.SCINet_Tree.SCINet_Tree_odd.workingblock.interact.level.U.4.weight f8 [1, 2, 3]
-0.43595650043246864 -0.07554856990692878 -0.12396314728034674 -0.3589526405108038 -0.1741569034780839 0.20797485785230782
00000000: 0d82 f517 b6e6 dbbf 2584 02ad 2657 b3bf
00000010: 3873 7a7f 0cbc bfbf bea1 f37e 14f9 d6bf
00000020: d1ce 67fe c54a c6bf 2bd6 6e8e eb9e ca3f

blocks1.SCINet_Tree.SCINet_Tree_odd.workingblock.interact.level.U.4.bias f8 [1]
-0.2890778202535731
00000000: 6c3c ff41 4080 d2bf

blocks1.SCINet_Tree.SCINet_Tree_odd.SCINet_Tree_odd.workingblock.interact.level.phi.1.weight f8 [2, 1, 5]
0.14953521744188628 0.055255526721772204 0.12339460202620771 -0.5241564457549286 0.0769222273755236 -0.1670503243116902 0.33545938179174745 -0.25556427904765705
-0.06416258187347901 0.1312273058873867
00000000: e9ae 4152 f823 c33f b9f3 62d0 734a ac3f
00000010: 7b9b 34e4 c996 bf3f 1829 10bd e3c5 e0bf
00000020: 4ad1 e9d2 2cb1 b33f 443a daaf e761 c5bf
00000030: cba4 7ba0 2a78 d53f b745 2247 2a5b d0bf
00000040: 1005 c67e f56c b0bf 2773 906d 0ecc c03f

blocks1.SCINet_Tree.SCINet_Tree_odd.SCINet_Tree_odd.workingblock.interact.level.phi.1.bias f8 [2]
0.020165383866056007 -0.2923960883710097
00000000: 362e dd00 3ca6 943f 3809 4215 9eb6 d2bf

blocks1.SCINet_Tree.SCINet_Tree_odd.SCINet_Tree_odd.workingblock.interact.level.phi.4.weight f8 [1, 2, 3]
-0.031724058888954236 0.10250731929254142 -0.1987748934017609 -0.16592637573894997 0.05298916602431668 -0.4209383875886843
00000000: bf4f d9c6 223e a0bf e04b f66f eb3d ba3f
00000010: e495 36a9 7471 c9bf 40da ab52 133d c5bf
00000020: 3ec7 3b5e 6521 ab3f 80c2 1490 a7f0 dabf

blocks1.SCINet_Tree.SCINet_Tree_odd.SCINet_Tree_odd.workingblock.interact.level.phi.4.bias f8 [1]
0.086884825702892
00000000: ee9e e97c 153e b63f

blocks1.SCINet_Tree.SCINet_Tree_odd.SCINet_Tree_odd.workingblock.interact.level.psi.1.weight f8 [2, 1, 5]
0.48953799683397986 0.014347252178850045 -0.049545176513577274 -0.0968300185445005 -0.06562763237539726 -0.163403738999846 0.20850490871657612 -0.12006682268096576
0.1310936236599558 0.01686685126065513
00000000: 6b48 a32d 9754 df3f cd3d 2a97 1762 8d3f
00000010: 02c9 9941 fc5d a9bf ab71 eb22 dac9 b8bf
00000020: 7028 c4f6 f8cc b0bf e233 86e9 69ea c4bf
00000030: dc1f fff1 49b0 ca3f 4dd7 bf04 b3bc bebf
00000040: c8b4 2a05 adc7 c03f 023c 343a 8b45 913f

blocks1.SCINet_Tree.SCINet_Tree_odd.SCINet_Tree_odd.workingblock.interact.level.psi.1.bias f8 [2]
-0.1796959159286697 -0.5977185505780654
00000000: 27b7 1199 4600 c7bf 0140 5ea7 8220 e3bf

blocks1.SCINet_Tree.SCINet_Tree_odd.SCINet_Tree_odd.workingblock.interact.level.psi.4.weight f8 [1, 2, 3]
-0.1749447680337279 -0.1814058583330075 -0.3784491249761452 0.1729794458624277 0.009162416775291083 -0.05824762256326986
00000000: 57d4 a714 9764 c6bf ede9 6ba2 4e38 c7bf
00000010: 273b bead 8238 d8bf 82fe 6dc3 3024 c63f
00000020: 0db3 37c3 bec3 823f ee3e f5e3 a1d2 adbf

blocks1.SCINet_Tree.SCINet_Tree_odd.SCINet_Tree_odd.workingblock.interact.level.psi.4.bias f8 [1]
-0.7245914183029876
00000000: d45a 9257 da2f e7bf

blocks1.SCINet_Tree.SCINet_Tree_odd.SCINet_Tree_odd.workingblock.interact.level.P.1.weight f8 [2, 1, 5]
-0.15874378176867893 0.0163566179772751 -0.05439821669564721 0.3129581793662028 -0.2853848850892075 -0.3236498647466683 0.16572454767207176 0.39168167446327035
-0.08392894790498107 -0.16626055002116055
00000000: 2ee6 915b b751 c4bf 6d6a 240d cabf 903f
00000010: 0949 5643 15da abbf cf2f 59be 8107 d43f
00000020: 7bc6 0ef7 be43 d2bf db45 1cec adb6 d4bf
00000030: 33ae 3244 7636 c53f f1c8 9003 5011 d93f
00000040: 6888 7016 5e7c b5bf 8359 7a94 0648 c5bf

blocks1.SCINet_Tree.SCINet_Tree_odd.SCINet_Tree_odd.workingblock.interact.level.P.1.bias f8 [2]
-0.2925066854387636 0.02650444379151745
00000000: cb88 f4f5 6db8 d2bf 1009 221d fb23 9b3f

blocks1.SCINet_Tree.SCINet_Tree_odd.SCINet_Tree_odd.workingblock.interact.level.P.4.weight f8 [1, 2, 3]
0.07539976449475033 -0.1506848597983612 0.11104304538523645 0.017816626158466305 0.028221816024677382 0.016863693788900732
00000000: cc8c a122 664d b33f 170c 6b38 a449 c3bf
00000010: bfb9 6028 516d bc3f 12e3 b38a 853e 923f
00000020: f059 7003 2ee6 9c3f df99 4055 b744 913f

blocks1.SCINet_Tree.SCINet_Tree_odd.SCINet_Tree_odd.workingblock.interact.level.P.4.bias f8 [1]
0.04149665795625903
00000000: 2380 a1c9 0c3f a53f

blocks1.SCINet_Tree.SCINet_Tree_odd.SCINet_Tree_odd.workingblock.interact.level.U.1.weight f8 [2, 1, 5]
-0.31502067117986177 0.2985466500203043 -0.014801541845257532 -0.2924030353034291 -0.2527273176166361 -0.48955166440476156 0.16745208577982762 -0.04915827334496009
-0.19978171155608404 0.44490372962494523
00000000: b403 1276 4c29 d4bf 61b9 8a68 631b d33f
00000010: 50fd 3e51 4550 8ebf 7547 7838 bbb6 d2bf
00000020: 4d08 fe32 af2c d0bf 4988 1481 d054 dfbf
00000030: e021 09e8 116f c53f 6859 b0f0 452b a9bf
00000040: e073 bc76 7292 c9bf 5de2 267e 4d79 dc3f

blocks1.SCINet_Tree.SCINet_Tree_odd.SCINet_Tree_odd.workingblock.interact.level.U.1.bias f8 [2]
-0.2281274114600922 -0.24643625023230042
00000000: d867 c56d 4733 cdbf 14f7 a519 398b cfbf

blocks1.SCINet_Tree.SCINet_Tree_odd.SCINet_Tree_odd.workingblock.interact.level.U.4.weight f8 [1, 2, 3]
-0.31746148101310456 -0.3456446270262792 0.0823491961520861 -0.2770233823907646 -0.2319983615138325 -0.34408975932619
00000000: 7e39 acf5 4951 d4bf 546c 47a4 0a1f d6bf
00000010: ad39 5340 d614 b53f e81e e647 c0ba d1bf
00000020: 2db8 b64f 1fb2 cdbf a472 cc0d 9105 d6bf

blocks1.SCINet_Tree.SCINet_Tree_odd.SCINet_Tree_odd.workingblock.interact.level.U.4.bias f8 [1]
0.2921501305436254
00000000: 843f 0d76 96b2 d23f

blocks1.SCINet_Tree.SCINet_Tree_odd.SCINet_Tree_even.workingblock.interact.level.phi.1.weight f8 [2, 1, 5]
-0.26453624480847254 0.09575121363248099 0.25423889739770517 0.23044210209431173 0.01292511799797777 0.3478085520262492 0.052054549878984904 -0.027415396248698196
-0.11298984883394761 -0.17573880054611196
00000000: 4dc7 036e 29ee d0bf a293 1acb 2683 b83f
00000010: 7b6e 6c39 7345 d03f 81eb 0e76 207f cd3f
00000020: 303a c9f8 7b78 8a3f df32 0ecd 7e42 d63f
00000030: ea2d adda e4a6 aa3f ec1e 2e19 c812 9cbf
00000040: f293 8519 e7ec bcbf beed 7de8 9b7e c6bf

blocks1.SCINet_Tree.SCINet_Tree_odd.SCINet_Tree_even.workingblock.interact.level.phi.1.bias f8 [2]
-0.15169435346832452 -0.28252794034527323
00000000: 5531 9177 b86a c3bf d94e ff11 f014 d2bf

blocks1.SCINet_Tree.SCINet_Tree_odd.SCINet_Tree_even.workingblock.interact.level.phi.4.weight f8 [1, 2, 3]
0.0756753726244824 -0.3754330398382523 -0.4714234663726236 -0.29798218973503204 0.0988632899713646 -0.3165401225020557
00000000: 66e6 8812 765f b33f b75c fc4c 1807 d8bf
00000010: bdca a854 cd2b debf 9bf4 ece3 2312 d3bf
00000020: afb4 33c5 1a4f b93f 9529 8180 3142 d4bf

blocks1.SCINet_Tree.SCINet_Tree_odd.SCINet_Tree_even.workingblock.interact.level.phi.4.bias f8 [1]
0.05466023930330223
00000000: c2ff 6548 6dfc ab3f

blocks1.SCINet_Tree.SCINet_Tree_odd.SCINet_Tree_even.workingblock.interact.level.psi.1.weight f8 [2, 1, 5]
0.07475474764747764 -0.22304984248152587 0.18298769073827736 -0.03208907214750182 0.22995205875185704 0.13491566991544487 -0.24942115513710156 -0.21844045516977398
-0.255731269435416 -0.0231727176492726
00000000: bcdc 5d8c 2023 b33f 7e05 6bb1 e58c ccbf
00000010: ac4e a501 246c c73f 4571 dd96 fa6d a0bf
00000020: 2e59 fead 116f cd3f 339c 00ab ea44 c13f
00000030: 4a48 1f4c 08ed cfbf 9dec 8959 dbf5 cbbf
00000040: 0e8a b2af e65d d0bf 732e dac1 96ba 97bf

blocks1.SCINet_Tree.SCINet_Tree_odd.SCINet_Tree_even.workingblock.interact.level.psi.1.bias f8 [2]
-0.12297822168142157 -0.34874815587390817
00000000: 07f0 3d30 807b bfbf 2233 01c9 e351 d6bf

blocks1.SCINet_Tree.SCINet_Tree_odd.SCINet_Tree_even.workingblock.interact.level.psi.4.weight f8 [1, 2, 3]
0.0052039793989009766 -0.026981036755426565 0.1444594512504029 0.4331410781341217 0.054567034296770345 -0.35005898396168944
00000000: 2dc6 3c95 c450 753f 2f2c e8b9 eaa0 9bbf
00000010: a7fa 5bb5 a57d c23f 96f9 485b 95b8 db3f
00000020: 001a 7dd7 35f0 ab3f 1c55 f2cb 5d67 d6bf

blocks1.SCINet_Tree.SCINet_Tree_odd.SCINet_Tree_even.workingblock.interact.level.psi.4.bias f8 [1]
-0.06562314414474772
00000000: e35e f6a9 adcc b0bf

blocks1.SCINet_Tree.SCINet_Tree_odd.SCINet_Tree_even.workingblock.interact.level.P.1.weight f8 [2, 1, 5]
0.2669503544086745 -0.02961489002376172 -0.19033049928435555 -0.22320220540490596 0.019248944657085345 0.1647991819401414 0.21869725511531798 -0.09440113958264751
0.3093050924241168 -0.13371148956215947
00000000: c1d0 75f0 b615 d13f e0bb 81a0 5d53 9ebf
00000010: c1c7 edf2 bf5c c8bf 7bf8 4dce e391 ccbf
00000020: 3787 23cf feb5 933f 3b94 6bbc 2318 c53f
00000030: 43fe 388b 45fe cb3f 186d 364f ac2a b8bf
00000040: 65a9 1c96 a7cb d33f fb6b 6245 751d c1bf

blocks1.SCINet_Tree.SCINet_Tree_odd.SCINet_Tree_even.workingblock.interact.level.P.1.bias f8 [2]
-0.0994876240226573 -0.3646454225546934
00000000: f7b7 885b 0578 b9bf 698b 20c1 5956 d7bf

blocks1.SCINet_Tree.SCINet_Tree_odd.SCINet_Tree_even.workingblock.interact.level.P.4.weight f8 [1, 2, 3]
0.048948156732638776 0.1917240252354153 -0.19307817851683137 0.23501033343076305 0.31563891528141513 0.5783801559839551
00000000: 147a bb98 bb0f a93f df2d 1fb1 698a c83f
00000010: 7f88 2627 c9b6 c8bf c451 2790 d114 ce3f
00000020: 43a1 9e90 6d33 d43f 2b68 d319 1782 e23f

blocks1.SCINet_Tree.SCINet_Tree_odd.SCINet_Tree_even.workingblock.interact.level.P.4.bias f8 [1]
-0.2633517196320454
00000000: 4c8f ca2b c1da d0bf

blocks1.SCINet_Tree.SCINet_Tree_odd.SCINet_Tree_even.workingblock.interact.level.U.1.weight f8 [2, 1, 5]
0.12955630123724576 0.015395798952546369 0.2035282548907911 -0.2879485469116354 -0.02679251216693496 -0.23948588294205123 0.01434116474439138 -0.2060837459052028
0.05210146428389142 -0.06717188638084153
00000000: 3e00 6706 4d95 c03f 73cf f927 d587 8f3f
00000010: f1b0 48bf 360d ca3f f4a2 fabd bf6d d2bf
00000020: f17f 230e 7f6f 9bbf 617e 8b31 79a7 cebf
00000030: f579 828c e65e 8d3f da33 73c2 f360 cabf
00000040: d396 580a 0bad aa3f 3362 373f 2d32 b1bf

blocks1.SCINet_Tree.SCINet_Tree_odd.SCINet_Tree_even.workingblock.interact.level.U.1.bias f8 [2]
-0.016600294655450015 -0.07438237489320085
00000000: 48b3 98ea aaff 90bf feaa 902b b90a b3bf

blocks1.SCINet_Tree.SCINet_Tree_odd.SCINet_Tree_even.workingblock.interact.level.U.4.weight f8 [1, 2, 3]
0.0923481141154471 -0.2254413345022874 0.06043796229623581 0.043757229868105714 0.03026379820978519 0.018702750593826766
00000000: 7a1e f941 20a4 b73f 474d 6dfb 42db ccbf
00000010: f698 ff7e b9f1 ae3f c17f 7efe 5867 a63f
00000020: 1e4d 411e 79fd 9e3f 633a 9558 d026 933f

blocks1.SCINet_Tree.SCINet_Tree_odd.SCINet_Tree_even.workingblock.interact.level.U.4.bias f8 [1]
0.10863214341156928
00000000: 1b40 3fef 50cf bb3f

blocks1.SCINet_Tree.SCINet_Tree_even.workingblock.interact.level.phi.1.weight f8 [2, 1, 5]
-0.045154297482712075 -0.3863277617086699 0.2954739587900899 0.17030322110121882 0.18147548002011785 -0.4025728280588802 -0.11876937779505277 -0.30792602289744697
-0.324597362691553 -0.11049368087655466
00000000: d498 eccd 761e a7bf eed6 8413 98b9 d8bf
00000010: 79ad 749b 0be9 d23f a23f 84f6 7ecc c53f
00000020: e52c dba9 963a c73f 0f5a b1d2 c0c3 d9bf
00000030: 9561 6581 ab67 bebf f4a3 7b59 0fb5 d3bf
00000040: 4f32 4804 34c6 d4bf e18a c759 5049 bcbf

blocks1.SCINet_Tree.SCINet_Tree_even.workingblock.interact.level.phi.1.bias f8 [2]
-0.31454543470739227 -0.1012710429519843
00000000: 9a28 cb2c 8321 d4bf a0b5 8229 e6ec b9bf

blocks1.SCINet_Tree.SCINet_Tree_even.workingblock.interact.level.phi.4.weight f8 [1, 2, 3]
-0.0497975080955182 0.08834123479273673 -0.4571361815275563 0.1626841266937914 0.3337488977936208 0.04306334711678022
00000000: 6195 6219 0f7f a9bf 2ab4 52fa 879d b63f
00000010: c8aa 5e1d b841 ddbf 2c34 dd5d d5d2 c43f
00000020: a260 4656 245c d53f 37b5 0b27 660c a63f

blocks1.SCINet_Tree.SCINet_Tree_even.workingblock.interact.level.phi.4.bias f8 [1]
-0.6376263821793956
00000000: a7df 5071 6f67 e4bf

blocks1.SCINet_Tree.SCINet_Tree_even.workingblock.interact.level.psi.1.weight f8 [2, 1, 5]
-0.3350303537851591 -0.3558613581189991 -0.0031681583134688584 -0.22556419766126293 -0.3190524516015062 -0.327603317451535 -0.17130049461024785 -0.3218881659955368
-0.4752952544592512 -0.23904498279724126
00000000: 202c 2b27 2371 d5bf ecff c1b7 6ec6 d6bf
00000010: 2e6a 090b 1cf4 69bf e542 0da2 49df ccbf
00000020: ea92 55f9 5a6b d4bf 1dfd a0e7 73f7 d4bf
00000030: afdf 11b3 2ced c5bf 60e5 7ad2 d099 d4bf
00000040: c32c 76c9 3c6b debf 538a b1a7 0699 cebf

blocks1.SCINet_Tree.SCINet_Tree_even.workingblock.interact.level.psi.1.bias f8 [2]
-0.2725066130875912 -0.34331070722319285
00000000: 5fea c993 bf70 d1bf c3f9 f878 cdf8 d5bf

blocks1.SCINet_Tree.SCINet_Tree_even.workingblock.interact.level.psi.4.weight f8 [1, 2, 3]
0.1444463028632438 0.6445312586328718 -0.1329319467361772 0.48802005918893665 -0.14282519802759114 0.10278758424334804
00000000: f5b1 6969 377d c23f 2c7e a204 00a0 e43f
00000010: d2a9 e9fd e903 c1bf ba8a 807c b83b df3f
00000020: 865f 4999 1848 c2bf fb90 c280 4950 ba3f

blocks1.SCINet_Tree.SCINet_Tree_even.workingblock.interact.level.psi.4.bias f8 [1]
-0.1577500424825329
00000000: f9d9 b344 2731 c4bf

blocks1.SCINet_Tree.SCINet_Tree_even.workingblock.interact.level.P.1.weight f8 [2, 1, 5]
0.1606614457986759 -0.17525133195273485 -0.1343294199441333 -0.21007792155654012 0.1669668254221904 -0.2632625208212871 -0.15166424761279262 -0.18264713435161095
0.14041324082927084 0.08392369643479938
00000000: 4f79 b7e3 8d90 c43f bea1 a8b9 a26e c6bf
00000010: 6d7d c6d8 b431 c1bf 1337 5955 d5e3 cabf
00000020: 9b45 5a3f 2b5f c53f 1828 4c0b 4bd9 d0bf
00000030: fc14 bceb bb69 c3bf e0c7 5f36 fb60 c7bf
00000040: 5fbf a4a2 0ff9 c13f 5201 8cfb 057c b53f

blocks1.SCINet_Tree.SCINet_Tree_even.workingblock.interact.level.P.1.bias f8 [2]
-0.1264896722141541 0.005434809843303903
00000000: c584 b846 d030 c0bf f66c 97a8 cf42 763f

blocks1.SCINet_Tree.SCINet_Tree_even.workingblock.interact.level.P.4.weight f8 [1, 2, 3]
-0.2763309090399317 -0.2397207484863233 0.2876481704426986 -0.12281662260788212 -0.1448185716902315 -0.20034175636138202
00000000: 4bd4 4cd6 67af d1bf 70f0 7563 2baf cebf
00000010: 598f 33df d368 d23f 0c8b 8101 e970 bfbf
00000020: 30a9 a13a 6a89 c2bf f633 cc75 cca4 c9bf

blocks1.SCINet_Tree.SCINet_Tree_even.workingblock.interact.level.P.4.bias f8 [1]
-0.1298287418436612
00000000: 2751 266c 3a9e c0bf

blocks1.SCINet_Tree.SCINet_Tree_even.workingblock.interact.level.U.1.weight f8 [2, 1, 5]
0.15246470532768402 0.06363753458260758 -0.0771166995144804 -0.016869543717212974 -0.040901337021705474 0.4368059881171904 0.16846864909418244 0.03043985017669883
-0.1752121653508564 -0.20831142751066126
00000000: 729d 96a5 f683 c33f 0993 d4a9 8c4a b03f
00000010: 07e1 6386 ebbd b3bf a967 41ea 3f46 91bf
00000020: 7be6 bd21 05f1 a4bf 5042 6a1a a1f4 db3f
00000030: 5762 2175 6190 c53f a528 04c4 9f2b 9f3f
00000040: f589 052c 5a6d c6bf 714b 45e8 f2a9 cabf

blocks1.SCINet_Tree.SCINet_Tree_even.workingblock.interact.level.U.1.bias f8 [2]
-0.037078692027211625 0.13157088993545438
00000000: f549 4573 fafb a2bf 276f b09e 50d7 c03f

blocks1.SCINet_Tree.SCINet_Tree_even.workingblock.interact.level.U.4.weight f8 [1, 2, 3]
-0.14213659304333498 -0.0029839752357398233 -0.127785529533164 -0.00026769094403338164 0.005900541770574289 -0.007187059087662947
00000000: 5ace 5729 8831 c2bf 5021 9681 d971 68bf
00000010: 179d 1fb7 465b c0bf 1a73 9dd9 1b8b 31bf
00000020: 6aca ee9e 2a2b 783f 9660 c67b 2d70 7dbf

blocks1.SCINet_Tree.SCINet_Tree_even.workingblock.interact.level.U.4.bias f8 [1]
-0.19947887350635093
00000000: 03f2 f912 8688 c9bf

blocks1.SCINet_Tree.SCINet_Tree_even.SCINet_Tree_odd.workingblock.interact.level.phi.1.weight f8 [2, 1, 5]
-0.32160915388980416 0.2292761078319279 -0.009700641722528762 0.16767559993845588 0.4536052090960245 -0.1903734489718261 0.32841931288155723 0.08653781368759314
-0.4048601398525837 0.1164308091590413
00000000: 9a42 838f 3e95 d4bf e136 7264 eb58 cd3f
00000010: 9c79 9617 eedd 83bf 1253 09e1 6476 c53f
00000020: ef35 9724 de07 dd3f 012c ae3c 285e c8bf
00000030: 7ede 0c70 d204 d53f 5ed2 a797 5727 b63f
00000040: bbbb 0781 3ae9 d9bf fcbb 95d5 68ce bd3f

blocks1.SCINet_Tree.SCINet_Tree_even.SCINet_Tree_odd.workingblock.interact.level.phi.1.bias f8 [2]
0.0866020769849016 -0.30553481205130356
00000000: 9e73 6ac0 8d2b b63f d530 63e2 e18d d3bf

blocks1.SCINet_Tree.SCINet_Tree_even.SCINet_Tree_odd.workingblock.interact.level.phi.4.weight f8 [1, 2, 3]
-0.3387215272649713 -0.07325175121256923 -0.4335935351567612 0.2062534080087215 0.1045725390794367 -0.09681713150111505
00000000: 6878 830e 9dad d5bf b12c d573 a0c0 b2bf
00000010: 1757 5019 ffbf dbbf 2802 0bfd 8266 ca3f
00000020: 9ce6 6713 44c5 ba3f e164 7ded 01c9 b8bf

blocks1.SCINet_Tree.SCINet_Tree_even.SCINet_Tree_odd.workingblock.interact.level.phi.4.bias f8 [1]
-0.6641492617362017
00000000: 9839 daf3 b540 e5bf

blocks1.SCINet_Tree.SCINet_Tree_even.SCINet_Tree_odd.workingblock.interact.level.psi.1.weight f8 [2, 1, 5]
-0.12859980703915794 -0.03966676293117278 0.06526380835183426 0.2980098676418396 -0.07179327058833337 0.35583665074397497 0.09924189849188503 0.05127271260635906
0.2157689329670205 -0.39867088248997135
00000000: eba6 c05e f575 c0bf f11d 0eb3 334f a4bf
00000010: 44c9 7b02 21b5 b03f 1f0c dafa 9712 d33f
00000020: f6f0 3f35 0b61 b2bf 8c77 6a16 07c6 d63f
00000030: a064 6ac4 ea67 b93f 269e a4bf 6a40 aa3f
00000040: 9807 4bff 509e cb3f 575c 8ae0 d283 d9bf

blocks1.SCINet_Tree.SCINet_Tree_even.SCINet_Tree_odd.workingblock.interact.level.psi.1.bias f8 [2]
0.08343539669045459 -0.42944324015289487
00000000: 0d42 1dac 055c b53f 2f7a fc7f ff7b dbbf

blocks1.SCINet_Tree.SCINet_Tree_even.SCINet_Tree_odd.workingblock.interact.level.psi.4.weight f8 [1, 2, 3]
-0.393552298932939 0.07841658014914822 -0.08230273610758386 0.16966240803864419 0.18336139825525208 -0.4814169453105881
00000000: 89af 4bfb f52f d9bf c96a 34e7 1b13 b43f
00000010: 6f11 f4c7 ca11 b5bf 987b f16e 7fb7 c53f
00000020: 3375 6de4 6278 c73f 3c59 f604 89cf debf

blocks1.SCINet_Tree.SCINet_Tree_even.SCINet_Tree_odd.workingblock.interact.level.psi.4.bias f8 [1]
-0.4366816293214325
00000000: 62c5 2c81 97f2 dbbf

blocks1.SCINet_Tree.SCINet_Tree_even.SCINet_Tree_odd.workingblock.interact.level.P.1.weight f8 [2, 1, 5]
-0.36063239658435986 0.3232710588997023 -0.1590776543552964 0.28243442547893843 0.253214547026201 -0.11820454114771028 0.25737223880232046 0.08066207689719378
0.15385550632615003 -0.028523096208284287
00000000: b04e 4de7 9914 d7bf b4eb 6d18 79b0 d43f
00000010: 6b7d 7d15 a85c c4bf ed94 2cd7 6713 d23f
00000020: cf55 96c9 aa34 d03f 88d5 771e a742 bebf
00000030: 2379 2369 c978 d03f c306 4d16 45a6 b43f
00000040: a27b fd87 89b1 c33f 7bba 9495 2835 9dbf

blocks1.SCINet_Tree.SCINet_Tree_even.SCINet_Tree_odd.workingblock.interact.level.P.1.bias f8 [2]
-0.2658607587578168 -0.4021549066741118
00000000: 74e4 09d8 dc03 d1bf ead6 05ef e7bc d9bf

blocks1.SCINet_Tree.SCINet_Tree_even.SCINet_Tree_odd.workingblock.interact.level.P.4.weight f8 [1, 2, 3]
0.10818574005159436 -0.14045752717520774 -0.14424277774683636 -0.006482201772205578 0.3961468029351935 0.07712355919131139
00000000: 9b47 6a87 0fb2 bb3f f7e6 d822 83fa c1bf
00000010: 8cad 8d1e 8c76 c2bf 6915 e2c9 148d 7abf
00000020: 1b62 c11e 785a d93f 4651 7a9c 5ebe b33f

blocks1.SCINet_Tree.SCINet_Tree_even.SCINet_Tree_odd.workingblock.interact.level.P.4.bias f8 [1]
-0.15427617413786412
00000000: 35b0 3c59 52bf c3bf

blocks1.SCINet_Tree.SCINet_Tree_even.SCINet_Tree_odd.workingblock.interact.level.U.1.weight f8 [2, 1, 5]
-0.45029921049730887 -0.23542429421647343 -0.3614508570113064 0.08460043501020988 0.5800448537775444 0.49669590832913185 0.012980050806560334 -0.3214405090628542
-0.08021963060039716 -0.33982322600041137
00000000: 3309 a0c7 b3d1 dcbf 3efc 2b1e 6222 cebf
00000010: 0862 7ec6 0222 d7bf 31a2 98c5 5fa8 b53f
00000020: 4601 a639 ba8f e23f 2129 95a2 ddc9 df3f
00000030: 9d7d b7ed 4895 8a3f 1336 8236 7b92 d4bf
00000040: 3808 ed11 4689 b4bf 72f3 85ea a9bf d5bf

blocks1.SCINet_Tree.SCINet_Tree_even.SCINet_Tree_odd.workingblock.interact.level.U.1.bias f8 [2]
-0.0858487222867971 -0.18570079395436764
00000000: ca0b a08e 2efa b5bf fb07 702a 0bc5 c7bf

blocks1.SCINet_Tree.SCINet_Tree_even.SCINet_Tree_odd.workingblock.interact.level.U.4.weight f8 [1, 2, 3]
0.5525634913886561 0.1155083566172872 0.587918698143046 0.09896441129042968 0.28306245248862577 0.49197312255375414
00000000: 984a 8fa1 99ae e13f 1001 16a6 f491 bd3f
00000010: a266 a7df 3ad0 e23f 7ad5 f54d bb55 b93f
00000020: 4782 0afa b11d d23f aa47 f8d5 7c7c df3f

blocks1.SCINet_Tree.SCINet_Tree_even.SCINet_Tree_odd.workingblock.interact.level.U.4.bias f8 [1]
0.28212734527345895
00000000: 846f 50da 5f0e d23f

blocks1.SCINet_Tree.SCINet_Tree_even.SCINet_Tree_even.workingblock.interact.level.phi.1.weight f8 [2, 1, 5]
0.09327199879334826 0.011282652612324171 0.0063562315683099455 0.13822297770388575 0.37164514246292607 0.07655636654313054 -0.11653238206521586 0.008367305573078018
-0.3828132019458671 0.355415831538698
00000000: 0932 7378 ace0 b73f f242 dbff 5b1b 873f
00000010: 4119 63eb fd08 7a3f 629f 6560 4ab1 c13f
00000020: 231d 26b5 08c9 d73f 1d74 9ab2 3299 b33f
00000030: e723 e5f1 10d5 bdbf 9e08 56be e022 813f
00000040: 2669 b5f1 0280 d8bf 5d1e 3c0b 22bf d63f

blocks1.SCINet_Tree.SCINet_Tree_even.SCINet_Tree_even.workingblock.interact.level.phi.1.bias f8 [2]
-0.18465113951278433 0.019500427378767872
00000000: 8832 b006 a6a2 c7bf 1a3a 6687 ebf7 933f

blocks1.SCINet_Tree.SCINet_Tree_even.SCINet_Tree_even.workingblock.interact.level.phi.4.weight f8 [1, 2, 3]
-0.4605978385790404 -0.37595257666507786 -0.04538858805265989 -0.04948764934469478 0.1557075661678536 0.09263312452184579
00000000: 7989 535b 6f7a ddbf 7ae6 6765 9b0f d8bf
00000010: 0178 984a 2c3d a7bf 2696 fbf6 7156 a9bf
00000020: c320 37bc 39ee c33f d7fd 58f0 cdb6 b73f

blocks1.SCINet_Tree.SCINet_Tree_even.SCINet_Tree_even.workingblock.interact.level.phi.4.bias f8 [1]
-0.4214235184976943
00000000: 4e9f 6d59 9af8 dabf

blocks1.SCINet_Tree.SCINet_Tree_even.SCINet_Tree_even.workingblock.interact.level.psi.1.weight f8 [2, 1, 5]
-0.18076579834329937 -0.25862591985122174 -0.16302052743114157 -0.1423904571344958 0.2242334865454481 -0.04790895442816563 0.35632062178891855 -0.05423986384695394
0.2737649097149479 -0.052265389092109274
00000000: aa55 0f6c 5523 c7bf a82b eaba 538d d0bf
00000010: b75b f24c dbdd c4bf efdb 53ba d939 c2bf
00000020: 9abc b0d1 aeb3 cc3f 9ab7 e8c0 8587 a8bf
00000030: 9452 5e02 f5cd d63f 066d b9d2 53c5 abbf
00000040: 7328 8141 5d85 d13f aa05 ba71 87c2 aabf

blocks1.SCINet_Tree.SCINet_Tree_even.SCINet_Tree_even.workingblock.interact.level.psi.1.bias f8 [2]
-0.3206005166515992 0.34552935608717816
00000000: 4b5b 8607 b884 d4bf 9cf3 0c29 271d d63f

blocks1.SCINet_Tree.SCINet_Tree_even.SCINet_Tree_even.workingblock.interact.level.psi.4.weight f8 [1, 2, 3]
0.06508093841457907 0.05440419523341139 0.30188826736285124 -0.07899734377670832 -0.43190685891279856 -0.41265948772847855
00000000: 4867 15f6 24a9 b03f e8dc 95de ddda ab3f
00000010: b6a6 d72a 2352 d33f a9e8 fd7f 2b39 b4bf
00000020: 24b5 7caa 5ca4 dbbf 2f63 0b57 0369 dabf

blocks1.SCINet_Tree.SCINet_Tree_even.SCINet_Tree_even.workingblock.interact.level.psi.4.bias f8 [1]
-0.7263260658183437
00000000: 1682 5d29 103e e7bf

blocks1.SCINet_Tree.SCINet_Tree_even.SCINet_Tree_even.workingblock.interact.level.P.1.weight f8 [2, 1, 5]
-0.23258837258020434 -0.12238494377069045 0.2044002388227878 0.2168407089002928 0.04963770804094261 0.3562913227850595 0.0845900303021769 0.1405005258356663
0.47966145831901835 0.22629276906727627
00000000: 33b7 d4ae 74c5 cdbf 0a96 04a3 9e54 bfbf
00000010: 5cec 847a c929 ca3f 0788 95b4 6fc1 cb3f
00000020: 5455 5e19 1d6a a93f 5c77 cd1e 7acd d63f
00000030: ee2a b735 b1a7 b53f 8c7a c4d5 ebfb c13f
00000040: 3f70 28f9 c5b2 de3f b98c 3b55 29f7 cc3f

blocks1.SCINet_Tree.SCINet_Tree_even.SCINet_Tree_even.workingblock.interact.level.P.1.bias f8 [2]
0.007347812512270598 -0.32097939314876384
00000000: 225a ff66 bd18 7e3f 33e3 1027 ed8a d4bf

blocks1.SCINet_Tree.SCINet_Tree_even.SCINet_Tree_even.workingblock.interact.level.P.4.weight f8 [1, 2, 3]
-0.028037988548172743 -0.11411828073229631 -0.10424998648344903 0.36371861667462524 0.4490171056892631 0.27186465035688306
00000000: 40aa 708f fdb5 9cbf 35f7 9e0b db36 bdbf
00000010: 050b 8e8a 20b0 babf 8a16 e472 2a47 d73f
00000020: e0ea 113e b2bc dc3f 9329 8efd 3a66 d13f

blocks1.SCINet_Tree.SCINet_Tree_even.SCINet_Tree_even.workingblock.interact.level.P.4.bias f8 [1]
-0.36062359728416776
00000000: 8716 20ff 7414 d7bf

blocks1.SCINet_Tree.SCINet_Tree_even.SCINet_Tree_even.workingblock.interact.level.U.1.weight f8 [2, 1, 5]
0.3483685604447134 0.2292255741956774 -0.012654937367712955 -0.28560112025125617 -0.26579150546606356 0.28020578974554505 -0.11028347019183618 0.09298882596871105
0.0850129253883479 -0.3431851234950011
00000000: 1e23 84a5 ab4b d63f 86e3 497c 4357 cd3f
00000010: 849e 04f1 d4ea 89bf e686 cbeb 4947 d2bf
00000020: 9c01 e25f ba02 d1bf 91d8 c643 e4ee d13f
00000030: 6a69 c399 893b bcbf 30d6 6d9e 1dce b73f
00000040: f6bd 4736 68c3 b53f c29f 78bc bef6 d5bf

blocks1.SCINet_Tree.SCINet_Tree_even.SCINet_Tree_even.workingblock.interact.level.U.1.bias f8 [2]
-0.017346554243016326 -0.06713612414691021
00000000: 9b2c b08c 4bc3 91bf 4357 9741 d52f b1bf

blocks1.SCINet_Tree.SCINet_Tree_even.SCINet_Tree_even.workingblock.interact.level.U.4.weight f8 [1, 2, 3]
-0.1241718365006357 -0.02751796093759003 -0.2973271766768952 -0.33107165503075586 0.05937198206065372 0.11365423358802108
00000000: d1bf dab8 b9c9 bfbf 9543 1e19 ab2d 9cbf
00000010: 8b83 0291 6807 d3bf 1657 bf2a 4730 d5bf
00000020: fc97 7f22 0166 ae3f b1ff 4fa0 7118 bd3f

blocks1.SCINet_Tree.SCINet_Tree_even.SCINet_Tree_even.workingblock.interact.level.U.4.bias f8 [1]
0.2818477788411492
00000000: a6ab 2444 cb09 d23f

projection1.weight f8 [24, 48, 1]
-0.012548122360833393 0.023540979126879826 -0.0022543746549545055 -0.018493390193169118 -0.019420014539824778 0.014721170595659229 0.020614082928739348 0.0025678021075837844
-0.05919256392189406 0.024686715835754474 0.010730899945090007 0.004754818705632412 -0.017662462919834074 0.005214102362148508 0.004822666616410839 -0.014931253022276087
-0.02343193518082478 0.022082233537500297 -0.03718469472267335 -0.010851990823950242 -0.03807614994442933 0.03453877379588098 0.013356713969670014 -0.024380109477593077
-0.05194086320675834 0.09585902313428413 0.004691665523284701 -0.06342729817017351 0.01728677889632432 0.024210617936481865 -0.056295686190507704 0.007512574036258163
-0.005419249694794314 -0.003019869602733754 0.0025531724069421274 -0.023225671045395153 -0.027372531984110552 0.03130956305706168 0.02276047993349991 -0.004993151837068752
0.03005831433156657 0.002083609565101146 -0.017091211847107206 0.08124196594584508 -0.023699564630863784 0.22335274653351606 0.12236344022876561 0.2719558202329456
0.004008204203045466 -0.0006730422307706993 0.003160803175983157 -0.0004960027812784603 -0.029613441645004037 0.020686713858366953 -0.02575124604929282 -0.025221825361524185
0.046678794175663 0.030141343235089175 -0.050861541210431974 -0.02996768615651598 0.012666704268207343 0.005128296651574168 -0.03219574626136778 0.02499966101767186
0.0344837784814643 0.02909573846916841 -0.05936198021995952 0.045205822618596445 -0.07979253124583735 0.01916175016222944 0.010910827945412283 0.003476496957475075
0.014441067927629824 0.014735734348572123 -0.014710649665885539 -0.02790854910146627 -0.024169262240543762 0.03473162051078966 -0.055863533943293804 -0.005580335568743806
-0.017550666305506186 0.026412048505921826 0.012801809673773548 -0.053220336105895445 0.006388955642352522 0.022872305564527615 -0.0014608548718982074 -0.01379526336996679
-0.0009800831147311604 0.05703100011374129 -0.005482128289732208 0.10501319674030431 0.0055736820773729006 0.14246703195913657 0.10748588797025485 0.2931996483973741
-0.010594474210369987 0.00989246085682401 -0.0024405850532174304 -0.021681555088355415 -0.025171842585530173 0.038892593226302626 -0.047976795793479556 0.013065601060331253
-0.029135663858269573 0.04451978871667364 -0.043116021830100146 0.0007929292619158519 -0.011233741020273684 0.019102882189819363 -0.0033021023406336818 0.034820730006022836
-0.05495854227833613 0.052132600835330424 0.008038535518026486 -0.07840546830105687 0.020175176417796488 -0.006911229594950957 0.00281029302694967 0.0012072385710406375
0.038024302753910916 -0.012312738797635173 -0.0006602467183458382 -0.08112944825713098 0.07945817116282348 -0.02768998007451576 -0.0445295247342141 0.00411837568046973
-0.0017632636683504398 0.03917479959379111 -0.032643948221805906 -0.04855134102682251 -0.061232349198192794 0.0670668880145296 0.038397087753125336 0.001383790425601097
-0.018140700535838435 0.03541849863468701 0.01727737506725859 0.009044120064478509 0.13993527076948775 0.11360253869542267 0.12857136684737908 0.28411589928211567
-0.021539708985962597 0.07559432556228216 -0.04953687010915695 -0.019076867572368376 -0.004804852145064187 0.0002636331831118613 0.01730207901508454 -0.015436624951474662
-0.010465641248992321 0.01312884773941584 -0.021152342025795485 0.007461602061544159 0.01869492897510205 -0.011434243225217989 -0.01853263871845679 0.015072717530652247
-0.01769154554803083 0.06309896577842396 -0.0033667121308658407 -0.05281056641817602 0.008599171871815553 -0.0025461922388647497 -0.006350918134481759 0.016985139612245827
-0.007486208715839539 -0.0005777011789610529 -0.009002031823707358 0.006342867506430442 -0.035922088253881074 0.03873542304664284 0.00411936478499522 -0.05427132428344674
0.06421327911174073 0.017597308240888856 -0.029443920348544775 -0.03528062843798904 -0.061015741438081056 0.07789713299727155 -0.026212530051092756 0.018368846319219857
-0.03113822187513795 0.01430068548094603 -0.024694501725751574 0.09800376687383487 0.04406361717984862 0.0525117199329327 0.1117456778823867 0.338000101452687
0.009784198472818834 -0.01375140550971648 0.023358133242931196 -0.0016375888464233129 -0.06215150595308774 0.021796710953099884 -0.02458872348220076 0.036706264502347166
-0.03446557092405041 -0.003521932513546758 -0.0076482767729658735 0.031599679008427396 -0.04546448088643719 0.03896025868830462 -0.04635410062953273 0.02765898544873544
-0.04201352000490757 0.04625890898788317 -0.043826317046783435 -0.017689818370837926 0.04260620362353525 0.0002357906685785541 0.04059172354903164 -0.03154718971717606
0.011407618301884893 0.018638748701841654 -0.0040837356336721935 -0.04343030168297432 0.026169203764453693 0.06409849516818134 -0.07577295178676655 0.0048932025557399655
0.044865619680523834 -0.00019904745126722432 -0.01885918416716051 -0.019554189688286875 -0.024459332174271087 0.010786074273595722 -0.013888516291481075 0.059575664576563506
-0.06022640976681392 -0.013211966403541081 -0.017275755313588534 -0.02751175552258847 0.11517339559555594 0.21034916156883113 0.03691849151026984 0.2668106511547725
0.009767726889608381 0.015481213433674056 -0.019108390064028466 -0.008422822928594193 0.04286018252670952 -0.007637025997684917 -0.04067122735332573 0.0015277786641180757
0.026430406947007885 0.004038433378469155 0.03035603059549982 -0.016783253724120165 0.0027680392337976955 0.010384490330675481 -0.011117128443384085 0.014962886978340794
00000000: 54f0 5379 d4b2 89bf 27f2 dc5d 201b 983f
00000010: 348d 4f2d c477 62bf 688d 4968 eeef 92bf
00000020: 1f77 581d d7e2 93bf 3436 2312 2226 8e3f
00000030: c259 10b0 db1b 953f 03b7 6342 1209 653f
00000040: 4bfe 6bdc 7c4e aebf 4b0e a474 7947 993f
00000050: b704 9102 15fa 853f 65f4 6ced c979 733f
00000060: 7c14 6ed2 1b16 92bf a58b f9f1 615b 753f
00000070: fc17 5ab6 eec0 733f 9710 5adb 4694 8ebf
00000080: 0671 228d 8afe 97bf a7fc 769b b99c 963f
00000090: abc2 7d4f df09 a3bf 2d9d 7b8d 9139 86bf
000000a0: 62af 8995 b77e a3bf 6e64 cbef 10af a13f
000000b0: 163e 74cd c35a 8b3f 0543 8473 19f7 98bf
000000c0: 591b 9929 fe97 aabf dc64 6389 378a b83f
000000d0: fccb c75f 9137 733f 6c85 507b c53c b0bf
000000e0: 9734 0d18 a0b3 913f 4b37 0311 abca 983f
000000f0: 1c2f 30c6 c9d2 acbf 874d b63c 81c5 7e3f
00000100: 59f7 53c3 7e32 76bf 7256 d225 20bd 68bf
00000110: 65ca a4ff 63ea 643f d53f 4566 78c8 97bf
00000120: d1cc b886 8b07 9cbf 81a6 c39a ce07 a03f
00000130: f694 d2f3 854e 973f 24bb 81fd b273 74bf
00000140: 1c9d 1b54 9bc7 9e3f 3f5e 125e a511 613f
00000150: 8eb5 bacf 5b80 91bf a7d6 cc02 46cc b43f
00000160: 4874 13dc b244 98bf 3ea7 eaa2 d296 cc3f
00000170: 8c33 02de 3553 bf3f eede 7662 b967 d13f
00000180: 6bfc 7b1f e86a 703f 3bbc 5b2f e30d 46bf
00000190: 745a a348 afe4 693f 3a63 b6dc c540 40bf
000001a0: 8797 8c6d fc52 9ebf 5fff eedd e52e 953f
000001b0: 46ac 73de 885e 9abf 03ed 4a0c c0d3 99bf
000001c0: 7f68 cd6c 48e6 a73f 7512 cf4d 5fdd 9e3f
000001d0: d2f4 3e20 860a aabf 5686 ea5f d9af 9ebf
000001e0: 6ef3 a344 00f1 893f c972 71a6 6801 753f
000001f0: 5f99 86fa f57b a0bf ed8d edd9 8299 993f
00000200: 2b0b a499 dba7 a13f 1052 b6f4 45cb 9d3f
00000210: 0e4f 5787 b164 aebf f6a6 78b3 3725 a73f
00000220: 5c7a 2a88 486d b4bf c3a3 1f49 239f 933f
00000230: 2d27 9589 6a58 863f d27e 9517 be7a 6c3f
00000240: d974 bf53 4793 8d3f 0496 e0c8 c42d 8e3f
00000250: 033e bef9 9d20 8ebf acad ad06 0f94 9cbf
00000260: 2cfb 90bb d3bf 98bf b93b 76cc 57c8 a13f
00000270: 219f a626 259a acbf ee9c 4bec 67db 76bf
00000280: 657b 3847 cdf8 91bf 4094 3692 c20b 9b3f
00000290: 481d 07cf d537 8a3f 6928 1d26 b23f abbf
000002a0: 72c9 a138 4e2b 7a3f acf9 8871 d66b 973f
000002b0: 904c 89f9 44ef 57bf 2516 1ce8 b040 8cbf
000002c0: 7a5d 353b c40e 50bf 8081 b1d0 2a33 ad3f
000002d0: 3a53 789b 6d74 76bf b1e4 a515 25e2 ba3f
000002e0: 3592 d9e3 6dd4 763f 20e7 8215 5c3c c23f
000002f0: aa1f 9df5 3184 bb3f da2f 4475 c8c3 d23f
00000300: 4dcc 0342 8eb2 85bf ea2c db9e 7f42 843f
00000310: 0bd8 921f 47fe 63bf 95a6 1f88 b033 96bf
00000320: 9e59 bdc2 a5c6 99bf 195d eddf bae9 a33f
00000330: 1dbb cc21 6a90 a8bf b2bb 0d4a 23c2 8a3f
00000340: b88f ac4d bdd5 9dbf 143a 2039 4ccb a63f
00000350: 2647 639f 4d13 a6bf 257b bd9f 92fb 493f
00000360: 9cb8 5932 b701 87bf 3ef7 0eb9 b48f 933f
00000370: 2f42 f4b1 020d 6bbf a38a 32d1 05d4 a13f
00000380: 884c 71ab 8623 acbf 1d4d 49cf 1fb1 aa3f
00000390: 4ae2 42f9 8176 803f 0f3c 2e7a 6112 b4bf
000003a0: 9232 9f2b cda8 943f 130d 5e11 f34e 7cbf
000003b0: e0d8 9294 9c05 673f 9ff7 968b 86c7 533f
000003c0: 0400 90e1 eb77 a33f 0226 aed3 6b37 89bf
000003d0: 47d7 0208 8da2 45bf 50c4 0147 e6c4 b4bf
000003e0: 0f57 8be6 5e57 b43f 6943 631b c35a 9cbf
000003f0: fd36 e1e8 92cc a6bf 309f c30d 6ede 703f
00000400: e6eb 8bf2 a9e3 5cbf f055 2a26 b80e a43f
00000410: 5bc9 0c24 b5b6 a0bf f737 c6ab b8db a8bf
00000420: 25e8 86b2 d859 afbf e5b9 aaaa 4b2b b13f
00000430: f097 5278 c8a8 a33f d89f d6a7 09ac 563f
00000440: 6fa0 1cce 7993 92bf db69 9e9a 5f22 a23f
00000450: 8597 7f03 29b1 913f b82b 2f3f b985 823f
00000460: 7484 c121 66e9 c13f 7e7d 7054 0e15 bd3f
00000470: 9edf e7cb 0675 c03f 262e ec73 f42e d23f
00000480: 85e8 a366 810e 96bf 1e9d 0d54 265a b33f
00000490: 7d4b 218a e55c a9bf a172 55e9 e288 93bf
000004a0: 67e1 33ad 40ae 73bf 3891 4ce6 0747 313f
000004b0: 6723 17de a2b7 913f b21b 9eba 3c9d 8fbf
000004c0: 8e31 2b97 026f 85bf 944e 661d 4ce3 8a3f
000004d0: 753a f0a4 f5a8 95bf 3315 488d 0e90 7e3f
000004e0: df48 3272 c324 933f ad91 a725 d66a 87bf
000004f0: 8242 d154 38fa 92bf 1a15 d9e6 71de 8e3f
00000500: f38d 2d86 bb1d 92bf 5d04 6efa 4027 b03f
00000510: 425e e8cf 8194 6bbf 4b71 4c8f fc09 abbf
00000520: b071 b24f 719c 813f dfe9 a58c c0db 64bf
00000530: 93a8 fe9a 6b03 7abf 8a40 9c6c 8d64 913f
00000540: b560 b0d9 dba9 7ebf f4e3 d2d5 1bee 42bf
00000550: e734 3e42 a86f 82bf 9134 0c88 fafa 793f
00000560: 9c46 8244 6164 a2bf 6736 5d1e 21d5 a33f
00000570: 9e73 8290 77df 703f 43e7 d075 73c9 abbf
00000580: 13fc c00d 4870 b03f b4a9 915d 0705 923f
00000590: 3424 da0b 8c26 9ebf 8ca0 a572 4d10 a2bf
000005a0: 8c16 098c 743d afbf e2e9 ac06 11f1 b33f
000005b0: d16a 421d 75d7 9abf 1d40 d368 48cf 923f
000005c0: c6ee 6fb2 b2e2 9fbf 9abd 9b83 ad49 8d3f
000005d0: b764 36f5 8349 99bf 3ba1 9b5d c616 b93f
000005e0: 4e3a 76a5 818f a63f 728d 89ef d0e2 aa3f
000005f0: 4365 f95f 5d9b bc3f 9c2c 722d cba1 d53f
00000600: f0a8 aae3 bc09 843f dd91 8167 b229 8cbf
00000610: d5f9 7ec9 31eb 973f 7328 8aa2 8bd4 5abf
00000620: 246b ee7a 52d2 afbf c3d2 d082 e051 963f
00000630: e064 d34c c92d 99bf b21a 31db 29cb a23f
00000640: 1add e9a7 78a5 a1bf 6d62 dc1e 07da 6cbf
00000650: 8733 c5a9 cc53 7fbf 9d82 cf47 d52d a03f
00000660: f2df 12d5 1e47 a7bf 5ae7 d159 99f2 a33f
00000670: 428a 7a84 b9bb a7bf ba7c c517 a352 9c3f
00000680: 1464 d2cc cb82 a5bf 8bd1 806a 3faf a73f
00000690: 6312 d72c 6770 a6bf 5ced 7f9d 471d 92bf
000006a0: 1bf0 56f6 7ad0 a53f 207a a56b d2e7 2e3f
000006b0: 2342 433a 70c8 a43f 8e61 3b08 f426 a0bf
000006c0: d438 419c e05c 873f 997a 7340 0916 933f
000006d0: b5c5 df6f 1bba 70bf ec7f c41a 7f3c a6bf
000006e0: 0fa0 5289 19cc 9a3f f05b 784c c268 b03f
000006f0: c675 d82d db65 b3bf de96 310f e50a 743f
00000700: 3139 7c62 a0f8 a63f ca83 4b96 ec16 2abf
00000710: e8a5 e86c d24f 93bf 3109 d874 0306 94bf
00000720: 9dfc 14ff dd0b 99bf 18fe 0e62 0217 863f
00000730: 9e51 181a 9571 8cbf 22d4 fc95 b380 ae3f
00000740: bfa0 9bf8 fed5 aebf 90d5 f31c e00e 8bbf
00000750: 4c9d 5750 bcb0 91bf 6877 e6a8 0a2c 9cbf
00000760: 47c2 73ef 007c bd3f 61ee d6a8 b8ec ca3f
00000770: 82fb 4e03 fbe6 a23f 23ca 3bfb 6c13 d13f
00000780: 8a84 601c 1a01 843f cc40 334b 9db4 8f3f
00000790: 2cea 9d59 2691 93bf 3d80 2528 fc3f 81bf
000007a0: 0e70 8114 c5f1 a53f 9550 618e 0048 7fbf
000007b0: 4fce bdee dbd2 a4bf 0a6b 77d9 f707 593f
000007c0: d258 d495 9210 9b3f 4202 9ab4 9a8a 703f
000007d0: 1781 93ba a615 9f3f 0457 7617 a12f 91bf
000007e0: 6e6c 76bf ffac 663f 4fd7 d8b2 7644 853f
000007f0: 41d7 b7b8 93c4 86bf 3945 ceb1 dca4 8e3f
