exp/data_checkpoints/Model_hs1_bs256_e10/checkpoint.pth (torch, 100025 bytes, 114 tensors)

inv_timescales f8 [1]
00000000: 0000 0000 0000 f03f
1.0

blocks1.SCINet_Tree.workingblock.interact.level.phi.1.weight f8 [1, 1, 5]
00000000: 6019 46c8 c6e2 c3bf 0004 7163 b387 e0bf
00000010: 388d 6e6a a520 b03f 69d2 2e75 a72e ce3f
00000020: 7e73 7c60 7c8c c63f
-0.15535816935534807 -0.516565031262985 0.0629981407969823 0.23579877111264416 0.17616228781926319

blocks1.SCINet_Tree.workingblock.interact.level.phi.1.bias f8 [1]
00000000: 8ff5 7247 2e4a 983f
0.02372047720995379

blocks1.SCINet_Tree.workingblock.interact.level.phi.4.weight f8 [1, 1, 3]
00000000: 112d 28f1 3708 c43f 6e9e 1751 b66b c8bf
00000010: c7ee 1c93 3b5a ca3f
0.15650080943337533 -0.19078711471159998 0.20587868388417105

blocks1.SCINet_Tree.workingblock.interact.level.phi.4.bias f8 [1]
00000000: 24b1 bc40 6a2a e3bf
-0.5989276184459738

blocks1.SCINet_Tree.workingblock.interact.level.psi.1.weight f8 [1, 1, 5]
00000000: 2b74 88e5 03c1 b9bf 633b 0085 de8a c1bf
00000010: f8d1 7e5e 40cd d3bf adbc 649c 691d c4bf
00000020: b7bf a937 d701 d33f
-0.10060142854531821 -0.13705045217690345 -0.3094025538260037 -0.15714759956742821 0.2969873469910413

blocks1.SCINet_Tree.workingblock.interact.level.psi.1.bias f8 [1]
00000000: d49c 67ef 439e c4bf
-0.1610798758476678

blocks1.SCINet_Tree.workingblock.interact.level.psi.4.weight f8 [1, 1, 3]
00000000: 9035 4bea 1ff0 bdbf 30a0 2b37 50d7 dd3f
00000010: f044 63df 1744 ca3f
-0.11694526166976105 0.4662666834615292 0.20520304114919652

blocks1.SCINet_Tree.workingblock.interact.level.psi.4.bias f8 [1]
00000000: 97c4 9b02 a08d d8bf
-0.3836441064332318

blocks1.SCINet_Tree.workingblock.interact.level.P.1.weight f8 [1, 1, 5]
00000000: d4a3 f76d 4e96 cabf 12bb ca9a a0b0 c53f
00000010: a78f 597b 448f d03f 5aba 6845 676d d1bf
00000020: c2a3 e474 570b c93f
-0.20771198625086973 0.16945273931693144 0.2587443546856271 -0.2723024537871531 0.1956586190001684

blocks1.SCINet_Tree.workingblock.interact.level.P.1.bias f8 [1]
00000000: dc12 7a0a 72eb 94bf
-0.02042940319963092

blocks1.SCINet_Tree.workingblock.interact.level.P.4.weight f8 [1, 1, 3]
00000000: d5bd 44b0 a2ae b9bf 58d7 18e2 b095 dc3f
00000010: 63e9 0a8b d433 acbf
-0.10032097629004195 0.44663641052044545 -0.05508293340013173

blocks1.SCINet_Tree.workingblock.interact.level.P.4.bias f8 [1]
00000000: 966e f590 be2f d4bf
-0.31541408687710637

blocks1.SCINet_Tree.workingblock.interact.level.U.1.weight f8 [1, 1, 5]
00000000: 3330 fc56 d794 ba3f 2105 61cf 782f c7bf
00000010: 96d9 bba2 f6dc da3f 58f3 b6f1 b51e cebf
00000020: 13d9 394e e3f6 d23f
0.10383363603267597 -0.18113622785498598 0.4197365369031102 -0.23531221678231407 0.2963188423085665

blocks1.SCINet_Tree.workingblock.interact.level.U.1.bias f8 [1]
00000000: 7dc2 a4d8 40aa d0bf
-0.260391437116631

blocks1.SCINet_Tree.workingblock.interact.level.U.4.weight f8 [1, 1, 3]
00000000: 4141 1a2c 3816 8abf ad9b 3572 6d4d dbbf
00000010: bbfc c0dc 989d d9bf
-0.01273769268598868 -0.42660080102217074 -0.4002439647483233

blocks1.SCINet_Tree.workingblock.interact.level.U.4.bias f8 [1]
00000000: 8bcc a633 7deb b23f
0.07390577803635005

blocks1.SCINet_Tree.SCINet_Tree_odd.workingblock.interact.level.phi.1.weight f8 [1, 1, 5]
00000000: 03fe a43c 9962 d0bf 796e 099f b8ba b43f
00000010: e5d6 8429 49e3 a63f 638b f002 d2c2 c83f
00000020: cec2 6522 6569 b6bf
-0.25601797983469526 0.08097413904891394 0.044702802961564626 0.1934454454759261 -0.08754570092947775

blocks1.SCINet_Tree.SCINet_Tree_odd.workingblock.interact.level.phi.1.bias f8 [1]
00000000: 1e0a e2e2 84d7 b0bf
-0.06578856028685506

blocks1.SCINet_Tree.SCINet_Tree_odd.workingblock.interact.level.phi.4.weight f8 [1, 1, 3]
00000000: c170 b4ad f9a6 d73f 34e3 0c1a e012 a5bf
00000010: eb9f 6936 95f9 cabf
0.3695663639389402 -0.04115963285443627 -0.21074166447510775

blocks1.SCINet_Tree.SCINet_Tree_odd.workingblock.interact.level.phi.4.bias f8 [1]
00000000: 2318 7680 b245 c3bf
-0.15056449196362207

blocks1.SCINet_Tree.SCINet_Tree_odd.workingblock.interact.level.psi.1.weight f8 [1, 1, 5]
00000000: 4d6b 6229 3cfc af3f 5990 3d8a e6eb d6bf
00000010: 8942 347e fb7d b2bf 5ea1 0e37 7498 c53f
00000020: a364 a5ef f123 d23f
0.0624712753790023 -0.35814822673842667 -0.07223483878284233 0.16871502579057113 0.28344391253410545

blocks1.SCINet_Tree.SCINet_Tree_odd.workingblock.interact.level.psi.1.bias f8 [1]
00000000: d09e a3bb bfbb d1bf
-0.27708428691992726

blocks1.SCINet_Tree.SCINet_Tree_odd.workingblock.interact.level.psi.4.weight f8 [1, 1, 3]
00000000: 5393 1ddc 4765 d1bf 1aba 3cdc eaf1 d4bf
00000010: 9e6c 8382 e34c cb3f
-0.2718066834989276 -0.32726546771564957 0.21328395722125476

blocks1.SCINet_Tree.SCINet_Tree_odd.workingblock.interact.level.psi.4.bias f8 [1]
00000000: 7c0c 00cf 10b3 e6bf
-0.709358600899932

blocks1.SCINet_Tree.SCINet_Tree_odd.workingblock.interact.level.P.1.weight f8 [1, 1, 5]
00000000: 5e57 3aed ac34 d2bf 6ce3 3566 411b e0bf
00000010: fc10 ab3f 301e d9bf d276 94c0 9648 d63f
00000020: 1f40 1935 502a d63f
-0.2844650570563 -0.5033270832346779 -0.3924675580749548 0.34818047339090896 0.34633259950078527

blocks1.SCINet_Tree.SCINet_Tree_odd.workingblock.interact.level.P.1.bias f8 [1]
00000000: 5c96 8b13 b9e3 8a3f
0.01312965956590089

blocks1.SCINet_Tree.SCINet_Tree_odd.workingblock.interact.level.P.4.weight f8 [1, 1, 3]
00000000: 9f0f e0f8 33c6 dfbf 6d51 040a 1b07 e0bf
00000010: a960 00e6 4915 bebf
-0.4964723520681619 -0.5008673854486411 -0.11751233926077255

blocks1.SCINet_Tree.SCINet_Tree_odd.workingblock.interact.level.P.4.bias f8 [1]
00000000: 085b dbcb 6672 b03f
0.0642456290910155

blocks1.SCINet_Tree.SCINet_Tree_odd.workingblock.interact.level.U.1.weight f8 [1, 1, 5]
00000000: 4c72 9070 c012 d3bf dad9 9dd1 b301 d2bf
00000010: f159 c6ed c33f d33f 62d6 177c 3c7f b2bf
00000020: 393c 7c5f 6cca 88bf
-0.29801951401330906 -0.2813539073025858 0.30076692791172294 -0.07225397138230386 -0.012104841865520398

blocks1.SCINet_Tree.SCINet_Tree_odd.workingblock.interact.level.U.1.bias f8 [1]
00000000: 79e9 4622 e190 c1bf
-0.13723386930162088

blocks1.SCINet_Tree.SCINet_Tree_odd.workingblock.interact.level.U.4.weight f8 [1, 1, 3]
00000000: 7cd3 f2ee 97e1 d3bf c4a5 8652 ebdb c23f
00000010: 12ff e920 09b0 e13f
-0.31064413389986334 0.1473364022215674 0.5527387278416163

blocks1.SCINet_Tree.SCINet_Tree_odd.workingblock.interact.level.U.4.bias f8 [1]
00000000: 8a46 ec04 0426 cdbf
-0.22772264709833606

blocks1.SCINet_Tree.SCINet_Tree_odd.SCINet_Tree_odd.workingblock.interact.level.phi.1.weight f8 [1, 1, 5]
00000000: bd43 d615 35bf cebf edae 8de8 9680 cabf
00000010: 8342 cb38 f057 d33f 1368 96e5 0914 d7bf
00000020: b419 dc07 0028 a6bf
-0.24021018568285327 -0.2070492396845717 0.30224233194625344 -0.3605980627122573 -0.04327392669624733

blocks1.SCINet_Tree.SCINet_Tree_odd.SCINet_Tree_odd.workingblock.interact.level.phi.1.bias f8 [1]
00000000: 4ebc 21c2 cb7b c4bf
-0.16002795199480818

blocks1.SCINet_Tree.SCINet_Tree_odd.SCINet_Tree_odd.workingblock.interact.level.phi.4.weight f8 [1, 1, 3]
00000000: a60e 167c 82f7 c2bf 373d 0c26 0f75 e1bf
00000010: 58f2 9e4b e082 a8bf
-0.14817839678663808 -0.54553944998944 -0.04787350581270705

blocks1.SCINet_Tree.SCINet_Tree_odd.SCINet_Tree_odd.workingblock.interact.level.phi.4.bias f8 [1]
00000000: b505 8412 a446 debf
-0.4730615788285733

blocks1.SCINet_Tree.SCINet_Tree_odd.SCINet_Tree_odd.workingblock.interact.level.psi.1.weight f8 [1, 1, 5]
00000000: 3761 d130 5fc1 c9bf 6acc b2c3 1175 cfbf
00000010: 2414 54bc e9f0 cd3f ab67 ba7b c4d4 d8bf
00000020: 1e8e 1813 9676 8a3f
-0.20121374019323365 -0.24576017432773095 0.23391458221172556 -0.38798629839731785 0.012921497781525789

blocks1.SCINet_Tree.SCINet_Tree_odd.SCINet_Tree_odd.workingblock.interact.level.psi.1.bias f8 [1]
00000000: 32cf 0830 6601 d4bf
-0.3125853985868502

blocks1.SCINet_Tree.SCINet_Tree_odd.SCINet_Tree_odd.workingblock.interact.level.psi.4.weight f8 [1, 1, 3]
00000000: 7b10 8233 3c1f d8bf 42d1 a331 8e70 a4bf
00000010: 1b7c 5f96 eb50 e33f
-0.37690644292911885 -0.03992122989612536 0.6036279618236934

blocks1.SCINet_Tree.SCINet_Tree_odd.SCINet_Tree_odd.workingblock.interact.level.psi.4.bias f8 [1]
00000000: 723f cc66 cd6e c7bf
-0.18306891936708386

blocks1.SCINet_Tree.SCINet_Tree_odd.SCINet_Tree_odd.workingblock.interact.level.P.1.weight f8 [1, 1, 5]
00000000: 9ebf f6a7 8576 9ebf 9e35 43ea 39e0 b8bf
00000010: 80de 894b 4ec8 73bf 7eff 0e96 0401 d6bf
00000020: 5405 d0d9 d6c3 d5bf
-0.02974900090856602 -0.09717142075824944 -0.0048296984101551255 -0.34381212858351506 -0.34007807989845174

blocks1.SCINet_Tree.SCINet_Tree_odd.SCINet_Tree_odd.workingblock.interact.level.P.1.bias f8 [1]
00000000: c2be 92e8 dfd0 cebf
-0.24074934822191635

blocks1.SCINet_Tree.SCINet_Tree_odd.SCINet_Tree_odd.workingblock.interact.level.P.4.weight f8 [1, 1, 3]
00000000: 7e24 05f7 6fdb c2bf 89ab 2edb 95cb de3f
00000010: e195 71a1 c6cd d5bf
-0.14732169686820734 0.48117586521646466 -0.34068456426606814

blocks1.SCINet_Tree.SCINet_Tree_odd.SCINet_Tree_odd.workingblock.interact.level.P.4.bias f8 [1]
00000000: 0bab 5be9 e3d2 d33f
0.3097467211616027

blocks1.SCINet_Tree.SCINet_Tree_odd.SCINet_Tree_odd.workingblock.interact.level.U.1.weight f8 [1, 1, 5]
00000000: c0cc 6087 a84a 90bf 4535 8fad 782a d3bf
00000010: 6fb9 07bf 7e89 c03f 685a 70a8 a280 b0bf
00000020: 822a 2eb2 f8a7 c1bf
-0.015909798872780767 -0.29946724843178557 0.12919601752896478 -0.06446282017018634 -0.13793858242236828

blocks1.SCINet_Tree.SCINet_Tree_odd.SCINet_Tree_odd.workingblock.interact.level.U.1.bias f8 [1]
00000000: 16b4 df6b 5344 96bf
-0.021745017489525585

blocks1.SCINet_Tree.SCINet_Tree_odd.SCINet_Tree_odd.workingblock.interact.level.U.4.weight f8 [1, 1, 3]
00000000: a576 15e2 0782 d0bf 87d9 62a1 8c80 d5bf
00000010: cef7 65d3 f3dc 80bf
-0.25793644979953917 -0.3359710289036219 -0.008233933342804447

blocks1.SCINet_Tree.SCINet_Tree_odd.SCINet_Tree_odd.workingblock.interact.level.U.4.bias f8 [1]
00000000: 2ff5 f894 8d69 cbbf
-0.2141587235836737

blocks1.SCINet_Tree.SCINet_Tree_odd.SCINet_Tree_even.workingblock.interact.level.phi.1.weight f8 [1, 1, 5]
00000000: 8662 b853 6212 c03f 9ff0 8f48 5f53 bc3f
00000010: fbf0 ce16 b4b7 b63f 9eac 5b4e 5ef2 cdbf
00000020: 195c 18ae 617f cfbf
0.12556103790190692 0.1106471588281601 0.08874059254498327 -0.23395899606780274 -0.24607487679233556

blocks1.SCINet_Tree.SCINet_Tree_odd.SCINet_Tree_even.workingblock.interact.level.phi.1.bias f8 [1]
00000000: 4585 19b6 fac0 b3bf
-0.07716338105958183

blocks1.SCINet_Tree.SCINet_Tree_odd.SCINet_Tree_even.workingblock.interact.level.phi.4.weight f8 [1, 1, 3]
00000000: 626d ffd8 3bd2 a13f 1bd5 60d0 83bd c4bf
00000010: 8c3d 06b3 30c4 cdbf
0.034807081450447766 -0.1620335357162411 -0.23254975072312012

blocks1.SCINet_Tree.SCINet_Tree_odd.SCINet_Tree_even.workingblock.interact.level.phi.4.bias f8 [1]
00000000: 85a9 5508 24cc 7a3f
0.006542340042282273

blocks1.SCINet_Tree.SCINet_Tree_odd.SCINet_Tree_even.workingblock.interact.level.psi.1.weight f8 [1, 1, 5]
00000000: fed8 627b 3b72 d93f 780f 4acc 44e9 b63f
00000010: 1c39 3410 a995 a0bf 8f00 d832 bb32 ca3f
00000020: 7139 eabb b403 b0bf
0.39759718942094924 0.0894968985322161 -0.03239181826403323 0.20467319471936604 -0.06255654895560327

blocks1.SCINet_Tree.SCINet_Tree_odd.SCINet_Tree_even.workingblock.interact.level.psi.1.bias f8 [1]
00000000: b1ba d3de 65d1 c53f
0.1704528177283087

blocks1.SCINet_Tree.SCINet_Tree_odd.SCINet_Tree_even.workingblock.interact.level.psi.4.weight f8 [1, 1, 3]
00000000: 180b 82fd e217 e0bf f9da d09f 3480 e1bf
00000010: 195d 8b40 8745 a5bf
-0.5029158545806665 -0.546900093212428 -0.04154608405013444

blocks1.SCINet_Tree.SCINet_Tree_odd.SCINet_Tree_even.workingblock.interact.level.psi.4.bias f8 [1]
00000000: 8b3a f282 8942 b13f
0.06742152640274861

blocks1.SCINet_Tree.SCINet_Tree_odd.SCINet_Tree_even.workingblock.interact.level.P.1.weight f8 [1, 1, 5]
00000000: 4743 3f26 b0ed db3f a4b9 c3f0 b4ca 83bf
00000010: be18 b5f7 5576 c5bf 81ec c89e bf8c c9bf
00000020: 91d8 ea0c 36d3 b53f
0.43638232932157844 -0.009663976285506255 -0.16767382235611267 -0.19960780385176594 0.08525407615056425

blocks1.SCINet_Tree.SCINet_Tree_odd.SCINet_Tree_even.workingblock.interact.level.P.1.bias f8 [1]
00000000: 2e9e f524 bcd2 c8bf
-0.19393111996326823

blocks1.SCINet_Tree.SCINet_Tree_odd.SCINet_Tree_even.workingblock.interact.level.P.4.weight f8 [1, 1, 3]
00000000: f503 d0bb c198 e63f 8e3d ec5b 8e5b e23f
00000010: 561f 1194 fbca e73f
0.7061470668996878 0.5736762805335489 0.743528165047773

blocks1.SCINet_Tree.SCINet_Tree_odd.SCINet_Tree_even.workingblock.interact.level.P.4.bias f8 [1]
00000000: de7e f7d6 8be3 d7bf
-0.37326332085465974

blocks1.SCINet_Tree.SCINet_Tree_odd.SCINet_Tree_even.workingblock.interact.level.U.1.weight f8 [1, 1, 5]
00000000: 7193 d4f2 8984 e0bf cb24 5afb c32e a1bf
00000010: fb1a 7185 3e4d da3f 6dc6 414a c2c1 d73f
00000020: 0524 f842 e673 d0bf
-0.5161790602474935 -0.0335599178625415 0.41096461326053174 0.37120110751775465 -0.2570739416119639

blocks1.SCINet_Tree.SCINet_Tree_odd.SCINet_Tree_even.workingblock.interact.level.U.1.bias f8 [1]
00000000: f382 1f2a 57ed 82bf
-0.00924175355243182

blocks1.SCINet_Tree.SCINet_Tree_odd.SCINet_Tree_even.workingblock.interact.level.U.4.weight f8 [1, 1, 3]
00000000: 4b95 711a 0728 da3f caf2 ba4a d6b8 a93f
00000010: 8ebc ba65 1050 d33f
0.40869309980765384 0.05023831999048907 0.30176172194018924

blocks1.SCINet_Tree.SCINet_Tree_odd.SCINet_Tree_even.workingblock.interact.level.U.4.bias f8 [1]
00000000: 0439 9de7 51f2 80bf
-0.008274688607027965

blocks1.SCINet_Tree.SCINet_Tree_even.workingblock.interact.level.phi.1.weight f8 [1, 1, 5]
00000000: 421f 598f 5484 d53f bbb6 51f4 ac32 b6bf
00000010: 5194 4ffb 1fce bd3f 2ee5 7177 ab6b ba3f
00000020: 8108 c2bc d802 cd3f
0.336201801288997 -0.08671074833702168 0.1164264668037316 0.1032054106343778 0.22664937226005935

blocks1.SCINet_Tree.SCINet_Tree_even.workingblock.interact.level.phi.1.bias f8 [1]
00000000: 2b4c 0ee0 7b3d debf
-0.4725026786847503

blocks1.SCINet_Tree.SCINet_Tree_even.workingblock.interact.level.phi.4.weight f8 [1, 1, 3]
00000000: ec1c dee3 235d d5bf 47fc 3f34 f7b8 d0bf
00000010: d690 e3ac f76b d5bf
-0.3338098263997853 -0.2612894068005897 -0.33471481212315035

blocks1.SCINet_Tree.SCINet_Tree_even.workingblock.interact.level.phi.4.bias f8 [1]
00000000: 9106 6bd9 a3f9 e03f
0.5304736372419986

blocks1.SCINet_Tree.SCINet_Tree_even.workingblock.interact.level.psi.1.weight f8 [1, 1, 5]
00000000: e7f7 4911 1f92 ce3f 10b4 b441 e7ac c33f
00000010: 4b7f 307f 6cfa d03f 92c4 fd7f e3f4 d6bf
00000020: c69c 323e 5eb0 ca3f
0.23883426994501564 0.15371409138006742 0.26528465672344187 -0.3586968183436251 0.208507328386281

blocks1.SCINet_Tree.SCINet_Tree_even.workingblock.interact.level.psi.1.bias f8 [1]
00000000: 4cbe acce 2170 d0bf
-0.25684399779399736

blocks1.SCINet_Tree.SCINet_Tree_even.workingblock.interact.level.psi.4.weight f8 [1, 1, 3]
00000000: f193 e444 c132 a6bf 925d 34fc eef5 d7bf
00000010: 0e1d 1065 0282 c8bf
-0.0433559795949704 -0.3743855917868696 -0.1914675706359294

blocks1.SCINet_Tree.SCINet_Tree_even.workingblock.interact.level.psi.4.bias f8 [1]
00000000: dae9 bb02 0e62 c63f
0.17486739285943892

blocks1.SCINet_Tree.SCINet_Tree_even.workingblock.interact.level.P.1.weight f8 [1, 1, 5]
00000000: 1f94 2bda 7642 95bf b2eb 050f 2fce 77bf
00000010: 3346 5f21 34d7 abbf 94b1 3c6d 7b03 e03f
00000020: 162e 1085 1722 cc3f
-0.02076135355573083 -0.005811866591438996 -0.05437624843001423 0.5004250653778848 0.21979040143229217

blocks1.SCINet_Tree.SCINet_Tree_even.workingblock.interact.level.P.1.bias f8 [1]
00000000: 1ed8 accd 65d3 dfbf
-0.4972776897951706

blocks1.SCINet_Tree.SCINet_Tree_even.workingblock.interact.level.P.4.weight f8 [1, 1, 3]
00000000: f149 362f 8352 de3f 40ca a54e b5fa cf3f
00000010: ee9d 2361 9bfb d33f
0.47378615961602494 0.24983850803580943 0.31223186956637405

blocks1.SCINet_Tree.SCINet_Tree_even.workingblock.interact.level.P.4.bias f8 [1]
00000000: f9c1 05e7 3115 e0bf
-0.5025872718961742

blocks1.SCINet_Tree.SCINet_Tree_even.workingblock.interact.level.U.1.weight f8 [1, 1, 5]
00000000: d8c6 efc3 41dd bc3f 6b35 ac1c 02a1 b7bf
00000010: 5e83 11bb 7f19 dc3f 855c 2907 4216 a43f
00000020: 1201 7c13 e23d cbbf
0.11275111230477408 -0.09230054092423294 0.43905633228682983 0.03923231446668133 -0.21282602263819023

blocks1.SCINet_Tree.SCINet_Tree_even.workingblock.interact.level.U.1.bias f8 [1]
00000000: fb43 5bf0 7d9a d4bf
-0.32192944023432774

blocks1.SCINet_Tree.SCINet_Tree_even.workingblock.interact.level.U.4.weight f8 [1, 1, 3]
00000000: 9849 ca9c 7e39 eabf f2d2 892c c2b2 ccbf
00000010: 2cb4 5ac8 19c0 dabf
-0.819518381338912 -0.2242052762482199 -0.41797489705897095

blocks1.SCINet_Tree.SCINet_Tree_even.workingblock.interact.level.U.4.bias f8 [1]
00000000: 7924 390a 6e94 d0bf
-0.25905943868981

blocks1.SCINet_Tree.SCINet_Tree_even.SCINet_Tree_odd.workingblock.interact.level.phi.1.weight f8 [1, 1, 5]
00000000: 1608 83b3 2ffc e5bf bbc4 afe6 46f3 bbbf
00000010: 4f28 d7eb 4f73 b03f e999 1933 c4c0 c3bf
00000020: 66cc 2127 6fe1 e13f
-0.6870344644632975 -0.10918086177823032 0.06425952442001058 -0.15432026381604594 0.5587688221261373

blocks1.SCINet_Tree.SCINet_Tree_even.SCINet_Tree_odd.workingblock.interact.level.phi.1.bias f8 [1]
00000000: 862a b500 890a c1bf
-0.1331340077834577

blocks1.SCINet_Tree.SCINet_Tree_even.SCINet_Tree_odd.workingblock.interact.level.phi.4.weight f8 [1, 1, 3]
00000000: 5514 e153 313f c0bf 1caa f145 6fdb e1bf
00000010: d39b fd99 b61e c0bf
-0.12692848773636692 -0.5580364576429164 -0.12593729514193672

blocks1.SCINet_Tree.SCINet_Tree_even.SCINet_Tree_odd.workingblock.interact.level.phi.4.bias f8 [1]
00000000: bd91 8209 52c8 b0bf
-0.06555664760759945

blocks1.SCINet_Tree.SCINet_Tree_even.SCINet_Tree_odd.workingblock.interact.level.psi.1.weight f8 [1, 1, 5]
00000000: 589f 44fc 0ce8 debf 6dc4 8395 7947 dfbf
00000010: 4fcd 3fdc 94a7 c5bf 1918 b5a1 25a7 c13f
00000020: fc73 1c82 5aff 983f
-0.482913252215885 -0.4887374839882515 -0.16917668108326686 0.13791342159146394 0.024411596480707218

blocks1.SCINet_Tree.SCINet_Tree_even.SCINet_Tree_odd.workingblock.interact.level.psi.1.bias f8 [1]
00000000: cd72 9902 ac9e d2bf
-0.2909345651039928

blocks1.SCINet_Tree.SCINet_Tree_even.SCINet_Tree_odd.workingblock.interact.level.psi.4.weight f8 [1, 1, 3]
00000000: 4c47 afe2 3027 b0bf 9133 5a2e 3fd8 cabf
00000010: f6fe b0a0 f2d8 db3f
-0.06309800657552705 -0.20972432864473636 0.435116440701662

blocks1.SCINet_Tree.SCINet_Tree_even.SCINet_Tree_odd.workingblock.interact.level.psi.4.bias f8 [1]
00000000: 78ed bd3e 72dd d6bf
-0.35726600768221983

blocks1.SCINet_Tree.SCINet_Tree_even.SCINet_Tree_odd.workingblock.interact.level.P.1.weight f8 [1, 1, 5]
00000000: 1670 aed3 f68c da3f 8ffa fca4 efe6 c6bf
00000010: 39e8 688f 900c a83f 1a40 117d 274d c43f
00000020: 4fef 8657 8692 d8bf
0.4148537699891234 -0.1789226108175694 0.046970860963896084 0.15860456091695668 -0.38394316241805354

blocks1.SCINet_Tree.SCINet_Tree_even.SCINet_Tree_odd.workingblock.interact.level.P.1.bias f8 [1]
00000000: 93db a751 8767 bfbf
-0.12267347091243001

blocks1.SCINet_Tree.SCINet_Tree_even.SCINet_Tree_odd.workingblock.interact.level.P.4.weight f8 [1, 1, 3]
00000000: 0dda 90a1 68e8 ea3f 2c88 b5a0 8af7 bb3f
00000010: 3cf7 f548 1df7 cd3f
0.8408702045042574 0.10924593375742181 0.23410383284129377

blocks1.SCINet_Tree.SCINet_Tree_even.SCINet_Tree_odd.workingblock.interact.level.P.4.bias f8 [1]
00000000: eea1 6dd8 39c3 dc3f
0.44941564689227576

blocks1.SCINet_Tree.SCINet_Tree_even.SCINet_Tree_odd.workingblock.interact.level.U.1.weight f8 [1, 1, 5]
00000000: fceb f356 cea6 c9bf 0235 c31c 0828 cdbf
00000010: c681 cda0 a243 d1bf 17cc 48e8 5924 ccbf
00000020: 1e18 b80c b63d bfbf
-0.20040301557295936 -0.22778417019291203 -0.26975312903780624 -0.21985935060510606 -0.12203538713956205

blocks1.SCINet_Tree.SCINet_Tree_even.SCINet_Tree_odd.workingblock.interact.level.U.1.bias f8 [1]
00000000: 154c 8f64 026a a33f
0.03791816213165348

blocks1.SCINet_Tree.SCINet_Tree_even.SCINet_Tree_odd.workingblock.interact.level.U.4.weight f8 [1, 1, 3]
00000000: c68c fc4d d84e a9bf dc83 0f5e 5669 d53f
00000010: 357b 00df 4323 c23f
-0.04942966415389942 0.33455428300481826 0.1417012061001174

blocks1.SCINet_Tree.SCINet_Tree_even.SCINet_Tree_odd.workingblock.interact.level.U.4.bias f8 [1]
00000000: f4c4 9c95 070e dcbf
-0.4383563004549409

blocks1.SCINet_Tree.SCINet_Tree_even.SCINet_Tree_even.workingblock.interact.level.phi.1.weight f8 [1, 1, 5]
00000000: a2e9 6993 7257 d3bf 2665 5e11 2b98 c03f
00000010: 2305 43ad 135d d13f 20fd b8a0 09a9 c83f
00000020: 9249 48cc 511e c33f
-0.30221237560149394 0.12964380596239627 0.2713059608468759 0.19265861842902954 0.1493627784225962

blocks1.SCINet_Tree.SCINet_Tree_even.SCINet_Tree_even.workingblock.interact.level.phi.1.bias f8 [1]
00000000: 6a37 420b 24c8 c8bf
-0.19360781240214503

blocks1.SCINet_Tree.SCINet_Tree_even.SCINet_Tree_even.workingblock.interact.level.phi.4.weight f8 [1, 1, 3]
00000000: aa1a 5424 c156 e7bf 9cb1 41cc 4d7d cebf
00000010: 55b4 f356 8a61 bebf
-0.7293401441136969 -0.23819897149531932 -0.11867584822512474

blocks1.SCINet_Tree.SCINet_Tree_even.SCINet_Tree_even.workingblock.interact.level.phi.4.bias f8 [1]
00000000: f838 ff92 2dfc cc3f
0.22644586255632482

blocks1.SCINet_Tree.SCINet_Tree_even.SCINet_Tree_even.workingblock.interact.level.psi.1.weight f8 [1, 1, 5]
00000000: 6567 157a b7fd c4bf a1db 1403 60d2 a53f
00000010: 3ec1 a84e 177e cbbf f214 8dee 6e3d 99bf
00000020: 15f5 6bc2 8c08 d5bf
-0.16399281941522328 0.04262065923324277 -0.21478549328595337 -0.024648412046436037 -0.32864684092040025

blocks1.SCINet_Tree.SCINet_Tree_even.SCINet_Tree_even.workingblock.interact.level.psi.1.bias f8 [1]
00000000: b5b4 d3e3 9322 e1bf
-0.5354709100480678

blocks1.SCINet_Tree.SCINet_Tree_even.SCINet_Tree_even.workingblock.interact.level.psi.4.weight f8 [1, 1, 3]
00000000: 1aaf f550 1a84 d63f a75f e185 5580 c4bf
00000010: 862d 64d1 fe3a dc3f
0.35181291490765576 -0.1601664451325153 0.4411007923924547

blocks1.SCINet_Tree.SCINet_Tree_even.SCINet_Tree_even.workingblock.interact.level.psi.4.bias f8 [1]
00000000: b1d2 2748 ea35 e0bf
-0.5065814408577208

blocks1.SCINet_Tree.SCINet_Tree_even.SCINet_Tree_even.workingblock.interact.level.P.1.weight f8 [1, 1, 5]
00000000: 7e3c 6107 d26f 8bbf ec23 3eec 357a d83f
00000010: c4f4 09b6 05da c7bf 037b 9cf1 a855 ca3f
00000020: 70b1 5c6d e5f2 d73f
-0.013396874284948842 0.38245914526538516 -0.1863410128461621 0.20573913381027617 0.3742002075184905

blocks1.SCINet_Tree.SCINet_Tree_even.SCINet_Tree_even.workingblock.interact.level.P.1.bias f8 [1]
00000000: e71c 45d1 f2c0 c03f
0.13088832109699597

blocks1.SCINet_Tree.SCINet_Tree_even.SCINet_Tree_even.workingblock.interact.level.P.4.weight f8 [1, 1, 3]
00000000: 7663 9d1c a66d b5bf 97a9 8edf f2d4 85bf
00000010: a42e 1d85 6d2c b3bf
-0.08370435904124726 -0.010660073707033741 -0.07489666461804717

blocks1.SCINet_Tree.SCINet_Tree_even.SCINet_Tree_even.workingblock.interact.level.P.4.bias f8 [1]
00000000: 6512 a483 28cc c43f
0.16248041560915563

blocks1.SCINet_Tree.SCINet_Tree_even.SCINet_Tree_even.workingblock.interact.level.U.1.weight f8 [1, 1, 5]
00000000: 93ee 69b1 b22c b5bf ca87 9102 7002 c23f
00000010: 594a ed1a b9a3 d0bf a33f 4404 f84e 94bf
00000020: 17fc 4ff8 aac0 cdbf
-0.08271328765288848 0.14069938779272056 -0.25999286298352825 -0.0198324921230434 -0.23244225620871425

blocks1.SCINet_Tree.SCINet_Tree_even.SCINet_Tree_even.workingblock.interact.level.U.1.bias f8 [1]
00000000: 8e67 3ff7 959b d4bf
-0.32199620385437633

blocks1.SCINet_Tree.SCINet_Tree_even.SCINet_Tree_even.workingblock.interact.level.U.4.weight f8 [1, 1, 3]
00000000: fea9 151f 26f2 d0bf bbcd 1a0a 3f0f d33f
00000010: 23a5 9d99 054c c13f
-0.26477959666831896 0.2978055571249702 0.13513250351687942

blocks1.SCINet_Tree.SCINet_Tree_even.SCINet_Tree_even.workingblock.interact.level.U.4.bias f8 [1]
00000000: a8a3 60ee 1270 d73f
0.36621545104076825

projection1.weight f8 [48, 96, 1]
00000000: 40c7 140f cbdf 6a3f 2cfc 9f4d 1e88 8fbf
00000010: 428d 01e7 e369 953f 234f b8ca 6dc7 81bf
00000020: 5395 757b f62a 823f 2c4b 15a0 92d2 14bf
00000030: 94e8 fe9d 4810 86bf f538 f480 dc22 8a3f
00000040: 9fd8 44a8 055f 85bf b74c 25de ff21 863f
00000050: e661 a929 46f7 61bf c9ee 0f73 d48a 70bf
00000060: 7fdb 7787 0084 733f c6a3 4023 dc4d 2ebf
00000070: 1dcc c584 8a74 6e3f 3bee 4729 7a88 713f
00000080: eda4 2504 8c32 83bf 3b1b df67 2d8e 853f
00000090: b4cc 149e 6e56 7bbf e9f2 9669 3b32 74bf
000000a0: 128f 3cb5 4aa2 923f adda 753e af0c 6ebf
000000b0: 2c0e 3343 dd45 96bf 602d d93d 7844 883f
000000c0: 1c40 fc8d 295e 6abf b041 231d 99ab 89bf
000000d0: 5cc6 cd05 5ce7 443f 2b4b d524 4b07 70bf
000000e0: f3f6 63fe 7e04 8d3f 6d23 5f0b 8f83 82bf
000000f0: a50b 9e0a 2254 63bf 1b78 13ad 203c 633f
00000100: 98dd bdfc 21a8 68bf de4c 264a d04b 703f
00000110: aecc f35d 653d 583f 80aa 04f2 553b 7a3f
00000120: d4d3 e230 4634 81bf 7705 9492 7f4f 79bf
00000130: 471a c782 cc83 8e3f 2886 5605 f080 503f
00000140: 8c52 6ef5 6057 6d3f 57af 158b f791 6cbf
00000150: dbd9 2d7a 105f 77bf c230 cd42 5729 653f
00000160: 4a65 c695 70ef 50bf 9a2c a7b5 ba07 7a3f
00000170: 3ea9 7e81 d67b 79bf e166 dd9a 1450 503f
00000180: 6494 f313 2546 723f a178 433f 8d71 51bf
00000190: 5486 677e f092 653f 745c c385 b3fb 513f
000001a0: 52e0 22ae fa49 7ebf ceda 844d f782 3a3f
000001b0: 7d7d 0018 70d0 743f aa31 24f0 41f3 6dbf
000001c0: affd e462 d0f5 783f 0b24 379a ce05 81bf
000001d0: 40dd b7cd 71a6 3bbf 994d 9062 ec96 733f
000001e0: 9425 4108 1f1d 49bf 6877 fbc0 4905 743f
000001f0: b2c4 8709 e1fd 323f ac8f cade c230 71bf
00000200: 465b f96c c193 6b3f dc3b a50d 7473 683f
00000210: 57e8 329d 4a34 62bf 7bff e06f d054 813f
00000220: b1e7 750a dcbf 633f 2ddd 8c5a a20e 53bf
00000230: 867f 5529 3e7a 8bbf 9456 ecc5 2181 613f
00000240: bfbd dd91 e726 9bbf 1277 815d 79e7 a23f
00000250: cf01 987c 1fb7 93bf 03cc 5a72 d224 903f
00000260: d6c8 a8af f059 9fbf ac70 36b0 8a5c 7b3f
00000270: 592c 4cd4 f3d1 a03f ec29 2fc5 bbfe 52bf
00000280: 4fc1 9930 27b5 a1bf 1672 64e4 0272 80bf
00000290: 0d24 d89b 7fa3 88bf a46f fa39 a907 883f
000002a0: 341c 1671 9b4d 5f3f 0ed0 6e5a 83c8 7a3f
000002b0: ee1e 5b82 40d2 95bf 937e e67d ea52 893f
000002c0: bf8f 2571 5373 79bf e66b 89a2 848e 80bf
000002d0: 15ba 41da cd3f a13f 2a7c 679e 3236 923f
000002e0: 01f4 6b8e 4215 9b3f 8727 eed7 8834 bf3f
000002f0: c8bb 9d9c 75a0 d03f 5f35 0570 d011 c83f
00000300: 2c53 72d7 4f0b 743f b2b6 fc97 992f 80bf
00000310: 315b a5fb 82ef 703f a91e 6e5f d001 713f
00000320: 73d6 5b3a e87a 80bf f26f 6422 3ad5 863f
00000330: 78af 1700 896f 6cbf 4040 c821 7aee 57bf
00000340: 0a22 40f8 729c 693f a116 5c85 5286 84bf
00000350: 0c83 460e 2a71 783f 1317 0874 7f97 65bf
00000360: bb54 7b8c 03ed 6f3f 327b 948a 9bba 663f
00000370: df10 a89f 9ae2 423f bd39 956d d7cb 49bf
00000380: 0554 ea81 b775 793f b76f 2082 2306 82bf
00000390: b104 2788 272f 773f a38f bf02 fd0a 81bf
000003a0: 6f02 eb3e fb60 933f 8124 69fb d025 743f
000003b0: 5182 1c05 748c 84bf 502a 577e db51 6cbf
000003c0: 4834 bd04 0d02 823f b1e2 3404 b1d3 6bbf
000003d0: 9a2f bf60 4fa0 6fbf a6d4 3822 f170 83bf
000003e0: 08e7 c011 b385 843f adba d1ea df61 45bf
000003f0: 5f28 c0fb 2f86 75bf 6de0 511c 329a 533f
00000400: fee9 3ef7 4ef0 6e3f 9437 6367 d597 6cbf
00000410: 3e7b e5ad 8f7d 3fbf 4072 3a85 c5d8 713f
00000420: 2629 df13 2026 75bf ef19 8cb6 6413 7d3f
00000430: 4c62 a009 aa5a 5c3f ac0a 4f77 eeeb 67bf
00000440: 5d22 b8be dda3 813f 9c8b 7dfa 20f5 893f
00000450: d116 6f61 b71a 98bf 391e 3b99 6fae 713f
00000460: 6771 469f c84b 47bf 194b 360c b50a 65bf
00000470: d5b6 18d6 0e85 723f fca0 4f25 7f3c 7dbf
00000480: cc03 2e8c 90bd 783f 68ac 6472 032d 563f
00000490: 25fd 07a4 3b14 6ebf 5cdd c268 9ecb 6abf
000004a0: ee5c 6c04 4acc 723f 5aaa a284 8371 37bf
000004b0: 26f1 24bc 65f9 69bf 6f9e db60 8f74 5e3f
000004c0: 40d4 de09 edd5 76bf aaf5 f88c cf73 663f
000004d0: 4b34 9b3c 7916 5ebf 1ca6 2bc1 4721 5b3f
000004e0: c199 dd51 a7a3 64bf 35dd 9ffb 2bb3 673f
000004f0: f8bc 8cc4 70d8 6a3f e8a5 7de8 f6c5 62bf
00000500: 4e10 1354 3efc 773f c957 bb97 f442 87bf
00000510: 9abd 2dee 4bc2 783f 2713 b33f 2581 623f
00000520: 9a58 b7eb a63b 76bf 74c7 526d 558f 603f
00000530: 788f a4b0 9a88 93bf 3070 b800 2cdf 7a3f
00000540: 3f18 7c97 ff31 82bf c4c4 9c5f e478 85bf
00000550: 92bf a53c 3ac9 973f 3cb6 5a08 a33f 85bf
00000560: 1120 b4af 5ad3 953f 673e 54e3 117d 9b3f
00000570: 82c2 09d7 7b8c 94bf cf15 bc03 235a 4b3f
00000580: 94bd deda 45a7 5b3f 95f5 81b7 ef82 86bf
00000590: 1408 d555 ad00 873f 71fd 1df4 6d42 74bf
000005a0: a0ec 6275 f27a 593f 06d8 3728 63a1 483f
000005b0: 8849 c1dd 0781 75bf 5a56 99ab aea1 97bf
000005c0: 627c 1e40 0857 883f bb20 e1f3 261f 74bf
000005d0: cc3a 4e18 8d35 a63f 5e55 b474 7500 79bf
000005e0: 0ed1 7b35 099b a93f 147a 1247 af20 b53f
000005f0: d6bc 9550 e6e1 c53f d97c 412b ec25 d23f
00000600: e9ac 990b 67c1 65bf 60c2 4f0c e552 7f3f
00000610: 8761 4a89 e33e 90bf 6197 5eb0 1af8 713f
00000620: 9b14 f5c7 c10d 693f f69f 326b d47d 563f
00000630: 93ce ac71 fad3 51bf 201c 81df 5f56 79bf
00000640: c225 f70a 0f41 843f e696 5c70 6b8d 8bbf
00000650: d8da e4cf 7fcc 703f 85d3 f90d 3776 493f
00000660: afe4 20af f8a0 6ebf 77aa 39fd 76da 31bf
00000670: 98bc 5105 42c1 653f 505e ce33 9c24 46bf
00000680: c406 e921 776f 723f e7fb 433f 0ecd 62bf
00000690: ee8d 46b6 02d0 7ebf 6838 4ecc 91ad 4f3f
000006a0: 39db 4663 9b48 8e3f f2d8 1bac 911f 6cbf
000006b0: 6373 4dd4 1a59 34bf 18d6 e303 b176 6c3f
000006c0: 4682 3c1c 7530 5d3f 33d5 d76d c2d1 72bf
000006d0: 5a79 4229 f298 803f 3799 4cc4 2f6a 583f
000006e0: e830 d556 856a 4abf 2385 3a8d 9d97 803f
000006f0: fa31 266d f04c 91bf 077e 576a 587c 733f
00000700: 1f4e ece1 359f 83bf 3238 d40d cd23 8e3f
00000710: badd 12f5 66b4 81bf 2f71 396a 3a25 33bf
00000720: 0c6a 4cb7 9130 923f 0c30 d05b a359 85bf
00000730: 4f9b bc70 0820 853f 6e4a 96ec 9071 6e3f
00000740: a414 afde 687d 42bf 2838 deb7 129d 6e3f
00000750: 4a7d 07e8 9934 73bf 8af4 c8db f3bb 553f
00000760: 7845 ee46 ec69 473f 3363 98a3 dcd3 6c3f
00000770: 7078 2db4 8816 463f c201 420e f546 5e3f
00000780: d946 143e 1162 76bf 0479 efb8 bf0f 6c3f
00000790: 6853 db81 ac9e 73bf c2a2 86e8 2a30 75bf
000007a0: 3fd6 915b 4863 893f 4033 7cbb 5f05 7cbf
000007b0: e924 bb1e 7edf 4bbf 792a 85dc 9ba5 713f
000007c0: 2fe1 afc8 9133 81bf 74a1 0a72 5464 74bf
000007d0: 2e01 2216 6bd1 7ebf adb8 4ca0 4215 663f
000007e0: 6828 f128 3b72 60bf 5897 32ab e949 7f3f
000007f0: 5986 6888 f9b9 4a3f e5c4 2482 0619 743f
0.0032805410379745104 -0.015396343940663547 0.020911751722804135 -0.008681161641142026 0.008871007578543788 -7.9431723880402e-05 -0.010773246118209102 0.012761805234302129
-0.010435146520290593 0.01080703636822587 -0.002193104778865018 -0.00403864849158326 0.004764558856087286 -0.000231202242163135 0.0037176804964302993 0.004280545418164967
-0.009373754383619171 0.010525088055045031 -0.006674224948528696 -0.0049307175444794705 0.018197219192315713 -0.003668157838258543 -0.02175088617947389 0.011849345576726733
-0.003218728219401624 -0.01253432865306156 0.000637931759781728 -0.0039132056529805155 0.014168731821424063 -0.009039990934881914 -0.0023594536659756354 0.002348007030930977
-0.0030098594488056733 0.003978551513131394 0.0014794816887018602 0.0064042432061720556 -0.008400486342319193 -0.006179331140857661 0.01489982389547352 0.0010073036149623824
0.003581704494943166 -0.003487571223265744 -0.0057058948176433545 0.0025831894221593774 -0.0010336493934118445 0.0063550275176097685 -0.006221616662438754 0.0009956551761746634
0.00446142657822177 -0.0010646705023229857 0.0026335427421464806 0.0010976079129727786 -0.007394770831688007 0.00040453469911787005 0.005081594339599757 -0.003656033311136582
0.006093801507005932 -0.008311857301025702 -0.00042190817268257866 0.004782603625261749 -0.0007664109730366902 0.0048878556260357545 0.0002897905738157943 -0.0041968929405448545
0.0033663537831602223 0.002984739939314347 -0.0022222001367398314 0.008462551512024899 0.0024108216927602667 -0.0011631570325343996 -0.013416753422177196 0.0021367702132789133
-0.026515596654858472 0.03692225710322651 -0.019253246287918743 0.015765465001731382 -0.030616532060044964 0.006680051566402206 0.03285181013605926 -0.0011593660062653123
-0.03458521335858455 -0.008029959292394511 -0.012030598586550334 0.011733362275940191 0.0019105928407456953 0.0065388804422816926 -0.02130986018781205 0.012365180937933295
-0.0062134990169830364 -0.008084331712941716 0.03368991173998751 0.017784872930743635 0.02644828790925047 0.12189536353812801 0.2597936658339077 0.1880436465238899
0.004893600350574439 -0.007903289747982132 0.004134666111290029 0.004152120548390017 -0.008046926766364515 0.011148885893412317 -0.0034711528576191718 -0.0014606659598293131
0.0031263585569869566 -0.010021824545684512 0.005967296867681392 -0.002635716373563643 0.0038971967040689315 0.0027745283047261532 0.0005763297079402172 -0.000787239255410736
0.00621577913866123 -0.008800771149303317 0.00566020433547114 -0.008321739813204781 0.018924642291269608 0.004918876968596498 -0.010033518224703249 -0.0034570013983501804
0.008792974192738737 -0.0033968407966792004 -0.0038606214857050515 -0.009492763382789992 0.010020636538786501 -0.0006525367113122314 -0.005254924235496088 0.0011964310990873154
0.003776697378240045 -0.003490368656549012 -0.0004805064944743315 0.004357120098259559 -0.005163312247484597 0.0070985731224539736 0.0017306004069778278 -0.0029201180973087073
0.008613331206121783 0.012674577373848632 -0.023539414712806576 0.004316745693081319 -0.0007109384155686128 -0.0025685821617086432 0.0045214252036609075 -0.007137772238799519
0.006040157927487532 0.001353505483687534 -0.0036717572077119725 -0.003270921128286792 0.004589356546396346 -0.00035771809474264215 -0.0031706797609826363 0.0018588447741708888
-0.005575109416828872 0.0027407697414491743 -0.0018364128067560766 0.0016558838585133467 -0.0025194423641778656 0.002893052963368748 0.0032770349975163003 -0.002291662447466026
0.005855792494177404 -0.011358176117408096 0.006044670680111075 0.0022588469997536667 -0.005427982362979611 0.0020214718338928354 -0.019075791388913882 0.006560489545815826
-0.008884426889846362 -0.01048448960100002 0.023228559447886328 -0.010375283901647873 0.021314064954850723 0.02684429121023726 -0.02006715297688056 0.00083471975037302
0.0016878301789623228 -0.010991928851803926 0.01123176019848774 -0.004946164613897395 0.001555191780012767 0.0007516607442414897 -0.005250006415808868 -0.02307770655018824
0.011884750801810454 -0.004912521513752373 0.043377312867155376 -0.006103953182237857 0.050010955599562576 0.082529978610616 0.17095641073999585 0.2835646078510315
-0.002655698070886826 0.007647413939580433 -0.015864901785421572 0.0043870012795304844 0.003058317640951614 0.0013727735902566685 -0.001088137220631423 -0.006185888771205433
0.009889714738977488 -0.013453330389505646 0.0041012756976701245 0.0007770317860847786 -0.0037388665305369754 -0.0002724209309465162 0.002655629107315937 -0.0006757509905694434
0.004500832902125832 -0.002295043779781281 -0.0075225931108522225 0.000966736021483572 0.014786924330889671 -0.003433022037707117 -0.0003104868413197818 0.0034745652511627527
0.0017815726905113945 -0.0045945734868742425 0.008104221233506227 0.0014901606056781488 -0.0008061553068414969 0.00810168349500146 -0.01689506212419365 0.004757256863257015
-0.009581013638615464 0.014716722473647168 -0.008644871095710428 -0.0002921359648320352 0.017763401806499643 -0.010424877395074382 0.010315004291965883 0.003716261916175959
-0.0005642664012773979 0.0037370076742666743 -0.004688836285338846 0.001326549666500728 0.0007145312973639148 0.0035189923626258945 0.0006740729807963707 0.0018479722139376075
-0.00546461806631423 0.003425478418178975 -0.004789995056587816 -0.005172889338077526 0.012396397871479723 -0.0068410625024284966 -0.0008506170101664465 0.004308327516194249
-0.008399142205221281 -0.004978494515548316 -0.007523935610265915 0.002695684556235886 -0.0020075946299913834 0.007638848083990478 0.0008156269476026864 0.004906678603491009
