exp/data_checkpoints/data_train_pred/checkpoint.pth (torch, 74169 bytes, 114 tensors)

inv_timescales f8 [1]
00000000: 0000 0000 0000 f03f
1.0

blocks1.SCINet_Tree.workingblock.interact.level.phi.1.weight f8 [2, 1, 5]
00000000: f2e0 7746 2ca2 c93f e8cd 23ce cc2c 933f
00000010: c8e7 0a2e 1f61 a83f 9779 e897 cb77 cbbf
00000020: 6b2b 3357 8ab3 c6bf c51b 1d26 35b9 de3f
00000030: 4a7d d494 7445 d63f a804 7326 2988 7e3f
00000040: d11d 1936 bf4d cfbf 641d 660b 7af1 c8bf
0.20026162567933842 0.018725586015490153 0.04761598050158927 -0.21459336202037768 -0.17735413797194197 0.48005417558709623 0.3479892209451988 0.007454071753444293
-0.2445601476813253 -0.1948692851694701

blocks1.SCINet_Tree.workingblock.interact.level.phi.1.bias f8 [2]
00000000: 8ed9 daf9 3f66 c1bf e2be 5e8a b247 cb3f
-0.13593291950173775 0.213125531734014

blocks1.SCINet_Tree.workingblock.interact.level.phi.4.weight f8 [1, 2, 3]
00000000: 3570 4d32 37b7 d0bf 648e c547 caa6 d0bf
00000010: 58f0 8670 46b0 c43f ad2b a6ee 562a c9bf
00000020: 3b8d 35f5 d51f c9bf 04f0 02c1 66b3 d7bf
-0.26118259346344824 -0.26018006333308663 0.16162949079978506 -0.19660460140980032 -0.19628405068497465 -0.37032479141976204

blocks1.SCINet_Tree.workingblock.interact.level.phi.4.bias f8 [1]
00000000: c95d 0d3f 4153 ddbf
-0.4582064738983403

blocks1.SCINet_Tree.workingblock.interact.level.psi.1.weight f8 [2, 1, 5]
00000000: cc35 77c2 6965 bb3f 978b 676c b17d da3f
00000010: ed6c c628 ea39 cebf 561f 3ed5 1838 d0bf
00000020: 8628 fdf3 6e45 b13f c48d 36d2 225b a6bf
00000030: 0afc 2f87 af04 cb3f f0de 0682 f898 bdbf
00000040: aeae 8f8c 07de 82bf cb6f 344d e60b cd3f
0.10701619146057978 0.41392169557928454 -0.23614241591426524 -0.2534238893936068 0.06746571976433033 -0.0436640626533307 0.21108049488972852 -0.11561539816363697
-0.009212550141419609 0.2269256474472726

blocks1.SCINet_Tree.workingblock.interact.level.psi.1.bias f8 [2]
00000000: 8848 25da f0b8 833f 40cc 102c b6cd d0bf
0.009630090386654425 -0.26255564025195

blocks1.SCINet_Tree.workingblock.interact.level.psi.4.weight f8 [1, 2, 3]
00000000: 46ec caad 449c b1bf 8993 994b 8aa5 993f
00000010: 203c 01b2 2d65 d4bf cf11 c468 cc9c b4bf
00000020: 88a3 b1e2 d108 cb3f f73f 931c c1f1 d23f
-0.06879071467385342 0.025045548309566654 -0.31867544539722026 -0.08051755483399535 0.21120666092909013 0.29600551405474057

blocks1.SCINet_Tree.workingblock.interact.level.psi.4.bias f8 [1]
00000000: 9ebe 05c4 6e4c b1bf
-0.06757252011970613

blocks1.SCINet_Tree.workingblock.interact.level.P.1.weight f8 [2, 1, 5]
00000000: 09a5 c179 6472 ccbf 2768 5a36 32e5 c23f
00000010: f2a6 e24c 1aca cf3f 6513 140d 9e19 d4bf
00000020: c14f 29cd 1dab c53f 01eb 80e3 5d70 c13f
00000030: 7ec5 a5ea 0fc9 cbbf f77c 2d3c 7dfe d63f
00000040: 9e26 25b6 10de b9bf 1f70 bf30 7fd1 cbbf
-0.22224098153245844 0.14761951116526115 0.24835518602531398 -0.3140635612219767 0.16928455846448112 0.1362416611535409 -0.217073430608746 0.3592827880547271
-0.10104469725515705 -0.21733083610786338

blocks1.SCINet_Tree.workingblock.interact.level.P.1.bias f8 [2]
00000000: 1484 3c7d 99e7 a4bf d898 69c9 7a1f d5bf
-0.040829464471478755 -0.3300463644903977

blocks1.SCINet_Tree.workingblock.interact.level.P.4.weight f8 [1, 2, 3]
00000000: 7da1 5f79 7fa2 d43f 4f40 d5e5 d00a c8bf
00000010: 0cdc c41f e6fb d43f d1b1 9559 97f5 a3bf
00000020: ea35 8a2a eb8a d33f 3435 bbfd f9b7 d0bf
0.3224180875099803 -0.18783007833781304 0.3278746900791141 -0.038983087239873655 0.30535391954694424 -0.26122903612561577

blocks1.SCINet_Tree.workingblock.interact.level.P.4.bias f8 [1]
00000000: c4c2 acba d719 b7bf
-0.09023807818881396

blocks1.SCINet_Tree.workingblock.interact.level.U.1.weight f8 [2, 1, 5]
00000000: c2a7 3443 2eef 5ebf ccf6 25fc 14fb 73bf
00000010: c481 1ebd 1bc2 d5bf 6dc8 36a7 4d0d ce3f
00000020: a331 04c3 a7fa d93f 956b 2452 38e5 d13f
00000030: 7485 a7d1 1278 c23f 55e2 5933 e70e c93f
00000040: 38db ed84 384e cebf 596c 47ad fa5c b53f
-0.0018880798132365627 -0.004878122303464582 -0.3399724337450858 0.23478098549600493 0.4059237865883693 0.2796154787226269 0.14428935277014043 0.19576730735186013
-0.2367621087139129 0.08345000009960425

blocks1.SCINet_Tree.workingblock.interact.level.U.1.bias f8 [2]
00000000: 423d 3b5a 0d48 d3bf d05f 278a b1a0 d1bf
-0.3012727147260713 -0.275432953754259

blocks1.SCINet_Tree.workingblock.interact.level.U.4.weight f8 [1, 2, 3]
00000000: 348d 66ea 0e44 c6bf 9c15 fffb 3654 d5bf
00000010: 5259 d575 efb7 c8bf e397 eb45 cfe5 ae3f
00000020: d35c 707b a497 ac3f 30ac 4620 6eaa d6bf
-0.17395197339383517 -0.3332650624182294 -0.19311326268752765 0.06034705856818314 0.05584444052527151 -0.354152232665629

blocks1.SCINet_Tree.workingblock.interact.level.U.4.bias f8 [1]
00000000: 3d11 5430 78cf c53f
0.17039396629128048

blocks1.SCINet_Tree.SCINet_Tree_odd.workingblock.interact.level.phi.1.weight f8 [2, 1, 5]
00000000: f6f6 e1b8 7632 9b3f fdb1 c5d7 70f9 c7bf
00000010: 8025 93d0 74c5 d6bf 24d7 a123 42fc ab3f
00000020: 6cae d3f2 fcdc d93f e4d8 fb9a ca99 763f
00000030: e906 8876 5ab4 d43f 8c75 6ab2 f08a babf
00000040: ba70 ff54 79d0 cdbf 4cba 4cbf 2f73 cdbf
0.026559691461890154 -0.18729982887033705 -0.3558017765868371 0.05465895352328534 0.40411304200708886 0.005517760684361248 0.32350789618804626 -0.10368255954604971
-0.23292462015422705 -0.23007771340185668

blocks1.SCINet_Tree.SCINet_Tree_odd.workingblock.interact.level.phi.1.bias f8 [2]
00000000: b402 fbcc 81a6 9fbf 6dc6 4e57 61f8 c4bf
-0.030908611427323776 -0.1638299633319095

blocks1.SCINet_Tree.SCINet_Tree_odd.workingblock.interact.level.phi.4.weight f8 [1, 2, 3]
00000000: b46b f84f ee61 d03f e01e 5ce2 9fc9 c03f
00000010: b3cc 6c85 d781 d03f 6b77 497c afbc d2bf
00000020: 8214 7567 e777 d9bf a7d6 b82d d1ba 93bf
0.25597722825630886 0.1311530928871809 0.2579249194124699 -0.2927664483776115 -0.3979433546376826 -0.01926733819546791

blocks1.SCINet_Tree.SCINet_Tree_odd.workingblock.interact.level.phi.4.bias f8 [1]
00000000: 612b fddc 3006 d53f
0.3285028608412884

blocks1.SCINet_Tree.SCINet_Tree_odd.workingblock.interact.level.psi.1.weight f8 [2, 1, 5]
00000000: 45d7 d13c 9fc2 de3f 7485 3db6 4abe c3bf
00000010: 016c d1f4 9e42 d03f ec2f a7cc 9174 dc3f
00000020: 5a1b 0bb0 f8ef b5bf 2c8e 2877 a589 cd3f
00000030: 2015 cede 15f5 c3bf 5e4d 93dd aa42 9d3f
00000040: 3f55 6429 e99c 953f 80b4 bd17 b556 7a3f
0.48062878550932836 -0.15424474619343764 0.25406621845257865 0.4446148394169984 -0.0856929235261367 0.23076313322336384 -0.15591691378737327 0.028574628614319912
0.021106379653322845 0.006430346864232495

blocks1.SCINet_Tree.SCINet_Tree_odd.workingblock.interact.level.psi.1.bias f8 [2]
00000000: 9d35 95d8 90bf d7bf 2e30 daa6 f0fb d9bf
-0.3710672488276375 -0.4060022000710458

blocks1.SCINet_Tree.SCINet_Tree_odd.workingblock.interact.level.psi.4.weight f8 [1, 2, 3]
00000000: d705 d01e 4063 d3bf 13ea a8bd b9cc c3bf
00000010: cc3f e041 6ca7 c9bf f39b 816b a18f 7fbf
00000020: 387b 70c8 7d5e d23f e1de 7b12 9bf6 de3f
-0.3029327679542723 -0.1546852279733036 -0.2004218408260371 -0.007705336138406504 0.2870172936836073 0.4838016205317058

blocks1.SCINet_Tree.SCINet_Tree_odd.workingblock.interact.level.psi.4.bias f8 [1]
00000000: 811f f2c6 3685 b4bf
-0.08015768391680746

blocks1.SCINet_Tree.SCINet_Tree_odd.workingblock.interact.level.P.1.weight f8 [2, 1, 5]
00000000: cbdf 5a6a f30d aebf 5074 a458 76c5 bebf
00000010: 3580 9abc f2e9 d63f 58e0 a850 5f88 cdbf
00000020: ee3d e78e 8c11 aabf 09db 01db 139e bd3f
00000030: 23f0 fe2c cd1d c53f 4bd7 3ca6 3d7e c2bf
00000040: 4f1f 8615 77e9 c7bf 3ab2 0961 3420 b2bf
-0.05870018647459537 -0.120200535432063 0.3580290643531073 -0.2307242530675946 -0.050915138668297874 0.11569332215172436 0.16497196862280913 -0.1444775640208554
-0.18681229163143562 -0.0708039032849194

blocks1.SCINet_Tree.SCINet_Tree_odd.workingblock.interact.level.P.1.bias f8 [2]
00000000: cc04 01b2 bb36 c3bf 6481 85b3 141a b33f
-0.1501078242454582 0.0746167124066282

blocks1.SCINet_Tree.SCINet_Tree_odd.workingblock.interact.level.P.4.weight f8 [1, 2, 3]
00000000: 9c25 7273 cbef cfbf 5cd3 83c1 7cc2 d23f
00000010: 6993 212a 6042 a53f 10de f579 0145 c1bf
00000020: 6955 141f b38c c93f 8a18 2d72 3e1d b63f
-0.24950545441633387 0.2931205644411443 0.04152203096672375 -0.13491838889216057 0.19960631387281616 0.08638372695449639

blocks1.SCINet_Tree.SCINet_Tree_odd.workingblock.interact.level.P.4.bias f8 [1]
00000000: 4a1a 5a9c e77e a53f
0.04198383124917322

blocks1.SCINet_Tree.SCINet_Tree_odd.workingblock.interact.level.U.1.weight f8 [2, 1, 5]
00000000: 1d62 510b eab2 d73f 0582 5fda eaca c7bf
00000010: b7ed 34c8 5971 d0bf 48fd 2eb4 ef29 85bf
00000020: 533c 2c62 556e a7bf 3b7f 7e96 ebf5 c6bf
00000030: 7352 3d33 da4e a8bf de88 68f4 724e d93f
00000040: 34f6 2a1e 902c d5bf 521c 4576 06d2 80bf
0.37029505830062864 -0.18588004744289335 -0.256918378366858 -0.010333893476739534 -0.045763653024658034 -0.17937989090295922 -0.04747659564478548 0.3954131495285206
-0.33084490724636173 -0.008213091358483169

blocks1.SCINet_Tree.SCINet_Tree_odd.workingblock.interact.level.U.1.bias f8 [2]
00000000: 2487 6517 3017 cdbf ccd6 c289 9b6c d4bf
-0.2272701372376612 -0.3191288800547738

blocks1.SCINet_Tree.SCINet_Tree_odd.workingblock.interact.level.U.4.weight f8 [1, 2, 3]
00000000: b8b4 fb80 b4d7 d2bf bedb f9b4 395d c43f
00000010: 26a1 85cf aa5b b7bf c13c 5fd0 6e0e b3bf
00000020: e99c feb2 c494 b0bf 3e5a c9b3 df3a d33f
-0.2944155940629787 0.15909501396865083 -0.09124248091177786 -0.07443897807319201 -0.06477002496704966 0.30046837384489666

blocks1.SCINet_Tree.SCINet_Tree_odd.workingblock.interact.level.U.4.bias f8 [1]
00000000: eb2c 43f7 51a6 d5bf
-0.33827637812346606

blocks1.SCINet_Tree.SCINet_Tree_odd.SCINet_Tree_odd.workingblock.interact.level.phi.1.weight f8 [2, 1, 5]
00000000: 13c8 59d9 25b4 c63f 1bfd feb0 fb8b ac3f
00000010: 53ec 5a41 6e45 c83f fe35 cf3e fca1 dcbf
00000020: 415f bcae 2f69 b23f 638d 2123 cec2 c7bf
00000030: 66ea 9542 b16b d73f e973 4409 4479 c8bf
00000040: 0d38 87f9 c612 9bbf df34 4a69 1ab4 c43f
0.1773726760180244 0.055755486827815136 0.1896188563458475 -0.4473868001340121 0.07191751495372235 -0.18563248362907378 0.36594802381993075 -0.1912007375002809
-0.02643881700515043 0.16174631253344438

blocks1.SCINet_Tree.SCINet_Tree_odd.SCINet_Tree_odd.workingblock.interact.level.phi.1.bias f8 [2]
00000000: 6e91 cbdd 0ad4 cf3f f7a1 4ae8 1411 d1bf
0.2486585219368282 -0.26666758236618143

blocks1.SCINet_Tree.SCINet_Tree_odd.SCINet_Tree_odd.workingblock.interact.level.phi.4.weight f8 [1, 2, 3]
00000000: eb26 ad31 b314 9a3f 2d28 c409 056d c53f
00000010: 3eb6 0cda 6f67 c8bf f77d 2d6d 0068 b4bf
00000020: 94a3 9141 b432 d63f 0cfe 5b14 7a2b dabf
0.025469589144711795 0.16738951660983173 -0.19065664431529855 -0.07971193948241494 0.34684473422253714 -0.4089036177465182

blocks1.SCINet_Tree.SCINet_Tree_odd.SCINet_Tree_odd.workingblock.interact.level.phi.4.bias f8 [1]
00000000: 8d8e ff22 2005 babf
-0.10164070944261479

blocks1.SCINet_Tree.SCINet_Tree_odd.SCINet_Tree_odd.workingblock.interact.level.psi.1.weight f8 [2, 1, 5]
00000000: 504e 2aa4 9d33 d83f 91a8 d165 9cb9 b7bf
00000010: 1865 8a20 8904 c5bf 11d1 7754 d616 cdbf
00000020: 92ef b303 5cb3 c9bf 06fa 35ba c8a8 c4bf
00000030: c90e 1818 0265 cc3f e449 e400 e702 b6bf
00000040: 30a3 fc4b f7f7 d43f 0e1e 1dd5 e49e c33f
0.3781503775764792 -0.09267594800772573 -0.1642009171380685 -0.22725943684020725 -0.2007861154632989 -0.16140088169409256 0.2218325250288358 -0.08598178645869542
0.3276346437510709 0.15328655630058602

blocks1.SCINet_Tree.SCINet_Tree_odd.SCINet_Tree_odd.workingblock.interact.level.psi.1.bias f8 [2]
00000000: e50f b6d4 dfbe d4bf 91cc 0f9e 05d3 dcbf
-0.3241500451333635 -0.45037975726808904

blocks1.SCINet_Tree.SCINet_Tree_odd.SCINet_Tree_odd.workingblock.interact.level.psi.4.weight f8 [1, 2, 3]
00000000: 6bda 5297 63c5 afbf 44ed ae31 7646 c0bf
00000010: 32d7 4598 7419 d4bf 66fc 0d9b e950 d53f
00000020: 6253 b57f c6f9 ac3f 5a9b b38f 0111 84bf
-0.0620528337689635 -0.1271503203005101 -0.31405367727653577 0.33306350843481025 0.056593134965317274 -0.009798061559605099

blocks1.SCINet_Tree.SCINet_Tree_odd.SCINet_Tree_odd.workingblock.interact.level.psi.4.bias f8 [1]
00000000: bb23 c777 4a08 ddbf
-0.45363103577670544

blocks1.SCINet_Tree.SCINet_Tree_odd.SCINet_Tree_odd.workingblock.interact.level.P.1.weight f8 [2, 1, 5]
00000000: 6bbb 78fd d886 c6bf d255 5815 df36 c23f
00000010: df84 70b4 3fc3 bbbf f31a b1c2 69de ce3f
00000020: cf23 4948 3493 d5bf d0ad d336 ae20 d9bf
00000030: 9f63 200d efbb b43f bfce 08dd a409 d53f
00000040: ad0f d845 8204 b7bf 8ea7 4940 d6d4 c3bf
-0.17599022270720907 0.14229954282988772 -0.10844801097165967 0.24116250997959518 -0.33710963305617 -0.39261966089426625 0.08099264212104494 0.3287136229075535
-0.08991255002189176 -0.15493276728676303

blocks1.SCINet_Tree.SCINet_Tree_odd.SCINet_Tree_odd.workingblock.interact.level.P.1.bias f8 [2]
00000000: 37f0 24dc e871 d5bf 095b dd14 7f81 ce3f
-0.3350774907919489 0.2383269168737672

blocks1.SCINet_Tree.SCINet_Tree_odd.SCINet_Tree_odd.workingblock.interact.level.P.4.weight f8 [1, 2, 3]
00000000: 1931 1d9d 3bee 8cbf 0a64 0ed8 26c9 cbbf
00000010: ba4b 8f76 bff0 be3f 2b62 f975 f044 9abf
00000020: 4b13 714b 938c b1bf 3eb7 6baf 8e97 bdbf
-0.014126268131484697 -0.21707616376514266 0.12086102146649483 -0.025653607559748586 -0.0685512599166717 -0.11559383185132519

blocks1.SCINet_Tree.SCINet_Tree_odd.SCINet_Tree_odd.workingblock.interact.level.P.4.bias f8 [1]
00000000: 5569 7378 f995 a63f
0.04411296458575246

blocks1.SCINet_Tree.SCINet_Tree_odd.SCINet_Tree_odd.workingblock.interact.level.U.1.weight f8 [2, 1, 5]
00000000: 935a 3176 58d7 d4bf aa9d 6e90 19c4 d33f
00000010: 51db 5553 8d74 98bf 4663 039a 3534 cabf
00000020: a12a 1dac ae84 c2bf 64cc b029 d077 d3bf
00000030: f3df 941c 03e0 d03f b6c2 b13a 5917 b2bf
00000040: 064a 646c db30 d0bf 3695 2107 1031 d23f
-0.32564364950432284 0.3088439856023465 -0.023882110797298243 -0.20471830387284679 -0.14467414287567684 -0.3041878134856175 0.26367261687437277 -0.07066877062767216
-0.2529820021165111 0.28424454399494736

blocks1.SCINet_Tree.SCINet_Tree_odd.SCINet_Tree_odd.workingblock.interact.level.U.1.bias f8 [2]
00000000: 4c2a 446b 52ae cabf a739 fd97 d940 c7bf
-0.20844488370524272 -0.18166656419130087

blocks1.SCINet_Tree.SCINet_Tree_odd.SCINet_Tree_odd.workingblock.interact.level.U.4.weight f8 [1, 2, 3]
00000000: 4567 af0a 359b d1bf b64b f7a6 a91d d0bf
00000010: 424e 6b11 f0b3 b83f a53e 3cc6 c135 a8bf
00000020: 2c78 f170 b671 b93f e4f9 1a18 cb14 cabf
-0.27509809535478197 -0.25181046777032223 0.0964956324126485 -0.04728513283600692 0.09939136750605887 -0.203759562273219

blocks1.SCINet_Tree.SCINet_Tree_odd.SCINet_Tree_odd.workingblock.interact.level.U.4.bias f8 [1]
00000000: 2e11 099c cba1 c93f
0.2002501022235576

blocks1.SCINet_Tree.SCINet_Tree_odd.SCINet_Tree_even.workingblock.interact.level.phi.1.weight f8 [2, 1, 5]
00000000: 74f5 e5d7 8bbb d4bf 1900 5191 e787 a23f
00000010: ccd2 6173 95eb ce3f 2127 18c1 824f d53f
00000020: 6cc9 e829 461d 8b3f 8bd0 a34f 03d2 d03f
00000030: a53e b2f0 0571 b4bf dc89 f165 9dc0 923f
00000040: f175 90d6 9195 cfbf 8879 4ee0 ce2e d3bf
-0.3239469154721839 0.03619311951524668 0.24156444677250588 0.33297795159215765 0.013239429620715192 0.2628181722386748 -0.07984959722875347 0.018312892291200686
-0.24675200440189785 -0.29973194031654105

blocks1.SCINet_Tree.SCINet_Tree_odd.SCINet_Tree_even.workingblock.interact.level.phi.1.bias f8 [2]
00000000: e719 8cba df15 d03f ab85 1220 e175 cebf
0.25133507936007365 -0.2379723936656267

blocks1.SCINet_Tree.SCINet_Tree_odd.SCINet_Tree_even.workingblock.interact.level.phi.4.weight f8 [1, 2, 3]
00000000: 543f f358 c8c5 d23f 6100 82ab a3ed d1bf
00000010: 239d 73f6 61ae d9bf 14ed 4b3a 6cec dcbf
00000020: c449 64ee 38e8 c63f 12da 3013 4f94 d4bf
0.2933216923383857 -0.28012935398874644 -0.4012684733156268 -0.4519301003744698 0.1789618648550243 -0.3215520560655999

blocks1.SCINet_Tree.SCINet_Tree_odd.SCINet_Tree_even.workingblock.interact.level.phi.4.bias f8 [1]
00000000: 22f7 abea b1f6 aa3f
0.05266338338513622

blocks1.SCINet_Tree.SCINet_Tree_odd.SCINet_Tree_even.workingblock.interact.level.psi.1.weight f8 [2, 1, 5]
00000000: dd95 0b14 52bb a83f fa45 5d68 befa c8bf
00000010: aa11 c332 8e59 cc3f 84e5 d7a2 501b c73f
00000020: ac8d 7f74 f572 d53f a444 61a5 30e4 ba3f
00000030: dcc4 3de3 3976 cfbf 6dc9 9a94 6f4e bdbf
00000040: 0924 3c5c a4b0 c5bf 2c3a 168f 304c a33f
0.04830414290135441 -0.19515209289470176 0.22148301581013402 0.18052108718238113 0.3351415288618351 0.10504440343472027 -0.24579547496572374 -0.11447808626215812
-0.16945318702372017 0.037690656153348406

blocks1.SCINet_Tree.SCINet_Tree_odd.SCINet_Tree_even.workingblock.interact.level.psi.1.bias f8 [2]
00000000: ac26 cec8 4a94 b3bf ac21 c63a 6733 d8bf
-0.07648150827858541 -0.3781374048199051

blocks1.SCINet_Tree.SCINet_Tree_odd.SCINet_Tree_even.workingblock.interact.level.psi.4.weight f8 [1, 2, 3]
00000000: 65c0 aa6f 9988 ca3f 21b6 c46c 6fb7 b53f
00000010: ecb9 01e6 da5f d23f 1879 3f80 46c5 d03f
00000020: 3342 2cc4 c691 bdbf 7bc4 938f a571 ddbf
0.2072936816452994 0.0848302498386251 0.2871005293044664 0.26204073452199017 -0.11550562180878714 -0.46006144543850497

blocks1.SCINet_Tree.SCINet_Tree_odd.SCINet_Tree_even.workingblock.interact.level.psi.4.bias f8 [1]
00000000: e405 b108 03fe c73f
0.18743932651891193

blocks1.SCINet_Tree.SCINet_Tree_odd.SCINet_Tree_even.workingblock.interact.level.P.1.weight f8 [2, 1, 5]
00000000: a31a 5210 aacc ce3f ec03 6b0a f4d2 97bf
00000010: 9e92 7bd5 b651 c6bf bced 02d5 f43e cabf
00000020: 6859 2fdf fc45 a33f dd40 94da 6b99 d73f
00000030: 5875 01e9 a310 d13f 7d75 df76 68d4 a8bf
00000040: 4767 414c 523f d23f feaf c5f8 d144 bbbf
0.24062085911665063 -0.023265660415521625 -0.1743687193294549 -0.20504627610158177 0.03764333939004666 0.36873909326187776 0.266640641731859 -0.048495544920778656
0.2851148361856883 -0.10651886294880339

blocks1.SCINet_Tree.SCINet_Tree_odd.SCINet_Tree_even.workingblock.interact.level.P.1.bias f8 [2]
00000000: 937b e3b1 c3ef bdbf 2fdb 5fe4 d532 b3bf
-0.11693976490958695 -0.0749944384150296

blocks1.SCINet_Tree.SCINet_Tree_odd.SCINet_Tree_even.workingblock.interact.level.P.4.weight f8 [1, 2, 3]
00000000: 9caa f13a 0c23 c2bf 21e1 2c2b bda6 c23f
00000010: 10d2 453d c5f5 d2bf c8a5 e924 8d65 cc3f
00000020: faa7 8ae3 47a5 d03f 0b75 d68e dddc df3f
-0.14169457319379297 0.14571346862954562 -0.29625063880601576 0.22184910108926048 0.2600879404150188 0.4978555579089778

blocks1.SCINet_Tree.SCINet_Tree_odd.SCINet_Tree_even.workingblock.interact.level.P.4.bias f8 [1]
00000000: ff37 6485 5a50 d3bf
-0.3017793944026152

blocks1.SCINet_Tree.SCINet_Tree_odd.SCINet_Tree_even.workingblock.interact.level.U.1.weight f8 [2, 1, 5]
00000000: 1adf ab3d 221b a63f f150 f799 1ac1 a5bf
00000010: 7b3c 9051 4056 c13f d639 cf4e 8c1f d3bf
00000020: 4d8a 1623 d3e8 a8bf c4a1 1889 0f47 ddbf
00000030: b419 f028 aed5 c4bf 4c96 5ce6 3289 d3bf
00000040: ef6b 48d0 a2d5 71bf c3d6 0f86 ff1d b7bf
0.04317576411079767 -0.042488890928923946 0.13544467909420974 -0.29880054184186855 -0.04865131190606018 -0.45746220005323956 -0.16277100562019842 -0.30524895187622714
-0.004354129782337942 -0.09030148528094188

blocks1.SCINet_Tree.SCINet_Tree_odd.SCINet_Tree_even.workingblock.interact.level.U.1.bias f8 [2]
00000000: 30eb 3c2e a3ca bb3f 5018 2ce1 ef4b cb3f
0.10856075171333823 0.21325491423357557

blocks1.SCINet_Tree.SCINet_Tree_odd.SCINet_Tree_even.workingblock.interact.level.U.4.weight f8 [1, 2, 3]
00000000: e7d1 4817 9114 d13f 78c3 b7bf f606 c6bf
00000010: de22 55ce 26a2 c23f 5fb1 2528 88aa c33f
00000020: dcfa 03bb ad42 be3f c4b2 66ed 10b8 b33f
0.2668802955043063 -0.17208752022954932 0.14557347369033996 0.1536417194396433 0.11820493522462122 0.07702737613608251

blocks1.SCINet_Tree.SCINet_Tree_odd.SCINet_Tree_even.workingblock.interact.level.U.4.bias f8 [1]
00000000: eee0 dd99 92f8 bd3f
0.11707416779052313

blocks1.SCINet_Tree.SCINet_Tree_even.workingblock.interact.level.phi.1.weight f8 [2, 1, 5]
00000000: e2c0 7a99 0f88 a0bf a870 8c0d ae48 d7bf
00000010: 18ea aadc 189b d23f 738d 7638 b192 c63f
00000020: 8aab fd1f 18e7 bd3f 0a72 71e1 6ae5 c9bf
00000030: 1618 e708 0f6a b33f f6e6 f028 b240 bcbf
00000040: 098c 5c31 76ad bfbf e701 a138 335c c13f
-0.03228806255845186 -0.3638110287008751 0.2907163767773979 0.17635169274317838 0.11680746823337365 -0.20231376655546313 0.07583707778312063 -0.11036218165909503
-0.12374056534876855 0.13562622323117

blocks1.SCINet_Tree.SCINet_Tree_even.workingblock.interact.level.phi.1.bias f8 [2]
00000000: 4e2c 1c71 1827 d2bf 93a8 7b34 38d4 cb3f
-0.2836361984815924 0.21741392672203527

blocks1.SCINet_Tree.SCINet_Tree_even.workingblock.interact.level.phi.4.weight f8 [1, 2, 3]
00000000: 4819 9a29 032c a5bf dc80 45b3 5c07 c03f
00000010: cc53 0370 a8fd d9bf 44cf ba7e 4a2a b53f
00000020: 951c eac4 9e60 cc3f d469 9c7d 88a6 5f3f
-0.04135141260944636 0.12522467378130997 -0.4061070531727722 0.08267655939090185 0.22169861426320794 0.001931794444721126

blocks1.SCINet_Tree.SCINet_Tree_even.workingblock.interact.level.phi.4.bias f8 [1]
00000000: d81a b6e0 a2ca debf
-0.4811179346510648

blocks1.SCINet_Tree.SCINet_Tree_even.workingblock.interact.level.psi.1.weight f8 [2, 1, 5]
00000000: 2672 317a 3891 cebf 4780 c5ce 87d0 cabf
00000010: 2b0c f4c6 66f2 ce3f c9c6 42d9 fd95 703f
00000020: a300 9a67 8c06 babf 6ed8 54e0 2d96 cabf
00000030: 9cfa e82d d24e abbf 720e 0130 5e70 c2bf
00000040: 93ac 5234 ec5b c9bf 793c eb5f 29fe c43f
-0.23880678144895845 -0.20948884578956692 0.24177250589863894 0.0040492931331514515 -0.1016624215062643 -0.20770810559924108 -0.053335731605774955 -0.1440541967768812
-0.19811775736647927 0.16400639709033607

blocks1.SCINet_Tree.SCINet_Tree_even.workingblock.interact.level.psi.1.bias f8 [2]
00000000: 1039 a4a8 4e58 d1bf 0be4 9948 9ce9 d8bf
-0.2710148474588019 -0.38925845231966666

blocks1.SCINet_Tree.SCINet_Tree_even.workingblock.interact.level.psi.4.weight f8 [1, 2, 3]
00000000: 4c33 5d88 06f5 b1bf f59e 8eb4 fdb5 d23f
00000010: c8d8 4cdb 0383 d9bf 9389 89b0 f638 c13f
00000020: 039c 0979 4f04 d1bf 9de3 e3a6 34d4 bfbf
-0.07014504269791394 0.29235785133867803 -0.3986215249636982 0.13455089206679513 -0.2658880884177394 -0.12433175157992911

blocks1.SCINet_Tree.SCINet_Tree_even.workingblock.interact.level.psi.4.bias f8 [1]
00000000: b6d9 6fca dc2a ad3f
0.05696763964799649

blocks1.SCINet_Tree.SCINet_Tree_even.workingblock.interact.level.P.1.weight f8 [2, 1, 5]
00000000: dd70 495a daa2 c23f 8772 8969 e4ac c0bf
00000010: 3268 c4a0 049a bdbf c281 2ae7 7b01 c9bf
00000020: d9fc cab9 f2a1 cf3f a25a e580 5a63 c1bf
00000030: 65ed 75e8 5372 acbf 23f0 b3f3 1b24 c1bf
00000040: 7a08 c862 eb6d c73f 19f3 18cb b214 bf3f
0.1455948773244761 -0.13027625229996806 -0.11563137936573822 -0.19535778796581665 0.2471297652427669 -0.1358445290922719 -0.05555975163130248 -0.13391446494631606
0.1830419761973337 0.12140958269533221

blocks1.SCINet_Tree.SCINet_Tree_even.workingblock.interact.level.P.1.bias f8 [2]
00000000: 0afc 7d28 20c1 91bf e65e edf9 54ba 903f
-0.01733827826637583 0.01633579993662595

blocks1.SCINet_Tree.SCINet_Tree_even.workingblock.interact.level.P.4.weight f8 [1, 2, 3]
00000000: f0e7 0077 3d90 c9bf 457e b6f9 54f8 c7bf
00000010: f6e9 ea01 eb26 d73f 0ecd 8be8 3a5c c5bf
00000020: d3e3 2249 f8d6 babf 97fb ad6b eace d5bf
-0.1997143584320038 -0.18726598923693608 0.36175036608952327 -0.16687713961400913 -0.1048426798396485 -0.3407541324194709

blocks1.SCINet_Tree.SCINet_Tree_even.workingblock.interact.level.P.4.bias f8 [1]
00000000: 3afe 68f2 5f45 c0bf
-0.12711715065414514

blocks1.SCINet_Tree.SCINet_Tree_even.workingblock.interact.level.U.1.weight f8 [2, 1, 5]
00000000: 3086 77c3 9a92 c53f 7ad4 6c18 1154 943f
00000010: 4bd8 a4b9 8cfb bebf 5bb7 957f 7ade a9bf
00000020: 186d c5a2 300d 98bf 2761 3f29 2c13 db3f
00000030: de0c 6709 30ff c23f 7ad1 9554 618a 413f
00000040: 4850 5a4e f790 cbbf 0dc2 9b06 7d0a d1bf
0.16853651565820504 0.01985193931178173 -0.12102584392855069 -0.05052550132209773 -0.023487815794721006 0.4230451968010293 0.14841270884617236 0.0005352950330875094
-0.21536151243037893 -0.2662651600394675

blocks1.SCINet_Tree.SCINet_Tree_even.workingblock.interact.level.U.1.bias f8 [2]
00000000: 4b47 3a7b 069e b03f f3fd 2294 109e cc3f
0.0649112749909168 0.2235737536739034

blocks1.SCINet_Tree.SCINet_Tree_even.workingblock.interact.level.U.4.weight f8 [1, 2, 3]
00000000: 6c31 d5c2 a5c4 c6bf 875f 1a55 647b c93f
00000010: 4029 f52a f622 cbbf d260 1695 4ad2 c2bf
00000020: df0c 6c23 c280 c4bf 4cf5 a0d6 f69f c6bf
-0.17787620557136152 0.199078122667512 -0.21200444314519906 -0.14704258231791428 -0.16017939309686022 -0.17675672035140122

blocks1.SCINet_Tree.SCINet_Tree_even.workingblock.interact.level.U.4.bias f8 [1]
00000000: 531a 883c 2373 d0bf
-0.25702744399351224

blocks1.SCINet_Tree.SCINet_Tree_even.SCINet_Tree_odd.workingblock.interact.level.phi.1.weight f8 [2, 1, 5]
00000000: df97 3265 4b67 cfbf 35eb aef8 f929 d33f
00000010: 4963 4374 1118 acbf 1be0 1bb3 fb78 c13f
00000020: b804 36b6 1969 d93f ce10 e60e 10e1 c8bf
00000030: da8d 52a7 49a8 d53f ad39 118c 14d5 be3f
00000040: f578 b065 62fb d8bf e2f9 b829 45ce c63f
-0.2453397983674099 0.2994370392367956 -0.05487112564305236 0.13650461431075275 0.39703982156795403 -0.1943683693645028 0.33839646663747447 0.12043884677516443
-0.39034328394508516 0.17816986596331136

blocks1.SCINet_Tree.SCINet_Tree_even.SCINet_Tree_odd.workingblock.interact.level.phi.1.bias f8 [2]
00000000: 5869 789a 7057 bd3f 5587 1309 563f d1bf
0.11461547633408509 -0.2694907272945007

blocks1.SCINet_Tree.SCINet_Tree_even.SCINet_Tree_odd.workingblock.interact.level.phi.4.weight f8 [1, 2, 3]
00000000: 0760 bb13 e602 d8bf 0973 6e90 ed99 a1bf
00000010: b114 830e 90f6 d4bf aed2 864c 7bf6 d23f
00000020: 5c03 4518 695c bd3f e448 3a6b 3ff8 b2bf
-0.37517692496248894 -0.03437750232772003 -0.32754899422827594 0.29629404519372826 0.11469132273215393 -0.07410045974600937

blocks1.SCINet_Tree.SCINet_Tree_even.SCINet_Tree_odd.workingblock.interact.level.phi.4.bias f8 [1]
00000000: 7c7b 4617 f848 debf
-0.47320368073444974

blocks1.SCINet_Tree.SCINet_Tree_even.SCINet_Tree_odd.workingblock.interact.level.psi.1.weight f8 [2, 1, 5]
00000000: ca90 159b cb02 cabf b514 626a b19f b0bf
00000010: b3db 26ce e6b5 b8bf 7027 20a7 1fd9 cd3f
00000020: 6cea ffa1 d56e c3bf 812e f825 17c7 d43f
00000030: 2f6c e038 11cf b83f 2c79 a556 be1a bc3f
00000040: e6fb 4e6e 2731 d43f 2fa6 b80a b540 d5bf
-0.2032103068587559 -0.06493672225231502 -0.09652559788706476 0.23318858776502394 -0.15181990060939954 0.3246515150828842 0.09690959585752588 0.1097830735720648
0.3155001237136602 -0.33207441374779284

blocks1.SCINet_Tree.SCINet_Tree_even.SCINet_Tree_odd.workingblock.interact.level.psi.1.bias f8 [2]
00000000: fac6 1fb3 d542 d33f d6dd cfbd fb13 dabf
0.30095427029219446 -0.4074696878082852

blocks1.SCINet_Tree.SCINet_Tree_even.SCINet_Tree_odd.workingblock.interact.level.psi.4.weight f8 [1, 2, 3]
00000000: 7de1 fd04 a00a dbbf 2c80 073b 6e58 b63f
00000010: 9ec2 97a1 491a bbbf fd56 c577 f93a d03f
00000020: fceb 51d5 2e78 d23f a633 c8d1 4cf6 d6bf
-0.42252350318405957 0.08728684369225509 -0.10586986727845235 0.25359951683400067 0.2885853846743769 -0.35878296362425954

blocks1.SCINet_Tree.SCINet_Tree_even.SCINet_Tree_odd.workingblock.interact.level.psi.4.bias f8 [1]
00000000: f4b7 f296 d99c c9bf
-0.20009918089402812

blocks1.SCINet_Tree.SCINet_Tree_even.SCINet_Tree_odd.workingblock.interact.level.P.1.weight f8 [2, 1, 5]
00000000: 4b6f a095 4dbe d4bf 4f80 4ac0 6d33 d83f
00000010: 18f7 b9a8 4f62 c3bf 888a 71e7 0bd1 d43f
00000020: eba3 ace8 97d9 d13f 4e1b c3e1 8338 b2bf
00000030: fb67 77f2 e9bb d43f dfe2 8163 2313 c53f
00000040: 16fb bba3 9aa9 ce3f c8f3 be3b abfa be3f
-0.3241151772688126 0.3781389596788402 -0.15143771875948953 0.3252591858091951 0.2789058468065934 -0.07117485296030887 0.32396935156214085 0.16464655264623837
0.23955090517844074 0.12101240357055965

blocks1.SCINet_Tree.SCINet_Tree_even.SCINet_Tree_odd.workingblock.interact.level.P.1.bias f8 [2]
00000000: b19d 0d8a 813b d0bf 8ab3 89de 0c32 d9bf
-0.25363195878750405 -0.3936798260900153

blocks1.SCINet_Tree.SCINet_Tree_even.SCINet_Tree_odd.workingblock.interact.level.P.4.weight f8 [1, 2, 3]
00000000: 5808 6e3d b544 c73f 2865 0f41 d4b4 9f3f
00000010: c478 d083 4725 d23f 0018 eac3 4ed0 9c3f
00000020: f8bf 706f 7e8f de3f 3546 2475 f195 d53f
0.18178430079939534 0.030963245840984005 0.28352535126203926 0.028138380725543755 0.47750817187170425 0.33727680625551965

blocks1.SCINet_Tree.SCINet_Tree_even.SCINet_Tree_odd.workingblock.interact.level.P.4.bias f8 [1]
00000000: b84d c534 be19 c2bf
-0.14141061379141973

blocks1.SCINet_Tree.SCINet_Tree_even.SCINet_Tree_odd.workingblock.interact.level.U.1.weight f8 [2, 1, 5]
00000000: 7c56 27d9 5fa5 ddbf d471 867c c610 c7bf
00000010: 5a88 c102 1606 d7bf 9aa8 fcfc 978c d0bf
00000020: 4dcd f880 b847 d03f d927 d396 13f8 d43f
00000030: d8e9 d460 7463 c2bf 6cf5 081d 68f5 d4bf
00000040: e4db 193e ff0f bebf 681c e193 c881 d1bf
-0.46321865278637353 -0.18019944267588406 -0.35974645871295297 -0.25858115869289977 0.2543774852267305 0.3276413891695689 -0.14366011360273379 -0.3274784358544227
-0.11743159547937371 -0.2735463565954377

blocks1.SCINet_Tree.SCINet_Tree_even.SCINet_Tree_odd.workingblock.interact.level.U.1.bias f8 [2]
00000000: 78db f02d 5cc3 cebf 27f4 609c cf6e ddbf
-0.24033691638188848 -0.45988836547241124

blocks1.SCINet_Tree.SCINet_Tree_even.SCINet_Tree_odd.workingblock.interact.level.U.4.weight f8 [1, 2, 3]
00000000: 7291 aa2b f951 ce3f 104e cc62 b7b8 c1bf
00000010: 0cfb 8185 aa93 dc3f 1040 bd2d 2dad 6e3f
00000020: 3ed8 42ed 03a9 b63f 0d6c beeb 9140 d53f
0.23687662727492015 -0.13844959568142245 0.44651282346596655 0.003744686355197764 0.08851646940715427 0.33206604024752623

blocks1.SCINet_Tree.SCINet_Tree_even.SCINet_Tree_odd.workingblock.interact.level.U.4.bias f8 [1]
00000000: 19ed af27 c0c0 c23f
0.14650728166439178

blocks1.SCINet_Tree.SCINet_Tree_even.SCINet_Tree_even.workingblock.interact.level.phi.1.weight f8 [2, 1, 5]
00000000: 7133 e4d5 93f1 a33f 8857 618e dd2d a1bf
00000010: 526d 94a3 03ae acbf d118 2687 dad8 c23f
00000020: 2fda 4290 735e da3f ad20 79fd ff8f c43f
00000030: b706 b581 6531 adbf c467 b9c4 1421 a23f
00000040: c446 5aa8 763e dbbf 234a 3ad5 9b79 d33f
0.038952464923659565 -0.03355305064239561 -0.05601512309859892 0.14724284743369379 0.4120148571777546 0.16064453007334603 -0.05701749046649012 0.03540863896769467
-0.42568746987045025 0.30429740736977545

blocks1.SCINet_Tree.SCINet_Tree_even.SCINet_Tree_even.workingblock.interact.level.phi.1.bias f8 [2]
00000000: e4db 938c 638e d0bf 614f 420f e08e c63f
-0.2586907265498992 0.176235206080146

blocks1.SCINet_Tree.SCINet_Tree_even.SCINet_Tree_even.workingblock.interact.level.phi.4.weight f8 [1, 2, 3]
00000000: 4734 3155 0741 d7bf fb41 38b7 9532 d7bf
00000010: 38ea 5520 5d4b b23f 39e6 80f7 87a3 9d3f
00000020: 40ec 6631 97bf cc3f 30dd 9ab7 e3e5 c23f
-0.3633440334277264 -0.36246245281748174 0.07146245994037137 0.0289441342176586 0.22459688102921582 0.1476406713970646

blocks1.SCINet_Tree.SCINet_Tree_even.SCINet_Tree_even.workingblock.interact.level.phi.4.bias f8 [1]
00000000: d447 5818 249e c6bf
-0.17670108021462616

blocks1.SCINet_Tree.SCINet_Tree_even.SCINet_Tree_even.workingblock.interact.level.psi.1.weight f8 [2, 1, 5]
00000000: 4d5a 3cb3 526d c2bf ca4e 469f 681f d0bf
00000010: 1e0f febb db61 c0bf 3d29 4ab2 a652 b9bf
00000020: fe24 cb99 26af c93f 97fc c753 2bcc a1bf
00000030: 543e 4386 92f2 d53f 6294 e644 a90d acbf
00000040: 6d28 d277 083c d13f fbe5 7799 aae6 c2bf
-0.14396127464051958 -0.2519170337120441 -0.12798639945332807 -0.0989174065854614 0.20065767774057258 -0.034760812737652795 0.34293044196690414 -0.054791726742487126
0.2692891283155692 -0.14766438001224444

blocks1.SCINet_Tree.SCINet_Tree_even.SCINet_Tree_even.workingblock.interact.level.psi.1.bias f8 [2]
00000000: 7c06 b199 a97b d4bf ba3c 4bbd 5544 d73f
-0.3200477600949865 0.3635458324979016

blocks1.SCINet_Tree.SCINet_Tree_even.SCINet_Tree_even.workingblock.interact.level.psi.4.weight f8 [1, 2, 3]
00000000: 3006 1589 f2c9 b03f fc1c 2ccf 333a a3bf
00000010: 021f 3bc2 6d46 c43f b0d9 49e4 c8ce bebf
00000020: 0bb2 47e4 7b16 d5bf 5e58 6d66 4118 dbbf
0.0655814728425177 -0.03755342391928626 0.15839931472714147 -0.12034278462838333 -0.32949731152510314 -0.4233554363503397

blocks1.SCINet_Tree.SCINet_Tree_even.SCINet_Tree_even.workingblock.interact.level.psi.4.bias f8 [1]
00000000: 69e5 1917 d9c3 dcbf
-0.44945361381504384

blocks1.SCINet_Tree.SCINet_Tree_even.SCINet_Tree_even.workingblock.interact.level.P.1.weight f8 [2, 1, 5]
00000000: 2d77 8864 e7a0 d3bf 14d2 8f75 eab8 c4bf
00000010: 9e8e bf75 4430 c73f 9221 db70 fb48 cb3f
00000020: 2b70 eda5 a4fa 903f 7c55 7202 997d dd3f
00000030: 429f fc91 7169 bb3f dc67 30c9 814e ae3f
00000040: 3340 fa5d ea87 d33f 7c47 451b 8437 c03f
-0.30669579332048863 -0.16189318409273368 0.1811605048125004 0.21316473970933864 0.016581127765093278 0.4607908748524421 0.10707769216662391 0.059192710694517564
0.30517062356466623 0.12669421512196866

blocks1.SCINet_Tree.SCINet_Tree_even.SCINet_Tree_even.workingblock.interact.level.P.1.bias f8 [2]
00000000: 0b5c 277b 12da b83f 30e3 5d9c 7979 cfbf
0.09707751757319742 -0.24589462409110174

blocks1.SCINet_Tree.SCINet_Tree_even.SCINet_Tree_even.workingblock.interact.level.P.4.weight f8 [1, 2, 3]
00000000: e252 b91b af65 c0bf 0a4b 4c1e 35e1 cdbf
00000010: b202 69af 0ec3 cdbf 06c9 a4b5 d4d1 d03f
00000020: e298 5d49 3956 d73f 3718 741c 3d12 c53f
-0.1281031499262531 -0.2334352872790862 -0.23251517834616703 0.2628070615638908 0.36463768162356136 0.16461910142260347

blocks1.SCINet_Tree.SCINet_Tree_even.SCINet_Tree_even.workingblock.interact.level.P.4.bias f8 [1]
00000000: e227 915c 9443 d5bf
-0.3322497276282076

blocks1.SCINet_Tree.SCINet_Tree_even.SCINet_Tree_even.workingblock.interact.level.U.1.weight f8 [2, 1, 5]
00000000: fb60 6ba1 a425 da3f aa15 0216 2e7b cf3f
00000010: 43fc d55a 1933 9ebf 4e44 29f7 c2ce d2bf
00000020: 4561 9036 b1e9 c7bf 6c90 f329 4529 d73f
00000030: bcf7 ba2a f6c6 aebf 2099 1a51 add1 b63f
00000040: 1e8b c824 2f5e a93f b15f bb26 77a5 d5bf
0.4085475517617991 0.24594665598503457 -0.02949180237692085 -0.29386972557864943 -0.18681922115571062 0.3618939313585148 -0.06011170646296146 0.08913691740108165
0.0495466930772379 -0.3382242086640828

blocks1.SCINet_Tree.SCINet_Tree_even.SCINet_Tree_even.workingblock.interact.level.U.1.bias f8 [2]
00000000: fc45 da22 859a 743f 5d13 1a6e f8b7 a7bf
0.005030174315508781 -0.04632545799271413

blocks1.SCINet_Tree.SCINet_Tree_even.SCINet_Tree_even.workingblock.interact.level.U.4.weight f8 [1, 2, 3]
00000000: 44a6 1b8a 479f c8bf e359 8851 679a c3bf
00000010: 056f 00b8 f156 d3bf ac3b a5e2 457b d8bf
00000020: 4db0 751c 64a2 a03f 3d22 14ad 008e c13f
-0.19236082309298486 -0.15314952355465924 -0.3021816536799949 -0.38252398618072436 0.032488945459448894 0.13714607668977577

blocks1.SCINet_Tree.SCINet_Tree_even.SCINet_Tree_even.workingblock.interact.level.U.4.bias f8 [1]
00000000: 4206 cfda 6325 cc3f
0.21989105400102643

projection1.weight f8 [24, 48, 1]
00000000: 08de 9d2e 20cd a3bf f0bb 15cc ea6c a73f
00000010: b8a8 aa3f d9ab 93bf 3e41 4086 6987 b3bf
00000020: 9b9c 216b 04ea adbf 82c1 dfac f634 ab3f
00000030: 70c3 fdd2 ea37 c03f de81 9c57 6699 a53f
00000040: dccf 3d6e b31c bdbf 60c9 0d94 648f a43f
00000050: 8de0 4f30 faff 9d3f 8f30 f19c 546c ab3f
00000060: 712c 231d 6648 a7bf e6fb 8a9a 83ae b4bf
00000070: f7ad 405d e489 9abf f38d de25 505e a23f
00000080: 4eef 2141 a3ef a23f 46ae 0fb5 658f b53f
00000090: 219a b23c 32ef a23f e56d 9594 5aee 313f
000000a0: 78f1 ab16 caed b7bf 000c a26b 562a a33f
000000b0: e428 ef89 cdc4 a3bf 5d5a b920 2ee8 b1bf
000000c0: 0517 ac28 3fb8 b5bf bfc1 c5c6 c8eb ba3f
000000d0: 82a2 7a15 f4ab a53f 4794 3d5e 2171 b0bf
000000e0: 493d 8ed4 cf57 b73f e6cf b012 ea42 b53f
000000f0: 473d 966f a1ff afbf a75b 981a 54c4 9bbf
00000100: ff75 96aa 1a64 85bf e251 50ef d68a b0bf
00000110: 36b2 d5c8 0fba 7dbf 57b2 6906 ec14 a4bf
00000120: 6f62 3a66 21f4 a4bf 50d2 7170 3493 b43f
00000130: 93ae 391a 2dd3 b73f c42e 4e99 bc6f ad3f
00000140: f3e6 3529 df7f be3f 30ec c808 8e08 76bf
00000150: 199c 83ee 900e aa3f 5bc6 4064 2c7c c13f
00000160: ac59 2c2f 192c 98bf 6dc1 ad70 4be7 cc3f
00000170: 4fb9 f262 705f 943f 5e4a 026e 566d b63f
00000180: 9e19 13a4 3c63 b03f 61e1 0b40 d584 b5bf
00000190: 8c95 9979 6d38 ae3f 12f8 457a bd30 b63f
000001a0: a238 cfb4 5c4b a6bf f997 03c0 d77e 9cbf
000001b0: aee7 3beb c163 b4bf 02a5 aedd 4442 b7bf
000001c0: b453 de7c 4ccb ac3f 5b78 f7da d1df 97bf
000001d0: 4414 2f55 69c4 b3bf 84fe 6c79 4517 b03f
000001e0: 40c5 8fe0 3a22 b63f 1bae a990 7746 a03f
000001f0: f0f3 d4fe a4bd a3bf c174 5706 28d8 aa3f
00000200: 1d25 390d 089f a73f 671e 4c63 128a acbf
00000210: 477d 2d9a ef6b bdbf af3b f12d f4de b23f
00000220: 506e e88a db87 c3bf 9bf6 fe95 5ccd 8c3f
00000230: a319 95ea 5215 b33f b74b d3d4 cfd9 b23f
00000240: f179 0c42 86f5 af3f eaf1 3c12 b12b a4bf
00000250: bc15 0490 0b3b abbf 7cc3 edea 19d3 a4bf
00000260: 4552 50a5 0a09 93bf f755 3308 75b7 ba3f
00000270: bc8b cb50 1861 a2bf 3637 414d 0e5c 76bf
00000280: 443c d9a8 2011 873f 0490 9458 df7c 82bf
00000290: 5134 7961 c907 9b3f d535 cd13 5700 bbbf
000002a0: 664a 0050 00b7 6f3f 8b71 243a 971a 9b3f
000002b0: 5dad e937 f479 b83f ed64 96b6 bbcf 91bf
000002c0: cf41 7a1c 71a0 b33f 6223 f7d2 1e7b aa3f
000002d0: 365a 2f15 eb81 bc3f f854 7d05 4b30 c63f
000002e0: ac46 0b66 9096 9a3f 652b f3c0 f51b b43f
000002f0: 7d35 0531 eb23 ad3f 4118 f5e8 679d b53f
00000300: 75ed bca5 f8b9 903f ca13 9f66 beae 903f
00000310: cce9 5f71 eeea 903f ebd5 c085 e4b5 9ebf
00000320: 7f52 11d8 188f 9dbf 1187 2d4d 03a8 b83f
00000330: 6fc2 0778 8f9e b3bf fa7d 3afb 9dee a13f
00000340: a602 6c32 494f a6bf c210 6c51 5930 a43f
00000350: 7d0a fe76 9863 a4bf b3a9 0779 10c7 96bf
00000360: 2f6f 2caa b732 b0bf dc28 2e89 24c0 84bf
00000370: 2a4a ea28 82b8 87bf b4a4 96a3 f567 bb3f
00000380: dc60 6fb3 7b24 c1bf e02e e909 bef1 9b3f
00000390: 69b2 791d 7b0f 983f 9d53 bd37 fc38 bebf
000003a0: 4c1e 9b53 102a 8c3f ff84 9019 cedd a9bf
000003b0: 701c 0df0 f3c3 bd3f 61f8 4446 ed33 a93f
000003c0: 2d56 743d 1871 bb3f 5c1c e65e 7b21 b8bf
000003d0: ac77 8622 508d 9fbf 319d 072b d731 c1bf
000003e0: 7ef1 d2e0 1742 be3f 9f71 6844 43b7 b6bf
000003f0: 3e88 c67e fc6d 66bf b07d 34fc 5f87 b83f
00000400: 1500 24d8 8e0b bb3f e520 c70b a08b b63f
00000410: 14c8 f609 ed9a a43f d2db b810 d9d9 bfbf
00000420: 321b ba59 0762 b5bf 314b 404a 6d85 c13f
00000430: 5d61 56fa 6852 c53f b68c 1df0 a5fe 93bf
00000440: 7704 74b2 6182 59bf ff29 cca0 a3c3 653f
00000450: 9279 b81d e1e2 b13f f101 97bc 0809 83bf
00000460: dd58 2f87 61cf c83f c512 2fc5 cc65 9a3f
00000470: 6f23 ac9b 0d27 a23f 56d8 f202 de3e b73f
00000480: 7153 b47d e797 9b3f 6473 cda2 4580 c03f
00000490: 972c 6d8e 0640 b5bf 407e a7fb 3f6b babf
000004a0: 9e2c 94de c815 9abf 994a 53a1 b4cb 92bf
000004b0: 426f 8127 1336 7f3f a4ca 7949 74ed afbf
000004c0: debd 5cff 237f b5bf 3a58 503f deca 78bf
000004d0: 8a3d 3346 1577 a03f 9fcb 63aa ebc1 c13f
000004e0: 7997 4b0f 83cc c03f 9f2c 88d9 39af a1bf
000004f0: faa9 54d2 e81c bbbf 4b9d 10f9 0573 aabf
00000500: aa70 3e61 195b bbbf 7b1b 035e 10f8 b53f
00000510: b80f daf2 1a23 a13f 109a b043 0ee6 a5bf
00000520: 4558 1308 3204 ab3f 78f7 1ce9 d13a 983f
00000530: af3b b50a f04c a53f a686 71c5 449b b33f
00000540: 2356 802b 1d47 98bf ee63 fcff 6a81 b1bf
00000550: 01d5 2ea2 1c36 b0bf e2c2 6c7a 2ad8 8fbf
00000560: a4ba 02ca 9575 b4bf 38b6 8817 7aa8 b73f
00000570: 281d 47d0 619f a53f a397 69df cc72 babf
00000580: 29b3 48f3 7ff8 c23f 7959 bb79 8e7d 9d3f
00000590: 1e4a 7db7 d729 7c3f 5cde 7a64 5a66 a4bf
000005a0: cba7 b2fd b328 b3bf b38f 7226 b095 c23f
000005b0: 8035 6c1f 2737 903f 68ba 5921 4773 a43f
000005c0: 11cd 3929 7345 72bf 13ca e8f8 de45 903f
000005d0: 36a4 ca07 ebbb a73f 54d3 4334 50fa c33f
000005e0: 4f0c fb5a c27e a93f 0438 d021 7c12 8bbf
000005f0: d5f8 eff3 12ae a13f 52f4 dfb7 7db0 cc3f
00000600: b9ff 5c2c 3e8a 8fbf ba84 5456 eb31 b5bf
00000610: 9e7d 6c9c e730 b33f 3895 5126 1be7 6cbf
00000620: f3db b45b 4913 b8bf 6132 b1ea 626e ae3f
00000630: ee86 e452 ef88 b23f 2c84 0e9c b6e2 b23f
00000640: 3742 a849 d7ed b1bf e4ca a10a 93a9 aebf
00000650: 0335 fc8b 27aa 9dbf af9f 6eae 5881 b83f
00000660: 60cd 032b c37f b0bf b1be 4d58 2e21 be3f
00000670: 7582 e4b9 ed7a 89bf 299a e7f2 03ed b43f
00000680: 5564 cb05 a5eb bbbf 6330 9a36 4b7e 8d3f
00000690: fc80 ac60 41f0 c0bf 4455 fdd8 db3c bbbf
000006a0: d972 cf0a f23e aa3f 6621 343c ad17 4e3f
000006b0: 6ea9 3d72 cfb8 b53f d5b3 c9ab 6369 a3bf
000006c0: 7824 53fe 36e3 923f b6fb 0c6c e4c2 9b3f
000006d0: 1028 edfc 0f03 a53f 88bd 98a8 8875 b0bf
000006e0: 6c1b cb3c ab3a ac3f dd8e 7835 f4a1 ba3f
000006f0: e462 396c 2083 b9bf cdec b22b 8047 aebf
00000700: dba7 e667 bf89 bb3f b2ad 2e14 49a3 9ebf
00000710: e104 ac21 94a2 823f 8dc2 d184 c072 b3bf
00000720: 2b7e 459a 6aec 96bf e968 a09c b6ad 913f
00000730: 5982 a830 d9d2 b63f e4dd a4d6 bd0b bd3f
00000740: 95cc 3650 75a6 a4bf b139 a627 6178 813f
00000750: 1e8c b8e3 0b74 b73f 74ed 849e 755f 50bf
00000760: b6e3 991f ed06 c73f 2b55 9db8 2c3a c63f
00000770: 8fcc b8ae a1a7 833f deb1 c685 5d65 b23f
00000780: dded f5d0 f0ff af3f 147e b8d4 7142 34bf
00000790: c7d7 f3b8 0c8c a23f 48ef 5586 3537 aabf
000007a0: 837a c832 717a ba3f 1343 0869 f8bd b5bf
000007b0: 4318 e1d3 ed4b c0bf c6fc 2de9 32b8 b6bf
000007c0: 97f1 f1ec 10fb a63f 36a0 e22c 21e7 9d3f
000007d0: 40f8 3cfa 868e b43f 24ae aa52 d1d3 b0bf
000007e0: 4b27 d59d f7d5 66bf 9993 d08a 1543 5d3f
000007f0: 621e d7ee e755 aa3f 8edc fb12 abf8 a73f
-0.0386743599801172 0.04575284711142291 -0.019210237990286955 -0.07628497626888461 -0.058426035001326336 0.053138455012120125 0.1267064600210932 0.04218597239946907
-0.11371919099275324 0.04015650088594458 0.029296788405162522 0.05356087127492614 -0.04547423463517298 -0.08078787348766489 -0.025916641418161714 0.03587580168030149
0.036984540653945616 0.08421931906166788 0.03698117247522626 0.0002736064094130671 -0.09347212842471275 0.037432385100167664 -0.03861086186187082 -0.06994903849531782
-0.08484263174986147 0.1051602826389688 0.042327525731995955 -0.06422623205942656 0.09118365229936844 0.0830522819167637 -0.062497181769794845 -0.02711612140964417
-0.010444839793133374 -0.06461852400418125 -0.007257520349736304 -0.039222121985265694 -0.04092506764317682 0.08037116761426799 0.09306604280726054 0.05749310847667524
0.11913866764180252 -0.005379252263590081 0.05089238082455711 0.1366019715801937 -0.023605721954561495 0.22580855371371503 0.019895320929827872 0.08760585962071718
0.06401423459747099 -0.0840581208575535 0.05902425870298619 0.08668121562183753 -0.04354371745249465 -0.027827616781813422 -0.07964717858331369 -0.09085493480838028
0.05623854660294772 -0.023314742078462163 -0.07721575097737438 0.06285509314056453 0.08645980818234467 0.031787620934519555 -0.038556247813609335 0.052430392049907855
0.04613518868843356 -0.05574090444684714 -0.11492822183708028 0.07371450540197942 -0.15258354456533363 0.01406357128859819 0.07454412676916049 0.07363604494029984
0.06242007786044102 -0.03939584109909673 -0.053184853868553955 -0.04067307465346112 -0.018589178409529578 0.10436183405121101 -0.03589702593105623 -0.005458885065378108
0.011263137009477238 -0.009027237787968552 0.026396891187961128 -0.10547394021451535 0.003871441469536041 0.026468623088577153 0.09561087002810127 -0.017394001979117602
0.0766668982053098 0.05172058415661841 0.11135739581309498 0.17334878700300016 0.025964981296800957 0.07855163536730243 0.05691466306107438 0.08443307340084606
0.016334424129337905 0.016291594518196985 0.01652119223579422 -0.029990740455294967 -0.02886618441364641 0.096313673345801 -0.07663819008281235 0.03502362910989727
-0.04357365360738656 0.039431372822976055 -0.03982235386412911 -0.022243745219307786 -0.06327388672474109 -0.010132108150874002 -0.011582390664703974 0.10705504649981173
-0.13392587911108123 0.027289361338531104 0.02349655501750406 -0.11805702553586035 0.013752105285120518 -0.05052036344592103 0.11627125368714686 0.04922429545193619
0.10719443798401392 -0.09426089350573491 -0.030812503916983466 -0.1343335113626636 0.11819600333087085 -0.08873386783711233 -0.0027379924342350306 0.09581565768575362
0.10564511086340674 0.08806801116509495 0.04024449106817954 -0.12441784532789704 -0.08352704945182834 0.13688436627907088 0.16657745574481 -0.019526093273623167
-0.0015569643090318755 0.0026567645894648435 0.06986815429306706 -0.009294574981027788 0.19382876492335913 0.025778960738324103 0.03545420193956416 0.09080302783954272
0.02694665627230414 0.12891455125182028 -0.08300820328911339 -0.10319900411513405 -0.02547372683060855 -0.018355200144308446 0.007619929143483807 -0.06235850712700611
-0.08397126182966683 -0.006052845147698044 0.03215853197036285 0.13873048610511504 0.13124120947685095 -0.03453999309939459 -0.10590987334277449 -0.05165880837767619
-0.10685881256216825 0.08581640525072302 0.03347095694064656 -0.042770810854836694 0.05276638363436396 0.023661880353067016 0.041602612788316555 0.0765879613914203
-0.02370877817164375 -0.06838101148277051 -0.06332568130058648 -0.01554902254210461 -0.07991920644665612 0.09241450380860605 0.04223161380246615 -0.10331421331792838
0.148208612242706 0.028799272708817967 0.006875841754509197 -0.03984339214860874 -0.07483982986255382 0.1451931178791007 0.015835391323937298 0.039942000218492535
-0.0044607637861304875 0.015891536657543236 0.04635557623016277 0.15607645561217487 0.04979522095302313 -0.013218850881482787 0.034531204488290314 0.22413608053458006
-0.015400396088466427 -0.08279295785588917 0.07496497696819523 -0.0035281687037690655 -0.09404428948333514 0.059435931347796574 0.07240196012255826 0.07377187070825703
-0.07003541515610655 -0.05988749985490019 -0.028969400328652927 0.09572366961094646 -0.0644494991318445 0.11769380241252737 -0.012441498980991764 0.08174156837740355
-0.10906440154521253 0.01440104256041525 -0.13233201237108705 -0.10639738128277992 0.05126148588144525 0.0009183498263221456 0.084851231947743 -0.03791343185444133
0.01844488074565162 0.027110642523662874 0.04103898966293695 -0.06429342380646663 0.05513510815722253 0.10403372102205873 -0.09965708391372236 -0.059139256796208885
0.10757061278005102 -0.029919759613830706 0.009099156644426678 -0.07596972696934241 -0.022386232057554672 0.017264226255158475 0.08915479124017035 0.11346041193325324
-0.040332475702052374 0.008530386946202425 0.09161447820274346 -0.000999321806445544 0.1798988727857968 0.1736503507078536 0.009597075600231512 0.07185921207446408
0.06249954748906437 -0.00030913619113623445 0.03622474439354977 -0.051202461861036996 0.10343081941435099 -0.08492996753944863 -0.12731716962497516 -0.08874815171110403
0.044884232448541166 0.0292020019193446 0.08029979333238746 -0.06573208111029111 -0.0027875744114326576 0.001786013638828998 0.051436660676299054 0.04681906325088746
