exp/data_checkpoints/65767/checkpoint.pth (torch, 72377 bytes, 114 tensors)

inv_timescales f8 [1]
0	0x3ff0000000000000	1.0

blocks1.SCINet_Tree.workingblock.interact.level.phi.1.weight f8 [1, 1, 5]
0	0xbfc0f8a038794c99	-0.1325874591590022
1	0xbfde20bc47f6e63d	-0.47074801471498856
2	0x3fb0e939650219d6	0.06605871883412048
3	0x3fc7fb8bfcb06c01	0.1873640998681765
4	0x3fbcbb696509358c	0.11223467556665961

blocks1.SCINet_Tree.workingblock.interact.level.phi.1.bias f8 [1]
0	0xbf9a802a6b2a9fbd	-0.02587953833668143

blocks1.SCINet_Tree.workingblock.interact.level.phi.4.weight f8 [1, 1, 3]
0	0x3fb5145ce615ddd6	0.08234196297950488
1	0xbfd32b95e65be4c6	-0.29953525062553543
2	0x3fb60b20fab2542c	0.08610731239817032

blocks1.SCINet_Tree.workingblock.interact.level.phi.4.bias f8 [1]
0	0xbfe82be6a88e5850	-0.7553590099439678

blocks1.SCINet_Tree.workingblock.interact.level.psi.1.weight f8 [1, 1, 5]
0	0x3fa1987309120e21	0.03436622129177303
1	0x3f3ed5cd1572b21f	0.00047050721100097727
2	0xbfc0ea60342e8a53	-0.13215258167209018
3	0xbf944cd697156f82	-0.019824364634913667
4	0x3fdc06d5503ed4ff	0.43791706882923614

blocks1.SCINet_Tree.workingblock.interact.level.psi.1.bias f8 [1]
0	0x3fbb90e917dd3f34	0.10767990906356034

blocks1.SCINet_Tree.workingblock.interact.level.psi.4.weight f8 [1, 1, 3]
0	0xbfe26c9a6a596615	-0.5757572247632107
1	0xbf9a6fe7a665be8d	-0.02581750825032585
2	0xbfd5ae3525e4ebd8	-0.33875778866393835

blocks1.SCINet_Tree.workingblock.interact.level.psi.4.bias f8 [1]
0	0xbfeaec8571a81d99	-0.841372224794145

blocks1.SCINet_Tree.workingblock.interact.level.P.1.weight f8 [1, 1, 5]
0	0xbfd1d32f81ea7d8e	-0.2785147446356512
1	0x3fc1939dcf105192	0.13731739626440437
2	0x3fd1b7eefefb34dc	0.276851414685394
3	0xbfcc1c15185beffb	-0.21960700692568466
4	0x3fcb72c15fd3312e	0.2144395559211118

blocks1.SCINet_Tree.workingblock.interact.level.P.1.bias f8 [1]
0	0xbfacb550a0e7073f	-0.05607082332745827

blocks1.SCINet_Tree.workingblock.interact.level.P.4.weight f8 [1, 1, 3]
0	0xbfc81dc134b14e21	-0.1884080416954115
1	0x3fdab8fbf3fd64f9	0.41754053904658367
2	0xbfa0693fd811fc3c	-0.03205298912597995

blocks1.SCINet_Tree.workingblock.interact.level.P.4.bias f8 [1]
0	0xbfd4790a79b0dc0c	-0.31988775142548387

blocks1.SCINet_Tree.workingblock.interact.level.U.1.weight f8 [1, 1, 5]
0	0x3fc9316ce980c5de	0.196820844664713
1	0xbfc579df93391a8f	-0.16778177918077516
2	0x3fdb962e3e386ee5	0.431041298639441
3	0xbfcb772b9c6c43d9	-0.21457429063641945
4	0x3fd8a112d8e8396a	0.38483115370117693

blocks1.SCINet_Tree.workingblock.interact.level.U.1.bias f8 [1]
0	0xbfd81e5ef1762292	-0.3768536909124488

blocks1.SCINet_Tree.workingblock.interact.level.U.4.weight f8 [1, 1, 3]
0	0x3f86fcbfdaedcf6d	0.011224268788033698
1	0xbfe327d9d68ac298	-0.5986146154665049
2	0xbfd8f2a6caa10646	-0.38981027400959467

blocks1.SCINet_Tree.workingblock.interact.level.U.4.bias f8 [1]
0	0x3fc084e92d50da8b	0.12905611717879525

blocks1.SCINet_Tree.SCINet_Tree_odd.workingblock.interact.level.phi.1.weight f8 [1, 1, 5]
0	0xbfd35a5e53e00764	-0.3023906535237215
1	0x3fb3c367305f13d5	0.07720036440794271
2	0x3f8051052155be24	0.007967033462335023
3	0x3fc41df15eb615de	0.1571637833077792
4	0xbfc3e4bc79ee065a	-0.15541797593691592

blocks1.SCINet_Tree.SCINet_Tree_odd.workingblock.interact.level.phi.1.bias f8 [1]
0	0xbfb827a1bd28e881	-0.0943547331634438

blocks1.SCINet_Tree.SCINet_Tree_odd.workingblock.interact.level.phi.4.weight f8 [1, 1, 3]
0	0x3fd106ff9d2377a2	0.26605215402184446
1	0xbfaf98ce23e7f24e	-0.06171268642717519
2	0xbfd2181c3a05c4bb	-0.2827215735079098

blocks1.SCINet_Tree.SCINet_Tree_odd.workingblock.interact.level.phi.4.bias f8 [1]
0	0xbfd888913aa2f411	-0.3833354065535

blocks1.SCINet_Tree.SCINet_Tree_odd.workingblock.interact.level.psi.1.weight f8 [1, 1, 5]
0	0x3f97fc7ba42c7e64	0.023424083609937432
1	0xbfd64e418b083b36	-0.34852636887892474
2	0xbfa270bf172d90c8	-0.036016437129349266
3	0x3fc7528d370fa0b4	0.18220677555587417
4	0x3fd481996615de6d	0.32041010827331357

blocks1.SCINet_Tree.SCINet_Tree_odd.workingblock.interact.level.psi.1.bias f8 [1]
0	0xbfce0fa0d3ed16b6	-0.2348519358439966

blocks1.SCINet_Tree.SCINet_Tree_odd.workingblock.interact.level.psi.4.weight f8 [1, 1, 3]
0	0xbfcd4ee4b2f2ef1a	-0.22897013414137107
1	0xbfd5630417a98005	-0.3341684561801233
2	0x3fd0e592f0ebf5f9	0.26401208426963724

blocks1.SCINet_Tree.SCINet_Tree_odd.workingblock.interact.level.psi.4.bias f8 [1]
0	0xbfe76fed8180a229	-0.7324130563111498

blocks1.SCINet_Tree.SCINet_Tree_odd.workingblock.interact.level.P.1.weight f8 [1, 1, 5]
0	0xbfc187c77d9f71d7	-0.13695615419318471
1	0xbfdcdb618c823b2b	-0.45088995667986137
2	0xbfe07c7b316c75b8	-0.5151954617792205
3	0x3fcedd574b052db4	0.24112979090783215
4	0x3fcedb38c1c3b301	0.24106511555819313

blocks1.SCINet_Tree.SCINet_Tree_odd.workingblock.interact.level.P.1.bias f8 [1]
0	0xbfb064f04c6055a6	-0.06404020180374079

blocks1.SCINet_Tree.SCINet_Tree_odd.workingblock.interact.level.P.4.weight f8 [1, 1, 3]
0	0xbfd7ee823c523635	-0.37393241778122227
1	0xbfd9e0747f93ded0	-0.404324650371092
2	0x3f7da4b17ff4d2cf	0.00723714195128329

blocks1.SCINet_Tree.SCINet_Tree_odd.workingblock.interact.level.P.4.bias f8 [1]
0	0xbfb1c971ab47f261	-0.06948004180589741

blocks1.SCINet_Tree.SCINet_Tree_odd.workingblock.interact.level.U.1.weight f8 [1, 1, 5]
0	0xbfd479b40aef526a	-0.31992817943436214
1	0xbfda31fd30f77a1a	-0.4093010881605622
2	0x3fd4f3b7e53826c8	0.3273753870458731
3	0x3f97c9439b5f0c90	0.02322869907198971
4	0xbf84bc4c02b25ebb	-0.010124772865580103

blocks1.SCINet_Tree.SCINet_Tree_odd.workingblock.interact.level.U.1.bias f8 [1]
0	0xbfd65b4040b12150	-0.3493195182568529

blocks1.SCINet_Tree.SCINet_Tree_odd.workingblock.interact.level.U.4.weight f8 [1, 1, 3]
0	0xbfd61ca86b625f5b	-0.34549913870568155
1	0x3fa6844c74d91fd3	0.0439781086575405
2	0x3fe49a8ec835f482	0.6438669119230698

blocks1.SCINet_Tree.SCINet_Tree_odd.workingblock.interact.level.U.4.bias f8 [1]
0	0xbfd10aced593b4a5	-0.2662846646988533

blocks1.SCINet_Tree.SCINet_Tree_odd.SCINet_Tree_odd.workingblock.interact.level.phi.1.weight f8 [1, 1, 5]
0	0xbfd1efd8d9023818	-0.2802641028619077
1	0xbfbe9aab258a0ad8	-0.1195475546501642
2	0x3fd229d6de119de5	0.28380366979987875
3	0xbfd9fb706c4d08a3	-0.40597162796269454
4	0xbfb077176bda9463	-0.06431719191694323

blocks1.SCINet_Tree.SCINet_Tree_odd.SCINet_Tree_odd.workingblock.interact.level.phi.1.bias f8 [1]
0	0xbfc0a0d691ebc203	-0.12990839123769157

blocks1.SCINet_Tree.SCINet_Tree_odd.SCINet_Tree_odd.workingblock.interact.level.phi.4.weight f8 [1, 1, 3]
0	0xbfbe6d9c8c7938dc	-0.11886003903893844
1	0xbfd7cd6dcd03f3c9	-0.3719133855918782
2	0x3fc93c6950e6ca90	0.19715610933561267

blocks1.SCINet_Tree.SCINet_Tree_odd.SCINet_Tree_odd.workingblock.interact.level.phi.4.bias f8 [1]
0	0xbfdbb62aa790fdec	-0.4329935680761696

blocks1.SCINet_Tree.SCINet_Tree_odd.SCINet_Tree_odd.workingblock.interact.level.psi.1.weight f8 [1, 1, 5]
0	0xbfc729be9fb47626	-0.18096144483654192
1	0xbfc8ee6a1939439b	-0.19477583152413733
2	0x3fcc64e4c7972af9	0.2218290304720865
3	0xbfe103ca69ac8072	-0.531712728876313
4	0xbfb1f3f84c6b5465	-0.07012893548683648

blocks1.SCINet_Tree.SCINet_Tree_odd.SCINet_Tree_odd.workingblock.interact.level.psi.1.bias f8 [1]
0	0xbfd27b87f982e856	-0.2887897431024887

blocks1.SCINet_Tree.SCINet_Tree_odd.SCINet_Tree_odd.workingblock.interact.level.psi.4.weight f8 [1, 1, 3]
0	0xbfd69f71a3d14a5e	-0.35348168371016253
1	0x3f7ff192508c7b4b	0.007798739949776155
2	0x3fe24e898d1b5d44	0.5720870738977415

blocks1.SCINet_Tree.SCINet_Tree_odd.SCINet_Tree_odd.workingblock.interact.level.psi.4.bias f8 [1]
0	0xbfe264c941bbb9bf	-0.5748029979566168

blocks1.SCINet_Tree.SCINet_Tree_odd.SCINet_Tree_odd.workingblock.interact.level.P.1.weight f8 [1, 1, 5]
0	0xbfb118bfafab7359	-0.06678388632594813
1	0xbfc1b003126034f3	-0.13818395993477103
2	0xbf8c3585959766f9	-0.013773959758441633
3	0xbfd468a81d3a603e	-0.3188877377920142
4	0xbfd67fe49da7fca8	-0.3515559711085623

blocks1.SCINet_Tree.SCINet_Tree_odd.SCINet_Tree_odd.workingblock.interact.level.P.1.bias f8 [1]
0	0xbfd22d8d517c1aad	-0.2840302749395203

blocks1.SCINet_Tree.SCINet_Tree_odd.SCINet_Tree_odd.workingblock.interact.level.P.4.weight f8 [1, 1, 3]
0	0xbfc3c69f7de790cc	-0.15449899337466488
1	0x3fdbbe5ead819b6a	0.4334942526242488
2	0xbfd77805e77b42c1	-0.36670062642683027

blocks1.SCINet_Tree.SCINet_Tree_odd.SCINet_Tree_odd.workingblock.interact.level.P.4.bias f8 [1]
0	0x3fcfbfa92367873b	0.24803652027827092

blocks1.SCINet_Tree.SCINet_Tree_odd.SCINet_Tree_odd.workingblock.interact.level.U.1.weight f8 [1, 1, 5]
0	0x3fd2b8c1762e1b02	0.29252659359956124
1	0xbfc1510d56229b34	-0.1352860136587083
2	0x3fd583dc60b093ce	0.3361731476055042
3	0x3f81441521d368d2	0.008430638403684663
4	0xbfbd2b712ddaf494	-0.11394412393106484

blocks1.SCINet_Tree.SCINet_Tree_odd.SCINet_Tree_odd.workingblock.interact.level.U.1.bias f8 [1]
0	0xbf958fa9f9600bbc	-0.021055847020771998

blocks1.SCINet_Tree.SCINet_Tree_odd.SCINet_Tree_odd.workingblock.interact.level.U.4.weight f8 [1, 1, 3]
0	0xbfd126a87f6e983c	-0.2679845089390971
1	0xbfd390c163225fe9	-0.30571016961175573
2	0xbfd107e9ead66701	-0.26610801633215436

blocks1.SCINet_Tree.SCINet_Tree_odd.SCINet_Tree_odd.workingblock.interact.level.U.4.bias f8 [1]
0	0xbf9a7f55e921fd87	-0.025876371721549354

blocks1.SCINet_Tree.SCINet_Tree_odd.SCINet_Tree_even.workingblock.interact.level.phi.1.weight f8 [1, 1, 5]
0	0x3fd3c2b56f7c4c00	0.30875907790431256
1	0x3fd76a87c111101a	0.36587709287801007
2	0x3fddd25cfb9c93c5	0.4659645516533682
3	0x3fb68b61555eb015	0.0880642732069535
4	0x3fc70d99cb21e035	0.18010256212778733

blocks1.SCINet_Tree.SCINet_Tree_odd.SCINet_Tree_even.workingblock.interact.level.phi.1.bias f8 [1]
0	0xbfb44e63a23ce9d3	-0.07932112418067243

blocks1.SCINet_Tree.SCINet_Tree_odd.SCINet_Tree_even.workingblock.interact.level.phi.4.weight f8 [1, 1, 3]
0	0xbfc867cfc09de1d4	-0.19066807656396512
1	0xbfdf476a6e4f4e62	-0.4887338711971322
2	0xbfdefd532b75798b	-0.4842117237475569

blocks1.SCINet_Tree.SCINet_Tree_odd.SCINet_Tree_even.workingblock.interact.level.phi.4.bias f8 [1]
0	0xbf87d21c2fdfe1f3	-0.011631221972479877

blocks1.SCINet_Tree.SCINet_Tree_odd.SCINet_Tree_even.workingblock.interact.level.psi.1.weight f8 [1, 1, 5]
0	0x3fde5faa7a8fc5ce	0.4745889851465933
1	0x3fc89f9ed4ea62cd	0.19237122913616247
2	0x3faf4502f70e54f0	0.06107339158840286
3	0x3fd2327b15941714	0.2843311033942524
4	0x3fa871a686c104a0	0.04774208445497519

blocks1.SCINet_Tree.SCINet_Tree_odd.SCINet_Tree_even.workingblock.interact.level.psi.1.bias f8 [1]
0	0x3fd82e8f83a971dc	0.37784183366400526

blocks1.SCINet_Tree.SCINet_Tree_odd.SCINet_Tree_even.workingblock.interact.level.psi.4.weight f8 [1, 1, 3]
0	0xbfe5ee5da1482356	-0.6853473806414552
1	0xbfe583aa8962818d	-0.6723225291535059
2	0xbfc3953e539b4afa	-0.1529920490489401

blocks1.SCINet_Tree.SCINet_Tree_odd.SCINet_Tree_even.workingblock.interact.level.psi.4.bias f8 [1]
0	0xbfc4ff49496f81de	-0.16404071889611677

blocks1.SCINet_Tree.SCINet_Tree_odd.SCINet_Tree_even.workingblock.interact.level.P.1.weight f8 [1, 1, 5]
0	0x3fe2dc652106dac9	0.5894036908201424
1	0x3fc5b0f8585d42ea	0.16946319880164334
2	0xbfb55421393ed026	-0.08331496856300244
3	0xbfbba437a01570f2	-0.10797450693411628
4	0x3fc69abc1f4800c0	0.17659713294415802

blocks1.SCINet_Tree.SCINet_Tree_odd.SCINet_Tree_even.workingblock.interact.level.P.1.bias f8 [1]
0	0xbfb45a801a20030f	-0.07950592649286768

blocks1.SCINet_Tree.SCINet_Tree_odd.SCINet_Tree_even.workingblock.interact.level.P.4.weight f8 [1, 1, 3]
0	0x3fe499aa8670b58a	0.6437580705439114
1	0x3fe193b17ad77840	0.5492789649249588
2	0x3fe46d5bb595a451	0.6383493944714563

blocks1.SCINet_Tree.SCINet_Tree_odd.SCINet_Tree_even.workingblock.interact.level.P.4.bias f8 [1]
0	0xbfd0f9604dbd4b5b	-0.26522071449033086

blocks1.SCINet_Tree.SCINet_Tree_odd.SCINet_Tree_even.workingblock.interact.level.U.1.weight f8 [1, 1, 5]
0	0xbfdeb1ca7fabd768	-0.479601502112351
1	0xbf9cbceaa7436edf	-0.028064409693668742
2	0x3fd62c1f118e0cd7	0.3464429542002114
3	0x3fd24afa9876f4d9	0.2858263482010677
4	0xbfd501f5a54f5472	-0.32824460166495506

blocks1.SCINet_Tree.SCINet_Tree_odd.SCINet_Tree_even.workingblock.interact.level.U.1.bias f8 [1]
0	0x3f978b7f67f60d65	0.02299307891872839

blocks1.SCINet_Tree.SCINet_Tree_odd.SCINet_Tree_even.workingblock.interact.level.U.4.weight f8 [1, 1, 3]
0	0x3fcb3c4d45afcc3e	0.2127777662531986
1	0xbfb4b647c63521e1	-0.08090637768794508
2	0x3fd147689c50222d	0.2699834372038222

blocks1.SCINet_Tree.SCINet_Tree_odd.SCINet_Tree_even.workingblock.interact.level.U.4.bias f8 [1]
0	0x3fb3a5e02175a63b	0.07674980942615488

blocks1.SCINet_Tree.SCINet_Tree_even.workingblock.interact.level.phi.1.weight f8 [1, 1, 5]
0	0x3fd855931f1ca12e	0.38022306478753165
1	0x3fb1177e6572cd48	0.06676473595398591
2	0x3fce1a960aace7ac	0.2351863433958078
3	0x3fb70b152109e32a	0.09001285606963152
4	0x3fc1084705f78c10	0.13306510726315013

blocks1.SCINet_Tree.SCINet_Tree_even.workingblock.interact.level.phi.1.bias f8 [1]
0	0x3fc80a2f706a7bbb	0.1878108309656151

blocks1.SCINet_Tree.SCINet_Tree_even.workingblock.interact.level.phi.4.weight f8 [1, 1, 3]
0	0xbfcf9475b5384ff8	-0.24671813343650206
1	0xbfc97bc29b9c5edb	-0.19908936117348372
2	0xbfd1b34d071ad1d5	-0.2765686578161682

blocks1.SCINet_Tree.SCINet_Tree_even.workingblock.interact.level.phi.4.bias f8 [1]
0	0xbfc2dad23734bb59	-0.1473028916893451

blocks1.SCINet_Tree.SCINet_Tree_even.workingblock.interact.level.psi.1.weight f8 [1, 1, 5]
0	0x3fcb99605f983a2c	0.2156181780596439
1	0x3fb82c14310f036a	0.0944225902340016
2	0x3fcc6929c8d97d17	0.22195932681186356
3	0xbfd8ad5963af0836	-0.3855803941224879
4	0x3fbf37c77393d93d	0.12194487163273933

blocks1.SCINet_Tree.SCINet_Tree_even.workingblock.interact.level.psi.1.bias f8 [1]
0	0xbfd2f447f32955d6	-0.2961597323058788

blocks1.SCINet_Tree.SCINet_Tree_even.workingblock.interact.level.psi.4.weight f8 [1, 1, 3]
0	0x3fd1dd452127f195	0.27913025129216723
1	0xbfd614e8e5f0bb37	-0.34502623038399655
2	0xbfc7ade69133f612	-0.18499452676762523

blocks1.SCINet_Tree.SCINet_Tree_even.workingblock.interact.level.psi.4.bias f8 [1]
0	0xbfdfc465491fd072	-0.49636203900377673

blocks1.SCINet_Tree.SCINet_Tree_even.workingblock.interact.level.P.1.weight f8 [1, 1, 5]
0	0xbfc9c3f9f871fe6e	-0.20129322653882603
1	0xbfd639bd3697f64b	-0.34727411586195406
2	0xbfd330ff0653866b	-0.2998654901294688
3	0x3fdd35d5aea6be82	0.4564108090953384
4	0x3fc5a0e66054a0a5	0.16897277549401682

blocks1.SCINet_Tree.SCINet_Tree_even.workingblock.interact.level.P.1.bias f8 [1]
0	0xbfcf81b3e0846a70	-0.24614571058994583

blocks1.SCINet_Tree.SCINet_Tree_even.workingblock.interact.level.P.4.weight f8 [1, 1, 3]
0	0x3fd5509baa975caf	0.33304492625525034
1	0x3fb14c7e0cd9159b	0.06757343114539653
2	0xbfcf6022d28fb1d8	-0.2451213386660942

blocks1.SCINet_Tree.SCINet_Tree_even.workingblock.interact.level.P.4.bias f8 [1]
0	0xbfe20f3fc10e0643	-0.564361455021022

blocks1.SCINet_Tree.SCINet_Tree_even.workingblock.interact.level.U.1.weight f8 [1, 1, 5]
0	0x3fca6be79d8958b5	0.2064179915639152
1	0xbfb7e6a265f54a40	-0.09336295117581361
2	0x3fdec954a0c2e15e	0.481038243287477
3	0x3fc2fd8f91f984c0	0.14836306216878903
4	0xbfae1e77ac9a0489	-0.05882619840577614

blocks1.SCINet_Tree.SCINet_Tree_even.workingblock.interact.level.U.1.bias f8 [1]
0	0xbfceb6f18d66ec20	-0.23995799450298794

blocks1.SCINet_Tree.SCINet_Tree_even.workingblock.interact.level.U.4.weight f8 [1, 1, 3]
0	0xbfe39c80618a09c4	-0.6128541855871892
1	0x3f8b04e773ebf50e	0.013192947602414875
2	0xbfd562b82e748b7f	-0.334150357595881

blocks1.SCINet_Tree.SCINet_Tree_even.workingblock.interact.level.U.4.bias f8 [1]
0	0xbfc8afaa2d0876f1	-0.1928608627212536

blocks1.SCINet_Tree.SCINet_Tree_even.SCINet_Tree_odd.workingblock.interact.level.phi.1.weight f8 [1, 1, 5]
0	0xbfd7516ca52cf568	-0.3643447506945763
1	0xbfc98ffd69902710	-0.19970672277877854
2	0xbfbb3bbec05fedcf	-0.10638038822792527
3	0xbfd3e727714cd25c	-0.31098352493726167
4	0x3fde6521eefd8e71	0.47492264117156596

blocks1.SCINet_Tree.SCINet_Tree_even.SCINet_Tree_odd.workingblock.interact.level.phi.1.bias f8 [1]
0	0x3fc54ba793fa9052	0.16637129521871202

blocks1.SCINet_Tree.SCINet_Tree_even.SCINet_Tree_odd.workingblock.interact.level.phi.4.weight f8 [1, 1, 3]
0	0xbfb1cf4ed6275414	-0.06956951835975672
1	0xbfddf994fc4fcbdd	-0.46835827483954323
2	0x3fa17df16b7c0e72	0.03416399418895545

blocks1.SCINet_Tree.SCINet_Tree_even.SCINet_Tree_odd.workingblock.interact.level.phi.4.bias f8 [1]
0	0xbfe26b2ac263cd03	-0.5755819126774501

blocks1.SCINet_Tree.SCINet_Tree_even.SCINet_Tree_odd.workingblock.interact.level.psi.1.weight f8 [1, 1, 5]
0	0xbfd84bf1494db069	-0.37963516386549273
1	0xbfd67684404ca5bb	-0.35098367957342774
2	0xbfb97981b7d0ca65	-0.09951029527364026
3	0x3fcf99ffc2d51d37	0.2468871785479025
4	0x3fc47e2a4e76c7d2	0.1601002581715521

blocks1.SCINet_Tree.SCINet_Tree_even.SCINet_Tree_odd.workingblock.interact.level.psi.1.bias f8 [1]
0	0xbfd234b68c6ba59e	-0.2844673510831742

blocks1.SCINet_Tree.SCINet_Tree_even.SCINet_Tree_odd.workingblock.interact.level.psi.4.weight f8 [1, 1, 3]
0	0x3fb653740e592198	0.08721089697167483
1	0xbfd685d425f51aa0	-0.35191825587063796
2	0x3fc264b08d04a65f	0.14369780431416054

blocks1.SCINet_Tree.SCINet_Tree_even.SCINet_Tree_odd.workingblock.interact.level.psi.4.bias f8 [1]
0	0xbfe3400384b33836	-0.6015641776846283

blocks1.SCINet_Tree.SCINet_Tree_even.SCINet_Tree_odd.workingblock.interact.level.P.1.weight f8 [1, 1, 5]
0	0x3fd4a23a9fcde9cd	0.3224016724194854
1	0xbfd12007204ba3be	-0.2675798240075514
2	0xbfa43ab4f1322adc	-0.03951039737974835
3	0x3fc7135a142123be	0.18027807219394093
4	0xbfd5b921598dd5d7	-0.33942445512306335

blocks1.SCINet_Tree.SCINet_Tree_even.SCINet_Tree_odd.workingblock.interact.level.P.1.bias f8 [1]
0	0xbfaadd37308830f8	-0.05246899096900565

blocks1.SCINet_Tree.SCINet_Tree_even.SCINet_Tree_odd.workingblock.interact.level.P.4.weight f8 [1, 1, 3]
0	0x3fe1582accfdc5a7	0.5420125964866899
1	0xbfd6174b1f7de083	-0.3451717193161203
2	0x3fbc8a25626dcae8	0.11148294117974056

blocks1.SCINet_Tree.SCINet_Tree_even.SCINet_Tree_odd.workingblock.interact.level.P.4.bias f8 [1]
0	0x3fdbfd314100c101	0.4373286375803361

blocks1.SCINet_Tree.SCINet_Tree_even.SCINet_Tree_odd.workingblock.interact.level.U.1.weight f8 [1, 1, 5]
0	0xbfbbe9c56f558b7a	-0.10903581588858727
1	0xbfbbc988ae99feb0	-0.10854391348584147
2	0xbfc0575573c1901d	-0.1276652159896238
3	0xbfb12582cbc667b5	-0.06697862124420235
4	0x3fa0812a87c5abfa	0.0322354593980307

blocks1.SCINet_Tree.SCINet_Tree_even.SCINet_Tree_odd.workingblock.interact.level.U.1.bias f8 [1]
0	0x3fb1ea7557387f1d	0.06998380069171302

blocks1.SCINet_Tree.SCINet_Tree_even.SCINet_Tree_odd.workingblock.interact.level.U.4.weight f8 [1, 1, 3]
0	0x3fb83d7e7ff035cc	0.0946883261060158
1	0x3fcaeb522a81faff	0.2103064258153253
2	0x3fc1cb51bc8d7129	0.13901731211343218

blocks1.SCINet_Tree.SCINet_Tree_even.SCINet_Tree_odd.workingblock.interact.level.U.4.bias f8 [1]
0	0xbfd168a184ebb68b	-0.2720111654333343

blocks1.SCINet_Tree.SCINet_Tree_even.SCINet_Tree_even.workingblock.interact.level.phi.1.weight f8 [1, 1, 5]
0	0xbfd83607f75698e9	-0.3782977977192688
1	0x3fbc7beedc7baec6	0.11126606829537442
2	0x3fd3ce6e1d693687	0.3094744956223185
3	0x3fd01215664119eb	0.2511037348344007
4	0x3fb12034c20ba56e	0.06689767587126536

blocks1.SCINet_Tree.SCINet_Tree_even.SCINet_Tree_even.workingblock.interact.level.phi.1.bias f8 [1]
0	0x3fc3186df0af312d	0.14918302776494255

blocks1.SCINet_Tree.SCINet_Tree_even.SCINet_Tree_even.workingblock.interact.level.phi.4.weight f8 [1, 1, 3]
0	0xbfe8f6e69bcbc548	-0.7801392596140113
1	0xbfd840e5f60c873c	-0.37896107700554515
2	0xbf9141472770a94f	-0.01685057810042539

blocks1.SCINet_Tree.SCINet_Tree_even.SCINet_Tree_even.workingblock.interact.level.phi.4.bias f8 [1]
0	0xbfd0f5d2d5ab74df	-0.26500388017832494

blocks1.SCINet_Tree.SCINet_Tree_even.SCINet_Tree_even.workingblock.interact.level.psi.1.weight f8 [1, 1, 5]
0	0xbfb8bcd000ecb285	-0.09663105032513826
1	0x3fcc5ec84ba6647c	0.22164252942892293
2	0xbfc4e61b7265ca0a	-0.16327231489010813
3	0xbf97849a901419b5	-0.02296678070435983
4	0xbfd123a502308a91	-0.26780057157353904

blocks1.SCINet_Tree.SCINet_Tree_even.SCINet_Tree_even.workingblock.interact.level.psi.1.bias f8 [1]
0	0xbfd52a0dc38166b9	-0.3306917580826894

blocks1.SCINet_Tree.SCINet_Tree_even.SCINet_Tree_even.workingblock.interact.level.psi.4.weight f8 [1, 1, 3]
0	0x3fd87b04f04b4585	0.38250850168432066
1	0xbfd5888c8ca29189	-0.3364592908276554
2	0x3fe3dec9b98e186d	0.6209457992670316

blocks1.SCINet_Tree.SCINet_Tree_even.SCINet_Tree_even.workingblock.interact.level.psi.4.bias f8 [1]
0	0xbfecfc1c7d8c165a	-0.9057753040403427

blocks1.SCINet_Tree.SCINet_Tree_even.SCINet_Tree_even.workingblock.interact.level.P.1.weight f8 [1, 1, 5]
0	0xbfa865ca1ff40eac	-0.04765159263663796
1	0x3fd1775b9e4bdcfa	0.2729100271094037
2	0xbfd53043c5186769	-0.33107084510412804
3	0x3fa1b8d909f46a84	0.03461340185659359
4	0x3fc5f46bba0bf04b	0.17152163109119764

blocks1.SCINet_Tree.SCINet_Tree_even.SCINet_Tree_even.workingblock.interact.level.P.1.bias f8 [1]
0	0x3f96d88402738a00	0.02231031670533845

blocks1.SCINet_Tree.SCINet_Tree_even.SCINet_Tree_even.workingblock.interact.level.P.4.weight f8 [1, 1, 3]
0	0x3f9b679396409250	0.026762300534885874
1	0xbf7b1032b32b5665	-0.006607244535833699
2	0xbf8c9e438e56d038	-0.01397373941549783

blocks1.SCINet_Tree.SCINet_Tree_even.SCINet_Tree_even.workingblock.interact.level.P.4.bias f8 [1]
0	0x3f819b404b3a2e4b	0.00859689931464582

blocks1.SCINet_Tree.SCINet_Tree_even.SCINet_Tree_even.workingblock.interact.level.U.1.weight f8 [1, 1, 5]
0	0xbfb2555be3718a97	-0.07161497404880844
1	0x3fc36fb94ecb13ab	0.1518470415814169
2	0xbfcbee186dd02464	-0.2182035957523879
3	0x3f86fc93a2f8e56d	0.011223939333933253
4	0xbfc6f59e6e25a44b	-0.1793706929995856

blocks1.SCINet_Tree.SCINet_Tree_even.SCINet_Tree_even.workingblock.interact.level.U.1.bias f8 [1]
0	0xbfd70d4d081b5b5d	-0.3601868228119452

blocks1.SCINet_Tree.SCINet_Tree_even.SCINet_Tree_even.workingblock.interact.level.U.4.weight f8 [1, 1, 3]
0	0xbfd0c55f7c1b21c5	-0.2620466911289692
1	0x3fd6d7176fab128a	0.35687814622023295
2	0x3fc4e8787a0950cf	0.16334444006736823

blocks1.SCINet_Tree.SCINet_Tree_even.SCINet_Tree_even.workingblock.interact.level.U.4.bias f8 [1]
0	0x3fcdf801ba11e006	0.2341310652298036

projection1.weight f8 [24, 48, 1]
0	0x3f441cebdd0c26a0	0.0006137992550929346
1	0xbfa169014aaeefbd	-0.03400424992238935
2	0x3fb5dc4b39d9ef35	0.08539266741166503
3	0xbfa09779d4c17194	-0.03240566942324388
4	0x3f701b916ce77bf8	0.003932540958401447
5	0x3f977129fb871012	0.02289262387945718
6	0xbfa9688f0d4e2337	-0.04962584531228347
7	0x3f8ca6458f8a0dba	0.013989013140650697
8	0x3f7d0f39aa7f6ea3	0.007094598062362375
9	0x3f9c84c3bea480ad	0.027850206862354444
10	0x3f6b91172d2fabfb	0.003365082995050892
11	0xbf7848af880fddb5	-0.005928693456545832
12	0xbf86c0f00dc23bec	-0.011110186977274915
13	0x3f74030bee114057	0.004885717965478951
14	0x3f8f670f00ad97d3	0.015333287437623888
15	0x3fa6560d9da82795	0.043625283713551934
16	0xbf9c6a0d72ed03fc	-0.027748308314816214
17	0x3fa26dde442e6d4f	0.03599447805683075
18	0x3f8701b79dfaf63c	0.01123374415271449
19	0xbf7550ddfa0fb746	-0.005204073998340613
20	0xbf8379e5f9a47d70	-0.009509846383081139
21	0x3f8fddc7420ae407	0.015559727385481293
22	0xbfb6a86a08f26cd5	-0.08850729673797571
23	0x3fac179bb744a958	0.05486761676941637
24	0x3f72e6fef280ee2c	0.0046148260954015745
25	0xbf90d4d9538bc507	-0.016436954235307357
26	0x3f893b7262a35fac	0.012320417056272813
27	0xbf98c7af3dfa441a	-0.02419923606663952
28	0x3fb00717119334b5	0.06260818652227125
29	0xbf80bcdabb068a9a	-0.008172711212698847
30	0xbf428e735fd2817f	-0.0005662978507139786
31	0xbf82179c08872668	-0.00883409405732323
32	0x3f964ce7ffeaebdd	0.02177774905679174
33	0xbf2085db91acdd89	-0.00012605958257848004
34	0xbf908667fb28167a	-0.016137718872434516
35	0x3fa1e88e937d2a2e	0.034977393630999706
36	0xbfb000b7d0a03229	-0.06251095622446513
37	0xbfa1c42ecf54983a	-0.03469988137139564
38	0x3fb4c730f9bdedb1	0.08116441819395594
39	0xbf99c6dfa626932a	-0.025172705188782597
40	0x3fa6d62f6943d4a5	0.04460285339329432
41	0xbf910f415fbe2f43	-0.016659757107432737
42	0xbf9538784369b5f5	-0.02072322761016739
43	0x3fb22e57aac13335	0.07101962965789428
44	0x3fa610f52cce6fc8	0.04309812709763566
45	0x3fc2f96f0c57db2b	0.14823711493200994
46	0x3fc9f67461b97395	0.20283369800281706
47	0x3fd4ec9d7169738c	0.32694183421499967
48	0x3f91009c979a68b8	0.016603895905611593
49	0x3f633ad69d6600c4	0.0023473922439621615
50	0xbf8d228f725969bb	-0.01422607486454274
51	0xbf3f5f22fb33ed68	-0.00047869304690069956
52	0xbfa289014e8575a8	-0.03620151599418914
53	0x3f969c479e3e4e41	0.02208053496685936
54	0x3f8b424249788419	0.013309972636365729
55	0xbfa37c5d78bd7390	-0.038058205593848204
56	0x3fa340964b02da51	0.037602135330804594
57	0xbfa151ffff73e8dc	-0.033828735287856765
58	0xbf7634b43d9a91ff	-0.005421356263159981
59	0x3f985e036f135ba4	0.023796132711904186
60	0xbf9ac108f0b80138	-0.026126994793231634
61	0xbf971adc45f9d729	-0.022563401957504645
62	0x3f906cacb33680a2	0.016039560735976573
63	0xbfabc873dc6038af	-0.05426370682845182
64	0x3fa40f927239cedf	0.03918130535467212
65	0x3f31eb3f2a984736	0.0002734212126550452
66	0x3fa7ce1406d8d58f	0.04649412711698197
67	0xbf9b976b38a73a8a	-0.026944804509009525
68	0x3f97a5640d8f3cae	0.02309185345421543
69	0xbf9a9165b75c24a8	-0.025945271793749086
70	0xbf87fb745cc30fc1	-0.011710080223913512
71	0x3fa2b68483d63678	0.036548749059062524
72	0xbfae466818007613	-0.059130909852893286
73	0x3fb03b215dd9b1de	0.06340225735920721
74	0xbf9ce82d3eebc7fe	-0.028229433980364142
75	0x3f999db1d4a13ef3	0.02501561985292162
76	0xbfb14f26fd455a2d	-0.06761401828166731
77	0xbf66b902888f42e9	-0.002773766468159845
78	0x3fb2c4eb6b20415f	0.07331725468998716
79	0x3f9bafb55e43a592	0.02703746211856168
80	0xbf9799c5410daabc	-0.023047525497001273
81	0xbf85da4e9f1d2dfc	-0.010670294028066067
82	0xbfae0b348c58bbb2	-0.05867923939910415
83	0x3fa87e08585d209c	0.04783655241641435
84	0x3f4bddf994c7f944	0.0008504360826575926
85	0xbf95c40873b5cea8	-0.02125561910857124
86	0xbfaa99576fba9518	-0.05195115317227755
87	0x3f9be0f53d73d16d	0.02722533404899379
88	0xbf7c952da035a282	-0.006978204942563184
89	0xbf90825a7cb491dc	-0.01612225900784546
90	0x3fa4a36300a8329d	0.040309041814997594
91	0x3f97280643fda5d3	0.022613618755178266
92	0x3fb0e4f53c041f2c	0.06599362101780731
93	0x3fc5c1a5a71886a1	0.1699721399209482
94	0x3fd55b2f7a354937	0.3336905187071752
95	0x3fccd5ebdbf1e450	0.22527836074349006
96	0x3f93ba5d9633ff8d	0.019265615742369447
97	0x3f6e67702518c3ab	0.003711432488465912
98	0xbf721b71c15cb53e	-0.004420704228136172
99	0x3fad9d351af805e9	0.05784002260407901
100	0xbfa1018cc7784be6	-0.033214949941019076
101	0x3fa0831174dbf2d8	0.03224997092727272
102	0xbfa0252f7cb3c3bb	-0.03153370282405584
103	0x3f955f74c6fcb6bc	0.02087194885751019
104	0xbf6dfd7cdb8a6ffb	-0.003660911428893241
105	0xbf9b5adfc1f41b3c	-0.0267138445024344
106	0x3f9858d2579c5c13	0.02377632770284428
107	0xbf9994dcbeaccbee	-0.024981927049520118
108	0x3f996fd66039b298	0.02484068834603423
109	0xbf50b3d5489d01f8	-0.0010194380615332604
110	0x3f8dd3a095857274	0.01456380325606086
111	0xbfa5ca409a7fe42e	-0.042558688030063116
112	0x3f88b51deb78d28a	0.01206420302251245
113	0xbf99ed0a0d0556bf	-0.02531829552147857
114	0x3f9ecd8092fdd882	0.03008080384412227
115	0xbfae1f24c6b342c2	-0.05883135724582679
116	0x3fb0c55a734f2b55	0.06551137271087033
117	0xbf7fca91350bfcb8	-0.007761542525940239
118	0xbfa1e42811bdaec6	-0.03494382111133869
119	0xbf9a6c1ee3209c0a	-0.02580307256007689
120	0xbf994a9d8eb28029	-0.024698697886037877
121	0xbf98640375a142b2	-0.023819021277008808
122	0xbfa1dcf5a4579452	-0.034888912497799254
123	0x3fab09ce184e72b2	0.05280918165883487
124	0x3faf0a2d5a8257c4	0.06062452058647197
125	0xbfa1a868e6fdfbd1	-0.034487989613800736
126	0xbf8b28e29d979a85	-0.01326157611306412
127	0x3f92c0f8d515dc8e	0.018314254766178588
128	0xbf808d296b600293	-0.008081744756055975
129	0xbf738705ceb86dae	-0.004767439542344416
130	0xbf95ee87ce19973a	-0.021417734102576726
131	0x3f98f9c4948dcfb5	0.024390288893712603
132	0xbfa75bbf56ff34ec	-0.04562185227369206
133	0x3fa57ffb236dd335	0.041992042612866966
134	0xbf8b98dd6ce3e54d	-0.013475160489621852
135	0x3f7b1c752c706287	0.0066189362614969055
136	0x3fa2d19470c24e2a	0.03675521732762051
137	0x3fb22f14775e7171	0.07103088297157513
138	0xbfb57dbb02552154	-0.08394974524447224
139	0x3fb0cff864882673	0.06567337469473404
140	0x3fa31cdb4cc8e1e6	0.03732953369439311
141	0x3fc04cb99d716aca	0.1273414629711936
142	0x3fd39c73043cb87d	0.30642390645778744
143	0x3fd03c985e5c1518	0.25369843687833926
144	0x3fa0f951c6559704	0.03315215631555016
145	0x3fa5b81f8fa3515e	0.042420374187403395
146	0xbfa7bc153ef94fd7	-0.04635683435176901
147	0x3f9f3d0ef74fe450	0.030506357044917387
148	0x3f73812919b37fd0	0.004761848972719876
149	0xbf5bc92cb1c7af19	-0.001695912978102626
150	0xbf9b8206ae1d6079	-0.026863197686310934
151	0x3f9eba186a27fa3c	0.030006772498376785
152	0xbfb4cf0e97f9f1f6	-0.08128443918571535
153	0x3fa89c393fda23e2	0.04806689171261504
154	0x3f84a946550fdb76	0.010088490935215449
155	0x3f8030aa604c7ea1	0.007905322135740635
156	0xbfa7346d0c34d261	-0.04532185338976969
157	0xbf74ab68d990ac3d	-0.00504628140428581
158	0x3f661efb4680a953	0.0027003200266523613
159	0xbfa24175b1fe7fcb	-0.03565566823749541
160	0x3fa4f8d8a9d9b4cc	0.040961046918576466
161	0xbfa7b7219f45bb34	-0.04631905621760382
162	0x3fafb6f6c05c8280	0.061942778569805235
163	0xbf8936bca5e42abd	-0.0123114336133957
164	0x3f39bb3264684d01	0.0003926275279877018
165	0x3f9afd1fdf96c3e3	0.02635621835878855
166	0xbfb26b3e32a7bb7d	-0.07194889771174746
167	0x3fb5e41359fd036c	0.08551140734654233
168	0xbfa73a670d577d14	-0.04536745107520282
169	0xbf9ab2d55fae3fab	-0.026072820629962894
170	0x3fa266978b1246e7	0.035938964582909176
171	0xbf99428e52df93b4	-0.024667953308284488
172	0x3f9ee6a3827b02db	0.030176691855333764
173	0x3f9d40bb0403ecc4	0.028567239875866304
174	0xbfaf472818315fce	-0.061089756921034785
175	0x3f70473bcee01dab	0.0039741836790265035
176	0xbf8c4a48a80a1464	-0.013813560131220544
177	0xbf8b8086969e45e1	-0.013428737136368109
178	0x3f80fb82ba7f379d	0.008292218510088928
179	0x3fa38fef1da3485a	0.03820750462331608
180	0xbf861ade04bfde3a	-0.010793432731573838
181	0x3fa25e0cb5bd156f	0.035873791870964726
182	0xbf9932d390e4eff8	-0.024607949942250656
183	0xbf9ab55f20efb4a9	-0.026082502732539457
184	0x3fa8fea7936a2b23	0.0488178603601084
185	0x3fa3662b9e917137	0.037888873201810495
186	0x3faf18366c23a14a	0.06073160238321636
187	0xbf757274403becd5	-0.005236105065473858
188	0x3fb9a5eaafde1bf3	0.1001879386295597
189	0x3fb294e3524f7476	0.07258435019999063
190	0x3fc45a8e4708db12	0.1590135428284261
191	0x3fd5eee20b850668	0.3427052605148675
192	0x3fa4b6af5c8eea43	0.04045627598630521
193	0x3fa129a50f196816	0.033520849316758625
194	0xbfb3fe86c5f6fd46	-0.0781025155365472
195	0x3fa85d1f8bc0f167	0.04758547383287031
196	0xbf7961796c25296a	-0.006196474367536767
197	0x3f6238a9f4a21982	0.0022242850728304018
198	0xbf6a2d45e0e1565c	-0.0031954159558534156
199	0xbf853f2d09e2c0e4	-0.01037440477770741
200	0x3fb635000e2a1b0b	0.08674621911823636
201	0xbf92982cb7f8350b	-0.01815862534390526
202	0x3f6e472eef672b72	0.0036960522367954158
203	0x3f9967ed7cd10f0c	0.024810515158846733
204	0xbfa2888027b05582	-0.0361976669739006
205	0x3f8ef78b0cd1c5cf	0.01512058861610202
206	0x3f99003fa26923c1	0.024415010726702272
207	0xbf94fc4e16c19d5a	-0.020493717326102036
208	0x3fa2e8c854067573	0.03693223977755169
209	0xbf9ba4db119d6372	-0.02699606223118018
210	0xbfa0a885100d7406	-0.03253570385889053
211	0xbf91551a87335544	-0.016926207067475177
212	0x3f9ae1892d962209	0.026250975997330204
213	0x3fa2b110a562b88c	0.036507148922610616
214	0xbf869eb16429a939	-0.011044870251869386
215	0xbf96452585a2c06b	-0.021748148232916636
216	0xbf93e5094b7c86ab	-0.019428391678167383
217	0xbf807a043c140029	-0.008045228084029148
218	0x3fa97aedd50aba4e	0.04976599908456035
219	0x3f7c601d3f2e1d3c	0.006927599187185603
220	0xbf811785e856c6e2	-0.008345647957728134
221	0x3f6f1044bd17e2c0	0.0037919371177362604
222	0xbfafeaa131c2b2e4	-0.06233695728710645
223	0x3fb2aeb275c6cc61	0.07297816634563638
224	0xbfb220764c854ad8	-0.07080783241444111
225	0x3fb4e3fa8319dcd4	0.08160367680271757
226	0xbfa612398018522a	-0.04310779274615968
227	0xbfaebffb26a3f9f0	-0.06005844923673809
228	0x3fa635c732673906	0.043379044440017764
229	0xbf9d0745b462645f	-0.028348054060732483
230	0x3fb25fd533875530	0.07177479274772192
231	0x3f9f646bb5e0b280	0.03065651223748711
232	0xbf706f1d9ba0a87b	-0.004012218147218967
233	0xbf828c5d290482f7	-0.00905678540635922
234	0xbf98df13823be9e9	-0.024288468192915778
235	0x3f85d975493fb581	0.01066867475307265
236	0x3faf272867b21503	0.06084562555137476
237	0x3fc84736a5d6aeb0	0.1896732625731281
238	0x3fc74c4f9a4a6617	0.18201632531854336
239	0x3fd3a9b2033b918c	0.3072323829240069
240	0xbf73a83caa6aef09	-0.004799115157478225
241	0x3fb02219b0b97eef	0.06302033009114515
242	0xbf8c82513b160e46	-0.013920435538927422
243	0xbf92a6d321f72d31	-0.018214510868159898
244	0x3fa2796b0206eb8a	0.03608259582275426
245	0xbf886bdc9363fe3d	-0.01192447972107324
246	0xbf5e28b2356f3813	-0.0018407574004757384
247	0x3f9d49faa76e1498	0.028602520436397855
248	0x3f910ba15a31b84d	0.01664592850686857
249	0xbf94e394c879270b	-0.02039940332023264
250	0x3f5f68728d61f74a	0.0019169920610972607
251	0x3f91313da5947575	0.016789401274868127
252	0xbf6b6845d7c4cc35	-0.0033456195943926356
253	0x3f9eec36d8951909	0.03019796082414764
254	0x3f85197704a412cd	0.010302476719979659
255	0xbfa7a6c2f39d25ba	-0.04619416450311627
