exp/data_checkpoints/zhopa/checkpoint.pth (torch, 72377 bytes, 114 tensors)

inv_timescales f8 [1]
1.0
00000000: 0000 0000 0000 f03f

blocks1.SCINet_Tree.workingblock.interact.level.phi.1.weight f8 [1, 1, 5]
-0.18523487732608673 -0.5141589419934215 0.07164109311422318 0.2590331528483914 0.20392161879279305
00000000: bed8 18c6 c6b5 c7bf bbd8 1974 fd73 e0bf
00000010: e8ab f917 1257 b23f 3112 04ca ff93 d03f
00000020: 59ca d485 1a1a ca3f

blocks1.SCINet_Tree.workingblock.interact.level.phi.1.bias f8 [1]
0.08577948227955093
00000000: baf8 0ee7 a4f5 b53f

blocks1.SCINet_Tree.workingblock.interact.level.phi.4.weight f8 [1, 1, 3]
0.3114222986552703 -0.18917769449186228 0.18404392369378333
00000000: cb0c feca 57ee d33f 44d4 7c85 f936 c8bf
00000010: b56a a554 c08e c73f

blocks1.SCINet_Tree.workingblock.interact.level.phi.4.bias f8 [1]
-0.44371203651482394
00000000: f40d 6b2b c765 dcbf

blocks1.SCINet_Tree.workingblock.interact.level.psi.1.weight f8 [1, 1, 5]
-0.0019815178232743076 -0.023587007666794703 -0.23714104713645393 -0.1039562575566721 0.35780578808263974
00000000: 56bc ea47 8b3b 60bf 6a54 284a 3127 98bf
00000010: f9c0 fe48 a35a cebf 3ca3 6b96 e09c babf
00000020: bc9a 883f 4ae6 d63f

blocks1.SCINet_Tree.workingblock.interact.level.psi.1.bias f8 [1]
-0.026222437222533198
00000000: af34 2bf9 0dda 9abf

blocks1.SCINet_Tree.workingblock.interact.level.psi.4.weight f8 [1, 1, 3]
-0.44020108267037666 0.2629687651416051 -0.10918217239707885
00000000: 75ea 6e29 412c dcbf d1c5 89f1 7ad4 d03f
00000010: 996e c0e3 5cf3 bbbf

blocks1.SCINet_Tree.workingblock.interact.level.psi.4.bias f8 [1]
-0.41322940274948633
00000000: 7d7f a3bc 5972 dabf

blocks1.SCINet_Tree.workingblock.interact.level.P.1.weight f8 [1, 1, 5]
-0.23411651947552753 0.1250526569760592 0.2255750330979816 -0.3042812660611942 0.1623831926418627
00000000: fae4 4cb5 87f7 cdbf f5ba feb7 b901 c03f
00000010: ea97 f986 a4df cc3f e42b a121 5879 d3bf
00000020: 238f e8f2 f8c8 c43f

blocks1.SCINet_Tree.workingblock.interact.level.P.1.bias f8 [1]
-0.003672557214908847
00000000: 9fe0 2e24 e915 6ebf

blocks1.SCINet_Tree.workingblock.interact.level.P.4.weight f8 [1, 1, 3]
-0.2901666617267533 0.4008160854740282 -0.13696386525867835
00000000: ac60 a030 1792 d2bf 9996 b482 f8a6 d93f
00000010: f587 022d 0888 c1bf

blocks1.SCINet_Tree.workingblock.interact.level.P.4.bias f8 [1]
-0.3012456771484423
00000000: e67d daf2 9b47 d3bf

blocks1.SCINet_Tree.workingblock.interact.level.U.1.weight f8 [1, 1, 5]
0.05834312068871432 -0.2959442825099762 0.346290739163909 -0.28235099125436175 0.2961675931346734
00000000: b6f5 9b46 26df ad3f d662 b449 c0f0 d2bf
00000010: 4977 e7a1 a029 d63f 0790 5be4 0912 d2bf
00000020: 4f80 a9eb 68f4 d23f

blocks1.SCINet_Tree.workingblock.interact.level.U.1.bias f8 [1]
-0.24801818079971374
00000000: 5991 ac4b 0fbf cfbf

blocks1.SCINet_Tree.workingblock.interact.level.U.4.weight f8 [1, 1, 3]
0.26830404824055637 -0.4152473540074177 -0.2357873418332163
00000000: 55f7 24be e42b d13f db97 4da3 6993 dabf
00000010: 0602 fe94 472e cebf

blocks1.SCINet_Tree.workingblock.interact.level.U.4.bias f8 [1]
0.06721220192645816
00000000: b891 2aa1 d134 b13f

blocks1.SCINet_Tree.SCINet_Tree_odd.workingblock.interact.level.phi.1.weight f8 [1, 1, 5]
-0.28027222152114345 0.038956471723934176 0.016881020325224386 0.23829603360665405 -0.06511927548303863
00000000: eb46 5ae6 faef d1bf 672f 0b48 1af2 a33f
00000010: 943a e118 4249 913f 53b5 8d03 7c80 ce3f
00000020: 17f3 8926 a8ab b0bf

blocks1.SCINet_Tree.SCINet_Tree_odd.workingblock.interact.level.phi.1.bias f8 [1]
0.0005900061630796231
00000000: 7efd 6196 5455 433f

blocks1.SCINet_Tree.SCINet_Tree_odd.workingblock.interact.level.phi.4.weight f8 [1, 1, 3]
0.37171979174980346 -0.0017563614246449517 -0.20293398899508625
00000000: 75d8 35cf 41ca d73f ac5b 3eb8 b6c6 5cbf
00000010: 3688 fdae bdf9 c9bf

blocks1.SCINet_Tree.SCINet_Tree_odd.workingblock.interact.level.phi.4.bias f8 [1]
-0.02452551468241487
00000000: 4f06 ea6d 371d 99bf

blocks1.SCINet_Tree.SCINet_Tree_odd.workingblock.interact.level.psi.1.weight f8 [1, 1, 5]
0.10783897957989148 -0.3169875450478955 -0.11404790328743193 0.2115399111030794 0.3144469315383444
00000000: dd96 87da 559b bb3f 1a15 ce20 8649 d4bf
00000010: 0d01 cc4e 3e32 bdbf c244 fe63 bd13 cb3f
00000020: 2f39 d205 e61f d43f

blocks1.SCINet_Tree.SCINet_Tree_odd.workingblock.interact.level.psi.1.bias f8 [1]
-0.08747764713620008
00000000: e7bc 9461 ef64 b6bf

blocks1.SCINet_Tree.SCINet_Tree_odd.workingblock.interact.level.psi.4.weight f8 [1, 1, 3]
-0.24543049552767346 -0.2910868545600937 0.30868665315696525
00000000: 53c0 dd37 446a cfbf 1f64 28c2 2aa1 d2bf
00000010: c955 01aa 85c1 d33f

blocks1.SCINet_Tree.SCINet_Tree_odd.workingblock.interact.level.psi.4.bias f8 [1]
-0.5189504027012792
00000000: 0423 fbdf 3d9b e0bf

blocks1.SCINet_Tree.SCINet_Tree_odd.workingblock.interact.level.P.1.weight f8 [1, 1, 5]
-0.13985905230078752 -0.41231392757981405 -0.38641306513436163 0.4065392202708742 0.27984455880041087
00000000: 4b39 d7c3 e6e6 c1bf d1ff a8f4 5963 dabf
00000010: e9f2 5fdd fdba d8bf 24b4 e613 bd04 da3f
00000020: 5db9 0027 f9e8 d13f

blocks1.SCINet_Tree.SCINet_Tree_odd.workingblock.interact.level.P.1.bias f8 [1]
-0.05600341190287546
00000000: 4aae 2cad 7aac acbf

blocks1.SCINet_Tree.SCINet_Tree_odd.workingblock.interact.level.P.4.weight f8 [1, 1, 3]
-0.41721747409361565 -0.3667713333683372 0.08303102655865324
00000000: cc50 a3eb b0b3 dabf 3e59 7b78 2e79 d7bf
00000010: c86a 9f77 8541 b53f

blocks1.SCINet_Tree.SCINet_Tree_odd.workingblock.interact.level.P.4.bias f8 [1]
0.04443752640315147
00000000: 71bc 3bf5 83c0 a63f

blocks1.SCINet_Tree.SCINet_Tree_odd.workingblock.interact.level.U.1.weight f8 [1, 1, 5]
-0.24144091064214704 -0.2964665822697889 0.3067412936858523 -0.07455021095941004 -0.04169070782176028
00000000: f5ee 8f27 89e7 cebf 2729 cdf8 4ef9 d2bf
00000010: 71a9 2d3c a6a1 d33f 6f06 fbfd b815 b3bf
00000020: 7a79 4805 7c58 a5bf

blocks1.SCINet_Tree.SCINet_Tree_odd.workingblock.interact.level.U.1.bias f8 [1]
-0.39546004538868723
00000000: ed6b 74a6 374f d9bf

blocks1.SCINet_Tree.SCINet_Tree_odd.workingblock.interact.level.U.4.weight f8 [1, 1, 3]
-0.39664379772460745 0.08080297191048263 0.49516083133984984
00000000: 02dc d8aa 9c62 d9bf e46e c6e9 80af b43f
00000010: 5359 370e b7b0 df3f

blocks1.SCINet_Tree.SCINet_Tree_odd.workingblock.interact.level.U.4.bias f8 [1]
-0.31543829929182926
00000000: 2550 d71e 2430 d4bf

blocks1.SCINet_Tree.SCINet_Tree_odd.SCINet_Tree_odd.workingblock.interact.level.phi.1.weight f8 [1, 1, 5]
-0.23626564876797493 -0.06691160139938564 0.3412550363384501 -0.3841223373100619 -0.02849705644575648
00000000: e336 50e9 f33d cebf c5bc bb63 1e21 b1bf
00000010: d4cf 2a5d 1fd7 d53f 1b3a 1adb 7595 d8bf
00000020: 38fe dd15 552e 9dbf

blocks1.SCINet_Tree.SCINet_Tree_odd.SCINet_Tree_odd.workingblock.interact.level.phi.1.bias f8 [1]
-0.07389068237958996
00000000: 90a9 4cf0 7fea b2bf

blocks1.SCINet_Tree.SCINet_Tree_odd.SCINet_Tree_odd.workingblock.interact.level.phi.4.weight f8 [1, 1, 3]
-0.31181584588119227 -0.5532949251748923 0.1733032053460656
00000000: 86cb 1b73 caf4 d3bf df67 158f 97b4 e1bf
00000010: ed6c a0a7 cc2e c63f

blocks1.SCINet_Tree.SCINet_Tree_odd.SCINet_Tree_odd.workingblock.interact.level.phi.4.bias f8 [1]
-0.2822094260409076
00000000: 04fe dd1f b80f d2bf

blocks1.SCINet_Tree.SCINet_Tree_odd.SCINet_Tree_odd.workingblock.interact.level.psi.1.weight f8 [1, 1, 5]
-0.17836663714129097 -0.15127674287891613 0.313758500189051 -0.41884869028366867 0.030046405654168707
00000000: 7413 9ccc b7d4 c6bf 68b9 a74b 095d c3bf
00000010: dfda 4988 9e14 d43f 1a69 afbc 6ace dabf
00000020: 3d88 9626 7cc4 9e3f

blocks1.SCINet_Tree.SCINet_Tree_odd.SCINet_Tree_odd.workingblock.interact.level.psi.1.bias f8 [1]
-0.23583710674353545
00000000: 91c8 520a e92f cebf

blocks1.SCINet_Tree.SCINet_Tree_odd.SCINet_Tree_odd.workingblock.interact.level.psi.4.weight f8 [1, 1, 3]
-0.4251618227283075 0.10274814363331103 0.5654589793026603
00000000: 9a0d 08ef d935 dbbf 5c39 a1cc b34d ba3f
00000010: f4b3 ea6d 3d18 e23f

blocks1.SCINet_Tree.SCINet_Tree_odd.SCINet_Tree_odd.workingblock.interact.level.psi.4.bias f8 [1]
-0.06755253240682053
00000000: a503 736d 1f4b b1bf

blocks1.SCINet_Tree.SCINet_Tree_odd.SCINet_Tree_odd.workingblock.interact.level.P.1.weight f8 [1, 1, 5]
-0.05844341668007362 -0.09900823446891473 -0.045112090086679116 -0.2825191820026471 -0.3176092264643733
00000000: c665 9da6 4bec adbf f124 1489 9a58 b9bf
00000010: 0a2a 278f ee18 a7bf 2b6b cc55 cb14 d2bf
00000020: 3ca1 24a6 b553 d4bf

blocks1.SCINet_Tree.SCINet_Tree_odd.SCINet_Tree_odd.workingblock.interact.level.P.1.bias f8 [1]
-0.3381879187039479
00000000: bd16 aff0 dea4 d5bf

blocks1.SCINet_Tree.SCINet_Tree_odd.SCINet_Tree_odd.workingblock.interact.level.P.4.weight f8 [1, 1, 3]
-0.1313663949857955 0.5031899658326034 -0.3520659959082779
00000000: d0f2 2031 9dd0 c0bf fba4 ddd7 211a e03f
00000010: 1c6c 9dd0 3f88 d6bf

blocks1.SCINet_Tree.SCINet_Tree_odd.SCINet_Tree_odd.workingblock.interact.level.P.4.bias f8 [1]
0.29115247862379623
00000000: b4aa 7501 3ea2 d23f

blocks1.SCINet_Tree.SCINet_Tree_odd.SCINet_Tree_odd.workingblock.interact.level.U.1.weight f8 [1, 1, 5]
0.1047888546285547 -0.26427629740663544 0.26664846237787443 0.02101646674347188 -0.15478093574059526
00000000: c06c 9d3f 71d3 ba3f c70b 9e21 e7e9 d0bf
00000010: 1c44 5cb6 c410 d13f 18dc 5c35 5785 953f
00000020: cc6a 8698 dccf c3bf

blocks1.SCINet_Tree.SCINet_Tree_odd.SCINet_Tree_odd.workingblock.interact.level.U.1.bias f8 [1]
0.06322071668566359
00000000: 2438 989e 3b2f b03f

blocks1.SCINet_Tree.SCINet_Tree_odd.SCINet_Tree_odd.workingblock.interact.level.U.4.weight f8 [1, 1, 3]
-0.3000484258210294 -0.3562206184647903 -0.05296394651817819
00000000: d086 0750 fe33 d3bf 15e6 9d90 51cc d6bf
00000010: 4649 5324 171e abbf

blocks1.SCINet_Tree.SCINet_Tree_odd.SCINet_Tree_odd.workingblock.interact.level.U.4.bias f8 [1]
-0.2168286240268157
00000000: c413 8454 0ac1 cbbf

blocks1.SCINet_Tree.SCINet_Tree_odd.SCINet_Tree_even.workingblock.interact.level.phi.1.weight f8 [1, 1, 5]
0.07457043324233556 0.060596731388581765 0.04078679870376403 -0.3923164940634283 -0.26216162060484793
00000000: ee3d 0644 0c17 b33f dced 1de7 8806 af3f
00000010: 6418 15dd 01e2 a43f 6cc3 eba3 b61b d9bf
00000020: 5ae8 b088 41c7 d0bf

blocks1.SCINet_Tree.SCINet_Tree_odd.SCINet_Tree_even.workingblock.interact.level.phi.1.bias f8 [1]
-0.2344369775664901
00000000: 3182 cfe7 0702 cebf

blocks1.SCINet_Tree.SCINet_Tree_odd.SCINet_Tree_even.workingblock.interact.level.phi.4.weight f8 [1, 1, 3]
-0.009146940099475677 -0.18588369467938032 -0.0926288050164186
00000000: 748d af84 a1bb 82bf a2f8 c072 09cb c7bf
00000010: 528c 3678 85b6 b7bf

blocks1.SCINet_Tree.SCINet_Tree_odd.SCINet_Tree_even.workingblock.interact.level.phi.4.bias f8 [1]
0.1890763576605232
00000000: b7a3 4c72 a733 c83f

blocks1.SCINet_Tree.SCINet_Tree_odd.SCINet_Tree_even.workingblock.interact.level.psi.1.weight f8 [1, 1, 5]
0.4448116195168508 0.08326218994954926 -0.15372313087881756 0.14424673251000195 -0.09904432178513634
00000000: b029 ad27 cb77 dc3f 989f d3be ab50 b53f
00000010: 26b2 e115 33ad c3bf 83b8 574b ad76 c23f
00000020: f8f1 ebfa f75a b9bf

blocks1.SCINet_Tree.SCINet_Tree_odd.SCINet_Tree_even.workingblock.interact.level.psi.1.bias f8 [1]
0.2778919664337476
00000000: 60dc e962 fbc8 d13f

blocks1.SCINet_Tree.SCINet_Tree_odd.SCINet_Tree_even.workingblock.interact.level.psi.4.weight f8 [1, 1, 3]
-0.5201255965831124 -0.5292030951612856 0.01378773824849694
00000000: f461 646f dea4 e0bf 3e1c 5554 3bef e0bf
00000010: 61a2 e7e6 be3c 8c3f

blocks1.SCINet_Tree.SCINet_Tree_odd.SCINet_Tree_even.workingblock.interact.level.psi.4.bias f8 [1]
0.22542077876133365
00000000: 2a34 4f8c 96da cc3f

blocks1.SCINet_Tree.SCINet_Tree_odd.SCINet_Tree_even.workingblock.interact.level.P.1.weight f8 [1, 1, 5]
0.3787022731442158 -0.06678525878529723 -0.22134802014638805 -0.21871626924400123 0.017339536063702452
00000000: 28d1 8475 a83c d83f ac76 56b6 d618 b1bf
00000010: 3213 c8c5 2155 ccbf 68c8 c00b e5fe cbbf
00000020: e920 4991 74c1 913f

blocks1.SCINet_Tree.SCINet_Tree_odd.SCINet_Tree_even.workingblock.interact.level.P.1.bias f8 [1]
-0.11276085275041814
00000000: a805 d52e e5dd bcbf

blocks1.SCINet_Tree.SCINet_Tree_odd.SCINet_Tree_even.workingblock.interact.level.P.4.weight f8 [1, 1, 3]
0.45770357402777434 0.2747213573840315 0.4996577401588876
00000000: f38a 6dee 034b dd3f 8489 5ee3 0895 d13f
00000010: 793e 4b75 64fa df3f

blocks1.SCINet_Tree.SCINet_Tree_odd.SCINet_Tree_even.workingblock.interact.level.P.4.bias f8 [1]
-0.30001688697058854
00000000: 7b54 7207 7a33 d3bf

blocks1.SCINet_Tree.SCINet_Tree_odd.SCINet_Tree_even.workingblock.interact.level.U.1.weight f8 [1, 1, 5]
-0.4206220094705806 0.05107512355735163 0.43678652203521945 0.40302838754054465 -0.2042437174888234
00000000: 40da a993 78eb dabf dbce a2c2 8426 aa3f
00000010: f563 de74 4ff4 db3f 0329 f693 37cb d93f
00000020: 2f94 837b a824 cabf

blocks1.SCINet_Tree.SCINet_Tree_odd.SCINet_Tree_even.workingblock.interact.level.U.1.bias f8 [1]
0.09123448119721207
00000000: 0d72 0299 245b b73f

blocks1.SCINet_Tree.SCINet_Tree_odd.SCINet_Tree_even.workingblock.interact.level.U.4.weight f8 [1, 1, 3]
0.3370585248600003 0.031031427226049332 0.3440630510425956
00000000: 2a26 47eb 5d92 d53f 9c1a 56d4 b3c6 9f3f
00000010: f65a ff07 2105 d63f

blocks1.SCINet_Tree.SCINet_Tree_odd.SCINet_Tree_even.workingblock.interact.level.U.4.bias f8 [1]
-0.02584053647365629
00000000: 0b05 430c f175 9abf

blocks1.SCINet_Tree.SCINet_Tree_even.workingblock.interact.level.phi.1.weight f8 [1, 1, 5]
0.39563220689622486 -0.09748372772049069 0.03939363397674611 -0.11954810181196811 -0.03718732657017616
00000000: 1545 77bf 0952 d93f 0ca1 738e b1f4 b8bf
00000010: 7091 3303 672b a43f dbce 9453 b49a bebf
00000020: ca9f e39e 370a a3bf

blocks1.SCINet_Tree.SCINet_Tree_even.workingblock.interact.level.phi.1.bias f8 [1]
0.15552593440422532
00000000: 2b16 f918 46e8 c33f

blocks1.SCINet_Tree.SCINet_Tree_even.workingblock.interact.level.phi.4.weight f8 [1, 1, 3]
-0.1145956603381594 0.04730708985433259 -0.349054571594399
00000000: aa79 6a25 2456 bdbf 5a2a 9687 a238 a83f
00000010: 5e1a 61fc e856 d6bf

blocks1.SCINet_Tree.SCINet_Tree_even.workingblock.interact.level.phi.4.bias f8 [1]
0.32362999991106894
00000000: 6fd7 679a 5ab6 d43f

blocks1.SCINet_Tree.SCINet_Tree_even.workingblock.interact.level.psi.1.weight f8 [1, 1, 5]
0.1671395834927104 0.036970501162256794 0.15582489213787384 -0.4749868764589846 0.03757195600262555
00000000: b4ef 7b72 d464 c53f 0637 d12a cced a23f
00000010: 4344 d1ef 11f2 c33f fbe9 1a5b 2f66 debf
00000020: a359 8ea4 a13c a33f

blocks1.SCINet_Tree.SCINet_Tree_even.workingblock.interact.level.psi.1.bias f8 [1]
-0.28662783973333233
00000000: 57c7 714b 1c58 d2bf

blocks1.SCINet_Tree.SCINet_Tree_even.workingblock.interact.level.psi.4.weight f8 [1, 1, 3]
0.3863814290926784 -0.28483360315191936 -0.08440293344050175
00000000: e906 6f2c 79ba d83f afb7 95b8 b63a d2bf
00000010: 473c d03e 6e9b b5bf

blocks1.SCINet_Tree.SCINet_Tree_even.workingblock.interact.level.psi.4.bias f8 [1]
0.10195640229751275
00000000: ad52 7c95 d019 ba3f

blocks1.SCINet_Tree.SCINet_Tree_even.workingblock.interact.level.P.1.weight f8 [1, 1, 5]
-0.13045882595931946 -0.12295092273572401 -0.22629527543054595 0.4154178447479317 0.09215129286108956
00000000: 7c23 7cf3 dfb2 c0bf 95b7 2930 b679 bfbf
00000010: 3454 9b5b 3ef7 ccbf bf7f 57ba 3496 da3f
00000020: 065c 1f25 3a97 b73f

blocks1.SCINet_Tree.SCINet_Tree_even.workingblock.interact.level.P.1.bias f8 [1]
-0.2690034598599335
00000000: 2bfe a649 5a37 d1bf

blocks1.SCINet_Tree.SCINet_Tree_even.workingblock.interact.level.P.4.weight f8 [1, 1, 3]
0.1275757529703249 -0.09553637094405426 -0.30964171977222704
00000000: 4d93 62fb 6654 c03f 4482 c854 1275 b8bf
00000010: c587 f980 2bd1 d3bf

blocks1.SCINet_Tree.SCINet_Tree_even.workingblock.interact.level.P.4.bias f8 [1]
-0.4387003904376756
00000000: 1c06 6bcd aa13 dcbf

blocks1.SCINet_Tree.SCINet_Tree_even.workingblock.interact.level.U.1.weight f8 [1, 1, 5]
0.030405921650978194 -0.24500661149664021 0.3836025713256027 0.03161219037803489 -0.15010824788166116
00000000: 79fc 61dc ba22 9f3f c646 d76b 605c cfbf
00000010: 7251 a0cc f18c d83f 643c a817 792f a03f
00000020: fa7b c13f bf36 c3bf

blocks1.SCINet_Tree.SCINet_Tree_even.workingblock.interact.level.U.1.bias f8 [1]
-0.2100562129735072
00000000: 457b 853a 1fe3 cabf

blocks1.SCINet_Tree.SCINet_Tree_even.workingblock.interact.level.U.4.weight f8 [1, 1, 3]
-0.449580294768958 0.27773954522375477 -0.08216426622391669
00000000: 945b bd6d ecc5 dcbf 24af e215 7cc6 d13f
00000010: 17e1 54a4 b708 b5bf

blocks1.SCINet_Tree.SCINet_Tree_even.workingblock.interact.level.U.4.bias f8 [1]
-0.2640099891371631
00000000: e254 4a27 8ae5 d0bf

blocks1.SCINet_Tree.SCINet_Tree_even.SCINet_Tree_odd.workingblock.interact.level.phi.1.weight f8 [1, 1, 5]
-0.2729417722004528 -0.12426236841290911 -0.20199474461555303 -0.4011327734759146 0.37691175985059316
00000000: e80b 54c4 e077 d1bf 8cfa 7498 a8cf bfbf
00000010: d938 0bbb f6da c9bf 7ab3 dbcb 28ac d9bf
00000020: 854f 8280 521f d83f

blocks1.SCINet_Tree.SCINet_Tree_even.SCINet_Tree_odd.workingblock.interact.level.phi.1.bias f8 [1]
0.14167321235187735
00000000: 40a2 e20a 5922 c23f

blocks1.SCINet_Tree.SCINet_Tree_even.SCINet_Tree_odd.workingblock.interact.level.phi.4.weight f8 [1, 1, 3]
0.042050709307895257 -0.5246195772980529 0.0775931917974221
00000000: c484 80aa ab87 a53f 74c4 eafe aec9 e0bf
00000010: da84 29bd 25dd b33f

blocks1.SCINet_Tree.SCINet_Tree_even.SCINet_Tree_odd.workingblock.interact.level.phi.4.bias f8 [1]
-0.3538671367325195
00000000: 1d4d d958 c2a5 d6bf

blocks1.SCINet_Tree.SCINet_Tree_even.SCINet_Tree_odd.workingblock.interact.level.psi.1.weight f8 [1, 1, 5]
-0.2708101258222384 -0.3786530038955756 -0.17574741159530696 0.18607984961091723 0.0752318829405169
00000000: 1842 75fe f354 d1bf c5df 10cf d93b d8bf
00000010: 8d49 9424 e47e c6bf a601 43ea 76d1 c73f
00000020: cb94 d88c 6542 b33f

blocks1.SCINet_Tree.SCINet_Tree_even.SCINet_Tree_odd.workingblock.interact.level.psi.1.bias f8 [1]
-0.27242996260450614
00000000: 108f f514 7e6f d1bf

blocks1.SCINet_Tree.SCINet_Tree_even.SCINet_Tree_odd.workingblock.interact.level.psi.4.weight f8 [1, 1, 3]
0.1466360655810388 -0.22281801915794083 0.1691814187012925
00000000: 90d6 0a79 f8c4 c23f f315 9f04 4d85 ccbf
00000010: 06db 349a bca7 c53f

blocks1.SCINet_Tree.SCINet_Tree_even.SCINet_Tree_odd.workingblock.interact.level.psi.4.bias f8 [1]
-0.3257911492118681
00000000: 1b3d cc1e c3d9 d4bf

blocks1.SCINet_Tree.SCINet_Tree_even.SCINet_Tree_odd.workingblock.interact.level.P.1.weight f8 [1, 1, 5]
0.30805706978086367 -0.2813430810571288 0.08674929788601762 0.20457549821640444 -0.27734391507503237
00000000: 62aa 0000 35b7 d33f e228 0669 8601 d2bf
00000010: 9214 5fb5 3335 b63f a580 33a9 872f ca3f
00000020: b97a 3fb1 00c0 d1bf

blocks1.SCINet_Tree.SCINet_Tree_even.SCINet_Tree_odd.workingblock.interact.level.P.1.bias f8 [1]
-0.11448423862998713
00000000: d0c0 d2cc d64e bdbf

blocks1.SCINet_Tree.SCINet_Tree_even.SCINet_Tree_odd.workingblock.interact.level.P.4.weight f8 [1, 1, 3]
0.5701929447018459 -0.39225838955973574 -0.0054593472535408565
00000000: 8ef0 3c46 053f e23f 8367 afee c21a d9bf
00000010: be5c 955e 8a5c 76bf

blocks1.SCINet_Tree.SCINet_Tree_even.SCINet_Tree_odd.workingblock.interact.level.P.4.bias f8 [1]
0.49328902397378105
00000000: 905c 5c20 0c92 df3f

blocks1.SCINet_Tree.SCINet_Tree_even.SCINet_Tree_odd.workingblock.interact.level.U.1.weight f8 [1, 1, 5]
-0.024846806565578618 -0.04198177482357616 -0.04639896678703592 0.01998006884048596 0.10988402812676991
00000000: aad1 6ff6 7071 99bf 3564 ca9b a27e a5bf
00000010: e046 d6f9 9ac1 a7bf 5b84 f7b8 a775 943f
00000020: a13f 2813 5c21 bc3f

blocks1.SCINet_Tree.SCINet_Tree_even.SCINet_Tree_odd.workingblock.interact.level.U.1.bias f8 [1]
0.1263150477239057
00000000: e1c1 7b6b 172b c03f

blocks1.SCINet_Tree.SCINet_Tree_even.SCINet_Tree_odd.workingblock.interact.level.U.4.weight f8 [1, 1, 3]
0.06479127504673116 0.3585589910998269 0.16978625672866307
00000000: 5c50 6437 2996 b03f 0679 1d69 a1f2 d63f
00000010: f3dc fa59 8ebb c53f

blocks1.SCINet_Tree.SCINet_Tree_even.SCINet_Tree_odd.workingblock.interact.level.U.4.bias f8 [1]
-0.3846509135826266
00000000: 98b0 8ddd 1e9e d8bf

blocks1.SCINet_Tree.SCINet_Tree_even.SCINet_Tree_even.workingblock.interact.level.phi.1.weight f8 [1, 1, 5]
-0.36125501533236326 0.11324754119492492 0.28346971118071973 0.10331411787749478 -0.07434245485537917
00000000: 2895 175b cd1e d7bf 8cdc c875 cafd bc3f
00000010: 5e60 bb24 5e24 d23f d0b9 7f45 cb72 ba3f
00000020: d9e6 4e6c 1b08 b3bf

blocks1.SCINet_Tree.SCINet_Tree_even.SCINet_Tree_even.workingblock.interact.level.phi.1.bias f8 [1]
0.036303652308572146
00000000: 3206 c86e 6496 a23f

blocks1.SCINet_Tree.SCINet_Tree_even.SCINet_Tree_even.workingblock.interact.level.phi.4.weight f8 [1, 1, 3]
-0.5489991203223091 -0.16251868047735357 0.01904311462163535
00000000: 9325 6a9a 6691 e1bf d2d4 d180 69cd c4bf
00000010: a73c 0eca 0980 933f

blocks1.SCINet_Tree.SCINet_Tree_even.SCINet_Tree_even.workingblock.interact.level.phi.4.bias f8 [1]
0.1717915715504005
00000000: fdc9 c426 44fd c53f

blocks1.SCINet_Tree.SCINet_Tree_even.SCINet_Tree_even.workingblock.interact.level.psi.1.weight f8 [1, 1, 5]
-0.12401598880925196 0.22021290741112828 -0.11519120150070564 0.014558214107919992 -0.23266948620094013
00000000: 2ce9 1d08 83bf bfbf 9772 bec1 ef2f cc3f
00000010: 9a83 3bab 2b7d bdbf 307c da6b b2d0 8d3f
00000020: f64c 011d 1dc8 cdbf

blocks1.SCINet_Tree.SCINet_Tree_even.SCINet_Tree_even.workingblock.interact.level.psi.1.bias f8 [1]
-0.38670779914283165
00000000: 654d 9b11 d2bf d8bf

blocks1.SCINet_Tree.SCINet_Tree_even.SCINet_Tree_even.workingblock.interact.level.psi.4.weight f8 [1, 1, 3]
0.4272390831427292 -0.3378279957120331 0.5241226920958547
00000000: 6ef2 6a98 e257 db3f 0769 5050 f99e d5bf
00000010: e194 b4f3 9cc5 e03f

blocks1.SCINet_Tree.SCINet_Tree_even.SCINet_Tree_even.workingblock.interact.level.psi.4.bias f8 [1]
-0.47024040671472844
00000000: 663d 0638 6b18 debf

blocks1.SCINet_Tree.SCINet_Tree_even.SCINet_Tree_even.workingblock.interact.level.P.1.weight f8 [1, 1, 5]
-0.00464876880227271 0.33267576119574555 -0.29681428731008674 0.07143091048797252 0.2371280785546603
00000000: f70e 8f5f 960a 73bf 0f7d a046 8f4a d53f
00000010: 28df 3e5a 01ff d2bf 0527 78d0 4b49 b23f
00000020: cf83 2d7f 365a ce3f

blocks1.SCINet_Tree.SCINet_Tree_even.SCINet_Tree_even.workingblock.interact.level.P.1.bias f8 [1]
0.21421200995735554
00000000: bbb0 9694 4c6b cb3f

blocks1.SCINet_Tree.SCINet_Tree_even.SCINet_Tree_even.workingblock.interact.level.P.4.weight f8 [1, 1, 3]
-0.1667376315482986 0.01680260917073581 -0.06522551655613557
00000000: a597 41a1 a857 c5bf 78cc 8003 b434 913f
00000010: c42a 7994 9eb2 b0bf

blocks1.SCINet_Tree.SCINet_Tree_even.SCINet_Tree_even.workingblock.interact.level.P.4.bias f8 [1]
0.15099520695669782
00000000: 9aaa dd99 cf53 c33f

blocks1.SCINet_Tree.SCINet_Tree_even.SCINet_Tree_even.workingblock.interact.level.U.1.weight f8 [1, 1, 5]
-0.06975269656993144 0.16201437921530867 -0.23593071224497947 -0.00013772785418383665 -0.2111442981474528
00000000: e85e 930e 50db b1bf 3312 1b1e e3bc c43f
00000010: 0a6a 9b42 fa32 cebf ac9b 4942 610d 22bf
00000020: 0bdd a3bf c606 cbbf

blocks1.SCINet_Tree.SCINet_Tree_even.SCINet_Tree_even.workingblock.interact.level.U.1.bias f8 [1]
-0.3462016055652205
00000000: 8a6b 6ec7 2a28 d6bf

blocks1.SCINet_Tree.SCINet_Tree_even.SCINet_Tree_even.workingblock.interact.level.U.4.weight f8 [1, 1, 3]
-0.23245567809810933 0.27402429099590225 0.16135659163107588
00000000: 89b6 998f 1bc1 cdbf 67c4 082e 9d89 d13f
00000010: f555 0632 55a7 c43f

blocks1.SCINet_Tree.SCINet_Tree_even.SCINet_Tree_even.workingblock.interact.level.U.4.bias f8 [1]
0.31536555099212804
00000000: 1cf5 f2fd f22e d43f

projection1.weight f8 [24, 48, 1]
-0.05211321729209637 -0.08995215928726427 0.12040238247472215 -0.06638053361777585 0.0414978669954107 0.05262020077858632 -0.05009730306089479 0.06772233830641541
0.06536486638926582 0.09311704239973488 0.01590023625459903 -0.08157719573046318 -0.05276779173522221 -0.04774987897053958 -0.00787480063111819 -0.010140548886767768
-0.1023411144829648 0.06478652902254511 0.00957696896374625 0.07134736037517915 0.05632010437139997 -0.0140943204032942 -0.14965108565337729 0.06284763483486888
0.049134251578772145 -0.03281171866340143 -0.014790087465426531 -0.05012919147002512 0.06644953478069122 -0.008654577297373232 -0.024707930614462897 -0.051752839744380455
0.06326475859049474 0.02409487616775531 0.03313894722542489 0.09698440981951748 -0.05776688842586945 0.0010677559644518327 0.16213816319192903 -0.010051342836043156
0.07965681414192792 -0.04309465323398537 0.00945679913338914 0.10342762555075855 0.04121546272427986 0.05863232546301914 0.06567056008211503 0.08721650060628089
0.08720454109010208 0.030848713099727823 -0.01925512921113267 -0.05931889640700837 -0.04807129049147896 0.07428435686189624 0.10238867968469276 -0.06982550449997105
0.058253600853409054 -0.0665499445915506 -0.047621377785422594 -0.007805827007305455 -0.028908326516985074 -0.043299851346551364 0.027209532457350586 -0.08668919849946723
0.09657691623196756 0.08812377900401021 0.04934107380324398 -0.09241092345829026 0.006329578108433946 -0.0721181559196079 -0.06744322084249486 0.017951451717705236
-0.09116788106914794 0.15434983604112554 0.0039289236304346055 0.08489363499695676 -0.08719743418965069 0.0768712148132979 0.16883639521080274 0.03216107818494773
-0.10768572922380588 -0.041372431932142434 -0.051809545388334544 0.09690070084537515 0.03605741756146563 0.004259252993103416 -0.03369120201343046 0.02069623305388964
-0.028062299365977133 -0.028262085421407346 0.07876190967182217 0.0429845902823557 0.039626216212326 0.09918054869985078 0.2451467638600066 0.008933910320889788
0.062397574404476845 -0.05711141285353318 -0.024430537987640243 0.056806742496958884 -0.08808158885713137 0.073141892169929 -0.06225385536241823 0.06400477215442547
0.03459933778322311 -0.034373624711785504 0.0423099265192556 0.013632501648003741 0.06615236453923701 0.0075858526624542925 -0.054400869692463806 -0.10290636730928826
-0.004680410472004381 -0.019406361631685617 0.04767296837798962 -0.0517508477195898 0.14747594274463116 0.06667242411335784 -0.07963978402958695 -0.08924442454237885
-0.03600338363587443 -0.059899878768908156 -0.044756701147769175 0.1021635849973285 0.12599118750562197 -0.0276862408274317 -0.06406235209111542 -0.0032632143283528787
-0.07487865673670821 -0.028652744194330025 -0.07632238743998937 0.04850881364239532 -0.05820784442483241 0.12288385732228889 0.024450730630106762 0.07476460818844925
0.11466911799835271 0.148402894857279 -0.0819665945738955 0.10165268813286789 0.011364983270108448 0.058052919441487265 0.16594876954052265 0.04721477192237877
0.08902995974305418 0.042283618927250445 -0.07790423865422225 0.047215745546707766 0.03270312579316197 -0.054569757787956794 -0.07246533756381589 0.04520253568884504
-0.06535147476666262 0.09913849746658442 0.03757975384085958 -0.00294792611741303 -0.07763016092175268 -0.04717453902375096 0.011393789090858156 -0.018958402955628118
0.06941893390502507 -0.04343744451612656 0.051535385627122676 -0.012385298562611984 0.01586411593182209 0.06249960360048489 -0.09249326040076974 0.08700401338701808
-0.10308355407037095 -0.10274633800382531 0.04279460567441608 -0.01782795690508546 0.07429968212513365 0.08026196501758347 -0.10854143782975588 -0.0073913741528859244
-0.07070438665424321 -0.025583472912944678 0.02505869179943668 0.05596815881021468 0.010152236529719132 0.08932408413511037 0.01952019015240155 0.023171638376549952
0.09696686151245319 0.07597549888113263 0.10835357391416778 -0.008694790962990756 0.03383853515174482 -0.014739169394049867 0.009288309758814917 0.1800657483384627
0.07322099221752439 0.016497035990154486 -0.10455449534674603 0.07677191221737834 0.03361227716069729 -0.01054571812893657 -0.06910248481232296 -0.05559922190619774
0.10255663743179998 -0.017517123904897174 0.0318980651332709 0.00830275191028399 -0.08103255055474788 0.022652610152272257 0.03933771221928453 -0.026190645247083547
0.005011100884547258 -0.06896318586820217 -0.07083413436026909 0.025156067298552826 0.05008403820475821 0.07461725875048832 -0.010822325765449744 -0.049768681616592175
-0.035843924766357727 -0.005845054480299558 0.06220740110966895 0.01920014972274098 -0.02154025855332435 0.010658144983730886 -0.11451704313496347 0.09199141989997635
-0.07709081633885091 0.08332225447354458 -0.06442660098438446 -0.07303164567072154 0.06343920561499825 0.043224541696827025 0.12376710763193773 0.10575290632920673
0.02887094886211487 -0.0026957549910833294 -0.014880859751995304 0.002729995867764119 0.02233856841042858 0.13912317395847057 0.07842859618752036 0.18248934105288334
-0.012715178230659608 0.06493667964074852 -0.03907410680587732 -0.0619663422441352 0.09720788815380063 0.046582955804455276 0.025829229010362154 0.08747704761331955
0.011097093257364955 -0.060938089365551826 -0.07114520284475957 -0.06678673979014879 -0.029435227001295288 0.019084506198152707 0.0042404803824177655 -0.07518957464374673
00000000: 5df4 ea67 95ae aabf eee7 57ce 1a07 b7bf
00000010: eae3 16c7 b0d2 be3f 60b8 fa8c 50fe b0bf
00000020: 41b6 325b 353f a53f 41ed e7f2 08f1 aa3f
00000030: 1358 878c 5aa6 a9bf 7215 3c4c 4056 b13f
00000040: bd05 737b c0bb b03f 8b9e cebb 84d6 b73f
00000050: c344 d9ca 2648 903f c000 c33b 3ee2 b4bf
00000060: d6e0 9147 6104 abbf 8b02 2211 ac72 a8bf
00000070: 6aa8 62d9 a920 80bf cf41 a86e 91c4 84bf
00000080: 1993 bdfb 0633 babf 2089 5f97 d995 b03f
00000090: 35e9 f303 179d 833f 55a2 7713 d243 b23f
000000a0: 0bd3 c31c fdd5 ac3f 122e 88a9 7bdd 8cbf
000000b0: 6198 584b c427 c3bf 8828 3f58 c816 b03f
000000c0: cedc 49e7 1f28 a93f 0773 2b95 b2cc a0bf
000000d0: fc7b c0ef 434a 8ebf ac9a e08b 88aa a9bf
000000e0: fdac b732 d602 b13f 9f95 9fb3 7db9 81bf
000000f0: cb89 c327 094d 99bf 9abf 5a24 597f aabf
00000100: c8b0 2285 1e32 b03f 4414 91c4 53ac 983f
00000110: 4238 1d8d 96f7 a03f 668d 6564 f8d3 b83f
00000120: 565d 2921 9f93 adbf 98af a23c 7e7e 513f
00000130: 62e2 2b7e f1c0 c43f 88f0 1766 cc95 84bf
00000140: 37a4 a493 6364 b43f a87b 8b9c 8010 a6bf
00000150: 7ba0 0518 165e 833f 3652 3e9d 3b7a ba3f
00000160: 2b07 fb70 311a a53f d545 b460 0e05 ae3f
00000170: 10d9 dc2b c9cf b03f d489 c611 d253 b63f
00000180: ed6f 0b6c 0953 b63f 644e 8c17 ce96 9f3f
00000190: f6e0 f7d8 9db7 93bf feb0 34e0 0b5f aebf
000001a0: 7028 13d9 cc9c a8bf 4e84 53b3 4c04 b33f
000001b0: b6f3 b9fe 2436 ba3f 280b 4192 15e0 b1bf
000001c0: 544a 147d 6ad3 ad3f 2742 92cb 6a09 b1bf
000001d0: 5a92 5b48 d461 a8bf 670b 6fbb 00f9 7fbf
000001e0: a7e1 e3f3 249a 9dbf d302 e9ea 652b a6bf
000001f0: 61d2 2cd0 d0dc 9b3f f9be 7868 4331 b6bf
00000200: 0bcc c3c8 43b9 b83f c578 d2ac 478f b63f
00000210: b73d abb4 3b43 a93f 77e8 0b06 3ea8 b7bf
00000220: 913b 922f 0bed 793f 175f 1fe1 5576 b2bf
00000230: dffc da7b f543 b1bf 304e 2c88 dd61 923f
00000240: 463a a33b c756 b7bf b144 f844 bcc1 c33f
00000250: 6de8 0468 c617 703f 5653 f3d9 96bb b53f
00000260: e3c0 2330 9252 b6bf dc7c a0f9 d4ad b33f
00000270: e807 e755 6e9c c53f 8053 04b6 6a77 a03f
00000280: c51c 43bd 4a91 bbbf fc85 3574 c42e a5bf
00000290: 4886 20de c786 aabf 3722 17fd 7bce b83f
000002a0: e0cf 682a 1e76 a23f 37e9 f884 2672 713f
000002b0: b108 9f25 f93f a1bf 95a7 77b0 6431 953f
000002c0: 7b17 1c08 5dbc 9cbf d024 6872 bcf0 9cbf
000002d0: f002 3692 bd29 b43f 5246 fd82 1302 a63f
000002e0: c36f 642d e349 a43f 95b0 107d e563 b93f
000002f0: 06de bf1a f860 cf3f 579c 3a25 f14b 823f
00000300: 177b d52a 93f2 af3f d359 de04 b53d adbf
00000310: 56ef b8a6 5104 99bf 78f7 6efa c515 ad3f
00000320: a166 85d7 838c b6bf 1460 d652 6db9 b23f
00000330: 70ba a9c1 bcdf afbf c1f1 30e3 9d62 b03f
00000340: b101 7c20 01b7 a13f 4fd5 f673 6b99 a1bf
00000350: 138a 648d a5a9 a53f a93e ed65 5beb 8b3f
00000360: 90c4 3f82 5cef b03f a36c 8fd1 5712 7f3f
00000370: 5dfb 6748 6eda abbf 20c0 245a 1258 babf
00000380: e6bb 8b1e c42b 73bf 1c75 2be2 42df 93bf
00000390: f064 2c60 9768 a83f 7de8 fd4c 167f aabf
000003a0: 8c79 84df 7de0 c23f 61a6 1ca9 7111 b13f
000003b0: a919 dedb 4563 b4bf fc85 c2fc b8d8 b6bf
000003c0: 23d9 8516 096f a2bf 1593 b168 32ab aebf
000003d0: 3dbc 69af 59ea a6bf 2ad8 6788 6427 ba3f
000003e0: 6bde f5ae 7a20 c03f ceab 9c2b c859 9cbf
000003f0: 8fdc 22eb 6366 b0bf 2d60 3eda 74bb 6abf
00000400: 2642 da65 3f2b b3bf b66d 051d 2557 9dbf
00000410: ace4 012e dd89 b3bf 8ddd 52b0 25d6 a83f
00000420: 61c2 5928 6bcd adbf d7d2 6704 5175 bf3f
00000430: 4caf adc1 9c09 993f 1351 11fb c523 b33f
00000440: cb01 aa8f f45a bd3f 4599 05b6 ddfe c23f
00000450: 0533 0f43 c3fb b4bf 91c6 141b e905 ba3f
00000460: 2ab6 b73b 8646 873f 6f84 e0bc 1cb9 ad3f
00000470: 5176 fe2c cf3d c53f 00e5 96da 882c a83f
00000480: d1ea 75dd aaca b63f 25ec e5d0 32a6 a53f
00000490: 985a 3d3d 88f1 b3bf a86f f585 a92c a83f
000004a0: d767 84cf 76be a03f 8e8e 193a 91f0 abbf
000004b0: e720 ee9e 168d b2bf 82b0 f568 c924 a73f
000004c0: 6241 dece dfba b0bf 47c0 64fc 2361 b93f
000004d0: 45f8 794b a73d a33f 2672 7dc8 3f26 68bf
000004e0: d096 57fa 91df b3bf 782c 9fdc 4227 a8bf
000004f0: 689b 2e7c a055 873f a01a b7e2 d469 93bf
00000500: 8063 d872 70c5 b13f 45b6 3cc7 6e3d a6bf
00000510: 10e2 b597 d862 aa3f d68d 38a2 765d 89bf
00000520: 14b3 6dcc ae3e 903f 6f3f f4b2 f2ff af3f
00000530: 4e8f 8568 a3ad b7bf 8434 1e20 e545 b63f
00000540: 50d9 7c0d af63 babf eb9b 8281 954d babf
00000550: f237 a2af 2ce9 a53f 0986 72ef 7d41 92bf
00000560: 23a5 d4d0 4d05 b33f cbfb dc52 0c8c b43f
00000570: a757 bd25 5fc9 bbbf f774 25e4 6a46 7ebf
00000580: 531c 5dc4 ae19 b2bf 35b3 eacd 8d32 9abf
00000590: c957 0957 fca8 993f f216 6ac7 dba7 ac3f
000005a0: 1cde 021f b2ca 843f defe 1a74 f1dd b63f
000005b0: 36db 43c9 19fd 933f 908c 1654 4eba 973f
000005c0: 2be3 fdfa d1d2 b83f 47e3 fd5a 2173 b33f
000005d0: b8b6 5d50 0fbd bb3f c31e a716 93ce 81bf
000005e0: 2d80 a4d3 4853 a13f cd24 24d4 912f 8ebf
000005f0: 4d9e 31d5 bf05 833f d129 1ffa 640c c73f
00000600: cd76 f466 9cbe b23f 5a0e 3c58 99e4 903f
00000610: bbff 295a 15c4 babf 189b 39f4 52a7 b33f
00000620: c56e 4cde a035 a13f 831c d053 fe98 85bf
00000630: 115d 5750 b3b0 b1bf 3553 8a4f 8077 acbf
00000640: 17df c1db 2641 ba3f 6e82 2a49 02f0 91bf
00000650: d42c 1b75 f154 a03f 532c 5f7f 0801 813f
00000660: b74a 8b9a 8cbe b4bf 9d99 17ef 3e32 973f
00000670: 346b f696 1224 a43f 947f 3073 b8d1 9abf
00000680: fe4a a826 8586 743f d990 ee43 92a7 b1bf
00000690: 3890 8492 2f22 b2bf 687f 5f19 83c2 993f
000006a0: d837 4874 9da4 a93f b1ee 0cde 1d1a b33f
000006b0: cb88 d5f9 032a 86bf ac0c d1d7 477b a9bf
000006c0: 187a 4389 225a a2bf 562d 61dd fbf0 77bf
000006d0: 029d ab02 a6d9 af3f 81c6 8c3c 34a9 933f
000006e0: ecb9 2248 a60e 96bf 9213 2101 f0d3 853f
000006f0: 086b 192b fd50 bdbf 05a6 fbeb bf8c b73f
00000700: 854f ff46 39bc b3bf 502c fe75 9b54 b53f
00000710: 586a 3800 437e b0bf 3a93 bab1 33b2 b2bf
00000720: 2690 6641 8d3d b03f 55e6 f1f1 8621 a63f
00000730: ed84 997f 33af bf3f a611 245a 9f12 bb3f
00000740: 4b49 ab94 5890 9d3f 139a ca70 6815 66bf
00000750: 55fb c42f db79 8ebf f662 0c5f 375d 663f
00000760: 1f8b 0cf3 ebdf 963f 8638 22c5 c9ce c13f
00000770: bd53 b27f e513 b43f a669 d88b cf5b c73f
00000780: 07d6 4e55 6a0a 8abf 052b 5eb3 b09f b03f
00000790: 020c b475 8501 a4bf fd58 c86a 0dba afbf
000007a0: 16a7 88bc 9de2 b83f 2259 769f b8d9 a73f
000007b0: 8d87 8537 fa72 9a3f 115c a652 e564 b63f
000007c0: 3ae6 f7a4 12ba 863f 26c1 cff9 4633 afbf
000007d0: 994b 7c6f 9236 b2bf c684 348f ef18 b1bf
000007e0: db99 48a5 4424 9ebf 9ded ec87 e38a 933f
000007f0: 8c30 fd48 775e 713f be54 18bc 9f3f b3bf
