exp/data_checkpoints/Model_hs1_bs64_e50/checkpoint.pth (torch, 100025 bytes, 114 tensors)

inv_timescales f8 [1]
0	0x3ff0000000000000	1.0

blocks1.SCINet_Tree.workingblock.interact.level.phi.1.weight f8 [1, 1, 5]
0	0xbfc08642f3c7927c	-0.1290973368005729
1	0xbfe0fbc94836b697	-0.5307356272148408
2	0xbfb2ed5f80f41fe6	-0.07393452547341858
3	0xbf8593131741c3a7	-0.010534428736919411
4	0xbf84e7bfb626f03a	-0.010207650896397625

blocks1.SCINet_Tree.workingblock.interact.level.phi.1.bias f8 [1]
0	0xbfd160403e3b4c1b	-0.2714996917467844

blocks1.SCINet_Tree.workingblock.interact.level.phi.4.weight f8 [1, 1, 3]
0	0xbfa5fd30f3d2c210	-0.04294732071264573
1	0xbfcdb690abb34f3c	-0.23213394531068754
2	0x3fb8c35ed8baa14c	0.09673111716495447

blocks1.SCINet_Tree.workingblock.interact.level.phi.4.bias f8 [1]
0	0xbff74a45c5f315cd	-1.4556329471973755

blocks1.SCINet_Tree.workingblock.interact.level.psi.1.weight f8 [1, 1, 5]
0	0xbfb9cfc2689c1641	-0.1008264069933711
1	0xbfd3bb486cbf27d9	-0.3083058416347036
2	0xbfe240d5adba5356	-0.5704143899080047
3	0xbfdb2034a1a7284c	-0.4238406733171629
4	0xbf97ffd65af254a9	-0.023436879445018963

blocks1.SCINet_Tree.workingblock.interact.level.psi.1.bias f8 [1]
0	0xbfe9a1f5bc7681a8	-0.8010204964557959

blocks1.SCINet_Tree.workingblock.interact.level.psi.4.weight f8 [1, 1, 3]
0	0x3fe56ff51dd72909	0.6699166853734663
1	0x3ff13eac4f532e08	1.077801046240781
2	0x3feed07ab630d48c	0.9629491384900049

blocks1.SCINet_Tree.workingblock.interact.level.psi.4.bias f8 [1]
0	0xbfd456e50411e11d	-0.31780362508244925

blocks1.SCINet_Tree.workingblock.interact.level.P.1.weight f8 [1, 1, 5]
0	0xbf702ae9fafe54e6	-0.003947175966364491
1	0x3fca1c6f9a2c69b2	0.20399279621126493
2	0x3fe1eeac91ba757a	0.5603850218064246
3	0xbfe6b29e0bedb7ea	-0.7093038781147218
4	0xbfc3a3d699c80fc0	-0.15343744763242562

blocks1.SCINet_Tree.workingblock.interact.level.P.1.bias f8 [1]
0	0xbfa75cdd7847589d	-0.04563037961240577

blocks1.SCINet_Tree.workingblock.interact.level.P.4.weight f8 [1, 1, 3]
0	0xbfc639c7d74a14e6	-0.17363832485367608
1	0x40007abc5d17549c	2.0599295876259713
2	0x4002fb96ae03b488	2.3728459925537813

blocks1.SCINet_Tree.workingblock.interact.level.P.4.bias f8 [1]
0	0xbfe09a342d196fe8	-0.5188237076613378

blocks1.SCINet_Tree.workingblock.interact.level.U.1.weight f8 [1, 1, 5]
0	0x3fb5e3d183efc473	0.08550748320682704
1	0xbfba91d4b551ae83	-0.10378770281539045
2	0x3fd12e5526590b47	0.26845291848092184
3	0xbfc0810840a9af69	-0.12893775136341937
4	0x3fda090b9eb6a3aa	0.40680208682402486

blocks1.SCINet_Tree.workingblock.interact.level.U.1.bias f8 [1]
0	0xbfdf1f6036acf211	-0.4862900289479351

blocks1.SCINet_Tree.workingblock.interact.level.U.4.weight f8 [1, 1, 3]
0	0xbfc6bcb9ca14b72e	-0.1776344525073283
1	0xbfc15180556bc0ef	-0.13529972239439966
2	0xbfc815fb439e8170	-0.18817082215992853

blocks1.SCINet_Tree.workingblock.interact.level.U.4.bias f8 [1]
0	0x3fc41eb47d911907	0.15718704348746135

blocks1.SCINet_Tree.SCINet_Tree_odd.workingblock.interact.level.phi.1.weight f8 [1, 1, 5]
0	0xbfcc1e69b5fff740	-0.21967812906944495
1	0x3f92152204bba6a7	0.017658740557556254
2	0xbfb256e46d0baa7b	-0.07163837110753406
3	0xbf963d71440b4173	-0.021718759325098213
4	0xbfd1e41cf137d9fd	-0.27954791599714196

blocks1.SCINet_Tree.SCINet_Tree_odd.workingblock.interact.level.phi.1.bias f8 [1]
0	0xbfc21d013cc52c2e	-0.14151015727324662

blocks1.SCINet_Tree.SCINet_Tree_odd.workingblock.interact.level.phi.4.weight f8 [1, 1, 3]
0	0x3fd6b0ed2fda9a38	0.35454873727067904
1	0xbf92e6d071f9b6ad	-0.018458611446866047
2	0xbfc200edc548ef96	-0.14065334446956673

blocks1.SCINet_Tree.SCINet_Tree_odd.workingblock.interact.level.phi.4.bias f8 [1]
0	0xbfebdf18c5a9a817	-0.8709834919548055

blocks1.SCINet_Tree.SCINet_Tree_odd.workingblock.interact.level.psi.1.weight f8 [1, 1, 5]
0	0x3fa16c61730dfd16	0.0340300038287699
1	0xbfcd98ba82cdf11b	-0.23122340571342978
2	0xbfb81fa7c1236dad	-0.09423302140515118
3	0x3fced77fb6144a9e	0.24095150366391221
4	0x3fddbde45beca407	0.4647150895785334

blocks1.SCINet_Tree.SCINet_Tree_odd.workingblock.interact.level.psi.1.bias f8 [1]
0	0xbfe46468f79528a9	-0.6372570834730783

blocks1.SCINet_Tree.SCINet_Tree_odd.workingblock.interact.level.psi.4.weight f8 [1, 1, 3]
0	0xbfb0a257436c0067	-0.06497712513010044
1	0xbfb0bc93fcb58c0c	-0.06537747306497027
2	0x3fdba045a4708bda	0.4316572290283013

blocks1.SCINet_Tree.SCINet_Tree_odd.workingblock.interact.level.psi.4.bias f8 [1]
0	0xbff67da10b11319f	-1.4056711609183379

blocks1.SCINet_Tree.SCINet_Tree_odd.workingblock.interact.level.P.1.weight f8 [1, 1, 5]
0	0xbfd5a6d468f6fd1e	-0.3383074784323571
1	0xbfe8587381b06e63	-0.7607972653381235
2	0xbfe73ed46c12a88e	-0.726419650153973
3	0xbfa0338930287570	-0.03164318764559482
4	0x3fd0fbe5fb231184	0.26537465596290866

blocks1.SCINet_Tree.SCINet_Tree_odd.workingblock.interact.level.P.1.bias f8 [1]
0	0x3fb504ea031029de	0.08210623335632003

blocks1.SCINet_Tree.SCINet_Tree_odd.workingblock.interact.level.P.4.weight f8 [1, 1, 3]
0	0xbfb99ea67e2626ab	-0.10007706241426699
1	0xbfd4fcd36d783719	-0.3279312676466915
2	0xbfebd9ecc7679ce7	-0.8703521628021037

blocks1.SCINet_Tree.SCINet_Tree_odd.workingblock.interact.level.P.4.bias f8 [1]
0	0xbfc836be5372a2e6	-0.18917063784217375

blocks1.SCINet_Tree.SCINet_Tree_odd.workingblock.interact.level.U.1.weight f8 [1, 1, 5]
0	0xbfbc3f2d637fcbf5	-0.11033900908641654
1	0xbfa8cf180748703a	-0.04845500077155447
2	0x3fd444a5e5b64410	0.3166899436265007
3	0x3fc94f76a4c03456	0.19773753208611095
4	0x3fd9caf97cdd8ac1	0.40301358407866067

blocks1.SCINet_Tree.SCINet_Tree_odd.workingblock.interact.level.U.1.bias f8 [1]
0	0xbfe36bbf919d4378	-0.6069028705625064

blocks1.SCINet_Tree.SCINet_Tree_odd.workingblock.interact.level.U.4.weight f8 [1, 1, 3]
0	0x3fc79252998ef859	0.18415291307423123
1	0x3fdebab49308b8d9	0.4801455913428874
2	0x3fe507833e7b2df4	0.6571670742354727

blocks1.SCINet_Tree.SCINet_Tree_odd.workingblock.interact.level.U.4.bias f8 [1]
0	0xbfb7e3664d919944	-0.09331359285133539

blocks1.SCINet_Tree.SCINet_Tree_odd.SCINet_Tree_odd.workingblock.interact.level.phi.1.weight f8 [1, 1, 5]
0	0x3f9e7bcbc5e1b575	0.02976911921762367
1	0xbf9294c6fb31fab3	-0.018145665246715747
2	0x3fddd4c113fc0fd5	0.46611048652289117
3	0xbfc8cd5fa540f116	-0.19376750535037307
4	0x3fb4cb19decef166	0.0812240761724233

blocks1.SCINet_Tree.SCINet_Tree_odd.SCINet_Tree_odd.workingblock.interact.level.phi.1.bias f8 [1]
0	0xbfd3f4dcf4ed5605	-0.31182025831853394

blocks1.SCINet_Tree.SCINet_Tree_odd.SCINet_Tree_odd.workingblock.interact.level.phi.4.weight f8 [1, 1, 3]
0	0xbfd267640e9ce6c3	-0.2875604765609802
1	0xbfe1002c03154f64	-0.5312709865779479
2	0xbfd244d203816868	-0.285450461791362

blocks1.SCINet_Tree.SCINet_Tree_odd.SCINet_Tree_odd.workingblock.interact.level.phi.4.bias f8 [1]
0	0xbfea3625515995fa	-0.8191095913759334

blocks1.SCINet_Tree.SCINet_Tree_odd.SCINet_Tree_odd.workingblock.interact.level.psi.1.weight f8 [1, 1, 5]
0	0xbfc853669bf32793	-0.19004519095170433
1	0xbfd0ac6d3f5925ca	-0.2605240934977614
2	0x3fc88e07b0064b4e	0.19183441252661243
3	0xbfd788a869bb833d	-0.36771593404232644
4	0x3fa16cd865f23563	0.03403354877910194

blocks1.SCINet_Tree.SCINet_Tree_odd.SCINet_Tree_odd.workingblock.interact.level.psi.1.bias f8 [1]
0	0xbfd2d3939b7ecc6b	-0.2941636103161673

blocks1.SCINet_Tree.SCINet_Tree_odd.SCINet_Tree_odd.workingblock.interact.level.psi.4.weight f8 [1, 1, 3]
0	0xbfdae462545d7f22	-0.4201894592169869
1	0xbfaaafe7e9bc2aea	-0.052123305589779026
2	0x3fd8a10c1c319e16	0.3848295474367388

blocks1.SCINet_Tree.SCINet_Tree_odd.SCINet_Tree_odd.workingblock.interact.level.psi.4.bias f8 [1]
0	0xbfe0c0c845c059c4	-0.5235329973536911

blocks1.SCINet_Tree.SCINet_Tree_odd.SCINet_Tree_odd.workingblock.interact.level.P.1.weight f8 [1, 1, 5]
0	0x3fc11fdd2457f0fa	0.13378490709863639
1	0xbfbeecf712b9a725	-0.12080330092581144
2	0x3fcb8d9ce247e4de	0.2152591805350203
3	0xbfd9b4faa980cd45	-0.40167109063186884
4	0xbfdbad2189882946	-0.4324420779309047

blocks1.SCINet_Tree.SCINet_Tree_odd.SCINet_Tree_odd.workingblock.interact.level.P.1.bias f8 [1]
0	0x3fbdb21c0c03a303	0.11599898618045405

blocks1.SCINet_Tree.SCINet_Tree_odd.SCINet_Tree_odd.workingblock.interact.level.P.4.weight f8 [1, 1, 3]
0	0xbfd03d0889211a9b	-0.2537251795915069
1	0xbfcb9025d5a037b3	-0.21533654147100165
2	0xbfd15f82ebea2c42	-0.2714545539717542

blocks1.SCINet_Tree.SCINet_Tree_odd.SCINet_Tree_odd.workingblock.interact.level.P.4.bias f8 [1]
0	0x3fcbdf8efd84c837	0.2177599656948261

blocks1.SCINet_Tree.SCINet_Tree_odd.SCINet_Tree_odd.workingblock.interact.level.U.1.weight f8 [1, 1, 5]
0	0x3fb8fcc284985407	0.09760680901702311
1	0x3fb93baaa512b2c2	0.0985666897783615
2	0x3fdd1211cadfe01c	0.45422787486995886
3	0xbfc1c965d58fdcf1	-0.1389586727889092
4	0xbfe2473b12b73f6e	-0.5711951604407497

blocks1.SCINet_Tree.SCINet_Tree_odd.SCINet_Tree_odd.workingblock.interact.level.U.1.bias f8 [1]
0	0xbf7bbad7b89f14d4	-0.006769983921860862

blocks1.SCINet_Tree.SCINet_Tree_odd.SCINet_Tree_odd.workingblock.interact.level.U.4.weight f8 [1, 1, 3]
0	0xbfe4bdde9b5dc757	-0.6481774363039489
1	0xbff1135b6eeefe7a	-1.067225869497547
2	0xbfb144010dfdb580	-0.06744391051844012

blocks1.SCINet_Tree.SCINet_Tree_odd.SCINet_Tree_odd.workingblock.interact.level.U.4.bias f8 [1]
0	0x3fc2cf3121764eac	0.14694799550908522

blocks1.SCINet_Tree.SCINet_Tree_odd.SCINet_Tree_even.workingblock.interact.level.phi.1.weight f8 [1, 1, 5]
0	0x3fa308c2110cf538	0.03717619379174625
1	0x3fc207eea305bdeb	0.1408670707710223
2	0x3fd4ea613bb1d069	0.3268054087595887
3	0xbfc3982fa289a7a5	-0.15308185039913016
4	0xbfd71e9a27a2e9e1	-0.36124280806293824

blocks1.SCINet_Tree.SCINet_Tree_odd.SCINet_Tree_even.workingblock.interact.level.phi.1.bias f8 [1]
0	0xbfb8ac89cd0d7e9a	-0.09638272529763939

blocks1.SCINet_Tree.SCINet_Tree_odd.SCINet_Tree_even.workingblock.interact.level.phi.4.weight f8 [1, 1, 3]
0	0x3fb9ea4641c7deec	0.10123099428153254
1	0xbfc4204c7519ddab	-0.15723567693542626
2	0xbfd550feb5b61225	-0.3330685400508478

blocks1.SCINet_Tree.SCINet_Tree_odd.SCINet_Tree_even.workingblock.interact.level.phi.4.bias f8 [1]
0	0xbfd2674c71a3bb83	-0.2875548467408679

blocks1.SCINet_Tree.SCINet_Tree_odd.SCINet_Tree_even.workingblock.interact.level.psi.1.weight f8 [1, 1, 5]
0	0x3fc573720d5bf4b9	0.16758561756424742
1	0xbf91bcfa6e498a6d	-0.017322457295799887
2	0xbfab1fa75bfa4756	-0.05297587392591534
3	0x3fa26d8d16db91ec	0.035992058792348874
4	0xbfdc5ddb4eaea7b3	-0.4432285564786255

blocks1.SCINet_Tree.SCINet_Tree_odd.SCINet_Tree_even.workingblock.interact.level.psi.1.bias f8 [1]
0	0x3fe4af6d724c04ec	0.6464144928324038

blocks1.SCINet_Tree.SCINet_Tree_odd.SCINet_Tree_even.workingblock.interact.level.psi.4.weight f8 [1, 1, 3]
0	0xbfeee71264651ef3	-0.9657070122566139
1	0xbfe443972d526666	-0.6332507977669593
2	0xbfcd4680fc5f1d9b	-0.22871410677747125

blocks1.SCINet_Tree.SCINet_Tree_odd.SCINet_Tree_even.workingblock.interact.level.psi.4.bias f8 [1]
0	0xbfd2c1dbc9d56046	-0.29308218679716835

blocks1.SCINet_Tree.SCINet_Tree_odd.SCINet_Tree_even.workingblock.interact.level.P.1.weight f8 [1, 1, 5]
0	0x3fd416e135823ec6	0.3138964674517236
1	0xbfd9a61a409bf1c9	-0.4007630949925241
2	0xbfe4f66268d0bed2	-0.655076222150422
3	0xbfe4e2d0b437a2e8	-0.6526874084348409
4	0xbfdd5ce3970e045c	-0.4587944960731585

blocks1.SCINet_Tree.SCINet_Tree_odd.SCINet_Tree_even.workingblock.interact.level.P.1.bias f8 [1]
0	0xbfa20bb81c6981d2	-0.035245660274771176

blocks1.SCINet_Tree.SCINet_Tree_odd.SCINet_Tree_even.workingblock.interact.level.P.4.weight f8 [1, 1, 3]
0	0xbfccb7844f7ed307	-0.2243504894410295
1	0x3f691d621c0dfba7	0.0030657688334367497
2	0x3fe72410be8e5689	0.7231525155827551

blocks1.SCINet_Tree.SCINet_Tree_odd.SCINet_Tree_even.workingblock.interact.level.P.4.bias f8 [1]
0	0xbfdba9d8856b42d2	-0.43224156407545167

blocks1.SCINet_Tree.SCINet_Tree_odd.SCINet_Tree_even.workingblock.interact.level.U.1.weight f8 [1, 1, 5]
0	0xbfd9e4c39f7e3311	-0.4045876557873252
1	0xbfa100430fcb270b	-0.03320512359421287
2	0x3fc7815bd0ab4c60	0.18363521279261175
3	0x3fdfb1b3c1ec20bd	0.4952210801861943
4	0x3fd7d31f3379b06c	0.372260856884856

blocks1.SCINet_Tree.SCINet_Tree_odd.SCINet_Tree_even.workingblock.interact.level.U.1.bias f8 [1]
0	0xbfd9b462a6fbe850	-0.4016348486617334

blocks1.SCINet_Tree.SCINet_Tree_odd.SCINet_Tree_even.workingblock.interact.level.U.4.weight f8 [1, 1, 3]
0	0x3fd87506584e7001	0.3821426260344652
1	0x3fdae0a635791eb9	0.41996150228485934
2	0x3fe0cc5b49b0d620	0.5249458731911467

blocks1.SCINet_Tree.SCINet_Tree_odd.SCINet_Tree_even.workingblock.interact.level.U.4.bias f8 [1]
0	0x3fd51731d74e74de	0.32954069162390265

blocks1.SCINet_Tree.SCINet_Tree_even.workingblock.interact.level.phi.1.weight f8 [1, 1, 5]
0	0x3fbc7f4735ea8ce1	0.11131711069406293
1	0x3fa31a1e03112e87	0.03730863368454345
2	0x3fb78feeef2de797	0.09203999842966791
3	0x3fc42437d7d6f8ee	0.15735528983163455
4	0x3fc9e2f2dcae338a	0.20223842406667486

blocks1.SCINet_Tree.SCINet_Tree_even.workingblock.interact.level.phi.1.bias f8 [1]
0	0xbfeee455bc98fc57	-0.9653729136988528

blocks1.SCINet_Tree.SCINet_Tree_even.workingblock.interact.level.phi.4.weight f8 [1, 1, 3]
0	0xbfe2af87aebfcc91	-0.5839270031996354
1	0xbfe45e6419ed1b32	-0.6365223413821239
2	0xbfe30ca201f8bb87	-0.5952920950420414

blocks1.SCINet_Tree.SCINet_Tree_even.workingblock.interact.level.phi.4.bias f8 [1]
0	0x3fea3a6ccef64502	0.8196319620348336

blocks1.SCINet_Tree.SCINet_Tree_even.workingblock.interact.level.psi.1.weight f8 [1, 1, 5]
0	0x3fd68c1284b558d1	0.35229933700374
1	0x3fd02a8a9ff5a0f5	0.2525965273002975
2	0x3fd52fdca419b07e	0.33104625726151216
3	0xbfcb9f5d32dcda29	-0.21580090507059538
4	0x3fb183eff9e3e2e9	0.06841945505938053

blocks1.SCINet_Tree.SCINet_Tree_even.workingblock.interact.level.psi.1.bias f8 [1]
0	0xbfe0da48fd790c5d	-0.5266461325303556

blocks1.SCINet_Tree.SCINet_Tree_even.workingblock.interact.level.psi.4.weight f8 [1, 1, 3]
0	0xbfd290200672323a	-0.29004669789791004
1	0xbfd03410149eff9a	-0.2531776620271501
2	0xbfc081bc44d8b99b	-0.1289592109837486

blocks1.SCINet_Tree.SCINet_Tree_even.workingblock.interact.level.psi.4.bias f8 [1]
0	0x3fc3a8f60fb2f585	0.15359378592067344

blocks1.SCINet_Tree.SCINet_Tree_even.workingblock.interact.level.P.1.weight f8 [1, 1, 5]
0	0xbfe506917c4e8a21	-0.6570517948023885
1	0xbfcddc756776db05	-0.233290362853687
2	0xbfbce618fb049714	-0.11288601044051588
3	0x3fd08c88f98a00fb	0.2585775792031339
4	0x3fdd58e0f8127449	0.4585497305468534

blocks1.SCINet_Tree.SCINet_Tree_even.workingblock.interact.level.P.1.bias f8 [1]
0	0xbfda10c4a7d3aca3	-0.4072734488424407

blocks1.SCINet_Tree.SCINet_Tree_even.workingblock.interact.level.P.4.weight f8 [1, 1, 3]
0	0x3fc7a8855ee4a34a	0.18483035214856108
1	0x3fd7f082a35a8063	0.37405458405010544
2	0x3fe11940e23dd204	0.5343326967982311

blocks1.SCINet_Tree.SCINet_Tree_even.workingblock.interact.level.P.4.bias f8 [1]
0	0xbfe1b7d5a243851f	-0.5536907357419841

blocks1.SCINet_Tree.SCINet_Tree_even.workingblock.interact.level.U.1.weight f8 [1, 1, 5]
0	0x3fb125983719d567	0.06697989793049929
1	0x3f94899d4480ec49	0.020056206995132695
2	0x3fdca44e2f2894ea	0.4475284061939663
3	0x3fb00a835a13c896	0.06266041707184153
4	0xbfcdb9fbc90bab2a	-0.23223826710394607

blocks1.SCINet_Tree.SCINet_Tree_even.workingblock.interact.level.U.1.bias f8 [1]
0	0xbfdd862e6b7f07d7	-0.4613147783057889

blocks1.SCINet_Tree.SCINet_Tree_even.workingblock.interact.level.U.4.weight f8 [1, 1, 3]
0	0xbf9b7b6c3716bf79	-0.026838007795674444
1	0xbfcc509a801a0e9b	-0.2212098241326331
2	0xbfc2795d93eb15b7	-0.14432878229687926

blocks1.SCINet_Tree.SCINet_Tree_even.workingblock.interact.level.U.4.bias f8 [1]
0	0xbfaa7e39300ad7c5	-0.051744258036179804

blocks1.SCINet_Tree.SCINet_Tree_even.SCINet_Tree_odd.workingblock.interact.level.phi.1.weight f8 [1, 1, 5]
0	0xbfef0f03148a72e8	-0.9705825234592256
1	0xbfe16842b1b7dec0	-0.543977114778464
2	0x3fa107624a98e95d	0.03325946007358269
3	0x3fa8d32cc328c78f	0.048486136267810946
4	0x3fe22950886e6c1e	0.5675432839083248

blocks1.SCINet_Tree.SCINet_Tree_even.SCINet_Tree_odd.workingblock.interact.level.phi.1.bias f8 [1]
0	0xbfcd0bc29949660a	-0.22692139134123607

blocks1.SCINet_Tree.SCINet_Tree_even.SCINet_Tree_odd.workingblock.interact.level.phi.4.weight f8 [1, 1, 3]
0	0xbfdd0c3fbde5d319	-0.453872619101547
1	0xbfcb75ca124ec445	-0.21453214544229318
2	0xbfcb5cf324f7bdb8	-0.2137741022593056

blocks1.SCINet_Tree.SCINet_Tree_even.SCINet_Tree_odd.workingblock.interact.level.phi.4.bias f8 [1]
0	0x3fc018dc043654df	0.1257586498801748

blocks1.SCINet_Tree.SCINet_Tree_even.SCINet_Tree_odd.workingblock.interact.level.psi.1.weight f8 [1, 1, 5]
0	0xbfe03ef57855d812	-0.5076854086207752
1	0xbfe0be3a73728430	-0.5232212309675841
2	0xbf97ad57f0f9e201	-0.023122190554632386
3	0x3fd01a9cce54299a	0.25162429951947163
4	0x3fd537556f1ce8a9	0.3315023026549491

blocks1.SCINet_Tree.SCINet_Tree_even.SCINet_Tree_odd.workingblock.interact.level.psi.1.bias f8 [1]
0	0xbfbfb0871ab12363	-0.1237873497167477

blocks1.SCINet_Tree.SCINet_Tree_even.SCINet_Tree_odd.workingblock.interact.level.psi.4.weight f8 [1, 1, 3]
0	0xbfdb01121ae55ba2	-0.4219403517394601
1	0xbfbc2118c80f091f	-0.10988001713034067
2	0x3fcc809ba54b656d	0.22267480441113766

blocks1.SCINet_Tree.SCINet_Tree_even.SCINet_Tree_odd.workingblock.interact.level.psi.4.bias f8 [1]
0	0xbfde7d479ce0c1c5	-0.47639646835434873

blocks1.SCINet_Tree.SCINet_Tree_even.SCINet_Tree_odd.workingblock.interact.level.P.1.weight f8 [1, 1, 5]
0	0x3fe24838534332ea	0.571315920469343
1	0xbfa014d75eb535a4	-0.03140900641538316
2	0xbfb6485e0b2f68ce	-0.08704173825336456
3	0x3fb2ab86414ee6fc	0.07292975515784045
4	0xbfe20750f971e7c8	-0.5633931037875692

blocks1.SCINet_Tree.SCINet_Tree_even.SCINet_Tree_odd.workingblock.interact.level.P.1.bias f8 [1]
0	0xbfcc9a20b5b5552d	-0.22345360634305092

blocks1.SCINet_Tree.SCINet_Tree_even.SCINet_Tree_odd.workingblock.interact.level.P.4.weight f8 [1, 1, 3]
0	0x3ff694e929baa549	1.4113551740686765
1	0x3fea364a7c4d85f5	0.8191273143567616
2	0x3f7ba79d2af3acfe	0.006751645981448505

blocks1.SCINet_Tree.SCINet_Tree_even.SCINet_Tree_odd.workingblock.interact.level.P.4.bias f8 [1]
0	0x3fe04152852ce0d6	0.5079739190178099

blocks1.SCINet_Tree.SCINet_Tree_even.SCINet_Tree_odd.workingblock.interact.level.U.1.weight f8 [1, 1, 5]
0	0xbfbc05eda3f0f6e8	-0.1094654584166751
1	0xbfd1fe65d394e3c8	-0.28115220701471033
2	0xbfdbf1947f4002a5	-0.43661987711679223
3	0xbfd9b7519742098c	-0.40181388636860826
4	0xbfd6dd20b9b64fbd	-0.35724657188370285

blocks1.SCINet_Tree.SCINet_Tree_even.SCINet_Tree_odd.workingblock.interact.level.U.1.bias f8 [1]
0	0x3fb3d270c190988e	0.07742981649116329

blocks1.SCINet_Tree.SCINet_Tree_even.SCINet_Tree_odd.workingblock.interact.level.U.4.weight f8 [1, 1, 3]
0	0x3fd02dc2fa51f9e4	0.2527930683644668
1	0x3fd8b6216681633f	0.3861163617162226
2	0x3fd4c0512e71b628	0.32423810515942586

blocks1.SCINet_Tree.SCINet_Tree_even.SCINet_Tree_odd.workingblock.interact.level.U.4.bias f8 [1]
0	0xbfc0ab587280fbef	-0.13022904959686296

blocks1.SCINet_Tree.SCINet_Tree_even.SCINet_Tree_even.workingblock.interact.level.phi.1.weight f8 [1, 1, 5]
0	0xbfd51bd005075dcf	-0.32982254496661495
1	0x3faeb06ac0620566	0.059939704879989716
2	0x3fd09afda95dbc72	0.2594598916975378
3	0x3fd31c90192370fd	0.2986183400623899
4	0x3fc3c5a20f7ca5b4	0.1544687820071836

blocks1.SCINet_Tree.SCINet_Tree_even.SCINet_Tree_even.workingblock.interact.level.phi.1.bias f8 [1]
0	0xbfdaa5793ae25b90	-0.416349704269515

blocks1.SCINet_Tree.SCINet_Tree_even.SCINet_Tree_even.workingblock.interact.level.phi.4.weight f8 [1, 1, 3]
0	0xbfe440335fa5d627	-0.6328369968529771
1	0xbfd416701038cf0d	-0.31386949142618975
2	0xbfd1130d8470fa91	-0.26678789075587256

blocks1.SCINet_Tree.SCINet_Tree_even.SCINet_Tree_even.workingblock.interact.level.phi.4.bias f8 [1]
0	0x3fd0892ce98613d9	0.25837252430966157

blocks1.SCINet_Tree.SCINet_Tree_even.SCINet_Tree_even.workingblock.interact.level.psi.1.weight f8 [1, 1, 5]
0	0xbfc0df4f3b3f1fee	-0.13181486504458867
1	0xbfb171b9083d1e91	-0.06814152194157887
2	0xbfd8a342b3f83a1c	-0.3849646337047561
3	0xbfd73597749ee96f	-0.36264597309823093
4	0xbfe3447ef3ba5f45	-0.6021113167107407

blocks1.SCINet_Tree.SCINet_Tree_even.SCINet_Tree_even.workingblock.interact.level.psi.1.bias f8 [1]
0	0xbfddffa8551253aa	-0.46872909839413046

blocks1.SCINet_Tree.SCINet_Tree_even.SCINet_Tree_even.workingblock.interact.level.psi.4.weight f8 [1, 1, 3]
0	0x3fe409eed8ca2b45	0.6262125238584778
1	0x3fd85b01cbe41dd0	0.3805546275256946
2	0x3fe81b71e36d22b1	0.7533502046508912

blocks1.SCINet_Tree.SCINet_Tree_even.SCINet_Tree_even.workingblock.interact.level.psi.4.bias f8 [1]
0	0xbffad4bf04ff6b2c	-1.6769399829124252

blocks1.SCINet_Tree.SCINet_Tree_even.SCINet_Tree_even.workingblock.interact.level.P.1.weight f8 [1, 1, 5]
0	0x3fa8001355ff8da5	0.04687557625563991
1	0x3fd4a818b10b1f65	0.32275979318045805
2	0xbfb80d31faefb4b0	-0.09395134331107857
3	0x3fdb6f7e4e548ddc	0.4286800160354838
4	0x3fe535821fef2887	0.6627817748751718

blocks1.SCINet_Tree.SCINet_Tree_even.SCINet_Tree_even.workingblock.interact.level.P.1.bias f8 [1]
0	0xbfc76033263b1cc0	-0.18262328497642066

blocks1.SCINet_Tree.SCINet_Tree_even.SCINet_Tree_even.workingblock.interact.level.P.4.weight f8 [1, 1, 3]
0	0xbfceff02f7192ecb	-0.24215733590459929
1	0xbfd011d88667bbb5	-0.25108922124394023
2	0xbfd0db41718ad755	-0.26338230217094366

blocks1.SCINet_Tree.SCINet_Tree_even.SCINet_Tree_even.workingblock.interact.level.P.4.bias f8 [1]
0	0xbfbfeadd39b5d504	-0.12467749270384237

blocks1.SCINet_Tree.SCINet_Tree_even.SCINet_Tree_even.workingblock.interact.level.U.1.weight f8 [1, 1, 5]
0	0xbfe1fb52c3cc9a2d	-0.561929113788954
1	0xbfc108bda0f12c62	-0.13307924612522287
2	0xbfbfa422d78caba5	-0.12359826815069981
3	0x3fe007be084069fd	0.5009451066173934
4	0x3fd57dbe4eaae207	0.33579976732610856

blocks1.SCINet_Tree.SCINet_Tree_even.SCINet_Tree_even.workingblock.interact.level.U.1.bias f8 [1]
0	0x3f6567e065c9f245	0.0026130087629197296

blocks1.SCINet_Tree.SCINet_Tree_even.SCINet_Tree_even.workingblock.interact.level.U.4.weight f8 [1, 1, 3]
0	0x3fd1c84e269eb0d6	0.2778506638667414
1	0x3ff76157be6f5b6a	1.461265319716143
2	0x3ff3a6955df056e2	1.2281697911725407

blocks1.SCINet_Tree.SCINet_Tree_even.SCINet_Tree_even.workingblock.interact.level.U.4.bias f8 [1]
0	0x3fd34512d15a3bd9	0.3010909122903605

projection1.weight f8 [48, 96, 1]
0	0x3f13d23dca5a1440	7.561208857438748e-05
1	0x3f21385b1cb45659	0.0001313792439325164
2	0x3f3c189cf58d1598	0.0004287131501324536
3	0x3f267623510d8da1	0.0001713674651241228
4	0x3f4a4d54955dfa4a	0.0008026755337907168
5	0xbf3eaf5b564e8b20	-0.00046821575079485263
6	0xbf45b1f81b76ab63	-0.0006620847188306519
7	0x3f6f31b6125b9686	0.0038078838432394372
8	0xbf50dc52ed8f6540	-0.0010290918200922122
9	0x3f53a971e682b881	0.0012000667866618744
10	0xbf38d792208ca923	-0.00037905995900424006
11	0x3f3c541040897ffc	0.0004322566678975901
12	0xbf4a5ffc7d969133	-0.0008048994888452454
13	0xbf5756567aeeb51b	-0.0014243931325198026
14	0x3f341c4aeee65e98	0.00030686215804951724
15	0x3f4e8a2a191b7e7f	0.0009319978291521673
16	0xbf359eb8026d5e08	-0.00032989494723298417
17	0x3f6155a294c61db4	0.002116029301933964
18	0xbf5188bda57a70a4	-0.001070199204980895
19	0x3f334bec50b3da96	0.000294442361976102
20	0x3f50219987c58246	0.0009845732993981767
21	0x3f4a1e2b56c9893c	0.0007970534912369663
22	0x3f355e350b9db752	0.0003260497575102622
23	0x3f729e7c10e75bd2	0.004545673973971058
24	0xbf221c073e5cda69	-0.00013816440985588437
25	0x3f33e1d34b927f1a	0.0003033772332603366
26	0x3f4e4d049aff6173	0.0009247086036295163
27	0xbf5f16c3721ce946	-0.0018975170755327216
28	0x3f4cdd384f3c436b	0.0008808636616511716
29	0x3f4d8276cf25e544	0.0009005622980985746
30	0x3f3209f98abd7b0e	0.0002752527459416878
31	0x3f6bfdfbde02dd3a	0.0034170073778018424
32	0xbf54b7d3fac52a37	-0.0012645311463354133
33	0xbf3252a06337e253	-0.00027958312713808226
34	0xbf33c7cd984863cc	-0.0003018261852801268
35	0xbf640615eba20409	-0.002444308102952157
36	0xbf2981a6ec89a3a0	-0.00019459879537755704
37	0xbf55753cfeffafc6	-0.001309690062039502
38	0xbf323d674af04cf6	-0.00027831813616892244
39	0x3f718939dc22cf76	0.004281259551294761
40	0x3f21a9f7db4cb4d2	0.00013476515382518942
41	0xbf63fad52f5661d6	-0.0024389423148927043
42	0x3f4c54d5a984154d	0.000864605262024179
43	0x3f62549ab29f9cbc	0.002237608093298952
44	0x3f43e1a249924b20	0.0006067316454781736
45	0xbf6d9b87f77852fa	-0.0036142020796979786
46	0xbf4aa648f23a997f	-0.0008132797415399267
47	0x3f690075308993f8	0.0030519760951386275
48	0xbf64891a233e82cb	-0.0025067816258828915
49	0xbf58526a512bcf34	-0.0014844930889780896
50	0x3f37ce6a7112c313	0.0003632554881490151
51	0xbf30865d4e40c808	-0.00025214937182049856
52	0x3f4c2deee6bf034f	0.0008599678526409557
53	0xbf4b6bb3b3486ca6	-0.0008368136828410713
54	0x3f4db1ace4fcab14	0.0009061903201418053
55	0x3f6c08279b0eff37	0.0034218572186261137
56	0x3f496cdabf836798	0.0007759159189177798
57	0xbf3fc5a3c54eab5d	-0.0004848027068031136
58	0xbf606dee9200ad1c	-0.0020055446220986883
59	0xbf5807228a887c1a	-0.0014665448490018885
60	0x3f43a65060168db0	0.0005996601541266491
61	0xbf63f4a3febe1688	-0.0024359896687567474
62	0xbf3acc436f87f358	-0.0004089035642492098
63	0x3f6dc545ae0a4356	0.0036341057714896303
64	0xbf5856b30057903e	-0.001485514455787942
65	0x3f33d7658d2a90c7	0.00030275563509919414
66	0x3f2bb36a9c785f85	0.00021134067922967347
67	0xbf5d417e8e30c186	-0.0017856346028218575
68	0x3f2e003485649cda	0.00022888795019435673
69	0xbf77c6b61828cd26	-0.005804740244048012
70	0xbf3779a38f71790e	-0.0003582023923111168
71	0x3f6298b3d2742817	0.0022700798177810555
72	0x3f5ab1b780e3c31a	0.0016292850519301128
73	0xbf5333f794db060f	-0.0011720578944934867
74	0xbf5bce8a77029922	-0.0016971924015166191
75	0xbf379a5dcee674d2	-0.0003601531051574239
76	0xbf357c37834ccf4f	-0.00032783847136673856
77	0xbf6294748ccdc835	-0.002268054615734117
78	0xbf619eaef0561266	-0.002150861432428197
79	0x3f67bc4ec513ce56	0.002897409293490398
80	0x3f633eceb89d6067	0.0023492848894584475
81	0x3f4323f8e2daf61c	0.0005841222061559489
82	0xbf391eef3bbe5f84	-0.00038331356676612354
83	0x3f5493e3ec5aca62	0.0012559629262055773
84	0xbf3885b988dbb090	-0.00037418155339597695
85	0x3f5b414061a558d4	0.0016635063862700432
86	0xbf67750047ad0602	-0.002863407656520379
87	0xbf3688c80e6ab41f	-0.00034384617030519706
88	0xbf82213613343a3a	-0.008852407895145398
89	0xbf68f340704e64e8	-0.003045678955868259
90	0xbf8055fa579de2d9	-0.007976489828921117
91	0x3f90e6b9cf854534	0.016505149165202584
92	0x3f7dde3f0c1014f9	0.007292028692068125
93	0xbf633f87f54a8b22	-0.002349629920290212
94	0x3f95af4a4af526b4	0.021176491570520553
95	0x3feb553306e5f6e9	0.8541503081066512
96	0x3f559bbd2030a72f	0.001318869298084068
97	0x3f677d6db71f8cb2	0.0028674261929935935
98	0xbf51d5f7c58a7d60	-0.0010886115689244455
99	0xbf6a960026e9fd6c	-0.003245353981867252
100	0x3f5da985fdb165ad	0.0018104370599501915
101	0xbf54beb29370014c	-0.0012661689668221508
102	0xbf337b68d514bfdd	-0.00029727277167790144
103	0x3f6224cd28754098	0.0022148138993217208
104	0xbf6036f3e605b01c	-0.0019793285029461438
105	0xbf601b003e88137c	-0.001966000058248372
106	0xbf08e3e0816d2027	-4.747418295508758e-05
107	0xbf4fefc775847cda	-0.0009746288224369529
108	0x3f40439433a0b83a	0.0004963372841808652
109	0x3f439043bbfbbed1	0.0005970316633163391
110	0xbf34e7e8be2aead3	-0.0003189986438589091
111	0x3f7024b6a45afeeb	0.003941262669911553
112	0xbf629893b5f4411c	-0.002270020005774266
113	0x3f4685a7d44239a1	0.0006873197057915456
114	0xbf490ade557c85b8	-0.0007642350783251739
115	0xbf6019b26412e9d9	-0.0019653782079249557
116	0x3f577004563443d9	0.0014305155135085816
117	0xbf29d67a8840d595	-0.00019712682490228826
118	0x3f45cf1788221c9e	0.0006655564213965575
119	0x3f724ab116ebd281	0.00446576285934397
120	0xbf2f247e47c04238	-0.00023759881503383914
121	0xbf4639628cf9dec0	-0.0006782275394945012
122	0x3f5e420a4457a7d9	0.00184679987557467
123	0xbf6091a1d58f4910	-0.002022567827659867
124	0x3f52976d5c274d36	0.0011347358673575287
125	0x3f5610a9e755a505	0.0013467463698709225
126	0x3f60682814526de5	0.0020027907181210274
127	0x3f653107828eb976	0.0025868555716989606
128	0x3ef05d47b604f880	1.5606284592844123e-05
129	0xbf3ba78a6aab44bc	-0.0004219735080087208
130	0x3f6412bbea6bfac1	0.0024503393391336063
131	0xbf6aeb272fdd9819	-0.0032859578486066463
132	0xbf4cbeda27f434e7	-0.0008772435393510609
133	0xbf68eb3302314d3c	-0.003041839243033499
134	0xbf2cf4c8ca2f90af	-0.00022091818854542064
135	0x3f6330f877e01ad9	0.002342686929299159
136	0xbf344d233ab3894a	-0.0003097735413587667
137	0x3f33aaa442cd9210	0.0003000880267818593
138	0x3f4e7bbc2659ed85	0.0009302777004473328
139	0x3f5885fa8e76890a	0.0014967867699416403
140	0x3f5a8ba3c2a591b5	0.0016202067586955475
141	0xbf7055e713ef5aba	-0.003988173149045588
142	0xbf4a46ebaba3de0b	-0.0008019114241326076
143	0x3f623361fff5dfd7	0.0022217668590051964
144	0xbf5ea88d5b62fa89	-0.001871240657734726
145	0xbf4f2c2f26a61d3e	-0.0009513120869976477
146	0x3f29751999aa39d1	0.00019422471526238256
147	0xbf66f98f3cc2a2a4	-0.0028045461277382434
148	0xbf474ab7f93cb02e	-0.0007108114536769122
149	0xbf5cfdad335a8658	-0.0017694655811414575
150	0x3f57fa4e550d3258	0.001463486191101945
151	0x3f71a92b190c05ae	0.004311722136436753
152	0xbf3e882839fd9c3e	-0.00046587926953240214
153	0xbf2fa4a47ca453b6	-0.00024141796013368654
154	0x3ee241230fd05ec0	8.70439589033213e-06
155	0xbf5e0261b88b5658	-0.0018316225343161432
156	0x3f4ae7e9a6a8cb08	0.0008211031793677612
157	0x3f514ac0e7dc1aea	0.0010554202885388283
158	0x3f4032c4d2ff0ab4	0.0004943333678898072
159	0x3f7b44bc97e25594	0.00665734929329655
160	0xbf5b21ef7e3ce884	-0.0016560400772065728
161	0x3f70b2ec849b4add	0.004076885126510913
162	0xbeb67379703c5c00	-1.33818815667929e-06
163	0xbf51659c106b24af	-0.0010618232787911565
164	0xbeb07e3d5d29a700	-9.830667876638602e-07
165	0xbf52804c2a3ccc60	-0.001129221324799777
166	0x3f42c3368d196336	0.0005725876200798122
167	0x3f7f6c5e96c3ddfd	0.007671708572380973
168	0x3f6427d146f6195e	0.002460392708317701
169	0xbf6b74d23bd16a98	-0.003351603138566372
170	0xbf5982b7596df12d	-0.0015570440789068427
171	0x3f34d6b792f29575	0.00031797391688777955
172	0xbf46970bcf310ab5	-0.000689392820625598
173	0xbf5c592f3be9c774	-0.0017302476186639966
174	0xbf678c645a957a16	-0.002874561313247935
175	0x3f790c34b8b3d50a	0.006115156119667073
176	0x3f698313fc831ed8	0.003114260707750432
177	0xbee5c5b4a0031540	-1.0381835636850468e-05
178	0xbf47bcb588b2e248	-0.0007244001766571551
179	0x3f5e2da04bb39ec7	0.0018419328105724762
180	0xbf5b91d0532e20cf	-0.0016827139304230081
181	0x3f6ccfad6c7a2578	0.0035169970686338946
182	0xbf5b02e0aa293ac5	-0.0016486352912072216
183	0xbf793ef6ae2863b7	-0.006163562388359737
184	0xbf85365f87a8fee3	-0.010357614829558276
185	0xbf947760f855a0b1	-0.019986643941053376
186	0xbf5b6c5809022b3a	-0.0016737804144521654
187	0x3f8b00301a554a9c	0.013183952144264759
188	0x3f8def191b63b95b	0.014616199634897844
189	0xbf8cae220328acd8	-0.014004007073785393
190	0x3fa2e7f0867bd5d9	0.036925808350058716
191	0x3fe9cbef8ba9d135	0.8061444976615691
192	0x3f608ec2b5b86f42	0.0020211985518140694
193	0xbf37e45cb53b8728	-0.000364563592695532
194	0x3f5ce10e8e25e6aa	0.0017626421109454928
195	0xbf5cf4fd79085462	-0.0017673945732259656
196	0x3f4b44198430af20	0.0008320927230491583
197	0x3f311995b129ccda	0.00026092438307685555
198	0xbf2962597be46400	-0.00019366590817851415
199	0x3f478ed60d686b7d	0.0007189316918955049
200	0xbf63c087b5dec309	-0.002411141452249747
201	0x3f382f010024d61e	0.0003690125887659562
202	0x3f58d294b8904392	0.0015150501587905857
203	0x3f57b63e7462a1c6	0.0014472589405532961
204	0xbf4f8cba3c88b704	-0.0009628209455223307
205	0x3f676d00d0fc172f	0.002859593958308169
206	0x3efbf1439c5024e0	2.6647985368587267e-05
207	0x3f6020523cc59d71	0.00196853696813875
208	0xbf664b99ad849c2a	-0.0027215959090827373
209	0x3f6ad35174689dfd	0.0032745924866224283
210	0xbf40392adaea8d32	-0.0004950961354847404
211	0xbf6a8c8ef176641e	-0.0032408515796302903
212	0xbf4e1c65cdf6ee34	-0.0009189126102948143
213	0xbf42760d5726bcf4	-0.000563389314541056
214	0x3f5bba98f8a15ce9	0.0016924375400060815
215	0x3f6c7cc9259237af	0.0034774712226583663
216	0xbecffdaef3906680	-3.8136185165460576e-06
217	0x3f54a0d02c702593	0.001259043974416539
218	0xbf60d74cbc046634	-0.0020557879180500786
219	0xbf5bf951cb60af60	-0.001707391621958508
220	0x3f5908e089f00499	0.0015279953729534833
221	0x3f38063914a858c7	0.0003665818555033226
222	0x3f60e1b708dc75af	0.002060754289131515
223	0x3f620c513fbe485a	0.0022031390089490123
224	0xbf5a15cfbccf438d	-0.0015921143233194907
225	0x3f673bfbbef9cd13	0.0028362194932981615
226	0x3f45d12762936a3b	0.0006658022222397261
227	0x3f5a309e7952c8ae	0.00159850574463553
228	0x3f5197246b57c943	0.001073632779818271
229	0xbf682a86010ccc3a	-0.00294996426273422
230	0x3f5228e5ada31b88	0.0011083834602218807
231	0x3f73b23863adcf1e	0.004808635970096535
232	0xbf62422b0c6fe75b	-0.00222881706167481
233	0xbf5de69a873d5597	-0.0018249997201186024
234	0x3f575683c412b5a2	0.0014244353081197332
235	0xbf6c88cd9c9d94b6	-0.0034832015852993238
236	0x3f5318f67b07a3f5	0.0011656195675817636
237	0xbf68af1b124d11d0	-0.0030131844272622624
238	0xbf36b8c6e7ddefc2	-0.0003467069253628685
239	0x3f79285fe9494367	0.006142019894995388
240	0xbf6b313c07c8c2e4	-0.0033193752735985894
241	0x3f4dddf695e59f0f	0.0009114698439533791
242	0xbf45b76b0382ec98	-0.0006627342727577755
243	0x3f63406abe5e028e	0.0023500523411146895
244	0x3f59392798c7a6ec	0.0015395056426492039
245	0x3f7109bf79fa3ac1	0.004159686999300306
246	0x3f652a7fc5a3bb97	0.002583741717095699
247	0x3f73b529f804f802	0.004811443272329187
248	0x3f5e5f71c6e0b5e2	0.0018538104154787118
249	0xbf5718a15ef08130	-0.001409680927970735
250	0xbf423d681d852ffe	-0.0005566366553835243
251	0xbf6e1e8f1da91c89	-0.0036766810638116415
252	0x3f300f5e8b612d7a	0.0002450567075171422
253	0xbf79497801aaf372	-0.006173580909202824
254	0x3f3dfbb13d619424	0.0004575069155008957
255	0x3f6093736c83f3d1	0.0020234350560017563
