exp/data_checkpoints/Model_hs2_bs16_e100_NEW/checkpoint.pth (torch, 74169 bytes, 114 tensors)

inv_timescales f8 [1]
00000000: 0000 0000 0000 f03f
1.0

blocks1.SCINet_Tree.workingblock.interact.level.phi.1.weight f8 [2, 1, 5]
00000000: c4b8 018a de25 9d3f 4efd 0b6a 3cf9 cfbf
00000010: 30bc 9099 dd67 d5bf 18da 6d38 7f05 e3bf
00000020: 244c 1a04 3fe7 dfbf 6496 94ee e644 9d3f
00000030: 65d3 48d0 1f4e e13f 2514 59b1 5c56 d23f
00000040: 73b5 40c7 1be9 cabf 18b1 53b7 191e c7bf
0.028464772389661844 -0.24979357889240322 -0.3344644546186286 -0.5944210149889981 -0.49848914528519317 0.02858315306834526 0.5407866542869725 0.28652112311493944
-0.21023890713824364 -0.1806060929442388

blocks1.SCINet_Tree.workingblock.interact.level.phi.1.bias f8 [2]
00000000: 9f8c 4d21 7cd0 ecbf 2d73 3c8b 0f82 f0bf
-0.9004498148391525 -1.0317531050597595

blocks1.SCINet_Tree.workingblock.interact.level.phi.4.weight f8 [1, 2, 3]
00000000: 2a2d 38bb 10db dc3f f405 d42b e947 d63f
00000010: 38a7 ee3f 8102 d83f a464 4313 dd50 b2bf
00000020: bb42 2fc4 432d aabf 9f67 495f 3973 d7bf
0.4508706882777057 0.3481390884408875 0.3751528858507416 -0.07154638023657128 -0.051126592348400966 -0.3664077215704484

blocks1.SCINet_Tree.workingblock.interact.level.phi.4.bias f8 [1]
00000000: 2907 a4ad 1816 e8bf
-0.7526973143978682

blocks1.SCINet_Tree.workingblock.interact.level.psi.1.weight f8 [2, 1, 5]
00000000: 9538 5042 9fd1 ccbf de7d 44f2 9c48 b5bf
00000010: 5f16 0cf8 f828 e1bf ed40 2460 733f e1bf
00000020: a5e5 d928 a471 c4bf 1347 9cf2 0711 d83f
00000030: 3383 c642 87b1 db3f e285 1c6e 4bdb aabf
00000040: 1505 2889 e831 bcbf ca6e 102b f964 893f
-0.22514715898472973 -0.08313923754439353 -0.5362515301391787 -0.5389954450384075 -0.15971805567441524 0.3760394925349015 0.4327104713539029 -0.05245433539517898
-0.11013654087584641 0.012399622561182783

blocks1.SCINet_Tree.workingblock.interact.level.psi.1.bias f8 [2]
00000000: 78ad b311 8595 0740 69ce ec18 d3e2 d1bf
2.948007715507341 -0.2794692748459285

blocks1.SCINet_Tree.workingblock.interact.level.psi.4.weight f8 [1, 2, 3]
00000000: d66f 1f3b 60bd e9bf 9721 5b17 82ce edbf
00000010: a4b0 1df3 34cb eebf bfd1 5d1c 268a c1bf
00000020: 9b63 c1b0 9665 d0bf 4ad2 f27d 887a d9bf
-0.8043671755544846 -0.9314585167094717 -0.962305521808521 -0.13702846894342532 -0.25620047818443376 -0.3981038312879589

blocks1.SCINet_Tree.workingblock.interact.level.psi.4.bias f8 [1]
00000000: 61d3 e5c3 e194 01c0
-2.1976962379944074

blocks1.SCINet_Tree.workingblock.interact.level.P.1.weight f8 [2, 1, 5]
00000000: 237f 1e52 b322 d7bf c715 583e 7aa1 c4bf
00000010: 528d d50b 86ba c33f 6fe8 66e6 6f3b debf
00000020: ad08 9a13 f71d c93f 5008 72b4 da7a 9cbf
00000030: ce48 a481 cdfc d73f e76a f673 c43a e93f
00000040: 8c06 4a98 e02f e0bf 904c 9bf0 4218 e9bf
-0.3614929487175564 -0.1611779026426758 0.15412974908677285 -0.47237775325959935 0.19622696358789452 -0.027812402022853455 0.3748048559219911 0.7884237542051239
-0.5058443998716071 -0.7842116069172267

blocks1.SCINet_Tree.workingblock.interact.level.P.1.bias f8 [2]
00000000: f7d2 8da3 5a53 cabf cfe2 45cd d7cb abbf
-0.2056687639812009 -0.05428957348607854

blocks1.SCINet_Tree.workingblock.interact.level.P.4.weight f8 [1, 2, 3]
00000000: 08d7 804e 10be 583f 85ab 794a db97 cc3f
00000010: 111a 693b 0596 b23f 576c 959f c901 bdbf
00000020: 8c71 e2df a2d7 a2bf 2341 36b6 ec01 e53f
0.0015101584667837637 0.22338429581153832 0.0726016302151964 -0.1133085264786343 -0.036801423864036925 0.6564849432780061

blocks1.SCINet_Tree.workingblock.interact.level.P.4.bias f8 [1]
00000000: fb1b 5076 2e41 bfbf
-0.1220883406495971

blocks1.SCINet_Tree.workingblock.interact.level.U.1.weight f8 [2, 1, 5]
00000000: de2e 0556 fea7 393f 6ae8 869f d7d3 e03f
00000010: b52d 2245 6d0e cb3f cc26 e965 2a17 f43f
00000020: 850e f086 78b0 ef3f 5c26 3f7b e1d2 c53f
00000030: d2cc 9d42 ff07 e23f e778 a922 a777 f53f
00000040: 46ad 5675 c103 da3f 36a0 0350 b1dd e13f
0.00039148291945843665 0.5258596530686763 0.21137777209911027 1.2556556683434108 0.9902918468000769 0.17049807088760616 0.5634762097455683 1.3417121271118562
0.4064792295345864 0.5583120882774952

blocks1.SCINet_Tree.workingblock.interact.level.U.1.bias f8 [2]
00000000: 99ee 0267 b8a0 e1bf dc4a cf7c f8b0 e3bf
-0.550869179910893 -0.6153528630914837

blocks1.SCINet_Tree.workingblock.interact.level.U.4.weight f8 [1, 2, 3]
00000000: d5bc b054 4f94 f1bf 8257 f3dd a377 f0bf
00000010: f7e6 5e6f 2705 f1bf e522 9328 7732 f0bf
00000020: 9495 9311 5a46 f2bf 5dcc 60a2 fc4f f0bf
-1.098708468267252 -1.0292090101188198 -1.0637583113115718 -1.0123206696463793 -1.1421757399160457 -1.0195280402083633

blocks1.SCINet_Tree.workingblock.interact.level.U.4.bias f8 [1]
00000000: 3f0e e7f1 9e6e ce3f
0.23775088130615704

blocks1.SCINet_Tree.SCINet_Tree_odd.workingblock.interact.level.phi.1.weight f8 [2, 1, 5]
00000000: e802 da21 a701 e03f 9511 5182 b05b e2bf
00000010: 4443 1200 d610 eebf 3052 abbf 3b4d e1bf
00000020: 5c15 0da4 3cc7 a1bf 0c8b 92c5 9eba babf
00000030: a8e5 3de2 2a94 d73f a488 901b 474f e03f
00000040: ad07 b8d8 daaa c63f 004f 4f17 c98c 893f
0.5002017651714512 -0.5736925645110654 -0.9395551682847345 -0.5406779044665821 -0.03472318174912445 -0.10441009830041653 0.36841842740940445 0.5096774614687729
0.17708907682395872 0.012475558303698175

blocks1.SCINet_Tree.SCINet_Tree_odd.workingblock.interact.level.phi.1.bias f8 [2]
00000000: 0c07 5b0c 8fa6 d6bf 668c 1882 e73c f6bf
-0.35391594130133863 -1.3898692209120553

blocks1.SCINet_Tree.SCINet_Tree_odd.workingblock.interact.level.phi.4.weight f8 [1, 2, 3]
00000000: 1904 c8d2 8b3b d33f beea a5ca f7e3 de3f
00000010: d9f4 2d87 c5a1 e83f 5718 4cca e7c8 c5bf
00000020: c0f6 6066 585a ddbf 77fd c51f 6b3f d5bf
0.3005094107066398 0.48266405858855055 0.7697475090241382 -0.1701936471728824 -0.45863924024511604 -0.33199575522299746

blocks1.SCINet_Tree.SCINet_Tree_odd.workingblock.interact.level.phi.4.bias f8 [1]
00000000: cfd4 7c70 4687 da3f
0.41450654015654903

blocks1.SCINet_Tree.SCINet_Tree_odd.workingblock.interact.level.psi.1.weight f8 [2, 1, 5]
00000000: 87b5 9ee6 79b6 f63f b59c e2b9 6292 e33f
00000010: 1cc3 f1ce b18c d53f a8d2 13e0 0c57 f23f
00000020: e843 a44c 54fb d83f 8f0e c1c6 5894 edbf
00000030: 690e e546 8f17 f3bf 21b3 7e13 c81d f3bf
00000040: d0fc 14c0 bebc f4bf 8028 3953 727f f5bf
1.419549847468575 0.6116193419046768 0.3367123146954769 1.1462525132202845 0.39033992275750373 -0.924358738128335 -1.1932518739057747 -1.1947708856125205
-1.2960803511812635 -1.3436148882779264

blocks1.SCINet_Tree.SCINet_Tree_odd.workingblock.interact.level.psi.1.bias f8 [2]
00000000: 690a e943 eeda e5bf 59db 9c27 0eb3 f0bf
-0.6829749418614713 -1.0437146708843186

blocks1.SCINet_Tree.SCINet_Tree_odd.workingblock.interact.level.psi.4.weight f8 [1, 2, 3]
00000000: 71b2 d3b1 af3d 02c0 2d80 7834 d73f 00c0
00000010: 7974 6f05 70ed f9bf 7ad0 5fb5 ef6a f23f
00000020: 9031 f33b b58c f43f 637a a640 e9c6 fb3f
-2.2801202671747025 -2.0311721896432773 -1.6204681598967723 1.1511075100834476 1.2843525258823298 1.7360622907068766

blocks1.SCINet_Tree.SCINet_Tree_odd.workingblock.interact.level.psi.4.bias f8 [1]
00000000: 764c 5786 f688 f3bf
-1.2209382293410989

blocks1.SCINet_Tree.SCINet_Tree_odd.workingblock.interact.level.P.1.weight f8 [2, 1, 5]
00000000: 24e1 e667 5a54 b4bf d93f a944 958c a43f
00000010: d103 a8a7 5668 f53f 4b0f 0b93 bc84 f0bf
00000020: 7d03 ef26 82cb e3bf 3343 1df7 2b0a bdbf
00000030: d28c 73cf 8b8e 91bf 6f71 86ac 8969 a73f
00000040: f290 6a91 bd97 d13f c1ec 9dfe 4c41 ea3f
-0.07941212689081972 0.04013506377361837 1.3379732655596295 -1.0324064010500986 -0.6185923347876351 -0.11343645842613341 -0.01714533284838355 0.04572706442852136
0.27488650513465906 0.8204712841974456

blocks1.SCINet_Tree.SCINet_Tree_odd.workingblock.interact.level.P.1.bias f8 [2]
00000000: 8678 25bb 3fd9 a2bf c3c1 bfda 0b58 debf
-0.0368137279462966 -0.47412392008029886

blocks1.SCINet_Tree.SCINet_Tree_odd.workingblock.interact.level.P.4.weight f8 [1, 2, 3]
00000000: 36af e496 a307 e0bf 7006 7c8a bb7f e33f
00000010: 6458 e100 bde0 e73f 298c 9d4c 5e96 c23f
00000020: 301e 997a 43af ae3f 2302 c3a2 f901 c33f
-0.5009324977049576 0.6093423561835163 0.7461838738625031 0.14521387806880284 0.05993090507086796 0.1484977764830698

blocks1.SCINet_Tree.SCINet_Tree_odd.workingblock.interact.level.P.4.bias f8 [1]
00000000: 9103 9ad0 7603 c23f
0.14073071656823946

blocks1.SCINet_Tree.SCINet_Tree_odd.workingblock.interact.level.U.1.weight f8 [2, 1, 5]
00000000: 17d4 8f8e 8fe8 f53f 88b0 dee5 d123 ccbf
00000010: 1ced ebf8 6072 ecbf e157 6f5b 59ec d4bf
00000020: a42f a4de f7c6 debf 7298 c201 44d0 d5bf
00000030: a091 6017 ffa8 d7bf ab52 5746 9deb e73f
00000040: df82 7c8b e4d4 cfbf 7a5c 5221 7f25 a83f
1.3692775315114483 -0.21984313701739588 -0.8889622556447736 -0.3269256012839588 -0.4808940576774552 -0.34083652660263575 -0.36968972475940554 0.7475115178918562
-0.2486844712339211 0.04716107637175866

blocks1.SCINet_Tree.SCINet_Tree_odd.workingblock.interact.level.U.1.bias f8 [2]
00000000: bde6 4e24 4c12 c2bf bb9f 9ec8 98e9 e0bf
-0.14118339321958287 -0.5285152357437178

blocks1.SCINet_Tree.SCINet_Tree_odd.workingblock.interact.level.U.4.weight f8 [1, 2, 3]
00000000: f882 0b6c 46d9 be3f 14cc 5739 67c9 ea3f
00000010: 219f e30c de37 f43f 2c60 ca30 e30d c2bf
00000020: 6ce4 8d39 8ae9 d3bf 23be d362 4e08 b63f
0.12050285470787603 0.837085353849377 1.263639498089056 -0.14104881174421402 -0.31112914677175385 0.08606424248477444

blocks1.SCINet_Tree.SCINet_Tree_odd.workingblock.interact.level.U.4.bias f8 [1]
00000000: 89ac 450a 29f9 c9bf
-0.20291626931734566

blocks1.SCINet_Tree.SCINet_Tree_odd.SCINet_Tree_odd.workingblock.interact.level.phi.1.weight f8 [2, 1, 5]
00000000: 3ca9 af46 f088 ddbf 04c6 81ac 333d bb3f
00000010: bdc0 1e9c 3404 e23f 0ca6 3ba4 785f d5bf
00000020: 547e 5039 e41c da3f 6bc6 e254 7ec8 c5bf
00000030: 2fcd 09be a5f6 a3bf cef8 8084 6ddf b33f
00000040: 9ae8 1df9 43d8 d43f 8a42 f98e 644c d63f
-0.46148306754061585 0.10640261613459506 0.5630133675786265 -0.33395210302714484 0.40801339718925544 -0.17018107552353298 -0.03899114556124982 0.07762798771816223
0.32569979980292774 0.34841264688751805

blocks1.SCINet_Tree.SCINet_Tree_odd.SCINet_Tree_odd.workingblock.interact.level.phi.1.bias f8 [2]
00000000: 38da d5db 61a3 f0bf 1c35 a977 55dc f1bf
-1.039888247234229 -1.1162924455887326

blocks1.SCINet_Tree.SCINet_Tree_odd.SCINet_Tree_odd.workingblock.interact.level.phi.4.weight f8 [1, 2, 3]
00000000: 9d6b 6fbf 6b11 c8bf 6ab4 d1fc 968f cebf
00000010: b810 8fea 8569 cdbf 5a40 fae6 e259 c4bf
00000020: bfef 99ed 90f2 bcbf ec6f 9bee f338 c2bf
-0.18803164336608527 -0.23875701279340272 -0.22978280976361076 -0.15899311330986415 -0.11307626534283964 -0.14236306334248583

blocks1.SCINet_Tree.SCINet_Tree_odd.SCINet_Tree_odd.workingblock.interact.level.phi.4.bias f8 [1]
00000000: f838 8bdc 9fff c33f
0.1562385393976411

blocks1.SCINet_Tree.SCINet_Tree_odd.SCINet_Tree_odd.workingblock.interact.level.psi.1.weight f8 [2, 1, 5]
00000000: 9f37 bf04 c8b1 ee3f 2647 71d1 2bc8 db3f
00000010: 5cce 4938 3f0b e33f b2fe 7d0c bcdd d63f
00000020: 05e6 ab19 b750 e83f 5156 bc7b ace0 e4bf
00000030: 50a9 4c9a 61f5 aabf 92d6 d087 f955 dcbf
00000040: 5e66 9770 ad91 d7bf 65fe be04 38a5 e6bf
0.95920182158601 0.43409247830742215 0.5951229190236051 0.3572836038583588 0.7598529340168062 -0.6524259964668976 -0.052653360448248976 -0.4427474809957427
-0.36826644892935245 -0.7076683132836022

blocks1.SCINet_Tree.SCINet_Tree_odd.SCINet_Tree_odd.workingblock.interact.level.psi.1.bias f8 [2]
00000000: 6296 155d 7745 f23f 5738 6ea9 459d e1bf
1.1419595371347886 -0.5504482564154028

blocks1.SCINet_Tree.SCINet_Tree_odd.SCINet_Tree_odd.workingblock.interact.level.psi.4.weight f8 [1, 2, 3]
00000000: 1d45 23c2 34a7 08c0 a801 db52 9291 09c0
00000010: 60f8 f15b 6fa5 08c0 a09e b50f a16e c13f
00000020: 9ed5 0e03 4dd0 c13f e2cc 822b 5469 cf3f
-3.0816435973180334 -3.1960798714719267 -3.0807788069933366 0.13618863360465117 0.13916933678926297 0.24540187954480702

blocks1.SCINet_Tree.SCINet_Tree_odd.SCINet_Tree_odd.workingblock.interact.level.psi.4.bias f8 [1]
00000000: 8962 ce9f b2c4 f0bf
-1.0480219118527734

blocks1.SCINet_Tree.SCINet_Tree_odd.SCINet_Tree_odd.workingblock.interact.level.P.1.weight f8 [2, 1, 5]
00000000: 433b 828b aeb2 e73f d55b a426 22d1 b43f
00000010: b630 9f1d b0dd 8cbf 2e5d b33d de3f ca3f
00000020: a6cd a693 8232 eabf 67bc 77d4 7884 e0bf
00000030: 7b05 bb52 cb98 babf 6cbf d451 24ff eb3f
00000040: 28ad 267d 3c1e 6fbf e85e 8f30 feae d8bf
0.7405617451457619 0.0813161224690327 -0.014094711212145544 0.20507410061575498 -0.8186657794780572 -0.5161708974609497 -0.10389395494259716 0.874895248247396
-0.0037985974715489985 -0.38568072073165505

blocks1.SCINet_Tree.SCINet_Tree_odd.SCINet_Tree_odd.workingblock.interact.level.P.1.bias f8 [2]
00000000: ad7f 91a4 e6a9 c1bf 39b6 582c fc99 c8bf
-0.13799746547283345 -0.19219925084455428

blocks1.SCINet_Tree.SCINet_Tree_odd.SCINet_Tree_odd.workingblock.interact.level.P.4.weight f8 [1, 2, 3]
00000000: 9b8d ae9d 3119 b33f c41d 6aaf 63be c73f
00000010: ab28 0ebb d3b7 c13f d369 468d 5114 d53f
00000020: f6ec 9573 8b56 cf3f eaf1 28d3 3f05 983f
0.07460317706732271 0.18549772324716518 0.13842245706138576 0.3293651466025526 0.24482863563375873 0.0234575245506096

blocks1.SCINet_Tree.SCINet_Tree_odd.SCINet_Tree_odd.workingblock.interact.level.P.4.bias f8 [1]
00000000: 4e83 871a e9ae b73f
0.09251267335595267

blocks1.SCINet_Tree.SCINet_Tree_odd.SCINet_Tree_odd.workingblock.interact.level.U.1.weight f8 [2, 1, 5]
00000000: 3691 38ae b689 e13f 7113 b1e5 8010 e63f
00000010: 12e2 d677 06f0 d73f a9a0 7484 7751 c3bf
00000020: 9250 6a14 03bf f5bf b500 b8d2 4a0b e0bf
00000030: ecc8 0b1c 4f53 b43f a785 1643 9d93 d43f
00000040: 27ce 6128 e01e c93f 26bd f7b9 c476 d53f
0.5480607416871297 0.6895145879903862 0.3740249796206011 -0.1509236714130158 -1.359133796450838 -0.5013784518814847 0.07939619478910104 0.3215096621662163
0.19625474902896764 0.33537405167494894

blocks1.SCINet_Tree.SCINet_Tree_odd.SCINet_Tree_odd.workingblock.interact.level.U.1.bias f8 [2]
00000000: 1606 715a bd15 943f 4bc2 a051 9790 f1bf
0.019614180226431875 -1.0978005589096422

blocks1.SCINet_Tree.SCINet_Tree_odd.SCINet_Tree_odd.workingblock.interact.level.U.4.weight f8 [1, 2, 3]
00000000: cb9d 49da e773 e1bf e0cf c8cc f0ea eebf
00000010: f1ea cb20 82d6 f4bf a65e 8717 0f78 dabf
00000020: eaa5 058b eb98 d0bf 29cd 77e8 eac2 b9bf
-0.5453986419133171 -0.9661792754836789 -1.302370193587816 -0.4135778169415779 -0.2593335015904744 -0.10063045669067051

blocks1.SCINet_Tree.SCINet_Tree_odd.SCINet_Tree_odd.workingblock.interact.level.U.4.bias f8 [1]
00000000: 1b62 e2a6 5973 d63f
0.3507904176454148

blocks1.SCINet_Tree.SCINet_Tree_odd.SCINet_Tree_even.workingblock.interact.level.phi.1.weight f8 [2, 1, 5]
00000000: 45b3 9228 fc3b babf 0c78 9b99 8ab3 96bf
00000010: 1580 9df5 e761 e03f 2dea d949 0f23 e13f
00000020: 7d3d 9b5b 0e02 e7bf 6d8b 147e 5b07 e13f
00000030: 1de1 c817 16a2 aa3f 51b8 5a3f ce78 c63f
00000040: 53af 9ce6 8407 d53f 5fc3 ec77 9b0c a63f
-0.10247779837181976 -0.02216927111191329 0.5119514271900721 0.5355297510535074 -0.7190009869754445 0.5321481192116672 0.05201787033405678 0.17556169599032725
0.32858393212039977 0.043064936055435814

blocks1.SCINet_Tree.SCINet_Tree_odd.SCINet_Tree_even.workingblock.interact.level.phi.1.bias f8 [2]
00000000: f0fa 6473 71bd d5bf 816b 39aa b413 e7bf
-0.3396876933001485 -0.721155483693437

blocks1.SCINet_Tree.SCINet_Tree_odd.SCINet_Tree_even.workingblock.interact.level.phi.4.weight f8 [1, 2, 3]
00000000: 3304 3a0b 63a1 e1bf 8eba fa31 4bf6 f5bf
00000010: c586 836f d7a6 ebbf d0b1 28b5 2141 d1bf
00000020: d224 831f bb67 dbbf 580c 3f13 2c21 ddbf
-0.5509505481023836 -1.3726303055115383 -0.8641163995746061 -0.2696003216867924 -0.4282062347161403 -0.45514966849822747

blocks1.SCINet_Tree.SCINet_Tree_odd.SCINet_Tree_even.workingblock.interact.level.phi.4.bias f8 [1]
00000000: 139b 998d 8a9f d33f
0.30661262348296353

blocks1.SCINet_Tree.SCINet_Tree_odd.SCINet_Tree_even.workingblock.interact.level.psi.1.weight f8 [2, 1, 5]
00000000: 903b b134 c2f6 b3bf b4f4 5202 9419 c3bf
00000010: b10c c2b4 3094 c6bf 1f7c 0ee1 7fc7 99bf
00000020: abe8 24c8 8fd2 d43f 8c6b 5ef0 e714 c83f
00000030: e091 8f74 0055 cf3f 1357 b6a6 45c3 b93f
00000040: 7f3b a249 7dee c7bf 7436 0fdb e71b cd3f
-0.07798398767884707 -0.14921808351019694 -0.17639740778040428 -0.025175092803348172 0.3253516630681001 0.18813800083884435 0.24478154841848632 0.10063586540340123
-0.18696561904331685 0.2274141139627549

blocks1.SCINet_Tree.SCINet_Tree_odd.SCINet_Tree_even.workingblock.interact.level.psi.1.bias f8 [2]
00000000: 146d 5610 d5ac eebf a62e 1f30 d44e fa3f
-0.9585976904958522 1.6442453269727735

blocks1.SCINet_Tree.SCINet_Tree_odd.SCINet_Tree_even.workingblock.interact.level.psi.4.weight f8 [1, 2, 3]
00000000: 4eea ac2d 8d4c c5bf 3a84 279a 6b3b ae3f
00000010: 5c77 24db 13d2 dd3f 58e4 a4a0 30d8 f4bf
00000020: 4db9 87a8 9cd7 f2bf f07f 16c5 ca84 fdbf
-0.1663986657166156 0.05904709107176882 0.4659471168578102 -1.3027807498131292 -1.1776396353921712 -1.8449199389215174

blocks1.SCINet_Tree.SCINet_Tree_odd.SCINet_Tree_even.workingblock.interact.level.psi.4.bias f8 [1]
00000000: 2caf e84d 6d2a 06c0
-2.770716293967686

blocks1.SCINet_Tree.SCINet_Tree_odd.SCINet_Tree_even.workingblock.interact.level.P.1.weight f8 [2, 1, 5]
00000000: 9208 91d3 c87d e23f b9a3 6724 64f6 d83f
00000010: 59ad 521a 9df0 c2bf 6a80 0caf bb64 d6bf
00000020: 1d45 3514 4bd2 f03f 41e5 6753 5e38 d83f
00000030: b16a 1188 ce02 d43f dae4 81eb cbb4 e73f
00000040: e95f fc0b 5f64 e03f 9854 718d 6ed2 e2bf
0.5778545505675245 0.3900385242000613 -0.14796794686604178 -0.34989826292622317 1.0513411321047166 0.37844045777417895 0.3126713112630269 0.7408198928598282
0.5122523531053932 -0.5881874811699559

blocks1.SCINet_Tree.SCINet_Tree_odd.SCINet_Tree_even.workingblock.interact.level.P.1.bias f8 [2]
00000000: 2ec9 a37c 4d32 d2bf a2b9 b81e 5702 c1bf
-0.28432023212293955 -0.1328839206702926

blocks1.SCINet_Tree.SCINet_Tree_odd.SCINet_Tree_even.workingblock.interact.level.P.4.weight f8 [1, 2, 3]
00000000: 385d 3ef2 2628 d33f f668 3af6 150b dd3f
00000010: 9047 4dc5 452d d43f 24aa ca1c cfd6 c43f
00000020: efa8 e509 c432 e43f c205 b110 d457 df3f
0.2993256917629483 0.45380162282675884 0.31526321666489654 0.16280545144884784 0.6311969941428098 0.4897356188776848

blocks1.SCINet_Tree.SCINet_Tree_odd.SCINet_Tree_even.workingblock.interact.level.P.4.bias f8 [1]
00000000: 9b90 0c84 421b d9bf
-0.39228880782526127

blocks1.SCINet_Tree.SCINet_Tree_odd.SCINet_Tree_even.workingblock.interact.level.U.1.weight f8 [2, 1, 5]
00000000: 3555 ac42 208c e0bf 00b9 10f9 968c d93f
00000010: 7e22 1cc2 42ef f23f 20d5 5783 8087 f23f
00000020: ba70 c52f 339f ba3f 720b 2058 3cdf dbbf
00000030: d665 05a6 e655 e1bf 28f1 12c3 05e5 eabf
00000040: 591e fb8b a05c dcbf 6643 bb13 628a cabf
-0.5171052267275288 0.399205916622023 1.183413274995615 1.1580815439786605 0.10399169842043224 -0.43550022703146063 -0.5417359583472556 -0.8404568491019164
-0.44315351171505807 -0.20734811747982035

blocks1.SCINet_Tree.SCINet_Tree_odd.SCINet_Tree_even.workingblock.interact.level.U.1.bias f8 [2]
00000000: 3ddb fbfc de35 e23f 21bf 9596 ebf5 e5bf
0.5690760556306952 -0.686269563781

blocks1.SCINet_Tree.SCINet_Tree_odd.SCINet_Tree_even.workingblock.interact.level.U.4.weight f8 [1, 2, 3]
00000000: a477 5cf0 b15a ddbf ea4a 8fce c9ac ddbf
00000010: 6b1b a4d9 24cf debf 878f 8527 d3c3 da3f
00000020: 3fe3 e006 2851 db3f 805f 0f00 aee7 d63f
-0.45866058800481313 -0.46367116138314535 -0.4813930631066145 0.41820219859641167 0.4268283908054861 0.3578906059824405

blocks1.SCINet_Tree.SCINet_Tree_odd.SCINet_Tree_even.workingblock.interact.level.U.4.bias f8 [1]
00000000: bc5b 3a09 926d c53f
0.1674063248690042

blocks1.SCINet_Tree.SCINet_Tree_even.workingblock.interact.level.phi.1.weight f8 [2, 1, 5]
00000000: a76c c918 9fd6 c73f 5f01 4c90 3eaf debf
00000010: 2016 2287 47f0 c13f a715 d873 710a d23f
00000020: 3ff0 89f5 f738 d43f 8104 35fd a1a3 c53f
00000030: 88ee ed9c d30e d33f dbec 2412 4162 cf3f
00000040: b3ff 3a52 dd9e d03f 012b afd6 0167 cdbf
0.18623722753804836 -0.4794460686826109 0.14014524553583474 0.2818874007501457 0.31597708681488607 0.1690561758387368 0.2977799446596028 0.24518597970914055
0.25969632177656904 -0.22970602972630874

blocks1.SCINet_Tree.SCINet_Tree_even.workingblock.interact.level.phi.1.bias f8 [2]
00000000: ac54 2a66 05e2 c83f 11aa 6b19 d6c2 d0bf
0.19439761627714824 -0.2618918655631726

blocks1.SCINet_Tree.SCINet_Tree_even.workingblock.interact.level.phi.4.weight f8 [1, 2, 3]
00000000: 32a9 6eaf e486 e3bf 1ec9 518b 12e7 a23f
00000010: c26b 62d3 36d7 f0bf d446 bdea 4a84 c1bf
00000020: 854c aed6 7860 c0bf 5e9e 6d1a 5986 dbbf
-0.6102164675151356 0.036919192797443254 -1.052542520256552 -0.13684975110896025 -0.12794409258330944 -0.4300749548042172

blocks1.SCINet_Tree.SCINet_Tree_even.workingblock.interact.level.phi.4.bias f8 [1]
00000000: 98da 8c89 c0c8 01c0
-2.2230234857664293

blocks1.SCINet_Tree.SCINet_Tree_even.workingblock.interact.level.psi.1.weight f8 [2, 1, 5]
00000000: 7edc 344f 52e7 dabf d5ce 528c 2b5e e0bf
00000010: 6fc2 9722 c679 b0bf d863 1558 86e1 d5bf
00000020: 2b4c dd42 2bff d1bf bcc6 3e02 3c06 a83f
00000030: da04 d44f 62fd babf 9708 5a7d 39c5 cbbf
00000040: ab5a 9dbf 8fca dbbf 0413 f5c4 1483 e1bf
-0.420368745184028 -0.5114953747456307 -0.06435812325049438 -0.3418899402800526 -0.281199279115017 0.046922564767908764 -0.10542883347445145 -0.2169563161915604
-0.4342383738743744 -0.5472511145422634

blocks1.SCINet_Tree.SCINet_Tree_even.workingblock.interact.level.psi.1.bias f8 [2]
00000000: c55f a027 2658 e9bf 4d5f 69b7 9aa3 f1bf
-0.7920103811220477 -1.1024424709812195

blocks1.SCINet_Tree.SCINet_Tree_even.workingblock.interact.level.psi.4.weight f8 [1, 2, 3]
00000000: 4c11 5d51 cffa d13f 9e2a b72c a44d da3f
00000010: 3946 425e 3480 debf cf39 3a13 3548 d13f
00000020: bb08 e766 5bfd e1bf a0c3 9bb4 bd9c d3bf
0.2809332174840804 0.4109888493227717 -0.4765749855515398 0.2700321853416456 -0.562177372914696 -0.30644171369118034

blocks1.SCINet_Tree.SCINet_Tree_even.workingblock.interact.level.psi.4.bias f8 [1]
00000000: 22f3 ca40 4854 ecbf
-0.8852883592113339

blocks1.SCINet_Tree.SCINet_Tree_even.workingblock.interact.level.P.1.weight f8 [2, 1, 5]
00000000: 9fde 0f62 6c3d e33f 559d 6936 91ba c93f
00000010: 1a88 4a8a de42 c83f 2494 0809 7b6e e2bf
00000020: fd2b eb76 275a d93f b103 e741 332b d03f
00000030: 9466 5bcc ecdd b13f 24ee e130 3bf5 d43f
00000040: 1151 4c85 bc98 d23f a355 017c 8ff3 e73f
0.6012479701302772 0.20100608021605618 0.1895406890153602 -0.5759864021716834 0.3961275731386989 0.2526367324426771 0.06979255665955925 0.32746772550283
0.29057229058641193 0.7484815046288315

blocks1.SCINet_Tree.SCINet_Tree_even.workingblock.interact.level.P.1.bias f8 [2]
00000000: 8cf1 ede8 d391 c9bf b7c6 2983 9828 d9bf
-0.19976281045445565 -0.39310276802926175

blocks1.SCINet_Tree.SCINet_Tree_even.workingblock.interact.level.P.4.weight f8 [1, 2, 3]
00000000: 621e f5ed e653 e7bf 386b 6dc3 b260 e3bf
00000010: 6dbb 2427 83d1 e1bf 12f5 3fe0 651d d1bf
00000020: d9e3 a292 9e53 e3bf 3acd 1075 a942 e1bf
-0.7289919517142602 -0.605553991026091 -0.5568252338906469 -0.2674193086566713 -0.6039574493398688 -0.539387444156467

blocks1.SCINet_Tree.SCINet_Tree_even.workingblock.interact.level.P.4.bias f8 [1]
00000000: 9092 5b11 de39 b53f
0.08291423724910829

blocks1.SCINet_Tree.SCINet_Tree_even.workingblock.interact.level.U.1.weight f8 [2, 1, 5]
00000000: a326 52ea d0cd a73f 32bb 2c97 14d6 eb3f
00000010: 839b 97f9 0231 0040 8ed9 8131 d3e3 fe3f
00000020: c0a2 4121 73ed e93f ab19 f668 0e05 d93f
00000030: 203a 214c 59a6 f83f 9e17 f63e d5e6 fd3f
00000040: fc3f 97cc 47dd f13f ea27 2d5a 3f99 e03f
0.046492127040506114 0.8698828652030441 2.0239314555541923 1.93062133158455 0.8102355622805462 0.39093361139421273 1.54061250436974 1.8688557109285067
1.116523551161662 0.5187069665200827

blocks1.SCINet_Tree.SCINet_Tree_even.workingblock.interact.level.U.1.bias f8 [2]
00000000: 2c44 91b8 c5f2 dbbf f653 a462 e3ce d6bf
-0.43669264816441244 -0.35637745507239005

blocks1.SCINet_Tree.SCINet_Tree_even.workingblock.interact.level.U.4.weight f8 [1, 2, 3]
00000000: 321d 60f7 fd78 00c0 762c 8c2c 2392 ffbf
00000010: f072 9202 62f4 febf 4b5d df48 de79 e9bf
00000020: 57e7 fa48 0d03 eabf 9772 f9c5 1288 e8bf
-2.059078152294796 -1.9731780758036428 -1.9346637821647015 -0.7961265013972619 -0.8128725457565719 -0.7666105143249123

blocks1.SCINet_Tree.SCINet_Tree_even.workingblock.interact.level.U.4.bias f8 [1]
00000000: 5a7f d229 760c c5bf
-0.16444279710867243

blocks1.SCINet_Tree.SCINet_Tree_even.SCINet_Tree_odd.workingblock.interact.level.phi.1.weight f8 [2, 1, 5]
00000000: c2db 1b87 d0e0 d2bf 5918 96a3 6650 e3bf
00000010: 807d d770 167c f5bf 33f5 211e e39c fbbf
00000020: 2398 6550 d9ef 00c0 eb7e 91d9 df2c e5bf
00000030: cf68 a6a3 59e4 d43f c0ee 2acf 077b cd3f
00000040: 71a2 94fc 6f34 d3bf dcea 911a 7874 f03f
-0.29497159189434907 -0.6035645670933817 -1.34279483870327 -1.7258025338226843 -2.117113712406551 -0.6617278336888978 0.3264373872895136 0.2303170930443823
-0.30007552782129837 1.0284348523988944

blocks1.SCINet_Tree.SCINet_Tree_even.SCINet_Tree_odd.workingblock.interact.level.phi.1.bias f8 [2]
00000000: 2f5a ccbb f3eb da3f 6f62 16b4 47ca aabf
0.4206513723342224 -0.05232452462513925

blocks1.SCINet_Tree.SCINet_Tree_even.SCINet_Tree_odd.workingblock.interact.level.phi.4.weight f8 [1, 2, 3]
00000000: d78b d8d1 fcf3 fdbf 5c64 9a58 ce61 f9bf
00000010: 9c5b 8aa4 793d 05c0 1d6e 0a0b cb5c e63f
00000020: 134f a89a 651c e13f e2cc 59b2 a5cc de3f
-1.8720672795395694 -1.5863784276064257 -2.6550171713565316 0.6988272872581011 0.5347164173749398 0.4812406770426617

blocks1.SCINet_Tree.SCINet_Tree_even.SCINet_Tree_odd.workingblock.interact.level.phi.4.bias f8 [1]
00000000: eb7e a420 78f8 ebbf
-0.8740807187604934

blocks1.SCINet_Tree.SCINet_Tree_even.SCINet_Tree_odd.workingblock.interact.level.psi.1.weight f8 [2, 1, 5]
00000000: d992 cea7 a1ac ef3f 02bd 548b 5100 f73f
00000010: d4b5 5cfd e283 f23f f83d ba2c a9b8 f23f
00000020: 8556 d6b0 50be f03f 4972 173e be1e f13f
00000030: b2ad 7cec abaf ec3f cbd4 2359 2f19 e23f
00000040: 7614 8ac5 8780 d63f 3292 db19 7344 c4bf
0.9898231770972316 1.4375777666680851 1.1571988961180653 1.1700832125824245 1.046463671465433 1.070005648179306 0.8964442843329634 0.5655743351950603
0.35159487048105775 -0.15833891642172798

blocks1.SCINet_Tree.SCINet_Tree_even.SCINet_Tree_odd.workingblock.interact.level.psi.1.bias f8 [2]
00000000: 2856 ab59 4b23 ea3f 4c0e 78f0 a078 d8bf
0.816808390746421 -0.3823625896768348

blocks1.SCINet_Tree.SCINet_Tree_even.SCINet_Tree_odd.workingblock.interact.level.psi.4.weight f8 [1, 2, 3]
00000000: 3067 332a 3e71 04c0 9104 5537 5fa4 00c0
00000010: 5f2b c90c 93e3 02c0 c6d9 19bf 987e d6bf
00000020: 8fd1 d695 4dc0 e7bf 251a 9682 f687 f5bf
-2.555294351285646 -2.0802597353763947 -2.3611203192607912 -0.3514768472881794 -0.7422244955583198 -1.3456940747288482

blocks1.SCINet_Tree.SCINet_Tree_even.SCINet_Tree_odd.workingblock.interact.level.psi.4.bias f8 [1]
00000000: c33c b05d 5fff db3f
0.43746170186291183

blocks1.SCINet_Tree.SCINet_Tree_even.SCINet_Tree_odd.workingblock.interact.level.P.1.weight f8 [2, 1, 5]
00000000: b5ff 64f6 e22a e83f ad76 075c a82f d43f
00000010: 731d 7420 8aed 78bf df4a cb27 efeb 9f3f
00000020: 373c 8dc3 82d5 ef3f 74c7 cd0a eca2 e93f
00000030: 1a3d c32e dce3 d63f fc19 307b 284e a13f
00000040: df58 f77f f8ea c23f 288c a2f0 d8c5 d73f
0.755235177268324 0.31540879237386826 -0.006085910375311132 0.031173455051269335 0.9948133296364919 0.8011379443180275 0.35765747610726495 0.03379942420729162
0.14779573677396393 0.37145064830309815

blocks1.SCINet_Tree.SCINet_Tree_even.SCINet_Tree_odd.workingblock.interact.level.P.1.bias f8 [2]
00000000: d9bf 748e f5c6 b8bf 7303 98b3 bd53 c4bf
-0.09678587654047933 -0.15880557316998142

blocks1.SCINet_Tree.SCINet_Tree_even.SCINet_Tree_odd.workingblock.interact.level.P.4.weight f8 [1, 2, 3]
00000000: 0302 32c8 dded c7bf 1dea 75a9 d4e2 d4bf
00000010: ef4f 8019 c8ca c9bf f3f5 6858 8396 dabf
00000020: c674 9d6c 6dc9 cabf 0025 7395 4afb b8bf
-0.18694660449183695 -0.3263446478737551 -0.20150090451409094 -0.4154365886095938 -0.20927207759351613 -0.09758440159489012

blocks1.SCINet_Tree.SCINet_Tree_even.SCINet_Tree_odd.workingblock.interact.level.P.4.bias f8 [1]
00000000: ca03 31fe 8ba5 b7bf
-0.09236979442449847

blocks1.SCINet_Tree.SCINet_Tree_even.SCINet_Tree_odd.workingblock.interact.level.U.1.weight f8 [2, 1, 5]
00000000: 0dea 003e 5097 b1bf 3cc9 bb98 028e d0bf
00000010: ae8c a3bb b69b c8bf 5136 b6b8 7483 e53f
00000020: fe69 766f eb49 f83f 8942 dfae 6848 f23f
00000030: 9ed3 26e1 40b0 c5bf e610 b325 8683 eebf
00000040: 7b23 efd8 78f8 e4bf 585f 3de8 defe d5bf
-0.06871510995635095 -0.2586676112688513 -0.19225200807622883 0.6722968681003271 1.5180467943197296 1.1426779585782774 -0.16944132798894612 -0.9535551773374464
-0.6553310620302989 -0.3436810749021695

blocks1.SCINet_Tree.SCINet_Tree_even.SCINet_Tree_odd.workingblock.interact.level.U.1.bias f8 [2]
00000000: 5840 15b6 f7b2 c5bf 0b62 fdda 35d7 b9bf
-0.1695241583897793 -0.10094009968214139

blocks1.SCINet_Tree.SCINet_Tree_even.SCINet_Tree_odd.workingblock.interact.level.U.4.weight f8 [1, 2, 3]
00000000: e804 99f6 9c27 dcbf 4210 4b33 01e8 f43f
00000010: 18d1 8930 cd9c f23f c4e5 ab78 fe22 b63f
00000020: a504 0dc1 1389 c13f 7e4e 9777 2984 ebbf
-0.4399177940541237 1.3066417697564394 1.1632816215542956 0.08647146650391507 0.13699576307593478 -0.8598830543291596

blocks1.SCINet_Tree.SCINet_Tree_even.SCINet_Tree_odd.workingblock.interact.level.U.4.bias f8 [1]
00000000: b473 42b7 38b7 ce3f
0.23996647785398084

blocks1.SCINet_Tree.SCINet_Tree_even.SCINet_Tree_even.workingblock.interact.level.phi.1.weight f8 [2, 1, 5]
00000000: c67a 5ce7 a4b6 e03f 49a8 51b1 f6c8 e53f
00000010: 563f 362c d49f c23f 4dde af25 c12f db3f
00000020: b467 c5ee 4383 e53f b827 7491 249d e73f
00000030: db08 e3c1 9907 ddbf 5353 6e2d c33e d7bf
00000040: f957 7977 6bb2 8ebf 11b6 8e64 7d29 e53f
0.5222954291128523 0.6807816947232449 0.14550258787903186 0.42478970222825724 0.6722736037729562 0.7379324761288819 -0.4535889047075565 -0.36320571362130244
-0.014988746245915495 0.6613146747601509

blocks1.SCINet_Tree.SCINet_Tree_even.SCINet_Tree_even.workingblock.interact.level.phi.1.bias f8 [2]
00000000: 2519 6afa 3d49 7e3f be48 0fc5 8980 aabf
0.007394067861815655 -0.05176191835893594

blocks1.SCINet_Tree.SCINet_Tree_even.SCINet_Tree_even.workingblock.interact.level.phi.4.weight f8 [1, 2, 3]
00000000: 5f0d 8757 d856 e7bf 83ae ce3b 86c9 eebf
00000010: 28c9 66ed 25f7 e1bf 613b 95ce e7bd e1bf
00000020: a96b 3eb0 a52e cebf 94fa d304 0283 bcbf
-0.7293512067339342 -0.9621001403915702 -0.5614194523571188 -0.554431823236751 -0.23579856019645476 -0.11137402170059324

blocks1.SCINet_Tree.SCINet_Tree_even.SCINet_Tree_even.workingblock.interact.level.phi.4.bias f8 [1]
00000000: 0213 7c54 990f f5bf
-1.3163083362753132

blocks1.SCINet_Tree.SCINet_Tree_even.SCINet_Tree_even.workingblock.interact.level.psi.1.weight f8 [2, 1, 5]
00000000: 0083 931c 970a c13f 9d68 bdb4 f969 af3f
00000010: 6715 2279 6e42 d03f 4604 b4b0 2e59 b23f
00000020: df78 3348 3496 e53f afe7 cedd efbc e13f
00000030: 4137 46e6 9587 e13f 6ef4 c973 105e 9e3f
00000040: 6312 51f7 21ec c33f 8d93 d7aa c4d0 e6bf
0.13313568969081047 0.061355403244946795 0.2540546591702281 0.07167331518213968 0.6745854768921865 0.5543135959808206 0.547800969843344 0.029655701701348063
0.15564369750986193 -0.7129844033012077

blocks1.SCINet_Tree.SCINet_Tree_even.SCINet_Tree_even.workingblock.interact.level.psi.1.bias f8 [2]
00000000: d8e9 17a8 6089 e7bf fc93 b9e0 7196 e23f
-0.7355197222780658 0.5808648480566485

blocks1.SCINet_Tree.SCINet_Tree_even.SCINet_Tree_even.workingblock.interact.level.psi.4.weight f8 [1, 2, 3]
00000000: ec66 27f4 f730 9ebf bad8 b707 7ae6 d83f
00000010: 05a6 e774 3d2c c73f 0a5a 1394 f9dc e6bf
00000020: 06d6 a4a5 9a37 eabf d33b 4768 d2f2 d1bf
-0.02948367526719313 0.3890671801922384 0.18103759964223812 -0.7144744770146769 -0.8192876086456529 -0.28044567283080574

blocks1.SCINet_Tree.SCINet_Tree_even.SCINet_Tree_even.workingblock.interact.level.psi.4.bias f8 [1]
00000000: 3876 4139 1653 01c0
-2.165569732008205

blocks1.SCINet_Tree.SCINet_Tree_even.SCINet_Tree_even.workingblock.interact.level.P.1.weight f8 [2, 1, 5]
00000000: a2ac 41c9 12c6 dd3f fb60 9a01 f52c acbf
00000010: b87d 9dd7 c988 dfbf 9395 0a91 7421 d63f
00000020: a0e8 b048 0fd6 f93f 8661 a6f8 87aa 7cbf
00000030: dcbc 0aba 074b e4bf aab2 a11c 54fb ccbf
00000040: 201b 72b8 4c56 f93f d51b 03d2 744b d0bf
0.4652144399066832 -0.05503049511497867 -0.4927239041917022 0.34579195179170447 1.6147606696600079 -0.006998568666311994 -0.6341589578277325 -0.2264199390223401
1.583569260111922 -0.2546054888629759

blocks1.SCINet_Tree.SCINet_Tree_even.SCINet_Tree_even.workingblock.interact.level.P.1.bias f8 [2]
00000000: 6ed3 d03e 8837 c9bf 5fab 1898 31d6 a1bf
-0.1970072085111058 -0.03483729344983177

blocks1.SCINet_Tree.SCINet_Tree_even.SCINet_Tree_even.workingblock.interact.level.P.4.weight f8 [1, 2, 3]
00000000: d9be 40bd 922b df3f d8df 2d73 78b8 e7bf
00000010: 32a9 5b29 3006 f2bf de63 89a8 04f1 d13f
00000020: 2eec 4f66 76b5 df3f aaab c95b 9c16 c23f
0.4870344970868082 -0.7412683724969567 -1.1265107741879317 0.28033558329258124 0.49545059195924324 0.14131502610993368

blocks1.SCINet_Tree.SCINet_Tree_even.SCINet_Tree_even.workingblock.interact.level.P.4.bias f8 [1]
00000000: c73d 507a 5ff3 d1bf
-0.28047930664703496

blocks1.SCINet_Tree.SCINet_Tree_even.SCINet_Tree_even.workingblock.interact.level.U.1.weight f8 [2, 1, 5]
00000000: 76b5 e66c ed48 d23f e8e6 81dd c293 f43f
00000010: aff4 a98c 914d c0bf 31bd 00ff 240d e7bf
00000020: 489c 1e5d 7cbb e3bf 50fc 74ed dce5 dcbf
00000030: 4e2a ca8f 6958 e73f 1369 1818 a400 e73f
00000040: de7d 3ff0 ed64 d2bf 29cc c1a8 852b f1bf
0.28570113787539897 1.2860745098718613 -0.12736720436433788 -0.7203545551800855 -0.6166364496938366 -0.45152972401769365 0.7295425232308135 0.7188282461750383
-0.2874102445766463 -1.073125514227977

blocks1.SCINet_Tree.SCINet_Tree_even.SCINet_Tree_even.workingblock.interact.level.U.1.bias f8 [2]
00000000: fe3b 6bde 9889 cdbf 1d79 6ac4 353b 8cbf
-0.23076163158700064 -0.013784809166562934

blocks1.SCINet_Tree.SCINet_Tree_even.SCINet_Tree_even.workingblock.interact.level.U.4.weight f8 [1, 2, 3]
00000000: 6af6 6ca2 e931 c2bf 397b c489 a522 e9bf
00000010: fcdb 705b 2e9e e4bf 7d04 7c37 b865 c3bf
00000020: 5abb b8e2 b700 d0bf e127 f52c ef48 cabf
-0.1421482127279206 -0.7854793253680789 -0.6443092142061455 -0.15154173573685972 -0.250043841750928 -0.20535077758023504

blocks1.SCINet_Tree.SCINet_Tree_even.SCINet_Tree_even.workingblock.interact.level.U.4.bias f8 [1]
00000000: 9ec9 f44c 6db8 d13f
0.2768815280461697

projection1.weight f8 [24, 48, 1]
00000000: 5f69 22ce ed40 84bf f7c6 bb03 d33e 7bbf
00000010: c413 62fb 5ffe 7fbf f01e ed46 2fac 75bf
00000020: cdd6 019f d612 86bf 84c7 17ee caf5 6abf
00000030: 4dfe e558 3279 74bf 6321 b100 a02d 663f
00000040: 9238 7231 350b 813f 02d3 6a6c ddf0 503f
00000050: c2d6 69f3 ab4e 72bf 475e 578a 43b1 6f3f
00000060: 1e1c 0a0d 272a 883f aaa0 ff71 bb9a 773f
00000070: 206a 17c0 bfba 8a3f 91ca 2517 9867 863f
00000080: 2123 db40 b89d 733f da19 9ae7 1c9e 403f
00000090: 5efd 3e7e b55e 8abf 7b77 23d1 3679 71bf
000000a0: 2e2d d97c fb9a 80bf 1661 91e6 c9cb 85bf
000000b0: 1886 3fa7 e095 8fbf aabc bf9c 8091 3abf
000000c0: bf16 600c 48d7 5d3f 7c85 d253 6bd0 75bf
000000d0: a240 1fb2 4399 97bf 0723 79e1 40e7 8cbf
000000e0: d0af b2ea a2ab 45bf 6c6f c5c6 d03d 61bf
000000f0: 2e3f 9a85 58cc 973f bb57 9dda 524e 82bf
00000100: b75e 7a8c 80ea 873f 072c c22b e6a6 803f
00000110: 9e04 6b41 08a1 7a3f 5d0f 97b6 f174 7f3f
00000120: 331b 27dc 412b 943f 31f9 dbdb d955 763f
00000130: 4bba a6a5 0529 793f ebd1 9617 c19e 96bf
00000140: 7321 dffc 9605 813f eb88 598c 55f2 863f
00000150: 861a 6c44 b4a2 97bf 96ec 4096 1eea 95bf
00000160: f357 da4f 68f2 653f 3052 f607 7de2 a53f
00000170: 2e96 a7d0 606f d43f bbda 2a1a 22a2 d73f
00000180: e65e 8e5e 3c0d 72bf 2b34 963e b9f5 6fbf
00000190: 1ccb d900 dbfe 5bbf bad4 f70c fda6 743f
000001a0: 3376 e608 4daf 60bf 93d9 a422 9d13 753f
000001b0: 61cc e77e ce0d 773f e5b1 267d 5cbf 663f
000001c0: 1e6b 432e b130 243f 9f55 adc8 57ef 70bf
000001d0: 22e7 f80d fd0e 84bf 683e 6926 bc50 1c3f
000001e0: dede 1cef f78b 5b3f c44c 97da 1cd8 533f
000001f0: 6d99 b46d cf8e 57bf 05cb 4e53 ed3c 783f
00000200: 26c5 a39f 8f68 873f 928b cfc5 09f5 6dbf
00000210: f76d 8e83 27ea 8ebf 935b 7f1f e494 80bf
00000220: 6ad8 571a 8c04 88bf 025a 13cd 066b 82bf
00000230: e8af 2bcb 3f25 92bf 29b9 33d0 94fc 61bf
00000240: b323 1622 b0dc 44bf dcce 707b a220 83bf
00000250: 5154 1a43 df69 8abf 1a7b 151f b4f5 7bbf
00000260: 4b31 8c2f 611a 783f 70f2 a358 e9c2 5d3f
00000270: 6dae 7ac7 32ec 943f 6b72 a0e5 b373 87bf
00000280: 8ddb 235f b4d4 7fbf a092 af29 1826 85bf
00000290: d420 d246 d331 74bf aa9a 88f9 5b2f 8b3f
000002a0: 53ba 1dc8 f4c9 823f fb34 8d58 b62d 813f
000002b0: 3cf5 f6e6 a802 843f dc5d d86b e90c 9bbf
000002c0: 14c9 2c47 9c3a 783f 145f 21ec 6907 853f
000002d0: 4257 ba03 a1fb 95bf 4891 27d9 e1fb 93bf
000002e0: f603 ef57 8ddf 2bbf ee18 9ea8 60d9 b13f
000002f0: 1e1f 325f b708 d03f 02c8 2dc6 ca53 da3f
00000300: 6b11 aee0 5ace 833f 09c4 ac5b 4a5d 4cbf
00000310: fba5 ab8b 9a79 643f 36c7 8273 8dfd 6c3f
00000320: 8f88 2f9f 804c 613f 5866 a626 6383 5e3f
00000330: 81c9 a21a b757 45bf a1f6 928f bcbe 653f
00000340: 9731 d44f b915 80bf daaa 1539 d9e1 7bbf
00000350: c4d5 a095 4687 89bf 7c5e bffa 7077 723f
00000360: 9554 640b 5e3e 783f 2cd8 3ef9 a08f 5fbf
00000370: b64f 6c24 24c2 5cbf 4f96 010d eb19 633f
00000380: 5a1d d298 33cf 843f 9e1c 8a69 6075 7cbf
00000390: f64d 6180 15f9 86bf 9cd6 ced8 057e 8abf
000003a0: 3b4c 0829 1662 85bf 6251 bede 70c6 76bf
000003b0: fbc9 90d4 a952 7abf 54bd 8d81 ad95 65bf
000003c0: 8f97 ca40 c1fd 8cbf 5cdc 90c6 e31e 8abf
000003d0: a9e2 7fdf 8809 91bf a12e 963d e3ca 80bf
000003e0: e9d6 50b5 c2ff 7a3f ae02 1915 b10b 503f
000003f0: 9f2b b6b9 73f3 943f 84a8 e44f bc00 90bf
00000400: b332 2e0f e995 623f 96cd e580 ef6d 82bf
00000410: 83f2 f387 a705 79bf c488 86ed d18c 8d3f
00000420: 660c 590f ef5c 76bf 037a 66a4 1a6f 653f
00000430: e59d 13c8 2099 973f 11c0 4506 6a26 93bf
00000440: 3468 d393 92e9 573f 5b19 f932 6a2d 7e3f
00000450: fd5c 2369 740e 66bf 3bf4 6cb3 1414 97bf
00000460: 726e 6531 b8f9 8d3f eee3 f886 a593 b53f
00000470: 4aab 5c2e a207 c83f ff9e 6d6a 5b2a db3f
00000480: dff9 ac3a 39cd 7ebf 68e6 31a4 d790 79bf
00000490: 7427 0252 bded 6abf 617f 28fc ea9e 743f
000004a0: d63d 111e 81b9 77bf bb09 425f 766a 803f
000004b0: e3c9 5326 f85a 693f 17ab d9f2 6840 743f
000004c0: 490f fc3b d5ad 2f3f 2c2a 3dac 060c 80bf
000004d0: 69af fcb2 0518 86bf 86d7 1d55 e375 34bf
000004e0: aa00 ff51 41b3 4b3f c285 34e5 a5de 463f
000004f0: be95 ab7a df83 583f 479f a773 a872 733f
00000500: e211 19ef 0f74 8a3f 5363 003e d01e 81bf
00000510: 0a6f 0cff 9ce7 8dbf 95bc 7bc6 c188 86bf
00000520: b7f1 cf9b 39f2 8cbf 48d6 6549 64c5 89bf
00000530: 7941 ac77 e35e 8fbf db2d 17cd 5a71 40bf
00000540: 161b a503 34ed 75bf 26d1 b990 95ac 8cbf
00000550: 12ba 80c8 1de7 8fbf e436 ee0c 6f0b 79bf
00000560: 4ecf 7840 9f50 763f 2777 1f97 4bb7 613f
00000570: 967b 0c3c a0be 8c3f efbe 9e22 2be2 95bf
00000580: 38f0 f101 4fe9 93bf 3df2 e943 cfc9 85bf
00000590: 7dd1 e640 00c5 85bf 54c8 8247 78f7 4abf
000005a0: a6c7 e710 3ee2 303f 64e8 d899 68ae 8e3f
000005b0: d259 4059 8f78 963f 1174 e426 070f 9cbf
000005c0: 60b1 5625 7be3 893f 029d e632 be64 833f
000005d0: 4894 03ea 9204 4fbf 3501 5a73 bf70 88bf
000005e0: f59a c09b 9745 7c3f d3df df99 5a19 b93f
000005f0: 976f 588f 6941 c33f be3c 264b ab9d db3f
00000600: 908b d122 199a 78bf 67a8 3e94 6e97 72bf
00000610: f872 339c b695 243f 4f14 f41e 9c1a 773f
00000620: c8de e710 79a6 6bbf 397a 485e 4447 7e3f
00000630: 3536 6c76 037e 8c3f 4e4b ab23 0b67 45bf
00000640: 286d 163d e4dc 5f3f 60f2 eae3 3840 66bf
00000650: ea22 73a3 8e28 89bf f0cc 4a57 6fe8 f0be
00000660: 05ff 8c4d 3133 703f 8f8c a6d2 58e5 53bf
00000670: f71e b6d9 c5e7 733f 981f 8f47 9d6e 62bf
00000680: 324a 45e1 e92b 8e3f 119f 9eac 7320 87bf
00000690: c915 9334 60b5 88bf 557b 59e3 638a 92bf
000006a0: d197 beb6 46fa 92bf b731 1670 2690 84bf
000006b0: 5cba 953e 670f 91bf c6ad 883b b302 80bf
000006c0: 1226 f777 1b6e 6bbf ae75 f319 90eb 92bf
000006d0: 4e25 7d52 d3b1 8cbf 94da e628 9565 7fbf
000006e0: 5cb7 f69a da32 7d3f 1c48 cb5d 228e 4d3f
000006f0: 43fa 1fe8 cae2 993f 84ad 2c2f 7172 7fbf
00000700: 21eb e13a 4a49 4b3f 0b1f e667 3d22 873f
00000710: a0f7 8ebd a9c8 923f 843e 052f 90eb 923f
00000720: b6fc cb19 ade4 6a3f 9221 67f9 9cc2 8c3f
00000730: 8a61 8899 2967 7cbf 4e18 9ccc 151c 90bf
00000740: c409 0b34 321c 943f 08d0 72cb e379 763f
00000750: 3776 8266 3281 86bf 0539 b6e4 7df3 90bf
00000760: 1130 b119 b1ca 82bf a0ed 8e7a 1af2 bb3f
00000770: 7059 c860 d45b b73f efa4 8ca2 109b dc3f
00000780: b0a9 12a4 f411 913f 284b 02e9 256c 8f3f
00000790: 9ed7 5a59 64f5 8c3f 1c29 f22e 0a17 723f
000007a0: 6529 5f34 bdbc 793f 1e19 9a7e beaa 6f3f
000007b0: 8214 09c2 dd58 763f e669 39a2 99a6 80bf
000007c0: 6545 c5fb 0f56 80bf f671 b69c e4f9 82bf
000007d0: 5e6d c469 4a7c 7bbf 7bf4 8cf3 050e 74bf
000007e0: 1612 834b 9f35 78bf a727 0599 c774 86bf
000007f0: 70d7 3ce6 ab49 8dbf 2ef1 9c97 dbe9 83bf
-0.009889467099402692 -0.006651710773199807 -0.007810950212051308 -0.0052911612281787285 -0.010778118827356487 -0.0032910312154336725 -0.0049983946504422285 0.002707302575377367
0.008322158404805689 0.00103398917569314 -0.00446955841345237 0.003868705668292258 0.011799149594720556 0.005762798507909542 0.013051507997194511 0.010939777571114891
0.004789085139869782 0.0005071297775465736 -0.012875955500816157 -0.004265989426327606 -0.008108105418748037 -0.01064260229956963 -0.01542258749390428 -0.00040540113400217936
0.0018213466260034587 -0.005325717208650157 -0.023045594927510245 -0.014112955933471406 -0.0006613297931798937 -0.0021046712555924853 0.02324045482106312 -0.008938453003491156
0.011677746092842651 0.008130834780123676 0.006501228569221555 0.0076798860477003935 0.019696263372476607 0.005452967654262773 0.006142637308967534 -0.02208997446514786
0.008311442939785895 0.01120440325320656 -0.023081604648747 -0.021400907440903248 0.0026790654508870248 0.04274359438128206 0.3192979848521159 0.36927082591447985
-0.004407153909504058 -0.0039013498359907937 -0.001708711500580668 0.00504206512367949 -0.0020367149911198145 0.005145658311724327 0.005628401397632294 0.002776795046165003
0.00015403902864971007 -0.004134505182113029 -0.009794213284397172 0.00010801456810693446 0.0016813203078082577 0.001211193254097507 -0.001437857214861528 0.0059174795650729405
0.011429903086965409 -0.003656882369328548 -0.01509505148151556 -0.008096487246729988 -0.011727423242501273 -0.008993199475679784 -0.017720219398071807 -0.0021956354627185215
-0.000636659624590688 -0.009339589492902638 -0.012897247538868369 -0.006826118087103672 0.005884532577294553 0.0018164900562275509 0.020432275223966224 -0.011451154179718167
-0.0077712102668020646 -0.010326565525198561 -0.004930329608335355 0.013273924400960386 0.009174263341006716 0.008387970521335655 0.009770698116762781 -0.026416442115161462
0.0059152702913698625 0.010268046873690241 -0.02146770081761607 -0.019515541914999518 -0.00021265602478417995 0.0697231685317978 0.2505320005079613 0.4113642630901496
0.009670934659660365 -0.0008656132771190937 0.002499391409732208 0.003538872024443497 0.002111674513330781 0.0018623798629050694 -0.0006513256132818919 0.002654426844485539
-0.007853935002025731 -0.006807182814876989 -0.012465049210827035 0.004508439375022651 0.005918853150679433 -0.0019263336189232578 -0.0017552712394648235 0.0023316946826977057
0.01016083059427213 -0.006947876558690029 -0.011217277508115391 -0.012935681990579533 -0.010440991522989154 -0.005560341738505366 -0.006426490211242082 -0.0026348484793100955
-0.014155874051833965 -0.012754230019807071 -0.016637934342699143 -0.008199477498031018 0.006591568545493345 0.0009793500252187992 0.02045994587892219 -0.015627806068700525
0.002268748468344428 -0.00899874794115511 -0.006108908098437229 0.014428749142841098 -0.005459722354831253 0.002616455112004036 0.02304507466479135 -0.018701225884285636
0.0014594966335637173 0.007367529716765321 -0.0026924394270327876 -0.022537539912480958 0.014636458404019257 0.08428415818424614 0.18773295654076555 0.4244602717721903
-0.007519935180253927 -0.006241648053327255 -0.0032871911681170932 0.005034368429306686 -0.005792145123521183 0.008015560895960108 0.0030951353716030957 0.004944238620377537
0.00024169185598321211 -0.007835437899889795 -0.010788006329299287 -0.00031220245465789947 0.0008453434893383089 0.0006979284320644474 0.001496284715068227 0.004748018278838923
0.012916683658780796 -0.008359553234230132 -0.014601923497643127 -0.011003030652743365 -0.014133882586968889 -0.012583526124880909 -0.015317704286218913 -0.0005017941822926213
-0.005353167706124725 -0.014001053313429223 -0.015577538186417637 -0.006114419737867503 0.005447980954659771 0.0021625973104012655 0.014035465080778835 -0.02137057684711768
-0.019444689267843013 -0.010638827571932125 -0.010629655819550216 -0.0008229577352010333 0.0002576257255945076 0.014981095500037074 0.021944274733039233 -0.027401077030948132
0.012640916897759424 0.009469495705003887 -0.0009465901712501024 -0.011933799464941866 0.006902305813162303 0.09804311997129327 0.15043372630395588 0.43149835909657586
-0.0060063344836604055 -0.004538948010955313 0.0001570496952813178 0.005640611502944883 -0.003375278908830246 0.007392184318205036 0.013912226726030411 -0.0006531528846046382
0.0019447544949347615 -0.0027161704195733244 -0.012284387934771119 -1.612467663632001e-05 0.00395507105787352 -0.001214348546093178 0.004859707692396623 -0.0022500106683515757
0.014732196032729215 -0.011292365746910645 -0.01206469688839719 -0.018106041671099266 -0.018532853034819944 -0.010040569587339883 -0.016660321421506516 -0.007817650083857052
-0.003348401689184718 -0.018476726135181636 -0.014011050181255282 -0.007665236144410632 0.007128576209124517 0.0009019534878353971 0.0252792076280406 -0.007677499891353693
0.0008327114535541005 0.011295776112788333 0.01834359378312167 0.018476727361586245 0.0032828694223777334 0.014043070183917181 -0.006934320925687474 -0.015732136357677277
0.019638809610805344 0.00548733694374804 -0.010988610986085152 -0.016553847393475447 -0.009175666424333458 0.10916295520922015 0.09124495852333836 0.4469644153019336
0.016670057787146753 0.015342994855279082 0.014139923073667234 0.004416503695333664 0.006283511238459692 0.0038655968281232763 0.005455843202587409 -0.008130264533225916
-0.007976651068619398 -0.009265695602885576 -0.006710329700833155 -0.0048961861110089445 -0.005910513158771133 -0.010964927060417141 -0.014300673450275275 -0.00972339207111669
