exp/data_checkpoints/ActualModel_hs2_bs32_e10/checkpoint.pth (torch, 74169 bytes, 114 tensors)

inv_timescales f8 [1]
000000 00 00 00 00 00 00 f0 3f
       1.0

blocks1.SCINet_Tree.workingblock.interact.level.phi.1.weight f8 [2, 1, 5]
000000 6c bc 8e 03 a1 58 a1 bf 47 a2 7f 0f 9c 1e c2 bf
       -0.03387931030680921 -0.14155913121000394
000010 a8 f3 ce de 29 93 b4 bf 3a 94 46 e5 b2 f1 d3 bf
       -0.08037053765924773 -0.3116271246929646
000020 92 49 ca 1a f3 4c d1 bf 42 5f 6f f0 b4 05 df 3f
       -0.27032163254002584 0.48472331504807553
000030 93 38 71 90 0a 76 d6 3f bd 5f 5b b7 32 29 93 3f
       0.35095466714563733 0.0187118458187283
000040 27 bf d7 06 fb 8b cc bf 3b 03 5c ac 30 61 c4 bf
       -0.2230218680774609 -0.15921600738513483

blocks1.SCINet_Tree.workingblock.interact.level.phi.1.bias f8 [2]
000000 1e 6e ef ac a4 c8 d0 bf 15 54 b9 3a 2c 11 b5 bf
       -0.2622462929554973 -0.08229328569116519

blocks1.SCINet_Tree.workingblock.interact.level.phi.4.weight f8 [1, 2, 3]
000000 f4 f2 11 c3 11 fe bc bf cf 50 56 e9 4d 43 cc bf
       -0.11325179111913625 -0.22080396550575762
000010 f9 0b 5f 1f dc c6 d5 3f 04 68 85 c2 89 c5 b4 bf
       0.3402624422416803 -0.08113919257212393
000020 00 6d 94 e2 8d 19 b5 bf 56 b2 46 60 17 72 ca bf
       -0.08242117673619376 -0.20660679055198966

blocks1.SCINet_Tree.workingblock.interact.level.phi.4.bias f8 [1]
000000 4a ee f5 dd 53 37 dc bf
       -0.4408769290527955

blocks1.SCINet_Tree.workingblock.interact.level.psi.1.weight f8 [2, 1, 5]
000000 cb 85 7e 0f 02 29 c7 3f 20 6a a9 20 34 96 dd 3f
       0.18093896633676673 0.4622927016222622
000010 fb 21 99 e6 82 d0 c4 bf 26 49 fb d1 21 be c6 bf
       -0.1626132608382845 -0.17767737153060031
000020 14 46 1f e4 28 f3 c3 3f a0 d7 1b f2 fe cd af bf
       0.15585814608361714 -0.06211849885396181
000030 41 40 88 9b 25 92 c3 3f 1f 50 00 3c 56 25 c6 bf
       0.15289754957530202 -0.1730144303297729
000040 68 92 ce 2a 33 c7 b8 bf 70 26 15 a6 54 21 c2 3f
       -0.09678954882708413 0.14164217099669285

blocks1.SCINet_Tree.workingblock.interact.level.psi.1.bias f8 [2]
000000 32 ea 0a be 39 64 cf 3f 36 72 2a 8c 8c e0 d2 bf
       0.24524614123750293 -0.2949553841406528

blocks1.SCINet_Tree.workingblock.interact.level.psi.4.weight f8 [1, 2, 3]
000000 c2 56 36 48 cd eb b6 bf 92 7d da 0e 2e 0e a4 bf
       -0.08953555119509374 -0.03917068415943982
000010 fd f4 76 52 0d 62 d3 bf a7 fb c7 c6 a1 1f b6 bf
       -0.30285962155524243 -0.08642016509109728
000020 dc 41 5a b2 c4 01 bc 3f 08 47 e1 09 c2 ba d2 3f
       0.10940198282538155 0.2926488014683035

blocks1.SCINet_Tree.workingblock.interact.level.psi.4.bias f8 [1]
000000 34 42 7b 0e 6e 36 c3 bf
       -0.1500985689840647

blocks1.SCINet_Tree.workingblock.interact.level.P.1.weight f8 [2, 1, 5]
000000 f9 2b 4d 9a 09 ed ba bf da d3 d7 50 7f 73 cc 3f
       -0.10517940537572192 0.22227469870963895
000010 e2 7d b6 4c 01 2d d1 3f 21 3a 20 a6 a9 3c d3 bf
       0.2683718918942458 -0.30057755683165693
000020 71 28 d7 22 c5 2b c8 3f 17 d6 bf c0 ae c6 c3 3f
       0.18883575631327035 0.15450081264104717
000030 10 30 56 56 f0 85 cb bf d0 18 0a 15 48 15 d9 3f
       -0.2150249883237625 0.3919239240134518
000040 40 fc 24 4b ef a2 ab bf c5 de cd c2 22 58 c9 bf
       -0.05397746841708129 -0.19800219070361016

blocks1.SCINet_Tree.workingblock.interact.level.P.1.bias f8 [2]
000000 02 9d be 17 55 5c b8 bf c0 88 0d 0f 8e fa d0 bf
       -0.09515888051702251 -0.2652926585198081

blocks1.SCINet_Tree.workingblock.interact.level.P.4.weight f8 [1, 2, 3]
000000 c2 2a 4d b2 2d 1d d6 3f 65 bd fb da 84 7f b9 bf
       0.34553091442345985 -0.0996020350100842
000010 64 fd d8 d0 6e f7 d9 3f 93 4c 67 61 0b 1e ad 3f
       0.405727104141951 0.05686984600074498
000020 fa 1d f2 0c ae e1 d1 3f 2c 70 b6 be c2 02 d3 bf
       0.27939940704570143 -0.2970435011318411

blocks1.SCINet_Tree.workingblock.interact.level.P.4.bias f8 [1]
000000 8a a8 96 84 b1 51 c6 bf
       -0.17436808561371137

blocks1.SCINet_Tree.workingblock.interact.level.U.1.weight f8 [2, 1, 5]
000000 11 2c ed 4f 5a a8 84 3f 6c a8 3e 40 2a a6 5f 3f
       0.01008673244873218 0.0019317066771500592
000010 12 4b 4e 04 74 1c d5 bf 40 55 94 10 4d 16 d2 3f
       -0.32986164494029524 0.28261114710888435
000020 63 a2 ad 5b 14 f6 dc 3f 70 d0 e0 37 09 a8 d4 3f
       0.4525195021911143 0.32275610405782285
000030 72 3f 08 af e0 33 cb 3f ef 43 a4 00 61 db d0 3f
       0.21252068087096238 0.26338982641851677
000040 b2 0c 5b 00 9d 98 c7 bf 8e da 46 6d 93 a9 cc 3f
       -0.18434488789907771 0.22392504535465146

blocks1.SCINet_Tree.workingblock.interact.level.U.1.bias f8 [2]
000000 9a 6c e2 b0 1c c4 d0 bf 2a fd 67 4b 9b 99 d0 bf
       -0.2619697310817145 -0.25937540401351333

blocks1.SCINet_Tree.workingblock.interact.level.U.4.weight f8 [1, 2, 3]
000000 e5 8c 4c d5 cb 06 d1 bf 82 4e f8 5d 2b d2 d4 bf
       -0.26603980855925463 -0.3253277223277352
000010 ef ec d2 dc b5 10 d0 bf 42 65 87 85 20 70 bd 3f
       -0.2510199219211264 0.11499217281324994
000020 d7 65 da de c4 fe a2 3f 16 60 ba 1a 99 d4 d6 bf
       0.03709998340964276 -0.356725956060019

blocks1.SCINet_Tree.workingblock.interact.level.U.4.bias f8 [1]
000000 32 98 bb 9a 7d 31 c4 3f
       0.15776033454238952

blocks1.SCINet_Tree.SCINet_Tree_odd.workingblock.interact.level.phi.1.weight f8 [2, 1, 5]
000000 34 1f 5f 01 18 8f bc bf af 88 51 db 8c 33 d5 bf
       -0.1115584376667556 -0.33127137582608673
000010 88 f4 b1 9d 49 79 da bf 50 41 17 16 f2 0c a6 bf
       -0.4136528053275659 -0.04306751746810511
000020 46 a3 16 b3 de ea d4 3f af 9d f2 f5 6d 1e be 3f
       0.3268353222761572 0.11765181784232114
000030 ca b6 86 6b c7 51 d8 3f 32 25 fe 17 40 cf a9 bf
       0.37999139309509344 -0.050409319809725864
000040 2b 4f b8 ec f8 45 c7 bf ec 59 47 e6 4d 11 c7 bf
       -0.18182288702575397 -0.18021558517530367

blocks1.SCINet_Tree.SCINet_Tree_odd.workingblock.interact.level.phi.1.bias f8 [2]
000000 d0 42 9f 5d 3e 7d b0 bf fe 34 e3 65 31 6b b6 bf
       -0.06441106591888546 -0.08757313477982007

blocks1.SCINet_Tree.SCINet_Tree_odd.workingblock.interact.level.phi.4.weight f8 [1, 2, 3]
000000 85 61 ca 98 6f cf c4 3f 49 f5 39 9f f8 b1 c4 3f
       0.16258044205165958 0.16168124937750353
000010 11 eb d7 0c 19 1b d7 3f f9 1e 96 60 e2 9e cb bf
       0.3610289216446044 -0.21578626361974054
000020 45 b2 f1 3d 04 81 d9 bf 4d d1 59 86 4e d2 9b bf
       -0.3984995465205297 -0.027169444036603086

blocks1.SCINet_Tree.SCINet_Tree_odd.workingblock.interact.level.phi.4.bias f8 [1]
000000 b6 1e 5e 9e 53 82 d1 3f
       0.27357950654593866

blocks1.SCINet_Tree.SCINet_Tree_odd.workingblock.interact.level.psi.1.weight f8 [2, 1, 5]
000000 48 e3 07 62 fd ba dd 3f db 52 7f 70 4c 95 c0 bf
       0.4645379502613207 -0.12955623143229542
000010 c8 2c 73 57 01 d2 d1 3f 4e 2c 56 4b af 01 de 3f
       0.27844270267514704 0.46885282857028165
000020 39 90 14 14 ec 02 af bf 0d a2 0d 41 bd 8c be 3f
       -0.06056916947480357 0.11933501089300354
000030 78 58 86 eb b4 a8 ce bf 30 b8 11 1a 40 fc a8 bf
       -0.23952352047189485 -0.04879951780536407
000040 51 8b ae a4 a0 bb a9 bf 55 88 f2 e1 43 c2 a0 bf
       -0.050259609320412076 -0.03273212559840092

blocks1.SCINet_Tree.SCINet_Tree_odd.workingblock.interact.level.psi.1.bias f8 [2]
000000 40 64 38 cc 5a 56 d6 bf 44 44 a1 11 ab ee db bf
       -0.3490206713045758 -0.43644215318369484

blocks1.SCINet_Tree.SCINet_Tree_odd.workingblock.interact.level.psi.4.weight f8 [1, 2, 3]
000000 c0 3c 66 25 f0 5b ce bf f2 61 e3 f0 5f 64 bd bf
       -0.2371807272543034 -0.11481284743366141
000010 6d 32 71 7b 3e 70 c7 bf 57 ea 4b e0 96 34 c1 bf
       -0.1831129172081946 -0.13441739990215026
000020 d6 7a ba e0 58 42 c5 3f 21 12 87 ae fc 52 d4 3f
       0.16608725522106366 0.31756512683594634

blocks1.SCINet_Tree.SCINet_Tree_odd.workingblock.interact.level.psi.4.bias f8 [1]
000000 d5 e6 ce f7 3d 9b 8c 3f
       0.013967975735670471

blocks1.SCINet_Tree.SCINet_Tree_odd.workingblock.interact.level.P.1.weight f8 [2, 1, 5]
000000 9a 35 55 1b bd 45 b9 bf 53 88 6f ab 7f 19 c4 bf
       -0.09872037808709991 -0.15702815886385454
000010 2e b5 1f 94 6b 7e d7 3f ff 8e a0 e2 54 15 d1 bf
       0.36709107842655697 -0.2669269765049051
000020 8a 45 d8 5e e4 54 ba bf 09 b5 d0 21 94 f6 a4 bf
       -0.1028578502230372 -0.04094374573501553
000030 f3 1b 70 7c 48 a1 9d 3f 07 8f e1 a4 85 6f d4 bf
       0.02893555888661221 -0.3193067655722505
000040 31 54 91 82 ab 84 d6 bf 40 43 97 1b cb 65 d1 bf
       -0.3518475318026644 -0.2718379754488076

blocks1.SCINet_Tree.SCINet_Tree_odd.workingblock.interact.level.P.1.bias f8 [2]
000000 ce d6 1c 04 f2 ec 27 bf 54 7a 0d 4d 0e 99 c5 3f
       -0.00018253759668034611 0.1687333942636139

blocks1.SCINet_Tree.SCINet_Tree_odd.workingblock.interact.level.P.4.weight f8 [1, 2, 3]
000000 40 47 a2 58 4c d2 b0 bf 67 e7 4f a3 95 b6 d5 3f
       -0.06570889629281584 0.33926907490205455
000010 68 40 6d f9 87 71 c5 3f fc af a5 9e 49 00 9b 3f
       0.16752719573060237 0.026368284519250537
000020 c1 df 8c 02 56 6e a3 3f 5f 44 13 d1 dc 1d 9f 3f
       0.03795117169505558 0.030387354145947728

blocks1.SCINet_Tree.SCINet_Tree_odd.workingblock.interact.level.P.4.bias f8 [1]
000000 15 58 2c 90 7a 62 b4 3f
       0.07962766666273098

blocks1.SCINet_Tree.SCINet_Tree_odd.workingblock.interact.level.U.1.weight f8 [2, 1, 5]
000000 fe c0 59 56 fe 24 d4 3f 1a fd a0 5a 2f 49 ce bf
       0.3147579043643559 -0.23660842824208644
000010 dc 12 c8 8e cd da d3 bf 93 08 5f 1f 1f b1 c1 bf
       -0.3102296728468852 -0.1382178214244659
000020 1a ca 93 5e d8 f4 d2 bf c2 51 d5 8b 9c 76 d2 bf
       -0.29619416462006287 -0.28848947196572905
000030 db bb 16 45 ad 12 90 bf a6 5e 01 ad 4a d8 d5 3f
       -0.01569624647316546 0.34132639784864194
000040 5b cf b9 25 cb ad d7 bf 72 b6 a0 64 aa cc c1 3f
       -0.36998251613771566 0.13905839837518702

blocks1.SCINet_Tree.SCINet_Tree_odd.workingblock.interact.level.U.1.bias f8 [2]
000000 b3 f3 b4 bc a9 66 c3 bf e1 68 78 1f 83 67 c1 bf
       -0.15157052721215578 -0.13597144161833

blocks1.SCINet_Tree.SCINet_Tree_odd.workingblock.interact.level.U.4.weight f8 [1, 2, 3]
000000 3d d5 46 c6 ce 5e db bf b4 f7 b6 9d 88 37 b2 bf
       -0.4276616035743535 -0.07115987635094606
000010 e5 20 06 37 2d e2 d1 bf 6a 66 9e ed bc 46 d5 bf
       -0.2794297253935965 -0.3324425049300773
000020 49 8f dc a4 43 ca ca bf 7e 31 a8 42 ff d7 b9 3f
       -0.2092976145732968 0.10095210435264865

blocks1.SCINet_Tree.SCINet_Tree_odd.workingblock.interact.level.U.4.bias f8 [1]
000000 52 2f cb 2b 7f df d2 bf
       -0.29489115978934877

blocks1.SCINet_Tree.SCINet_Tree_odd.SCINet_Tree_odd.workingblock.interact.level.phi.1.weight f8 [2, 1, 5]
000000 48 32 1d 34 b8 5a a7 3f 76 9d 88 63 a8 1d c8 3f
       0.04561401020200556 0.18840508327523836
000010 22 60 59 9c c8 63 cf 3f b6 7b 17 69 f9 90 da bf
       0.2452326548980191 -0.4150985266004982
000020 f5 c6 2e 9a 26 08 c0 3f 64 ea 9a 79 c6 40 b2 bf
       0.12524874237492836 -0.07130089253306832
000030 0c e6 de df 7b f1 db 3f fe af e3 8f 79 71 bf bf
       0.4366140066373141 -0.12282523882794291
000040 6b a0 07 20 b1 d9 a0 bf 0c ed 37 c0 2d 9b c5 3f
       -0.03291085735310236 0.16879817853610068

blocks1.SCINet_Tree.SCINet_Tree_odd.SCINet_Tree_odd.workingblock.interact.level.phi.1.bias f8 [2]
000000 45 d7 06 11 6c 81 b2 bf 77 5a e1 9e 2a e0 d2 bf
       -0.07228732505504094 -0.29493203654911987

blocks1.SCINet_Tree.SCINet_Tree_odd.SCINet_Tree_odd.workingblock.interact.level.phi.4.weight f8 [1, 2, 3]
000000 eb ca dd f7 c0 5a 96 bf ef 59 c9 1a e4 40 c1 3f
       -0.021830573204577524 0.13479281719146693
000010 f6 e9 65 09 10 ac ce bf 7f 0d 64 da 7c 25 ba bf
       -0.23962593516246472 -0.10213451701934238
000020 3b 4e 9e a5 fb 58 d5 3f 01 37 b4 c1 1a bc d8 bf
       0.3335560910574917 -0.3864809886589314

blocks1.SCINet_Tree.SCINet_Tree_odd.SCINet_Tree_odd.workingblock.interact.level.phi.4.bias f8 [1]
000000 5b 3f 42 5b 4d 09 af 3f
       0.060617844953525256

blocks1.SCINet_Tree.SCINet_Tree_odd.SCINet_Tree_odd.workingblock.interact.level.psi.1.weight f8 [2, 1, 5]
000000 01 e1 25 31 9c 76 e3 3f 1b 54 30 53 54 95 c6 3f
       0.6082287750168974 0.1764321714587432
000010 82 3f 82 4f 8d a9 ad 3f 2a 31 ea 10 ae 15 99 bf
       0.05793420405927831 -0.024496764929197536
000020 eb 07 f5 bb 86 00 b0 bf 7f 7d c4 02 45 dd c8 bf
       -0.0625080307845846 -0.1942526114953402
000030 66 e5 e0 a9 df 82 c9 3f 7c 08 fc 0b f7 a9 b5 bf
       0.19930644793366098 -0.08462471048918191
000040 af 7a 03 e8 72 50 d1 3f 26 91 00 5c fc 8f c2 3f
       0.27053520829751226 0.14501909725471157

blocks1.SCINet_Tree.SCINet_Tree_odd.SCINet_Tree_odd.workingblock.interact.level.psi.1.bias f8 [2]
000000 c7 63 d9 c6 72 e6 a3 3f 4a b2 6e 12 f1 57 e0 bf
       0.038867556356030834 -0.5107350692756623

blocks1.SCINet_Tree.SCINet_Tree_odd.SCINet_Tree_odd.workingblock.interact.level.psi.4.weight f8 [1, 2, 3]
000000 44 35 e1 f0 2d 88 c5 bf d6 7a 07 79 0a 9b c6 bf
       -0.16821836721138983 -0.176606473060892
000010 b8 92 5a 95 ba 04 de bf 59 31 ae 24 32 18 cc 3f
       -0.4690386255772796 0.21948839942013867
000020 42 cd 45 07 d2 77 a0 3f 0f 3c 4a b6 2c 67 a1 3f
       0.0321641572835696 0.03399028516025037

blocks1.SCINet_Tree.SCINet_Tree_odd.SCINet_Tree_odd.workingblock.interact.level.psi.4.bias f8 [1]
000000 5b de 93 c6 60 2f e1 bf
       -0.5370334509343125

blocks1.SCINet_Tree.SCINet_Tree_odd.SCINet_Tree_odd.workingblock.interact.level.P.1.weight f8 [2, 1, 5]
000000 59 81 58 15 2d 90 cc bf 7a 2e d0 ff 6e 45 a6 3f
       -0.22314990560790696 0.04349848625869597
000010 c5 e0 6a 42 df a7 cb bf 1f b5 4f 59 c7 2c c9 3f
       -0.21606055014649975 0.19667903767496228
000020 68 8f 38 58 2f 14 da bf d5 1f 65 64 71 c8 e0 bf
       -0.4074819909603691 -0.5244681320991683
000030 2a 49 e0 a3 ec 44 7f bf b0 28 6e 8e fe 48 d2 3f
       -0.007634090781737416 0.28570522221765327
000040 c7 c1 2d 7b ef 94 d1 bf 41 6d 4e 15 b8 b5 d6 bf
       -0.27471529988454474 -0.3548412521428937

blocks1.SCINet_Tree.SCINet_Tree_odd.SCINet_Tree_odd.workingblock.interact.level.P.1.bias f8 [2]
000000 58 b8 ab 59 d9 12 d6 bf ad ca 2b b5 c6 d1 bd 3f
       -0.34490045315658824 0.11648218081590285

blocks1.SCINet_Tree.SCINet_Tree_odd.SCINet_Tree_odd.workingblock.interact.level.P.4.weight f8 [1, 2, 3]
000000 fe c3 f3 f3 e3 1b b1 3f aa 01 76 51 31 a5 b5 bf
       0.06683182435860144 -0.08455188978951492
000010 f7 67 cd f9 14 9f c6 3f 7f fc 28 05 98 00 ac 3f
       0.1767297954309581 0.054692030553717956
000020 01 06 db d3 da 2a a1 3f 3d af dc b0 9a 53 98 3f
       0.03353008113982626 0.0237564249465969

blocks1.SCINet_Tree.SCINet_Tree_odd.SCINet_Tree_odd.workingblock.interact.level.P.4.bias f8 [1]
000000 c0 8b fb 08 1e a4 a0 3f
       0.032502115818509036

blocks1.SCINet_Tree.SCINet_Tree_odd.SCINet_Tree_odd.workingblock.interact.level.U.1.weight f8 [2, 1, 5]
000000 2e 4a 3f ce 43 4e d2 bf fc 70 41 95 b1 fb d7 3f
       -0.286026908314997 0.3747371633123888
000010 ad b7 79 73 94 76 a3 3f d3 be 94 f5 ef 02 b1 bf
       0.03801406774151359 -0.06645107026701717
000020 02 b8 6c 8b 1b 47 a1 3f 3e 0c a4 e8 4c 8a d3 bf
       0.03374563290559253 -0.3053161880381515
000030 67 84 6d a7 d7 df cb 3f f3 29 54 4b d1 ff c4 bf
       0.21776862788377402 -0.16405693224108084
000040 f8 94 5d 15 23 89 d7 bf ae 82 45 c9 76 90 d1 3f
       -0.3677451809547416 0.2744423833410491

blocks1.SCINet_Tree.SCINet_Tree_odd.SCINet_Tree_odd.workingblock.interact.level.U.1.bias f8 [2]
000000 c6 55 b4 92 f0 fe c4 bf af 34 7a 96 8f cb b0 bf
       -0.16403014338781768 -0.06560609267963245

blocks1.SCINet_Tree.SCINet_Tree_odd.SCINet_Tree_odd.workingblock.interact.level.U.4.weight f8 [1, 2, 3]
000000 1e 2d 1a 44 3f e8 d3 bf 76 7b 30 a4 14 fc d0 bf
       -0.3110502400456471 -0.26538578065986174
000010 1e 3e cd 65 31 0a cf 3f 55 eb 18 03 28 97 c4 bf
       0.2424985644415622 -0.16086292411076877
000020 11 75 7f 95 3d f1 a8 bf 77 28 8f ad 5c be d2 bf
       -0.04871551942754072 -0.29286877583638876

blocks1.SCINet_Tree.SCINet_Tree_odd.SCINet_Tree_odd.workingblock.interact.level.U.4.bias f8 [1]
000000 30 a8 84 84 4d f0 ce 3f
       0.24170845957388698

blocks1.SCINet_Tree.SCINet_Tree_odd.SCINet_Tree_even.workingblock.interact.level.phi.1.weight f8 [2, 1, 5]
000000 fd 3f 01 c8 0e 8e be bf 77 05 9a bb b2 17 d2 3f
       -0.11935512907916741 0.2826964218184779
000010 45 a6 a2 44 f5 94 d9 3f 7a cd ce 93 c7 20 d1 3f
       0.39971667959853036 0.2676257079540033
000020 ec 1a 16 fc 27 16 a0 bf e4 d1 28 66 94 20 d0 3f
       -0.031419038316973985 0.2519885060931115
000030 c5 16 23 36 a4 b2 b3 bf 85 f4 00 a7 94 cb ab bf
       -0.07694460221963613 -0.05428757227535023
000040 4a 13 53 e7 e1 55 d4 bf e0 25 a1 5c 22 21 d7 bf
       -0.31774184789928894 -0.36139735265586914

blocks1.SCINet_Tree.SCINet_Tree_odd.SCINet_Tree_even.workingblock.interact.level.phi.1.bias f8 [2]
000000 a2 91 a4 45 93 20 c3 3f 8c c3 99 df 8d 6c ca bf
       0.14943161869554183 -0.20643781106948855

blocks1.SCINet_Tree.SCINet_Tree_odd.SCINet_Tree_even.workingblock.interact.level.phi.4.weight f8 [1, 2, 3]
000000 69 99 d5 56 43 e0 aa 3f 01 f3 8a dd 76 08 d7 bf
       0.05249224123945135 -0.35989162097011734
000010 99 06 75 61 75 a2 de bf 8b c7 3d 14 c9 01 d3 bf
       -0.4786656810502819 -0.2969839761418533
000020 44 77 a1 4f 44 8d d6 3f b2 9d 3b 05 0e ac d5 bf
       0.35237224365652176 -0.33862638960860203

blocks1.SCINet_Tree.SCINet_Tree_odd.SCINet_Tree_even.workingblock.interact.level.phi.4.bias f8 [1]
000000 28 61 37 22 20 70 d1 3f
       0.2724685987609683

blocks1.SCINet_Tree.SCINet_Tree_odd.SCINet_Tree_even.workingblock.interact.level.psi.1.weight f8 [2, 1, 5]
000000 1b 0f 62 76 6b e3 a2 bf 17 da 3f f7 92 3f ce bf
       -0.03689132518868928 -0.23631512711263333
000010 4b 31 1f 89 5d 14 be 3f 73 02 b6 ce d6 ce b0 3f
       0.11749825093938175 0.06565611406950626
000020 c2 cd 81 51 e2 5f d0 3f d4 e0 e6 1c 3c 33 c8 3f
       0.25585229835197876 0.18906356250022915
000030 c5 87 66 05 f7 9e cd bf a4 cb d0 4d 69 d3 c5 bf
       -0.2314137245530771 -0.1705142621954937
000040 f6 6d d0 e7 6d 01 cd bf a0 80 89 11 43 49 91 bf
       -0.22660611933757452 -0.016881034798985284

blocks1.SCINet_Tree.SCINet_Tree_odd.SCINet_Tree_even.workingblock.interact.level.psi.1.bias f8 [2]
000000 2c 4f 9e 35 8a ee ce bf 80 28 86 ba 6a c2 d4 bf
       -0.2416546594437191 -0.32436626639594834

blocks1.SCINet_Tree.SCINet_Tree_odd.SCINet_Tree_even.workingblock.interact.level.psi.4.weight f8 [1, 2, 3]
000000 dd b0 7a 87 11 44 b3 3f 08 be 76 55 69 5b a6 3f
       0.07525739247893477 0.043666164095494564
000010 b9 45 3e 9f 1c 26 c3 3f 2c f5 be ff 09 b3 e1 3f
       0.14960057998227486 0.553105353835837
000020 8f bd 8c bf a9 4b c1 3f eb c2 6e 08 16 72 da bf
       0.13512155392662037 -0.41321326087476845

blocks1.SCINet_Tree.SCINet_Tree_odd.SCINet_Tree_even.workingblock.interact.level.psi.4.bias f8 [1]
000000 cb 1e 7b 2c 83 fb bc 3f
       0.11321277461967864

blocks1.SCINet_Tree.SCINet_Tree_odd.SCINet_Tree_even.workingblock.interact.level.P.1.weight f8 [2, 1, 5]
000000 2a e1 f8 11 ac 2e ce 3f 19 bc c4 ba 10 b2 9d bf
       0.23579932096050388 -0.028999577903217586
000010 03 bd aa 9d 79 19 c9 bf eb 42 20 f0 63 c4 cc bf
       -0.19608993719655396 -0.22474335884955762
000020 3d ea 3a 4c c8 0b 49 3f 7e 72 50 02 d2 36 e1 3f
       0.000764344026229331 0.5379419369888436
000030 ea f2 c5 4f 64 05 d4 3f 4f 7d d0 17 0c 37 a7 bf
       0.3128290919337774 -0.045341852099449846
000040 6c 1a 76 29 ed c4 d6 3f bf 65 c0 d3 ba 9f c3 bf
       0.3557694344421296 -0.15331206645423198

blocks1.SCINet_Tree.SCINet_Tree_odd.SCINet_Tree_even.workingblock.interact.level.P.1.bias f8 [2]
000000 b0 7a 9a 07 b2 f0 b8 bf 2d 74 d4 cc 41 96 af bf
       -0.09742272077208258 -0.06169324517598116

blocks1.SCINet_Tree.SCINet_Tree_odd.SCINet_Tree_even.workingblock.interact.level.P.4.weight f8 [1, 2, 3]
000000 f0 a4 a1 38 c9 f3 88 3f 7c 21 66 99 dd 74 c6 3f
       0.012183734932664753 0.17544145574744252
000010 69 2a 53 e4 cb 62 cb bf 1f 56 66 80 82 d8 ca 3f
       -0.21395252846407978 0.20973235387343522
000020 c5 17 c6 7b e4 74 dc 3f 2e 3c 99 63 ce da e2 3f
       0.4446345528343694 0.5892097420963915

blocks1.SCINet_Tree.SCINet_Tree_odd.SCINet_Tree_even.workingblock.interact.level.P.4.bias f8 [1]
000000 40 0f 12 b1 6f cb cd bf
       -0.23277088304541316

blocks1.SCINet_Tree.SCINet_Tree_odd.SCINet_Tree_even.workingblock.interact.level.U.1.weight f8 [2, 1, 5]
000000 9a 9a 35 4d ab 2e d2 3f c3 f3 df a6 82 c1 cb 3f
       0.2840984586713745 0.21684296749290696
000010 bf 3b 73 ef e4 f8 d5 3f 81 20 ab 24 ec bd bb bf
       0.3433163011913471 -0.10836673636652173
000020 26 5b ad ac 66 ce c2 3f 28 2e 41 c7 d5 4a ce bf
       0.1469238608503584 -0.23665878514508276
000030 19 f1 ce 71 43 7b 71 bf 48 7b e0 7d 88 ab cc bf
       -0.004267943816497665 -0.2239847769387444
000040 e6 c3 ef 74 ca 0b aa 3f 3e c8 2e 48 63 eb b2 bf
       0.050871207022176 -0.07390423309587477

blocks1.SCINet_Tree.SCINet_Tree_odd.SCINet_Tree_even.workingblock.interact.level.U.1.bias f8 [2]
000000 7f 9b 98 b3 c1 c9 83 3f 5a 60 d8 6b 03 4c b5 bf
       0.009662164014185624 -0.08319112189235636

blocks1.SCINet_Tree.SCINet_Tree_odd.SCINet_Tree_even.workingblock.interact.level.U.4.weight f8 [1, 2, 3]
000000 ff c3 d7 64 c1 27 89 3f 94 95 42 83 24 92 d3 bf
       0.01228285874364765 -0.30579483812683717
000010 4b d2 3a 08 5b d6 9a 3f a5 02 d6 43 c9 1c 96 3f
       0.02620832669954813 0.02159418560541106
000020 15 05 19 cf 57 9c ab bf b6 35 90 ee db b8 b8 bf
       -0.05392717745827206 -0.09657072614955706

blocks1.SCINet_Tree.SCINet_Tree_odd.SCINet_Tree_even.workingblock.interact.level.U.4.bias f8 [1]
000000 c3 88 2c 2d 10 f8 a6 3f
       0.044861321939849506

blocks1.SCINet_Tree.SCINet_Tree_even.workingblock.interact.level.phi.1.weight f8 [2, 1, 5]
000000 02 5e 27 da eb 47 68 3f 36 52 25 d8 54 63 d8 bf
       0.0029639822471201347 -0.38106270893084415
000010 85 2b dc dc cb ec d3 3f 98 d8 17 55 7a d1 c9 3f
       0.3113279015384978 0.20170525698603536
000020 89 2e 16 c7 da 11 b1 3f 1f 70 7f a6 8d a3 dd bf
       0.06667868958009583 -0.46310750255156735
000030 41 0b ad 5a 2e d2 c7 bf 73 1d 49 6f b0 af d7 bf
       -0.18610171725785032 -0.3700982176564686
000040 29 97 13 f4 45 2f d8 bf 4e e7 55 ef 2b cc c2 bf
       -0.3778853305396859 -0.14685582338625597

blocks1.SCINet_Tree.SCINet_Tree_even.workingblock.interact.level.phi.1.bias f8 [2]
000000 21 d9 cf 79 46 0b d6 bf 27 f4 ad 36 c4 f2 c3 3f
       -0.34443818946546584 0.15584614438913144

blocks1.SCINet_Tree.SCINet_Tree_even.workingblock.interact.level.phi.4.weight f8 [1, 2, 3]
000000 9a 55 f1 81 f3 ba a8 bf b4 09 0a 7b 75 46 b2 3f
       -0.048301324474475396 0.07138761762511231
000010 b6 97 23 5c ff cb d8 bf 48 72 05 1a 9e 59 c9 3f
       -0.38745101926758296 0.19804741163797446
000020 e7 ed 30 11 c6 d4 dd 3f d4 1c ba 12 07 e7 af 3f
       0.46611167601414966 0.06230947593308547

blocks1.SCINet_Tree.SCINet_Tree_even.workingblock.interact.level.phi.4.bias f8 [1]
000000 23 ce ba fd ba 3c e3 bf
       -0.6011633830698354

blocks1.SCINet_Tree.SCINet_Tree_even.workingblock.interact.level.psi.1.weight f8 [2, 1, 5]
000000 05 96 66 e6 63 5f d5 bf 1a c5 c5 11 04 fe d5 bf
       -0.33394715786047896 -0.343628899913783
000010 e1 7c f2 79 31 3d ab 3f f6 70 2e ea 5f 0f cb bf
       0.05320124257672788 -0.2114066976035997
000020 9f 6c a5 ce be 25 d5 bf fd 68 28 4a 17 26 d7 bf
       -0.33042879276553977 -0.361699888629701
000030 9c d4 9f c5 2a 72 c3 bf ac 3a d1 79 ed b3 d7 bf
       -0.15192160272241473 -0.37035691162319995
000040 cd ea 70 8e 07 19 da bf 4f 1e a3 65 76 5e 90 bf
       -0.40777768049489965 -0.015985345796052205

blocks1.SCINet_Tree.SCINet_Tree_even.workingblock.interact.level.psi.1.bias f8 [2]
000000 7a 4b 32 a4 04 82 cc bf 0e 40 a7 76 98 33 c9 bf
       -0.22271783845334509 -0.196887071548645

blocks1.SCINet_Tree.SCINet_Tree_even.workingblock.interact.level.psi.4.weight f8 [1, 2, 3]
000000 c9 14 15 4f 79 78 be 3f 18 1b 4a 1a c6 7e e0 3f
       0.1190257852623119 0.515475322100289
000010 55 07 35 a7 7b dc cb bf 4c 3a ef 01 5c f6 d5 3f
       -0.21766610779200826 0.3431615847484053
000020 e9 be cc fc 01 e0 bc bf 9c e8 b6 dd 28 37 ae 3f
       -0.11279308721418214 0.0590145846030776

blocks1.SCINet_Tree.SCINet_Tree_even.workingblock.interact.level.psi.4.bias f8 [1]
000000 34 e2 ed 9c 94 5d 84 bf
       -0.009944115676021693

blocks1.SCINet_Tree.SCINet_Tree_even.workingblock.interact.level.P.1.weight f8 [2, 1, 5]
000000 97 fb f5 e1 a1 ba bd 3f dd a5 43 cd bd 69 c8 bf
       0.11612903372404869 -0.19072697184246482
000010 de 57 ed 0f 7d 2e c0 bf 19 3b b8 ce 92 1b cb bf
       -0.12641871717158798 -0.21177897542698856
000020 b3 b3 68 9d f0 09 ce 3f 3f f5 cf be 68 9b c9 bf
       0.23467834173189103 -0.20005521122940625
000030 0e e8 6b 22 13 ce c5 bf a7 ad 05 aa 7c f1 d2 bf
       -0.17035140209901595 -0.2959891949055539
000040 f8 d2 45 46 ad 8c 9a 3f 9b 05 67 a8 31 8c bc bf
       0.02592726460848646 -0.11151419030559

blocks1.SCINet_Tree.SCINet_Tree_even.workingblock.interact.level.P.1.bias f8 [2]
000000 f5 8b b3 3f 0f f0 ab bf f0 86 8c d2 74 d7 b7 3f
       -0.05456588413814948 0.09313135280947527

blocks1.SCINet_Tree.SCINet_Tree_even.workingblock.interact.level.P.4.weight f8 [1, 2, 3]
000000 aa 75 68 69 b9 59 ce bf 52 31 4a 96 9f 4c ce bf
       -0.237113167256138 -0.23671336019868733
000010 bc 59 23 23 58 55 d5 3f f2 f1 8b 5e 50 2c c6 bf
       0.3333340018411055 -0.17322735420738372
000020 c3 a1 23 c6 8d c7 c4 bf dd aa 93 24 fd 2a cc bf
       -0.16233989882245056 -0.2200619152639182

blocks1.SCINet_Tree.SCINet_Tree_even.workingblock.interact.level.P.4.bias f8 [1]
000000 3b d4 9f 32 8b 14 b7 bf
       -0.09015722261376961

blocks1.SCINet_Tree.SCINet_Tree_even.workingblock.interact.level.U.1.weight f8 [2, 1, 5]
000000 a9 68 2b 24 70 a8 ab 3f 87 05 f4 cd d4 25 c5 bf
       0.05401945535204906 -0.16521701866444635
000010 44 b7 2d 68 2a c8 d4 bf 7d db 8c df e2 ba cf bf
       -0.32471714185418343 -0.24789081492937362
000020 b8 d5 c1 33 cc 3e cb bf b4 72 dd df 16 93 d8 3f
       -0.21285393264012753 0.3839776216680477
000030 06 42 53 9d 09 73 bf 3f a6 eb 57 88 16 8d a9 bf
       0.12284908381412415 -0.04990454115246416
000040 0d 0d 6f bf 55 54 cc bf f4 7e f5 64 1e fc cf bf
       -0.22132369849541825 -0.24988155297886971

blocks1.SCINet_Tree.SCINet_Tree_even.workingblock.interact.level.U.1.bias f8 [2]
000000 0a 3f 70 24 f1 ee b5 3f bb a2 61 c0 36 17 c6 3f
       0.08567721500025641 0.17258343118307615

blocks1.SCINet_Tree.SCINet_Tree_even.workingblock.interact.level.U.4.weight f8 [1, 2, 3]
000000 90 c4 a5 b8 04 4e b7 bf fb 67 db a7 85 45 a2 bf
       -0.09103421695705749 -0.035686661472666935
000010 a2 6e 0d e4 77 f4 b3 bf c2 a7 02 6e b5 7e 7e bf
       -0.0779490405815815 -0.007445057592272821
000020 ca a8 e1 91 34 5e 76 bf 9c 53 97 6a b4 be 77 3f
       -0.005460934973692664 0.005797104598475846

blocks1.SCINet_Tree.SCINet_Tree_even.workingblock.interact.level.U.4.bias f8 [1]
000000 1c 19 39 83 0b 0f d2 bf
       -0.282168272159099

blocks1.SCINet_Tree.SCINet_Tree_even.SCINet_Tree_odd.workingblock.interact.level.phi.1.weight f8 [2, 1, 5]
000000 8d 0d 17 c6 26 45 d4 bf 63 d4 c5 42 87 be cb 3f
       -0.3167206701729917 0.21675196419133433
000010 71 57 84 5f e7 57 c1 bf 2b ff 09 cb 41 85 b2 3f
       -0.13549511112131143 0.07234584052093555
000020 bf 03 b9 3d 24 a6 d4 3f 2f 3a 09 c6 8a aa ca bf
       0.322640476490104 -0.20832953138092722
000030 14 42 47 a0 0f 84 d4 3f e9 b8 70 0c f3 f3 be 3f
       0.320560366174534 0.12090987256735598
000040 55 56 71 7a 6e b0 d7 bf 2f c2 81 d2 a7 dd c3 3f
       -0.37014352757737373 0.1552018907418797

blocks1.SCINet_Tree.SCINet_Tree_even.SCINet_Tree_odd.workingblock.interact.level.phi.1.bias f8 [2]
000000 d3 b6 c8 41 5c 67 c3 3f e3 7c f8 7c 56 ff d5 bf
       0.15159180843459427 -0.3437095852295455

blocks1.SCINet_Tree.SCINet_Tree_even.SCINet_Tree_odd.workingblock.interact.level.phi.4.weight f8 [1, 2, 3]
000000 2a e8 8f 7c 84 fe da bf a6 16 29 09 ce 48 a3 3f
       -0.4217845169474709 0.037664831751084635
000010 d1 52 aa 82 8d 4c d6 bf 63 ec 90 69 4d 4b d2 3f
       -0.3484224105862213 0.28584609326543936
000020 c9 a4 e3 7d 33 c5 ac 3f 02 8a c7 a4 d0 5d a4 bf
       0.05619202529653362 -0.039778251757315544

blocks1.SCINet_Tree.SCINet_Tree_even.SCINet_Tree_odd.workingblock.interact.level.phi.4.bias f8 [1]
000000 a2 64 1e dd 9a 14 e4 bf
       -0.6275152510380801

blocks1.SCINet_Tree.SCINet_Tree_even.SCINet_Tree_odd.workingblock.interact.level.psi.1.weight f8 [2, 1, 5]
000000 ba 5d 67 40 33 d9 c2 bf ec 7d be ea a2 f3 6c 3f
       -0.14725342411723635 0.0035341436359457214
000010 a4 99 3c be 6d 39 9f 3f 63 fb f6 16 fc 22 d4 3f
       0.03049251054394521 0.31463529818204544
000020 93 92 a4 22 37 82 be bf ad d2 ba 01 81 07 d8 3f
       -0.1191744288995074 0.3754580037014346
000030 85 aa d8 52 ce b0 bb 3f 5c 26 41 55 ae 1d a5 3f
       0.10816659472099317 0.04124207297043078
000040 0d f4 01 0b 16 03 d2 3f 44 1a c9 08 96 7e d6 bf
       0.2814383609291447 -0.35147620065655283

blocks1.SCINet_Tree.SCINet_Tree_even.SCINet_Tree_odd.workingblock.interact.level.psi.1.bias f8 [2]
000000 6d 82 44 f0 49 78 d0 3f 43 36 45 a5 bd 41 d7 bf
       0.25734184707292834 -0.36338750018771665

blocks1.SCINet_Tree.SCINet_Tree_even.SCINet_Tree_odd.workingblock.interact.level.psi.4.weight f8 [1, 2, 3]
000000 2a 5d fd ea d1 7d da bf 4a 85 9f 78 24 e0 a8 3f
       -0.41392944286549727 0.048585071300986174
000010 af 56 45 2b 06 c6 bf bf 3b 10 35 81 5d 9b ca 3f
       -0.12411535793702443 0.20786637124013105
000020 63 b2 e0 83 d5 32 cd 3f 9d 88 fe c5 a2 f5 da bf
       0.2281138318952741 -0.42124242148759966

blocks1.SCINet_Tree.SCINet_Tree_even.SCINet_Tree_odd.workingblock.interact.level.psi.4.bias f8 [1]
000000 5f 0d e9 5a 36 b8 d0 bf
       -0.2612434280201423

blocks1.SCINet_Tree.SCINet_Tree_even.SCINet_Tree_odd.workingblock.interact.level.P.1.weight f8 [2, 1, 5]
000000 9d 31 57 27 56 75 d5 bf f3 cb 63 32 99 0e da 3f
       -0.33528665391784235 0.40714101715928946
000010 05 6f 53 b3 1a ff c9 bf 37 1b 94 49 5f cb d1 3f
       -0.2030976653685387 0.2780378550091202
000020 a1 b8 7b c6 0d 5b d3 3f 69 98 27 eb 5a 43 c1 bf
       0.3024324835122432 -0.1348680160728606
000030 23 f3 46 33 b6 fd d0 3f ba ba f5 bf 81 ef c0 3f
       0.2654853344682115 0.1323091685585121
000040 b0 1e 5f 61 56 39 cd 3f e4 5a 1c 01 2e a1 a4 3f
       0.22831229929419328 0.040292203555670786

blocks1.SCINet_Tree.SCINet_Tree_even.SCINet_Tree_odd.workingblock.interact.level.P.1.bias f8 [2]
000000 fa e2 f4 9f cb de c8 bf bf 86 49 b7 87 4d d6 bf
       -0.19429917631511967 -0.3484820642389472

blocks1.SCINet_Tree.SCINet_Tree_even.SCINet_Tree_odd.workingblock.interact.level.P.4.weight f8 [1, 2, 3]
000000 dd dc 5d 6a 02 8a b1 3f 54 e4 44 e8 5b f3 c2 bf
       0.06851210686533045 -0.14805172768845642
000010 c8 e1 a8 28 f7 f4 cb 3f 6a 26 28 b0 1d d9 a8 bf
       0.21841325269066503 -0.048531463387985266
000020 ba 9b 27 52 d3 45 d5 3f 17 d5 5b 76 75 bd c4 3f
       0.33238680861398573 0.16203182486757647

blocks1.SCINet_Tree.SCINet_Tree_even.SCINet_Tree_odd.workingblock.interact.level.P.4.bias f8 [1]
000000 40 1a 53 44 3e c2 c2 bf
       -0.14655283294833232

blocks1.SCINet_Tree.SCINet_Tree_even.SCINet_Tree_odd.workingblock.interact.level.U.1.weight f8 [2, 1, 5]
000000 1c 76 69 85 30 60 d7 bf cd 9d df 73 4d b4 bd bf
       -0.3652459433413655 -0.11603244856779966
000010 cb b6 1e df bb fb d9 bf 5a 82 e7 ea da 3e cf bf
       -0.40598961628971314 -0.24410568685472606
000020 1a 76 40 9e 8c 3e ca 3f b9 b2 46 2a 03 de d8 3f
       0.205033852836025 0.38855055931598376
000030 07 f4 6e f7 41 df c2 bf a4 1f a9 be 97 5b d6 bf
       -0.14743828374585652 -0.34934037799075157
000040 e0 74 ad b2 70 de c7 bf 4b c1 3e 53 ee 0c d8 bf
       -0.18647583698740444 -0.3757892430249014

blocks1.SCINet_Tree.SCINet_Tree_even.SCINet_Tree_odd.workingblock.interact.level.U.1.bias f8 [2]
000000 5b 04 2c f4 66 c5 cb bf 22 52 b1 83 86 1f d7 bf
       -0.21696173593957976 -0.3612991605816963

blocks1.SCINet_Tree.SCINet_Tree_even.SCINet_Tree_odd.workingblock.interact.level.U.4.weight f8 [1, 2, 3]
000000 bf f6 b3 83 8a 26 af 3f 60 80 f2 70 47 43 b5 bf
       0.060840920044922246 -0.08305784709455244
000010 14 49 50 5d a6 d2 de 3f 1c a8 00 2e 35 fb 9f 3f
       0.4816070472017071 0.031231718952916862
000020 33 9d c3 09 92 00 c8 3f 02 18 af f4 a8 52 df 3f
       0.1875174091030459 0.48942016501348473

blocks1.SCINet_Tree.SCINet_Tree_even.SCINet_Tree_odd.workingblock.interact.level.U.4.bias f8 [1]
000000 57 fa eb f2 9a 47 cb 3f
       0.21312271939673863

blocks1.SCINet_Tree.SCINet_Tree_even.SCINet_Tree_even.workingblock.interact.level.phi.1.weight f8 [2, 1, 5]
000000 18 ef e5 8e d6 1a ad bf 74 5a 8f 52 88 d9 a5 bf
       -0.056845383590341025 -0.042675266340371915
000010 97 34 80 a4 95 0a b8 bf 15 c8 74 8b 05 d4 b2 3f
       -0.09391150728352425 0.07354769377414556
000020 f1 6e 95 47 66 0a d7 3f 17 69 5f 98 e6 5a b5 3f
       0.36000973692510657 0.08341828556095653
000030 5d 28 d4 78 f9 a8 b8 bf 84 dc 58 87 44 b0 b2 3f
       -0.09632834625168259 0.07300213150380058
000040 15 91 4b 67 13 b6 d2 bf 0e 0c 76 59 a9 56 d9 3f
       -0.29236302459163827 0.3959143994945301

blocks1.SCINet_Tree.SCINet_Tree_even.SCINet_Tree_even.workingblock.interact.level.phi.1.bias f8 [2]
000000 f4 26 ef 4d fb 19 d6 bf 96 78 b5 82 3e e4 b2 3f
       -0.34533579455147323 0.0737952298272567

blocks1.SCINet_Tree.SCINet_Tree_even.SCINet_Tree_even.workingblock.interact.level.phi.4.weight f8 [1, 2, 3]
000000 b3 b6 92 61 8f 2c d6 bf d5 5d 15 39 a6 fa d5 bf
       -0.3464697316038425 -0.3434234197097486
000010 20 13 f3 ad c0 39 c3 3f 29 99 9e 1d cb 46 b9 bf
       0.15019997113827177 -0.09873647187359737
000020 58 35 d1 f2 14 22 c5 3f 9b 20 d3 84 13 26 b5 3f
       0.16510259491262036 0.08261224739828991

blocks1.SCINet_Tree.SCINet_Tree_even.SCINet_Tree_even.workingblock.interact.level.phi.4.bias f8 [1]
000000 4c 4d c5 09 bc ab d4 bf
       -0.32298184351130454

blocks1.SCINet_Tree.SCINet_Tree_even.SCINet_Tree_even.workingblock.interact.level.psi.1.weight f8 [2, 1, 5]
000000 44 4a bf bb 5d 0a ca bf e1 94 2e 42 a5 99 d5 bf
       -0.20344134967179361 -0.3375027796085544
000010 ca b9 44 99 35 a2 c8 bf a0 51 6f 81 e2 24 c7 bf
       -0.19245023711978454 -0.18081313438473234
000020 1c 5e fa 5d 47 13 c3 3f 31 a4 06 8c 0e 4d 98 bf
       0.14902584160584886 -0.02373144845629244
000030 a3 cb db 57 b2 c2 d4 3f b5 af 3f 1c 20 eb b5 bf
       0.3243833406442553 -0.08561897935550074
000040 87 79 72 33 9e 92 d1 3f 40 ab 5b 41 be 48 bc bf
       0.27457385086190594 -0.11048497291237158

blocks1.SCINet_Tree.SCINet_Tree_even.SCINet_Tree_even.workingblock.interact.level.psi.1.bias f8 [2]
000000 22 56 68 d2 28 d3 d4 bf 06 e4 fe cc 77 52 d6 3f
       -0.32538815066922855 0.34878344554050533

blocks1.SCINet_Tree.SCINet_Tree_even.SCINet_Tree_even.workingblock.interact.level.psi.4.weight f8 [1, 2, 3]
000000 9d 68 87 f5 69 7f c2 3f 3e 4a 0f 1e d1 42 b1 3f
       0.14451336373060011 0.06742579444770855
000010 0d 53 f5 11 e6 2a d2 3f f8 fb c9 56 07 61 a8 bf
       0.28386832956066216 -0.047615269989357445
000020 7a 68 d0 f0 1a d2 d5 bf 79 75 f7 b0 44 39 d7 bf
       -0.34094880597115884 -0.3628703811826522

blocks1.SCINet_Tree.SCINet_Tree_even.SCINet_Tree_even.workingblock.interact.level.psi.4.bias f8 [1]
000000 5c 31 93 98 6d e5 e0 bf
       -0.5280063610057755

blocks1.SCINet_Tree.SCINet_Tree_even.SCINet_Tree_even.workingblock.interact.level.P.1.weight f8 [2, 1, 5]
000000 9c 14 b3 77 6a 2b c9 bf c7 69 a1 e8 61 90 ab bf
       -0.19663744778350611 -0.05383592571952849
000010 99 24 fd 8b 11 04 c8 3f 3e 6f 02 36 35 60 cd 3f
       0.18762416205780566 0.2294985307424841
000020 63 9d 54 8c 23 b8 94 3f 74 2e 61 de 50 85 e0 3f
       0.02023368400582849 0.5162739127494675
000030 e3 5d 35 0c 23 c6 b5 3f 55 66 d7 7a b4 7d b4 3f
       0.08505457923944663 0.08004310607011551
000040 bc e9 d4 dd 63 6a dd 3f b4 e5 b7 54 84 2d ce 3f
       0.4596185365986931 0.23576406609190104

blocks1.SCINet_Tree.SCINet_Tree_even.SCINet_Tree_even.workingblock.interact.level.P.1.bias f8 [2]
000000 be b3 e2 f3 92 15 a0 3f a7 00 16 e5 60 f6 a4 bf
       0.031414596816240245 -0.04094221874675102

blocks1.SCINet_Tree.SCINet_Tree_even.SCINet_Tree_even.workingblock.interact.level.P.4.weight f8 [1, 2, 3]
000000 e6 fa 84 f6 df 7a bb bf dc 33 db 62 29 9c c7 bf
       -0.10734367149869292 -0.1844531758019049
000010 9a 0d 9a 8b 84 67 c3 bf 94 2f b2 90 bb e7 d1 3f
       -0.15159661118023565 0.2797688401267291
000020 e7 d9 ff c3 10 4b dc 3f 16 2a 7c a2 bc ab c8 3f
       0.44208163395469885 0.19274099286879282

blocks1.SCINet_Tree.SCINet_Tree_even.SCINet_Tree_even.workingblock.interact.level.P.4.bias f8 [1]
000000 53 6c cf f6 b3 a9 d3 bf
       -0.30723284819186353

blocks1.SCINet_Tree.SCINet_Tree_even.SCINet_Tree_even.workingblock.interact.level.U.1.weight f8 [2, 1, 5]
000000 1a bb 55 de b7 17 df 3f d8 3e 2e 5b c1 78 d5 3f
       0.4858226462592242 0.335495318454361
000010 62 24 d7 0e 05 78 9a 3f 2d 4e 4a 72 d3 d0 c5 bf
       0.025848464041505877 -0.17043536263064266
000020 27 79 f5 77 44 a9 c2 bf 08 ed 34 44 cf 92 d6 3f
       -0.14579063279502089 0.3527105489808524
000030 52 ea 68 b6 2c e9 a9 bf 31 a0 7f 88 d5 62 c0 3f
       -0.05060710646326484 0.12801617779700927
000040 f7 5c c3 fc a7 b6 bb 3f 24 d2 f4 e0 ad b4 d0 bf
       0.10825586243605644 -0.2610277840460944

blocks1.SCINet_Tree.SCINet_Tree_even.SCINet_Tree_even.workingblock.interact.level.U.1.bias f8 [2]
000000 78 24 2d 96 58 ae 86 bf 36 5b 45 d0 16 6a ab bf
       -0.011074726183908576 -0.05354377071733156

blocks1.SCINet_Tree.SCINet_Tree_even.SCINet_Tree_even.workingblock.interact.level.U.4.weight f8 [1, 2, 3]
000000 18 b4 35 07 b6 e5 bf bf db f0 fa 70 af e2 c2 bf
       -0.12459886241931917 -0.1475428868924443
000010 98 e0 56 cf 06 fa d3 bf 0e 59 1f 08 84 41 d6 bf
       -0.3121354126738054 -0.3477487639733149
000020 dc 0b 7e d9 df 28 9d 3f 41 02 8f 29 cf 1a b0 3f
       0.028476236009293263 0.06290907635321565

blocks1.SCINet_Tree.SCINet_Tree_even.SCINet_Tree_even.workingblock.interact.level.U.4.bias f8 [1]
000000 20 27 bc 79 1f e4 c8 3f
       0.19446175998773985

projection1.weight f8 [24, 48, 1]
000000 ae 3c ee 09 b8 8c 8d bf 9f b5 ea f5 72 32 ac 3f
       -0.014428556254442473 0.05507239581980205
000010 a6 6e ae e4 49 89 94 3f 05 6e e1 64 1b 2c b5 bf
       0.02005496462116576 -0.08270426953225048
000020 a4 be e6 f2 26 70 ab bf c8 6a 36 53 48 04 90 3f
       -0.05359002795318915 0.015641336516277332
000030 4b 76 0a 79 71 77 b5 3f 6a e7 95 e6 20 f5 9a 3f
       0.08385380940532021 0.026325716089082553
000040 e1 3d e9 09 09 a9 ba bf d5 ab eb 98 26 78 a7 3f
       -0.10414177410097337 0.04583855263430051
000050 0b 45 78 72 38 aa 55 3f cd f1 3b 99 4e 61 67 3f
       0.0013223220102001633 0.0028540167930925842
000060 73 f9 06 94 bb 7a 9d bf cc 60 3a 8a 17 9b a5 bf
       -0.028788500699869112 -0.04219888269762037
000070 71 72 5d 5c 6f 8a 95 bf 47 f7 59 2f 58 ea 93 3f
       -0.021035900127900967 0.019448640718557255
000080 f0 9f 41 b8 f9 d6 68 bf 92 77 18 0e 77 1a a0 3f
       -0.003032195791138996 0.03145191237511748
000090 7b 93 26 de ae b7 84 bf 6f 13 4d 9f 73 76 8e bf
       -0.010115972666264508 -0.01487436609171208
0000a0 5a 74 8d ba 6e 4a b3 bf a0 b6 0c 43 44 71 a7 3f
       -0.07535450033670213 0.04578603094556155
0000b0 ed 8d cb bb 5e 9d a6 bf 81 2d 15 a2 61 15 89 bf
       -0.0441693882219417 -0.01224781299483513
0000c0 32 61 65 3d 35 5d b4 bf dc 0f ff 87 ea 0d bd 3f
       -0.07954724072385913 0.11349359340880433
0000d0 c3 b7 8e fc ce be 90 3f 1f fe 09 09 67 05 a6 bf
       0.016352876820455508 -0.043009967664144215
0000e0 77 17 ae f0 c0 9d ba 3f 27 e5 23 56 22 20 ae 3f
       0.1039696300122993 0.05883891393200207
0000f0 d1 c7 87 43 ee 9f b4 bf 55 83 a0 7a 92 31 a1 bf
       -0.08056534908953884 -0.033581330746761985
000100 ac 9b 2a c4 dd 7a 92 bf b8 a5 99 22 e9 8f 87 bf
       -0.018046822641419588 -0.011504956596769186
000110 77 a4 03 98 a8 62 88 3f f2 cb 4d 32 37 5e 96 bf
       0.011906926287752235 -0.02184377903490637
000120 1e 81 75 b4 f8 51 a4 bf f5 82 8b 2f 7b 81 a8 3f
       -0.039687892941176126 0.04786286311514757
000130 3e 18 48 12 c9 ca 8d 3f 82 38 59 93 8b a7 4d bf
       0.014546938772593273 -0.00090498271192431
000140 a5 c1 b0 49 70 2b af 3f 86 4c c4 45 6f 59 96 bf
       0.06087828540364918 -0.021825541146494952
000150 1a ee 43 3a d6 50 86 3f 2f 19 08 c4 c3 78 ba 3f
       0.010896371510617665 0.10340522323540279
000160 6c 7c bc f3 92 b4 17 bf 1e f6 10 eb 63 69 cc 3f
       -9.04287998619733e-05 0.22196625688404564
000170 e1 c7 f3 16 f7 ad b0 3f 8c fd 0a 24 df 1b c7 3f
       0.0651544981990635 0.18053807506474262
000180 53 8a 2c 01 82 6e 94 3f 56 89 b9 0c 86 1c a9 bf
       0.01995280391850891 -0.04904574303943103
000190 48 31 40 24 ad bb 68 bf de 4a ca 86 14 0b b3 3f
       -0.003019178549953736 0.07438782015587317
0001a0 9b 63 01 0c d2 4f a7 bf 02 0e 5d 94 4e 9d 7a 3f
       -0.04553085705328571 0.006497675849292063
0001b0 36 3a 26 0a 75 02 a2 bf 5c c7 41 fd 7a 96 a1 bf
       -0.03517499684231888 -0.03435119954600793
0001c0 f3 6a 1b 43 35 63 a5 3f ca 12 7c c4 80 68 6f 3f
       0.04177252239397502 0.003834010600146297
0001d0 f3 2a d4 87 9c 14 a2 bf 2c 22 31 ff c6 1e a5 3f
       -0.03531350286546866 0.04125043740402065
0001e0 9d df b4 a0 f6 ac ac 3f e0 3f 56 f4 2c 34 62 bf
       0.056007105939385605 -0.002222144891398145
0001f0 fd 14 fa 56 60 e7 ab bf ce 45 09 94 08 66 a6 3f
       -0.054499636285109766 0.043747203894450956
000200 2a d9 7c 22 52 7b a2 3f 28 8b b9 95 95 78 8b bf
       0.036097113332674916 -0.013413590080011042
000210 7f a4 3e 74 2a 38 b8 bf fd 48 43 94 7b 86 a1 3f
       -0.09460702264790831 0.03422914681290654
000220 36 e5 ef 9c 71 12 c3 bf 43 17 77 4a 54 cb 8a 3f
       -0.14900036013549717 0.013083132288453597
000230 59 bc 6e 1a 97 32 a3 3f 29 c8 f5 63 34 6f 9c 3f
       0.03749534795439819 0.027767962075309214
000240 ce bc 65 40 a9 d6 a1 3f ce 4c 7e a3 2e 8d 47 bf
       0.034840859519016484 -0.0007187345245135647
000250 07 5b f2 66 3a 65 ac bf 97 55 47 b8 88 fc 82 3f
       -0.05545980936692812 0.00927073299764451
000260 79 8f 1b aa d3 5f 83 bf ed c9 24 42 18 82 c3 3f
       -0.009460118893407575 0.15240767697976257
000270 0e b3 a8 97 9f 43 b0 bf cd 9c 0a b1 44 1c 98 bf
       -0.06353185131656522 -0.023545335107567667
000280 15 86 ab 5a ff 74 7d bf c6 d6 98 01 35 93 9c 3f
       -0.0071916556141516 0.027905300352549366
000290 e8 d2 f2 ba 7f 45 82 3f 8b 7b cf 2b 3b e2 c1 bf
       0.008921621220318213 -0.13971652640517748
0002a0 02 aa d9 38 e4 3f a6 bf 0e 80 7c 7e 73 56 a1 3f
       -0.043456203403213337 0.03386269492170878
0002b0 6a 3b bc a4 05 8b a0 3f 01 3b a4 20 41 0f 81 bf
       0.03231065402916651 -0.008329876717224407
0002c0 30 3a c9 c6 c8 ed a0 3f 41 45 a9 72 ff 20 b8 3f
       0.03306415011012509 0.09425350713106175
0002d0 ec 52 46 fb 8a 9e 8a 3f 9d d1 48 e7 0a 8a bd 3f
       0.012997709077163098 0.11538761278717975
0002e0 64 50 be 6e 23 a0 95 3f d7 ba 5c a3 47 d1 bb 3f
       0.021118692049256885 0.10866210687957377
0002f0 74 c8 03 5e 1d bc 82 3f 1d ef 77 43 f6 55 cc 3f
       0.009147862845996203 0.22137335104331948
000300 89 6b 97 a2 b6 95 91 bf b1 50 0a 43 c7 5f 7a 3f
       -0.01717267386798541 0.006438997618392659
000310 5f f4 46 64 27 4a 99 3f f3 d3 eb 80 ae eb 9e bf
       0.024696937079842104 -0.030195929163671264
000320 62 64 fa f3 fd ba 8d bf bc 7c 47 cf 1b d2 a7 3f
       -0.014516815193291236 0.04652487664474722
000330 fe ba 57 36 e0 c1 b2 bf ed 8f 99 40 a6 0d 9a 3f
       -0.07327081038213731 0.025442693417417606
000340 f8 b2 9b c1 6f 44 8c bf f2 e7 2b 67 52 6a a4 3f
       -0.013802407356217725 0.03987367162149259
000350 07 d5 4a 05 36 51 87 bf 90 53 ac c4 b0 42 b8 3e
       -0.011385366474636628 1.446039066881433e-06
000360 87 76 5d 19 85 5c 82 bf 9c 93 f6 b4 10 f3 89 3f
       -0.008965530239659415 0.012670641443784984
000370 29 b7 b7 4a 62 c2 9d bf 54 eb cb ec 98 94 af 3f
       -0.029061828432467216 0.06168058291037562
000380 2d 2d 5e dd 4e 0f bc bf 64 66 4c b0 a6 d7 a0 3f
       -0.10960858253945523 0.03289528753357443
000390 d9 b8 e7 ef 78 c1 88 3f 20 bf a3 ce 34 d1 b4 bf
       0.012087769337963671 -0.08131723446763006
0003a0 96 e7 22 63 3f b0 91 bf b3 b2 9d 61 97 50 a6 bf
       -0.017273893762400037 -0.04358361307717953
0003b0 c9 72 8a 34 39 cd b2 3f 9d ad fe 5d 14 62 95 3f
       0.07344396145567623 0.020881956326474705
0003c0 32 b8 fe bc 72 e8 b0 3f a3 8f a0 46 ca 5b af bf
       0.06604687799583145 -0.06124717819355332
0003d0 fe f9 dc 90 4e 5a 9e bf 0d 99 7e 25 7e 00 ba bf
       -0.029641368476626788 -0.10157001891511559
0003e0 e0 ad 4b da 43 93 b9 3f f2 8d 06 c1 20 49 a5 bf
       0.0999033363292976 -0.0415735469462354
0003f0 d1 2b 68 0b 9f 91 9b bf 4a f7 9c 63 eb 44 a1 3f
       -0.026922688552115496 0.03372893897038283
000400 b9 91 df 7b 10 e0 a2 3f 2b f5 02 bd 0b c7 a3 3f
       0.0368657256329103 0.03862797434110584
000410 28 2c 15 ae ea c5 64 bf b8 57 0c 0a 2c e9 c0 bf
       -0.0025357802957493188 -0.13211584559092926
000420 a5 aa c4 02 eb 26 ba bf c6 6e c5 09 8b e3 b4 3f
       -0.10215634172042572 0.08159703243785107
000430 2d e5 03 72 7a 90 bc 3f 1d 8c 17 de 43 c2 82 bf
       0.11157956393789865 -0.009159593787393
000440 f5 9e 43 ed 11 cc 83 bf e3 8e 57 20 92 cf 91 3f
       -0.009666576436259325 0.017393382286072245
000450 a2 39 ad ca ec a8 7d bf 63 0e 65 20 89 10 90 3f
       -0.007241177528000272 0.015688078500956226
000460 9d 35 45 2f 43 68 c9 3f 0d 30 dd 96 55 c9 b4 3f
       0.19849433715937162 0.081197118122134
000470 04 11 b4 e4 e7 ae b6 3f 50 5a e4 00 db 02 d0 3f
       0.08860635121897437 0.25017428481206583
000480 a3 da 66 5b c1 49 8f 3f 16 e2 ba 1d 58 27 ac 3f
       0.015277395822392242 0.05498767245211782
000490 98 8e eb 02 ce f6 a4 bf f7 c4 2c 36 3b 28 b2 bf
       -0.040945470673048934 -0.07092638085011403
0004a0 57 16 09 76 fd 1c 82 3f a2 f1 5a ac 96 d0 9f 3f
       0.008844356693894868 0.031069139737824998
0004b0 fd 49 b0 1b 7c 7c 98 3f df de 0e 98 3e 2d 8d bf
       0.023912371816615863 -0.014246453299946392
0004c0 2e 59 8b 35 f2 c1 96 bf 26 90 e2 2c 18 0f 81 bf
       -0.022224220769964713 -0.008329571599752294
0004d0 b1 25 01 eb 62 7f 99 bf d2 90 2f e7 0f 2b aa 3f
       -0.024900003045592537 0.051109787913249285
0004e0 8e fc 47 5f 71 a2 b2 3f f8 38 11 1d 07 56 9f bf
       0.07279118133736714 -0.030601607464910224
0004f0 cc 86 47 48 1c 99 b5 bf 21 3c 5c 96 ab e7 5a 3f
       -0.08436753048547557 0.0016421485574402777
000500 57 a3 2b 81 fe 04 ab bf 3a 8a 30 e7 c4 7a ac 3f
       -0.052772477405432276 0.05562415430201324
000510 e9 88 f0 1c 70 55 55 3f 45 c6 13 a2 e4 6c a1 bf
       0.0013021082738836015 -0.03403391340715393
000520 8e e0 96 15 9d 2b 9f 3f 20 36 48 f7 81 66 6e bf
       0.030439810221395684 -0.0037109888455748724
000530 db 72 60 0e 7e 1d 8f 3f 46 86 0f 78 e3 8e 9f 3f
       0.015192971051925344 0.030818514063758927
000540 e4 8a 3e 03 6e a9 92 bf 32 42 d3 21 91 19 ad bf
       -0.01822444815446546 -0.056835685137802364
000550 18 ea a0 8c b1 fc 9e bf f6 bd 93 e3 14 47 b0 3f
       -0.030260824402129044 0.06358461910325972
000560 9e 93 74 d3 c6 de a4 bf 49 e0 e6 c4 41 f1 a7 3f
       -0.04076215106241608 0.04676251915537983
000570 50 f1 ad cf aa 71 80 3f 32 2e 95 c9 67 bf b0 bf
       0.008029303038477181 -0.06542061492398757
000580 ac c4 2d 5c eb 13 c2 3f 13 b1 9c 82 ae bb 76 3f
       0.14123289109150983 0.0055500809483357725
000590 31 e2 e0 ea 32 48 9c bf 08 0f 96 dd 85 35 c0 bf
       -0.027619166932909948 -0.12663338966023496
0005a0 6c e4 5b e6 7e ed b0 bf 03 7c 13 c8 6d a2 b4 3f
       -0.06612389682767777 0.08060346731825523
0005b0 c4 45 46 fc e8 82 5e bf 75 1a c5 fb 30 90 9a 3f
       -0.001862266087389806 0.025940671316926307
0005c0 ac 28 8d 60 55 76 62 bf 2d fa e4 5b 62 c8 8a 3f
       -0.002253691437009561 0.01307751505794127
0005d0 32 6a ea 62 ed 58 9d bf c5 b0 6b 62 78 dc b3 3f
       -0.028659543192228472 0.07758285906647007
0005e0 3c a3 02 96 ad 38 ac 3f 12 d8 98 9c 48 e6 9d 3f
       0.0551199193590208 0.029198774869847517
0005f0 2b 0d a6 d9 07 a6 9f 3f fb b2 20 c9 79 b9 d5 3f
       0.03090679422304025 0.3394455398691176
000600 ad 54 e4 c5 28 48 79 3f 0e 76 1b d8 3e d7 90 bf
       0.00617233206709959 -0.016446096363202094
000610 79 a4 cc ce e0 7e a7 3f c1 61 76 0b 8a e9 9e bf
       0.04588987850576926 -0.030187756490336563
000620 58 45 34 82 98 f7 ae bf bc 9f 5b 36 81 c1 ad 3f
       -0.06048275555998356 0.058116948972212396
000630 11 55 45 d4 d4 e7 a1 3f 3c 77 54 4a 8f 8c a9 3f
       0.034971857940641844 0.049900510619620836
000640 29 bf 93 0b c3 44 b7 bf 3a 6c f2 ed 09 0f 95 bf
       -0.09089297325749314 -0.02056518091977131
000650 c1 58 bc 75 a1 61 8a bf 59 1c 8c d0 e5 f3 b9 3f
       -0.01288152828741962 0.10137783376204491
000660 35 cd 5c 20 59 76 b4 bf bd 13 85 93 c8 a9 b8 3f
       -0.07993084945774316 0.09634069062765512
000670 d3 fb 28 bf 8e 91 a7 bf b0 2d 75 33 96 e6 a8 3f
       -0.046032391390773995 0.048634237081013665
000680 2f b6 1f cd 80 1b bf bf fc 9d 9d 97 45 e6 a5 3f
       -0.12151341445834228 0.04277245975282182
000690 4e bb ee 92 fc c0 c0 bf b8 1c 1c da cf 4e a5 bf
       -0.1308894841617651 -0.04161691224549585
0006a0 e3 64 60 bf d6 da ad 3f 72 0d b4 b4 6c 65 63 bf
       0.05831023298396489 -0.0023676989709444035
0006b0 51 f7 c6 51 d0 df b1 3f af 16 fd b6 8d e4 a6 bf
       0.06982137676729151 -0.04471247538326161
0006c0 f8 6f e2 7c 20 67 aa bf 00 1e fa 2b 14 60 64 3f
       -0.05156804584950686 0.00248722019006542
0006d0 81 3f 0f 6d 28 c8 8b 3f 8a bb 21 9c 48 7f a4 bf
       0.0135653646738374 -0.04003359704881067
0006e0 53 8b cf c1 41 cb a3 3f e2 00 c1 28 56 20 bd 3f
       0.038660101803336254 0.11377466673821204
0006f0 c8 f5 da a9 fa ce b5 bf 54 8d c4 c0 7f 80 72 bf
       -0.08518950125559066 -0.00451707747950832
000700 5b 03 c2 08 dd 39 b7 3f a6 2d ae e8 cb 64 72 bf
       0.0907266756421569 -0.004490658301516437
000710 ee 63 98 d5 2b dc 7b bf 95 a9 16 33 32 8f b9 bf
       -0.006801768520312541 -0.09984124896315046
000720 31 9c d5 69 d2 ad a2 bf 47 d3 50 ec ec 28 78 3f
       -0.036482406062355095 0.005898404580013067
000730 cf 74 61 ea 03 5f 9a 3f 89 6a 5e 44 3d bb ac 3f
       0.025753079586469604 0.05611602267818678
000740 03 5e a6 72 91 cf b4 bf 95 fe f7 c0 16 cf 8a 3f
       -0.08129223870343343 0.013090303195894474
000750 a8 cc 65 f0 71 cd 94 3f 3e cd 60 b1 a1 8c 81 3f
       0.02031496076365316 0.008569014764452928
000760 f2 cd 0e fe ca d2 c5 3f ba 83 18 26 56 e9 ca 3f
       0.17049538998763542 0.210245865441747
000770 6f 3d c6 cc 4e 19 96 bf 41 ad b8 1d 02 bf c5 3f
       -0.021580916641651123 0.16989160968055653
000780 80 41 43 ad 01 a9 7a 3f f3 1c 60 97 a6 ba 87 bf
       0.006508833456067342 -0.011586476797687406
000790 b1 bf 36 66 97 c0 8a 3f d5 22 63 03 49 b7 8c bf
       0.01306265144998506 -0.01402146379077022
0007a0 a4 ee ee db 0a e2 b4 3f 63 4e cc 05 5f 29 ae bf
       0.08157413358179127 -0.05890938707139239
0007b0 08 53 9d 4e 72 1f b7 bf b6 ce 42 41 37 eb a5 bf
       -0.09032358569431775 -0.04281017943995151
0007c0 5c 10 82 45 a2 29 ac 3f 99 45 51 87 58 89 a1 3f
       0.05500514124381148 0.03425099040817798
0007d0 c4 d3 6d 61 3e ae b2 3f 92 d0 19 f7 6f f6 b0 bf
       0.07297124746931077 -0.06626033575759241
0007e0 62 e9 44 c0 0d 9f 95 3f 42 62 48 fe 90 b4 74 bf
       0.021114554271869486 -0.005055014019057115
0007f0 5f c8 fc 56 45 2c a3 3f 7a fb 66 ac 19 7e a0 3f
       0.03744713484628969 0.03221206883926349
