exp/data_checkpoints/SCINet_data_ftS_sl720_ll48_pl48_lr0.0001_bs8_hid4_s1_l4_dp0.5_invFalse_itr0/checkpoint.pth (torch, 440895 bytes, 242 tensors)

inv_timescales f8 [1]
00000000: 0000 0000 0000 f03f
1.0

blocks1.SCINet_Tree.workingblock.interact.level.phi.1.weight f8 [4, 1, 5]
00000000: 36ae 4d48 6d25 d73f d9ae be2e 5168 a7bf
00000010: 5b9f 4b7e 1635 cebf f560 1dfb 3568 d2bf
00000020: abf2 6c7c 6436 cc3f e405 416f fffa cdbf
00000030: b3b8 7b6d d10b b3bf 6711 328c b0b4 b3bf
00000040: ec14 048a 85ad 913f c96d 3e52 afb0 d1bf
00000050: e1d6 d5e6 2af3 d0bf 5aae 9829 8f55 cabf
00000060: 8f4b a76b 9aa1 a0bf 52a2 7731 0120 df3f
00000070: 0f9c 64fd 1956 cabf 62ef 738e 5299 d13f
00000080: b8d5 13ec a268 85bf 7b34 5526 7fac d8bf
00000090: fd0a 0547 abfd c53f 070c 172e 0d89 9abf
0.3616593557441975 -0.045717751461180796 -0.2359951130558738 -0.28761052630353784 0.22040992808787982 -0.2342223447067645 -0.07439907954150975 -0.07697585509055714
0.01726349501497719 -0.2764089873469087 -0.2648417715312075 -0.20573606043886877 -0.03248293460969542 0.48632840948861145 -0.20575260994630226 0.2749830618993113
-0.01045348437262815 -0.3855283617347777 0.1718038651252626 -0.025913434923278824

blocks1.SCINet_Tree.workingblock.interact.level.phi.1.bias f8 [4]
00000000: c496 1caa a0b1 633f ee31 5615 fbfd ccbf
00000010: e21f 47fd 30ce c5bf e46a e6c9 5b84 debf
0.0024040353754511707 -0.22650087873297714 -0.17035496108132892 -0.4768285247497899

blocks1.SCINet_Tree.workingblock.interact.level.phi.4.weight f8 [1, 4, 3]
00000000: 5512 0bc4 aef6 ccbf 7ce3 c4b1 77c8 d2bf
00000010: da02 46be 6b0e d1bf 6a27 3b2f 2d2d 95bf
00000020: 0db1 0a4c cd99 c43f 6a1c 262d a0d9 c9bf
00000030: 964f a19a 56bb b03f 84ff 554a ddc9 87bf
00000040: 299c 3e06 ed76 c2bf 9bb8 4b0c 90f5 d5bf
00000050: 195e ca36 2574 bcbf ab32 2a1f ef7b c8bf
-0.2262781579248833 -0.2934855686212854 -0.2665051801814521 -0.020680147178416965 0.16094366276718866 -0.20195390896353455 0.0653585555567687 -0.01161549456696754
-0.1442543297282282 -0.34311295700798333 -0.11114723766001368 -0.19128216764183512

blocks1.SCINet_Tree.workingblock.interact.level.phi.4.bias f8 [1]
00000000: 7f1a c30d 4dc0 b3bf
-0.07715303026189167

blocks1.SCINet_Tree.workingblock.interact.level.psi.1.weight f8 [4, 1, 5]
00000000: 0f43 ceb9 d7ed c9bf 3ebf 1d21 244f d13f
00000010: 8d99 192d b370 e1bf 0b04 2c80 ae06 b1bf
00000020: 6b1e 64d1 ba79 d1bf 8bf1 e959 5ac9 dbbf
00000030: 3d01 d126 2589 9cbf d219 75fa 6265 d43f
00000040: 9faf 865e 57b1 b6bf cf48 e266 60d3 cc3f
00000050: 0ad2 94e7 a2b0 bb3f 963e ca70 3c26 bdbf
00000060: fd68 9008 6bef b9bf be17 f223 03c4 c13f
00000070: a29e 08a0 f462 9bbf 7c38 3aba c4a0 d43f
00000080: 1091 3579 0960 c93f 88f5 501e 79a0 d53f
00000090: 867c 2359 f28f d7bf 633c b9e4 69cd ddbf
-0.20257088253540487 0.2704553912544617 -0.5450073128566132 -0.06650820378492044 -0.27305479477261113 -0.4341646078171599 -0.02786691712776811 0.31868814905865606
-0.08864351327673468 0.22520070098523212 0.10816400674668372 -0.11386468652403389 -0.10130948027691385 0.13879431967887784 -0.02674467303054818 0.32231252847930825
0.1982433168260589 0.33791950188227604 -0.36816080765670056 -0.4656624539974869

blocks1.SCINet_Tree.workingblock.interact.level.psi.1.bias f8 [4]
00000000: 014a 7fd5 2d0d dcbf d1ad 2487 55b6 9e3f
00000010: 838f 2a04 9144 a43f 4329 b749 6ce2 d6bf
-0.43830438470209293 0.029992424367419283 0.03958562064988682 -0.3575697631719274

blocks1.SCINet_Tree.workingblock.interact.level.psi.4.weight f8 [1, 4, 3]
00000000: 995a e655 379b d03f 4685 c46e e343 d53f
00000010: e8be af75 a86d 54bf 5c91 5482 dd94 923f
00000020: a838 3940 2fdc 47bf db42 d490 6707 79bf
00000030: 410a a8d6 4900 9cbf a5e4 f9c4 5652 a1bf
00000040: bb58 8028 ed47 a2bf b93e 204d 0c75 c3bf
00000050: 7e10 046a 2341 b8bf 5e04 516c d36f abbf
0.259473642241042 0.33226857964662704 -0.0012468476404556231 0.018146000938160753 -0.000728152343478579 -0.006110577157657028 -0.02734485027941447 -0.033831321282329165
-0.035705004877102785 -0.15200952306667206 -0.09474393213537444 -0.053587538692689604

blocks1.SCINet_Tree.workingblock.interact.level.psi.4.bias f8 [1]
00000000: dea6 63c4 dc69 e2bf
-0.5754226527908164

blocks1.SCINet_Tree.workingblock.interact.level.P.1.weight f8 [4, 1, 5]
00000000: 7fc2 c1a2 abc5 d3bf 7760 5686 442d b33f
00000010: 17e0 ace8 74f4 c63f d9a2 b01a 56ff d6bf
00000020: 2d7f 1499 998a ad3f 3b79 01c5 0ba2 cb3f
00000030: 9581 916a cf4f b9bf 1468 0f52 1df2 dd3f
00000040: 0e41 1c80 5319 783f 813b 3cad 7cf6 c2bf
00000050: 26ad 8860 4c51 c0bf eb01 e12a 77b7 ddbf
00000060: f00a 939b 4fcf d53f ade0 da7c 7667 c9bf
00000070: f646 9ed8 22e8 dc3f 82d1 3086 85d2 af3f
00000080: 0b1d c69e 6431 dc3f 7626 f8c8 aa7b cabf
00000090: 8b00 b00e 4182 cebf 5c8f cfeb 2844 bcbf
-0.3089398469374273 0.07490947990152273 0.17933522568796498 -0.35933449369853815 0.057698059021502913 0.21588275069638904 -0.09887405730979133 0.4679024983757938
0.005883527921256139 -0.14814718683961917 -0.1274810286862273 -0.4643228453387837 0.3407782573014364 -0.19846993538317773 0.45166846422317464 0.06215302718229322
0.4405147123838595 -0.20689902127223875 -0.23835004059947482 -0.11041503674601699

blocks1.SCINet_Tree.workingblock.interact.level.P.1.bias f8 [4]
00000000: 3897 4633 792b b9bf dfb2 1ed2 9bce d2bf
00000010: e0fe 74a1 6d7f 503f c80e cd3b cd53 82bf
-0.09831960203027001 -0.2938603927566827 0.001006943761083727 -0.00894890154598417

blocks1.SCINet_Tree.workingblock.interact.level.P.4.weight f8 [1, 4, 3]
00000000: 17e2 f11e 882f c73f 27e3 89b8 2c9b c23f
00000010: 0a97 a347 fe65 cd3f 2763 8209 fb1c b53f
00000020: b1b1 c296 9507 c53f c93c 984f 478d 903f
00000030: 05ea 3131 e209 e0bf d580 9ea3 a246 f0bf
00000040: 0c37 15e0 3dff e0bf 9bba c58d 510a d6bf
00000050: ff33 f178 de47 d4bf ee31 c1e8 97bc a93f
0.18113805304507544 0.14536055575060766 0.22967508790969077 0.08247345907365099 0.16429395543435768 0.016163934929917887 -0.5012064896430394 -1.0172449485181023
-0.5311574341410235 -0.3443797955032239 -0.3168865376545113 0.05026697841876514

blocks1.SCINet_Tree.workingblock.interact.level.P.4.bias f8 [1]
00000000: 4123 6353 f794 bebf
-0.11946054254361817

blocks1.SCINet_Tree.workingblock.interact.level.U.1.weight f8 [4, 1, 5]
00000000: 6051 c2d4 513e e03f eb9a 73ee 3808 bd3f
00000010: ea85 14f9 1df7 c9bf 910a 86fd 4a37 c4bf
00000020: 75dd 7a07 f3bb d5bf bc1e 3a73 798d c8bf
00000030: 8927 1308 a556 e03f 70a8 3017 f9c7 d53f
00000040: ea82 b429 853f a0bf 901c c20d 05bc d5bf
00000050: 7bef b119 937b cbbf f84b b728 0bd0 c93f
00000060: bd78 a4f7 1e98 c53f 1fde 2c2b e229 d6bf
00000070: d945 3248 b8ea d7bf 9d51 1833 4157 e13f
00000080: b2ed fa20 d686 c73f d1f2 bb01 f8b1 a1bf
00000090: 03d4 2ca7 68cf dcbf 1f4f 0c01 7c45 d6bf
0.5076073794794347 0.11340671369144288 -0.20285391485326382 -0.1579374063404271 -0.3395965168997102 -0.19181745649642845 0.5105767400466316 0.34033038391738213
-0.03173462041946158 -0.33960081428126276 -0.21470869784013388 0.2016614865120514 0.16870486347119665 -0.34630636421522526 -0.3737011628191716 0.5419012067746284
0.18380238161431134 -0.0345609190098678 -0.45015922856993046 -0.3479909906611613

blocks1.SCINet_Tree.workingblock.interact.level.U.1.bias f8 [4]
00000000: b314 ec29 206a 9abf 8e1e 9616 6519 b63f
00000010: 949d c8bf 364f c5bf 1da7 df27 bb72 a0bf
-0.025795462187507123 0.08632499505449173 -0.16647991527973416 -0.03212532865275206

blocks1.SCINet_Tree.workingblock.interact.level.U.4.weight f8 [1, 4, 3]
00000000: 1236 6ade fe0e ed3f 966d b541 a0d3 e63f
00000010: 60c3 3bf4 9c5e e43f 07b0 edb7 cd3a 70bf
00000020: ad57 7955 dfc4 74bf e42f c26b 6e8d 353f
00000030: 5339 4578 dcfe c93f 7329 9b29 e17d d23f
00000040: 2078 8397 6f16 c33f 4b26 69ca c8c2 ec3f
00000050: 49d9 fe4d ec3e e43f 47e9 aa23 2488 dc3f
0.908080515293195 0.7133332522748101 0.6365494508919305 -0.00396232947137421 -0.005070564649562498 0.00032886453460245616 0.20309024689272323 0.28893307746024915
0.14912218950388567 0.8987773850760247 0.6326810382222813 0.44580939753690924

blocks1.SCINet_Tree.workingblock.interact.level.U.4.bias f8 [1]
00000000: 79ca 9559 e4ef b03f
0.06616046130310761

blocks1.SCINet_Tree.SCINet_Tree_odd.workingblock.interact.level.phi.1.weight f8 [4, 1, 5]
00000000: eecf 28a0 20f1 b3bf 8f79 1185 76a0 d2bf
00000010: ecdb 44a5 1d1f df3f e88b 3d40 b1a6 c73f
00000020: 5696 859e db7c b33f 9782 cf2e 6add d8bf
00000030: 5da0 bd84 48b5 c33f 3220 6c9c 5a34 bfbf
00000040: 1b00 bcb1 3aa1 cebf 6874 3768 a471 cdbf
00000050: bccd 2dfd 1a25 bbbf 00b1 9f53 bdec d03f
00000060: 5029 7fc6 bbcb bc3f 3c8e d7f8 0eb9 cebf
00000070: e9f9 e84c df6a bd3f 57fc c9c0 7336 d0bf
00000080: aa2b 6256 1410 b63f 3303 70cc 61f8 bcbf
00000090: e239 c6b2 4cf6 bebf 9055 8ece 023d cb3f
-0.0778980628027168 -0.2910438823218095 0.4862741579012766 0.18477454792727532 0.0761239301696944 -0.3885140854963906 0.15396982652169103 -0.1218926078692
-0.23929532698093756 -0.23003058518125674 -0.10603493386388768 0.26444943586717784 0.11248372646438054 -0.24002253675927132 0.11491199138342946 -0.2533234961228507
0.08618285283061647 -0.11316500893736929 -0.12094573368651809 0.21279940686933374

blocks1.SCINet_Tree.SCINet_Tree_odd.workingblock.interact.level.phi.1.bias f8 [4]
00000000: 45f3 7f76 6655 debf b9d4 5908 8537 babf
00000010: aa58 6476 e839 c5bf 7990 862e be83 a4bf
-0.47396241733786254 -0.10240966276053855 -0.16582971363886162 -0.040067618541144996

blocks1.SCINet_Tree.SCINet_Tree_odd.workingblock.interact.level.phi.4.weight f8 [1, 4, 3]
00000000: a5f0 c6f4 583d d6bf 439d e60e 5040 c8bf
00000010: 317e 7cf1 bcad c6bf 0de4 3ab4 1e76 ba3f
00000020: 36d4 e21c 0260 a13f fbd4 3016 c794 ae3f
00000030: 0879 b1e5 410d d2bf 3091 1cbf 4927 d2bf
00000040: 1d4c 6369 d653 d0bf 2d7b 8a0b 443c a7bf
00000050: 5294 cf6c 2592 a3bf 9e19 0b45 10a1 a93f
-0.3474943533326587 -0.18946266868190706 -0.17717706481288212 0.10336486721179501 0.03393560984242365 0.059728833636123434 -0.2820591681574034 -0.2836479536365628
-0.2551170376947896 -0.04538166657333984 -0.038224381954741773 0.050056942394394385

blocks1.SCINet_Tree.SCINet_Tree_odd.workingblock.interact.level.phi.4.bias f8 [1]
00000000: f00b 16c3 d59a ba3f
0.10392509472698896

blocks1.SCINet_Tree.SCINet_Tree_odd.workingblock.interact.level.psi.1.weight f8 [4, 1, 5]
00000000: b7e1 d915 2cd3 d33f 936f 241e 7360 d2bf
00000010: fb65 bf44 c6a0 d03f 6aed 36e2 7f5f dd3f
00000020: be83 d0e4 950a dd3f 3299 d5cb c949 d4bf
00000030: c415 82ff 6dd4 d3bf 6e6c 8a15 3857 e7bf
00000040: 4cc7 0036 5118 d8bf 12ca ec41 862e bbbf
00000050: 5521 12ec 2295 ca3f a91f 3ad7 f399 c0bf
00000060: eb13 40f5 f0ba c73f 4a7e 77ea 012a c0bf
00000070: 37de f94d 6a70 59bf 2166 0e89 7cb6 c1bf
00000080: 69e0 4c23 3ff0 c4bf 3dd3 9c2c 5298 e33f
00000090: ea99 fd15 4f4b b33f 52c8 9c1e c1d8 ea3f
0.30976392873665354 -0.2871368212088267 0.25981289590490037 0.4589538296820225 0.4537710890309049 -0.3170036783761986 -0.30984067871062515 -0.7293968601910714
-0.37648420594915843 -0.10617865666862539 0.20767628218551218 -0.12969825753338896 0.18539249396431443 -0.12628196667263786 -0.0015526807909774906 -0.13838154499244218
-0.16358174537322448 0.6123438712444124 0.07536787306671724 0.8389592740916305

blocks1.SCINet_Tree.SCINet_Tree_odd.workingblock.interact.level.psi.1.bias f8 [4]
00000000: 4028 f55f 3a8e c0bf a96e cf93 4e1e e9bf
00000010: 6941 9060 bd23 d7bf e91a 9bde 3317 c63f
-0.12934045491630464 -0.7849495779914452 -0.36155638151196584 0.17258308762958244

blocks1.SCINet_Tree.SCINet_Tree_odd.workingblock.interact.level.psi.4.weight f8 [1, 4, 3]
00000000: 19ce fce5 9028 d6bf c445 a970 7989 cbbf
00000010: e271 8a92 ada2 d3bf 7f7b 2d28 a945 cc3f
00000020: 0293 de9b 8aaf dd3f 30e2 cd62 4f8e dd3f
00000030: 8fed 913f 4958 903f 5a80 943d e9de b8bf
00000040: 0ec8 64e6 679b d4bf 8d44 62e0 577e c8bf
00000050: 8497 de95 fcfe c1bf 2f10 2cb9 17f1 c7bf
-0.3462259527179597 -0.21513288498912975 -0.3068040782034399 0.2208758779697426 0.4638391992723855 0.4618109192738613 0.015961784844404966 -0.09715135339183814
-0.32198522090323045 -0.19135569053881732 -0.14059407537314084 -0.18704506436927335

blocks1.SCINet_Tree.SCINet_Tree_odd.workingblock.interact.level.psi.4.bias f8 [1]
00000000: 55f7 0a58 abb5 e5bf
-0.678426429709115

blocks1.SCINet_Tree.SCINet_Tree_odd.workingblock.interact.level.P.1.weight f8 [4, 1, 5]
00000000: 2e0f 1f70 83df a6bf e540 669a b185 d03f
00000010: 3145 6248 3467 df3f 13e4 5d3d 93f4 b73f
00000020: e1a2 a955 5a66 c3bf 5e39 b0d4 0982 cb3f
00000030: ad0f 8c25 2cc5 8ebf ecee 2bac fb84 d23f
00000040: d454 4e3a 9ea6 d4bf 4390 4350 720f d4bf
00000050: 911e c05e c25c d13f cb61 5e20 545a dd3f
00000060: 3b88 9115 897c c2bf deab 297b 0747 d6bf
00000070: 1261 1632 50c0 d9bf 0fc7 f506 fd4d d43f
00000080: f9ee ecda f8df 9ebf 2b91 fc5d e2b6 d5bf
00000090: e61d 8c98 6d86 b23f fd14 0653 f361 b2bf
-0.044674022137341715 0.2581600196654235 0.49067408627259385 0.09357567070209453 -0.15156106169458552 0.21490595708059862 -0.015024514098975173 0.2893666440356657
-0.3226695603746752 -0.3134427818133682 0.271286575822594 0.45863822136882665 -0.14442552140377693 -0.3480852797280799 -0.40236287013387184 0.31726003341383174
-0.030151260721352966 -0.33928736856821 0.07236371015834883 -0.07180710579821788

blocks1.SCINet_Tree.SCINet_Tree_odd.workingblock.interact.level.P.1.bias f8 [4]
00000000: 266b 9dcb 8224 d2bf 4f29 c0d2 7f04 8cbf
00000010: f1dd d24b 7f72 95bf 7a29 5fec 9c9a d1bf
-0.2834784496714512 -0.013680456751917673 -0.020944584849273033 -0.27506182749916486

blocks1.SCINet_Tree.SCINet_Tree_odd.workingblock.interact.level.P.4.weight f8 [1, 4, 3]
00000000: 7232 6681 afe6 d53f f4a3 53c2 5136 c83f
00000010: 8f1f 8802 68fd c03f 4a7b 6197 fa1e c5bf
00000020: 70fc 79a7 2983 c7bf 8dc6 8cc8 d381 c63f
00000030: 9087 1ccf 53c3 e6bf b256 7fa9 e4b1 e7bf
00000040: 1130 1c71 b05a c2bf 720a 9f95 d825 b5bf
00000050: 5868 7fb2 0035 94bf 3bc6 6cda 1eb8 b3bf
0.3422049297012456 0.18915769566163443 0.13273334621066765 -0.16500790015831007 -0.18369026830257296 0.17583701412654698 -0.7113436741967565 -0.7404654798981112
-0.14339261553720964 -0.08260873463499666 -0.0197334393450109 -0.07702820618285326

blocks1.SCINet_Tree.SCINet_Tree_odd.workingblock.interact.level.P.4.bias f8 [1]
00000000: 1838 ef4a 24eb bcbf
-0.11296297864393556

blocks1.SCINet_Tree.SCINet_Tree_odd.workingblock.interact.level.U.1.weight f8 [4, 1, 5]
00000000: ff7a 3370 c295 cc3f 150a 10bb 61ad a1bf
00000010: facf d109 2bbf ba3f 970a 4208 e611 d5bf
00000020: 5ee6 49ae 2685 d73f e84b 78c1 d64e d33f
00000030: 9b29 c97d 5b8b d23f 3a4d ddc2 e600 db3f
00000040: 073a c347 332b d6bf 0dbe eb32 163e c63f
00000050: 4499 6980 3981 d2bf f66e 3113 3909 d73f
00000060: b747 3117 c18c cabf 3ddd 63b7 850d abbf
00000070: 3405 aaa8 a9a8 bc3f 3d60 caba 2d22 df3f
00000080: 9477 0fb3 a37e b2bf 2fd3 dbbb 6052 c43f
00000090: 70bc 7ad9 621f d23f eb3b 8763 e374 d0bf
0.22332029799050443 -0.034525922856136905 0.10447949399696191 -0.32921744162028105 0.36750189800623 0.3016869439463208 0.28975569995659506 0.4219300177548636
-0.34638673790041746 0.17376973615999738 -0.28913724460871415 0.3599379241402255 -0.20742047913023295 -0.052837542187200694 0.11194858901764776 0.4864610981107978
-0.07224486466972585 0.15876397297656683 0.2831656574080119 -0.25713429183536957

blocks1.SCINet_Tree.SCINet_Tree_odd.workingblock.interact.level.U.1.bias f8 [4]
00000000: 7160 1e83 dd18 b2bf 0cf0 92e8 faf0 b33f
00000010: 782f fdf4 46ca d4bf c08d 5b50 55bb cfbf
-0.07069191409243715 0.07789581468654222 -0.3248460190268285 -0.24790445731842503

blocks1.SCINet_Tree.SCINet_Tree_odd.workingblock.interact.level.U.4.weight f8 [1, 4, 3]
00000000: 4d38 5ddc 54ef c2bf f247 79e9 3512 c6bf
00000010: 7b9f f455 bc02 d0bf 4cf3 8940 064c 95bf
00000020: a72b c004 ed39 99bf 4bb1 c84c eae6 99bf
00000030: 5a5e 85fe 0b46 af3f 08e5 2353 8cc1 c6bf
00000040: 6ea5 18e9 7f2e bf3f 08ca c771 6215 d2bf
00000050: 51fb adb6 6681 debf 7410 0c33 5e0e e0bf
-0.14792881736724653 -0.17243074321828505 -0.2501669730577231 -0.020797822655811246 -0.024635032095868727 -0.025294934212227543 0.06108129007287451 -0.17778162059384095
0.12180327835871704 -0.2825552092682817 -0.4766480239849687 -0.5017539021505528

blocks1.SCINet_Tree.SCINet_Tree_odd.workingblock.interact.level.U.4.bias f8 [1]
00000000: 01bc 7346 f3e8 ae3f
0.060371019697292645

blocks1.SCINet_Tree.SCINet_Tree_odd.SCINet_Tree_odd.workingblock.interact.level.phi.1.weight f8 [4, 1, 5]
00000000: 6e83 073c 8a92 acbf df88 a3b9 6882 c7bf
00000010: 52fe ae49 6d85 d0bf 5d18 ccbb 64f6 7c3f
00000020: fb67 f5d4 ee3c d43f b0c6 ce8c 34d9 d0bf
00000030: df4c 05ca 9430 d23f 3d97 ed6d cedb cabf
00000040: 4676 847c 4ff3 82bf 261d a673 3412 ce3f
00000050: 72ba 228b 6577 d7bf 79be 6df4 92fb d53f
00000060: 6309 1c12 ce0f ccbf a92f 7700 1043 ca3f
00000070: f13f 13bb 6758 ca3f ccbe 6520 4e8d c9bf
00000080: f367 89c2 1f2b c53f 1537 b5d4 50e8 b33f
00000090: ffea cafd e976 bb3f 438c 440e 96d5 853f
-0.05580551131038801 -0.18366726936716923 -0.25814373202954244 0.007070916643675399 0.31621905132999445 -0.2632571578097709 0.2842151615961494 -0.20983295791227788
-0.009253140437574758 0.23493056914251403 -0.36666239345041796 0.3434798609732535 -0.21923232921842403 0.2051715852998062 0.2058229125454996 -0.19962479192644478
0.16537854193558096 0.07776360695899272 0.10728323408231331 0.010661289511125221

blocks1.SCINet_Tree.SCINet_Tree_odd.SCINet_Tree_odd.workingblock.interact.level.phi.1.bias f8 [4]
00000000: e441 ef38 f734 d4bf a590 54ab 19f8 d6bf
00000010: 04f0 7570 1cce d2bf ad5b 8651 2430 d1bf
-0.31573277053851556 -0.35889283877828354 -0.29383002264489755 -0.26856334649476815

blocks1.SCINet_Tree.SCINet_Tree_odd.SCINet_Tree_odd.workingblock.interact.level.phi.4.weight f8 [1, 4, 3]
00000000: a1d9 db5b eef9 703f 00a4 66b9 57f2 cdbf
00000010: 62eb 4b09 4ad5 a13f bff5 6be2 f7d8 9dbf
00000020: 27cb d699 1846 d5bf aff7 d29b 494e d4bf
00000030: 9d54 1886 93ff c3bf 8441 a9d2 2437 ccbf
00000040: 1c24 b126 ce28 cabf 7f2d 14ad 7a7a acbf
00000050: 3dbf cc85 23b4 7bbf 2f80 9510 3b12 cfbf
0.004144602860597508 -0.23395821144848128 0.03483039248927501 -0.029147980875668496 -0.3324033262571668 -0.3172782918662688 -0.15623706863030842 -0.2204328564280439
-0.20437027825599408 -0.05562194216517024 -0.006763590584156817 -0.2427438574768543

blocks1.SCINet_Tree.SCINet_Tree_odd.SCINet_Tree_odd.workingblock.interact.level.phi.4.bias f8 [1]
00000000: 290f ed4e 02a4 b2bf
-0.07281507899193386

blocks1.SCINet_Tree.SCINet_Tree_odd.SCINet_Tree_odd.workingblock.interact.level.psi.1.weight f8 [4, 1, 5]
00000000: 8078 252b c70f a83f 1e24 5bad cd7b e4bf
00000010: 1b6a 15f3 3ee4 e2bf d63e c75b 0ec4 e5bf
00000020: 5e9a 403c ae96 c8bf 45d0 571e 32fc d2bf
00000030: 0fc9 ee76 33b9 d93f 596b 55fa d947 bcbf
00000040: 0934 74a6 62e2 8cbf 8ae9 3272 8684 c33f
00000050: eb27 93a2 6e5b e03f b042 d086 3ff6 d3bf
00000060: c90d 4413 2ff2 c93f fe7a c1dc 6360 c8bf
00000070: 9cae f038 9332 92bf a513 ef86 dfbb b63f
00000080: bea5 e60c 0808 d5bf aa49 4860 b866 c43f
00000090: 1abf ae1d c886 4abf d646 a6ba 99c3 ddbf
0.04699537660302244 -0.6401127229556811 -0.5903620479323907 -0.6801826279206249 -0.19209840719232124 -0.29664280856309616 0.40192877401854415 -0.1104713665167031
-0.01410367079236076 0.15248184753529542 0.5111611533441168 -0.3119047943628557 0.20270336571421257 -0.1904415920170876 -0.017771053648330523 0.08880421680721769
-0.32861520061359417 0.15938477231300158 -0.0008095242622996074 -0.46506350734226254

blocks1.SCINet_Tree.SCINet_Tree_odd.SCINet_Tree_odd.workingblock.interact.level.psi.1.bias f8 [4]
00000000: 4287 cb97 ccae c53f 4cbf 78e4 fb23 c8bf
00000010: 0589 490d f8c0 bfbf 4546 7da0 ef67 e3bf
0.16939694797388866 -0.18859814315646373 -0.12403822254558257 -0.6064375052030263

blocks1.SCINet_Tree.SCINet_Tree_odd.SCINet_Tree_odd.workingblock.interact.level.psi.4.weight f8 [1, 4, 3]
00000000: bd8c 9c9a 4e5c bd3f 46e2 931b e0f1 9f3f
00000010: 5b0d 09bd ac3b de3f 2f8d 33c0 24c2 aabf
00000020: 9988 290c 5e34 c0bf 6e4b 10cc 0d41 b0bf
00000030: 2137 2ee7 c49e c4bf bf49 5368 e6c7 bebf
00000040: ebf0 730a d0de bfbf 8da9 5a32 7b48 ba3f
00000050: 5d12 5463 056e a5bf c1df 0513 9114 b43f
0.11468974375434278 0.031196119006354793 0.4723922582672537 -0.052262447797853155 -0.12659812539920237 -0.06349264366171578 -0.16109525001632455 -0.12023773238187284
-0.12449360137174252 0.10266847590779644 -0.0418550189733977 0.07843882288386707

blocks1.SCINet_Tree.SCINet_Tree_odd.SCINet_Tree_odd.workingblock.interact.level.psi.4.bias f8 [1]
00000000: 2d21 51a2 7fa3 c5bf
-0.16905208039885036

blocks1.SCINet_Tree.SCINet_Tree_odd.SCINet_Tree_odd.workingblock.interact.level.P.1.weight f8 [4, 1, 5]
00000000: 67be 09aa c056 e0bf 9ba8 fcfe b341 c53f
00000010: 8955 87c5 2318 af3f 874c 180a 91cf d53f
00000020: 8e71 9856 df0d d73f 477a 4255 a144 923f
00000030: 445f 75b5 2691 d5bf e2a8 6d2d 7ba9 d23f
00000040: 06dc 6906 10b3 c53f 23eb 5b64 79c8 b6bf
00000050: 1477 cf3d 5751 bbbf e1ad 6b0e 95bb c3bf
00000060: f104 9b9d 0fc4 d13f 585e dfd1 bdeb c9bf
00000070: 77a4 ad2c 3831 cabf 6817 1e05 f5db c6bf
00000080: 9aad 5737 ad9f c23f ddd1 45c2 b4fc 7c3f
00000090: fd1f eec7 0e4e a1bf e819 32f7 9875 bf3f
-0.5105899163299455 0.1660675997785049 0.0607310465453948 0.3407938574393445 0.36022170502271755 0.017839928463781154 -0.3369843265586392 0.291594309199935
0.16952705681953278 -0.08899649334118158 -0.10670991190951568 -0.15416205600864344 0.2775916136852877 -0.20250675914461413 -0.20462705785329025 -0.17858755826835737
0.14549794389982368 0.007076936807028447 -0.03379865828088666 0.12288814578105411

blocks1.SCINet_Tree.SCINet_Tree_odd.SCINet_Tree_odd.workingblock.interact.level.P.1.bias f8 [4]
00000000: 3353 cea8 8f05 cbbf 6bf2 f4fa 5cb4 d1bf
00000010: 7faf 96a0 9681 be3f 5b70 ab7e db4a cebf
-0.21110721342543 -0.2766334963560328 0.11916486187572949 -0.23665946660082934

blocks1.SCINet_Tree.SCINet_Tree_odd.SCINet_Tree_odd.workingblock.interact.level.P.4.weight f8 [1, 4, 3]
00000000: f9c1 832f 3e8d bfbf 704b 9feb 96f8 c6bf
00000010: 985d 209b 6a43 cbbf 93e4 263e d9be 833f
00000020: 54c5 9b68 f04f 96bf 1c14 5557 1079 b2bf
00000030: 45bd 7063 7f69 2c3f 79ba be24 de0c 603f
00000040: bcfd e03a 949c 5a3f 6824 a023 d02b b93f
00000050: 7190 50e1 18a9 9cbf d4b3 abaa 252f 9cbf
-0.12324894580866176 -0.17946135048859047 -0.2129948861554396 0.009641358575083003 -0.021789318451685816 -0.0721597874845234 0.00021676712069183305 0.0019592608204768683
0.0016242454107809742 0.0983247839905218 -0.027988804580801167 -0.02752360204879152

blocks1.SCINet_Tree.SCINet_Tree_odd.SCINet_Tree_odd.workingblock.interact.level.P.4.bias f8 [1]
00000000: 8142 bafc ad18 b6bf
-0.08631408138377063

blocks1.SCINet_Tree.SCINet_Tree_odd.SCINet_Tree_odd.workingblock.interact.level.U.1.weight f8 [4, 1, 5]
00000000: e986 15f9 9174 d03f 215f b16a b9ba d13f
00000010: 2824 a449 e204 d6bf d01c 2db7 9402 c03f
00000020: cdee a7d8 b985 dcbf 6363 0a75 413b cabf
00000030: 522b 8e6e 44dd aebf 7cb7 469e 0935 b8bf
00000040: 2b51 8757 3904 c1bf 0d5e 298a d25b 8d3f
00000050: 60ba d675 a4bd c8bf 72f7 ef18 adf8 d83f
00000060: 42b6 5841 c3ec ce3f d320 5cd9 cdfe b73f
00000070: 3ab5 494d 6285 e1bf 5486 7970 2ce1 9cbf
00000080: 20da 4010 0846 d0bf 16f4 2367 c83a d4bf
00000090: 739c 34c5 9ddc c3bf b48b 3ad0 a445 dfbf
0.25711488079660555 0.2770217458651008 -0.34404809180756724 0.12507876342917834 -0.44566198499499593 -0.2049333402144625 -0.06028188561966509 -0.09455928911367367
-0.1329414060006767 0.014335293618542822 -0.19328742746206995 0.3901779883889197 0.24160042467831216 0.09373175198209376 -0.5475322255639761 -0.0282027190827477
-0.2542743834232244 -0.3160878188353434 -0.15517017487693216 -0.48862572035630625

blocks1.SCINet_Tree.SCINet_Tree_odd.SCINet_Tree_odd.workingblock.interact.level.U.1.bias f8 [4]
00000000: 9fd7 183e 0b77 c13f bf01 abf4 85e5 96bf
00000010: 6b61 1863 4505 a03f f87d 9f97 546e d5bf
0.1364454320152477 -0.02235993676981862 0.03129021486910485 -0.33485903555808205

blocks1.SCINet_Tree.SCINet_Tree_odd.SCINet_Tree_odd.workingblock.interact.level.U.4.weight f8 [1, 4, 3]
00000000: feff 0ab2 2634 80bf dcde 9101 4b23 76bf
00000010: 4cab 9d43 566a 87bf 9ea0 baba 178b cebf
00000020: 45d9 4c5a f7b0 cabf 73e1 e87e e820 c5bf
00000030: aee6 9dac 809e a6bf 2546 4739 0058 b1bf
00000040: 0a47 c18b aa0b 59bf ec8a 898d 206e c4bf
00000050: 23aa 8de3 eac8 c1bf 1b30 3b6d d1f3 cabf
-0.007911970432701306 -0.005404751770690299 -0.011433290422891006 -0.2386197721255074 -0.2085255804938219 -0.16506677815210544 -0.04417802912844358 -0.06774903677367002
-0.0015286603438834944 -0.15961081419944578 -0.1389440165615535 -0.21056573709063361

blocks1.SCINet_Tree.SCINet_Tree_odd.SCINet_Tree_odd.workingblock.interact.level.U.4.bias f8 [1]
00000000: caec c40b e7f2 cdbf
-0.2339752967326148

blocks1.SCINet_Tree.SCINet_Tree_odd.SCINet_Tree_odd.SCINet_Tree_odd.workingblock.interact.level.phi.1.weight f8 [4, 1, 5]
00000000: cfcb c3a9 28dc d3bf acc1 097f 692c cc3f
00000010: 0af3 d35c 5f46 cbbf d497 8539 f49a b83f
00000020: ada9 32a9 3dad d2bf 8c31 6c60 e70e ddbf
00000030: 092d 9f82 c0c4 c43f 6478 890d e45f b23f
00000040: 17ec 872d 73c3 643f b4dd 5642 05ac cb3f
00000050: 601f 14a2 52ee af3f a333 c927 9257 cebf
00000060: 5f62 f972 6b3c d4bf a83c 5758 6f5b cebf
00000070: 2e6c cd1a bca8 b4bf fcc3 483c 3a53 c43f
00000080: 253d 1495 2047 a73f 335f b392 b1e3 cebf
00000090: bb59 208d f8d2 d0bf 6da6 6a86 d133 8d3f
-0.31031242922398133 0.22010534956963335 -0.21308509857762942 0.09611441044179908 -0.2918237831424005 -0.45403465667984544 0.1622543943216004 0.07177567797177314
0.0025346040313230056 0.2161871503756011 0.06236513355730611 -0.2370474523799234 -0.31618772724099203 -0.2371653729773915 -0.08069968847614525 0.15878990119520597
0.04546453304112167 -0.24132365859144897 -0.2628766420542907 0.014258992113656188

blocks1.SCINet_Tree.SCINet_Tree_odd.SCINet_Tree_odd.SCINet_Tree_odd.workingblock.interact.level.phi.1.bias f8 [4]
00000000: 62a4 acb2 107c c03f cf67 f94d 19cc d4bf
00000010: 5e7f 72fa 4603 c1bf 41c9 d28c a075 bf3f
0.12878617023787614 -0.3249572049586477 -0.13291251400823517 0.12288859785147556

blocks1.SCINet_Tree.SCINet_Tree_odd.SCINet_Tree_odd.SCINet_Tree_odd.workingblock.interact.level.phi.4.weight f8 [1, 4, 3]
00000000: 9b19 2ae3 0e03 a73f 83b2 d66f ce27 ad3f
00000010: 5368 06d7 672a 743f 2bcb 4719 5877 d4bf
00000020: 0382 6811 97a1 c5bf 451a 7fc4 6f7a 95bf
00000030: c975 1de0 56a5 983f 3357 05c4 7e66 bd3f
00000040: d3f4 c85e 4483 b13f b187 f6b5 3f27 703f
00000050: a74b a459 4173 afbf 416b cdb5 e231 adbf
0.044945206861530106 0.05694432368486437 0.004923253655215803 -0.319784187972959 -0.16899383878718774 -0.020974871032900095 0.02406821959390529 0.11484520230928012
0.06840922655188146 0.003943680639538914 -0.061426202957725544 -0.05702122182147785

blocks1.SCINet_Tree.SCINet_Tree_odd.SCINet_Tree_odd.SCINet_Tree_odd.workingblock.interact.level.phi.4.bias f8 [1]
00000000: a88f 2457 40df c73f
0.1865005898954426

blocks1.SCINet_Tree.SCINet_Tree_odd.SCINet_Tree_odd.SCINet_Tree_odd.workingblock.interact.level.psi.1.weight f8 [4, 1, 5]
00000000: cfe7 c703 92e5 d4bf d404 db8e bf71 d7bf
00000010: 0f37 75a9 5dc8 d43f 9b8e 588e fa2c ca3f
00000020: d3ba 563e cccb d3bf 10b9 64cf c2dc d93f
00000030: f2a1 1a07 b407 cb3f e1d7 a0fb 78fb c3bf
00000040: 8126 aa55 b437 bfbf f163 bea3 ed3b c0bf
00000050: a4ab 3f2b c84d cfbf e2fb b4bb 8cad 943f
00000060: cdcb b0a3 c519 c7bf 4201 3404 194e d3bf
00000070: 7dce 707a 5663 9bbf 6a4e d201 fbfd d73f
00000080: 4194 c3c7 066f c53f d300 730c 7930 cd3f
00000090: 7ce5 8a21 18f1 cfbf 311d 6a80 fbc7 a1bf
-0.32651186341501853 -0.36631764364944996 0.3247293619977975 0.20449764204487483 -0.30931383216640745 0.4040991807295464 0.21117258402706757 -0.15611183439767642
-0.12194373217985267 -0.12682886596010648 -0.24456121551278642 0.020193289715503833 -0.18047399990754656 -0.3016417065664606 -0.026746131156143427 0.37487673929101695
0.16745075944996482 0.22804177387116073 -0.24954511297054782 -0.03472886984405433

blocks1.SCINet_Tree.SCINet_Tree_odd.SCINet_Tree_odd.SCINet_Tree_odd.workingblock.interact.level.psi.1.bias f8 [4]
00000000: 40cf f1fb 4908 81bf 4a51 3f1d 17ee d2bf
00000010: f059 1a4a 45f7 d23f 70c2 4a4e 6243 d1bf
-0.008316591263998085 -0.29578187805352185 0.29634220348944407 -0.26973779340463633

blocks1.SCINet_Tree.SCINet_Tree_odd.SCINet_Tree_odd.SCINet_Tree_odd.workingblock.interact.level.psi.4.weight f8 [1, 4, 3]
00000000: 6f27 4f4c 1797 cbbf 9864 e224 48a3 9abf
00000010: 09f0 e142 e355 cdbf 9414 cb5d b028 a6bf
00000020: 0817 b5cc eb7e bbbf 8fdd 4297 2a8b dbbf
00000030: f08e 1b6d 2bb2 4d3f 73a7 5a79 9216 98bf
00000040: ac1d 3ec5 a4c2 b0bf 0384 bf84 1ee7 b7bf
00000050: d5cf 31b7 51a4 c2bf 6fe0 b568 3c4a c0bf
-0.21554843164477286 -0.02601349568485442 -0.22918358579397616 -0.04327918190896543 -0.10740541217554889 -0.43036904117203617 0.0009062492410660521 -0.023523605973117378
-0.06547002616399905 -0.09337034932060821 -0.1456396240715764 -0.1272655020982287

blocks1.SCINet_Tree.SCINet_Tree_odd.SCINet_Tree_odd.SCINet_Tree_odd.workingblock.interact.level.psi.4.bias f8 [1]
00000000: a1d6 26e5 208d b03f
0.06465344995998602

blocks1.SCINet_Tree.SCINet_Tree_odd.SCINet_Tree_odd.SCINet_Tree_odd.workingblock.interact.level.P.1.weight f8 [4, 1, 5]
00000000: da6c 7352 78fc c13f b897 8568 8d02 d43f
00000010: 384f 3fb5 7daa d6bf 4264 6e59 3847 d43f
00000020: 09f0 4b89 823e dabf 8742 0a09 3f94 dfbf
00000030: 3990 8d88 a696 c13f ad67 3d28 69aa b5bf
00000040: c70d 7d80 df9c c83f 6108 c673 558b c93f
00000050: c564 b92f 367d dbbf 8b62 a823 f041 c1bf
00000060: f8f2 eeb5 1767 d5bf c7d2 8cb5 c85f ccbf
00000070: bf5f cece c274 bd3f 54fe e86c 8dc4 ba3f
00000080: 3adb f9b3 c571 a7bf b23f 9e90 39db d73f
00000090: c782 3d1e f565 ad3f fcd7 4a22 1264 b03f
0.14051727319642887 0.3126557846757083 -0.35415594768459213 0.31684693082349125 -0.41006530197023544 -0.49342323191471177 0.13740998904825277 -0.08463151199739967
0.19228738569118617 0.1995646300602543 -0.4295173135811406 -0.13482476941205265 -0.3344172741597471 -0.22167309632063434 0.11506288098314509 0.10456165226877917
-0.04578988859150575 0.37275542376391535 0.057418498937072786 0.06402695977416778

blocks1.SCINet_Tree.SCINet_Tree_odd.SCINet_Tree_odd.SCINet_Tree_odd.workingblock.interact.level.P.1.bias f8 [4]
00000000: 0c8d adef a82f 713f 07f1 75eb b22b c9bf
00000010: ccc5 985f 6636 b13f eb6f f827 20e0 cbbf
0.004195842654414205 -0.19664608475785192 0.06723632654099915 -0.21777727080996043

blocks1.SCINet_Tree.SCINet_Tree_odd.SCINet_Tree_odd.SCINet_Tree_odd.workingblock.interact.level.P.4.weight f8 [1, 4, 3]
00000000: b66d 8520 cfbe c43f 0bda 8e0b 831c b43f
00000010: e57b 3f33 f995 c13f dd18 1f64 a37e c33f
00000020: f659 163e 96e1 c93f e899 ee42 b0bb a83f
00000030: 4aa3 225d 4843 903f 2c94 ec02 f6c4 933f
00000040: 6b29 60b4 fa54 953f 8dec 1ac6 65bd 6b3f
00000050: d44a 7568 c7d1 6c3f 910d c04f 88a3 79bf
0.16207303131055334 0.07856005699327555 0.13738932611792545 0.15230219258064084 0.2021968653832144 0.04830694977799849 0.015881663021591032 0.0193060340199233
0.020831982859854586 0.0033862102289652974 0.0035179991424823896 -0.006259472338573061

blocks1.SCINet_Tree.SCINet_Tree_odd.SCINet_Tree_odd.SCINet_Tree_odd.workingblock.interact.level.P.4.bias f8 [1]
00000000: fcb2 23a3 4cb2 d13f
0.27650752955996416

blocks1.SCINet_Tree.SCINet_Tree_odd.SCINet_Tree_odd.SCINet_Tree_odd.workingblock.interact.level.U.1.weight f8 [4, 1, 5]
00000000: fb62 70ed 6796 c43f 8d9b b2ec 6b89 c83f
00000010: e863 df23 3597 b53f c540 824b 6a09 d7bf
00000020: 933c e9c8 b4ff b1bf 6cd6 217a d053 a23f
00000030: dfd7 7494 87b2 a7bf 2840 f4d8 c9bb b33f
00000040: 5de8 64aa b4db 93bf 96d1 1e1e 598d aa3f
00000050: ac19 d6e9 e123 c93f effc 526f 36d6 cb3f
00000060: 5195 b903 5f96 c63f c692 ba19 ef52 cbbf
00000070: 1637 9729 e67c d7bf d790 0018 3741 babf
00000080: f80b 0829 4f1d bd3f d4a4 9d37 7043 d63f
00000090: 0681 459d 6bba b83f 3d8c 03d2 e499 cabf
0.16084002584172893 0.1916937738180561 0.08433849454685538 -0.35994965909868554 -0.07030801682525327 0.035795702847207206 -0.046283947822686626 0.07708417460185102
-0.01939279832843287 0.05185965054207313 0.19640754621305 0.21747475085974297 0.17646396333581518 -0.21346844440735974 -0.36699823438253654 -0.10255760513297517
0.11372847320312462 0.347866110145856 0.09659454908024054 -0.20782146696646633

blocks1.SCINet_Tree.SCINet_Tree_odd.SCINet_Tree_odd.SCINet_Tree_odd.workingblock.interact.level.U.1.bias f8 [4]
00000000: 6974 f7b3 27d6 7a3f f389 8a93 ef24 dabf
00000010: 0a5a 017b e24a 823f 9eed 6b7b 4712 dcbf
0.006551890458891576 -0.4085043850738252 0.008931893709967848 -0.43861567547693336

blocks1.SCINet_Tree.SCINet_Tree_odd.SCINet_Tree_odd.SCINet_Tree_odd.workingblock.interact.level.U.4.weight f8 [1, 4, 3]
00000000: 580b 6380 0862 d5bf 3cdc a02f 47ce debf
00000010: ef50 edad e194 dbbf fdbd e1c2 beed af3f
00000020: 56ab d7ba 06f8 983f df33 025e 3989 c23f
00000030: 0163 59d1 3704 d3bf 633b 1844 485f d6bf
00000040: 2797 8b49 f6b1 d2bf f67e 4143 9d96 ddbf
00000050: b1c4 6070 148d d3bf 5a21 7a79 eb38 c3bf
-0.33410847223074347 -0.48134021426398355 -0.4309620092874544 0.06236072663238799 0.02438364520450461 0.14481274690879695 -0.2971324486184557 -0.3495655693995358
-0.292111942121084 -0.4623177677913043 -0.3054858300630015 -0.15017455512521388

blocks1.SCINet_Tree.SCINet_Tree_odd.SCINet_Tree_odd.SCINet_Tree_odd.workingblock.interact.level.U.4.bias f8 [1]
00000000: a191 91b9 bc55 883f
0.011882280743699182

blocks1.SCINet_Tree.SCINet_Tree_odd.SCINet_Tree_odd.SCINet_Tree_even.workingblock.interact.level.phi.1.weight f8 [4, 1, 5]
00000000: 3340 abe6 9d43 e43f b226 3397 d7ba a3bf
00000010: aebd 78b3 97a1 c0bf d725 8b3d 04e3 c7bf
00000020: 68b1 3cc8 c1e2 b8bf 47e0 33fc 2e1b b13f
00000030: d249 8bc8 df0a df3f 5147 1714 fae5 c2bf
00000040: f2a4 60d4 c477 c9bf c2b3 23c2 ac6c aebf
00000050: 083b a9f5 89a0 b93f e0ae a5ea 9c31 db3f
00000060: 5159 854c c510 dbbf ff5d dba7 e598 d8bf
00000070: 9c1c 8682 46eb c4bf 9f75 b7b2 ac05 a53f
00000080: 9698 5bbf d580 a2bf 178f c9d5 4acd cabf
00000090: a8d4 32e2 7178 d0bf 25df 42cb 49e5 4bbf
0.6332540040257356 -0.0385348674841003 -0.12993141425384408 -0.18661549572998012 -0.09721003664589534 0.06682103783885039 0.4850387056768827 -0.14764333706858193
-0.19896755571361485 -0.05942287320963359 0.10010587928375625 0.42490313448682393 -0.4228986022257191 -0.38433209793353734 -0.16343003628955877 0.04105891877746192
-0.036139182671648104 -0.20939002455553954 -0.2573513707132613 -0.000851307899686103

blocks1.SCINet_Tree.SCINet_Tree_odd.SCINet_Tree_odd.SCINet_Tree_even.workingblock.interact.level.phi.1.bias f8 [4]
00000000: 1381 ac2d 9b6a 70bf bc55 5d0e f479 733f
00000010: a30c 11bc 773c c73f 7ef9 590e 3915 c1bf
-0.004007917562177238 0.004754975647150269 0.18153282816829117 -0.13346017075305022

blocks1.SCINet_Tree.SCINet_Tree_odd.SCINet_Tree_odd.SCINet_Tree_even.workingblock.interact.level.phi.4.weight f8 [1, 4, 3]
00000000: d5d2 45a6 1801 dcbf dc3a f496 e07b ddbf
00000010: e53a 49f6 7a5d e1bf 5319 362d a2b7 b7bf
00000020: 4d71 dc79 9df4 d0bf 872f 9c55 fd3c c8bf
00000030: 4a10 7720 6d98 38bf 818b 709f de90 5dbf
00000040: d15b 8158 926c 4dbf 54ca 8caa 85da c63f
00000050: 4837 0b81 0cbb 993f 0b5c 6bb8 87ac 9dbf
-0.43756691205571246 -0.4606858705673582 -0.5426611719393263 -0.09264577487747276 -0.2649301233339159 -0.18936125450306582 -0.0003752962515728471 -0.0018045591402901797
-0.0008979525164346474 0.17854376628527524 0.02512759721394467 -0.02897846282106901

blocks1.SCINet_Tree.SCINet_Tree_odd.SCINet_Tree_odd.SCINet_Tree_even.workingblock.interact.level.phi.4.bias f8 [1]
00000000: 7439 7212 532a dabf
-0.4088332824839178

blocks1.SCINet_Tree.SCINet_Tree_odd.SCINet_Tree_odd.SCINet_Tree_even.workingblock.interact.level.psi.1.weight f8 [4, 1, 5]
00000000: ec71 6b30 6a4f a6bf 386d 4132 7db4 cebf
00000010: 7726 b07c 903b d73f a678 df8b dab2 af3f
00000020: f1f2 bfb8 6a4d d5bf 5e6d 6799 a2d5 d53f
00000030: 3a05 5a50 eb21 98bf 756e 376e ddfb d1bf
00000040: 1d11 5f8f b2fe d4bf 9db8 bad8 5f50 dcbf
00000050: 74c2 61cf 23ae d33f 04ab 553c c29f c6bf
00000060: 7d45 86f1 961d 953f 99f7 ab55 7ef5 c2bf
00000070: c080 888a 924d 85bf 937f 7e75 11ff aabf
00000080: f5c3 85e2 1a08 d43f e997 5966 ca16 a8bf
00000090: 3518 0393 d170 c9bf c23d 18cb 10ab c7bf
-0.043574636850937626 -0.23988308862576857 0.36301052261897077 0.061911420416195725 -0.33285015146229485 0.3411642549596844 -0.023566891459727325 -0.2809976173718732
-0.32804550171955943 -0.44240566410997834 0.3075036549771888 -0.17675044961955433 0.020620687953458273 -0.1481168669051243 -0.010401863911340903 -0.05272726592306678
0.3129946910985944 -0.047048878663915 -0.19875545194935432 -0.1849080077813437

blocks1.SCINet_Tree.SCINet_Tree_odd.SCINet_Tree_odd.SCINet_Tree_even.workingblock.interact.level.psi.1.bias f8 [4]
00000000: 1e99 94b4 8e5c eb3f e8c6 bdf7 84d2 80bf
00000010: d335 b852 c266 e0bf 1b38 aeb1 a8fb e93f
0.8550485159837853 -0.008214033899750686 -0.5125438323608996 0.8119700880358808

blocks1.SCINet_Tree.SCINet_Tree_odd.SCINet_Tree_odd.SCINet_Tree_even.workingblock.interact.level.psi.4.weight f8 [1, 4, 3]
00000000: 8f3a f3a7 d7b8 debf 6cbd 5130 4cc4 e0bf
00000010: 2e9f 4ded 85d3 dfbf 3594 add0 4cd0 bd3f
00000020: 3d7c 978d 3497 ae3f 1436 5ecd 9b5b ddbf
00000030: 2a20 9b34 0a7b cdbf 7873 a8f6 1bc4 3c3f
00000040: 225d a19e cebb c73f 901a c508 5b34 e1bf
00000050: 6770 efef e0c0 debf 6948 bde4 1397 e0bf
-0.4800318851602378 -0.5239621108757269 -0.49728534864560714 0.11645965666464593 0.05974735477843083 -0.45871634536237704 -0.23031737869882934 0.0004389351148875102
0.1854189180910249 -0.5376410647666763 -0.48052237921888835 -0.5184421031538139

blocks1.SCINet_Tree.SCINet_Tree_odd.SCINet_Tree_odd.SCINet_Tree_even.workingblock.interact.level.psi.4.bias f8 [1]
00000000: c592 3051 2e61 f1bf
-1.0862258120989037

blocks1.SCINet_Tree.SCINet_Tree_odd.SCINet_Tree_odd.SCINet_Tree_even.workingblock.interact.level.P.1.weight f8 [4, 1, 5]
00000000: 3b06 3f77 4887 db3f d262 5df6 8e22 d23f
00000010: 11da 4e13 ea64 bc3f 9135 7bfc f766 d73f
00000020: 1291 9cc5 fe8c cd3f 6c47 ed80 f68b b33f
00000030: 7c1a 0a9d edd8 b2bf 5c40 d14b 714f dd3f
00000040: 686d 9589 526f ddbf d904 e2ed 256e 63bf
00000050: ee72 0825 db88 d73f 0e3e 9606 1b05 d43f
00000060: 1e4f 59d8 8583 c43f 088b 1dd5 8b8c ccbf
00000070: 9300 df5d d2ac c1bf 7235 514f 8156 c2bf
00000080: 99fa d943 d5a4 c0bf 9781 c854 cef8 cb3f
00000090: 541c 92c1 5ec4 b8bf a30a abc8 543a 683f
0.4301320232881129 0.2833592801958221 0.11091483088862499 0.3656597104680595 0.23086533211711263 0.07635441444042862 -0.07362256130191186 0.45797378925363375
-0.45991958080204265 -0.0023718586735986644 0.3677280294084956 0.31281161921739986 0.16026375831517553 -0.22303913026834032 -0.1380866011004441 -0.14326492665206164
-0.13003030598698187 0.21853045596891427 -0.09674637056205998 0.0029575019774211327

blocks1.SCINet_Tree.SCINet_Tree_odd.SCINet_Tree_odd.SCINet_Tree_even.workingblock.interact.level.P.1.bias f8 [4]
00000000: e741 f785 3284 bbbf a3a8 6797 62bc 6c3f
00000010: 3341 5175 f2ce 92bf 1f1d 889f 33ba d6bf
-0.1074859215798437 0.0035077977765825704 -0.018367565546499164 -0.3551148469855025

blocks1.SCINet_Tree.SCINet_Tree_odd.SCINet_Tree_odd.SCINet_Tree_even.workingblock.interact.level.P.4.weight f8 [1, 4, 3]
00000000: 6c1f 7413 256f be3f 8302 59cc 1b73 bc3f
00000010: 533d 2979 ee9c bb3f 7677 e458 98a2 8c3f
00000020: 6323 a11e 4bee c53f 56a0 eba7 94d8 c93f
00000030: f402 d024 b2d1 cb3f 5f49 5b85 1316 ce3f
00000040: 6116 b971 9cc5 b63f a60f a87a 0694 b1bf
00000050: 8049 c083 896f c0bf 2cf3 dc29 47f9 babf
0.11888343548718944 0.11113141764600169 0.10786333520922158 0.013982000553877088 0.17133463855341366 0.20192201804389026 0.21733691022384216 0.23504871379425205
0.08895280624809622 -0.06866493696730788 -0.1284038441959403 -0.1053661801533507

blocks1.SCINet_Tree.SCINet_Tree_odd.SCINet_Tree_odd.SCINet_Tree_even.workingblock.interact.level.P.4.bias f8 [1]
00000000: 9d72 85d2 009c b43f
0.08050542010955515

blocks1.SCINet_Tree.SCINet_Tree_odd.SCINet_Tree_odd.SCINet_Tree_even.workingblock.interact.level.U.1.weight f8 [4, 1, 5]
00000000: 51f4 9974 53df d03f f7b6 0065 7ead cb3f
00000010: b0d3 4501 9d88 a63f 270f aef6 fc0a b9bf
00000020: ad7b 4ff7 288e d13f ff18 2455 397b d5bf
00000030: d791 934d da49 b33f b6cb ffb7 dc67 c4bf
00000040: d2bd 0375 b12e c53f 8a5d f979 c83e bdbf
00000050: 4d24 b022 7767 c0bf a2a5 9249 28ea d0bf
00000060: 5cce c42b 2e4a aabf 7f32 aec5 18e5 a0bf
00000070: 018b d65b 24e8 dd3f c4c1 030c b83d d9bf
00000080: 3bef 4644 0608 c33f 1c52 3933 0ee2 b03f
00000090: 09be 4164 7afc d4bf 22ef e842 6c64 bf3f
0.2636307371793168 0.21623210841919846 0.04401102676903379 -0.09782391569575265 0.27430175925649786 -0.3356459933715001 0.07534565347629694 -0.1594196222718815
0.16548746312717683 -0.11423924425013446 -0.12815751260521538 -0.2642918318257107 -0.05134720119749822 -0.03299786961642769 0.4672938248497048 -0.3943920247393431
0.14868238767473393 0.06594933271964759 -0.32791003981307704 0.12262608178656056

blocks1.SCINet_Tree.SCINet_Tree_odd.SCINet_Tree_odd.SCINet_Tree_even.workingblock.interact.level.U.1.bias f8 [4]
00000000: 14b9 dd3a d34c cebf d940 b41e bbf3 a53f
00000010: 8b53 d836 1c89 49bf d7cf 361c 38f3 a63f
-0.2367195165092616 0.04287514447980962 -0.0007792842640720205 0.04482436508570203

blocks1.SCINet_Tree.SCINet_Tree_odd.SCINet_Tree_odd.SCINet_Tree_even.workingblock.interact.level.U.4.weight f8 [1, 4, 3]
00000000: 80c2 b5b1 fdf2 d1bf 10ee a3b6 7a38 ccbf
00000010: 0814 b3db 9d47 d7bf 60ed 811c 7bb1 703f
00000020: 30c0 21b2 d184 713f eca1 75b6 fe20 7d3f
00000030: 2e64 fc48 daa8 ca3f 7ccd eec5 92ba d73f
00000040: 807e d45e 91ce d73f 0b76 ba33 2eff 6e3f
00000050: e0d0 9228 80aa 653f 3cdf 7fc5 180f 803f
-0.2804559932183466 -0.2204736129568663 -0.36374613242179565 0.004075508979549752 0.004277056812597421 0.007111544581996015 0.2082779747368319 0.3707625325143551
0.3719829011988409 0.003783788908392043 0.0026447775931846967 0.007841294791418478

blocks1.SCINet_Tree.SCINet_Tree_odd.SCINet_Tree_odd.SCINet_Tree_even.workingblock.interact.level.U.4.bias f8 [1]
00000000: 3916 0630 7cb0 cf3f
0.24757339806471793

blocks1.SCINet_Tree.SCINet_Tree_odd.SCINet_Tree_even.workingblock.interact.level.phi.1.weight f8 [4, 1, 5]
00000000: 2a51 d916 1627 e13f 40d5 3290 67d2 b03f
00000010: 9199 78dd eb51 c4bf b8fb 9750 9446 d2bf
00000020: 4aaf 335d 7a76 aabf e999 b6a9 7dff ae3f
00000030: 163a 97da fd4e d5bf a846 a270 dd78 d13f
00000040: eb43 d6db b7f9 ac3f 1419 0cb5 a238 c13f
00000050: 0cde 94eb b415 cdbf 018b d3f0 ab3c c93f
00000060: a0d3 fa72 88be b83f 6f77 ef5b 6ba1 9c3f
00000070: 957e bc61 c5bb 9d3f f6c2 ef63 41a1 de3f
00000080: a446 ab8e 4a95 c03f fb12 4bd0 da99 b33f
00000090: 2c5e 73ef d237 e03f 644e f371 2295 d03f
0.5360212751643634 0.0657105185553819 -0.1587500411416838 -0.28555782194592494 -0.05168516528814722 0.06054299065299402 -0.3329462656664942 0.27300201415446645
0.05659269865567026 0.1345408805866063 -0.22722493651393483 0.19716405161951658 0.09665730292438335 0.027959516035358897 0.02903660210642885 0.478592250437074
0.12955600706350368 0.07656638703617695 0.506814449002325 0.25910245063753323

blocks1.SCINet_Tree.SCINet_Tree_odd.SCINet_Tree_even.workingblock.interact.level.phi.1.bias f8 [4]
00000000: 412c 6e52 b8c6 ed3f 4f34 cd73 da31 d03f
00000010: d12d b1f5 6438 d0bf bb89 a01d 2567 ef3f
0.9305078134506247 0.2530428057551192 -0.2534420394265143 0.9813409403471306

blocks1.SCINet_Tree.SCINet_Tree_odd.SCINet_Tree_even.workingblock.interact.level.phi.4.weight f8 [1, 4, 3]
00000000: 4683 b351 be4b e0bf 40f1 2758 4c09 e2bf
00000010: 5d59 bd51 7124 e3bf 4123 6fdd bb16 e0bf
00000020: a3b8 740e 1f70 a73f ddaf 934f 16c3 af3f
00000030: c4ce 5497 1cb0 b53f 4b35 bf8a 5a13 b8bf
00000040: 713d 56af a084 96bf c1d2 d658 0d7c c2bf
00000050: 8b9f f327 22ea e5bf 02cb c986 6238 e8bf
-0.5092460246779431 -0.5636350366399157 -0.5981985661008299 -0.5027751278767952 0.0457772927423872 0.06203527184865696 0.08471850103961304 -0.09404531371474893
-0.021990309430802883 -0.14441077077721867 -0.6848307400041319 -0.7568829186041912

blocks1.SCINet_Tree.SCINet_Tree_odd.SCINet_Tree_even.workingblock.interact.level.phi.4.bias f8 [1]
00000000: c12c 34b9 f058 eabf
-0.8233569733869431

blocks1.SCINet_Tree.SCINet_Tree_odd.SCINet_Tree_even.workingblock.interact.level.psi.1.weight f8 [4, 1, 5]
00000000: 2834 1c02 b29f cdbf 8de0 a9ec 710b 823f
00000010: af20 d53b 2029 ce3f 9725 c5ed 766e d03f
00000020: 4701 80aa 6d50 e0bf 4895 2d0f e0ed cebf
00000030: 0802 600e 4791 c03f e203 f124 cc29 cdbf
00000040: 8c99 20aa 5f89 c1bf b216 3d56 977f 82bf
00000050: 86c7 ecf8 2124 bfbf d588 c310 5114 b83f
00000060: 49b2 2eb2 b42f c83f 0046 8cc7 bd1f d43f
00000070: 7a22 681f ffb6 e0bf 060a b695 3099 b8bf
00000080: 26a5 1703 257e d43f 6588 d892 5e34 c43f
00000090: 3ea4 0c18 6d1a b53f 9566 8e13 d699 a03f
-0.2314360151580399 0.008810892138385174 0.23563006326208355 0.2567422220205002 -0.5098179178312784 -0.24163437596431891 0.12943351938157854 -0.22783805660040374
-0.13700481230734984 -0.009032423323911718 -0.12164509131687681 0.0940600076606047 0.1889558668166436 0.31443733679870434 -0.5223384488500209 -0.09608749060684127
0.3201992540549149 0.15784818811613657 0.08243448102133841 0.03242367733691968

blocks1.SCINet_Tree.SCINet_Tree_odd.SCINet_Tree_even.workingblock.interact.level.psi.1.bias f8 [4]
00000000: 8207 a2c8 c328 d73f aa43 b58c 52d3 e83f
00000010: 565a 2ad7 4c25 e2bf e33b c875 19fa f63f
0.361863084726899 0.775796198673665 -0.5670532419633882 1.4360594368806623

blocks1.SCINet_Tree.SCINet_Tree_odd.SCINet_Tree_even.workingblock.interact.level.psi.4.weight f8 [1, 4, 3]
00000000: 9429 3bec ab80 943f acb5 c5d5 a4af d1bf
00000010: 08f0 48ca cc07 ccbf 30b7 cf97 9a32 e3bf
00000020: 5004 a4b6 8bd6 e9bf 2310 ef41 dfcd e8bf
00000030: b11f fd0d d3a8 90bf 5ca1 ffd8 b744 b53f
00000040: f113 9d1d f1db c5bf 20ee a7fa 404d e3bf
00000050: 4f1c 9cc3 ff5f d9bf 2b51 69a3 9af2 debf
0.0200220930990241 -0.2763454520816946 -0.21898803593819616 -0.5999272313181105 -0.807439667434787 -0.7751308715601265 -0.01626901409989018 0.08307980583015734
-0.1707745928380571 -0.6031803985237651 -0.39648431875724993 -0.48355737646240254

blocks1.SCINet_Tree.SCINet_Tree_odd.SCINet_Tree_even.workingblock.interact.level.psi.4.bias f8 [1]
00000000: 35d5 0f15 05b6 e2bf
-0.5847192202915382

blocks1.SCINet_Tree.SCINet_Tree_odd.SCINet_Tree_even.workingblock.interact.level.P.1.weight f8 [4, 1, 5]
00000000: 1950 d486 64ac cdbf b6d9 31a8 b3ea bf3f
00000010: e415 50fc 0dc9 d7bf 8ab8 75cc 43ad d2bf
00000020: 6e1d 3c1d fa9a d53f ed3f 4bbc 6983 cd3f
00000030: 6f92 c799 fd8f e03f 6294 30b4 f5a7 8a3f
00000040: 869b 4445 8bf9 aa3f 8e40 7745 7849 a2bf
00000050: 588d af27 5c0a d43f d0ff 65cf 9791 a9bf
00000060: d22d a01e c757 b93f 2dd2 cb8f 7652 d1bf
00000070: b61e 8344 2f39 e5bf c94d 75ef 65f5 c73f
00000080: 78fe 4ebb c549 d23f e726 2260 a455 e7bf
00000090: 3f50 710d f318 e4bf de45 b854 e8ad e8bf
-0.23182350715126246 0.12467501503292663 -0.3716464008324165 -0.291825246494121 0.337584045934327 0.23057290739097827 0.5175769809253107 0.01301567035813828
0.05268511982494943 -0.035716780166354586 0.31313232303201266 -0.04993891150206731 0.09899563310334905 -0.27065815012545863 -0.663230546772829 0.18717645828529175
0.285752709311033 -0.7292043569188679 -0.6280455839682942 -0.7712289480861576

blocks1.SCINet_Tree.SCINet_Tree_odd.SCINet_Tree_even.workingblock.interact.level.P.1.bias f8 [4]
00000000: 31b5 9e71 b81f b8bf 412c e85d 6cd6 c8bf
00000010: 483b 2cb2 607d 843f cd8b 5871 42c9 a23f
-0.09423401616978279 -0.1940436800508412 0.010004764020349236 0.03669173844925631

blocks1.SCINet_Tree.SCINet_Tree_odd.SCINet_Tree_even.workingblock.interact.level.P.4.weight f8 [1, 4, 3]
00000000: 4ab1 ec74 ba2e c8bf 2f97 3a8b ce62 bd3f
00000010: d9e6 e1f4 de32 a73f 5ca7 ce7c c33e c03f
00000020: c9c0 2f43 6580 d73f bf90 34f8 96bf d13f
00000030: 8350 5a77 e1c7 d3bf 0c9c fe15 b279 c4bf
00000040: 40f6 7ebc 1699 bfbf e96d 00b0 639a abbf
00000050: e318 c346 5d3e acbf 4fb5 4659 f928 a3bf
-0.188926035968857 0.114788922301696 0.045309989350199316 0.126915393773113 0.3672116428488264 0.2773187087898456 -0.30907475142999646 -0.15996385644868416
-0.12342969991637975 -0.05391227267702076 -0.055163302314712025 -0.03742198195264256

blocks1.SCINet_Tree.SCINet_Tree_odd.SCINet_Tree_even.workingblock.interact.level.P.4.bias f8 [1]
00000000: 4f15 d692 ac74 b43f
0.07990530571813291

blocks1.SCINet_Tree.SCINet_Tree_odd.SCINet_Tree_even.workingblock.interact.level.U.1.weight f8 [4, 1, 5]
00000000: 70a0 969c a30f dabf b3e7 6e3d d6d2 ddbf
00000010: 7006 0691 f7b7 dabf 1f55 1cbf 9201 9e3f
00000020: 04d3 ce59 099e a0bf 9ca1 dbbf a349 da3f
00000030: 37d8 30ba 4928 cabf 76ee f82c 00af 843f
00000040: cf61 689c 3ba4 c0bf 96c8 a428 44ac cf3f
00000050: c16b ce5d 5753 dd3f f0ec a17e 4ce3 b83f
00000060: 0810 7743 6b0d b8bf fd28 22b6 63d9 903f
00000070: 7df9 9cae d4d9 d23f 05d4 a4bb 788e ce3f
00000080: be1d dc29 2da8 a53f 674b 9866 3535 db3f
00000090: 8a7d 47c6 dba3 d0bf c893 2c4f f6f0 d73f
-0.40720453540644197 -0.4659934616025751 -0.41747845804648076 0.029302876390905227 -0.032455723011855425 0.4107446073162693 -0.20435449210498444 0.010099412319610961
-0.13001198899361419 0.24744464859538046 0.4582117477490862 0.09721830455412195 -0.09395475766274342 0.016454275123160212 0.29454533626621765 0.23872288858697757
0.04229870925888289 0.4251225950148893 -0.26000112879952353 0.37408216220711354

blocks1.SCINet_Tree.SCINet_Tree_odd.SCINet_Tree_even.workingblock.interact.level.U.1.bias f8 [4]
00000000: ad8c c7f1 9e84 cdbf 3fed 6c83 9097 a8bf
00000010: c7b9 a790 8004 d2bf adb4 d710 cbdf 7dbf
-0.23060976796759772 -0.048031345408583885 -0.28152479292375826 -0.007293503976581278

blocks1.SCINet_Tree.SCINet_Tree_odd.SCINet_Tree_even.workingblock.interact.level.U.4.weight f8 [1, 4, 3]
00000000: 33ee c6ab 8051 b93f 6056 60f1 b790 c33f
00000010: f0be 03b8 7133 acbf 9940 06b0 216f c4bf
00000020: 7893 c634 c8a2 b23f 4c08 2bc4 094a c7bf
00000030: 8038 f347 0844 cabf 305e 3c27 8d08 d2bf
00000040: cadf 0cc6 e62f d13f 77c4 29ae 1f68 c4bf
00000050: 576a 73cc b723 c7bf 0970 ca01 231a c6bf
0.09889988130356002 0.15285395894959475 -0.05507998820564619 -0.15964146704618967 0.07279635704487741 -0.18194696501274377 -0.2052011824911837 -0.28177193481085094
0.2685486730656491 -0.1594276047140146 -0.18077752573920478 -0.17267263019027748

blocks1.SCINet_Tree.SCINet_Tree_odd.SCINet_Tree_even.workingblock.interact.level.U.4.bias f8 [1]
00000000: 295c 1568 1b66 80bf
-0.00800725375544971

blocks1.SCINet_Tree.SCINet_Tree_odd.SCINet_Tree_even.SCINet_Tree_odd.workingblock.interact.level.phi.1.weight f8 [4, 1, 5]
00000000: 3d59 a71a 8af7 b93f 3364 7f8f 1728 cdbf
00000010: b6a8 963b c4e9 a03f 32ee fef8 6be3 9d3f
00000020: ed69 fa0d e383 c9bf 8029 5eb1 0956 b0bf
00000030: 4d70 b4f3 5ebc df3f 4b3e 07ec 4238 b4bf
00000040: a84d c61a de35 cabf 9fb1 e9c0 615b ae3f
00000050: ed5a 38d2 afa6 b7bf 4367 ef0f f8b8 d3bf
00000060: 5458 f8eb 4327 b33f 0a61 7080 f194 d63f
00000070: e2a2 7153 e358 d43f af35 8af8 4e41 d33f
00000080: af24 df55 a434 c83f e2dc 4b01 6d06 d1bf
00000090: 86d6 bdea c9e1 d3bf 75a4 f34f b100 7b3f
0.10143340254521589 -0.22778601175994737 0.03303349711798502 0.029187857697008997 -0.19933736975219976 -0.06381283359784184 0.49587224768925325 -0.07898348104867485
-0.20476890857081043 0.0592909381856288 -0.0923871887429006 -0.3081646113984002 0.0748178912257072 0.35284078162068566 0.31792529248063606 0.3008611132762224
0.18910650437309104 -0.266017199769932 -0.31065605091075843 0.006592457414833598

blocks1.SCINet_Tree.SCINet_Tree_odd.SCINet_Tree_even.SCINet_Tree_odd.workingblock.interact.level.phi.1.bias f8 [4]
00000000: c508 2f40 395b dabf 32e3 9bf7 65c5 b63f
00000010: 884c 1a40 3ae4 dabf f29b 714d 7bf7 bb3f
-0.4118178488535132 0.08894955916538264 -0.4201799036029077 0.10924502030103136

blocks1.SCINet_Tree.SCINet_Tree_odd.SCINet_Tree_even.SCINet_Tree_odd.workingblock.interact.level.phi.4.weight f8 [1, 4, 3]
00000000: ea95 b19d d063 d63f 39fd 5aba 5bee d33f
00000010: f32d 11ff 1ae5 5d3f 46ae 48a1 ff82 c6bf
00000020: 85c0 c683 293c d5bf 6f35 29eb 6cb6 c3bf
00000030: 1e57 1b5c 435a c13f cedf d8cb 9966 b4bf
00000040: e3dd 5607 1816 c53f 26bc f5ae c0c9 bfbf
00000050: 84e5 d92a 2ecf c2bf 07f6 6087 b53f cdbf
0.3498422183969 0.3114232368352137 0.0018246425281799288 -0.17587275862875823 -0.3317970072630561 -0.15400468332738224 0.13556711194422005 -0.07969056345689227
0.16473675115933792 -0.12417225142938601 -0.1469476422533199 -0.2285067473439286

blocks1.SCINet_Tree.SCINet_Tree_odd.SCINet_Tree_even.SCINet_Tree_odd.workingblock.interact.level.phi.4.bias f8 [1]
00000000: 6c7c 78d7 d78a d3bf
-0.305349312229686

blocks1.SCINet_Tree.SCINet_Tree_odd.SCINet_Tree_even.SCINet_Tree_odd.workingblock.interact.level.psi.1.weight f8 [4, 1, 5]
00000000: 5b42 c0fe b771 d93f 0b9f c959 a03b d1bf
00000010: e88c 40a8 e807 cb3f 03e6 7b12 371b b3bf
00000020: 861d f1a7 a415 d0bf 2436 eec4 9249 d73f
00000030: cf63 e6a8 8fcf aebf 3eec 77c3 38f5 c53f
00000040: 26f5 e58d d2e7 d0bf 8937 4e2c b6ec c3bf
00000050: 57a4 c478 fe5e c8bf 8e4e 3600 bea6 df3f
00000060: 6e56 3684 b5e9 d73f 0f76 7d74 54ca 673f
00000070: 91e6 d807 86ab b53f a93f 5396 86aa dcbf
00000080: 83dd 1875 3618 d3bf 1a9c 925f 4355 ce3f
00000090: 79ce 18bc 7dbe 5bbf 9e09 a6ed 009d cb3f
0.39756584051159444 -0.26926430481260927 0.21117885795056357 -0.07463401986378675 -0.25132099533626506 0.3638655589246318 -0.060177316062613444 0.1715460733829292
-0.26414932114842526 -0.15566136515957066 -0.19039898774034 0.4945521356650965 0.3736394683013263 0.0029040956032264707 0.0846484917791719 -0.4479080646533427
-0.2983528274084721 0.23697702566752882 -0.0016933658483936616 0.21572887042937067

blocks1.SCINet_Tree.SCINet_Tree_odd.SCINet_Tree_even.SCINet_Tree_odd.workingblock.interact.level.psi.1.bias f8 [4]
00000000: 5caa 97fd eec6 d5bf c0d9 ab68 bec0 ce3f
00000010: c23f 2fee 7794 ac3f 0bff f28b 978f d13f
-0.3402669407356933 0.24025707350638292 0.05582022459532211 0.27438915888704746

blocks1.SCINet_Tree.SCINet_Tree_odd.SCINet_Tree_even.SCINet_Tree_odd.workingblock.interact.level.psi.4.weight f8 [1, 4, 3]
00000000: 88c0 8182 0b26 c2bf bd08 2e5a d1c8 bdbf
00000010: 9739 18f2 7893 c83f 48d7 e0a6 f3ab d7bf
00000020: 874c f79a 74ff cbbf 851b c709 168d c2bf
00000030: b676 e062 bb18 b8bf 6f72 32a2 06c6 c9bf
00000040: 8873 5163 70f4 a6bf 173b 106b 5ac0 c8bf
00000050: 41ed 196e 4880 cabf e363 1891 4c20 cfbf
-0.14178604004292006 -0.11634548617988379 0.19200050183321757 -0.36987010285098565 -0.21873338286113528 -0.14493060567312113 -0.09412738002762464 -0.20135577125337842
-0.04483367168788904 -0.193370153691341 -0.20703988433874979 -0.243173189971258

blocks1.SCINet_Tree.SCINet_Tree_odd.SCINet_Tree_even.SCINet_Tree_odd.workingblock.interact.level.psi.4.bias f8 [1]
00000000: 4424 b0b7 dd5f e9bf
-0.7929524028451245

blocks1.SCINet_Tree.SCINet_Tree_odd.SCINet_Tree_even.SCINet_Tree_odd.workingblock.interact.level.P.1.weight f8 [4, 1, 5]
00000000: d17e a81e 9842 d13f 2c63 65a8 10ba b6bf
00000010: 8d88 5df5 0682 c53f b266 032e 98ee dbbf
00000020: 280a 4a2a 4230 d43f 71ba 530a 2e91 babf
00000030: 4859 fde7 2345 e23f 655b 4486 986c db3f
00000040: 4939 6843 32b6 d1bf 604a 0b7c 1bbf c5bf
00000050: e003 251a 5da5 bb3f e858 bcf9 f76f ccbf
00000060: b3bb 4cd3 664b d9bf 1ac4 bc12 c34d c0bf
00000070: ca22 c2e0 c9fe ca3f ff28 41fd 84ab b43f
00000080: 213f 8ff1 9369 d83f bfba ddcd 17cd d5bf
00000090: fd82 54c0 a219 bcbf 57de 8b55 cac1 c2bf
0.2696895884891833 -0.08877662764770083 0.16803061466913896 -0.4364376496647352 0.3154454625111236 -0.10377776863217904 0.5709399729774214 0.4285031615449298
-0.27674538214423144 -0.16989463383522985 0.10799199951453842 -0.2221670121586563 -0.39522715220203536 -0.12737310805235397 0.2109005305722092 0.0807421797082135
0.3814439639072465 -0.34064288238634427 -0.10976617045936261 -0.14653901269024303

blocks1.SCINet_Tree.SCINet_Tree_odd.SCINet_Tree_even.SCINet_Tree_odd.workingblock.interact.level.P.1.bias f8 [4]
00000000: 1eca eecc f004 b1bf 0104 ae07 f7e4 9ebf
00000010: 25a9 fab8 d4f3 85bf 7839 ec34 4f8c ccbf
-0.0664816379856252 -0.030170307010397582 -0.010718976874461614 -0.2230319031154513

blocks1.SCINet_Tree.SCINet_Tree_odd.SCINet_Tree_even.SCINet_Tree_odd.workingblock.interact.level.P.4.weight f8 [1, 4, 3]
00000000: ccc5 9e13 0a7f b2bf 211a 7e8f 1127 cf3f
00000010: 1053 9b30 60ff a83f 7ea0 c633 5920 ce3f
00000020: e1f0 2d14 96ce d23f 51d9 e928 5966 cf3f
00000030: be53 35a1 50db cb3f a2b4 c213 2897 b4bf
00000040: fdad 419d 7246 d5bf fdb7 cc77 2331 993f
00000050: 3844 e78f cd13 c53f 713f 47b1 5191 afbf
-0.07225096682557036 0.24337977892373977 0.048823362286986804 0.23536219623679594 0.29385902376794887 0.24531092164734017 0.21763046142100778 -0.08043146593509445
-0.33242478711210294 0.024601511179916703 0.16466683889896827 -0.06165557183305637

blocks1.SCINet_Tree.SCINet_Tree_odd.SCINet_Tree_even.SCINet_Tree_odd.workingblock.interact.level.P.4.bias f8 [1]
00000000: 2222 13fe e83c a63f
0.04343345738886152

blocks1.SCINet_Tree.SCINet_Tree_odd.SCINet_Tree_even.SCINet_Tree_odd.workingblock.interact.level.U.1.weight f8 [4, 1, 5]
00000000: 8d84 9d02 5689 d63f cb6f 829c 35e9 993f
00000010: e203 ef8e 4a48 ca3f 1e07 4c37 7f98 c53f
00000020: 8aa2 9be8 13d2 d4bf 6127 bcb2 6227 c43f
00000030: 0c4f e56a a2ae d5bf 1442 2546 7574 d5bf
00000040: bf6a 5dda 0c37 c4bf 6d43 d217 7648 d3bf
00000050: e9e0 2cc5 f539 983f 788f 3b5d a0e1 af3f
00000060: 172e 5658 06a5 c1bf 8374 8135 652e ccbf
00000070: b461 f8c5 d8d2 cc3f 92ac 33f0 856b d93f
00000080: 86f5 df40 8a86 df3f 7abb aec3 9761 c83f
00000090: fcc2 9163 ce86 d53f 7108 6c55 8b34 d9bf
0.3521323228397442 0.02530368583448687 0.2053311536710956 0.16871633720443752 -0.3253221293985368 0.15745195128720993 -0.33878384055172783 -0.33523303842687935
-0.15792999899243473 -0.30129768682768693 0.02365860000574652 0.06226826799482316 -0.13784865678131616 -0.22016587364752035 0.22518453279987016 0.3971876950951777
0.49258667312081916 0.19047829680263445 0.33635291789600763 -0.39383204786293563

blocks1.SCINet_Tree.SCINet_Tree_odd.SCINet_Tree_even.SCINet_Tree_odd.workingblock.interact.level.U.1.bias f8 [4]
00000000: 8332 f93f f0e2 cabf 231a 5e8e e422 d1bf
00000010: 3c24 4b1d a846 b3bf 4854 cdb2 c430 c0bf
-0.21005061267569056 -0.2677546873386822 -0.07529688563512676 -0.12648829203195278

blocks1.SCINet_Tree.SCINet_Tree_odd.SCINet_Tree_even.SCINet_Tree_odd.workingblock.interact.level.U.4.weight f8 [1, 4, 3]
00000000: 3630 2419 bfa4 cabf c7ed fdfb 2acb a03f
00000010: e41d 424f d0a0 c33f 0a76 6833 eda4 c53f
00000020: 9778 b55a b2fe b43f 8237 3584 a1c7 a3bf
00000030: 0a45 4aec 63a3 8a3f 8b21 bed0 afc3 a23f
00000040: af8d 9a13 0022 c9bf 75b7 3999 087d cdbf
00000050: ceea ceb4 48c1 9d3f dd10 0081 f58b c9bf
-0.20815266349416256 0.03280004812310327 0.15334514493973395 0.1690956593528628 0.08201136316844991 -0.03863243807664586 0.013006954811575006 0.03664922164086012
-0.19635010678494555 -0.2303782222911043 0.029057632480298072 -0.19958370970574082

blocks1.SCINet_Tree.SCINet_Tree_odd.SCINet_Tree_even.SCINet_Tree_odd.workingblock.interact.level.U.4.bias f8 [1]
00000000: 0c93 30fa 78c3 ad3f
0.05813196233819981

blocks1.SCINet_Tree.SCINet_Tree_odd.SCINet_Tree_even.SCINet_Tree_even.workingblock.interact.level.phi.1.weight f8 [4, 1, 5]
00000000: bd90 3d33 c7fe dbbf 2989 3a28 7c42 aabf
00000010: 2605 a73c c476 c0bf 7df1 98d5 1fac debf
00000020: 67a2 a908 4b07 ce3f 6974 de82 591b d33f
00000030: ef6f a0b1 f130 ac3f 4c48 9e87 10be c53f
00000040: 481d 3a79 8949 c8bf 4d86 6b76 f11c ce3f
00000050: 3faf c635 29cb de3f 607a 3aad 4dc0 bbbf
00000060: 8c52 d0bc 4bcb e03f 783b 1b48 2565 c13f
00000070: 4a16 0354 3f2b d73f e91d 8d64 e93d d8bf
00000080: 5661 a76a ea89 ca3f 4f9d 669d ebd0 d83f
00000090: 9c0b 44a5 5c18 b93f d5ec 0358 a2cd cabf
-0.4374254227061661 -0.05128849021027044 -0.128624467482987 -0.4792556367790651 0.23459756777744475 0.2985442903535103 0.05506091397566581 0.16986281034457062
-0.18974417132651866 0.23525827676989977 0.4811499619633998 -0.10840306739053451 0.5248163879173986 0.13589921971148633 0.36201461033156035 -0.3787787897058182
0.20733385284143918 0.3877514874570424 0.09802798304376242 -0.20940045640586527

blocks1.SCINet_Tree.SCINet_Tree_odd.SCINet_Tree_even.SCINet_Tree_even.workingblock.interact.level.phi.1.bias f8 [4]
00000000: c4fa 0192 4f94 67bf 0a70 a76b 8d69 c83f
00000010: 6052 37e5 3adc e93f 40ab e2a4 7768 ccbf
-0.0028783372982269257 0.19072120434327672 0.8081335522534339 -0.22193809081121607

blocks1.SCINet_Tree.SCINet_Tree_odd.SCINet_Tree_even.SCINet_Tree_even.workingblock.interact.level.phi.4.weight f8 [1, 4, 3]
00000000: d291 e484 2bae b13f 3476 1346 672a c33f
00000010: b50c 4b53 5cd7 c83f 5b73 0b21 9d64 9e3f
00000020: 6295 429f 62d4 debf c822 b11c a07d a33f
00000030: bf5c d435 1726 e3bf 38d2 8b1d c151 e5bf
00000040: 5e9c 4c8e 0f58 e1bf bf7b 8333 fb44 a53f
00000050: a5c5 5d79 8e3b d3bf 0f2a a86b d215 cdbf
0.06906387323812815 0.14973154946976452 0.194072285337915 0.02968068613232631 -0.4817129664682708 0.03806782102816936 -0.5983997393949706 -0.6662297799180754
-0.5419996051104012 0.041541910208017445 -0.3005100426881547 -0.22722845322307747

blocks1.SCINet_Tree.SCINet_Tree_odd.SCINet_Tree_even.SCINet_Tree_even.workingblock.interact.level.phi.4.bias f8 [1]
00000000: 490a 800e c484 e7bf
-0.7349567683416548

blocks1.SCINet_Tree.SCINet_Tree_odd.SCINet_Tree_even.SCINet_Tree_even.workingblock.interact.level.psi.1.weight f8 [4, 1, 5]
00000000: a13c e457 71f6 db3f f277 df8f 672a dcbf
00000010: bb84 c4d9 dfbf cb3f 8ffe 87a3 63a4 d6bf
00000020: 1db3 6b1f 0d42 c23f bd93 b27c 158c d83f
00000030: 539f c16f a55c ce3f 681c 26a6 cb46 ca3f
00000040: 9a39 4368 f4a6 c3bf 2921 ca9d ebc3 c23f
00000050: cdcd 0c41 c9c7 db3f 6139 547b 2bca c2bf
00000060: 47fb 89bd ead2 b0bf e67d e762 7179 d3bf
00000070: 0c2c 8e83 26d8 dfbf 18b8 2abe a19d d43f
00000080: 2e1d 3cd1 2c35 e0bf ca24 a315 c8ab d0bf
00000090: 3e8e fd87 1735 ca3f cb95 9203 e780 d5bf
0.4369166715923232 -0.44008816766824943 0.2167930424994092 -0.35378352136465535 0.1426407245084186 0.3835500447988201 0.2372023387608758 0.20528550732362594
-0.15353255358645584 0.14660401539391302 0.4340689788106971 -0.14679473421024183 -0.06571833732048758 -0.304287287317463 -0.49756777617648207 0.32212108202918577
-0.5064910971276839 -0.26048471558585773 0.20474523677977347 -0.3359925780190138

blocks1.SCINet_Tree.SCINet_Tree_odd.SCINet_Tree_even.SCINet_Tree_even.workingblock.interact.level.psi.1.bias f8 [4]
00000000: c8d6 5647 91c5 e33f ddc9 cb5e 439f d8bf
00000010: d291 0506 12d9 e33f 6b07 1e38 4e74 e4bf
0.6178671258300819 -0.38472065217425017 0.6202478520977428 -0.6391974540749578
