exp/data_checkpoints/246565437/checkpoint.pth (torch, 72377 bytes, 114 tensors)

inv_timescales f8 [1]
0	0x3ff0000000000000	1.0

blocks1.SCINet_Tree.workingblock.interact.level.phi.1.weight f8 [1, 1, 5]
0	0xbfc44f3cb4b9bab7	-0.1586681253861195
1	0xbfdf3c3bf6a0205b	-0.48805140575905676
2	0x3fb81e8f7f4b3f09	0.09421631677400567
3	0x3fd14e87cb6e8a6b	0.27041811815630606
4	0x3fcafc02f321d09c	0.21081578132328083

blocks1.SCINet_Tree.workingblock.interact.level.phi.1.bias f8 [1]
0	0x3fb760fcb63f972d	0.0913236565534958

blocks1.SCINet_Tree.workingblock.interact.level.phi.4.weight f8 [1, 1, 3]
0	0x3fd2c828e468f48c	0.2934667807165361
1	0xbfca578730b754ab	-0.2057961452361828
2	0x3fc75841a6796360	0.1823808729993983

blocks1.SCINet_Tree.workingblock.interact.level.phi.4.bias f8 [1]
0	0xbfdeab566751b34c	-0.47920761194000216

blocks1.SCINet_Tree.workingblock.interact.level.psi.1.weight f8 [1, 1, 5]
0	0xbf9069e1e701ce4a	-0.016028909420539507
1	0xbfad955a068646ed	-0.05778008775372521
2	0xbfcd571515e4d3a4	-0.22922004288707598
3	0xbfc34831ad412476	-0.15064068755808407
4	0x3fd597a65a0207fd	0.33738096990430205

blocks1.SCINet_Tree.workingblock.interact.level.psi.1.bias f8 [1]
0	0xbf7794b1909ae309	-0.005757039654491044

blocks1.SCINet_Tree.workingblock.interact.level.psi.4.weight f8 [1, 1, 3]
0	0xbfdfbcd22fb1064f	-0.49589972169278423
1	0x3fce740a7fb6426a	0.23791629062590697
2	0xbfc17b69cc4f3f74	-0.13657877422383147

blocks1.SCINet_Tree.workingblock.interact.level.psi.4.bias f8 [1]
0	0xbfdf0ae222eba48b	-0.4850392666836078

blocks1.SCINet_Tree.workingblock.interact.level.P.1.weight f8 [1, 1, 5]
0	0xbfcc58f236097c1c	-0.22146442068603356
1	0x3fc5245fff885608	0.16517257668662944
2	0x3fd02ad20b80977f	0.2526135551764738
3	0xbfd2bc9b34a4af86	-0.2927616132826575
4	0x3fc433f2094b398a	0.15783524946023092

blocks1.SCINet_Tree.workingblock.interact.level.P.1.bias f8 [1]
0	0xbfa9cdaada767890	-0.050397242706126666

blocks1.SCINet_Tree.workingblock.interact.level.P.4.weight f8 [1, 1, 3]
0	0xbfd03ca406514836	-0.25370121590561057
1	0x3fd9c820cd26054b	0.40283985170397746
2	0xbfb80520b3eacedf	-0.09382824318418724

blocks1.SCINet_Tree.workingblock.interact.level.P.4.bias f8 [1]
0	0xbfcfb21b01dd636a	-0.2476228484254322

blocks1.SCINet_Tree.workingblock.interact.level.U.1.weight f8 [1, 1, 5]
0	0x3f98320d3bc97b83	0.023628432058440573
1	0xbfd560ca8d6279c8	-0.3340326672277141
2	0x3fd3b0d47e823174	0.30766785005905395
3	0xbfd2559f06c6088f	-0.286475903143704
4	0x3fd1caf9c53495d2	0.27801365145054746

blocks1.SCINet_Tree.workingblock.interact.level.U.1.bias f8 [1]
0	0xbfcdf78c4c302003	-0.2341170665752089

blocks1.SCINet_Tree.workingblock.interact.level.U.4.weight f8 [1, 1, 3]
0	0x3fd1f0fa29f00945	0.2803330812022476
1	0xbfd8b7ca44568375	-0.3862176577913979
2	0xbfcafb1195ac2589	-0.21078700836396205

blocks1.SCINet_Tree.workingblock.interact.level.U.4.bias f8 [1]
0	0x3fb5c98f84e85f6f	0.08510682101075216

blocks1.SCINet_Tree.SCINet_Tree_odd.workingblock.interact.level.phi.1.weight f8 [1, 1, 5]
0	0xbfd234f1ddc42477	-0.2844814935384145
1	0x3fa240c31339201b	0.035650344940734345
2	0x3f931839fab24025	0.018647104193007764
3	0x3fcc5a6e968d2c0d	0.2215097651590842
4	0xbfb493c95ab09824	-0.08038004364115686

blocks1.SCINet_Tree.SCINet_Tree_odd.workingblock.interact.level.phi.1.bias f8 [1]
0	0xbf939f96b3cfec89	-0.019163470005861192

blocks1.SCINet_Tree.SCINet_Tree_odd.workingblock.interact.level.phi.4.weight f8 [1, 1, 3]
0	0x3fd687fc6b047f7f	0.3520499272435628
1	0x3f655b0071f119c8	0.002606869572932189
2	0xbfcc01a6ccdd8239	-0.218800401718015

blocks1.SCINet_Tree.SCINet_Tree_odd.workingblock.interact.level.phi.4.bias f8 [1]
0	0xbfb6cbd24688a9c8	-0.08904756757752985

blocks1.SCINet_Tree.SCINet_Tree_odd.workingblock.interact.level.psi.1.weight f8 [1, 1, 5]
0	0x3fb5376a4fad69b9	0.08287682004212273
1	0xbfd3e7867bed4bd8	-0.31100618459930507
2	0xbfb89b5cb8d7134d	-0.0961206389684552
3	0x3fca765769aa9dab	0.20673649463172458
4	0x3fd3e36d89852eeb	0.3107560961695827

blocks1.SCINet_Tree.SCINet_Tree_odd.workingblock.interact.level.psi.1.bias f8 [1]
0	0xbfb95c303d933c69	-0.09906293395327882

blocks1.SCINet_Tree.SCINet_Tree_odd.workingblock.interact.level.psi.4.weight f8 [1, 1, 3]
0	0xbfca83d874c5cd3f	-0.20714860631742657
1	0xbfd1e95cf43a3887	-0.2798683533700416
2	0x3fd37aec2227afc7	0.3043775876565146

blocks1.SCINet_Tree.SCINet_Tree_odd.workingblock.interact.level.psi.4.bias f8 [1]
0	0xbfe21176c0c5daeb	-0.5646318211646223

blocks1.SCINet_Tree.SCINet_Tree_odd.workingblock.interact.level.P.1.weight f8 [1, 1, 5]
0	0xbfc2193db5e1d6cd	-0.14139529591527947
1	0xbfdb9498250a5fd3	-0.43094447724570023
2	0xbfdb50a03153ef10	-0.42679600541281193
3	0x3fd8d3d4e239a379	0.3879291733961093
4	0x3fd0e0ebadae0d29	0.2637280651180896

blocks1.SCINet_Tree.SCINet_Tree_odd.workingblock.interact.level.P.1.bias f8 [1]
0	0xbfaa1bff6aa3665a	-0.05099485565888236

blocks1.SCINet_Tree.SCINet_Tree_odd.workingblock.interact.level.P.4.weight f8 [1, 1, 3]
0	0xbfdc2838d33073ad	-0.43995495437575977
1	0xbfd963dbec2144d3	-0.3967199140507322
2	0x3fb7b47bb8d0ba68	0.09259770643323295

blocks1.SCINet_Tree.SCINet_Tree_odd.workingblock.interact.level.P.4.bias f8 [1]
0	0x3f81b9e70482db99	0.008655361962480334

blocks1.SCINet_Tree.SCINet_Tree_odd.workingblock.interact.level.U.1.weight f8 [1, 1, 5]
0	0xbfcc62d24e4d95cd	-0.22176579306976266
1	0xbfd3294250810d04	-0.2993932520077609
2	0x3fd570014849a216	0.3349612432416803
3	0xbf9fa3efb36e11d6	-0.030898804976020454
4	0xbf34463d1a7dbf45	-0.0003093623331471461

blocks1.SCINet_Tree.SCINet_Tree_odd.workingblock.interact.level.U.1.bias f8 [1]
0	0xbfd7a23e450b1213	-0.36927754156593656

blocks1.SCINet_Tree.SCINet_Tree_odd.workingblock.interact.level.U.4.weight f8 [1, 1, 3]
0	0xbfdc73c314e29137	-0.44456555404237313
1	0x3fb3c1b36dae7d8a	0.07717439105771554
2	0x3fe0ca0a05f1e66f	0.5246629825698629

blocks1.SCINet_Tree.SCINet_Tree_odd.workingblock.interact.level.U.4.bias f8 [1]
0	0xbfd4944d58775793	-0.32155164374614137

blocks1.SCINet_Tree.SCINet_Tree_odd.SCINet_Tree_odd.workingblock.interact.level.phi.1.weight f8 [1, 1, 5]
0	0xbfd1e975b58f85b4	-0.2798742554715219
1	0xbfbd7de2c84c605c	-0.1152021159181244
2	0x3fd350b62767c9f9	0.3018012413805589
3	0xbfd8b9a0a2c7f2f0	-0.38632980248057347
4	0xbfa357de1050cda5	-0.037779750339179054

blocks1.SCINet_Tree.SCINet_Tree_odd.SCINet_Tree_odd.workingblock.interact.level.phi.1.bias f8 [1]
0	0xbfa10eeb5b62dffa	-0.033316950707956

blocks1.SCINet_Tree.SCINet_Tree_odd.SCINet_Tree_odd.workingblock.interact.level.phi.4.weight f8 [1, 1, 3]
0	0xbfd2c499a9e5e580	-0.2932495268974762
1	0xbfe14858cb43f614	-0.5400814027813703
2	0x3fca1b5076c49738	0.20395856665816736

blocks1.SCINet_Tree.SCINet_Tree_odd.SCINet_Tree_odd.workingblock.interact.level.phi.4.bias f8 [1]
0	0xbfd33f357cd7cc16	-0.3007329672975073

blocks1.SCINet_Tree.SCINet_Tree_odd.SCINet_Tree_odd.workingblock.interact.level.psi.1.weight f8 [1, 1, 5]
0	0xbfc2dfb43734a10d	-0.14745190330109673
1	0xbfc1729ceb5b9e14	-0.1363102101524737
2	0x3fd4af7b9c58d75d	0.32321062343850376
3	0xbfdc9909db226e9b	-0.44684072875836883
4	0x3f9a386d96f93342	0.025605881061255838

blocks1.SCINet_Tree.SCINet_Tree_odd.SCINet_Tree_odd.workingblock.interact.level.psi.1.bias f8 [1]
0	0xbfcd320b8f12d4c8	-0.22808975683225285

blocks1.SCINet_Tree.SCINet_Tree_odd.SCINet_Tree_odd.workingblock.interact.level.psi.4.weight f8 [1, 1, 3]
0	0xbfdb92c645174bc2	-0.43083340403716985
1	0x3fa2ba7ad5f63f1c	0.0365789781745873
2	0x3fe0df9358a68038	0.5272919398739822

blocks1.SCINet_Tree.SCINet_Tree_odd.SCINet_Tree_odd.workingblock.interact.level.psi.4.bias f8 [1]
0	0xbfbfa1822d137721	-0.1235581741379659

blocks1.SCINet_Tree.SCINet_Tree_odd.SCINet_Tree_odd.workingblock.interact.level.P.1.weight f8 [1, 1, 5]
0	0xbfbeae540641b120	-0.11984753754376642
1	0xbfc7d7160fa7af05	-0.18625140919117925
2	0xbf8089a64a2b3897	-0.00807504571767152
3	0xbfd4b0380f7d9be6	-0.3232555533672311
4	0xbfd465dda3c199e2	-0.3187173937971278

blocks1.SCINet_Tree.SCINet_Tree_odd.SCINet_Tree_odd.workingblock.interact.level.P.1.bias f8 [1]
0	0xbfd4a678bbb2b791	-0.3226606209744825

blocks1.SCINet_Tree.SCINet_Tree_odd.SCINet_Tree_odd.workingblock.interact.level.P.4.weight f8 [1, 1, 3]
0	0xbfc082e1ea07ee5f	-0.1289942162255668
1	0x3fdfc7f44b9eff1a	0.49657924065466974
2	0xbfd6eab688202a16	-0.35807574552078003

blocks1.SCINet_Tree.SCINet_Tree_odd.SCINet_Tree_odd.workingblock.interact.level.P.4.bias f8 [1]
0	0x3fd1e168e303abf8	0.27938291711205876

blocks1.SCINet_Tree.SCINet_Tree_odd.SCINet_Tree_odd.workingblock.interact.level.U.1.weight f8 [1, 1, 5]
0	0x3fb7bb3d359ccb7b	0.092700791920647
1	0xbfd0a80e57d51b7b	-0.2602573259104514
2	0x3fcf8f26525d3d44	0.24655608197870482
3	0xbf88ddedc4f446db	-0.012142045567574858
4	0xbfc6a0a61e4800ef	-0.17677761534287792

blocks1.SCINet_Tree.SCINet_Tree_odd.SCINet_Tree_odd.workingblock.interact.level.U.1.bias f8 [1]
0	0x3fa5f91c09e05213	0.0429161798530552

blocks1.SCINet_Tree.SCINet_Tree_odd.SCINet_Tree_odd.workingblock.interact.level.U.4.weight f8 [1, 1, 3]
0	0xbfd3d4cc7da913ac	-0.3098632075455565
1	0xbfd55e8d5e17d9fc	-0.3338960093382466
2	0xbfb0d39d7eb7ec50	-0.06572899192535542

blocks1.SCINet_Tree.SCINet_Tree_odd.SCINet_Tree_odd.workingblock.interact.level.U.4.bias f8 [1]
0	0xbfc73f3e2b8e98da	-0.18161751868064507

blocks1.SCINet_Tree.SCINet_Tree_odd.SCINet_Tree_even.workingblock.interact.level.phi.1.weight f8 [1, 1, 5]
0	0x3fb8da15cf944106	0.09707771604394475
1	0x3fb950ae51efd5e9	0.09888734341060225
2	0x3fa7a27a548334a9	0.04616148263594628
3	0xbfda45be22fbac19	-0.41050675789182517
4	0xbfd13872eebc391e	-0.26907037080754204

blocks1.SCINet_Tree.SCINet_Tree_odd.SCINet_Tree_even.workingblock.interact.level.phi.1.bias f8 [1]
0	0xbfc5349a76ee73b0	-0.1656678276748642

blocks1.SCINet_Tree.SCINet_Tree_odd.SCINet_Tree_even.workingblock.interact.level.phi.4.weight f8 [1, 1, 3]
0	0xbfa0b6d627e6d84d	-0.032644932146852136
1	0xbfc78217512541a4	-0.18365756475624295
2	0xbfc62e9473694ca0	-0.1732965053111899

blocks1.SCINet_Tree.SCINet_Tree_odd.SCINet_Tree_even.workingblock.interact.level.phi.4.bias f8 [1]
0	0x3fc3f59b8c310957	0.15593284936228244

blocks1.SCINet_Tree.SCINet_Tree_odd.SCINet_Tree_even.workingblock.interact.level.psi.1.weight f8 [1, 1, 5]
0	0x3fd9ed90136884f4	0.4051246823820087
1	0x3f986f23575d54d5	0.023861458022413757
2	0xbfc8ac33bb3e5e3b	-0.1927551903033747
3	0x3fbd5f0f06e439c4	0.11473173063516301
4	0xbfbb5cd8366faa9d	-0.1068854458714363

blocks1.SCINet_Tree.SCINet_Tree_odd.SCINet_Tree_even.workingblock.interact.level.psi.1.bias f8 [1]
0	0x3fd48dc9f2a3b2ce	0.321154105141244

blocks1.SCINet_Tree.SCINet_Tree_odd.SCINet_Tree_even.workingblock.interact.level.psi.4.weight f8 [1, 1, 3]
0	0xbfe2348a68d0cfb4	-0.56891365501223
1	0xbfe1304b70ab8fbf	-0.5371453476513962
2	0x3f9827aed78974f4	0.02358887854130827

blocks1.SCINet_Tree.SCINet_Tree_odd.SCINet_Tree_even.workingblock.interact.level.psi.4.bias f8 [1]
0	0x3fc60e58a243ef75	0.17231281207193275

blocks1.SCINet_Tree.SCINet_Tree_odd.SCINet_Tree_even.workingblock.interact.level.P.1.weight f8 [1, 1, 5]
0	0x3fd8a986d904b8f1	0.3853470916100284
1	0xbfb29f227ef9dd69	-0.07274070358277175
2	0xbfca0cc48d680b6c	-0.20351464180574952
3	0xbfca9cf1de0b446d	-0.2079145750235826
4	0x3fa2c47b8ea30f6e	0.03665529361890561

blocks1.SCINet_Tree.SCINet_Tree_odd.SCINet_Tree_even.workingblock.interact.level.P.1.bias f8 [1]
0	0xbfb841037963e938	-0.09474202836637324

blocks1.SCINet_Tree.SCINet_Tree_odd.SCINet_Tree_even.workingblock.interact.level.P.4.weight f8 [1, 1, 3]
0	0x3fdf1eb16fb71a88	0.4862483588189339
1	0x3fd164ea7471e4e3	0.2717844140202727
2	0x3fdad3eebc58112b	0.4191853369996063

blocks1.SCINet_Tree.SCINet_Tree_odd.SCINet_Tree_even.workingblock.interact.level.P.4.bias f8 [1]
0	0xbfd244e7380aea01	-0.2854555175105418

blocks1.SCINet_Tree.SCINet_Tree_odd.SCINet_Tree_even.workingblock.interact.level.U.1.weight f8 [1, 1, 5]
0	0xbfda6486d0d7ceca	-0.4123856582147992
1	0x3f9f082a6cd56771	0.030304587261844988
2	0x3fdaf9d2aed1b368	0.4214979846208764
3	0x3fd8184c9ac4eaf2	0.37648310770207083
4	0xbfcd45dd7b500d17	-0.22869461556556622

blocks1.SCINet_Tree.SCINet_Tree_odd.SCINet_Tree_even.workingblock.interact.level.U.1.bias f8 [1]
0	0x3fb02a0cf68b9e69	0.06314164179968319

blocks1.SCINet_Tree.SCINet_Tree_odd.SCINet_Tree_even.workingblock.interact.level.U.4.weight f8 [1, 1, 3]
0	0x3fda3173ef83ca7e	0.4092683638583948
1	0xbf9cbe104d0e2c2b	-0.028068785384260202
2	0x3fcf4bb0c6286364	0.2444973914687366

blocks1.SCINet_Tree.SCINet_Tree_odd.SCINet_Tree_even.workingblock.interact.level.U.4.bias f8 [1]
0	0xbf8ef996dc1a07c2	-0.015124491302461854

blocks1.SCINet_Tree.SCINet_Tree_even.workingblock.interact.level.phi.1.weight f8 [1, 1, 5]
0	0x3fda768848741a25	0.41348464084186026
1	0xbfb1b1e5c23d7b5c	-0.06912075035277837
2	0x3f981a1dc57c222d	0.02353712575771476
3	0xbfcccddaf522b923	-0.22503220529092358
4	0xbfc3593d4fc516b9	-0.15116087336553166

blocks1.SCINet_Tree.SCINet_Tree_even.workingblock.interact.level.phi.1.bias f8 [1]
0	0x3fd323d701510076	0.29906249168926224

blocks1.SCINet_Tree.SCINet_Tree_even.workingblock.interact.level.phi.4.weight f8 [1, 1, 3]
0	0xbfc9171b7f8d6bbf	-0.19601768234391945
1	0xbfa835f1fbe723fa	-0.04728656959520801
2	0xbfd81c5424f4795c	-0.37672904595264867

blocks1.SCINet_Tree.SCINet_Tree_even.workingblock.interact.level.phi.4.bias f8 [1]
0	0x3fcfd8b9894c8493	0.24880141452834845

blocks1.SCINet_Tree.SCINet_Tree_even.workingblock.interact.level.psi.1.weight f8 [1, 1, 5]
0	0x3fc3f9de561a3762	0.15606288150996322
1	0x3f985163be3f4003	0.023747976767310785
2	0x3fc5cd254f3a2fb7	0.1703230511524205
3	0xbfdbadbf72b731ad	-0.43247972681708796
4	0x3fb55bf69828b093	0.08343449797456719

blocks1.SCINet_Tree.SCINet_Tree_even.workingblock.interact.level.psi.1.bias f8 [1]
0	0xbfd34621da40459a	-0.30115553201275136

blocks1.SCINet_Tree.SCINet_Tree_even.workingblock.interact.level.psi.4.weight f8 [1, 1, 3]
0	0x3fd9d382e6384caf	0.4035346267930419
1	0xbfce12fb731b2278	-0.23495429153833292
2	0xbf9afabb55415ba5	-0.026347090796061363

blocks1.SCINet_Tree.SCINet_Tree_even.workingblock.interact.level.psi.4.bias f8 [1]
0	0xbf90e215c44d59de	-0.01648744593270545

blocks1.SCINet_Tree.SCINet_Tree_even.workingblock.interact.level.P.1.weight f8 [1, 1, 5]
0	0xbfc08882e16674d0	-0.12916599279279817
1	0xbfc80f16ed2b77f9	-0.1879604967170392
2	0xbfd16d61605784c4	-0.2723010483587809
3	0x3fd92434daccb1cc	0.39283486716410887
4	0x3fb6a5bb500d27d3	0.0884663649023019

blocks1.SCINet_Tree.SCINet_Tree_even.workingblock.interact.level.P.1.bias f8 [1]
0	0xbfd1e43ac3e6458a	-0.2795550263482133

blocks1.SCINet_Tree.SCINet_Tree_even.workingblock.interact.level.P.4.weight f8 [1, 1, 3]
0	0x3fc71cd1bccdbd2f	0.18056699484757519
1	0x3f9edace4f4c6471	0.030131553258887004
2	0xbfd2a14fa4e95874	-0.2910956488098073

blocks1.SCINet_Tree.SCINet_Tree_even.workingblock.interact.level.P.4.bias f8 [1]
0	0xbfddd77fe71f9349	-0.466278053003681

blocks1.SCINet_Tree.SCINet_Tree_even.workingblock.interact.level.U.1.weight f8 [1, 1, 5]
0	0x3f848aec6fa9bf7d	0.010030600698172293
1	0xbfd135455c864cbe	-0.2688764003334646
2	0x3fd6bdbd6ec19660	0.35533080879245027
3	0x3f982d0f2046f55f	0.023609386773150273
4	0xbfc47082e65328ea	-0.15968357321100451

blocks1.SCINet_Tree.SCINet_Tree_even.workingblock.interact.level.U.1.bias f8 [1]
0	0xbfca9e24b91b3e44	-0.20795115507506712

blocks1.SCINet_Tree.SCINet_Tree_even.workingblock.interact.level.U.4.weight f8 [1, 1, 3]
0	0xbfd93e8516e8819f	-0.39444091069347026
1	0x3fd548f8883d5d71	0.3325787859407319
2	0xbfb395196cf2519b	-0.07649382505252904

blocks1.SCINet_Tree.SCINet_Tree_even.workingblock.interact.level.U.4.bias f8 [1]
0	0xbfd07f063c427fb1	-0.2577529514765003

blocks1.SCINet_Tree.SCINet_Tree_even.SCINet_Tree_odd.workingblock.interact.level.phi.1.weight f8 [1, 1, 5]
0	0xbfd69f383902368d	-0.3534679943776176
1	0xbfc0da712d4fc8c5	-0.13166632378085388
2	0xbfc2ab156f148a1b	-0.14584606098021954
3	0xbfd40d7b096f5eeb	-0.3133227913035472
4	0x3fdbbdbee64b51ad	0.43345615853948055

blocks1.SCINet_Tree.SCINet_Tree_even.SCINet_Tree_odd.workingblock.interact.level.phi.1.bias f8 [1]
0	0x3fc94b08c74d9948	0.1976023648414389

blocks1.SCINet_Tree.SCINet_Tree_even.SCINet_Tree_odd.workingblock.interact.level.phi.4.weight f8 [1, 1, 3]
0	0x3fabfca77349d54b	0.054661972831051196
1	0xbfe1b29f4328c8d8	-0.5530544578271259
2	0x3fb1b29905a58319	0.06913143527846123

blocks1.SCINet_Tree.SCINet_Tree_even.SCINet_Tree_odd.workingblock.interact.level.phi.4.bias f8 [1]
0	0xbfd7f0bb0a97d00c	-0.37406803163980906

blocks1.SCINet_Tree.SCINet_Tree_even.SCINet_Tree_odd.workingblock.interact.level.psi.1.weight f8 [1, 1, 5]
0	0xbfd6edf30b1ff0f0	-0.35827327810672127
1	0xbfd9adce7941ebb9	-0.4012333091883949
2	0xbfc3d9cd7e71ff23	-0.15508431123816377
3	0x3fc65ac797f5b161	0.17464537544163775
4	0x3fbafc42b1e09751	0.1054116901655935

blocks1.SCINet_Tree.SCINet_Tree_even.SCINet_Tree_odd.workingblock.interact.level.psi.1.bias f8 [1]
0	0xbfcedf96b23dbf63	-0.241198384315335

blocks1.SCINet_Tree.SCINet_Tree_even.SCINet_Tree_odd.workingblock.interact.level.psi.4.weight f8 [1, 1, 3]
0	0x3fc6fe4392d820c0	0.17963452024583226
1	0xbfd1a90765b424a4	-0.2759417050552406
2	0x3fbf3dae994a0e0d	0.12203494303144442

blocks1.SCINet_Tree.SCINet_Tree_even.SCINet_Tree_odd.workingblock.interact.level.psi.4.bias f8 [1]
0	0xbfd92476f8074446	-0.39285063001176856

blocks1.SCINet_Tree.SCINet_Tree_even.SCINet_Tree_odd.workingblock.interact.level.P.1.weight f8 [1, 1, 5]
0	0x3fd4cbeacb3b12e2	0.3249461159396515
1	0xbfcea125def9a05a	-0.2392928446527119
2	0x3fafcd25cbcb462d	0.062112027289583295
3	0x3fcc7b0d7aa59bad	0.2225052689420556
4	0xbfd08a5c7eaba7b9	-0.2584449040428996

blocks1.SCINet_Tree.SCINet_Tree_even.SCINet_Tree_odd.workingblock.interact.level.P.1.bias f8 [1]
0	0xbfbef4aece0e22ec	-0.1209210637154105

blocks1.SCINet_Tree.SCINet_Tree_even.SCINet_Tree_odd.workingblock.interact.level.P.4.weight f8 [1, 1, 3]
0	0x3fe258f06b0b9ea3	0.573356827805544
1	0xbfd78d8b7c82f667	-0.3680142131741832
2	0xbf986b198d92deb9	-0.023846053377126284

blocks1.SCINet_Tree.SCINet_Tree_even.SCINet_Tree_odd.workingblock.interact.level.P.4.bias f8 [1]
0	0x3fdde083f9710854	0.46682834014439334

blocks1.SCINet_Tree.SCINet_Tree_even.SCINet_Tree_odd.workingblock.interact.level.U.1.weight f8 [1, 1, 5]
0	0xbfa521c0ba47aa0c	-0.04127313875126867
1	0xbf7813bbddcc37af	-0.005878194668879218
2	0xbfa8856600083460	-0.04789274931327081
3	0x3f91068d80e80963	0.01662655925066171
4	0x3fb93adb946de779	0.09855434774172335

blocks1.SCINet_Tree.SCINet_Tree_even.SCINet_Tree_odd.workingblock.interact.level.U.1.bias f8 [1]
0	0x3fc0365815ee1dfa	0.12665844984824998

blocks1.SCINet_Tree.SCINet_Tree_even.SCINet_Tree_odd.workingblock.interact.level.U.4.weight f8 [1, 1, 3]
0	0x3fa03dd732d6569a	0.031721806483955464
1	0x3fd62bd6bbc929d7	0.3464257081838275
2	0x3fc8762f598b8dbe	0.19110671875306012

blocks1.SCINet_Tree.SCINet_Tree_even.SCINet_Tree_odd.workingblock.interact.level.U.4.bias f8 [1]
0	0xbfd8602dc068341b	-0.38087028302908416

blocks1.SCINet_Tree.SCINet_Tree_even.SCINet_Tree_even.workingblock.interact.level.phi.1.weight f8 [1, 1, 5]
0	0xbfda44f59a1788ed	-0.4104589466861757
1	0x3fa32d74a95f2b18	0.03745617454077016
2	0x3fce47dba5e617e7	0.23656793213393643
3	0x3fbbe2ab0e5e2a7e	0.10892743206765407
4	0xbfb3bd9189b86e15	-0.07711133587184123

blocks1.SCINet_Tree.SCINet_Tree_even.SCINet_Tree_even.workingblock.interact.level.phi.1.bias f8 [1]
0	0x3fa0d99ddc9735ca	0.03291028325802932

blocks1.SCINet_Tree.SCINet_Tree_even.SCINet_Tree_even.workingblock.interact.level.phi.4.weight f8 [1, 1, 3]
0	0xbfe1bb3d94bd698c	-0.5541065125537883
1	0xbfc21382978c277c	-0.14122040176181005
2	0x3fb2a3126f55b903	0.07280078142295925

blocks1.SCINet_Tree.SCINet_Tree_even.SCINet_Tree_even.workingblock.interact.level.phi.4.bias f8 [1]
0	0x3fb91c75b43b7b5a	0.098090511800803

blocks1.SCINet_Tree.SCINet_Tree_even.SCINet_Tree_even.workingblock.interact.level.psi.1.weight f8 [1, 1, 5]
0	0xbfbac381a7302050	-0.10454569179285156
1	0x3fcd2f28a7be1d72	0.22800167265470922
2	0xbfb7d2fe7a71ca60	-0.09306326379172836
3	0x3f959d1d043da1d7	0.021107152351221927
4	0xbfccd4e0a2460b51	-0.22524650500789759

blocks1.SCINet_Tree.SCINet_Tree_even.SCINet_Tree_even.workingblock.interact.level.psi.1.bias f8 [1]
0	0xbfd841a1ce0b5032	-0.37900586244109313

blocks1.SCINet_Tree.SCINet_Tree_even.SCINet_Tree_even.workingblock.interact.level.psi.4.weight f8 [1, 1, 3]
0	0x3fd9a6d0673bf7c4	0.40080652314634
1	0xbfd371a25e5c53f2	-0.30381068434627345
2	0x3fdf385d56cdae81	0.48781522251986337

blocks1.SCINet_Tree.SCINet_Tree_even.SCINet_Tree_even.workingblock.interact.level.psi.4.bias f8 [1]
0	0xbfe1b24ebc8abef4	-0.5530160601101373

blocks1.SCINet_Tree.SCINet_Tree_even.SCINet_Tree_even.workingblock.interact.level.P.1.weight f8 [1, 1, 5]
0	0xbfb1f6c92272429b	-0.07017190066313576
1	0x3fd1b18e8d65bbb2	0.2764622097810686
2	0xbfd8bffe806e20d4	-0.38671839277277553
3	0xbf935e0395fd1282	-0.018913322476935786
4	0x3fc706a11ac93145	0.1798898106375281

blocks1.SCINet_Tree.SCINet_Tree_even.SCINet_Tree_even.workingblock.interact.level.P.1.bias f8 [1]
0	0x3fcdf39ee4f6c43a	0.2339972131717632

blocks1.SCINet_Tree.SCINet_Tree_even.SCINet_Tree_even.workingblock.interact.level.P.4.weight f8 [1, 1, 3]
0	0xbfc376c146f26d91	-0.15206161464889736
1	0x3f7f87cffd4d79d6	0.007697880228845174
2	0xbfb1bfa37262e3b4	-0.06933042090066871

blocks1.SCINet_Tree.SCINet_Tree_even.SCINet_Tree_even.workingblock.interact.level.P.4.bias f8 [1]
0	0x3fbd49ed7a72ad60	0.11440929641201114

blocks1.SCINet_Tree.SCINet_Tree_even.SCINet_Tree_even.workingblock.interact.level.U.1.weight f8 [1, 1, 5]
0	0xbfac5b6aa0c17861	-0.05538495266294841
1	0x3fc3fbf259c53048	0.15612630255998483
2	0xbfcd637ca8cb0f0b	-0.2295986007867373
3	0xbf675abdc23556e5	-0.002850885984723261
4	0xbfca7d792f95c5b3	-0.2069541437481753

blocks1.SCINet_Tree.SCINet_Tree_even.SCINet_Tree_even.workingblock.interact.level.U.1.bias f8 [1]
0	0xbfd6a9c6278d52e2	-0.35411218512062537

blocks1.SCINet_Tree.SCINet_Tree_even.SCINet_Tree_even.workingblock.interact.level.U.4.weight f8 [1, 1, 3]
0	0xbfcebaa3d03880cf	-0.24007079760577318
1	0x3fd54ca91c4f0f3a	0.33280399097951696
2	0x3fc51299930dd5de	0.16463012390492698

blocks1.SCINet_Tree.SCINet_Tree_even.SCINet_Tree_even.workingblock.interact.level.U.4.bias f8 [1]
0	0x3fd177cafbd333ef	0.2729365786770463

projection1.weight f8 [24, 48, 1]
0	0xbfa0907dc4bdcb20	-0.03235238100650961
1	0xbfb3055cb59eb2c0	-0.07430056985931355
2	0x3fbc59d4915eaf3a	0.11074570225781324
3	0xbfb0d1e9f9b8332e	-0.06570303293865429
4	0x3f9b181973d7c980	0.02645911950635016
5	0x3f99b73455caca64	0.025112931953751874
6	0xbfaae2b0c75fbea6	-0.052510761582991436
7	0x3fa50ef861067e92	0.041129838794629184
8	0x3fa58b3f60e4ad0e	0.04207799966601487
9	0x3fb209eefdebfa18	0.07046407412779165
10	0x3f78250d7f8d9c44	0.005894711234623765
11	0xbfae5889792edf1e	-0.05926923374448577
12	0xbf91b0fedaad2c9c	-0.017276746842338583
13	0xbf8b221722bd50f8	-0.01324861597792236
14	0xbf18b2fe545a8148	-9.421994499315023e-05
15	0x3f70ceb10754b134	0.004103366392240116
16	0xbfb210c8da94baba	-0.070568612446304
17	0x3fac5106cc0dca07	0.05530568352596182
18	0xbf8755c86c92bfff	-0.011394086659805678
19	0x3fa92bf7e9e297ac	0.04916357736628582
20	0x3f988f989c62857c	0.02398527578828212
21	0xbf874a0f45ea7eb8	-0.011371726342360375
22	0xbfbfc55a4fdfcd8f	-0.12410511446051074
23	0x3fb0d510c089a1fc	0.06575112057328875
24	0x3fa24a54fa12b04d	0.03572335770272215
25	0xbfa32dede2ebcd6f	-0.03745978732140542
26	0xbf8f5fffa947afcf	-0.01531982169486659
27	0xbfa0748ada583990	-0.03213914790477468
28	0x3fa81e83cfd6ef9c	0.04710781013588347
29	0xbf814ccca98aeb89	-0.008447264598876252
30	0xbf893f4cf9d0f0d1	-0.012327767728600144
31	0xbfa5d357f07977f7	-0.04262804804305625
32	0x3fa6ef4b16a67507	0.04479441310398085
33	0x3f6f95e33c5cbed1	0.00385565168371458
34	0xbf652ecbcdcc9caa	-0.0025857906861293705
35	0x3fb1dc9a17568809	0.06977236814285005
36	0xbfae95d1d3d79002	-0.059736783132194674
37	0xbf972ac07661aaf0	-0.022624022698816526
38	0x3fbf5bf25058aad2	0.12249674283581705
39	0xbf9a2ad912b7eb10	-0.02555407692669137
40	0x3fad53ddf3be8a9e	0.057280479434912865
41	0xbfa396ec68b576a8	-0.03826082971748451
42	0x3f8f87deb28fe3d5	0.015395870041162421
43	0x3fba35a510c766a7	0.10238105449334488
44	0x3fb1ce2de83eb7da	0.06955229682964106
45	0x3fb5de46eda46e67	0.08542292882742118
46	0x3fc0b28907494e93	0.130448463971892
47	0x3fc4a01b7add016a	0.16113608836350163
48	0x3fa48a5578d1798f	0.0401179037078122
49	0x3f4bc0e2b539f7aa	0.000846968362068647
50	0xbf99c78f95c76253	-0.025175326840186262
51	0xbfa5f63bb7d0da38	-0.04289423579068735
52	0xbfa147428b5f8bc5	-0.03374679519017535
53	0x3faf2e2fd420c06a	0.06089925255253166
54	0x3fb111ed4a2c3287	0.06667979298453917
55	0xbfb1078d6723fbac	-0.06652148979263356
56	0x3fab4a96d8e7f39e	0.05330344579485956
57	0xbfa857ba2ae9c3b3	-0.04754430555193014
58	0xbf95466959718f53	-0.020776411136821448
59	0x3f9037c7466aed65	0.015837777779535673
60	0xbf77e421b37d4bb7	-0.0058327976656355396
61	0xbf934293f29217c8	-0.018808662109698365
62	0x3f92f8d6636d8d8d	0.018527364557838367
63	0xbfb24cc63cda3efb	-0.07148398385674774
64	0x3fb29e02f8b1605d	0.07272356578448709
65	0x3fb112b69328b15c	0.06669179051158863
66	0x3fa7b5d4c35316ca	0.04630913624127471
67	0xbfb191d548bc0398	-0.06863148713820377
68	0x3f94e98539262425	0.02042205964383838
69	0xbfa4f8b96ddd6286	-0.04096011606333598
70	0xbfa9535b8511ed7e	-0.04946409224882141
71	0x3f93699fdab9719f	0.01895761272895557
72	0xbfb52542ac881d61	-0.08259979927253404
73	0x3fbf58f31a88e2c1	0.12245101354427403
74	0xbf9920af9871b281	-0.02453874938912515
75	0x3fa85576eeb141d2	0.047527042996651794
76	0xbfb634d5f8ca4e73	-0.08674371074658342
77	0x3fa46c354c5920f5	0.039888063020557064
78	0x3fbbcf3778d44b26	0.10863062572415724
79	0x3f87df317d6c9c59	0.011656176223892855
80	0xbfb8528423cfb16c	-0.09500909685420361
81	0xbfa274b0fbbbdb5a	-0.036046534280038414
82	0xbfa4586b11230707	-0.039737077562234595
83	0x3fb6b2d5c82b2a3d	0.08866630684784922
84	0x3f992fe7c3133742	0.02459680679458321
85	0x3f939de3ef751236	0.01915699147254398
86	0xbf944d6e4b5ab8a8	-0.019826625203386655
87	0x3f9f0befc0ee30da	0.030318971777476424
88	0xbf8c88c76b39c8ef	-0.013932760200280529
89	0xbf91841306055bdf	-0.017105386011589615
90	0x3fb20cbd1941ef8c	0.07050687662734684
91	0x3fad7be6bf5ad36d	0.05758591733812222
92	0x3fa8b0b67b506d51	0.04822321181583312
93	0x3fbbb0ff30189dfb	0.10816950725767775
94	0x3fd09dbde64f3bf2	0.25962779513514456
95	0x3fb0546fc954649e	0.06378840127253446
96	0x3fa6e600b6eb3130	0.044723532036729075
97	0xbfa6caf9d1ec3fe4	-0.044517332911823165
98	0xbf929ea35088c68e	-0.018183280744955392
99	0x3fa7d7af58899d5b	0.046567420537764824
100	0xbfb1b31bd3f858a8	-0.0691392319207319
101	0x3faf502e4ba82430	0.06115860627694081
102	0xbfaeda9bd643f26e	-0.06026160231156018
103	0x3fa8c20886893cfe	0.04835535661970346
104	0x3f7b9872f00a7392	0.006737183547241525
105	0xbfa09a22a391ba1f	-0.03242595907874012
106	0x3f95fc226d3206e9	0.02146962920642795
107	0x3f65c6fa7789bbe6	0.0026583568508651177
108	0x3fa324214674b857	0.03738502488191447
109	0x3f7fc3dc479968d7	0.007755146472471184
110	0xbfa3165be73cfc78	-0.03727996061069744
111	0xbfad096410940e77	-0.05671227171299347
112	0x3f8d594f55ba780b	0.01433050136921212
113	0xbf91968e997140a7	-0.017175891986256044
114	0x3f9e8bb9ed7b90ae	0.029829888458053837
115	0xbfad7a8f2f4757d1	-0.05757567836887712
116	0x3fbbdb5624695036	0.10881555928182327
117	0x3fac9b9eb060d5e9	0.055874785452413374
118	0xbfb08cebef6c7a38	-0.06465029330545569
119	0xbfb1b1e9f4f4acf8	-0.06912100057950343
120	0xbf8f5c8520723463	-0.01531318669574428
121	0xbfa25e39be28857c	-0.035875133955651756
122	0xbfa77c628b0e6aa9	-0.04587085673775466
123	0x3fb1ba4bdd64eac3	0.06924890666133891
124	0x3fb59771f79b414e	0.08434212012366979
125	0xbf944e89b616552b	-0.01983084844467446
126	0xbfa1e3447683655d	-0.03493703791327605
127	0x3f932727c4836495	0.01870405327722276
128	0xbf95793db9b355ef	-0.02097031064916693
129	0x3f797fdbf0a07dcb	0.00622545160334149
130	0xbfa82d6412a0eed7	-0.04722130515480465
131	0x3fa3113059361329	0.037240515604059894
132	0xbfa7acfb2f509291	-0.04624161675045458
133	0x3fb88fca534f277a	0.09594406637111588
134	0xbf5c02f11fd29605	-0.0017096857766686357
135	0x3fa1ba9fbbbcde58	0.03462695280762479
136	0x3fb51791fed523ff	0.08239090415476368
137	0x3fb9c3a15ed326bb	0.10064133229311782
138	0xbfb4b5d3f11164e8	-0.08089947352836513
139	0x3fb4f00d633a693b	0.08178790733874035
140	0x3f9c57e41e047e9f	0.027679027874113356
141	0x3faf249bd5ca9a29	0.06082617745169145
142	0x3fca94be2a3af926	0.2076642709925604
143	0x3fbf865c7fcb9f90	0.12314394111638038
144	0x3fab21d8ff399ae5	0.052992612033269805
145	0x3fa1451cd2133aa4	0.033730412143645055
146	0xbfb5b68a6ac564db	-0.084816599909931
147	0x3fa22d8449db7466	0.035503515258576354
148	0x3f992d21e63bb666	0.02458622901661158
149	0xbfa0df86717e3fea	-0.03295536170401177
150	0xbfadb8c9d9ff7ba5	-0.058050449238854974
151	0x3fa6a4b3c862ccbc	0.044225328646825685
152	0xbfa4d67c6a41e1b4	-0.040698898287647195
153	0x3fb52f7693194381	0.0827554806831028
154	0x3f93d40bc74363b7	0.019363578831732755
155	0x3f73819ced58d1a6	0.004762280460955648
156	0xbfadf4bcc7651f7f	-0.05850782331486836
157	0x3f66797bde3e6c26	0.0027434748935326768
158	0x3f9639578d2ba030	0.02170311736236402
159	0xbf87f12aebcfef34	-0.011690459557932444
160	0x3faf90eb0b80ace9	0.06165251269734446
161	0xbfa135e6415df3d4	-0.03361434505402597
162	0x3fa49a565404dbbe	0.040239999538634205
163	0xbf90bb2618dca939	-0.01633891607995361
164	0xbf7480e187418417	-0.005005722971049862
165	0x3fa8c7dfbcbf02ae	0.048399917402553214
166	0xbfb5c417bff0401e	-0.08502338825223929
167	0x3fb6fe430755c4f3	0.08981722764089621
168	0xbfb627c8446362b9	-0.08654452962526706
169	0xbfb5fc036c5e13b3	-0.08587666888895633
170	0x3fa44d25b982720e	0.03965108766098889
171	0xbf91dcc9367e3e9f	-0.017443794203755855
172	0x3fab90bf3df1465b	0.05383870726712977
173	0x3fb76c0455223dad	0.09149195745907575
174	0xbfb5f6eb7067bc17	-0.08579894537227549
175	0x3f693670b83e5b42	0.0030777169758481613
176	0xbf9bd74f22b7b1be	-0.02718852662467141
177	0xbf81d468baea6a13	-0.008705919460500621
178	0x3fa13d5a1f6ce4bd	0.033671203933815154
179	0x3fa3fcda727c7d38	0.03903849265611331
180	0xbf7cc9eb912e3bd5	-0.0070285035934735856
181	0x3fb17f69fc51420b	0.06835043344586482
182	0xbf7e02d6b7518242	-0.00732692597839041
183	0xbf7f8e52946ecdc4	-0.00770408876171608
184	0x3fb3fef61cb26e74	0.07810915184603023
185	0x3fa2959f1dade246	0.03629777180953346
186	0x3fb4cfb6d9597bc2	0.081294467986921
187	0x3f75b3d5259f88aa	0.005298454861959604
188	0x3fad09a63519e335	0.05671424291808195
189	0x3f770e3fa55f7a48	0.00562882291521178
190	0x3fb104b4b9ad95a9	0.06647805722385293
191	0x3fce9c66f1e59c48	0.23914801417706344
192	0x3faad67358fae05b	0.05241737805539578
193	0x3f3a23316f63f4e1	0.00039882618820270664
194	0xbfb9480ebbabf29c	-0.09875576097324273
195	0x3fb0fd7f5df3e9d2	0.06636806529778674
196	0x3f908492f6054a6e	0.01613072992888436
197	0xbf7743c57a1e7294	-0.005679866213452418
198	0xbfad53c11ee9fb5d	-0.057279620193176874
199	0xbfa496f687643f92	-0.04021425631265098
200	0x3fbaf6f9b3423faf	0.10533104540286219
201	0xbf8cd34db0ae19de	-0.014074904398296558
202	0x3f9785187f8d7db7	0.02296865728874106
203	0x3fa16c610d0bedc9	0.0340299919534704
204	0xbfaf11dc073a16f2	-0.0606831320592799
205	0x3f9d6fafc93537cf	0.028746363311533515
206	0x3fa6d30c3d7aaf4b	0.04457891703108759
207	0xbf7d170f55659d82	-0.007102069756320774
208	0x3f836b404a76fbf2	0.009481909058079527
209	0xbfac563a9615611f	-0.055345373936406476
210	0xbfb20b7f668cb5e4	-0.07048794034627509
211	0x3f9e8febc530d615	0.02984588995987821
212	0x3f9c851b60ad78e7	0.027851512695058835
213	0x3fa3fe0be63eb4a2	0.03904759584052299
214	0xbf9cf9085c8328ce	-0.028293734213357173
215	0xbfa0a9f9ebaa834c	-0.032546815889196695
216	0xbf9b4988e9021a62	-0.02664770052117616
217	0xbf5f6281056eeb2d	-0.0019155750248802215
218	0x3faaa12b6c3f40a3	0.05201087662101258
219	0x3f8d4ac23f97d466	0.014302747312266283
220	0xbf9b3760c2537822	-0.026578437672348916
221	0x3f981b34b497e323	0.023541282198468082
222	0xbfb8003a067a8694	-0.0937534585778173
223	0x3fb461cadaaa69dd	0.07961719358937765
224	0xbfad1a1a311bea96	-0.056839769835240236
225	0x3fb59d469f233f20	0.0844310892600757
226	0xbfaafbf695b7330d	-0.052703576827843525
227	0xbfb0c9febed78e1d	-0.06558220061520399
228	0x3fa4b4aed41c81ce	0.04044100131273219
229	0x3fa2c5c88678e97c	0.03666521684177135
230	0x3fb8cd8e4beb66e0	0.09688653329376562
231	0x3fb334ebed3f77fd	0.07502626936135921
232	0x3f8ab11d5908c5e5	0.013033131866083411
233	0xbf7f1e945c813fa6	-0.007597522293579495
234	0xbf93ed7571c75f7b	-0.019460520810610654
235	0x3fa065a5f404eecd	0.03202551463843193
236	0x3fa3a389b2a2a58b	0.038357070022651284
237	0x3fbf93678b7e3b12	0.12334296374886503
238	0x3fb7dd165c5948af	0.09321727518662003
239	0x3fcc1dad9913300a	0.21965570425379638
240	0xbf90e7cc52d93e59	-0.016509239727666578
241	0x3fa63204a0a5a0f4	0.043350357637622766
242	0xbfa63de2fd256be3	-0.04344090786135959
243	0xbfab8a67bb3f44c0	-0.05379032288295482
244	0x3fb2f1b851033bf9	0.07400085428092486
245	0x3f956000a847a6f1	0.020874033232678838
246	0x3f7ce699dc1cc57b	0.007055855765245918
247	0x3faebd74dc2c329c	0.06003918826727281
248	0x3f8bdd0c4309e943	0.013605209155902137
249	0xbfa6b714ed1a8c89	-0.04436555284817085
250	0xbfa669f3dce06695	-0.04377710410353789
251	0xbfa4329a3f17e38b	-0.03944856662923887
252	0xbf709d9b749d6b7d	-0.004056555984642493
253	0x3fa5d10741e4fd7d	0.042610384744416564
254	0x3f91ff674af80758	0.017575849486099443
255	0xbfa457360ba56f29	-0.039727868005427
