exp/data_checkpoints/Model_hs1_bs8_e1/checkpoint.pth (torch, 100025 bytes, 114 tensors)

inv_timescales f8 [1]
0	0x3ff0000000000000	1.0

blocks1.SCINet_Tree.workingblock.interact.level.phi.1.weight f8 [1, 1, 7]
0	0x3fbb8a10206eebb3	0.10757542411640379
1	0x3fa94f045bef559f	0.0494309770798893
2	0x3fd3a2e81c484f25	0.30681803476294284
3	0x3f759e912b6a12e3	0.005278174465847415
4	0x3fd2cc57a9c6c019	0.2937220724079466
5	0xbfb6023f0ed5d09f	-0.0859717761248384
6	0xbfab814d7a1c1079	-0.05372087588878655

blocks1.SCINet_Tree.workingblock.interact.level.phi.1.bias f8 [1]
0	0xbfd90859208c4270	-0.3911345308161236

blocks1.SCINet_Tree.workingblock.interact.level.phi.4.weight f8 [1, 1, 3]
0	0xbfe0fb57ccf844b7	-0.5306815150562646
1	0xbfe0479dcd5c206a	-0.5087422381339028
2	0xbfc74abd431ace3c	-0.18196836258504046

blocks1.SCINet_Tree.workingblock.interact.level.phi.4.bias f8 [1]
0	0xbfbd6d01833e3330	-0.11494454816984212

blocks1.SCINet_Tree.workingblock.interact.level.psi.1.weight f8 [1, 1, 7]
0	0xbfbc44e02f81b55e	-0.1104259601576891
1	0x3fd93f025f1a86c0	0.39447078025305515
2	0x3fba111b50ceac94	0.10182352755389196
3	0xbfa2c549325010dc	-0.03666142214936638
4	0x3f9c0cfb77bab0ee	0.027393273527807453
5	0xbfc5eade66581679	-0.17123012540121232
6	0xbfb9eca8a5f37454	-0.10126737643754896

blocks1.SCINet_Tree.workingblock.interact.level.psi.1.bias f8 [1]
0	0x3fe7d410b9432e1e	0.7446368807226837

blocks1.SCINet_Tree.workingblock.interact.level.psi.4.weight f8 [1, 1, 3]
0	0xbfbfc605846cb3d7	-0.12411531909010819
1	0xbfe07dd18221d86f	-0.5153586904186919
2	0xbfe7e3e8ecc328c5	-0.7465710281624288

blocks1.SCINet_Tree.workingblock.interact.level.psi.4.bias f8 [1]
0	0xbff28b3f925afbfa	-1.1589961735733127

blocks1.SCINet_Tree.workingblock.interact.level.P.1.weight f8 [1, 1, 7]
0	0x3fa39fed9a8d39a6	0.038329529873055976
1	0x3fd12cab4bb6cd21	0.26835138696624666
2	0x3fd9b483be5f9101	0.4016427382578201
3	0xbfa61c557ea3a8b3	-0.04318492098703199
4	0x3fd29560211ab38e	0.2903671572956278
5	0x3fdb9299f800e1df	0.43082284182631086
6	0x3fc2d63cc39b36f5	0.14716300536240792

blocks1.SCINet_Tree.workingblock.interact.level.P.1.bias f8 [1]
0	0xbfe00e278e59f1e8	-0.5017278461742167

blocks1.SCINet_Tree.workingblock.interact.level.P.4.weight f8 [1, 1, 3]
0	0x3fd475a871046b6b	0.3196812728580684
1	0x3fd7089594c04868	0.35989894415354806
2	0x3fd048d62cb7757a	0.2544455944715406

blocks1.SCINet_Tree.workingblock.interact.level.P.4.bias f8 [1]
0	0xbfddafcf0958c5d7	-0.4638555136944808

blocks1.SCINet_Tree.workingblock.interact.level.U.1.weight f8 [1, 1, 7]
0	0x3fd78afb5817ead2	0.36785777666925157
1	0x3f850f3a8a34ad2a	0.010282952635484028
2	0x3fde0c7ed9cf1787	0.46951266546636145
3	0x3f91a13fb7933f0d	0.017216678218402715
4	0x3fcc26df8f552682	0.21993631838477162
5	0xbfd9990c8c22b7ed	-0.3999663704406647
6	0xbfd6b94fb4dad49c	-0.3550605074081632

blocks1.SCINet_Tree.workingblock.interact.level.U.1.bias f8 [1]
0	0xbfd11c2babe1ad33	-0.26734439645106817

blocks1.SCINet_Tree.workingblock.interact.level.U.4.weight f8 [1, 1, 3]
0	0xbfd1398a1a290a3e	-0.26913693003385564
1	0xbfe2d748adb6c3a4	-0.5887797730302862
2	0xbfd6c1690b8dac9b	-0.35555482986701187

blocks1.SCINet_Tree.workingblock.interact.level.U.4.bias f8 [1]
0	0x3fe0d2b36b69b5ba	0.5257203195484899

blocks1.SCINet_Tree.SCINet_Tree_odd.workingblock.interact.level.phi.1.weight f8 [1, 1, 7]
0	0x3fcf11235de69539	0.24271051487918685
1	0x3fe0dfa2ddf29450	0.5272993407167039
2	0x3fe4e8f610ed1e70	0.6534376459685074
3	0x3fd4f563e5b340ba	0.32747743064556867
4	0x3fc643face679e38	0.173949576171468
5	0x3fb805dd29726394	0.09383947622190042
6	0x3fe235e0dfe53451	0.569076955123487

blocks1.SCINet_Tree.SCINet_Tree_odd.workingblock.interact.level.phi.1.bias f8 [1]
0	0x3fb838d2afba32c7	0.09461705007761188

blocks1.SCINet_Tree.SCINet_Tree_odd.workingblock.interact.level.phi.4.weight f8 [1, 1, 3]
0	0xbfdfd5b3b555c74d	-0.4974183340883556
1	0xbfe26b8b6d17f158	-0.5756280070050179
2	0xbfe01f16492e468f	-0.5037948064147758

blocks1.SCINet_Tree.SCINet_Tree_odd.workingblock.interact.level.phi.4.bias f8 [1]
0	0xbff6de8bd8f06efd	-1.4293325876414535

blocks1.SCINet_Tree.SCINet_Tree_odd.workingblock.interact.level.psi.1.weight f8 [1, 1, 7]
0	0xbfdbbc7fd9f95dec	-0.433380091538736
1	0xbfe01cfe74d8dcb3	-0.5035393030329004
2	0xbfd97297ddbb3eda	-0.39761921552142854
3	0x3f69c0fdf419dc37	0.003143783572166405
4	0xbfde7bcc06fce948	-0.47630596811690795
5	0xbfba55dcf84eb1ae	-0.10287266790573454
6	0xbfce6174e65e1b06	-0.237349140628986

blocks1.SCINet_Tree.SCINet_Tree_odd.workingblock.interact.level.psi.1.bias f8 [1]
0	0xbfdd45dd82808f13	-0.45738923782686064

blocks1.SCINet_Tree.SCINet_Tree_odd.workingblock.interact.level.psi.4.weight f8 [1, 1, 3]
0	0x3fe5417e311a814b	0.6642447432568955
1	0x3fb01d1e1c396cfa	0.06294429959364214
2	0x3fd34514a475479f	0.3010913473163956

blocks1.SCINet_Tree.SCINet_Tree_odd.workingblock.interact.level.psi.4.bias f8 [1]
0	0xbfbf0e9263fb1369	-0.12131609860359806

blocks1.SCINet_Tree.SCINet_Tree_odd.workingblock.interact.level.P.1.weight f8 [1, 1, 7]
0	0x3fd91974d73d0947	0.39217873591782787
1	0x3fd83f6aa2742ad5	0.3788706385100061
2	0x3f989563b5f8e717	0.024007375699716862
3	0xbfd320aa1156a5ff	-0.29886867230615616
4	0xbfa9efb8e78b1df2	-0.0506570608754905
5	0xbfd59b5967e251d2	-0.33760676522186117
6	0xbfd5c888778aba47	-0.3403645675088324

blocks1.SCINet_Tree.SCINet_Tree_odd.workingblock.interact.level.P.1.bias f8 [1]
0	0x3faddfb309286fef	0.05834731566230277

blocks1.SCINet_Tree.SCINet_Tree_odd.workingblock.interact.level.P.4.weight f8 [1, 1, 3]
0	0xbfe37b53e3bf0947	-0.6088046501320513
1	0xbfdc61d96103f38f	-0.4434722373405799
2	0xbfdb2fae83d2885d	-0.42478525994568433

blocks1.SCINet_Tree.SCINet_Tree_odd.workingblock.interact.level.P.4.bias f8 [1]
0	0x3f811102112f3023	0.008333221578048782

blocks1.SCINet_Tree.SCINet_Tree_odd.workingblock.interact.level.U.1.weight f8 [1, 1, 7]
0	0xbfe1227bf7a6b63d	-0.5354595028817993
1	0xbfa51cd110ee10ec	-0.041235478703159106
2	0x3fb56b539adcda4d	0.08366892367198737
3	0x3fdb8e3860836861	0.4305554335129554
4	0x3fa9d42e5c1d8898	0.050446938271094754
5	0x3fc28fb1f2ddc758	0.1450102268095701
6	0x3fd9f42b4e19f8a8	0.4055279028615453

blocks1.SCINet_Tree.SCINet_Tree_odd.workingblock.interact.level.U.1.bias f8 [1]
0	0xbfd387ec820227aa	-0.3051711339581923

blocks1.SCINet_Tree.SCINet_Tree_odd.workingblock.interact.level.U.4.weight f8 [1, 1, 3]
0	0xbfe10102511bcb9e	-0.5313731750633115
1	0xbfda37a0342068a2	-0.4096451291130824
2	0xbfd151c8adfcd8b0	-0.2706166934107257

blocks1.SCINet_Tree.SCINet_Tree_odd.workingblock.interact.level.U.4.bias f8 [1]
0	0xbfc82a876b6a147c	-0.18879788155405552

blocks1.SCINet_Tree.SCINet_Tree_odd.SCINet_Tree_odd.workingblock.interact.level.phi.1.weight f8 [1, 1, 7]
0	0x3fd893cd14346f5d	0.3840210625946748
1	0xbf8fb9539e2800b0	-0.015490201248212848
2	0xbfaaf6e81500cd6a	-0.05266499763856809
3	0xbfc3a970c0a6672f	-0.15360841185320726
4	0xbfc48b8eb55a28ac	-0.16050895552718225
5	0xbfd0caed025f443b	-0.2623856089749698
6	0x3fd0cc0d8ea7c62f	0.26245440417469273

blocks1.SCINet_Tree.SCINet_Tree_odd.SCINet_Tree_odd.workingblock.interact.level.phi.1.bias f8 [1]
0	0x3fb9b5f1c8e364ef	0.10043250231264599

blocks1.SCINet_Tree.SCINet_Tree_odd.SCINet_Tree_odd.workingblock.interact.level.phi.4.weight f8 [1, 1, 3]
0	0x3fcea08ab24aaa69	0.2392743464054832
1	0xbfe7a8eab612d9f4	-0.7393697315335985
2	0xbfde0d12d75986e8	-0.4695479491257246

blocks1.SCINet_Tree.SCINet_Tree_odd.SCINet_Tree_odd.workingblock.interact.level.phi.4.bias f8 [1]
0	0xbff14a6434a148d3	-1.080661969743734

blocks1.SCINet_Tree.SCINet_Tree_odd.SCINet_Tree_odd.workingblock.interact.level.psi.1.weight f8 [1, 1, 7]
0	0x3fe9f95a985d8453	0.8116887069592259
1	0x3fe2b0f18ab93586	0.5840995511477309
2	0x3fd23db001dcfe97	0.2850151079364677
3	0x3fd89e1e0b1322fd	0.3846507175590402
4	0x3fe65ed8e9e106f3	0.6990780418347796
5	0x3fd775e10b535eb5	0.3665697680093943
6	0x3fe6fac87522fc72	0.7181131637406806

blocks1.SCINet_Tree.SCINet_Tree_odd.SCINet_Tree_odd.workingblock.interact.level.psi.1.bias f8 [1]
0	0x3fe7c9ed259e09a7	0.7433992132867403

blocks1.SCINet_Tree.SCINet_Tree_odd.SCINet_Tree_odd.workingblock.interact.level.psi.4.weight f8 [1, 1, 3]
0	0xbfcfb375a1e612fe	-0.2476641693612222
1	0xbfcce0465dc7bf4b	-0.22559432582010638
2	0xbfd468746cf4886d	-0.3188754142776194

blocks1.SCINet_Tree.SCINet_Tree_odd.SCINet_Tree_odd.workingblock.interact.level.psi.4.bias f8 [1]
0	0xbff6afe28501cfbd	-1.417940635260478

blocks1.SCINet_Tree.SCINet_Tree_odd.SCINet_Tree_odd.workingblock.interact.level.P.1.weight f8 [1, 1, 7]
0	0xbfe4cddf0b63344e	-0.6501307699596823
1	0xbfe8b931d68d4ab3	-0.772606772467347
2	0xbfe6179aad12002e	-0.6903813724784464
3	0xbfea1acb410ff32e	-0.8157707472561009
4	0xbfed8ffa36da46c5	-0.923825366148059
5	0x3fc90571ffe3b0f9	0.19547867769814056
6	0x3feb910ac3eaa56a	0.8614553286071616

blocks1.SCINet_Tree.SCINet_Tree_odd.SCINet_Tree_odd.workingblock.interact.level.P.1.bias f8 [1]
0	0xbf9d87b08653fa5b	-0.02883792705415043

blocks1.SCINet_Tree.SCINet_Tree_odd.SCINet_Tree_odd.workingblock.interact.level.P.4.weight f8 [1, 1, 3]
0	0xbfe3e38e42987d62	-0.6215277958580538
1	0xbfeaa651a10211e2	-0.8328025955857437
2	0xbfed4b9f10e0534c	-0.9154811219801586

blocks1.SCINet_Tree.SCINet_Tree_odd.SCINet_Tree_odd.workingblock.interact.level.P.4.bias f8 [1]
0	0xbfc27c5623c55686	-0.14441944834350212

blocks1.SCINet_Tree.SCINet_Tree_odd.SCINet_Tree_odd.workingblock.interact.level.U.1.weight f8 [1, 1, 7]
0	0x3fa378346a5f4a6f	0.03802646444787149
1	0xbfd5baa1aff1d97c	-0.33951608831502944
2	0xbfe0756c10f74013	-0.514333756576891
3	0x3f4759462d20eb58	0.00071254660202356
4	0x3fdcec0363f443cc	0.45190510522030247
5	0xbfcb100d62ac0a2e	-0.21142737691850882
6	0xbf94db240b769940	-0.02036720581022533

blocks1.SCINet_Tree.SCINet_Tree_odd.SCINet_Tree_odd.workingblock.interact.level.U.1.bias f8 [1]
0	0xbfad978131d1a092	-0.05779651387348496

blocks1.SCINet_Tree.SCINet_Tree_odd.SCINet_Tree_odd.workingblock.interact.level.U.4.weight f8 [1, 1, 3]
0	0xbfbdde1c446d1d74	-0.11667038603365204
1	0x3fd880b33dd43291	0.38285523450830633
2	0x3fe4fa696b08916a	0.6555678453919829

blocks1.SCINet_Tree.SCINet_Tree_odd.SCINet_Tree_odd.workingblock.interact.level.U.4.bias f8 [1]
0	0x3fc55b811a90a5ef	0.16685498997803402

blocks1.SCINet_Tree.SCINet_Tree_odd.SCINet_Tree_even.workingblock.interact.level.phi.1.weight f8 [1, 1, 7]
0	0xbfc1073530fd8c1b	-0.1330324639521628
1	0xbfc2ff8a188fb1bb	-0.14842344474108224
2	0x3f9cc4a1c636dde3	0.028093841288606824
3	0xbfd3a9af0ba2a514	-0.30723167549383956
4	0x3fc97904f091258d	0.19900571581301243
5	0x3f5306982bbf5540	0.0011612402004080452
6	0xbfbe1a84e115d6ac	-0.11759214873549223

blocks1.SCINet_Tree.SCINet_Tree_odd.SCINet_Tree_even.workingblock.interact.level.phi.1.bias f8 [1]
0	0xbfd42e3ffb313886	-0.31532287149901383

blocks1.SCINet_Tree.SCINet_Tree_odd.SCINet_Tree_even.workingblock.interact.level.phi.4.weight f8 [1, 1, 3]
0	0xbfe06050de810a8e	-0.5117573114187779
1	0x3f331e2345e98955	0.0002917133441881122
2	0x3fa36f9e72608848	0.037960959875150524

blocks1.SCINet_Tree.SCINet_Tree_odd.SCINet_Tree_even.workingblock.interact.level.phi.4.bias f8 [1]
0	0xbfe66ba09f3c0910	-0.7006381139802063

blocks1.SCINet_Tree.SCINet_Tree_odd.SCINet_Tree_even.workingblock.interact.level.psi.1.weight f8 [1, 1, 7]
0	0x3faecfe62572aab5	0.06017989356162926
1	0xbfd8608989d1bf97	-0.38089216669958986
2	0xbfd0ab1397311a80	-0.26044168248009925
3	0xbfdb9aa927dea87a	-0.43131474393397407
4	0x3f8146a533d71a68	0.008435526508845118
5	0x3fd56103c41d90a3	0.3340463080587687
6	0x3fb502f1850b5762	0.08207616327430636

blocks1.SCINet_Tree.SCINet_Tree_odd.SCINet_Tree_even.workingblock.interact.level.psi.1.bias f8 [1]
0	0xbfc0231e8c7a03fa	-0.1260717569275867

blocks1.SCINet_Tree.SCINet_Tree_odd.SCINet_Tree_even.workingblock.interact.level.psi.4.weight f8 [1, 1, 3]
0	0xbfdd2eceaa4d7553	-0.45598189002142425
1	0x3fe3d12a2e4c8125	0.6192828087114647
2	0x3fe29ecc88d68c15	0.58188463903605

blocks1.SCINet_Tree.SCINet_Tree_odd.SCINet_Tree_even.workingblock.interact.level.psi.4.bias f8 [1]
0	0xbfd5c73498b9b654	-0.34028353609651174

blocks1.SCINet_Tree.SCINet_Tree_odd.SCINet_Tree_even.workingblock.interact.level.P.1.weight f8 [1, 1, 7]
0	0xbfda6b1e8ebdcd21	-0.4127880472144217
1	0xbfd8e807ac1499a0	-0.38916198544247926
2	0xbfc7e5232699035b	-0.18668021568921742
3	0xbf890bf8392346ec	-0.012229861491877846
4	0x3fb8eb9dc7785224	0.09734521980164651
5	0x3fd557c8d3785e2d	0.33348293925652933
6	0x3fe0172ef4385542	0.5028300065920706

blocks1.SCINet_Tree.SCINet_Tree_odd.SCINet_Tree_even.workingblock.interact.level.P.1.bias f8 [1]
0	0xbfb16f595961e68e	-0.06810530121028988

blocks1.SCINet_Tree.SCINet_Tree_odd.SCINet_Tree_even.workingblock.interact.level.P.4.weight f8 [1, 1, 3]
0	0x3fd56430ed4ef3a0	0.3342401807274715
1	0x3fd372ba7b85a93b	0.30387746870714566
2	0x3fcf13426a2ac2a2	0.2427752512353623

blocks1.SCINet_Tree.SCINet_Tree_odd.SCINet_Tree_even.workingblock.interact.level.P.4.bias f8 [1]
0	0x3fc3de9abf02bbac	0.15523084952061816

blocks1.SCINet_Tree.SCINet_Tree_odd.SCINet_Tree_even.workingblock.interact.level.U.1.weight f8 [1, 1, 7]
0	0x3fc9e0e718bc57be	0.20217598636435058
1	0x3fb4082d8d472939	0.07824978541535622
2	0x3fe0b7faf17effdf	0.5224585262985747
3	0x3fe205594d98dba4	0.5631529346054447
4	0xbfc1e58a49038180	-0.1398175102722341
5	0xbfe03593d4dd23f0	-0.5065402181145355
6	0xbfea15d8ecce6bf6	-0.8151669144748428

blocks1.SCINet_Tree.SCINet_Tree_odd.SCINet_Tree_even.workingblock.interact.level.U.1.bias f8 [1]
0	0x3f4d4d2ec63e5320	0.0008942106619423719

blocks1.SCINet_Tree.SCINet_Tree_odd.SCINet_Tree_even.workingblock.interact.level.U.4.weight f8 [1, 1, 3]
0	0xbfde88dde4146f6b	-0.4771036841718714
1	0xbfe47b295e3606ba	-0.6400343742427232
2	0xbfdea28cfe84e454	-0.4786713109529661

blocks1.SCINet_Tree.SCINet_Tree_odd.SCINet_Tree_even.workingblock.interact.level.U.4.bias f8 [1]
0	0x3fb3c0982c272f8e	0.07715750768619342

blocks1.SCINet_Tree.SCINet_Tree_even.workingblock.interact.level.phi.1.weight f8 [1, 1, 7]
0	0xbfcb1e2df7c5ca4b	-0.21185850713989604
1	0x3fbe2f5690141dbc	0.1179098226312964
2	0xbfaf231eb02b92eb	-0.06081481838717714
3	0xbfde2531e3acd164	-0.4710201953305584
4	0xbfe37969521bde52	-0.6085707286537831
5	0xbfd5044e7c46d2b4	-0.32838785301582196
6	0xbfd27f8a132b69b2	-0.28903438446073004

blocks1.SCINet_Tree.SCINet_Tree_even.workingblock.interact.level.phi.1.bias f8 [1]
0	0xbfe247462a4878ca	-0.5712004495469725

blocks1.SCINet_Tree.SCINet_Tree_even.workingblock.interact.level.phi.4.weight f8 [1, 1, 3]
0	0x3fef887cbbe91468	0.9854110403181382
1	0x3fd6ab3c2b717991	0.35420135729318597
2	0x3fbb9317b4666500	0.10771320490166048

blocks1.SCINet_Tree.SCINet_Tree_even.workingblock.interact.level.phi.4.bias f8 [1]
0	0xbff1bc7600949a85	-1.1085109732318028

blocks1.SCINet_Tree.SCINet_Tree_even.workingblock.interact.level.psi.1.weight f8 [1, 1, 7]
0	0xbfd3243734c0de76	-0.29908542777727776
1	0xbfe2c70fb74d6d6e	-0.5867994861722943
2	0xbfe5a382d4f3bcc2	-0.6762098464222606
3	0xbfeb25a4cd5929c3	-0.8483451853474481
4	0xbfca5ee8622bfdda	-0.2060213546137522
5	0x3fc3063c222f02d1	0.14862777394411933
6	0x3fa21f0930554f31	0.035393035078099884

blocks1.SCINet_Tree.SCINet_Tree_even.workingblock.interact.level.psi.1.bias f8 [1]
0	0xbfdb97e9d84e094f	-0.4311470615722514

blocks1.SCINet_Tree.SCINet_Tree_even.workingblock.interact.level.psi.4.weight f8 [1, 1, 3]
0	0x3fd64580367b7161	0.34799199409987663
1	0x3fcbe787202f0804	0.218003168787675
2	0x3fe4c5d9a36a69f4	0.6491516296112523

blocks1.SCINet_Tree.SCINet_Tree_even.workingblock.interact.level.psi.4.bias f8 [1]
0	0xbff377dfdde357f4	-1.2167662303449989

blocks1.SCINet_Tree.SCINet_Tree_even.workingblock.interact.level.P.1.weight f8 [1, 1, 7]
0	0x3fbd003783bbc8b7	0.11328455892706556
1	0xbfdbe8197fad515b	-0.436041235622971
2	0x3fb1d90a8c8520fa	0.06971803599038032
3	0xbfc3da6bd0feb055	-0.15510318474605592
4	0x3fdb186ab9ce938d	0.4233652891655815
5	0xbfb47b727a84852f	-0.08000865451005688
6	0xbfb02261318affec	-0.06302459201378924

blocks1.SCINet_Tree.SCINet_Tree_even.workingblock.interact.level.P.1.bias f8 [1]
0	0xbfa4ff913e29559b	-0.041012324178761626

blocks1.SCINet_Tree.SCINet_Tree_even.workingblock.interact.level.P.4.weight f8 [1, 1, 3]
0	0x3fe21928ec247e04	0.5655712711485994
1	0xbfa9cf5834fcf5a6	-0.050410038440968294
2	0x3fb13c56ee8cfe96	0.0673269588851276

blocks1.SCINet_Tree.SCINet_Tree_even.workingblock.interact.level.P.4.bias f8 [1]
0	0x3fd4da64d4e458fd	0.32582970419151974

blocks1.SCINet_Tree.SCINet_Tree_even.workingblock.interact.level.U.1.weight f8 [1, 1, 7]
0	0x3fb67c4a15943e48	0.08783400561173338
1	0x3fd587e5e47ac933	0.3364195567366039
2	0x3fe9549d68159b0c	0.7915789635561352
3	0x3fa3cc622b7ce303	0.03866869717461976
4	0x3fc481d6b0923e88	0.1602123605884922
5	0x3fd6f5fedb7dd6a0	0.358764376017783
6	0xbfa386a7e5895fc7	-0.038136717576605465

blocks1.SCINet_Tree.SCINet_Tree_even.workingblock.interact.level.U.1.bias f8 [1]
0	0xbfd3659e0233cb2f	-0.30307722296781753

blocks1.SCINet_Tree.SCINet_Tree_even.workingblock.interact.level.U.4.weight f8 [1, 1, 3]
0	0xbfe210a1df8864ed	-0.5645303121447377
1	0xbfe2c36e542c5e41	-0.5863563198099159
2	0xbfe2fea35aac3f36	-0.5935837527231118

blocks1.SCINet_Tree.SCINet_Tree_even.workingblock.interact.level.U.4.bias f8 [1]
0	0x3fe127cc7440b0f1	0.536108233505301

blocks1.SCINet_Tree.SCINet_Tree_even.SCINet_Tree_odd.workingblock.interact.level.phi.1.weight f8 [1, 1, 7]
0	0xbf8b39bb52459742	-0.013293708275067598
1	0x3fc08187cfba37e1	0.1289529575628299
2	0x3fb93aba50805444	0.09855236497271941
3	0x3fc17a92a85c2ad7	0.1365531274862721
4	0x3fce07fc0e5bf8fb	0.23461867047439697
5	0x3fd24783ed586238	0.2856149499726004
6	0xbfa9c287ede838f8	-0.050312278548618694

blocks1.SCINet_Tree.SCINet_Tree_even.SCINet_Tree_odd.workingblock.interact.level.phi.1.bias f8 [1]
0	0x3fe2d724a40b918a	0.5887625888831718

blocks1.SCINet_Tree.SCINet_Tree_even.SCINet_Tree_odd.workingblock.interact.level.phi.4.weight f8 [1, 1, 3]
0	0xbfdb8087f0ae2e34	-0.4297199106592615
1	0xbfd4a02ac1eb3b9d	-0.32227581918135134
2	0xbfdfe1c82faa4607	-0.49815563826368287

blocks1.SCINet_Tree.SCINet_Tree_even.SCINet_Tree_odd.workingblock.interact.level.phi.4.bias f8 [1]
0	0xbff281ddcf14eb50	-1.1567056740884318

blocks1.SCINet_Tree.SCINet_Tree_even.SCINet_Tree_odd.workingblock.interact.level.psi.1.weight f8 [1, 1, 7]
0	0x3fdad6e99a828122	0.4193672188648795
1	0xbf8cb5dbcb7fc4b2	-0.01401874270229295
2	0x3fdbae003bdae0fa	0.4324951729318084
3	0xbfd31a874ffd0dd9	-0.29849417506576753
4	0xbfe0720e88b9d16a	-0.5139229460169592
5	0xbfdeb5af5fba510a	-0.47983917568605305
6	0x3fc8002c4891dab0	0.18750527900166025

blocks1.SCINet_Tree.SCINet_Tree_even.SCINet_Tree_odd.workingblock.interact.level.psi.1.bias f8 [1]
0	0x3fd581b84df58787	0.3360424767798737

blocks1.SCINet_Tree.SCINet_Tree_even.SCINet_Tree_odd.workingblock.interact.level.psi.4.weight f8 [1, 1, 3]
0	0xbf9492f23d67df43	-0.02009180545607526
1	0xbfcb8332f51dafd4	-0.21494137733986796
2	0xbfdf6cf96d4f1459	-0.4910262649030464

blocks1.SCINet_Tree.SCINet_Tree_even.SCINet_Tree_odd.workingblock.interact.level.psi.4.bias f8 [1]
0	0xbfe5c837304e60a3	-0.6806903785209396

blocks1.SCINet_Tree.SCINet_Tree_even.SCINet_Tree_odd.workingblock.interact.level.P.1.weight f8 [1, 1, 7]
0	0x3fac6a0f7de34aa1	0.05549667751042376
1	0x3fdf6e2502bf2316	0.49109769123292446
2	0x3fc6ecddcd18099c	0.17910358919477865
3	0x3fe37e3b8e277901	0.6091592575501467
4	0x3fe6b93b69a82b17	0.7101113380061602
5	0x3fe274391f570c48	0.5766873943433746
6	0xbfcb0392975386d3	-0.2110465277574379

blocks1.SCINet_Tree.SCINet_Tree_even.SCINet_Tree_odd.workingblock.interact.level.P.1.bias f8 [1]
0	0xbfb38a38205d8141	-0.07632780828635523

blocks1.SCINet_Tree.SCINet_Tree_even.SCINet_Tree_odd.workingblock.interact.level.P.4.weight f8 [1, 1, 3]
0	0x3fe28abb9037cfb9	0.579435140300567
1	0x3fe2f43304127d40	0.592309482530176
2	0x3fd6e21552679312	0.35754902884791406

blocks1.SCINet_Tree.SCINet_Tree_even.SCINet_Tree_odd.workingblock.interact.level.P.4.bias f8 [1]
0	0xbfbc7d5e4cbce70d	-0.11128796933635617

blocks1.SCINet_Tree.SCINet_Tree_even.SCINet_Tree_odd.workingblock.interact.level.U.1.weight f8 [1, 1, 7]
0	0xbfc665c4bdafd6cb	-0.1749807287412096
1	0xbfaa7e6965517de4	-0.051745694749793875
2	0x3fc0ad1b689e11af	0.13028280838274273
3	0x3fe8be27a1c658a3	0.7732122573531978
4	0x3fe0a0f3ff47774c	0.51964759692394
5	0x3fe3f0b5c22d393a	0.6231335442078383
6	0x3fc34e9f69098eb0	0.1508368742826085

blocks1.SCINet_Tree.SCINet_Tree_even.SCINet_Tree_odd.workingblock.interact.level.U.1.bias f8 [1]
0	0x3fb4fb1b2aa2ae5d	0.08195657530694107

blocks1.SCINet_Tree.SCINet_Tree_even.SCINet_Tree_odd.workingblock.interact.level.U.4.weight f8 [1, 1, 3]
0	0xbfe75003df050ec6	-0.7285174709181426
1	0xbfc8dd0c3936d565	-0.19424584191953467
2	0x3f54d6c5b4caea24	0.001271908829194709

blocks1.SCINet_Tree.SCINet_Tree_even.SCINet_Tree_odd.workingblock.interact.level.U.4.bias f8 [1]
0	0x3fd026ac03441d78	0.2523603469748745

blocks1.SCINet_Tree.SCINet_Tree_even.SCINet_Tree_even.workingblock.interact.level.phi.1.weight f8 [1, 1, 7]
0	0xbfa8522f4005743e	-0.04750201851377554
1	0xbfc3407baf11aba9	-0.15040536926548256
2	0x3fa954b7c73cc772	0.04947447115991012
3	0x3fdd11bb00c7d3d4	0.45420718265751003
4	0xbfbc5e30fc64ad5a	-0.11081224595971176
5	0xbfc844b71c627cb3	-0.18959702383015084
6	0x3fd4ba604e851581	0.32387550037341134

blocks1.SCINet_Tree.SCINet_Tree_even.SCINet_Tree_even.workingblock.interact.level.phi.1.bias f8 [1]
0	0xbfd34ea28d8f46b7	-0.30167449783503336

blocks1.SCINet_Tree.SCINet_Tree_even.SCINet_Tree_even.workingblock.interact.level.phi.4.weight f8 [1, 1, 3]
0	0xbfd15caf3c1a5deb	-0.27128201360161935
1	0xbfeb54bd7c804378	-0.854094260374139
2	0xbfeb2f85bbcac669	-0.8495510738195665

blocks1.SCINet_Tree.SCINet_Tree_even.SCINet_Tree_even.workingblock.interact.level.phi.4.bias f8 [1]
0	0xbfe007cda729ad74	-0.5009525551699157

blocks1.SCINet_Tree.SCINet_Tree_even.SCINet_Tree_even.workingblock.interact.level.psi.1.weight f8 [1, 1, 7]
0	0xbfa4ae370a4b152f	-0.04039165497446572
1	0xbfbb21761ee6e259	-0.10597933058205324
2	0xbfcb5fd61b55a6c2	-0.2138621934384926
3	0xbfc5d5f9d9a27e41	-0.17059252859779586
4	0x3fd3357af9b1a294	0.3001391828934541
5	0x3fb3f6b2d1389ed9	0.07798307044924559
6	0xbf9aabc9c7818d5c	-0.026045944978603117

blocks1.SCINet_Tree.SCINet_Tree_even.SCINet_Tree_even.workingblock.interact.level.psi.1.bias f8 [1]
0	0xbfc83d47c88f68d7	-0.18937012951830098

blocks1.SCINet_Tree.SCINet_Tree_even.SCINet_Tree_even.workingblock.interact.level.psi.4.weight f8 [1, 1, 3]
0	0xbfd761db9acef190	-0.3653477680016062
1	0x3fd4ec683098c27e	0.3269291376664468
2	0x3fdf9ee31425d4be	0.494072694469036

blocks1.SCINet_Tree.SCINet_Tree_even.SCINet_Tree_even.workingblock.interact.level.psi.4.bias f8 [1]
0	0xbfed8c5cbf3c4fde	-0.9233840689726056

blocks1.SCINet_Tree.SCINet_Tree_even.SCINet_Tree_even.workingblock.interact.level.P.1.weight f8 [1, 1, 7]
0	0x3fbef5036a5d1a3b	0.12092610689897125
1	0x3fdc8cc8d13affa2	0.44609280045187394
2	0x3fced4e5a3ed70fe	0.2408721018245003
3	0xbfd0a12333a7fb9c	-0.2598350529150879
4	0xbfd045770b4d8d96	-0.25423980811884783
5	0xbfd8b87a0c972a26	-0.38625956754245505
6	0xbfc1753a42615786	-0.13639000169012777

blocks1.SCINet_Tree.SCINet_Tree_even.SCINet_Tree_even.workingblock.interact.level.P.1.bias f8 [1]
0	0x3f55a5f5094408cf	0.001321305554541175

blocks1.SCINet_Tree.SCINet_Tree_even.SCINet_Tree_even.workingblock.interact.level.P.4.weight f8 [1, 1, 3]
0	0xbfe86ef3b74a6ebd	-0.7635439472100739
1	0xbfa9763d71ab32fc	-0.04973022472913688
2	0x3fc7dcc54e2c9a0b	0.186424887820252

blocks1.SCINet_Tree.SCINet_Tree_even.SCINet_Tree_even.workingblock.interact.level.P.4.bias f8 [1]
0	0x3fd0d8fd02923d49	0.26324391604517366

blocks1.SCINet_Tree.SCINet_Tree_even.SCINet_Tree_even.workingblock.interact.level.U.1.weight f8 [1, 1, 7]
0	0x3fde69563a51024d	0.47517924971547104
1	0x3fb9f6d11037726d	0.10142237325585209
2	0xbfd8170b62887456	-0.3764065229641508
3	0x3f96954dfb3c5d55	0.022053926905838257
4	0xbfa912c4c4439e01	-0.04897131820490231
5	0xbfc151cac2596991	-0.13530859460554415
6	0xbfa8a6a0ab708edf	-0.04814626782197506

blocks1.SCINet_Tree.SCINet_Tree_even.SCINet_Tree_even.workingblock.interact.level.U.1.bias f8 [1]
0	0xbfc78a51cae37882	-0.1839086762110505

blocks1.SCINet_Tree.SCINet_Tree_even.SCINet_Tree_even.workingblock.interact.level.U.4.weight f8 [1, 1, 3]
0	0x3fd9a425d98d7f25	0.4006437897241873
1	0x3fb9db0c34141302	0.1009986521858757
2	0xbfb99aa3456065d4	-0.10001583522571106

blocks1.SCINet_Tree.SCINet_Tree_even.SCINet_Tree_even.workingblock.interact.level.U.4.bias f8 [1]
0	0xbfc1346e866b0e16	-0.13441258967769504

projection1.weight f8 [48, 96, 1]
0	0xbf9cac339c691f86	-0.028000646993205723
1	0xbf9eeccf3daaf146	-0.03020023168458976
2	0xbf87a6dc95ef42ef	-0.011548732114449815
3	0xbf7b79b124c47e33	-0.006707851378706264
4	0xbf93463741fd8ae3	-0.018822539713606267
5	0xbf66847d43b843c3	-0.002748722703252744
6	0x3fa9df655b8fb7c8	0.050532500674179526
7	0xbfb0fa493fdbd983	-0.06631906327297625
8	0x3f9a1136b41d91dd	0.025456290000322446
9	0xbf94adb408054bbb	-0.020193875302833435
10	0x3f89895aca738583	0.012469014457056065
11	0xbf99372426edb6b8	-0.024624409557353316
12	0x3f9aa0e02d290374	0.02600431705127755
13	0x3f9ed33a9d1e31b4	0.030102649535864237
14	0x3f5d31c30cf982c5	0.0017818836967295343
15	0xbf82984e9e68a8af	-0.009079565247777614
16	0xbf85a151d1630d04	-0.010561598970872506
17	0x3f8926d122d254a4	0.012281068682833692
18	0xbf7d06587422f535	-0.007086129686453992
19	0xbf79ab58e7bb061f	-0.00626692513077523
20	0xbf9051c03d2fc1f2	-0.01593685506299098
21	0xbf91e99bd6d2bdac	-0.01749270914723204
22	0xbf628a1f80843b29	-0.0022631278299124658
23	0xbf9330ef057cf825	-0.018741354665728367
24	0xbf9a128713ce78b2	-0.025461302360434153
25	0xbfa7dca5f7e8e035	-0.04660528804055312
26	0xbfa640b20544635f	-0.04346233667656096
27	0xbf9325bbf89142eb	-0.0186986322844999
28	0xbf8c7190a04312f1	-0.013888482943352072
29	0x3f89a02caa059979	0.012512539805084032
30	0x3f90eb359d2d5fc6	0.01652225276788479
31	0xbf823b1ea04add7d	-0.008901824251877905
32	0x3fa21be3bfb4da7a	0.03536903109709484
33	0x3f9048bb7a363023	0.015902451833923813
34	0x3fa8792b95ae78da	0.04779945566336759
35	0xbf9692ff5b99db4f	-0.022045125928765782
36	0x3f7f677b1bf2a1a7	0.007667046446990267
37	0x3fb0f76af145731f	0.06627529516613294
38	0x3fb26c90de3a24f4	0.07196908402888252
39	0xbfb0a1d51788bba5	-0.06496936630786239
40	0x3faa9364c7e71aac	0.05190577450007558
41	0xbf75ec3aeb857281	-0.005352239757794864
42	0x3f6589102563bb33	0.00262883332754118
43	0xbf64943c0e1de6a6	-0.0025120900108362597
44	0xbf9074b70f25bf8c	-0.01607023267700884
45	0x3fa20c25b3823e16	0.035248926317873394
46	0xbf9ae37f02e55d40	-0.02625845389533521
47	0xbfa4a123d63df6b0	-0.040291900541871484
48	0xbf5249832b047c98	-0.0011161595285285372
49	0xbf8e7e31d220fa44	-0.01488913462173714
50	0xbf92bd5800b1d891	-0.018300414125825674
51	0xbfa1ceee6cbe9b48	-0.03478188588569836
52	0xbf89eac389e2442a	-0.012654807706242794
53	0x3f84d2e87e5856e9	0.010167900424714786
54	0xbf579991d74eb616	-0.0014404224614098563
55	0xbf875c78752eab5b	-0.011406842304344236
56	0x3f54918329658fb4	0.0012553959728274057
57	0xbf81b337d8a7c255	-0.00864261274270565
58	0x3f9eab5f4b36a703	0.029950608220736374
59	0xbf8a7004d8569cbe	-0.012908971645471442
60	0x3fa44db1e58f5218	0.03965526511425227
61	0x3fb304abd468a969	0.07429002700579236
62	0x3f77234d761a0b7c	0.005648901542033676
63	0x3f897cca982d1549	0.012445051926656918
64	0x3f93fc9e3337baf5	0.019518348575668438
65	0x3f52464542a72721	0.001115386616776744
66	0x3f7c5a46c2a710f0	0.006922031791365621
67	0x3f98dcf8d0c88c58	0.02428044103920643
68	0x3f88da71216b564d	0.0121353948901898
69	0x3fa5f1e21a55d613	0.042861047472723034
70	0xbf931c73f293fd76	-0.018663226776877782
71	0xbf8a5e9e0a30b7dc	-0.012875780759795612
72	0xbf852be02737a59d	-0.01033759231264036
73	0xbf99cd0fd0f9bd97	-0.025196311120848938
74	0xbf8ddb935c855e50	-0.01457896352864832
75	0x3f843aed09caf0fd	0.009878017293310832
76	0xbf98debc06c84f79	-0.02428716460606448
77	0x3fa8013abab62e9d	0.046884379665326416
78	0xbf535eddc0f02880	-0.0011822858393793212
79	0xbfa6fef6e21c45bc	-0.044913973904964405
80	0x3f94e341959e316c	0.020398163563684887
81	0xbf8e10c05a25903b	-0.014680388213214815
82	0xbf99559e156c3497	-0.024740667398010698
83	0x3f709f5e2e5ac421	0.004058235068144207
84	0xbf96eb73b5ab6327	-0.022382553065514756
85	0x3f65ec7785b08d36	0.002676232759328957
86	0x3fa3a8a4b34f73ff	0.03839602173659528
87	0xbfb0823e6bd1cd39	-0.06448736316979344
88	0x3f9d47961479fa4e	0.0285933923719262
89	0xbf84fee19f86dca8	-0.010251772576209753
90	0xbf84276c62a372fb	-0.009840819130141556
91	0x3fabf8702f8b6421	0.054629808238765294
92	0x3fb2398d6e997d85	0.07119068098244526
93	0x3fc6b2e1e3d865a8	0.17733405709513517
94	0x3fd1d092e7536c57	0.2783553370515554
95	0x3fdce63fc0700a4c	0.4515532855295177
96	0xbf6e7809d2cb9654	-0.003719348131528114
97	0xbf889d7ecba80501	-0.012019148435685969
98	0xbf9ecc02198fb88c	-0.030075104532379757
99	0xbf95b42a55cbe0fd	-0.021195088850590505
100	0xbf92c76bda53f56b	-0.018338856888467186
101	0x3f828b5c57734155	0.009054871958512104
102	0xbf68754ebdc42ee1	-0.0029856241145632544
103	0xbf97def168e87e7c	-0.023311397579276236
104	0x3f94cd50c288ebd2	0.02031446635576712
105	0xbf8c823b1c61824f	-0.013920270732513588
106	0x3fa2d3e62661b30d	0.0367729112484537
107	0xbf8df53d996bab6f	-0.014627915615582158
108	0xbf97275114c26254	-0.02261091889576712
109	0x3fa07433b716faef	0.032136550998520856
110	0x3f91a9aaaae0b924	0.017248789481692076
111	0x3f7431e912d425c7	0.004930410808137115
112	0xbf8a9303fa464599	-0.012975722384711829
113	0xbf85d806f303324e	-0.010665945330765283
114	0x3fa43d7ef366884d	0.03953167649457665
115	0x3f83e08299b7bf5f	0.009705562893003337
116	0x3f6d80c1cce8e8ca	0.0036014352001788362
117	0x3faea8079fe6e3a4	0.059875715512539146
118	0xbf7b737f412bc124	-0.006701943481616266
119	0x3f98bfd6d3bab99b	0.024169308350502666
120	0x3fab52d56dd28503	0.05336634603123438
121	0x3f9c756fecc59fe4	0.027791737390913243
122	0x3fa173530f23d3ae	0.03408298072637393
123	0x3fb017cec21194ac	0.0628632758903957
124	0x3fa0e7b536062b88	0.03301779064630411
125	0x3fa36746d3dc223b	0.03789731346302402
126	0xbfa09876dfa4c8e5	-0.03241321067834394
127	0xbfa779e24920d5b4	-0.04585177557639089
128	0xbf86cea756bcd0fb	-0.011136348089714412
129	0xbfa65792a0c53ed2	-0.043636877179435665
130	0x3f9204013b1bcf5d	0.017593402130798953
131	0xbf9e70ebc9679642	-0.029727634589923342
132	0xbf44210832aef94a	-0.0006142892865382079
133	0x3f9340c8001e0d48	0.018801808364071776
134	0x3f9416194b8c96ce	0.01961555026641442
135	0x3f741167747b2a1a	0.004899410363302903
136	0xbf82dcb9924860c5	-0.009210061814016854
137	0xbfa6e0b60a549eee	-0.04468315960030887
138	0xbfa23fa6edc75b6f	-0.03564187672207352
139	0xbf82e88b19c1d9aa	-0.009232603763149456
140	0xbf9643d773996f56	-0.021743170195221616
141	0x3f94ab5132f21b50	0.02018477319191031
142	0xbf320b668b370647	-0.0002753377295584319
143	0xbfa95b78b99e0575	-0.049525997789724586
144	0x3f95e52aa945c11a	0.021382013875553253
145	0xbfa68ee34d94356d	-0.0440588981819968
146	0xbf8ca4e9fde18f58	-0.013986423549972635
147	0xbf86eb6ce858b6c5	-0.011191225853589679
148	0xbf95e5dce4f9e0b0	-0.021384669757453068
149	0x3fa07ef08ba6f484	0.03221847252596269
150	0x3f8aaa6b7dfeaaa8	0.013020362646633046
151	0xbfa50a2816c7e429	-0.041093113690245105
152	0x3f67dd478e4c41e8	0.0029131314826218342
153	0xbf95fb134fb1442d	-0.021465589274445463
154	0xbfa243619fd4a7cf	-0.03567032886560605
155	0xbf899d4ed17e368e	-0.012507072227687457
156	0xbf8d965e0aa7a09b	-0.014446959209593315
157	0x3fa679e13ccb9be2	0.04389861933832841
158	0x3f95adba8b1d5eb6	0.021170534840478004
159	0xbf8885ba86097742	-0.011973817077144514
160	0x3fa3aee8cb25a94f	0.03844382743666818
161	0xbf6cbb66ab3f2490	-0.003507328534372585
162	0x3f8fc5910ac44b8c	0.01551354707820509
163	0xbf7e20981cfccde3	-0.00735530299407425
164	0xbf706d0f2c28b713	-0.004010257022441416
165	0x3fa1a4183826824a	0.034455067495632166
166	0xbf988667f8fc5efa	-0.023950218746079145
167	0x3f6f7c672a84bdc6	0.003843499656930513
168	0xbfa12b8aafb8ca53	-0.033535322142047484
169	0xbf7cfe5175c553cc	-0.007078474238672205
170	0xbf85995cd36285af	-0.010546422196344133
171	0xbfa84a6eff2e61dd	-0.04744288315777443
172	0x3f81bc4038fafcc6	0.008659841288475422
173	0x3f8dc01dbb97c703	0.014526588714008698
174	0x3f86c24e0ac44744	0.011112794593404758
175	0xbf98c02aab1fc42f	-0.024170557684502988
176	0x3f798dd5ba0af922	0.006238779897726839
177	0xbf98599106e35603	-0.023779169125949916
178	0xbf8d96f9337c3774	-0.014448115237907656
179	0x3f75cf780ee6c49d	0.005324810960176366
180	0xbf8d76353978644b	-0.014385619942048808
181	0x3f912927dca07a77	0.016758559075351145
182	0xbf80aed6ed65f51a	-0.008145979995556153
183	0x3f8de4717ea37e67	0.014595877339558428
184	0xbfa05a7d33484388	-0.031940376768154144
185	0x3f9adc1b0825e4c7	0.026230261204067042
186	0x3f736ea0a204243f	0.00474417445389813
187	0x3f34b197594de37e	0.0003157610420241804
188	0x3fb5828a18536ea5	0.0840231236829206
189	0x3fc95ade273bc7db	0.1980855647630609
190	0x3fd33dfae838c9cc	0.3006579654494572
191	0x3fd9594b989a265d	0.39607515242150787
192	0x3f93f9f735abd83a	0.01950823083003448
193	0x3f209650e598ca46	0.0001265500784924536
194	0x3f95002d44c162bf	0.02050848705434549
195	0xbf90d04c45fb2f74	-0.016419593592942275
196	0x3f925049524eda39	0.017884393356974313
197	0x3f99c6503bca804f	0.025170568131784695
198	0x3f9c16e550676e4e	0.027431090385887473
199	0xbfa4a4c387c11a80	-0.04031954795987236
200	0x3f8cc65898239690	0.014050190108217536
201	0x3f6f33b3d9aa18bc	0.0038088333797673107
202	0x3f993cb9ff06cf71	0.024645715895260382
203	0xbf92ef3497a6f31d	-0.01849062133418321
204	0xbfa3cc7e7c662386	-0.03866954105894309
205	0x3f9036b03eed64f8	0.015833619919566083
206	0x3f92aeee2d5241a3	0.018245431438630565
207	0xbf95f837ff3e2b5a	-0.021454691842829866
208	0x3f8814b62f6eef73	0.01175825435881681
209	0xbf89cf23c082e077	-0.012602118790127499
210	0x3f680c62c2bcdc1a	0.002935593502026557
211	0x3f9aa9f4a895091f	0.026038954533995736
212	0x3f91f926bfe72a2e	0.017551999533490008
213	0x3fa8392a4ac06169	0.047311135888039875
214	0x3f96b7c3e2042708	0.022185383481917703
215	0xbf87913c72d568cb	-0.011507484678692134
216	0x3f78b4be6d6e046c	0.006031745774522351
217	0x3fa560a18194d92c	0.04175286013416932
218	0x3fa30a049db2d1c0	0.0371858065131252
219	0x3f26671ad3813428	0.0001709194418730031
220	0x3f6d1b2c1c3522d6	0.003552995827395082
221	0x3fa1e8ba230a89d9	0.034978691842542715
222	0x3f831f67a37ca566	0.009337243725513655
223	0xbfb56af545f561c7	-0.08366330106708296
224	0x3f9648a23f1ec6af	0.021761450865318718
225	0xbf92223d06543ffc	-0.01770873404626626
226	0xbf914597f8fe8fed	-0.016867041180049048
227	0xbfa618644ed6335f	-0.04315484487879106
228	0x3f879c1c422685c0	0.01152822567820777
229	0x3f9a4ce6b5da2277	0.025683979844446782
230	0x3fa27375e322da23	0.036037143684940064
231	0xbfb0146b62d76fd3	-0.06281157649158269
232	0xbf9c068103129374	-0.02736856061223443
233	0xbf84a059e2bf59f9	-0.010071470482142951
234	0xbf93c7fb70a20ac9	-0.019317559003421168
235	0xbf8ea28e7ed0cbfe	-0.014958489651780479
236	0xbf7ac9780ed24510	-0.006539792038112738
237	0xbf54d9c1314732cf	-0.0012726198811946925
238	0x3f933c8c9c43c8ef	0.018785664594312242
239	0xbf91425b170fc73d	-0.016854689867563655
240	0xbfa6cc0355fb911f	-0.04452524590104389
241	0x3f938bf9141404a9	0.019088641977763974
242	0xbf9f2bf591581cd5	-0.03044112872705969
243	0x3f9310c0c5d4f3c8	0.01861859519452816
244	0x3f9f086ceb94e130	0.03030557811618556
245	0xbf7ea2f1aa68778f	-0.0074796142639835935
246	0x3f9a602147d14cc8	0.025757331856152615
247	0x3f9a55566132598e	0.02571616142503213
248	0x3f98bc249425297c	0.024155208150923965
249	0x3f8fa703f04c83a6	0.015455275317039451
250	0x3f94caeb8c06edca	0.020305328771184773
251	0xbf95df6c124b6320	-0.021360100380522273
252	0x3f6290cbe708dd15	0.0022663099737446715
253	0x3f9787347036eab6	0.02297670302298612
254	0xbf8d36f818e20a78	-0.014265001544349717
255	0xbfa6a7b3702a6392	-0.04424820656021845
