exp/data_checkpoints/12345/checkpoint.pth (torch, 74169 bytes, 114 tensors)

inv_timescales f8 [1]
000000 00 00 00 00 00 00 f0 3f
       1.0

blocks1.SCINet_Tree.workingblock.interact.level.phi.1.weight f8 [2, 1, 5]
000000 63 c7 93 ab 35 9b d3 3f 9f e1 d3 fe a9 b2 be 3f
       0.306348245197219 0.11991369696978048
000010 94 f1 7b 5b 37 45 be 3f 8f 3a 03 d9 e2 b2 cb bf
       0.11824365600108983 -0.21639667126006087
000020 e8 1c 5e 5f 04 88 cc bf a3 ae 34 cf 07 9a dd 3f
       -0.2229009118711709 0.4625262759679833
000030 b6 d0 3e d9 ff 37 d4 3f 3b a2 a3 0c fb c6 a4 bf
       0.31591793265694024 -0.04058060197150267
000040 59 fe 54 35 ad 65 d3 bf 3a d8 fd 9e 37 41 d0 bf
       -0.30308084686473574 -0.2539805462505488

blocks1.SCINet_Tree.workingblock.interact.level.phi.1.bias f8 [2]
000000 e5 92 55 e9 c4 91 83 bf 3c 11 31 f2 e2 6b 83 bf
       -0.009555376406475921 -0.009483120933631121

blocks1.SCINet_Tree.workingblock.interact.level.phi.4.weight f8 [1, 2, 3]
000000 bd ce 71 a4 12 c6 dd bf 6e 47 0a 49 59 0e da bf
       -0.4652144056228556 -0.40712577946498285
000010 a1 8f b2 9a 04 5c b7 bf e2 af ec 4f be 92 ce bf
       -0.09124783303064855 -0.23885325338903757
000020 b5 31 42 e5 f3 fe cc bf 7c ea a1 ca ee e1 d0 bf
       -0.22653053945795212 -0.26378984249428306

blocks1.SCINet_Tree.workingblock.interact.level.phi.4.bias f8 [1]
000000 6f 76 26 fc 1c 5b d5 bf
       -0.3336861097721799

blocks1.SCINet_Tree.workingblock.interact.level.psi.1.weight f8 [2, 1, 5]
000000 55 99 60 af 51 d3 b0 3f ed 6e cb c0 b0 a0 d7 3f
       0.06572447330163318 0.36918276622394225
000010 68 80 72 46 88 70 d0 bf 68 c2 59 1f a5 17 d2 bf
       -0.2568684280358924 -0.28269317685684436
000020 a4 7f 86 11 85 84 a1 3f 84 5e 5e 5e b9 cc bd bf
       0.034214170827225915 -0.11640509179994224
000030 01 ab 20 70 d4 77 c8 3f 1f 0d a0 e7 d6 34 b0 bf
       0.19115691637974666 -0.06330626635467639
000040 dd e6 bb 4a c8 0d bf bf 24 2b 8a 57 8b 22 c0 3f
       -0.12130405258713091 0.12605420851135662

blocks1.SCINet_Tree.workingblock.interact.level.psi.1.bias f8 [2]
000000 bd 99 77 d7 97 87 cb 3f 9b 78 40 66 bb 89 d5 bf
       0.21507547398432605 -0.33653149590998915

blocks1.SCINet_Tree.workingblock.interact.level.psi.4.weight f8 [1, 2, 3]
000000 f3 d5 c7 c0 07 f0 c2 bf 1b 51 a0 b4 72 3d b8 bf
       -0.1479501429854931 -0.09468762311764005
000010 62 71 b2 56 ff 97 d0 bf 56 de e2 4d 41 1f a1 bf
       -0.2592771860743338 -0.03344158244857158
000020 27 9a 28 b3 c9 fd c6 3f 1b fd 92 6c e7 23 d0 3f
       0.17961999176005003 0.25219140627810227

blocks1.SCINet_Tree.workingblock.interact.level.psi.4.bias f8 [1]
000000 e8 32 53 1d 87 a2 e0 bf
       -0.5198398182634181

blocks1.SCINet_Tree.workingblock.interact.level.P.1.weight f8 [2, 1, 5]
000000 c6 d1 86 1a 06 dd c2 bf 3b 60 bf 4f 85 8a c1 3f
       -0.14737011237379088 0.13703981775211269
000010 54 5b cb 6c b4 f0 cf 3f b4 ec c5 8f b1 1a cd bf
       0.24953322708344194 -0.22737712402508736
000020 3a ee 9c e8 65 30 d1 3f b4 d8 ab 42 f1 4a c9 3f
       0.26857898441423667 0.19759956126626366
000030 04 40 b9 af 4c a2 bc bf 2f 19 98 54 c6 58 dc 3f
       -0.11185149469497452 0.44291837941308904
000040 2a 8e 17 1f d6 23 92 3f 36 b1 ef b0 99 05 b7 bf
       0.01771483006258571 -0.08992920465215523

blocks1.SCINet_Tree.workingblock.interact.level.P.1.bias f8 [2]
000000 77 8c c2 0c 5b 82 c7 bf 0a 8b ed 8e d6 11 cb bf
       -0.18366563914341658 -0.21148187617208009

blocks1.SCINet_Tree.workingblock.interact.level.P.4.weight f8 [1, 2, 3]
000000 98 c3 91 8e 46 15 d1 3f b8 4a 32 04 3b 2b aa bf
       0.2669235603598792 -0.051111072790396006
000010 ee 68 df 7d 4a d9 db 3f 33 08 6e 97 7d 58 c4 3f
       0.43513738910918576 0.15895051855119532
000020 51 28 fd 5c a5 63 d3 3f b1 69 10 36 1e 0b 78 bf
       0.3029569061369602 -0.005869977962925808

blocks1.SCINet_Tree.workingblock.interact.level.P.4.bias f8 [1]
000000 79 33 3d d7 e1 3d c0 bf
       -0.12688849458427479

blocks1.SCINet_Tree.workingblock.interact.level.U.1.weight f8 [2, 1, 5]
000000 ac 78 af 9e b8 89 92 bf 31 83 c3 29 c8 df 9d bf
       -0.01810348957575829 -0.02917397265344163
000010 52 11 cf a4 3e 0a e0 bf 57 19 98 7e 21 b7 c5 3f
       -0.5012505740092286 0.16965120965341882
000020 8a a2 d5 bb 64 78 d7 3f 68 03 25 a4 4a 13 d1 3f
       0.3667232355424309 0.2668024638151594
000030 dc d2 9e 0f f0 2d cb 3f 8c b7 68 ed 3a cd cc 3f
       0.21233940851893507 0.22501312820662311
000040 14 5b 1e 55 cb 87 cc bf da 79 87 be 95 f3 cb 3f
       -0.22289411216908006 0.21837112239059203

blocks1.SCINet_Tree.workingblock.interact.level.U.1.bias f8 [2]
000000 c3 05 93 a5 2c b5 c7 bf f6 e4 81 7f ac cf d5 bf
       -0.18521650395091002 -0.34080040408987544

blocks1.SCINet_Tree.workingblock.interact.level.U.4.weight f8 [1, 2, 3]
000000 d9 11 d0 c8 3e 1e c6 bf b4 80 dd 16 6b 22 dd bf
       -0.17279801183043622 -0.4552257273953828
000010 c1 50 c9 c1 99 c0 d6 bf 6f d7 0d c3 23 b2 79 3f
       -0.35550540852024076 0.0062734028768910285
000020 d5 55 cd 53 09 b0 c1 3f 7b 53 bb af 9a 48 d8 bf
       0.1381847056569955 -0.37943141137412056

blocks1.SCINet_Tree.workingblock.interact.level.U.4.bias f8 [1]
000000 52 45 b6 6f 09 ab cf 3f
       0.24740713076293247

blocks1.SCINet_Tree.SCINet_Tree_odd.workingblock.interact.level.phi.1.weight f8 [2, 1, 5]
000000 05 a7 ea 43 50 d2 bc 3f d4 21 93 fd ce 83 c6 bf
       0.11258412988777529 -0.17589747792795996
000010 85 55 e0 81 bd 7f dd bf 8d f5 b7 a5 67 ce c1 bf
       -0.4609216469119349 -0.13911147681930594
000020 a0 7d b8 9a 67 ad c7 3f b3 43 a3 7f f9 9b d4 3f
       0.18497939161987365 0.3220199343168659
000030 e4 0a 7a fd f4 88 d8 3f bc 4c a8 b2 d3 2d 48 bf
       0.38335919145190034 -0.0007378848725373625
000040 6f b0 8a 19 90 43 c5 bf da f9 c1 e1 09 4b c6 bf
       -0.16612435576587667 -0.17416499636961086

blocks1.SCINet_Tree.SCINet_Tree_odd.workingblock.interact.level.phi.1.bias f8 [2]
000000 9a e4 3a 59 d3 f3 c3 bf 86 cb 62 a1 57 4d d1 bf
       -0.15587846619545048 -0.2703455997499805

blocks1.SCINet_Tree.SCINet_Tree_odd.workingblock.interact.level.phi.4.weight f8 [1, 2, 3]
000000 21 6b 46 2f 57 f3 b4 3f e0 43 fd b8 15 57 be 3f
       0.08183808235336844 0.11851630941715952
000010 2c cf 4f cb 6a 3a df 3f 9a 79 6b f5 77 89 e1 bf
       0.4879405007807118 -0.5480308335643713
000020 7b 09 16 f3 bb 7d e0 bf f5 ac 4b b5 a4 3c c5 bf
       -0.5153484103941958 -0.16591318943333247

blocks1.SCINet_Tree.SCINet_Tree_odd.workingblock.interact.level.phi.4.bias f8 [1]
000000 59 67 09 9d e8 32 dd 3f
       0.45623221717470624

blocks1.SCINet_Tree.SCINet_Tree_odd.workingblock.interact.level.psi.1.weight f8 [2, 1, 5]
000000 c3 36 ed 9f 86 7e de 3f fa 60 52 d1 ec 78 a3 bf
       0.47647252672036816 -0.038031960060097306
000010 e0 4f d3 48 51 90 d2 3f d7 79 63 14 68 9e da 3f
       0.2900584422288812 0.4159183692080694
000020 fa 76 bd d4 04 98 c0 bf 3e 3a 8b 8c fe 33 c2 3f
       -0.1296392477769855 0.14221174108975448
000030 2e b6 47 f8 d8 65 ca bf 6f 49 8f 13 a2 0a 9d bf
       -0.20623314021160993 -0.02836087459929487
000040 ca 75 0a 15 9e e3 a5 bf 50 bf ba e4 15 9c a7 bf
       -0.04275220877500947 -0.046112713023261365

blocks1.SCINet_Tree.SCINet_Tree_odd.workingblock.interact.level.psi.1.bias f8 [2]
000000 7e 6c d0 a1 2c a6 e4 bf 86 7c ef 26 a1 ee da bf
       -0.6452849541123127 -0.4208147888402397

blocks1.SCINet_Tree.SCINet_Tree_odd.workingblock.interact.level.psi.4.weight f8 [1, 2, 3]
000000 ab bf e1 24 af e9 d4 bf 85 0f c7 f4 23 28 c4 bf
       -0.32676294900647446 -0.15747498943357754
000010 c6 13 dd 16 f5 5e d4 bf 6c 94 66 f1 b7 80 c3 bf
       -0.31829573853275084 -0.15236567771094955
000020 4b 17 e5 e0 59 fa c1 3f 74 7a 32 26 64 e1 d4 3f
       0.14045260888286246 0.3262567875880571

blocks1.SCINet_Tree.SCINet_Tree_odd.workingblock.interact.level.psi.4.bias f8 [1]
000000 96 3a c4 f6 5e 0a 8c bf
       -0.013691656022755166

blocks1.SCINet_Tree.SCINet_Tree_odd.workingblock.interact.level.P.1.weight f8 [2, 1, 5]
000000 43 24 5b 4b 01 16 a2 3f 80 18 2b a0 49 70 be 3f
       0.03532413525460545 0.1189008728061669
000010 ba 0c fb 6f b7 e8 e3 3f 19 a9 83 fc 3a 4a de bf
       0.6221577822801898 -0.47328066501235494
000020 be 26 7e 3e b0 b2 d6 bf 3f 1f d0 91 66 35 bb 3f
       -0.3546562776833574 0.10628357944380883
000030 a9 9b c4 63 cc 5d d4 3f a7 b9 ab 09 ad 47 b2 bf
       0.3182249998375775 -0.0714061878786426
000040 d7 a9 c4 fd c9 1d cf bf 30 ea 25 d0 5f 95 c1 bf
       -0.2430965890028591 -0.1373710409496467

blocks1.SCINet_Tree.SCINet_Tree_odd.workingblock.interact.level.P.1.bias f8 [2]
000000 22 9e 2a 1d 62 d7 9d bf 9b e1 27 9c 33 8b 81 bf
       -0.029141934423618683 -0.008566287234302907

blocks1.SCINet_Tree.SCINet_Tree_odd.workingblock.interact.level.P.4.weight f8 [1, 2, 3]
000000 0a cb c4 b6 94 56 f1 bf e7 5d e2 b1 e5 63 c7 bf
       -1.0836379184153793 -0.1827361219954888
000010 19 df 9f bf 46 e1 e0 3f aa b4 fb e5 ed 18 ca bf
       0.5274995558420158 -0.20388578157090836
000020 ab fb 13 c2 c1 ca c5 bf 54 e3 7a 6a eb 23 92 3f
       -0.17025014854877205 0.017715147375130982

blocks1.SCINet_Tree.SCINet_Tree_odd.workingblock.interact.level.P.4.bias f8 [1]
000000 73 38 6a 1e 08 3c b1 3f
       0.0673222612624345

blocks1.SCINet_Tree.SCINet_Tree_odd.workingblock.interact.level.U.1.weight f8 [2, 1, 5]
000000 9d 0c 1e 98 6d 3e d7 3f 2d d6 1b c1 84 42 c5 bf
       0.363185308982972 -0.16609248570573368
000010 6f 88 ef 5c 0c c6 ca bf 15 4c ef 0a 9c 7e bf 3f
       -0.20916895425677093 0.12302565829240593
000020 a5 01 f9 4c b0 c8 98 bf 02 1d 38 cd b7 55 c5 bf
       -0.024203066537894852 -0.1666784050032462
000030 4e 3d 91 7f 5b 7e b3 bf df 5d 1e 72 4f 50 d1 3f
       -0.07614681114613583 0.2705267538489959
000040 c2 30 46 a4 f4 33 dc bf 15 85 76 ea dc e9 c3 bf
       -0.4406711200943044 -0.15557443092715376

blocks1.SCINet_Tree.SCINet_Tree_odd.workingblock.interact.level.U.1.bias f8 [2]
000000 84 3c f7 ed 91 99 d4 bf dd 8d 04 b2 c1 68 d7 bf
       -0.32187317122311065 -0.3657688368277528

blocks1.SCINet_Tree.SCINet_Tree_odd.workingblock.interact.level.U.4.weight f8 [1, 2, 3]
000000 d1 0f a2 df ed 99 d6 bf 3a 10 d1 da ca b5 c5 bf
       -0.35314509238400854 -0.16961036381155897
000010 11 7a 9c 0b 42 49 b7 bf a9 93 07 25 78 5a d1 bf
       -0.0909615782115696 -0.2711468087784917
000020 18 ee cd c5 ce 90 d2 bf c0 4c 89 e0 85 76 c0 bf
       -0.2900883609470113 -0.1286170336121355

blocks1.SCINet_Tree.SCINet_Tree_odd.workingblock.interact.level.U.4.bias f8 [1]
000000 83 94 80 a3 02 e6 d2 bf
       -0.29528871504800963

blocks1.SCINet_Tree.SCINet_Tree_odd.SCINet_Tree_odd.workingblock.interact.level.phi.1.weight f8 [2, 1, 5]
000000 03 48 bc b2 a8 48 ce 3f 4d c4 fa 60 6d 21 c1 3f
       0.23659237601583535 0.13383261905031177
000010 f6 31 fe 4f 4b fc cc 3f c1 b0 ee 4a 31 29 dc bf
       0.2264494076338363 -0.4400141937028473
000020 a5 7b fe 3c b2 a2 bb 3f e2 03 94 b8 5c 77 b5 3f
       0.10795129765618457 0.08385257250121428
000030 50 ee 21 6c 35 d5 d4 3f 67 53 1e 7e 4b b5 cb bf
       0.32551322517222037 -0.2164701810658258
000040 38 c9 d5 40 02 db 54 3f f3 b1 b4 d5 f6 11 c5 3f
       0.001272918892337117 0.1646107238278912

blocks1.SCINet_Tree.SCINet_Tree_odd.SCINet_Tree_odd.workingblock.interact.level.phi.1.bias f8 [2]
000000 df 4d 29 b8 98 fb c7 bf a1 ce 4a 8a 57 ee d8 bf
       -0.18736561767819546 -0.38954723839854394

blocks1.SCINet_Tree.SCINet_Tree_odd.SCINet_Tree_odd.workingblock.interact.level.phi.4.weight f8 [1, 2, 3]
000000 49 6f 1b 2c 9f 4a 94 3f 29 9a 76 24 1d 92 a1 bf
       0.019815909449661082 -0.03431788511379736
000010 9f 44 4d f9 85 76 d6 bf 9d 1c 8a 3c 86 3a c8 bf
       -0.3509840902889411 -0.1892860217669509
000020 e9 7d a8 ee 4e c2 b5 bf cb 58 d6 32 3b 18 e4 bf
       -0.0849961598073531 -0.62795791558417

blocks1.SCINet_Tree.SCINet_Tree_odd.SCINet_Tree_odd.workingblock.interact.level.phi.4.bias f8 [1]
000000 a5 a8 4b 85 e1 22 c9 3f
       0.19637698181697263

blocks1.SCINet_Tree.SCINet_Tree_odd.SCINet_Tree_odd.workingblock.interact.level.psi.1.weight f8 [2, 1, 5]
000000 64 54 7d 34 eb 28 e2 3f 1e 71 d2 59 c4 9c c5 3f
       0.5674949670016187 0.16884664903489804
000010 3f b6 e0 07 9f a3 a5 3f e9 47 9d 53 32 c9 b0 bf
       0.04226395579494779 -0.06557001630179084
000020 dd d7 94 f0 7e 3c c2 bf b0 aa 66 59 34 c0 c4 bf
       -0.14247118708743658 -0.16211561551366094
000030 fe fe 7c e2 15 ae c5 3f ba 00 53 80 3d 76 be bf
       0.169375167455648 -0.11899170287051933
000040 49 34 c0 19 10 80 bc 3f be 4f 1d 9a 29 3c c3 3f
       0.11132908466989123 0.15027351403352712

blocks1.SCINet_Tree.SCINet_Tree_odd.SCINet_Tree_odd.workingblock.interact.level.psi.1.bias f8 [2]
000000 20 cb 2d 45 33 4c c5 bf f6 99 cb 68 7b 58 e2 bf
       -0.16638794782519373 -0.5733010336669497

blocks1.SCINet_Tree.SCINet_Tree_odd.SCINet_Tree_odd.workingblock.interact.level.psi.4.weight f8 [1, 2, 3]
000000 b8 b0 5c 74 92 cf d7 bf e1 ab d3 4b ae 53 d3 bf
       -0.37204419482692286 -0.30198247342076284
000010 f7 e1 52 43 f2 d1 df bf af 19 2d 90 53 75 af 3f
       -0.4971891076525305 0.061442004537230026
000020 0c 66 0b 16 5c ca bb 3f 65 bc 33 28 08 9e b2 bf
       0.10855651415058548 -0.07272387486931249

blocks1.SCINet_Tree.SCINet_Tree_odd.SCINet_Tree_odd.workingblock.interact.level.psi.4.bias f8 [1]
000000 c6 e6 05 c8 c4 56 e4 bf
       -0.6355918795299764

blocks1.SCINet_Tree.SCINet_Tree_odd.SCINet_Tree_odd.workingblock.interact.level.P.1.weight f8 [2, 1, 5]
000000 36 de f5 0d 84 f0 c2 bf 6d 53 da e0 e7 76 72 3f
       -0.14796496087704875 0.004507928633434283
000010 52 10 f7 fd 7c a4 ba bf 28 86 31 98 e7 e3 d6 3f
       -0.10407239151305817 0.35766019690172124
000020 3e 1a ca 1f 47 e0 d7 bf 23 0f 76 91 43 32 d5 bf
       -0.37306383232536067 -0.33119286732856973
000030 bf 9a ac 39 45 7a c4 3f 3c 67 4e 31 dd d6 d6 3f
       0.1599813968288881 0.356864259863517
000040 b3 96 cc d5 29 85 b7 bf bb 72 5c 6d 8f ba c4 bf
       -0.0918756625147477 -0.1619433673848983

blocks1.SCINet_Tree.SCINet_Tree_odd.SCINet_Tree_odd.workingblock.interact.level.P.1.bias f8 [2]
000000 97 46 01 37 ba 73 cf bf 10 7a dc 38 0a 3e a2 3f
       -0.2457192200259228 0.03562957710368064

blocks1.SCINet_Tree.SCINet_Tree_odd.SCINet_Tree_odd.workingblock.interact.level.P.4.weight f8 [1, 2, 3]
000000 3e 68 2d bf 8d 7e c0 3f 90 7a 61 1b 0b bd b1 3f
       0.12886211237747774 0.06929082315898882
000010 fe 85 63 d9 a1 75 ca 3f 6c be b4 1b 9a 93 86 bf
       0.20671485056577404 -0.011023715944786981
000020 a7 b8 3f 4f f6 01 73 3f e7 18 49 e2 b5 e7 95 3f
       0.004640543123953267 0.021391717850087224

blocks1.SCINet_Tree.SCINet_Tree_odd.SCINet_Tree_odd.workingblock.interact.level.P.4.bias f8 [1]
000000 f2 04 e1 c4 2e 79 bb 3f
       0.1073178511296822

blocks1.SCINet_Tree.SCINet_Tree_odd.SCINet_Tree_odd.workingblock.interact.level.U.1.weight f8 [2, 1, 5]
000000 ae b6 ef b9 6b 3b c9 bf ca 17 c2 1b fb b9 da 3f
       -0.19712587908673157 0.41760137282141996
000010 17 32 05 2c ec dc c3 3f 5e 6a 51 6c 60 ed c8 bf
       0.15517952107838148 -0.19474416054693483
000020 81 36 03 00 34 ab d2 bf 89 0d 37 35 9a aa d3 bf
       -0.29169940949655176 -0.3072877425840593
000030 a5 75 6c 8a 56 b5 ce 3f fd 0c 66 07 b5 e8 cf bf
       0.23990899809807079 -0.2492891584516669
000040 bc 63 1a d3 64 df d7 bf a2 07 db 54 a2 1c d6 3f
       -0.37300987830672816 0.34549768721273655

blocks1.SCINet_Tree.SCINet_Tree_odd.SCINet_Tree_odd.workingblock.interact.level.U.1.bias f8 [2]
000000 17 ab a0 d6 0e 4f d5 bf 91 fc d3 f2 7f 05 d5 bf
       -0.33295031509139633 -0.32846068109206167

blocks1.SCINet_Tree.SCINet_Tree_odd.SCINet_Tree_odd.workingblock.interact.level.U.4.weight f8 [1, 2, 3]
000000 4b c7 45 8d 68 ee d7 bf 83 95 26 ce d7 14 e1 bf
       -0.37392629429006224 -0.5337943102246502
000010 e1 bf 2c e1 46 f5 c0 bf 56 98 d9 f1 65 2b d8 bf
       -0.13248525614608211 -0.37764881723558597
000020 b2 3d 49 4a d1 2c d3 bf b5 6b 71 af 26 38 d8 bf
       -0.29961044554235194 -0.37842719205007863

blocks1.SCINet_Tree.SCINet_Tree_odd.SCINet_Tree_odd.workingblock.interact.level.U.4.bias f8 [1]
000000 c8 99 8a 3d 54 e5 dc 3f
       0.451497135256798

blocks1.SCINet_Tree.SCINet_Tree_odd.SCINet_Tree_even.workingblock.interact.level.phi.1.weight f8 [2, 1, 5]
000000 fe 8c b0 d4 0b fc cc bf 6e 8b 65 78 82 01 c4 3f
       -0.2264418400310219 0.15629607084982972
000010 e2 e9 1b 23 5d 8a d2 3f 01 c6 29 37 09 21 c8 3f
       0.28969505718819566 0.18850817864908723
000020 88 bf e1 fa 26 17 c5 bf a5 10 bd 01 e7 f4 e1 3f
       -0.16476905107583328 0.5611453088718191
000030 24 db f7 ad 24 82 ca 3f a0 1d 9f 22 5c c1 c6 3f
       0.207096657700924 0.17777587595467725
000040 8e 4b e9 07 7d 01 b1 bf 99 3a 54 13 63 7d d6 bf
       -0.06642896121165462 -0.3514030159721329

blocks1.SCINet_Tree.SCINet_Tree_odd.SCINet_Tree_even.workingblock.interact.level.phi.1.bias f8 [2]
000000 fd 4c 95 f4 ca 9e a1 3f 58 39 93 91 f4 7e c0 bf
       0.034414617878292454 -0.12887436969908594

blocks1.SCINet_Tree.SCINet_Tree_odd.SCINet_Tree_even.workingblock.interact.level.phi.4.weight f8 [1, 2, 3]
000000 e4 5a f8 d8 f4 47 b7 bf 2a ef 91 76 40 d8 d6 bf
       -0.09094171807405932 -0.35694896296603196
000010 9d 44 6b be ad 1a da bf 3d 08 4b 13 9c b4 e4 bf
       -0.40787833781821253 -0.6470470787828685
000020 1b 66 a4 6a 72 a2 c9 bf 42 ca 61 80 94 92 e8 bf
       -0.200269987174395 -0.7678930766545096

blocks1.SCINet_Tree.SCINet_Tree_odd.SCINet_Tree_even.workingblock.interact.level.phi.4.bias f8 [1]
000000 ac 26 d1 05 c0 75 ce 3f
       0.23796844753296875

blocks1.SCINet_Tree.SCINet_Tree_odd.SCINet_Tree_even.workingblock.interact.level.psi.1.weight f8 [2, 1, 5]
000000 ae 8e 96 00 2e d5 9c bf aa 05 ac c6 a6 f2 d1 bf
       -0.02815696600522582 -0.2804352703243135
000010 f9 b4 c8 46 98 c5 c5 3f e4 e6 9b 5b 1d a0 a0 3f
       0.1700926156640106 0.03247157805703951
000020 b1 ae b4 9f b6 47 d1 3f 8a a3 06 7d 31 b5 c4 3f
       0.27000203701275455 0.16177958111554985
000030 6f e7 28 19 19 42 cc bf 24 9d c2 e1 04 84 c8 bf
       -0.22076715210442496 -0.19152890227744834
000040 b9 32 2b 9e c3 1d c9 bf 51 d2 fe f8 0d 0c 9a bf
       -0.19622082923014775 -0.02543660957572264

blocks1.SCINet_Tree.SCINet_Tree_odd.SCINet_Tree_even.workingblock.interact.level.psi.1.bias f8 [2]
000000 14 09 bb 51 0a 7a c7 bf 44 0b ce bd d1 d5 d4 bf
       -0.1834118746829253 -0.32555049453383256

blocks1.SCINet_Tree.SCINet_Tree_odd.SCINet_Tree_even.workingblock.interact.level.psi.4.weight f8 [1, 2, 3]
000000 cd 08 59 ad be d7 c4 3f d2 a6 65 c5 13 0a b6 bf
       0.16283400978324494 -0.08609126633896416
000010 4e ad ed 46 46 83 d0 3f 4b df 65 f7 ef 67 d7 3f
       0.2580123608265311 0.36571883354144025
000020 0a ca c3 d4 f9 27 aa bf 5b 2b 14 7f 95 f6 dd bf
       -0.05108624193407614 -0.4681752911571288

blocks1.SCINet_Tree.SCINet_Tree_odd.SCINet_Tree_even.workingblock.interact.level.psi.4.bias f8 [1]
000000 3e 6f 86 64 bf 43 72 3f
       0.004459140422479467

blocks1.SCINet_Tree.SCINet_Tree_odd.SCINet_Tree_even.workingblock.interact.level.P.1.weight f8 [2, 1, 5]
000000 fa 10 dc df 19 82 d1 3f d0 02 e8 92 06 50 c4 bf
       0.27356573926250827 -0.15869218991431078
000010 c4 01 e9 e1 2b d3 c1 bf 63 a1 3d ab c7 73 c9 bf
       -0.1392569401814524 -0.1988458238731808
000020 37 52 a6 a5 b7 f0 b2 3f 6a bf 0d 0e 6b 48 ce 3f
       0.0739855555933183 0.2365850275632469
000030 e4 ac 26 d9 cd 61 d7 3f 9b 64 61 25 83 f7 b2 bf
       0.36534448820266463 -0.0740892378102153
000040 9e 6f 15 47 2f 75 e1 3f fd fe b7 04 1a 7c c2 bf
       0.5455547703127086 -0.14441228132636033

blocks1.SCINet_Tree.SCINet_Tree_odd.SCINet_Tree_even.workingblock.interact.level.P.1.bias f8 [2]
000000 94 72 78 53 b7 1f ba bf b8 b9 1a b3 b6 20 cf bf
       -0.10204644954542125 -0.243185841992682

blocks1.SCINet_Tree.SCINet_Tree_odd.SCINet_Tree_even.workingblock.interact.level.P.4.weight f8 [1, 2, 3]
000000 fb 3a d4 8f f4 25 99 bf 9a 58 b4 2b 15 42 ca 3f
       -0.02455885055411054 0.20514168390281357
000010 4d f4 a6 17 a5 c6 cb bf 75 70 a4 43 2f 2b de 3f
       -0.2169996610154236 0.4713857803888069
000020 81 2b ac ad 7d 9e e3 3f 87 c1 62 58 d6 f8 e3 3f
       0.6130970375100874 0.6241256452831728

blocks1.SCINet_Tree.SCINet_Tree_odd.SCINet_Tree_even.workingblock.interact.level.P.4.bias f8 [1]
000000 32 8e a9 26 40 9a d4 bf
       -0.32191470885865947

blocks1.SCINet_Tree.SCINet_Tree_odd.SCINet_Tree_even.workingblock.interact.level.U.1.weight f8 [2, 1, 5]
000000 2a a1 2e c3 e9 07 bf 3f 6e ad 5a 7f f6 d6 95 3f
       0.121214494850055 0.02132783081348804
000010 85 bc 66 ce 49 70 d6 3f 50 e8 46 a0 eb 1b d9 bf
       0.35060353428247765 -0.3923291268544107
000020 fb be a6 82 72 9c a1 3f 7f c1 52 1d 53 82 ca bf
       0.034396723221446344 -0.20710219318199205
000030 8b bf b4 66 3a 61 b1 3f b4 98 7f 95 b1 92 c1 bf
       0.06788983352157467 -0.13728923606612897
000040 c5 a9 4f 12 47 6d c1 3f 4d 94 6f bc de 65 72 3f
       0.13614738840199272 0.004491682112505902

blocks1.SCINet_Tree.SCINet_Tree_odd.SCINet_Tree_even.workingblock.interact.level.U.1.bias f8 [2]
000000 83 a7 2a ef e4 97 83 bf f6 c4 c8 15 80 c7 a3 bf
       -0.009567059086595503 -0.038631441745005476

blocks1.SCINet_Tree.SCINet_Tree_odd.SCINet_Tree_even.workingblock.interact.level.U.4.weight f8 [1, 2, 3]
000000 d0 f1 bf 19 75 29 d2 3f 53 a2 bc 37 40 99 c4 bf
       0.28378036036135956 -0.16092684480215044
000010 94 ba ce 46 92 3e d0 3f 8a 02 7d 6f 0e b0 99 3f
       0.2538190547447041 0.02508566432448104
000020 86 76 3a e0 ff 09 9c 3f 6b de 5a 18 df ee 98 3f
       0.027381895123304044 0.024348722325810018

blocks1.SCINet_Tree.SCINet_Tree_odd.SCINet_Tree_even.workingblock.interact.level.U.4.bias f8 [1]
000000 0a 43 df 5a 68 0e a9 3f
       0.04893804654387253

blocks1.SCINet_Tree.SCINet_Tree_even.workingblock.interact.level.phi.1.weight f8 [2, 1, 5]
000000 c2 9c 06 44 d5 a1 7b bf d2 d9 8d 31 d9 3b d7 bf
       -0.006746132916681082 -0.3630278572012716
000010 7b c0 b4 03 77 13 d5 3f b5 59 65 f4 4c 9f c4 3f
       0.3293130432312023 0.1611114686335903
000020 e5 9a 55 b4 b1 4c b7 3f 91 2f ad b5 9f 6d d8 bf
       0.09101400997824845 -0.38169090978475945
000030 98 b1 0c 3f 32 c5 c3 bf 0a 9c f2 8d 9f aa d6 bf
       -0.1544554527148534 -0.3541640173156685
000040 06 12 e1 44 7a 9d d6 bf f5 69 09 f2 42 1c b1 bf
       -0.3533616707466368 -0.06683748635388283

blocks1.SCINet_Tree.SCINet_Tree_even.workingblock.interact.level.phi.1.bias f8 [2]
000000 f3 6e b3 e1 27 32 d4 bf 49 2b 74 5c 33 72 b2 bf
       -0.31556126633743914 -0.07205506331608293

blocks1.SCINet_Tree.SCINet_Tree_even.workingblock.interact.level.phi.4.weight f8 [1, 2, 3]
000000 53 d8 9b d8 6c 58 a2 bf 75 01 dd 54 69 00 b6 3f
       -0.035830880586147494 0.08594377824647899
000010 83 9b 5c 06 77 7e d9 bf f6 dc ea db 0b 35 c9 3f
       -0.39834380742325254 0.19693134534984552
000020 76 1b ab 0b 0a 29 da 3f a5 7b e5 39 6b 21 9d 3f
       0.40875483645907396 0.02844779530402843

blocks1.SCINet_Tree.SCINet_Tree_even.workingblock.interact.level.phi.4.bias f8 [1]
000000 08 42 be f9 ba 1b e5 bf
       -0.6596350553318766

blocks1.SCINet_Tree.SCINet_Tree_even.workingblock.interact.level.psi.1.weight f8 [2, 1, 5]
000000 9d 8d 63 49 62 13 d4 bf b8 93 38 62 f9 4a d3 bf
       -0.31368310133822225 -0.3014510592641346
000010 90 81 97 88 8e e0 bd 3f 80 c8 58 8a cc 76 bf bf
       0.11670771441231964 -0.12290647866828586
000020 dd 44 59 fb c8 4a ca bf 47 73 d1 9a 64 0b d6 bf
       -0.20540725968252263 -0.3444453727623124
000030 1e bb d9 cb fc 21 cb bf e4 90 59 5a 9a b3 d5 bf
       -0.21197471574438337 -0.3390870935748025
000040 d8 7c 34 0b 64 41 d8 bf 81 f9 68 96 bf da b5 bf
       -0.3789911374496575 -0.08536908552284751

blocks1.SCINet_Tree.SCINet_Tree_even.workingblock.interact.level.psi.1.bias f8 [2]
000000 cb 10 d7 5a 40 cc d5 bf 3e c0 fb 8e f2 00 e0 bf
       -0.3405915152654983 -0.5001156609196256

blocks1.SCINet_Tree.SCINet_Tree_even.workingblock.interact.level.psi.4.weight f8 [1, 2, 3]
000000 86 95 aa 80 69 22 bb 3f 2f 11 1e 35 ac 6b da 3f
       0.10599383727329412 0.4128218191838355
000010 c3 08 57 61 99 94 ce bf 72 e8 6c 56 71 01 d5 3f
       -0.23890988591126047 0.32821305694563485
000020 6f a3 0e 5c 17 90 c5 bf 5b e7 2d 17 34 bb 81 3f
       -0.16845981593112522 0.008657843549133728

blocks1.SCINet_Tree.SCINet_Tree_even.workingblock.interact.level.psi.4.bias f8 [1]
000000 70 4b d9 c3 bb 33 c9 bf
       -0.19689127982072874

blocks1.SCINet_Tree.SCINet_Tree_even.workingblock.interact.level.P.1.weight f8 [2, 1, 5]
000000 44 46 7c be 1f 78 ca 3f cc 2e 3b a1 b4 46 c0 bf
       0.20679089356467462 -0.12715776321998928
000010 6d 1d 8f 01 17 64 be bf 92 98 88 d1 97 40 c8 bf
       -0.11871475017607276 -0.18947122317439785
000020 76 e8 a5 c7 71 9c cf 3f 61 08 f8 58 53 0d c7 bf
       0.2469618058056004 -0.1800941643160199
000030 09 91 dc 75 ff 9f c6 bf ea ab ec f5 87 db bd bf
       -0.17675774817428927 -0.11663102869049138
000040 31 1c 41 71 72 80 c1 3f 49 d7 7d e8 ac 41 a4 3f
       0.13673239259716888 0.03956356370956244

blocks1.SCINet_Tree.SCINet_Tree_even.workingblock.interact.level.P.1.bias f8 [2]
000000 5d cc 43 78 20 b9 b6 bf 6a f6 1c c1 39 34 97 bf
       -0.08876231132653474 -0.022660162364664428

blocks1.SCINet_Tree.SCINet_Tree_even.workingblock.interact.level.P.4.weight f8 [1, 2, 3]
000000 79 a6 7c 5b 29 b5 d6 bf 83 61 6f 01 85 eb d4 bf
       -0.35480722364682254 -0.32687497272629445
000010 70 01 13 c1 33 c0 c8 3f 17 04 c1 6d 70 20 cd bf
       0.19336554458096655 -0.22755246504860402
000020 da 1a 24 29 02 00 b9 bf 45 36 db 1a f5 92 d5 bf
       -0.09765637878818315 -0.3370945703762554

blocks1.SCINet_Tree.SCINet_Tree_even.workingblock.interact.level.P.4.bias f8 [1]
000000 f4 d0 53 1d 0c 1e 65 3f
       0.0025778042423728557

blocks1.SCINet_Tree.SCINet_Tree_even.workingblock.interact.level.U.1.weight f8 [2, 1, 5]
000000 02 06 7a 7d 6c 0b b5 3f 6e c9 10 b6 72 4f bc 3f
       0.0822055631961334 0.11058728165588658
000010 9d 89 5d f1 03 e6 aa 3f 2c e6 5c 71 14 99 92 3f
       0.05253612824778318 0.018162078303452997
000020 42 fc f3 db 3a 53 c0 3f 6a 75 a7 b5 7f e1 db 3f
       0.1275399755467977 0.4356383584943929
000030 66 2d c0 7b df 5a c6 3f cc 81 61 6f 7e b6 a9 3f
       0.1746482233287267 0.05022044286375013
000040 31 73 88 c5 a1 87 bd bf 29 44 2e 40 76 0e c2 bf
       -0.11535082886298366 -0.1410663426763972

blocks1.SCINet_Tree.SCINet_Tree_even.workingblock.interact.level.U.1.bias f8 [2]
000000 4b 6c e4 78 d3 0c 89 bf 4c 63 51 7b 69 5a b6 3f
       -0.012231495024528046 0.08731707821551743

blocks1.SCINet_Tree.SCINet_Tree_even.workingblock.interact.level.U.4.weight f8 [1, 2, 3]
000000 c9 27 e2 b8 fb c4 bd bf 1f e8 64 c3 1d 69 84 bf
       -0.1162869764686142 -0.009966118360001329
000010 fe 49 ee b4 28 36 c6 bf 37 ed 43 99 e1 e8 6d bf
       -0.17352780184280897 -0.0036510854935138076
000020 04 e6 15 42 9b 39 98 bf de 75 f5 38 fd 02 9d bf
       -0.023657251270810434 -0.028331715203753542

blocks1.SCINet_Tree.SCINet_Tree_even.workingblock.interact.level.U.4.bias f8 [1]
000000 6f cd f4 c5 ab 2e d7 bf
       -0.3622235711256598

blocks1.SCINet_Tree.SCINet_Tree_even.SCINet_Tree_odd.workingblock.interact.level.phi.1.weight f8 [2, 1, 5]
000000 31 fa 8a 14 d3 91 d2 bf 9e 5a 3a ff 5d 4b cb 3f
       -0.29015042310848843 0.21323752367307675
000010 d9 a3 14 97 f3 e6 c0 bf 20 c2 51 ae c3 be b9 3f
       -0.13204808117850922 0.10056708341449694
000020 e9 6c ca bc f4 43 d4 3f bd 63 f9 b9 07 1b c8 bf
       0.31664770542711423 -0.18832489567537705
000030 fe dd cd f9 de 9e d5 3f f6 ca 09 ea 11 b8 b9 3f
       0.337821716260322 0.10046493495773831
000040 30 19 d7 a6 ff 38 d9 bf 08 b8 d2 9a b7 3d c3 3f
       -0.39410392086974166 0.15032095966074643

blocks1.SCINet_Tree.SCINet_Tree_even.SCINet_Tree_odd.workingblock.interact.level.phi.1.bias f8 [2]
000000 55 22 de f6 c8 9b c6 3f 40 b4 bc 6f 0d 47 d2 bf
       0.17662918142402143 -0.2855866995985856

blocks1.SCINet_Tree.SCINet_Tree_even.SCINet_Tree_odd.workingblock.interact.level.phi.4.weight f8 [1, 2, 3]
000000 77 69 2f b9 b4 72 da bf 4e 76 3c c2 e0 16 a1 3f
       -0.41325109562389833 0.03337767001196977
000010 95 00 7b 00 cf 8b d7 bf 5c 07 d1 09 96 93 d0 3f
       -0.3679082398121037 0.25900793989796056
000020 46 4f 4b 70 c3 5c 8b 3f 9e 1a b2 9e c1 1a bb bf
       0.013360525955625879 -0.10587701916129297

blocks1.SCINet_Tree.SCINet_Tree_even.SCINet_Tree_odd.workingblock.interact.level.phi.4.bias f8 [1]
000000 a1 25 30 8a c1 92 e2 bf
       -0.5804145525918792

blocks1.SCINet_Tree.SCINet_Tree_even.SCINet_Tree_odd.workingblock.interact.level.psi.1.weight f8 [2, 1, 5]
000000 ce 19 10 c6 87 4e d1 bf 9f 88 d9 40 f0 6f a7 bf
       -0.27041811315612285 -0.04577589789984526
000010 94 8e f5 40 c1 10 91 3f 54 6f f6 d5 95 d7 d2 3f
       0.016665477361483896 0.2944082822302694
000020 b7 9b 6f 6b 38 3a a0 bf 4c ad 14 da d0 ce c5 3f
       -0.03169418632005921 0.17037401817774833
000030 61 a2 5b b9 24 75 b3 3f 5c 18 22 d4 6a c2 a5 3f
       0.0760062172445344 0.042498911280788504
000040 21 cb 08 dd de 38 d0 3f 6a 9c 0c 21 d4 26 d8 bf
       0.25347110352884 -0.377369911455793

blocks1.SCINet_Tree.SCINet_Tree_even.SCINet_Tree_odd.workingblock.interact.level.psi.1.bias f8 [2]
000000 0c 32 d2 53 70 21 d7 3f 26 c2 25 44 a0 8f dd bf
       0.3614159411015698 -0.46189123778370555

blocks1.SCINet_Tree.SCINet_Tree_even.SCINet_Tree_odd.workingblock.interact.level.psi.4.weight f8 [1, 2, 3]
000000 41 66 6b fe f5 07 dc bf 65 9a b2 19 31 84 b3 3f
       -0.4379858955922807 0.07623583676704866
000010 5b 61 8a 13 89 89 d4 bf 8f b5 db f0 76 df b4 3f
       -0.3208944979501404 0.08153479938819984
000020 90 cf b6 dc 70 9d c6 3f e4 5e d5 f3 b9 9f db bf
       0.1766797139840688 -0.4316239243685074

blocks1.SCINet_Tree.SCINet_Tree_even.SCINet_Tree_odd.workingblock.interact.level.psi.4.bias f8 [1]
000000 51 6d 8e ad 52 6d e1 bf
       -0.5445950879833764

blocks1.SCINet_Tree.SCINet_Tree_even.SCINet_Tree_odd.workingblock.interact.level.P.1.weight f8 [2, 1, 5]
000000 18 f6 e1 f5 ac e9 d3 bf 48 65 fd 3f 85 9d ce 3f
       -0.3111374283979287 0.23918214439872032
000010 97 d6 bc 22 b5 3f cd bf c2 b8 5c 5b a1 65 c1 3f
       -0.22850670047926222 0.13591401063007963
000020 2d d1 45 d0 fb a6 a9 bf 66 bb fd ab ca 72 bb bf
       -0.05010210912124289 -0.10722033213617763
000030 d8 a0 73 87 1a 97 d1 3f d8 4c 60 fc 55 4d 86 3f
       0.2748476336260075 0.010889693989190638
000040 8f 86 1f e5 2c 0d b2 3f 26 2b eb 47 b3 57 9b bf
       0.0705135402090724 -0.026701737656178136

blocks1.SCINet_Tree.SCINet_Tree_even.SCINet_Tree_odd.workingblock.interact.level.P.1.bias f8 [2]
000000 0b 27 c0 6c ba 62 d4 bf 91 a8 8a 43 35 89 da bf
       -0.3185258924500977 -0.41462451549399143

blocks1.SCINet_Tree.SCINet_Tree_even.SCINet_Tree_odd.workingblock.interact.level.P.4.weight f8 [1, 2, 3]
000000 6c 9a f6 b4 db 93 99 3f 9b 06 00 33 0d da a7 bf
       0.02497809688579837 -0.04658547637519669
000010 84 9a 2f 62 fc 3b b0 3f 34 6d 16 24 cf 09 b3 bf
       0.06341531178586918 -0.07436842566533103
000020 08 06 e5 f1 4c 9a d9 3f 96 f4 2b 4d b8 81 a9 3f
       0.40004275915643506 0.049817809505818975

blocks1.SCINet_Tree.SCINet_Tree_even.SCINet_Tree_odd.workingblock.interact.level.P.4.bias f8 [1]
000000 29 f3 21 70 d0 28 b7 bf
       -0.09046652543652257

blocks1.SCINet_Tree.SCINet_Tree_even.SCINet_Tree_odd.workingblock.interact.level.U.1.weight f8 [2, 1, 5]
000000 6d 9a 6a 0a af d9 e7 bf 77 09 3d 65 b8 52 b0 bf
       -0.7453227237172776 -0.06376221152917148
000010 c9 05 14 78 86 9c ce bf 10 0d 87 b3 16 93 af 3f
       -0.23915177214807518 0.06166907254694298
000020 8f 11 d4 c4 4c 45 e5 3f 03 f9 b1 83 e3 f7 e2 3f
       0.6647094578079747 0.5927598545238485
000030 76 01 38 c6 24 95 cb 3f 0b 31 bf 4c 02 8d b8 3f
       0.2154890029778575 0.09590162633611869
000040 c1 f1 19 9e 09 15 d7 3f ea 10 a2 4a 08 42 b4 3f
       0.3606590312918137 0.07913257429214907

blocks1.SCINet_Tree.SCINet_Tree_even.SCINet_Tree_odd.workingblock.interact.level.U.1.bias f8 [2]
000000 c4 9f db 87 81 2d c1 bf 34 f4 d1 de 20 bb d0 bf
       -0.13420123227774472 -0.2614214111307007

blocks1.SCINet_Tree.SCINet_Tree_even.SCINet_Tree_odd.workingblock.interact.level.U.4.weight f8 [1, 2, 3]
000000 f0 68 df 8c f5 d9 df 3f 85 e6 33 0b 71 e2 cd 3f
       0.49767817265605085 0.2334729485226498
000010 ec 4c 57 e4 12 61 ea 3f bb b0 fb 1a bc 4d ab 3f
       0.8243498286996362 0.053327444356769026
000020 78 0e 73 72 0d df e0 3f fa 81 1b 6a a4 29 e6 3f
       0.52722809174925 0.6925832817469761

blocks1.SCINet_Tree.SCINet_Tree_even.SCINet_Tree_odd.workingblock.interact.level.U.4.bias f8 [1]
000000 cd 08 54 6d 4c d8 be 3f
       0.12048795384547191

blocks1.SCINet_Tree.SCINet_Tree_even.SCINet_Tree_even.workingblock.interact.level.phi.1.weight f8 [2, 1, 5]
000000 b9 ff 91 a7 01 14 8f 3f ea b4 da 85 62 07 a1 bf
       0.015174878050174688 -0.03325946697200684
000010 89 7c e5 d6 4a 1e b4 bf b6 8c 5c 08 ea 59 bd 3f
       -0.07858722445006285 0.11465323166025851
000020 f1 16 fd 0c c1 ef d8 3f 8c b7 cf be 67 f2 bf 3f
       0.38963342922612215 0.12479256065827665
000030 67 19 e4 8d 73 33 b4 bf ba 51 f5 2c f0 9e 93 3f
       -0.07891008581291246 0.019160988563571492
000040 d5 63 6f a0 8c 70 db bf 8d e0 a6 89 52 0b d2 3f
       -0.4287444655179205 0.2819410652405246

blocks1.SCINet_Tree.SCINet_Tree_even.SCINet_Tree_even.workingblock.interact.level.phi.1.bias f8 [2]
000000 35 52 16 53 3f 0f d2 bf 98 61 c8 2d 9d d3 a7 bf
       -0.28218062509521086 -0.04653636154052093

blocks1.SCINet_Tree.SCINet_Tree_even.SCINet_Tree_even.workingblock.interact.level.phi.4.weight f8 [1, 2, 3]
000000 1c e4 9c 8c cc 67 d4 bf 33 6d 1f 4e 71 45 d3 bf
       -0.3188353894398135 -0.30111343983817845
000010 68 69 08 33 aa 9e c1 3f d5 a2 9c aa f7 b1 90 3f
       0.13765456668700016 0.016303891933747778
000020 f8 3b fe d1 3b c4 cf 3f 61 ca 6f c7 2c 36 b3 3f
       0.24817607644624196 0.07504539364871611

blocks1.SCINet_Tree.SCINet_Tree_even.SCINet_Tree_even.workingblock.interact.level.phi.4.bias f8 [1]
000000 31 5d 7f d5 5b 8a e3 bf
       -0.6106394929765085

blocks1.SCINet_Tree.SCINet_Tree_even.SCINet_Tree_even.workingblock.interact.level.psi.1.weight f8 [2, 1, 5]
000000 0e 3b 2c 32 44 a8 c2 bf a3 f9 65 bc 72 58 d2 bf
       -0.14576008272020896 -0.286648448927645
000010 8e 9d 78 af a8 2c c9 bf a8 32 60 44 2b 32 c4 bf
       -0.19667538230826803 -0.15778103674565114
000020 6c 78 a4 89 b2 6f c3 3f 6e e9 7a 36 b9 0c 9d 3f
       0.1518462345201813 0.028368848753168967
000030 5b 64 85 de 7f 6c da 3f 2c fb ca 51 1b f8 b5 bf
       0.4128722832734348 -0.08581705805680134
000040 4b dd 9e 7b 0d 1a d4 3f 6b 59 44 a6 d4 64 b8 bf
       0.3140901286346504 -0.09528855380299255

blocks1.SCINet_Tree.SCINet_Tree_even.SCINet_Tree_even.workingblock.interact.level.psi.1.bias f8 [2]
000000 a8 10 d5 5b cd 31 d4 bf be 20 7b 3f 76 f6 d7 3f
       -0.3155396839904463 0.3744178409510929

blocks1.SCINet_Tree.SCINet_Tree_even.SCINet_Tree_even.workingblock.interact.level.psi.4.weight f8 [1, 2, 3]
000000 b0 f2 f2 58 b0 a2 ac 3f ce 79 c0 da 9c 45 99 3f
       0.055928717477831014 0.024679613925508374
000010 ea bb 48 60 5e 6f d4 3f 76 19 fe a0 08 40 c0 bf
       0.3192974033617576 -0.1269541536423266
000020 57 9d 6e 50 22 a5 df bf d7 2e 33 b0 c1 52 e3 bf
       -0.494453981921159 -0.6038521233944846

blocks1.SCINet_Tree.SCINet_Tree_even.SCINet_Tree_even.workingblock.interact.level.psi.4.bias f8 [1]
000000 3d 5f d7 9d f1 1a ed bf
       -0.9095390398824531

blocks1.SCINet_Tree.SCINet_Tree_even.SCINet_Tree_even.workingblock.interact.level.P.1.weight f8 [2, 1, 5]
000000 8d 2c e1 20 6b 34 d4 bf b3 1b 88 1e 92 fc c2 bf
       -0.3156993695344646 -0.1483328484611924
000010 97 89 de 1d 98 a6 ca 3f 95 2d af c7 43 d3 d2 3f
       0.20820905168973233 0.2941445779840362
000020 21 a8 e7 8d 76 dc cd 3f 75 64 9d 2f e5 ee c6 3f
       0.23329049996328968 0.17916550469343276
000030 fa 89 7d 84 35 d6 9a bf b5 21 0c c6 b6 60 89 3f
       -0.026207767688342522 0.012391498488356282
000040 32 68 a8 79 df 38 c0 3f 18 b4 ab ec 48 b5 83 bf
       0.12673562469791616 -0.009623117182366456

blocks1.SCINet_Tree.SCINet_Tree_even.SCINet_Tree_even.workingblock.interact.level.P.1.bias f8 [2]
000000 8c 10 23 62 18 06 b8 bf 18 83 39 8c c7 87 dd bf
       -0.09384300609514379 -0.4614123219853794

blocks1.SCINet_Tree.SCINet_Tree_even.SCINet_Tree_even.workingblock.interact.level.P.4.weight f8 [1, 2, 3]
000000 c0 f1 8f 06 d9 c3 c1 bf 9d 01 f9 30 aa b7 d6 bf
       -0.13878929920600847 -0.3549600103615605
000010 c7 00 f8 dc b9 e9 da bf 26 27 9a 22 2b 59 bb 3f
       -0.42051550463658 0.106829353282731
000020 09 b3 6c a1 aa 13 ce 3f 9d 0f e0 78 67 1b bd 3f
       0.23497517473278887 0.11369940472655889

blocks1.SCINet_Tree.SCINet_Tree_even.SCINet_Tree_even.workingblock.interact.level.P.4.bias f8 [1]
000000 0c 62 57 14 28 f3 cd bf
       -0.23398304932813152

blocks1.SCINet_Tree.SCINet_Tree_even.SCINet_Tree_even.workingblock.interact.level.U.1.weight f8 [2, 1, 5]
000000 82 b7 41 09 fa 55 c8 3f 8d d4 7e 24 c3 a9 bf 3f
       0.1901238007735025 0.12368411675454834
000010 0e f5 07 b5 5d 95 9f bf a9 e2 34 8a 66 11 d3 bf
       -0.030843223737965046 -0.2979370450662296
000020 27 b7 42 d3 0b 0c d4 bf 40 85 d3 4f 3d 06 d9 3f
       -0.3132352412311427 0.3910058288148157
000030 24 5f 91 9d bc 8a aa bf 37 b0 aa af a8 5b c2 3f
       -0.05183972762523428 0.1434222085712251
000040 39 f9 47 95 df b3 bd 3f b8 be d4 52 a1 08 d1 bf
       0.11602589983519786 -0.26615174378364825

blocks1.SCINet_Tree.SCINet_Tree_even.SCINet_Tree_even.workingblock.interact.level.U.1.bias f8 [2]
000000 a6 9d d2 c2 2e b0 ba bf 5f 95 6d 58 fa ef 91 bf
       -0.1042508340493585 -0.017517005583973396

blocks1.SCINet_Tree.SCINet_Tree_even.SCINet_Tree_even.workingblock.interact.level.U.4.weight f8 [1, 2, 3]
000000 6b 48 30 b6 d6 8c a1 bf 5d 91 5c a4 04 b3 bc bf
       -0.03427763914091105 -0.11210659992918211
000010 6f 8c 49 66 b5 9e c2 bf 54 6d b8 ea 2c 42 bd bf
       -0.14546840185639406 -0.11429100733260117
000020 60 07 a1 38 fb ae cf 3f fa ae e4 9c b4 50 ce 3f
       0.24752750649536903 0.23683793698125283

blocks1.SCINet_Tree.SCINet_Tree_even.SCINet_Tree_even.workingblock.interact.level.U.4.bias f8 [1]
000000 3c 1b 70 b8 90 41 c8 3f
       0.1895008946014175

projection1.weight f8 [24, 48, 1]
000000 f3 15 f1 e7 ac 8d 72 3f fb 95 96 bc 39 76 7f 3f
       0.004529643453741172 0.007681108030202828
000010 6d 76 bd 01 f4 78 a5 3f 8f 4a 52 7f a3 e3 ad bf
       0.041938424312985535 -0.05837737015931054
000020 d2 77 61 ea 7b 61 81 3f 41 18 bc ee 05 23 59 bf
       0.008486717310173395 -0.001534229081643371
000030 b4 aa 14 b8 f9 72 83 3f ba 49 38 c1 2f df 71 bf
       0.009496642046163607 -0.004363237897921863
000040 2c ef 7f d5 ca 9b 9d bf 1e 1c 5e ab 43 c2 91 3f
       -0.02891461303805369 0.017342622122239353
000050 35 ac 0f 40 5e e4 64 3f 4a 63 51 8d c2 62 9f bf
       0.002550300676821072 -0.0306501768830885
000060 d3 eb 89 cb 80 a2 81 3f 79 d7 da 15 2a 4b 8b bf
       0.008610731326589438 -0.013326958457905868
000070 ae 7a 16 30 cb 12 87 3f d6 e6 2f 85 4b 45 61 bf
       0.011266314892791254 -0.002108237743866019
000080 fe d4 fa f4 c4 70 85 bf 2b 7d 57 36 d8 7e 9c 3f
       -0.010468996740522925 0.02782762366939299
000090 06 3f 4c 4c 0e 43 8e 3f a0 64 ec 9e b5 67 95 bf
       0.014776336387086097 -0.020903432679095446
0000a0 90 aa 38 4f 1a 17 8d 3f 28 23 b0 f1 2e ef 72 bf
       0.014204221289295021 -0.004622634291998641
0000b0 cc 2e 58 74 01 ec 63 bf e3 b4 70 e9 53 51 a6 bf
       -0.002431872215998476 -0.04358923172581244
0000c0 ae e9 45 a0 c0 91 98 bf 28 a2 85 52 19 8c ae 3f
       -0.023993501455586923 0.05966261989926053
0000d0 8e e4 02 7a 38 ed a8 3f 46 21 04 9d e7 81 b8 bf
       0.04868484963794471 -0.09573218902017286
0000e0 86 ad a8 bb 15 5c 84 3f 60 5b 8f a5 07 af 9b bf
       0.00994126299800403 -0.027034873466472376
0000f0 25 a0 46 2f 3e ab 87 bf 4b fe 32 68 80 da 96 bf
       -0.011557088678117175 -0.02231789241773034
000100 99 76 ba e9 05 92 7d 3f 32 49 02 fb bc 2d 63 3f
       0.007219336602842263 0.002341145613237527
000110 40 07 08 04 ac 48 99 3f e1 83 c2 7d 0b fc 9e bf
       0.024691283937506414 -0.03025834994389587
000120 48 cc ed 28 cc 77 98 3f f1 f4 ea eb e4 b5 9d bf
       0.023894491193868356 -0.02901418390205363
000130 2b 16 0a 90 0f da 94 3f ff 27 b6 54 17 4a 8b bf
       0.020363085905520755 -0.013324911377612379
000140 0d ec 17 31 18 13 b8 3f 92 6c 1b 12 cd 62 70 3f
       0.09404135893412065 0.004000474031012351
000150 14 08 46 8e 66 57 b2 3f b2 71 7f 14 47 a2 b1 3f
       0.07164612744784932 0.06888241053042668
000160 7c 47 9d fa a7 75 a7 3f f3 e1 2b 17 70 8e c0 3f
       0.04581952032334777 0.1293468583242113
000170 32 51 ab 13 68 6e c2 3f 56 f8 03 5b 03 d4 cc 3f
       0.14399434051905186 0.2252201265727673
000180 da c3 fc 78 95 11 71 3f fd ec ee a7 2b 44 70 3f
       0.004167159917231234 0.003971262484749658
000190 a2 3a 55 c1 5f 96 92 3f 10 90 8a 66 40 87 9e bf
       0.01815175645361456 -0.029812818773862715
0001a0 bb 5d df eb 19 25 81 3f 19 ef 23 ab bb 07 71 3f
       0.008371546278722932 0.00415776546492077
0001b0 b8 7d 43 a6 a1 88 6c bf 75 5c 94 41 b1 3a 7e bf
       -0.0034831196991118273 -0.007380192191042236
0001c0 42 22 37 3d 87 1e 73 3f 99 ca 44 d3 31 c6 61 3f
       0.004667785909483304 0.0021697018766187568
0001d0 38 09 bf 6e 18 27 86 bf 90 85 39 4a 48 3c a0 bf
       -0.010816756133753644 -0.03170991807997858
0001e0 77 ad ec 8b 76 23 8d 3f bf b7 2d 38 e4 12 70 bf
       0.014227796692998436 -0.003924266321389368
0001f0 f7 73 b1 19 b1 3b 81 bf de e1 58 9b 36 65 81 3f
       -0.008414634319871423 0.008493830314464764
000200 10 c3 d7 83 81 f4 8c 3f 51 d5 52 46 1f 60 8b 3f
       0.014138233028434338 0.013366932233433689
000210 ae d0 d4 d9 d2 d6 75 3f dd 1f 13 1d 18 22 7e bf
       0.00533182490953636 -0.007356733506817617
000220 b1 ef b6 5a 09 a1 86 3f f6 f6 1d 9a 97 c3 7c bf
       0.011049340325250375 -0.007022468753232527
000230 d1 dc 3c a9 ea 60 85 3f 64 7c 91 53 33 19 9d bf
       0.0104387600800763 -0.02841644475517703
000240 7e b2 3f 4d 8b 0b 8b 3f ce 77 b4 82 a8 c1 80 3f
       0.013205612463900392 0.00818187378768789
000250 b0 83 97 9d 43 71 95 3f a7 27 d7 65 04 77 a6 bf
       0.020939880841868763 -0.04387677901429692
000260 e6 5d 3a 33 58 2e 72 3f 27 07 71 d0 b8 27 83 bf
       0.004438728839566397 -0.009353107319956045
000270 42 a8 7b d9 4c 6e 9f bf 55 ba 96 d3 64 93 a1 bf
       -0.030694199346648306 -0.03432765086050852
000280 be c1 02 7f 9f 7c 73 bf 00 ee 0b 56 22 d7 97 3f
       -0.004757521659641771 0.0232816090601613
000290 3b c3 49 66 1a cd 83 3f 73 f9 0d 6e cb 09 b4 bf
       0.009668546911798628 -0.07827445446853236
0002a0 e3 a7 20 9e 29 07 98 3f 70 5c 45 40 61 88 a1 bf
       0.023464823032703818 -0.03424362096364397
0002b0 6b ff 6d 9f de 34 8c 3f cc 62 39 a4 b2 d5 85 bf
       0.013772715797813103 -0.010661502491687534
0002c0 c8 71 6e 61 b0 df a2 3f 0d b8 32 ae 32 33 b6 3f
       0.036862861531719526 0.08671871903308688
0002d0 bb 85 67 00 e8 29 b0 3f 7e 06 48 8f a7 e9 b4 3f
       0.06313943872330345 0.08169028518752872
0002e0 54 30 a4 50 56 ad b0 3f 94 57 ed 81 fb fd b5 3f
       0.0651449152830435 0.08590671464966554
0002f0 e7 f6 6a 40 80 19 bd 3f 41 57 2a 52 fa d6 cd 3f
       0.11367036411953856 0.23312310230238079
000300 e5 41 44 ff 33 e2 6c 3f 9a 66 7c 6b c1 b3 70 bf
       0.0035258307999657006 -0.004077678247790617
000310 34 87 5e 19 11 69 92 3f d6 de e6 f2 e6 54 85 bf
       0.017978923009315653 -0.010415844238067445
000320 a5 41 64 9f 7f d4 79 3f 8b 90 dd d4 2f 90 80 3f
       0.006306170011399469 0.008087514575614093
000330 8f 1f c6 23 00 1a 89 bf 76 29 16 ca 1c 65 7c bf
       -0.0122566233556112 -0.006932365854832026
000340 21 42 6b ee 16 1d 7d bf d8 08 0f 8a 75 51 72 bf
       -0.007107820106015101 -0.004472216737612743
000350 10 02 45 52 76 87 6b bf ff 8d 5e 68 28 c3 99 bf
       -0.0033604918445748824 -0.025158530588340607
000360 a3 16 2e ce 5c 39 3b 3f 05 e9 1d 62 40 03 37 bf
       0.00041540637737856096 -0.0003511459527697633
000370 57 14 e9 eb 31 5b 81 bf 0c 6f c6 f6 ae 4b 92 3f
       -0.00847472191993341 0.017866834461172806
000380 cc 40 78 05 da ff a2 bf bb 87 a4 aa ab 79 9d 3f
       -0.03710824314851066 0.028784448900416964
000390 91 50 e2 03 db e7 96 3f 7f 74 6d f7 da 96 7f bf
       0.02236883364874182 -0.007712226236290864
0003a0 df 77 85 8d 08 56 a1 3f 44 67 8a 32 47 82 84 bf
       0.03385950782352131 -0.010014110784414172
0003b0 b8 cc 85 c5 14 53 98 3f 43 f6 47 68 21 0e 91 bf
       0.023754429393602478 -0.016655466069997137
0003c0 63 8e 2f a0 38 ac 98 3f 39 6b 05 6a 9f 9c 90 bf
       0.02409447171875313 -0.01622246822931148
0003d0 6b d0 43 64 76 75 7b 3f 9d 6b d8 7e 31 28 af bf
       0.00670381781332106 -0.060853525861794135
0003e0 99 39 7c 8d 9f e1 b1 3f 7f 22 37 8e 25 ff 99 bf
       0.06984898761968451 -0.025387369923722588
0003f0 d7 96 52 bc 14 c1 a2 bf 73 3e 8a d6 ee 86 97 bf
       -0.036629341114616736 -0.022975665897830354
000400 b3 f1 47 ff fe b6 96 bf 76 55 38 9b 1e 18 94 3f
       -0.022182449656598723 0.019623258804207087
000410 98 e6 ab d3 b1 27 85 3f cd 9c 69 44 4e 01 a7 bf
       0.010329617759896423 -0.04493183693994638
000420 7e 58 46 7d 8a 61 aa bf 63 fa 5e 1c aa 9e 9e 3f
       -0.05152542857392549 0.029902132016781723
000430 56 4a 01 e9 72 39 90 3f 20 92 56 f2 c4 63 62 bf
       0.015844150039195114 -0.0022448393453535914
000440 74 eb 7d 7c 74 5c 74 bf 82 d0 00 1d 1c 32 95 3f
       -0.004970984482379193 0.020698966284002036
000450 71 09 7f 24 fc 52 a4 3f fa a6 87 90 ce 43 83 bf
       0.03969562478552547 -0.009406675134374865
000460 13 2c 48 b4 02 80 c8 3f ad 8f 16 59 4e 94 ae 3f
       0.19140657236889122 0.059725235342994544
000470 af 17 b9 3e 53 ec c1 3f c3 fd 62 fe c5 07 d0 3f
       0.14002457201621385 0.25047445146989505
000480 36 57 fe 31 0a 13 7f bf 17 57 0a 3c 60 52 90 3f
       -0.007586517167416143 0.015939239182066602
000490 c0 75 f0 80 38 e3 7a 3f 4a f1 40 ee 04 ab 98 bf
       0.006564350812394648 -0.02408988670525617
0004a0 b9 43 e0 17 17 f4 8b 3f 94 e2 4d 3e 99 88 71 bf
       0.013649158874644006 -0.0042806612080929125
0004b0 c4 de c5 99 02 d8 93 3f bb 32 4d c5 73 84 93 bf
       0.019378700862459977 -0.019059952657061823
0004c0 63 aa 2c f3 9c 57 66 3f 14 88 30 a6 e7 44 55 3f
       0.002727324049734124 0.0012981664847377993
0004d0 9c 21 5a 78 82 83 7f bf 0a d5 70 23 ee 87 a8 bf
       -0.007693776749541217 -0.04791206534029342
0004e0 bf b1 10 c1 02 16 86 3f 3a 28 ef a3 c8 05 8e bf
       0.010784169690020272 -0.01465946913039683
0004f0 34 3a 37 04 9e 9e 83 bf 1c fd bd e0 0f ac 8a 3f
       -0.009579882148412634 0.013023494764409942
000500 f2 a0 08 1b 94 9b 9b bf 25 1b e3 48 08 f7 aa 3f
       -0.026960672521597347 0.05266595735297689
000510 28 3c a5 6c 38 a8 84 3f 33 60 c9 ef e8 2b 97 bf
       0.01008647996482466 -0.022628440509237357
000520 61 28 7d 64 a5 49 a4 3f 83 ad a2 c7 a1 ad 73 3f
       0.03962437488242255 0.004804260208554625
000530 b1 a0 25 dd cf fe 90 3f 83 fb ef ee dd 21 68 bf
       0.016597030518284487 -0.0029458365092973073
000540 87 72 72 b4 3c 56 88 3f 7a a1 c3 f7 56 a7 48 bf
       0.011883234268958332 -0.0007523703239061118
000550 a8 ae 32 a0 c5 d2 89 3f aa 4a 56 a3 98 c2 a4 bf
       0.012609046889642997 -0.04054715150700379
000560 c8 66 37 ec 46 21 77 bf 4b e1 e0 a0 ac cb 92 3f
       -0.0056469698351635025 0.018355080909004767
000570 8b 74 04 6a 34 52 78 3f f3 4d c6 53 1a a5 b6 bf
       0.005937771551797098 -0.08845676942137697
000580 b6 b8 54 a6 56 07 9b 3f 1e 62 00 2b 8f c7 61 bf
       0.026395181562457203 -0.0021703525781158325
000590 84 d5 e8 da 94 34 17 3f 8b 1a e8 7b 8d b7 ab bf
       8.852156199952969e-05 -0.054134770751308535
0005a0 6f 90 3d d8 fa b1 9e bf ff 67 0f ac e5 de 9a 3f
       -0.02997581429316692 0.02624091017410279
0005b0 67 9c 96 50 33 84 90 bf 38 10 68 a7 fa e3 9c 3f
       -0.016129304689141224 0.028213421313935977
0005c0 c2 69 fd d5 aa 6c 8a bf 9e e9 df 4e 6d a7 93 3f
       -0.01290257897897085 0.01919337076103888
0005d0 a1 05 24 7a 6f 44 98 3f f6 a3 f6 40 15 04 b4 3f
       0.0236985605524801 0.07818730197926968
0005e0 78 ac b2 3d 01 94 b4 3f 67 60 89 1e e4 f1 a0 3f
       0.08038337475106683 0.03309548256646693
0005f0 61 db c1 51 d7 93 c0 3f 31 78 dc 38 8b 07 d3 3f
       0.12951175205281643 0.29733543923237266
000600 da 90 31 1d 69 ac 76 3f 0a 09 8d 67 24 07 86 bf
       0.005535517312726246 -0.010755810175059572
000610 dd b9 6c af 5c dc 99 3f 1a 37 e0 26 c8 46 7f bf
       0.02525467701632943 -0.007635862200926069
000620 0e 5a c4 5d cc 08 77 3f 9f 90 11 b8 ff 58 60 bf
       0.005623625093241559 -0.001995562983710355
000630 b1 91 3e 69 87 d7 8d 3f 5c 57 7a 0d 54 dd 8b bf
       0.014571245097450754 -0.01360574403888009
000640 23 58 62 e9 55 96 6f bf 5f d1 bf 05 92 dd 7b bf
       -0.00385586528416139 -0.0068031028749725156
000650 5b bf 4d dd 76 41 55 3f ea ad 71 63 99 e8 97 bf
       0.0012973461900535807 -0.02334823293169378
000660 2f 55 77 7a ab cd 99 bf 46 23 49 1d 9c e6 81 3f
       -0.02519863066648503 0.008740634578445882
000670 98 31 84 19 82 9d 9f bf cb ee c8 ae 21 b7 97 3f
       -0.03087428360690722 0.023159529011748597
000680 5f b8 1f 88 c1 a3 96 bf bd fb a2 f8 ca 51 98 3f
       -0.02210905450186151 0.023749514985634813
000690 8c cb 2f 66 6d 02 74 3f 1d 53 e0 eb bc 4b 5e bf
       0.004885127392287535 -0.0018491120276895097
0006a0 aa 8b 8a 74 e6 94 b0 3f 4f a9 ed 68 50 14 81 bf
       0.06477203698390946 -0.00833952732292134
0006b0 56 c3 35 61 35 a3 a4 3f 4d 75 4c 45 71 cc 85 bf
       0.04030768214841511 -0.010643849303557796
0006c0 87 5a fd 0e 13 1f 98 3f 06 21 33 f4 48 13 8a 3f
       0.023556039609810255 0.012732095672973742
0006d0 06 f2 d2 b7 95 17 85 3f 4b 8c e0 a5 d6 75 b1 bf
       0.010298890755046319 -0.06820432233557587
0006e0 cd 9a 8b b0 db 7b 93 3f 0b e6 d2 51 7b ca 93 3f
       0.01902716889426408 0.01932709395325642
0006f0 d8 92 3e d7 03 d3 98 bf 2f bf 14 7f a2 7c 9a bf
       -0.024242458355405144 -0.025866068846141118
000700 18 c0 c6 27 fd a4 7a bf f4 c9 66 8c 41 ab 96 bf
       -0.00650500191515848 -0.02213766498034349
000710 15 43 92 99 28 85 81 bf 81 60 72 2a b5 cb a1 bf
       -0.008554761110902068 -0.03475729125165206
000720 01 2e 77 2c c3 78 7e bf 70 4d a1 59 d5 2c 95 bf
       -0.007439386746635802 -0.02067883834417955
000730 d3 4b 23 12 c3 17 a2 bf 11 6b c3 9b 39 3f a5 3f
       -0.03533753963861099 0.04149799372108565
000740 b7 24 1a a7 b2 6e a5 bf 72 b7 97 75 85 a4 8f 3f
       -0.041860182665069905 0.015450518275396983
000750 49 67 cc b6 06 3b 98 3f 22 29 c1 cb b5 af 3f bf
       0.02366266718590929 -0.00048349560143336374
000760 d7 22 8b 74 4f eb bf 3f 54 10 c4 d9 f9 90 c5 3f
       0.12468430133152296 0.16848681576823543
000770 fe ce 06 8c fc 94 b9 3f 0d f3 b9 67 23 75 cd 3f
       0.09992960375421586 0.2301372772671119
000780 f1 4f e0 e1 b0 df 71 3f 27 78 37 93 b1 15 6f bf
       0.004363718935582726 -0.0037945240271559824
000790 77 f5 c5 cf 45 f7 81 3f c5 00 c0 ca af a3 87 bf
       0.008772416499364095 -0.011542676329554866
0007a0 3f ff 16 66 0f aa a1 3f 36 e6 e3 ed 5f 41 64 3f
       0.03450058098996899 0.002472579347451621
0007b0 25 fd fb 11 a7 20 80 bf 1d e5 00 fd 57 3b 5d bf
       -0.007874779926622619 -0.0017841681729023403
0007c0 0d 05 f0 85 ff 40 51 bf 7a 81 2a 04 39 86 2b bf
       -0.0010530944198310938 -0.00020999380111154012
0007d0 ff bd 55 82 aa 0a 84 3f ba d8 9e a9 95 80 a8 bf
       0.009785968878275318 -0.04785602279246022
0007e0 cf 32 bd bb 80 94 7e bf 46 a6 bc 1b c6 b2 70 bf
       -0.007465842117949164 -0.004076742039424602
0007f0 4a 2f b4 c1 71 72 86 bf d0 2d 06 44 27 02 5c 3f
       -0.010960472797271987 0.0017094977812089802
