exp/data_checkpoints/test/checkpoint.pth (torch, 100025 bytes, 114 tensors)

inv_timescales f8 [1]
0	0x3ff0000000000000	1.0

blocks1.SCINet_Tree.workingblock.interact.level.phi.1.weight f8 [1, 1, 7]
0	0x3fcbd91fce77fb5d	0.21756360608557204
1	0x3fbf134dce5fba35	0.12138830460001133
2	0x3fd351c2357c296c	0.30186515067239017
3	0xbfa47dbfe3dcbc3a	-0.04002189308663913
4	0x3fce888c145a97e4	0.23854208940355115
5	0xbfc0baad27664df8	-0.1306969110852234
6	0xbfb9deada2c3acf1	-0.10105405067195129

blocks1.SCINet_Tree.workingblock.interact.level.phi.1.bias f8 [1]
0	0xbfd94cd850237d1d	-0.39531524492299913

blocks1.SCINet_Tree.workingblock.interact.level.phi.4.weight f8 [1, 1, 3]
0	0xbfe27af5b6c56a48	-0.5775097436665613
1	0xbfdd9328dd8ba697	-0.4621069110422495
2	0xbfb9adc36669fba7	-0.10030766725866035

blocks1.SCINet_Tree.workingblock.interact.level.phi.4.bias f8 [1]
0	0x3fabe49dbec1d534	0.05447857812479598

blocks1.SCINet_Tree.workingblock.interact.level.psi.1.weight f8 [1, 1, 7]
0	0xbfcbba6173c17e9e	-0.2166253867353491
1	0x3fd2af251a8de70b	0.291939998561802
2	0xbf7168c696317903	-0.004250312546984827
3	0xbfc57659eb34b6b5	-0.1676742933718082
4	0xbfbbd14d8e491a44	-0.10866245960014803
5	0xbfc3f6ab22fb0283	-0.15596522529633114
6	0xbfbbfcd442260e7b	-0.10932661642987711

blocks1.SCINet_Tree.workingblock.interact.level.psi.1.bias f8 [1]
0	0xbfbe4b564101c255	-0.11833705031472992

blocks1.SCINet_Tree.workingblock.interact.level.psi.4.weight f8 [1, 1, 3]
0	0x3fd74be28f246138	0.3640066526291039
1	0x3fb86918b17d36b6	0.09535364468794225
2	0xbf64f9b2e06c1415	-0.002560471886115421

blocks1.SCINet_Tree.workingblock.interact.level.psi.4.bias f8 [1]
0	0xbfe14d4c2a2d4334	-0.5406857322469478

blocks1.SCINet_Tree.workingblock.interact.level.P.1.weight f8 [1, 1, 7]
0	0xbfaa255174a9f056	-0.05106596516722621
1	0x3fc4443e13340547	0.15833259523064155
2	0x3fc7e4546623a6f1	0.1866555689551244
3	0xbfd4b1891548d16d	-0.3233359058242716
4	0x3f7596cd5f460e85	0.005270769343386332
5	0x3fb9cfc228812dd7	0.10082639206773734
6	0xbfc88c1e461f3757	-0.19177606986925852

blocks1.SCINet_Tree.workingblock.interact.level.P.1.bias f8 [1]
0	0x3fa37ae0a497e340	0.03804685601421065

blocks1.SCINet_Tree.workingblock.interact.level.P.4.weight f8 [1, 1, 3]
0	0x3f8cb7cc0fad4f07	0.014022440174506835
1	0x3f8fd3d547f147a4	0.015540758378992887
2	0x3f97373b5a5d49c1	0.022671630278020553

blocks1.SCINet_Tree.workingblock.interact.level.P.4.bias f8 [1]
0	0xbfd648efdf8f0a3f	-0.348201721495716

blocks1.SCINet_Tree.workingblock.interact.level.U.1.weight f8 [1, 1, 7]
0	0x3fe107919325078e	0.5321739076537015
1	0xbf98e741313f0142	-0.02431966651033802
2	0x3fd668ce08b512db	0.35014677858661764
3	0xbfbb94e34416931c	-0.1077405968886293
4	0x3fbcf2f0cc96bc88	0.1130819797024164
5	0xbfd668d497e27924	-0.350148342442383
6	0xbfd64f20f960558b	-0.34857963898806393

blocks1.SCINet_Tree.workingblock.interact.level.U.1.bias f8 [1]
0	0xbfd31d896466c80d	-0.2986777763827611

blocks1.SCINet_Tree.workingblock.interact.level.U.4.weight f8 [1, 1, 3]
0	0xbfda567bace83cda	-0.41152850995508816
1	0xbfe1d46e17cdf3c9	-0.5571814026767409
2	0xbfdc357ba81b4cbf	-0.4407643453279881

blocks1.SCINet_Tree.workingblock.interact.level.U.4.bias f8 [1]
0	0x3fddb5ae591c483e	0.46421393110461284

blocks1.SCINet_Tree.SCINet_Tree_odd.workingblock.interact.level.phi.1.weight f8 [1, 1, 7]
0	0x3fcd58da053b1e53	0.22927403693596435
1	0x3fdfd779be128b63	0.4975265842605749
2	0x3fe348f0e19878a3	0.6026539236225016
3	0x3fc0ed23dae76f15	0.13223694027589575
4	0xbfa280857151fe57	-0.036136789401095264
5	0xbfba9878eac512c8	-0.10388904315648084
6	0x3fd74ead30e6497f	0.3641770341429477

blocks1.SCINet_Tree.SCINet_Tree_odd.workingblock.interact.level.phi.1.bias f8 [1]
0	0x3fd69e4241b08fff	0.35340935149201863

blocks1.SCINet_Tree.SCINet_Tree_odd.workingblock.interact.level.phi.4.weight f8 [1, 1, 3]
0	0xbfd92bbc671b646b	-0.39329443043749873
1	0xbfdecedd8e9d42a5	-0.4813760655133968
2	0xbfdc6606a9facd93	-0.4437271747549058

blocks1.SCINet_Tree.SCINet_Tree_odd.workingblock.interact.level.phi.4.bias f8 [1]
0	0xbff2f9cadc2a491d	-1.1859844780161162

blocks1.SCINet_Tree.SCINet_Tree_odd.workingblock.interact.level.psi.1.weight f8 [1, 1, 7]
0	0xbfb2cad81e902dc8	-0.07340765710994568
1	0xbf80ba9fd9574e33	-0.008168457813474727
2	0x3fc027f61c94f005	0.1262195243415364
3	0x3fdc46e47d8b5757	0.4418269372957772
4	0xbfcb5811007b8495	-0.2136250736576001
5	0x3fd167f883947fd9	0.27197087144486215
6	0x3f5c45087986c54e	0.0017254431496492475

blocks1.SCINet_Tree.SCINet_Tree_odd.workingblock.interact.level.psi.1.bias f8 [1]
0	0xbfded4ef06ecb622	-0.481746441614492

blocks1.SCINet_Tree.SCINet_Tree_odd.workingblock.interact.level.psi.4.weight f8 [1, 1, 3]
0	0xbfcc0e1c25247ee3	-0.21918060124971026
1	0xbfc1d5ff2d707e8f	-0.13934316366884444
2	0xbfc4ee99fff598b5	-0.16353154180541699

blocks1.SCINet_Tree.SCINet_Tree_odd.workingblock.interact.level.psi.4.bias f8 [1]
0	0x3fbf1e20de531b65	0.12155347278449609

blocks1.SCINet_Tree.SCINet_Tree_odd.workingblock.interact.level.P.1.weight f8 [1, 1, 7]
0	0xbf965c24a4ac6fc9	-0.021835873175504426
1	0x3fa745071b6a5620	0.04544851503048286
2	0xbfd0361b76372cf8	-0.2533024458359274
3	0xbfd2999101786b6b	-0.29062295096962626
4	0x3fc8e429ab2d43f2	0.19446297510378902
5	0xbfb806b7d4a8e33d	-0.09385250989806777
6	0xbfc3a41b5ecd05f6	-0.15344564560841406

blocks1.SCINet_Tree.SCINet_Tree_odd.workingblock.interact.level.P.1.bias f8 [1]
0	0xbfca802b489613bf	-0.20703640980005208

blocks1.SCINet_Tree.SCINet_Tree_odd.workingblock.interact.level.P.4.weight f8 [1, 1, 3]
0	0xbfe0a04ed1aaabec	-0.5195688338329751
1	0x3f93b60a86e03030	0.019249119264756753
2	0x3fc2066115f12172	0.14081967898733755

blocks1.SCINet_Tree.SCINet_Tree_odd.workingblock.interact.level.P.4.bias f8 [1]
0	0xbfb6f81b91ed9aa0	-0.08972332298945185

blocks1.SCINet_Tree.SCINet_Tree_odd.workingblock.interact.level.U.1.weight f8 [1, 1, 7]
0	0xbfd5bc634427d48e	-0.3396232762891679
1	0x3fab006f0690b96f	0.05273768382208998
2	0x3fb6bbc989f6bcbe	0.08880290621049178
3	0x3fca92aa53d549e4	0.20760087102333025
4	0x3fab1fde181c6013	0.05297750515291013
5	0x3faedd8e7ac0e65e	0.06028409241157527
6	0x3fd4857f302fb26d	0.32064799981780007

blocks1.SCINet_Tree.SCINet_Tree_odd.workingblock.interact.level.U.1.bias f8 [1]
0	0xbfd8b812531d8447	-0.3862348376915787

blocks1.SCINet_Tree.SCINet_Tree_odd.workingblock.interact.level.U.4.weight f8 [1, 1, 3]
0	0xbfd76b4e6bec1406	-0.36592445887828295
1	0xbfccec47a21fc568	-0.22596068779197798
2	0xbfcf41bbbfc91945	-0.2441935240223733

blocks1.SCINet_Tree.SCINet_Tree_odd.workingblock.interact.level.U.4.bias f8 [1]
0	0xbfce4f9c60e863a9	-0.23680453044724217

blocks1.SCINet_Tree.SCINet_Tree_odd.SCINet_Tree_odd.workingblock.interact.level.phi.1.weight f8 [1, 1, 7]
0	0x3fd1442451ef1fa3	0.2697840500009027
1	0xbfc45b60dab1d7c8	-0.15903864553882685
2	0xbfd2590f7c25f350	-0.28668582080699867
3	0xbfc2c4e57d31d6fc	-0.14663380253812608
4	0xbfa656f2516c61dc	-0.04363209957063294
5	0xbfc9aa4fe9866520	-0.20051001455866757
6	0x3fca6c18777e0d5f	0.20642381510343008

blocks1.SCINet_Tree.SCINet_Tree_odd.SCINet_Tree_odd.workingblock.interact.level.phi.1.bias f8 [1]
0	0x3fb581731b0b66ee	0.08400649462000917

blocks1.SCINet_Tree.SCINet_Tree_odd.SCINet_Tree_odd.workingblock.interact.level.phi.4.weight f8 [1, 1, 3]
0	0x3fdbd6a8f9d50081	0.4349768104330068
1	0xbfd5eaa51a3c33f3	-0.34244659006145567
2	0xbfe046219d484968	-0.5085609504624644

blocks1.SCINet_Tree.SCINet_Tree_odd.SCINet_Tree_odd.workingblock.interact.level.phi.4.bias f8 [1]
0	0xbfe0e75e10fcd0a8	-0.5282430965221652

blocks1.SCINet_Tree.SCINet_Tree_odd.SCINet_Tree_odd.workingblock.interact.level.psi.1.weight f8 [1, 1, 7]
0	0x3feb0095ff2d4b36	0.843821524040641
1	0x3fe1bf0b014a2e30	0.554570677298619
2	0xbfae88decfffdc34	-0.05963798798614342
3	0x3fcf41017db98512	0.24417132033253403
4	0x3fe1b7b3411a1f4a	0.5536743423008172
5	0x3fdc6c70750a8e80	0.44411860875900544
6	0x3fea52103ef85069	0.8225175123102534

blocks1.SCINet_Tree.SCINet_Tree_odd.SCINet_Tree_odd.workingblock.interact.level.psi.1.bias f8 [1]
0	0x3fd3b63178757248	0.3079951931338525

blocks1.SCINet_Tree.SCINet_Tree_odd.SCINet_Tree_odd.workingblock.interact.level.psi.4.weight f8 [1, 1, 3]
0	0xbfc3a034c5e060ef	-0.15332660352647262
1	0xbfcaf2a2beafc2b7	-0.2105296546065085
2	0xbfcaa620b941f058	-0.20819481893329583

blocks1.SCINet_Tree.SCINet_Tree_odd.SCINet_Tree_odd.workingblock.interact.level.psi.4.bias f8 [1]
0	0xbff2c8951c32c806	-1.1739703275202387

blocks1.SCINet_Tree.SCINet_Tree_odd.SCINet_Tree_odd.workingblock.interact.level.P.1.weight f8 [1, 1, 7]
0	0xbfe82442aafa89b8	-0.7544263209750204
1	0xbfe7b4a50853ff6f	-0.740801349893429
2	0xbfd19bac4bf8c5cd	-0.2751265279685782
3	0xbfd858ff2ae4ea09	-0.38043193043600404
4	0x3fa38c64f0c29a33	0.03818049849478591
5	0x3fddfcd5261d104e	0.46855667802833956
6	0x3fec208356f17cff	0.8789688776122658

blocks1.SCINet_Tree.SCINet_Tree_odd.SCINet_Tree_odd.workingblock.interact.level.P.1.bias f8 [1]
0	0xbf9b54ca632ddc7f	-0.026690637877859743

blocks1.SCINet_Tree.SCINet_Tree_odd.SCINet_Tree_odd.workingblock.interact.level.P.4.weight f8 [1, 1, 3]
0	0xbfe9434ee9acc466	-0.7894663394892063
1	0xbfee856e250c0395	-0.9537878726551862
2	0xbff01214c0be7531	-1.0044143227635909

blocks1.SCINet_Tree.SCINet_Tree_odd.SCINet_Tree_odd.workingblock.interact.level.P.4.bias f8 [1]
0	0xbfd11d87228fdee7	-0.26742723822779485

blocks1.SCINet_Tree.SCINet_Tree_odd.SCINet_Tree_odd.workingblock.interact.level.U.1.weight f8 [1, 1, 7]
0	0xbfd6fc0a2a974200	-0.35913328322661187
1	0xbfe72bc764e3761d	-0.7240941019514967
2	0x3fc0d14fc422f2b5	0.131387682695182
3	0x3fc0085de442c5fc	0.1252553333811618
4	0x3fd6b58a33d52362	0.3548303133180096
5	0xbfc2227990347572	-0.14167708913093296
6	0x3fdada4517491c90	0.4195721366308556

blocks1.SCINet_Tree.SCINet_Tree_odd.SCINet_Tree_odd.workingblock.interact.level.U.1.bias f8 [1]
0	0xbfb938b12b5f4199	-0.09852130230797797

blocks1.SCINet_Tree.SCINet_Tree_odd.SCINet_Tree_odd.workingblock.interact.level.U.4.weight f8 [1, 1, 3]
0	0x3fe4c1ce03a98b71	0.6486578055886253
1	0x3fe6e338b45b6ae4	0.7152369997596364
2	0x3fee6eeb2581672d	0.9510398609665792

blocks1.SCINet_Tree.SCINet_Tree_odd.SCINet_Tree_odd.workingblock.interact.level.U.4.bias f8 [1]
0	0xbf912bb3b1de308f	-0.01676827214355164

blocks1.SCINet_Tree.SCINet_Tree_odd.SCINet_Tree_even.workingblock.interact.level.phi.1.weight f8 [1, 1, 7]
0	0xbfa7055540157532	-0.044962562630397676
1	0xbfb66a2661cd89f6	-0.08755721938863545
2	0xbf989d3a7badb987	-0.024037278937095088
3	0xbfd29696a16e17c1	-0.290441186567815
4	0x3fc82b0f496129c9	0.1888140781687311
5	0xbfab483e29640291	-0.053285543968745526
6	0xbfca66494d23f09b	-0.20624653116818056

blocks1.SCINet_Tree.SCINet_Tree_odd.SCINet_Tree_even.workingblock.interact.level.phi.1.bias f8 [1]
0	0xbfd0f5bb3e8dcc07	-0.26499825581339603

blocks1.SCINet_Tree.SCINet_Tree_odd.SCINet_Tree_even.workingblock.interact.level.phi.4.weight f8 [1, 1, 3]
0	0xbfdc7e2606383af0	-0.4451994953860057
1	0xbf92ae39daad87b7	-0.018242744419133063
2	0x3f21c67800b7099b	0.00013561453702777286

blocks1.SCINet_Tree.SCINet_Tree_odd.SCINet_Tree_even.workingblock.interact.level.phi.4.bias f8 [1]
0	0xbfe1dfb201b2eb23	-0.5585565598661087

blocks1.SCINet_Tree.SCINet_Tree_odd.SCINet_Tree_even.workingblock.interact.level.psi.1.weight f8 [1, 1, 7]
0	0x3faf14c8a3586831	0.060705442371002845
1	0xbfd22ca290321e97	-0.28397430497759885
2	0xbfbd3d70b5856c91	-0.11421875411672235
3	0xbfda08520ece8bac	-0.40675784536341086
4	0xbf9cfc4aa3133e10	-0.028306165889089796
5	0x3fd7daffacab7985	0.372741621611475
6	0x3fb34d8f12040cb0	0.07540220441665002

blocks1.SCINet_Tree.SCINet_Tree_odd.SCINet_Tree_even.workingblock.interact.level.psi.1.bias f8 [1]
0	0xbfc14d97a845f026	-0.13518043247666006

blocks1.SCINet_Tree.SCINet_Tree_odd.SCINet_Tree_even.workingblock.interact.level.psi.4.weight f8 [1, 1, 3]
0	0xbfd5e0d0ce6be11c	-0.3418466583093662
1	0x3fe08c2cba058860	0.5171111710772145
2	0x3fddb751b9ac6333	0.4643139184204756

blocks1.SCINet_Tree.SCINet_Tree_odd.SCINet_Tree_even.workingblock.interact.level.psi.4.bias f8 [1]
0	0x3fb8970302e89ca0	0.09605425663959233

blocks1.SCINet_Tree.SCINet_Tree_odd.SCINet_Tree_even.workingblock.interact.level.P.1.weight f8 [1, 1, 7]
0	0xbfd944fa6f783dea	-0.3948350990840185
1	0xbfd6ab3de822c36a	-0.3542017714453808
2	0xbfca2589e87c1180	-0.20427059032239114
3	0xbfcaf08eb2461fd0	-0.21046622948438065
4	0x3f6289108bca524b	0.002262623135104646
5	0x3fddb9fa71484bee	0.4644762140534898
6	0x3fe969d54c1f93e8	0.794169090917987

blocks1.SCINet_Tree.SCINet_Tree_odd.SCINet_Tree_even.workingblock.interact.level.P.1.bias f8 [1]
0	0x3f908b76b660f3d7	0.01615701187278148

blocks1.SCINet_Tree.SCINet_Tree_odd.SCINet_Tree_even.workingblock.interact.level.P.4.weight f8 [1, 1, 3]
0	0xbfe5769907a52c86	-0.6707272672005196
1	0xbfea4b000aab4662	-0.8216552933101406
2	0xbfef792f86536060	-0.9835431693600292

blocks1.SCINet_Tree.SCINet_Tree_odd.SCINet_Tree_even.workingblock.interact.level.P.4.bias f8 [1]
0	0x3fc11f3f8efb7deb	0.13376612168848054

blocks1.SCINet_Tree.SCINet_Tree_odd.SCINet_Tree_even.workingblock.interact.level.U.1.weight f8 [1, 1, 7]
0	0x3fc469a57131da55	0.15947406794630817
1	0x3fbe93ea44110a98	0.11944450532704776
2	0x3fdadfe2a5130b52	0.41991487618013423
3	0x3fdf5bf07c6c9649	0.489986535556771
4	0xbf9ccb5ef1a5cde2	-0.028119548319819894
5	0xbfda7b0d8b87aafb	-0.4137605536076731
6	0xbfe763011c3ceb8f	-0.7308354903719748

blocks1.SCINet_Tree.SCINet_Tree_odd.SCINet_Tree_even.workingblock.interact.level.U.1.bias f8 [1]
0	0x3f95c3c91969bacb	0.021254675079428503

blocks1.SCINet_Tree.SCINet_Tree_odd.SCINet_Tree_even.workingblock.interact.level.U.4.weight f8 [1, 1, 3]
0	0xbfd673e5b93a1585	-0.35082381332934914
1	0xbfdc22dec78dbcc4	-0.43962831008589043
2	0xbfdeb1e2f5e52166	-0.4796073342627295

blocks1.SCINet_Tree.SCINet_Tree_odd.SCINet_Tree_even.workingblock.interact.level.U.4.bias f8 [1]
0	0x3fac7ab0684433bd	0.05562354347976093

blocks1.SCINet_Tree.SCINet_Tree_even.workingblock.interact.level.phi.1.weight f8 [1, 1, 7]
0	0xbfc9b75a38beab34	-0.20090797205679112
1	0x3fc9f5f63ea331f9	0.20281866129370466
2	0x3fabc2f6ce927ccc	0.054221832958540966
3	0xbfdd7c77d3984cbb	-0.4607219282490395
4	0xbfdef3d742e8fa3b	-0.48363286527811383
5	0xbfdd856b0324f005	-0.4612681894975597
6	0xbfe7cf70a9d1ff4e	-0.7440722767641803

blocks1.SCINet_Tree.SCINet_Tree_even.workingblock.interact.level.phi.1.bias f8 [1]
0	0xbfd97a1fed0e4ac7	-0.3980789008138967

blocks1.SCINet_Tree.SCINet_Tree_even.workingblock.interact.level.phi.4.weight f8 [1, 1, 3]
0	0x3ff19519a0697322	1.0989013925638536
1	0x3fcb79fc3b51b458	0.2146601953167273
2	0x3f7693d8e265a46a	0.005512091831726721

blocks1.SCINet_Tree.SCINet_Tree_even.workingblock.interact.level.phi.4.bias f8 [1]
0	0xbfe6683042220127	-0.7002183238655889

blocks1.SCINet_Tree.SCINet_Tree_even.workingblock.interact.level.psi.1.weight f8 [1, 1, 7]
0	0xbfb89e7c4308075a	-0.09616829525478235
1	0xbfe441791cdc3096	-0.6329923213647983
2	0xbfeda9a8caed0b0c	-0.9269603694341142
3	0xbfe9a0bd34de0747	-0.8008714706959176
4	0xbfd195b49dac721b	-0.2747623004704864
5	0x3fb9ae907239cbb1	0.10031988896098089
6	0x3f9d76f0b7fbdaef	0.028774033765297465

blocks1.SCINet_Tree.SCINet_Tree_even.workingblock.interact.level.psi.1.bias f8 [1]
0	0xbfc0baa7644878c4	-0.13069622418055904

blocks1.SCINet_Tree.SCINet_Tree_even.workingblock.interact.level.psi.4.weight f8 [1, 1, 3]
0	0x3fd6d4d2faca2ff5	0.3567397545928082
1	0x3fd706abf502c2b4	0.3597822086986
2	0x3fe31eb93e89b826	0.5975004407353068

blocks1.SCINet_Tree.SCINet_Tree_even.workingblock.interact.level.psi.4.bias f8 [1]
0	0xbfd111ebdece3041	-0.2667188335260598

blocks1.SCINet_Tree.SCINet_Tree_even.workingblock.interact.level.P.1.weight f8 [1, 1, 7]
0	0x3fd1917202c0823c	0.2745022799372554
1	0xbfd71f13af8c585e	-0.3612717832887763
2	0x3fb6443f07dd7588	0.08697885458010124
3	0xbfc958f925a07ead	-0.19802774750950417
4	0x3fd50b7b55f6f866	0.3288257922648711
5	0xbfc6dcbd444ecfc4	-0.17861142955155007
6	0xbfb4055e4002fdeb	-0.07820691168580367

blocks1.SCINet_Tree.SCINet_Tree_even.workingblock.interact.level.P.1.bias f8 [1]
0	0x3f98218b866f654f	0.02356546409632659

blocks1.SCINet_Tree.SCINet_Tree_even.workingblock.interact.level.P.4.weight f8 [1, 1, 3]
0	0x3fd4667ce9bcbdeb	0.3187553675261074
1	0x3fa04a50c397f750	0.03181698215119744
2	0x3fcb07d85d34c27e	0.2111769156558871

blocks1.SCINet_Tree.SCINet_Tree_even.workingblock.interact.level.P.4.bias f8 [1]
0	0x3fde31419e755310	0.4717563674396823

blocks1.SCINet_Tree.SCINet_Tree_even.workingblock.interact.level.U.1.weight f8 [1, 1, 7]
0	0xbf9d1f85c99fcdec	-0.02844056170574831
1	0x3fbe841d2d4101bf	0.11920339922745081
2	0x3fe0ad45d03ab905	0.5211514536838712
3	0xbfc4ec648eaebe05	-0.1634641358082122
4	0x3f9e1fc48da8b0e0	0.029418059488464432
5	0x3fd4d24f6447d458	0.32533631127382057
6	0xbfc15581e63099ba	-0.13542197932947692

blocks1.SCINet_Tree.SCINet_Tree_even.workingblock.interact.level.U.1.bias f8 [1]
0	0xbfd75ce76e5f605c	-0.365045411859233

blocks1.SCINet_Tree.SCINet_Tree_even.workingblock.interact.level.U.4.weight f8 [1, 1, 3]
0	0xbfd6cb30199b0ad2	-0.3561516046576517
1	0xbfe54e00888d6c40	-0.665771738723727
2	0xbfda69f5b9ba5790	-0.4127172769307146

blocks1.SCINet_Tree.SCINet_Tree_even.workingblock.interact.level.U.4.bias f8 [1]
0	0x3fd685dc4980da50	0.351920196323964

blocks1.SCINet_Tree.SCINet_Tree_even.SCINet_Tree_odd.workingblock.interact.level.phi.1.weight f8 [1, 1, 7]
0	0x3f9aee9434381de3	0.026300731360633278
1	0x3fd3e69783eb4fea	0.3109492100022623
2	0x3fd4a77f2eff2e1e	0.3227231940224743
3	0x3fd74bc74c30cf06	0.36400015297407184
4	0x3fe08a47e1c23173	0.5168799790713322
5	0x3fe3ab905d4d2219	0.614692861775498
6	0x3f998e11ae337d71	0.024956012971299516

blocks1.SCINet_Tree.SCINet_Tree_even.SCINet_Tree_odd.workingblock.interact.level.phi.1.bias f8 [1]
0	0x3fd7da80d13429d9	0.3727113764768127

blocks1.SCINet_Tree.SCINet_Tree_even.SCINet_Tree_odd.workingblock.interact.level.phi.4.weight f8 [1, 1, 3]
0	0xbfe2c3e0fa98040a	-0.5864109892282852
1	0xbfd937395588853d	-0.3939956031118362
2	0xbfeb55a3376294a5	-0.8542038041820389

blocks1.SCINet_Tree.SCINet_Tree_even.SCINet_Tree_odd.workingblock.interact.level.phi.4.bias f8 [1]
0	0x3fae18a005b398b0	0.058781624504079644

blocks1.SCINet_Tree.SCINet_Tree_even.SCINet_Tree_odd.workingblock.interact.level.psi.1.weight f8 [1, 1, 7]
0	0x3fdc31e07c94a2c2	0.4405442444427018
1	0x3fb7fb6a28df145f	0.09368003366314913
2	0x3fe2d95f9229d44e	0.5890348295930694
3	0xbfa79e221922fe2f	-0.04612833554119466
4	0xbfc7fed4e9141132	-0.18746434574871668
5	0xbfcf8de6d7eaa307	-0.24651799719620035
6	0x3fdd547b4959b556	0.4582813469231345

blocks1.SCINet_Tree.SCINet_Tree_even.SCINet_Tree_odd.workingblock.interact.level.psi.1.bias f8 [1]
0	0x3fc8f5c5886088cd	0.1950003543761966

blocks1.SCINet_Tree.SCINet_Tree_even.SCINet_Tree_odd.workingblock.interact.level.psi.4.weight f8 [1, 1, 3]
0	0xbfc56e7a17a7f292	-0.1674339881427796
1	0xbfd1765a701856ef	-0.2728487105062944
2	0xbfe0eb2f6a5a5a73	-0.5287091328817283

blocks1.SCINet_Tree.SCINet_Tree_even.SCINet_Tree_odd.workingblock.interact.level.psi.4.bias f8 [1]
0	0x3f91d39b4fb8f122	0.01740877794348806

blocks1.SCINet_Tree.SCINet_Tree_even.SCINet_Tree_odd.workingblock.interact.level.P.1.weight f8 [1, 1, 7]
0	0x3fd90f099c2fef66	0.3915428185716706
1	0x3fe135bc279453e0	0.5378094456706286
2	0x3fc6582e242b84db	0.17456604734528622
3	0x3fd694a241919912	0.352821888000464
4	0x3fd23ab04bf68fc8	0.284832071478601
5	0x3fe30340a4859920	0.5941470349614839
6	0xbfc5beb9fc7be9d8	-0.16988301113435855

blocks1.SCINet_Tree.SCINet_Tree_even.SCINet_Tree_odd.workingblock.interact.level.P.1.bias f8 [1]
0	0xbfc2a2b25deff8bb	-0.14559011065279556

blocks1.SCINet_Tree.SCINet_Tree_even.SCINet_Tree_odd.workingblock.interact.level.P.4.weight f8 [1, 1, 3]
0	0x3fdee017ac17aa8f	0.48242751890089947
1	0x3fdfae96b2d80756	0.4950310465356912
2	0x3fd4883fd52b1f23	0.32081600014906736

blocks1.SCINet_Tree.SCINet_Tree_even.SCINet_Tree_odd.workingblock.interact.level.P.4.bias f8 [1]
0	0xbfbb909aa41a05ff	-0.10767523294818913

blocks1.SCINet_Tree.SCINet_Tree_even.SCINet_Tree_odd.workingblock.interact.level.U.1.weight f8 [1, 1, 7]
0	0xbfe259a57a38fb9c	-0.5734431636009165
1	0xbfd18b0b681a7db8	-0.2741116062770419
2	0xbfb38ed9b2f19feb	-0.0763984739184022
3	0x3fe050e432c3db12	0.5098744384293659
4	0x3fd46c8e83fdaf63	0.31912577523939073
5	0x3fe200e4f6265ff5	0.5626091773619907
6	0x3fe013fd3db784f3	0.5024400906951584

blocks1.SCINet_Tree.SCINet_Tree_even.SCINet_Tree_odd.workingblock.interact.level.U.1.bias f8 [1]
0	0x3f818aca2c623e70	0.008565501670346282

blocks1.SCINet_Tree.SCINet_Tree_even.SCINet_Tree_odd.workingblock.interact.level.U.4.weight f8 [1, 1, 3]
0	0xbfe35b0a289cf5b5	-0.6048632424569208
1	0xbfd8779dd0d89044	-0.382300809813618
2	0xbfc6cd0226b81b16	-0.17813135996421953

blocks1.SCINet_Tree.SCINet_Tree_even.SCINet_Tree_odd.workingblock.interact.level.U.4.bias f8 [1]
0	0x3fcba183d14b47d8	0.21586654395519989

blocks1.SCINet_Tree.SCINet_Tree_even.SCINet_Tree_even.workingblock.interact.level.phi.1.weight f8 [1, 1, 7]
0	0x3fb09c0950acc4ca	0.0648809263191367
1	0xbfc94de70cae8078	-0.19768989676686366
2	0xbfa3d74399621156	-0.038751709435959
3	0x3fd389df7dd0cd98	0.30529010092433273
4	0xbf935a98ab852f1b	-0.018900285214200268
5	0xbfac7b48a2e4e873	-0.05562808025793311
6	0x3fd571620aeb7fdc	0.3350453478469697

blocks1.SCINet_Tree.SCINet_Tree_even.SCINet_Tree_even.workingblock.interact.level.phi.1.bias f8 [1]
0	0xbfe0bbd1e5b60cdc	-0.5229272352738934

blocks1.SCINet_Tree.SCINet_Tree_even.SCINet_Tree_even.workingblock.interact.level.phi.4.weight f8 [1, 1, 3]
0	0xbfed6f4b8215cf2e	-0.9198358097769181
1	0xbff110a7116a6dcb	-1.066565578489519
2	0xbff10a9c9191c4a3	-1.0650907217316579

blocks1.SCINet_Tree.SCINet_Tree_even.SCINet_Tree_even.workingblock.interact.level.phi.4.bias f8 [1]
0	0x3fc5cba015c7b636	0.17027665198786374

blocks1.SCINet_Tree.SCINet_Tree_even.SCINet_Tree_even.workingblock.interact.level.psi.1.weight f8 [1, 1, 7]
0	0xbfdc94dcfbe5cce9	-0.44658588981037767
1	0xbfa80edf30a302d8	-0.04698846310339427
2	0x3fabaa8e6bcfcff8	0.05403561655103312
3	0xbfc12356712b20d1	-0.13389091993145155
4	0x3fd6e863f9ee2b7c	0.35793399245510904
5	0x3fcce491612be6bb	0.22572533840848572
6	0x3fc9ff90e2e686cd	0.20311175421834662

blocks1.SCINet_Tree.SCINet_Tree_even.SCINet_Tree_even.workingblock.interact.level.psi.1.bias f8 [1]
0	0xbfd84f46bb6443c8	-0.3798386411663697

blocks1.SCINet_Tree.SCINet_Tree_even.SCINet_Tree_even.workingblock.interact.level.psi.4.weight f8 [1, 1, 3]
0	0xbfa6cf43a4bedb98	-0.04455005060247358
1	0x3fe1ccbfa1db31c5	0.5562437211279351
2	0x3fe61dd904efe87e	0.6911435219219724

blocks1.SCINet_Tree.SCINet_Tree_even.SCINet_Tree_even.workingblock.interact.level.psi.4.bias f8 [1]
0	0xbfeaaa3a167935d1	-0.8332796515402895

blocks1.SCINet_Tree.SCINet_Tree_even.SCINet_Tree_even.workingblock.interact.level.P.1.weight f8 [1, 1, 7]
0	0x3fd261ae26b6b96f	0.2872119310440188
1	0x3fd61c16277ea450	0.345464266366041
2	0x3fb2542c43874577	0.07159687660830182
3	0xbfd0aeb23cec53dc	-0.26066261243368927
4	0xbfca324611d0a245	-0.20465923185226323
5	0xbfd4399b68139ef5	-0.316016055714939
6	0x3f80bf50461bbc94	0.008177401675736364

blocks1.SCINet_Tree.SCINet_Tree_even.SCINet_Tree_even.workingblock.interact.level.P.1.bias f8 [1]
0	0x3fa1bd192b07e36f	0.034645830633912016

blocks1.SCINet_Tree.SCINet_Tree_even.SCINet_Tree_even.workingblock.interact.level.P.4.weight f8 [1, 1, 3]
0	0x3fde4742c9136158	0.47309941898631314
1	0x3feecd0e5ec12660	0.9625312662767094
2	0x3fed7cf18e3c5efb	0.9215019014399951

blocks1.SCINet_Tree.SCINet_Tree_even.SCINet_Tree_even.workingblock.interact.level.P.4.bias f8 [1]
0	0x3fe0b85b1b57ea04	0.522504380612475

blocks1.SCINet_Tree.SCINet_Tree_even.SCINet_Tree_even.workingblock.interact.level.U.1.weight f8 [1, 1, 7]
0	0x3fdf2f993eac4cef	0.4872801887551778
1	0x3fa8740b981f73f6	0.04776035530060334
2	0xbfd0758b90d43b55	-0.25717438834629053
3	0x3fb99649313a3744	0.09994943096009218
4	0x3fbb093f31eaf9d6	0.10560984581659424
5	0xbfce88a86a786673	-0.23854546736474766
6	0xbfd05674cb5a1b0e	-0.255276869378961

blocks1.SCINet_Tree.SCINet_Tree_even.SCINet_Tree_even.workingblock.interact.level.U.1.bias f8 [1]
0	0xbfc54eeed26dba2d	-0.16647134089312612

blocks1.SCINet_Tree.SCINet_Tree_even.SCINet_Tree_even.workingblock.interact.level.U.4.weight f8 [1, 1, 3]
0	0x3fde7c324515d842	0.4763303446446835
1	0x3fd805961d605e5d	0.37534096592705685
2	0x3fd503e3aae63560	0.32836238564853737

blocks1.SCINet_Tree.SCINet_Tree_even.SCINet_Tree_even.workingblock.interact.level.U.4.bias f8 [1]
0	0xbfcf1672c25edb6e	-0.24287256708859267

projection1.weight f8 [48, 96, 1]
0	0x3f605cf50f86decd	0.001997450479588858
1	0xbf6c7bdaa8aa2650	-0.00347702700429834
2	0x3f865921e9f5f58b	0.010912194206634826
3	0x3f687d817d4d7d8b	0.002989533337696753
4	0xbf816846f7a085f8	-0.008499674255349796
5	0xbf3b3b2733602235	-0.00041551310585011557
6	0x3f8fb0c1348d71ce	0.015473851600909774
7	0xbf9761b3333704b1	-0.02283363342371975
8	0x3f786776e7fff861	0.005958046414887703
9	0xbf5c32c5f8ea7602	-0.0017210896800529123
10	0x3f76575b2391ba13	0.005454402934545149
11	0x3f57d50fdf0e12f8	0.001454606532406531
12	0xbf7ec7ea0629d5f9	-0.007514871746584267
13	0xbf4d23eb4f5f2deb	-0.0008892916655382476
14	0x3f6f5fb046e536c1	0.003829807558907245
15	0xbf7b34ad9894c855	-0.006642034635023182
16	0x3f82c6cc05f9cc3a	0.009168237621656517
17	0x3f4a8f8c674c8b26	0.000810569340135768
18	0x3f7d62e0cc0bcb25	0.007174375642295759
19	0x3f83b90b981d213c	0.009630289630550785
20	0xbf900614f804ca6e	-0.015648200643406822
21	0x3f606e4d2053c9e0	0.0020057207462908927
22	0x3f999eac48ad4890	0.025019351898045772
23	0xbf976137dcaa27c5	-0.022831795543005535
24	0x3f85767bd748a121	0.010479896075665853
25	0xbf69587223a4ac4c	-0.003093932083307693
26	0xbf6aa6ef36ac9482	-0.003253428663259118
27	0x3f88b7e84c6f2798	0.01206952555903111
28	0xbf8936323f9f34ca	-0.01231040245684269
29	0x3f69129de30807c1	0.0030606349685066985
30	0x3f8e96850e84e8b0	0.014935531144704889
31	0xbf91882065416e07	-0.017120844059133968
32	0x3f8829a9e8c17220	0.0117982172161471
33	0xbf673af68f3dee36	-0.002835732995604602
34	0x3f7b7a6fe5a2d041	0.006708561990468155
35	0x3f8071559e0c89ed	0.008028668294689257
36	0xbf80dd613608c1ec	-0.008234748326771922
37	0xbf48453436ad7b64	-0.0007406716298240354
38	0x3fa04857e674264f	0.03180193603664049
39	0xbfa667a189259979	-0.04375939177662053
40	0x3f8f538dd56f4509	0.015296085430153388
41	0xbf6e014beeedabdf	-0.0036627276489773343
42	0x3f763d93475101f0	0.0054298165387653835
43	0x3f946ddce024a7f5	0.019950343304266444
44	0xbf910e8dc50d0934	-0.016657080795320314
45	0x3f71b1e82f04209f	0.004320055930527782
46	0x3f76d762014d054d	0.0055764988254066285
47	0xbf991211d70518fc	-0.0244829928863277
48	0x3f802dc502d6450c	0.007899798535421464
49	0xbf6d8bd576d8abd0	-0.0036067170356281833
50	0x3f60902ae10dda90	0.0020218694193617284
51	0x3f9155e777bb24b6	0.016929260905077036
52	0xbf8782e133233fec	-0.011480101941202712
53	0x3f1b83d0d2a48f52	0.00010496103337636939
54	0x3f93c60a8513ed49	0.01931015431635544
55	0xbfa437f4eea8cd9b	-0.039489416249490726
56	0x3f90ea68d0d3c7df	0.016519201036267247
57	0xbf81301594468d01	-0.00839249476195514
58	0x3f8243bb039ed84a	0.008918248222340126
59	0x3f8063852cf2d54b	0.008002319750043304
60	0xbf81d94533e8d336	-0.008715191504145996
61	0xbf68ff71849f3378	-0.003051492419194831
62	0x3f7bf9acecce53cf	0.006829905975696839
63	0xbf900dcada37fabe	-0.015677613801012617
64	0x3f8a9c5fc6e680c7	0.01299357248063905
65	0xbf80bd0008f72a6a	-0.00817298915253169
66	0x3f20c63669745606	0.00012797750671526847
67	0x3f9863bf25ce0d47	0.023818003351619123
68	0xbf86cad8a967faca	-0.011129086179605525
69	0x3f66aeaa325d659a	0.0027688335566550927
70	0x3f7c27fccf56228c	0.006874072588637713
71	0xbf9cf8a5eb54753e	-0.02829226731147582
72	0x3f87b55c0df02449	0.01157638471160473
73	0xbf8314541d97d390	-0.00931611743269814
74	0xbf46ad0c79386b9d	-0.0006920157342763415
75	0x3fac6cb26d1a3cb4	0.05551679212396135
76	0xbf68d14621e1962c	-0.0030294770977430576
77	0x3f6e335dd1c3e88a	0.0036866028223104296
78	0x3f9c2b49e556b03f	0.02750888311645405
79	0xbf9b2d7b1259c267	-0.026540682787926786
80	0xbf7731bbc46062a6	-0.005662663903443976
81	0xbf73f3b50ada9ff2	-0.004871089169377273
82	0xbf8054b45e861b2f	-0.007974061140669867
83	0x3fa7286fac8da845	0.04523037892688867
84	0xbf9e0494845feb03	-0.02931434686613966
85	0xbf832dc8b2597367	-0.009364669745247146
86	0x3f967cdcb5db302f	0.021960686301824402
87	0xbfa75b914c7778f7	-0.045620480140984236
88	0x3f93c3287d6ddc2e	0.019299156814181533
89	0xbf94d67a13d1ec8d	-0.020349414310186154
90	0xbf87cb142de43558	-0.011617810869689535
91	0x3fb6dd7ccd4f8830	0.08931713116138051
92	0x3f823af56d117557	0.008901517287251677
93	0x3f7b530188f35887	0.006670957561445096
94	0x3fd2805191a88948	0.28908194755981187
95	0x3fdde945c119fed1	0.46736282212803554
96	0xbf7e3a008cc18551	-0.0073795339086200765
97	0xbf525311c69da908	-0.0011184381096094893
98	0xbf1e421e4275cb50	-0.00011542615594865619
99	0xbf8249d6678e2dba	-0.008929896388301429
100	0xbf8a713f2699b9ca	-0.01291131340550757
101	0xbf69fc9dce5cdec4	-0.0031722147131424145
102	0x3f86e1974dda1a64	0.011172468245843344
103	0xbf8cb15322719be3	-0.014010095108643433
104	0x3f80a49888462858	0.00812644163012892
105	0x3f6622bf00ca6f02	0.002702115109355919
106	0x3f75c92f773bdbe6	0.005318818486322185
107	0x3f640190816fe3d7	0.0024421522498383297
108	0xbf7a00fd9ea664f6	-0.006348601057106542
109	0x3f6bfb95e04de85c	0.003415863730364994
110	0x3f781d63b6d90cd4	0.005887403019701771
111	0xbf80967f79311ecc	-0.008099552045805501
112	0x3f5c638910f4fa6d	0.001732715467212788
113	0x3f5de2832c2abcf2	0.0018240242940626397
114	0x3f6dbb6c684541db	0.0036294095354281026
115	0x3f84a7f018c8fa61	0.010085941082363438
116	0xbf8225c06e68bd61	-0.008861068124217554
117	0xbf6e1097b7d65923	-0.0036700213665411693
118	0x3f840b17c6ab69d5	0.009786782980360545
119	0xbf919e46624baee5	-0.017205333470811452
120	0x3f7a5130c000cdce	0.006425085477576654
121	0x3f6401efba2ec95b	0.002442329614006739
122	0xbf4f7adcc4d17291	-0.0009606912586935403
123	0x3f8212c448053fcc	0.00882485718526018
124	0xbf8ccd8d78ad37e7	-0.014063935513743032
125	0x3f741338cbb0e702	0.00490114389236296
126	0x3f955c56b6a8db25	0.020860056780487874
127	0xbf98eabc469e9748	-0.024332944689056363
128	0x3f8d04565ef5ae1f	0.014168429158153249
129	0xbf76408785b3e7b3	-0.005432633766071437
130	0x3f7c95cd372afca8	0.006978799460454578
131	0x3f71b56be11d879a	0.004323407558190962
132	0xbf6b524ec65e6700	-0.00333514581411698
133	0x3f502df5bba632b4	0.0009875201927542045
134	0x3f90a33fe7505d8c	0.01624774789169474
135	0xbf975b7ee25baf82	-0.022809965673260553
136	0x3f8ce01b08eb8044	0.014099322519030129
137	0xbf4618373413a317	-0.0006742734477969994
138	0xbf705dc476c0d77a	-0.0039956735964120586
139	0x3f7e7d93fef2d812	0.007443979367215208
140	0xbf8e2760c2cfbdb8	-0.014723545022177528
141	0xbf56a1bd11784e3d	-0.0013813349122572393
142	0x3f8e841298aac505	0.01490034607317848
143	0xbf9c9480d847817f	-0.027910245133058616
144	0x3f938d3d471c6952	0.01909347292448988
145	0xbf7c7a26a2791f36	-0.006952429691928155
146	0x3f865311c9e9d104	0.010900629972845362
147	0x3f901abcc9d560f2	0.015726995295467235
148	0xbf7f0e372f8fdc27	-0.007581916398513611
149	0x3f77a40f20f0cb6c	0.0057716933215939785
150	0x3f90524635e695ee	0.015938851394499957
151	0xbfa27826082749c9	-0.03607291078118952
152	0x3f5223ff60b947e2	0.0011072153019040455
153	0xbf8206951117480d	-0.008801617225717729
154	0xbf844e4498ae0b29	-0.009914909276408661
155	0x3f81e5df41211885	0.00873922746189871
156	0xbf895ecbdba194e1	-0.012387840881454117
157	0xbf80dac20c32d5ab	-0.008229747769614123
158	0x3f84153a20b53709	0.009806112406888017
159	0xbf96c90d590f78a1	-0.02225132804948571
160	0x3f80a389e690ce6a	0.008124425267033792
161	0xbf777793c64c0d00	-0.005729272121928419
162	0x3f8754032ad9c5ee	0.011390709634016862
163	0x3f9859b79ba9bd75	0.023779744029920964
164	0xbf72a74c7fac513f	-0.004554079840790869
165	0x3f76f527e65f7b96	0.00560489259620924
166	0x3f76b41fe8121ff0	0.005542873988026983
167	0xbfa1009e3eb5543c	-0.03320784106714611
168	0xbf79eb8e38ca38cd	-0.006328158906980086
169	0x3f4285e73ffccc95	0.0005652789259102004
170	0x3f5f96c7dc026988	0.0019280387641972003
171	0x3fa0e5335c83da40	0.03299866203626722
172	0xbf7d9ff7193c399d	-0.007232632855233592
173	0xbf7861a06e91fcaa	-0.005952479064148234
174	0x3fa7b393c62ef4c2	0.04629194063407162
175	0xbf90c534371d470a	-0.016377273429788487
176	0x3f5826d2e3b6ff4c	0.0014741000621682652
177	0xbf92313cc6f8a80a	-0.017765950817342037
178	0x3f647788d2e02109	0.002498404725887697
179	0x3fa4189ed5a909b1	0.03925033910902032
180	0xbf9c34205882a5b3	-0.027542596246950612
181	0xbf6c8e59142c2240	-0.0034858455486566353
182	0x3f88d510b3bc7ca2	0.012125139699092739
183	0xbf93b3e11dea1459	-0.01924087281306117
184	0xbf85c638959a7cfb	-0.010631982865844316
185	0xbf932954d4edee64	-0.018712354179554316
186	0xbf4040fd9e9bd5a2	-0.0004960287453445354
187	0x3fa45b8241cf2278	0.039760656865444
188	0x3faa6e12ce7bbd94	0.05162104387806746
189	0x3f92e02c4fc3b481	0.018433277481495928
190	0x3fd527f3aa6f43bb	0.3305634655380875
191	0x3fd986905b81a749	0.39883812843492145
192	0xbf744e0c55f19466	-0.0049572450508082785
193	0xbf5c051ecf5b05a0	-0.0017102051619278594
194	0x3f7f3b04570c1781	0.007624642327533127
195	0xbf4a490cfe1a7976	-0.0008021653595340756
196	0xbf7cba1141445a98	-0.0070133852025465945
197	0xbf31315ef40099fa	-0.0002623421496558417
198	0x3f886c16d07abe67	0.011924913632667967
199	0xbf95386c3537d5e8	-0.020723047969985503
200	0x3f7367d67282fc1d	0.0047376992080776755
201	0x3f555e0948e71303	0.0013041582748069553
202	0x3f6f535800a60cb0	0.003823921089123404
203	0x3f86d1a4308cf4e2	0.011142046672484477
204	0xbf49daff359ad53b	-0.0007890459193819263
205	0x3f756c59ea774866	0.005230284913937044
206	0x3f800b1cd817467c	0.007833695740291129
207	0xbf87dab576b03690	-0.011647622761326276
208	0x3f8ea77a7e9ba48a	0.01496787737728968
209	0xbf81916b70f8d061	-0.008578147301797569
210	0x3f829b6cca492c71	0.009085512088083033
211	0xbf6385cc524af992	-0.0023831358579108975
212	0xbf8e1ab04bdae78e	-0.01469934207431203
213	0xbf6b45b729571404	-0.003329141366267498
214	0x3f88da64c3c17e96	0.012135302757257532
215	0xbf90c7f98ac9e33d	-0.016387843223557786
216	0x3f882d953d5d64fc	0.011805692610936884
217	0x3f33199f16b030a0	0.0002914441490140616
218	0x3f611897c4ed0981	0.0020869220965391015
219	0x3f829b88dd2a71a4	0.009085721253818964
220	0xbf722bd7632743c2	-0.004436341625891184
221	0xbf38d558262561b4	-0.0003789272506274047
222	0x3f97772dcf6eb6b2	0.022915569101022278
223	0xbf9bdd4e1d8591d8	-0.027211399604668646
224	0x3f8fb6c5cab1e503	0.015485329864747493
225	0xbf66fdcc266d3605	-0.0028065669352261868
226	0xbf56b9b0f6528044	-0.0013870456835221182
227	0x3f71d97680bdeb48	0.004357779409356173
228	0xbf7941fec5128bc0	-0.006166453547083728
229	0x3f68e4a4d20a8132	0.003038713374124446
230	0x3f903c573eaaae3a	0.01585518188464461
231	0xbf984b898d813592	-0.023725651990664405
232	0x3f8a525e1e3aa6f3	0.012852416322249626
233	0xbf59f75ce19c6762	-0.0015848547977328144
234	0x3f74212ec3cc965c	0.004914457965048049
235	0x3f8061bb3e3b865a	0.007998907887159113
236	0xbf8d1d7676dfd491	-0.014216351988560557
237	0xbf6eb6f709195140	-0.0037493538773480106
238	0x3f79a2d28f88aeee	0.006258795263913914
239	0xbf98e1eac5f7abdd	-0.02429930527970813
240	0x3f4239a8c47001db	0.0005561899241684447
241	0xbf4c7479c638776a	-0.0008683771706647751
242	0x3f71d9f4e2f3c2d3	0.004358250225082033
243	0x3f7546587f03f625	0.0051940400010131215
244	0xbf823e54d03d537a	-0.00890795002457322
245	0xbf41de8e8cbab33a	-0.0005453296702931717
246	0x3f90ffaeb529de4d	0.016600351149888493
247	0xbf7a03c35222655c	-0.00635124489976965
248	0xbf7821a500428b25	-0.005891460929123214
249	0xbf719fcf58ccf0a9	-0.00430279726861841
250	0x3f841e53096a8cb6	0.009823464131221687
251	0x3f878b351778ddd4	0.011495985773861607
252	0xbf4a634f15212eea	-0.0008052955765917834
253	0x3f778ab41b60f8b8	0.005747512381331692
254	0x3f8f836a30cd43ab	0.015387372602761426
255	0xbf8f57f0722fe182	-0.015304449543678048
